script/logs/dome_held/model/best/online_critic.pth (torch, 187154 bytes, 12 tensors)

Q1.head.0.weight f4 [64, 144]
000000 64 b4 66 bd 7e be 60 3e be 87 96 bf e4 d6 fd be
       -0.056324378 0.21947667 -1.1760175 -0.4957801
000010 a2 8a 37 be 25 8d 16 bf 18 dc 1b 3e a8 a1 9c 3d
       -0.17923978 -0.5880912 0.15220678 0.07648021
000020 a5 99 2f 3f 52 4e 8b bf 78 e3 78 3e e4 4b 91 be
       0.6859382 -1.0883276 0.24305522 -0.28378212
000030 0d 53 e7 be c3 ea 27 bf 1d ac be bd d2 57 03 be
       -0.4518055 -0.6559259 -0.09310172 -0.1282647
000040 ea 7e 2f bf 4b 5b 8a be f8 b9 9f 3e 2e 80 43 3e
       -0.6855303 -0.27022776 0.3119657 0.19091865
000050 a8 63 ba 3f 52 d3 b0 be d5 bf 06 bd ed a8 21 bf
       1.4561663 -0.34536225 -0.03289779 -0.63148385
000060 7e ac 29 bf ff 7c 6a 3e 2c 7c f9 3e e4 2e a5 be
       -0.6627883 0.22899245 0.48727548 -0.32262337
000070 f5 0a 11 bf 5c bf 10 3f bb c9 de bf e8 85 84 bc
       -0.56657344 0.5654199 -1.7405313 -0.016177133
000080 59 2d 31 3e 76 51 09 bf c1 4f 5d bf 21 63 f4 be
       0.17302455 -0.53639925 -0.8644982 -0.4773188
000090 c4 0a 82 3e ef 6d c6 bf 2c cf 01 bf 75 41 74 bf
       0.2539884 -1.5502299 -0.50706744 -0.9541238
0000a0 1b 05 a9 3f a4 78 5f bf ad 7a 05 bf 00 7c c0 3e
       1.3204683 -0.8729346 -0.52140313 0.37594604
0000b0 94 b6 5b bf da 26 24 bf bc f0 8d 3e 18 b8 15 bf
       -0.8582547 -0.6412178 0.27722728 -0.5848403
0000c0 63 2c 36 be 3c 7f 2d be 1a 8a 6c bf 74 59 8f be
       -0.1779037 -0.16943067 -0.92398226 -0.27997935
0000d0 a4 d3 1c 3f 32 4d 1c bf d1 c7 c2 3e 81 41 44 3d
       0.6126044 -0.6105529 0.38043073 0.047914032
0000e0 d3 fa bd be 43 45 9b be 48 c4 9f 3e 9d 2d 74 be
       -0.37105426 -0.3032628 0.31204438 -0.23845525
0000f0 3e b5 98 3e 1a 02 24 3d e3 c6 19 bf cf c7 4b be
       0.29825777 0.040041067 -0.600691 -0.1990044
000100 1b ab 51 bf 95 d6 a5 be a4 11 98 bf 76 10 44 be
       -0.8190171 -0.32390276 -1.1880383 -0.19146904
000110 87 f7 4f bf 24 11 57 be d9 53 89 be 8e b8 05 bf
       -0.8123707 -0.21002632 -0.26821783 -0.52234733
000120 c1 b4 38 3f 25 1a a7 3e ad 36 15 3f 54 21 5f bc
       0.7215081 0.32637134 0.58286554 -0.013618786
000130 43 61 95 bf 80 d5 33 3f 2d 16 36 be 37 0f 3f bd
       -1.1670307 0.7024765 -0.17781897 -0.04664537
000140 36 fb 1a 3f 90 11 bc bf b7 1f 30 3f 79 f3 96 be
       0.6053957 -1.469286 0.68798393 -0.2948263
000150 c8 70 fd bd 2b 6e 1b bf 94 90 13 bc 45 ac dc bf
       -0.12375027 -0.6071498 -0.009006638 -1.7240072
000160 81 21 ee bd e6 c0 34 3e 10 da a9 3e 46 e4 bc 3f
       -0.11627484 0.1765171 0.3317418 1.4757164
000170 fc 08 b0 3f c6 c8 e9 be 15 05 11 be e6 9e fd bf
       1.3752742 -0.4566099 -0.14162095 -1.9814117
000180 64 74 86 3e 72 ca 35 3e b6 bd d8 3f c4 f4 28 bf
       0.26260674 0.17753008 1.6932895 -0.6599848
000190 6e 00 dc be 4c a9 e5 3e 38 62 9f 3e 88 6a 0f 3f
       -0.42969078 0.44855726 0.31129622 0.5602193
0001a0 8c 99 4e 3f 9b fc f9 be 6b 01 d4 bd 8c f9 e9 be
       0.80703044 -0.48825535 -0.10351833 -0.45698202
0001b0 e9 6c 54 3e af ee 6f bf 1f f9 b1 bf 3b 94 d3 be
       0.20744671 -0.9372358 -1.3904151 -0.41324028
0001c0 14 81 a7 3f 13 dd b9 3e e0 12 b2 be aa f0 87 3e
       1.3086267 0.3630148 -0.34780025 0.265508
0001d0 d0 50 f1 be ed c9 62 3f 2e ff 84 3e 9c 1b e3 be
       -0.47131968 0.88589364 0.25975937 -0.44357002
0001e0 3f 24 c1 bf 6a 84 f9 3e 8f 7b e8 3d 18 30 c9 bd
       -1.5089186 0.48733836 0.11351692 -0.09823626
0001f0 47 17 08 3f bc b3 20 bf 56 a2 a1 3e 57 eb 96 bf
       0.5316052 -0.6277425 0.31569165 -1.179057
000200 85 ef 9a be 9c 37 bf 3e 2f 42 0d 3f a9 5c a0 3e
       -0.30260864 0.37347114 0.55179113 0.31320694
000210 c1 cf 68 3e 14 d1 b8 3d c1 c3 ed be 6c 77 c5 bf
       0.22735502 0.090242535 -0.4643841 -1.542707
000220 67 2a 27 bc bc ae 99 3d 51 d3 6b 3f e9 90 bc 3e
       -0.010202981 0.07504031 0.9211932 0.36829308
000230 9f d3 c8 bf be 18 64 bd d3 4f dc bf 69 0a 97 bd
       -1.5689582 -0.05568766 -1.721186 -0.073750325
000240 e9 45 0e c0 2f 21 37 bf 80 c8 0e bf 47 3d 6a bf
       -2.223017 -0.7153501 -0.5577469 -0.9149975
000250 4e d2 ea 3f 72 2c 22 3e 61 bb 25 bf f9 5f 7e bd
       1.834543 0.15837267 -0.6473904 -0.062103245
000260 a1 ec f4 bd 0d e8 ad be 47 84 4d bf d1 d3 60 bf
       -0.11959196 -0.33966103 -0.80279964 -0.87823206
000270 74 9f ba 3d 3e 58 cc be f9 d4 01 bf e5 70 1b bf
       0.091124445 -0.39911073 -0.50715595 -0.6071914
000280 70 53 87 bf b0 f0 05 be b4 b5 16 bf 7e fc 31 bf
       -1.0572338 -0.13080096 -0.58871007 -0.695259
000290 d4 b1 e9 be e1 64 ec be bf d4 30 bf f9 cc 59 c0
       -0.45643485 -0.46170714 -0.69074625 -3.4031355
0002a0 49 32 a8 bf d0 4b a3 3e a3 3d 58 3e 6c ac fa bd
       -1.3140346 0.31893778 0.21117263 -0.12239918
0002b0 89 f5 02 bf 39 cd 8c 3c 1c bd 5c 3e b6 26 02 be
       -0.51155907 0.017187702 0.21556515 -0.1271008
0002c0 77 c2 24 bf 99 75 41 be a3 b1 1b bf 9e c5 30 bf
       -0.6435923 -0.18892516 -0.6081793 -0.6905154
0002d0 4e 5f 03 bf 96 f8 5a be 22 68 c6 3e ca 9f af bf
       -0.513173 -0.2138389 0.38751322 -1.3720639
0002e0 81 72 22 3e 9e 55 cd bf 82 08 3c bf ed 21 4c bf
       0.15863992 -1.6041753 -0.7345048 -0.79739267
0002f0 69 3c af bf e9 77 55 3f 40 9d 71 bf b9 a8 3d bf
       -1.3690311 0.83386093 -0.9438057 -0.74085575
000300 4d e4 1d 3e f6 cf 1d be 5f e1 5d bf 30 79 27 bf
       0.15419121 -0.15411362 -0.86672014 -0.6541929
000310 0e f0 4c 3e fc fc 22 be c9 e1 a8 bb 30 4b cb 3e
       0.20013449 -0.15916818 -0.005153869 0.397058
000320 7a 36 f9 be 8b fa bf bf 79 81 3d 3f cc 5b b2 3e
       -0.48674375 -1.4998335 0.74025685 0.3483566
000330 b6 eb 22 bf af a7 44 bf 66 14 1c bf 8f fe a4 3d
       -0.63640916 -0.76818365 -0.60968626 0.08056366
000340 ec b6 27 bf 55 64 0a bf c5 7e 77 c0 b9 81 cd bd
       -0.6551349 -0.54059345 -3.8671124 -0.10034508
000350 dd 0d 9c 3e d5 7e c9 be 68 58 fd bc 40 17 aa bd
       0.30479327 -0.39354578 -0.030925944 -0.08305216
000360 42 8b 4f bf a2 a6 25 bf dc ee e9 bf 7f e4 71 bf
       -0.81071866 -0.64707386 -1.8276019 -0.9448928
000370 4f cf 91 bf ab 45 dd bf 22 75 3a bf f5 a4 16 bb
       -1.139139 -1.7286886 -0.7283498 -0.0022986506
000380 a2 fd c5 bd 87 b8 9c bf 3b 88 f3 be 08 82 4c bf
       -0.09667517 -1.2243813 -0.47564873 -0.7988591
000390 af 0c ee bf 03 eb db be 68 d7 c0 be 5b 5b 22 bf
       -1.8597621 -0.42952737 -0.37664342 -0.6342065
0003a0 80 03 85 bf 70 8b dd bd fe 3b 2a bf 7c 34 ae 3e
       -1.0391693 -0.10817611 -0.6649779 0.34024417
0003b0 54 43 cc be 6c ae 1c bf ba 62 42 bf 72 62 55 3d
       -0.39895117 -0.61203647 -0.75931895 0.052095838
0003c0 d2 ee 02 bf 58 82 78 3e d1 02 f7 be eb ae 8d be
       -0.5114566 0.24268472 -0.48244336 -0.27672514
0003d0 d0 19 06 bf 9e 21 a7 bd 89 22 a2 be b5 b8 04 be
       -0.52383137 -0.08160709 -0.31666973 -0.12961085
0003e0 9c d3 79 bc 22 b2 8c be 19 d0 f8 bf 57 d8 53 bf
       -0.0152482055 -0.27479655 -1.9438506 -0.82751983
0003f0 3b f5 09 bf 17 f8 a3 bf a0 6a d7 bf 5d 5c ad bf
       -0.53889817 -1.2810086 -1.6829414 -1.3543812

Q1.head.0.bias f4 [64]
000000 bd 59 a6 3f 4e ac 1c be f0 60 e9 be df ef 19 3f
       1.2996136 -0.15300104 -0.4558177 0.6013164
000010 0b 54 2c bd 68 a7 68 bd 14 ec 7d bb 1c 37 f7 be
       -0.042072337 -0.056800276 -0.003874545 -0.48284233
000020 d8 f0 84 be 5d f6 bb be ce 08 0e 3e 18 db 8e 3f
       -0.25965 -0.36711398 0.13870546 1.1160612
000030 5b 62 30 bf 58 91 ca 3c 09 bb b6 be a8 bd 4c bf
       -0.6890008 0.024727508 -0.35689571 -0.7997689
000040 13 dc 26 bf 9b 51 e0 be 7c 59 10 be 8d 4f 4d 3d
       -0.65179557 -0.4381226 -0.14096636 0.050124694
000050 e9 e4 5d bc e0 aa 0f 3c 11 7c 71 bf 12 37 ed bd
       -0.013543346 0.008768767 -0.94329935 -0.115827695
000060 76 7e 0b 3e 34 7b 04 3e fc f7 af bf 8a cd 1d be
       0.1362246 0.12937623 -1.3747554 -0.15410438
000070 53 68 c8 be fb 08 84 be a0 f3 5a bc ab 03 9a bf
       -0.39142093 -0.25788102 -0.013363749 -1.2032369
000080 3b 5a 27 3a 13 5f 22 bf ef 50 9a 3b 34 5d 12 be
       0.000638399 -0.6342632 0.004709355 -0.14293367
000090 89 df 14 bf 93 3a 79 bf a4 21 46 bf 8a f1 3c 3e
       -0.5815359 -0.97355 -0.7739508 0.18451515
0000a0 e4 89 23 3f d7 2d 89 bf af 5d 18 bd f9 23 1c 3c
       0.6388228 -1.0717114 -0.03719872 0.009530061
0000b0 c3 c4 83 be e0 8b c4 be 85 76 85 be dc 65 84 be
       -0.25736055 -0.38387966 -0.26066986 -0.25858963
0000c0 49 67 2b 3c ee 58 6a 3f e2 4c f2 be d5 ee c3 be
       0.010461637 0.91541946 -0.47324282 -0.38268152
0000d0 6c 40 5d be bd 17 e4 bb a6 eb 35 3e 6f b9 1e bf
       -0.21606606 -0.0069608376 0.17765674 -0.620017
0000e0 56 88 99 be 90 5e a8 3c a6 ab 28 be 48 69 e4 be
       -0.2998683 0.020552903 -0.16471729 -0.44611573
0000f0 f9 08 72 39 aa 91 b9 3d 99 c7 85 bf ed a9 8e be
       0.00023082261 0.09060986 -1.0451537 -0.27864018

Q1.head.2.weight f4 [64, 64]
000000 b5 77 da 3e f9 b5 35 3f b7 3e a0 be b5 c1 2b 40
       0.42669454 0.70980793 -0.31297848 2.683698
000010 81 01 bc 3b 85 31 11 bf ed 8f 99 3f f2 65 c5 3d
       0.005737484 -0.56716186 1.1997048 0.09638585
000020 d2 32 10 3e 7a 51 85 bf f8 6e 4e 3b c5 19 03 c0
       0.14081886 -1.041549 0.0031499248 -2.0484478
000030 0b ef c5 be e3 c8 16 c0 d0 2d 00 3d f0 30 81 be
       -0.38658938 -2.3560112 0.03129369 -0.2523265
000040 91 e4 eb bf 6a b3 7d bf 1a 99 15 bf 34 0e 89 3f
       -1.8429128 -0.9910189 -0.5843674 1.070746
000050 ce 46 2f bf 27 ad 09 40 d6 ba 41 bd 59 78 7e 3f
       -0.68467414 2.1511934 -0.04729732 0.99402386
000060 7d cb 2a c0 bf 71 54 bf d2 af 09 c0 36 a0 e9 bf
       -2.66867 -0.8298606 -2.1513562 -1.8252017
000070 bd e6 4e bf b2 bd 18 c0 a6 1c 61 c0 a6 4f 8b bf
       -0.8082083 -2.386578 -3.5173736 -1.0883682
000080 40 0d 01 bb 71 03 d1 bd 67 5d 8e bf f1 80 fa 3e
       -0.0019691736 -0.102057345 -1.1122254 0.489265
000090 86 b8 11 bf fc 8e 9e bf 95 b8 b8 3e 4d d1 54 c0
       -0.56922185 -1.2387385 0.36078325 -3.3252747
0000a0 00 be cf 3c 3f 7c ca bf 29 b6 2e 3d 69 cb 18 3f
       0.025359154 -1.5819167 0.04265419 0.5968538
0000b0 d8 a9 21 bd 02 cd 41 3c 14 3f 2a 3f 1d f4 f9 3c
       -0.039468616 0.011828663 0.665025 0.03051191
0000c0 cb 3b 3a bd a3 c5 97 bf 6f 0f 36 3d e4 41 e2 bd
       -0.04546718 -1.1857189 0.044448312 -0.11047724
0000d0 4e 4a 87 bc 2e ed de bf 7c 57 ed bf 2f 98 8d 3e
       -0.016514923 -1.7416131 -1.8542323 0.2765517
0000e0 68 8e a1 be 43 2d 0f bf fe 07 f9 bf 47 6f ed 3b
       -0.3155396 -0.5592844 -1.9455564 0.0072459313
0000f0 bf 1d 8b c0 d1 30 08 c0 6d 27 d1 bf 2d 20 a9 bf
       -4.347381 -2.1279795 -1.6340157 -1.3212944
000100 12 f9 57 bf 06 97 2e 3f 62 69 27 3c 18 80 65 be
       -0.84364426 0.68199193 0.010217996 -0.22412145
000110 fe a9 96 be 98 2d 82 3f 79 cc 9f 3e b3 0d 1d 3e
       -0.2942657 1.0170164 0.31210688 0.15337257
000120 31 5c 94 3e be 19 a5 bf 44 8d 9f be 65 3a 67 3d
       0.28976586 -1.2898481 -0.31162465 0.056452174
000130 72 47 11 3e 23 bd e8 3c 09 7c 8e bf b1 3d f1 bf
       0.1418741 0.0284105 -1.1131603 -1.8846952
000140 54 5f 94 be 1f 12 a2 be 19 fc c7 3e 65 2a d7 3e
       -0.2897898 -0.3165445 0.39059523 0.42024532
000150 85 64 bc 3e 56 35 03 bf 86 80 d0 be 98 2b c0 bf
       0.3679544 -0.5125326 -0.40723056 -1.5013304
000160 c9 2f 52 bf 01 4f e8 be f5 99 14 3d 84 67 87 be
       -0.82104164 -0.45372775 0.036279637 -0.26446164
000170 aa 6b 16 c0 e7 10 a7 bf e0 58 69 be e3 cb 78 bf
       -2.3503213 -1.3052033 -0.2278781 -0.97186106
000180 f7 a9 56 bf a7 8d 12 be 63 38 9f bf 77 82 9b be
       -0.83853096 -0.14311849 -1.2439083 -0.30372974
000190 cc 6c 3d 3f 8e d8 49 be e7 fb de 3e 4b fd 34 bf
       0.73994136 -0.19711515 0.4355156 -0.70698994
0001a0 ba 9e 30 3b 24 29 f4 bf 04 09 78 bf fc f8 37 bf
       0.0026950077 -1.9075055 -0.96888757 -0.71864295
0001b0 ec c2 b4 bf 41 6e 5e bf 2c 69 c0 be 5f 16 0f be
       -1.4121985 -0.86886984 -0.3758024 -0.13973378
0001c0 98 80 40 be ed 71 a6 3e 0a c0 c0 be f5 50 ff bc
       -0.18799055 0.32508793 -0.37646514 -0.031166533
0001d0 93 39 b5 be f8 3d 0f bf 16 2b 12 bf af 8b a4 bd
       -0.35395488 -0.5595393 -0.57096994 -0.08034455
0001e0 eb 2b fb be 9c 11 aa bf 73 c6 54 bf 55 07 ad bf
       -0.49056944 -1.3286624 -0.8311531 -1.3517863
0001f0 5c 77 e4 3e 22 78 b4 bf 99 47 5e bf 37 80 6f 3e
       0.44622314 -1.4099162 -0.86828 0.23388754
000200 55 4b 28 3f 13 d9 6c 3f ae 66 ae bf f0 d9 0c 3d
       0.6573995 0.9251873 -1.3625085 0.03438753
000210 27 e7 fe be e4 d0 1b bf 04 74 bd bf e6 29 2e bf
       -0.4978573 -0.60865617 -1.480103 -0.6803268
000220 59 7e 18 3f e4 8d 37 bf b1 73 4b 3e e1 66 7f bf
       0.5956779 -0.7170088 0.19868352 -0.99766356
000230 cd 45 bb 3e 5e a1 08 bf 13 b0 20 3e dd 7a 35 3e
       0.3657669 -0.53371227 0.15692167 0.1772265
000240 74 58 be bd bd 1a 74 bf a9 da 44 be 13 7a 20 bd
       -0.09294215 -0.953533 -0.19224037 -0.03917892
000250 3c ae 71 3d 72 dc 46 bf 61 f1 37 bf 2e ec 18 be
       0.059004053 -0.7768012 -0.7185269 -0.14933845
000260 5b 80 fc bf d6 c0 15 bf e6 1e 46 3d 52 0f 93 bf
       -1.9726671 -0.5849737 0.04836931 -1.148905
000270 53 87 fc 3d 89 0e 06 bf c8 fa 9b be 82 84 48 3f
       0.123304985 -0.5236593 -0.30464768 0.7832719
000280 47 57 78 bf 75 ce af 3e 40 e4 43 bf 9e 0e 4c be
       -0.97008175 0.34337202 -0.76520157 -0.19927451
000290 1a 61 e4 3d 42 27 ae 3e 50 37 4b 3d 50 86 52 3f
       0.11151333 0.34014326 0.049613297 0.82236195
0002a0 71 be 6d 3f 28 a0 4c 3f dc c2 84 bf b5 5b 0c bf
       0.92868716 0.7993188 -1.0371966 -0.54827434
0002b0 6c ab 71 bf 29 08 b3 be 81 54 de bf 25 dc c3 3e
       -0.94402194 -0.34967163 -1.7369539 0.38253894
0002c0 5c 6b 86 bd 63 20 0c c0 3f dd 3e bf 31 1a 87 bf
       -0.06563446 -2.1894767 -0.74556345 -1.0554868
0002d0 b0 85 78 bf 97 ad 0c c0 b3 3f ce bf 5e 46 34 be
       -0.9707899 -2.198095 -1.611319 -0.17604968
0002e0 c3 18 1a c0 a5 ad d6 3e 36 75 c3 bf 16 9a 8e be
       -2.4077613 0.41929355 -1.5270145 -0.27851933
0002f0 8d 59 55 bc 46 49 52 3f 7b 8f b9 be e6 3b c7 bf
       -0.013021839 0.82143056 -0.3624228 -1.5565155
000300 34 c2 50 bd 1c 2a 80 3e 61 2d 0b bf dc 13 a3 3f
       -0.050966457 0.25032127 -0.5436612 1.2740436
000310 f5 11 b4 be 50 56 52 be b2 3b 09 bf b4 21 91 bf
       -0.3516995 -0.20540738 -0.5360671 -1.133841
000320 75 2a f9 bd 7d f8 73 be 70 f2 8c be 11 f7 e3 be
       -0.12166301 -0.2382526 -0.27528715 -0.44524434
000330 6c 58 c7 be 6b 07 5e bf 10 b6 37 3f 4b fe fb bf
       -0.38934648 -0.8673007 0.7176218 -1.9686979
000340 0a 89 bf 3e 96 8d 99 bd 33 82 3e bf a4 55 c2 3e
       0.3740924 -0.074977085 -0.7441742 0.37955964
000350 46 9e c5 be 6f 5f de 3c 70 53 90 bf fd 0c fc be
       -0.38597316 0.027145116 -1.1275463 -0.4922866
000360 1f 77 75 3e 7e 98 02 bf af 95 5b 3f a2 d4 48 bf
       0.23971222 -0.51013935 0.85775274 -0.7844945
000370 6c dd a0 bf 0b 3b 7b bf 9d 82 36 bf 97 2c 0e bf
       -1.2567573 -0.9813697 -0.7129305 -0.5553679
000380 ee 56 15 3d 20 68 a0 bf aa cf fb 3c 03 60 75 bf
       0.036459856 -1.2531776 0.03073867 -0.9584963
000390 99 7e a5 be 3e ea b9 bd f2 42 e9 3e 58 71 d0 be
       -0.3232315 -0.09077881 0.45558888 -0.40711474
0003a0 97 8e ac be 6f 48 c1 be f0 80 27 bf c7 4f 9b bf
       -0.33702537 -0.37750575 -0.6543112 -1.2133721
0003b0 2f ad a1 bf cd 3c 07 c0 92 e3 6c bf 44 9b f5 3e
       -1.2630976 -2.113086 -0.92534745 0.4797002
0003c0 63 06 97 be 96 e5 95 bf 58 8d ae bf f9 ae 1c 3f
       -0.2949706 -1.1710689 -1.3636885 0.6120449
0003d0 36 21 70 be 10 65 b8 bf 24 3c 53 3d 84 f0 0f bf
       -0.23450169 -1.4405842 0.051571026 -0.5622637
0003e0 6c 14 df be 4f e7 91 3e d0 22 0e be 2c a4 fb be
       -0.43570268 0.28496787 -0.13880467 -0.4914869
0003f0 26 62 55 be ec e5 72 be 9e 71 de be b0 5f 0f 3f
       -0.20838222 -0.2372052 -0.43446058 0.5600538

Q1.head.2.bias f4 [64]
000000 c5 4b 25 be 9c a9 8d be c7 20 ba bf 4c 1b 0c bf
       -0.16142185 -0.27668464 -1.4541253 -0.5472915
000010 27 ce 5a be a7 48 75 bf 7c 1a 6b bf c1 4f 76 bf
       -0.21367703 -0.95813984 -0.91837287 -0.96215445
000020 f3 87 f7 be 17 f9 35 bf 6f a5 e5 be 97 b5 dd be
       -0.4834591 -0.71083206 -0.44852778 -0.43302605
000030 0e 10 08 bf 86 bb 7f be dc 68 7a be 5c 53 52 bf
       -0.531495 -0.24973878 -0.24454063 -0.82158446
000040 80 d9 c7 be 84 38 21 bf 2d b3 88 be 04 58 8f bf
       -0.39033127 -0.6297686 -0.266992 -1.1198735
000050 47 6f 04 bf d1 4b 17 bf 71 62 c0 be 65 ef 6f bf
       -0.51732296 -0.5910006 -0.37575105 -0.9372466
000060 82 63 12 bf c1 57 10 bf 85 5f 30 bf eb c1 bb be
       -0.57183087 -0.563839 -0.6889575 -0.36671385
000070 27 ff 93 be ed 23 1d bf 92 8a 96 be a4 3b 73 bf
       -0.28905603 -0.61382943 -0.29402596 -0.9501288
000080 13 3a ac bf 18 ae cc be 6e ae 2c bf 6e 5a 50 bf
       -1.3455223 -0.39976573 -0.6745366 -0.81387985
000090 f6 8f 2e bf 8c 26 ba be c9 0e 8f bf 9e af a6 bf
       -0.68188417 -0.36357534 -1.1176387 -1.3022344
0000a0 1e 66 1e bf da 66 63 bf ed f6 9f bf 05 bc 19 bf
       -0.6187457 -0.88828814 -1.2497231 -0.6005252
0000b0 14 3f 32 bf 42 6f 11 bf 6d 75 04 bf 8a 28 88 3b
       -0.696275 -0.5681039 -0.5174168 0.0041552233
0000c0 fb 8e 44 bf 32 95 59 be 5c 2a e5 be 75 76 24 bf
       -0.7678067 -0.2124832 -0.4475888 -0.6424325
0000d0 8a c0 d4 be 24 35 e8 bf f4 ee a0 be fd b3 0c be
       -0.41553146 -1.8141217 -0.31432307 -0.13740535
0000e0 74 d4 26 bf 13 31 5a bf c0 5f 55 bf 79 b1 81 bf
       -0.6516793 -0.8523113 -0.8334923 -1.0132285
0000f0 3b 61 88 bf f8 9c eb bd 5b f5 e1 bf dd f2 04 bf
       -1.0654672 -0.11504549 -1.7653002 -0.5193308

Q1.head.4.weight f4 [144, 64]
000000 31 32 a5 be dc af 0d 3e a4 ef ed 3e 11 f1 18 3e
       -0.32264856 0.13836616 0.46471894 0.1493571
000010 38 be f3 be 5d 1f 86 bd c1 95 ee ba fb ab 40 bf
       -0.47606063 -0.06548951 -0.0018202589 -0.7526242
000020 15 8b 0e 3d 96 30 73 3a a5 bb eb ba 54 e9 a0 bf
       0.034800608 0.0009276954 -0.0017985 -1.2571206
000030 7c 82 bd be 60 19 b8 3b 40 01 7c 3d e4 2d c5 bb
       -0.37013614 0.0056182593 0.06152463 -0.0060174335
000040 96 9d 94 3a 9a 1d 5d 3e ef 6b d4 be 18 5a 8b 3b
       0.0011338468 0.21593323 -0.41488597 0.0042526834
000050 a7 7b 5e bd 9b 3d ad 3c 9a 65 df 3d 49 b8 c5 bb
       -0.054317143 0.02114754 0.10908051 -0.0060339314
000060 a8 e1 0e bd d3 ae ae 3c 0c 42 2c bf bf 52 1a be
       -0.03488317 0.021323597 -0.6728828 -0.15070628
000070 f7 6e d6 bd b3 5b c0 b8 a3 68 19 3d d9 ea 90 bf
       -0.104703836 -9.172354e-05 0.037453305 -1.132167
000080 2d af 21 c0 69 f8 30 be 7e 6b 2b bd 21 55 87 3d
       -2.526317 -0.17282261 -0.04185056 0.06608034
000090 ea c7 9f be 27 93 24 bd 0d f5 85 3d 79 3e 81 bd
       -0.3120721 -0.040179398 0.0654088 -0.06310744
0000a0 ea ea 63 bf 44 72 c5 3c a7 14 02 3e 45 a2 ae bc
       -0.89030325 0.024102338 0.1270319 -0.02131761
0000b0 f5 cb e0 3e ab f2 ad 3d 9b 24 71 bd c6 61 32 bf
       0.43905607 0.08493551 -0.0588728 -0.6968044
0000c0 25 c4 f5 bc a3 74 8e bd 9e 5a 79 bd df 19 b9 bd
       -0.030000756 -0.069558404 -0.060877435 -0.09038138
0000d0 f3 e2 53 bb e4 6f 67 c0 ac 0c 53 be e3 0a d8 bd
       -0.0032331317 -3.6162043 -0.20610303 -0.105489515
0000e0 70 50 09 3d 32 35 f1 bd 6e 0b cc 3c be b4 fa bd
       0.033523977 -0.11777724 0.024907794 -0.12241505
0000f0 48 6b 67 3d df 42 1d bf 4a fb bf bd 8a f4 47 3b
       0.056498796 -0.6143016 -0.093741015 0.0030510747
000100 6d d3 ab bf 1b 02 af bb 59 c5 bf 3d 37 dd 0e 3f
       -1.3423897 -0.005340827 0.09363813 0.558063
000110 a6 6c 01 be e2 b3 2b 3e 35 11 37 bc 6b 47 5b bf
       -0.12639102 0.16767839 -0.011173536 -0.8565585
000120 55 50 11 3c 62 de ca bd 64 db 32 3e d2 59 3d 3d
       0.00886925 -0.099056974 0.17466503 0.046228237
000130 d0 c0 83 bd 66 9e d9 3d 52 3f 02 be d5 32 f8 3e
       -0.064332604 0.10625915 -0.12719467 0.48476282
000140 1e 9d 7a 3e 01 88 86 3b 54 db e4 be 40 48 be 3b
       0.24473998 0.0041055684 -0.44698584 0.0058069527
000150 97 94 4c bd 9b 4d 0e 3e a4 e7 39 3d 8f e2 42 bc
       -0.049946394 0.13896792 0.045386925 -0.011894836
000160 ba a1 bf 3e 1f 1b ad 3e fd 03 ed 3d 18 4b cb 3e
       0.37428075 0.33809754 0.11573026 0.3970573
000170 24 39 17 3e dd c5 08 bf 64 43 83 3d f1 41 d7 3e
       0.14767891 -0.53426915 0.06409338 0.42042497
000180 14 43 84 3e fd 19 54 bc fc 02 8e 3c a9 c9 10 3d
       0.25832427 -0.012945649 0.017335407 0.035348568
000190 aa b7 40 3e d7 2d 82 bd c1 04 92 3d 22 f1 09 3f
       0.18820062 -0.063563995 0.07129813 0.53883564
0001a0 d6 92 57 bf 5e 4d f7 3d 33 87 0f 3c 62 d2 b7 3d
       -0.8420843 0.120753035 0.008760261 0.08975674
0001b0 19 7f 66 3e 06 59 91 3d 42 11 83 bc 7e a6 8e 3e
       0.22509421 0.07097058 -0.01599944 0.27861398
0001c0 f7 46 0c be d2 34 0c bf e2 58 c1 bb 16 2e c9 bf
       -0.13698946 -0.547681 -0.0059004882 -1.5717189
0001d0 fa 50 7f bc 3f b3 53 c0 2d f0 6e 3e 82 f6 7a bf
       -0.015583271 -3.3078153 0.23333807 -0.9803239
0001e0 4a 09 2c 3f ac a2 da be a2 8f e8 3c 08 18 51 3e
       0.67201674 -0.42702234 0.028388802 0.20419323
0001f0 ab f6 94 bd 17 ef 70 3e be 45 c0 3e 25 8b b7 3c
       -0.07273611 0.23528706 0.3755321 0.022405216
000200 53 76 f9 bd 4a 93 36 bf 67 f8 e2 bd 24 c4 3c bf
       -0.12180772 -0.71318495 -0.11082535 -0.73736787
000210 cb 57 d6 3c 49 eb fa 3b 99 d9 34 bf 23 2c 8a 3d
       0.02616491 0.0076574427 -0.7064453 0.067467
000220 69 07 cc 3d d9 9d c0 3b 72 50 67 bd 4e 04 e6 3c
       0.09962351 0.005878192 -0.056473203 0.028078225
000230 9c d3 e3 3b da dc bd 3d a1 20 e1 3d af 1e 8d be
       0.006952716 0.0927064 0.109925516 -0.27562472
000240 fb 7c 28 ba f3 d1 a2 bd d4 80 91 bb 05 1e 36 3d
       -0.0006427315 -0.07950201 -0.0044404063 0.044462223
000250 72 a4 bd 3c 2b b8 6e bd 8a 3d db 3c 6e 7a 00 bd
       0.023149703 -0.058281105 0.026762743 -0.031366758
000260 7f eb 25 3b 69 ac b9 39 35 c3 c4 bb 3d d1 c6 bc
       0.0025317369 0.00035414405 -0.006004716 -0.024269694
000270 4b 6a 93 3b a7 3d e8 3c 22 95 4b 3d cc 2b 8a 3c
       0.004498755 0.02834971 0.04970277 0.016866587
000280 b7 77 89 bc d8 4a b2 3d dc ad c4 3d 15 87 d9 3c
       -0.016780717 0.087056816 0.096034735 0.02655367
000290 24 a3 a5 bf 36 55 42 3b cc 37 32 3d 5e 0b a8 3d
       -1.2940412 0.002965284 0.043510243 0.08205293
0002a0 4e 1b 49 bf 41 09 75 bb b2 e1 b7 3d d1 f8 11 bf
       -0.7855729 -0.003738955 0.08978595 -0.5702029
0002b0 66 f7 57 3d 89 26 34 bd 67 30 10 3f 70 8c 3e 39
       0.052726172 -0.043982062 0.56323856 0.00018172129
0002c0 e7 58 88 3c fb 20 89 bb f3 bf 41 3d fc 78 08 3d
       0.016643954 -0.00418484 0.047302198 0.033318505
0002d0 e0 a3 aa bc c3 aa 6a c0 df 6e 94 3a 7c c5 60 bd
       -0.020830095 -3.6666725 0.0011324546 -0.054875836
0002e0 e7 8a 46 bd d5 c6 56 be 72 36 e9 bd 15 73 1d c0
       -0.04847231 -0.20974286 -0.11387338 -2.460149
0002f0 1d 6b 59 3d ac 10 da bd 67 13 e6 3e 48 79 16 bc
       0.053080667 -0.10647711 0.44936678 -0.009184189
000300 c4 8d 67 bd 0c 1e 51 be 9f f5 25 3e 0e 38 bd 3e
       -0.056531683 -0.20421618 0.16206978 0.3695683
000310 e2 b4 fc bc 6c e2 af bd b7 9d 40 be 74 41 e9 3c
       -0.03084797 -0.085881084 -0.18810163 0.028473593
000320 5f 82 9f bc 94 c4 92 3e 1a 94 c2 bc 6e 3f 4b bd
       -0.019471345 0.28665602 -0.023752261 -0.04962104
000330 62 0b 9c bd b8 16 3c bd 19 be 83 bd 02 bc 2d bf
       -0.076193586 -0.045920104 -0.064327426 -0.67865
000340 21 76 5b bd 14 26 39 3d 58 b9 4d bf 55 f1 88 3c
       -0.053579453 0.04520233 -0.8036094 0.016716639
000350 c2 a9 10 3d c4 89 98 3d 3b 6f 45 bd db 96 2d 3d
       0.035318144 0.07448152 -0.04820178 0.042380195
000360 39 15 21 be f8 a1 af bc 1a 90 f9 3c 77 93 a0 3e
       -0.15730752 -0.021439537 0.03046422 0.31362507
000370 4f ac 0b 3e 97 1c 8b bb 86 03 1e 3d 8d 90 fa 3e
       0.1363995 -0.0042453515 0.03857758 0.48938408
000380 b9 0e 3d 3f f8 51 ea 3d 9f 8d ae bc 3a 47 a9 3d
       0.7385059 0.114414155 -0.021307765 0.082655385
000390 5a ca 2f 3d 84 bf c9 be 01 c3 4a bf 6a 81 2c bd
       0.042917587 -0.39403927 -0.792038 -0.042115606
0003a0 64 73 42 be 9d 3c 06 be 33 91 c1 3e 90 52 4a be
       -0.1898933 -0.1310906 0.3780609 -0.19758058
0003b0 b4 ef da 3d 85 ce 38 3d fe ce 8d 3d ff 7c 69 3e
       0.10690251 0.045118827 0.06924246 0.22801588
0003c0 62 c7 cb 3c 44 2e 12 be 75 5d a7 3d 3c 7f 82 be
       0.024875347 -0.14275461 0.081721224 -0.25487697
0003d0 06 9a b4 bd da 21 4e c0 2e 84 86 3e fb 24 40 3c
       -0.0881844 -3.2208161 0.2627272 0.011727567
0003e0 20 6f bc 3d 88 01 bd be a4 21 4b 3f 7c dc 80 be
       0.09200883 -0.3691523 0.79348207 -0.25168216
0003f0 9e 05 59 3f 76 b4 94 be 58 f3 58 be 74 10 c1 3c
       0.84774196 -0.2904393 -0.21186578 0.023567416

Q1.head.4.bias f4 [144]
000000 73 7a 96 bc 1c b8 d8 be 66 76 81 bc 09 87 ad bd
       -0.018368935 -0.42327964 -0.015803527 -0.084730215
000010 00 39 7a bc 57 7b 55 bc 2f 54 b2 bb c0 a1 d6 be
       -0.015272379 -0.013029895 -0.0054421644 -0.4192028
000020 0c 57 3a bf ca 5a 3f bc 1b e4 88 bc 67 05 82 bc
       -0.72789073 -0.011679361 -0.016710332 -0.015871717
000030 82 23 96 bc f5 7e 25 bc b2 fb 2b bc fb be 2a bc
       -0.018327478 -0.01010107 -0.010497021 -0.01042151
000040 a3 de b4 bc 53 a4 e1 bc 97 e8 df bc 4d e8 58 bc
       -0.022078818 -0.027544176 -0.027332587 -0.013238979
000050 39 76 b1 bc 1b 31 d6 3d 75 59 99 bc 03 9b 33 bc
       -0.021662818 0.10458585 -0.018719414 -0.010962251
000060 9f 4b 9a bc fd a7 0d be 45 60 6a bc 62 29 88 bc
       -0.018834887 -0.13833614 -0.014305179 -0.016621295
000070 d1 b9 ad ba ef 77 7a bf ce d6 6c bc 77 e0 ab bc
       -0.001325423 -0.97839254 -0.01445551 -0.020981057
000080 e5 50 da bc 93 01 71 bc 0b 2c 8a bc e2 0d e1 bd
       -0.026649902 -0.014709848 -0.016866704 -0.10988976
000090 66 45 32 3e 6b e5 80 bc ce ae 2a bc 8a 9e d5 bc
       0.17409286 -0.015734395 -0.010417653 -0.026076574
0000a0 10 45 cc bc 84 37 49 bc 68 eb 46 bd 5e c9 3a bf
       -0.024935275 -0.012281302 -0.048564345 -0.7296351
0000b0 d7 e4 ae bc dd bc 96 bc 4c dd 97 bd 8d 17 64 bd
       -0.021349354 -0.018400604 -0.07415256 -0.055686522
0000c0 00 ef 8c bc 20 df 52 bc b9 2b 84 bc 7d d7 49 bd
       -0.017203808 -0.01287058 -0.01613413 -0.04927777
0000d0 38 1b 7c bc 51 7d 99 bd ed c5 91 be 1c 66 81 bc
       -0.015387349 -0.07494605 -0.28471318 -0.01579576
0000e0 8b 56 72 bc b1 b2 79 bc f1 de 74 bd 73 52 a8 bc
       -0.014791141 -0.015240357 -0.059782926 -0.020547127
0000f0 c3 75 31 bd 78 66 97 bc 8d 16 94 bc c5 51 27 bc
       -0.043325197 -0.018481478 -0.01807716 -0.0102123665
000100 fa a8 62 bc 45 2b c5 bc b2 7f 6f bc 41 33 9a bd
       -0.013834232 -0.024068484 -0.014617847 -0.07529307
000110 77 2e 50 bc b3 ae 33 3a 5f a9 71 bc 16 44 37 bc
       -0.012706391 0.00068543403 -0.014749854 -0.011185667
000120 eb ef 7f bc b2 67 51 c0 ce c6 6b bc 91 46 65 be
       -0.015621166 -3.271954 -0.01439066 -0.223902
000130 a2 c2 65 bc 39 91 76 bc bb e6 5d c0 58 20 57 c0
       -0.014023455 -0.015049272 -3.4672077 -3.361349
000140 ca 2e 4d c0 a7 60 b9 bc a0 7e 8e bc 19 36 56 c0
       -3.2059808 -0.022629095 -0.017394364 -3.3470519
000150 48 7d b0 bc 8a ae 54 c0 77 fb 67 c0 5c 46 3e bc
       -0.021544114 -3.323153 -3.6247232 -0.011613455
000160 e0 ce bb bd ba 63 95 bc 1d 8d 5c c0 bb b3 71 bc
       -0.09170318 -0.01823603 -3.4461129 -0.014752324
000170 08 d6 29 c0 bf 59 01 c0 1e 33 54 c0 89 2c 3e bc
       -2.6536884 -2.0211027 -3.31562 -0.011607298
000180 6b 2a 5f bc ce ea 52 c0 46 66 5f bc 12 85 56 c0
       -0.013620953 -3.2955813 -0.013635224 -3.351872
000190 0b 24 72 c0 69 4f 4c c0 b0 db 40 bc 3a 37 97 bc
       -3.78345 -3.1923468 -0.011771128 -0.018458951
0001a0 69 48 93 bc 14 0d 4b c0 37 c4 7d bc 2f 58 78 bf
       -0.017978864 -3.1726732 -0.015488676 -0.9700956
0001b0 43 b2 58 c0 45 03 39 bc e2 3c 69 bc 62 e2 bc bc
       -3.3858802 -0.011292283 -0.014235707 -0.023057166
0001c0 5c 77 47 c0 9c 8b 60 bc 88 92 17 bf 24 2c 50 c0
       -3.11666 -0.0137051605 -0.59207964 -3.2526941
0001d0 25 54 f7 bb 27 3b 5c bc ca 7e 87 bf 4c 06 11 c0
       -0.0075478726 -0.013441837 -1.0585568 -2.2660093
0001e0 99 29 36 bc 12 7b 8a bc e1 da 95 bc 12 5e c0 bf
       -0.011118316 -0.016904388 -0.018292846 -1.5028708
0001f0 b4 65 4f bc b1 1b f0 be 43 e1 39 bf 96 7e 40 bc
       -0.012658525 -0.46896127 -0.7260935 -0.01174893
000200 48 6d 51 c0 0a 6d 96 bc 93 ce 91 be 73 df 66 bc
       -3.272295 -0.01836254 -0.28477916 -0.01409136
000210 96 e9 48 c0 e0 83 50 be 15 e3 53 c0 dd 46 3a bc
       -3.139257 -0.20362806 -3.310735 -0.011369434
000220 f4 3b 84 bc 9e 02 ff bd cc e8 c0 bc 93 49 9c bd
       -0.01614187 -0.12451671 -0.023548506 -0.07631221
000230 ed fe 39 bc 1b 26 52 c0 e4 3f 40 bc 0e 14 46 bc
       -0.011352283 -3.2835758 -0.011733983 -0.012089742

Q2.head.0.weight f4 [64, 144]
000000 e8 7e 9c 3d 22 f3 a7 bd be 75 32 be 9b 74 83 3f
       0.07641393 -0.08200671 -0.17427728 1.026996
000010 8f 6c 71 bd 85 04 f6 be a3 48 01 3f 3e da 6c 3e
       -0.05894142 -0.48050323 0.5050146 0.23130128
000020 09 a2 ae bd 2a 10 0a bf b8 5a 9c 3e f7 50 58 bd
       -0.085269995 -0.53930914 0.30537963 -0.05281159
000030 66 0a 8f 3f f2 6e 21 3f 09 63 53 3e 87 2a 9d be
       1.1175048 0.63059914 0.20643248 -0.30696508
000040 2e 58 9a bf 08 49 d6 bd c6 55 a4 3c 2b 79 b4 3e
       -1.205816 -0.10463148 0.020060431 0.35248694
000050 f9 93 03 3d da e1 e9 3e 68 1a 03 3f 67 60 14 bf
       0.03212354 0.45680124 0.5121217 -0.579596
000060 b3 df fd bd 36 fa 31 3e 29 17 3a 3e 7b 02 63 3e
       -0.12396183 0.17380604 0.18172897 0.22168915
000070 cb 10 dd 3e 49 d2 b8 3e 4f f8 7e be 12 c4 0c 3f
       0.43176875 0.36097935 -0.2489941 0.5498668
000080 8b 8b e1 3e bb 63 c4 3d ac a4 5b 3f 4b 4b 94 be
       0.44051775 0.095893346 0.85798144 -0.28963694
000090 d9 54 a1 3d 6d 7d 5a bd 61 cb 5b be a9 51 0d 3f
       0.078775115 -0.05334227 -0.21464302 0.5520273
0000a0 d5 c0 cf 3e 89 e6 00 3f 1f c9 ed be b8 77 b9 bc
       0.40576807 0.5035177 -0.46442506 -0.022640094
0000b0 2e 77 28 3f fd 1b ef 3e 58 35 aa bf 1b e7 f7 be
       0.65806854 0.4670104 -1.3297529 -0.48418507
0000c0 dd a0 b9 be 48 ff 87 be 80 b3 90 3e 78 75 39 bf
       -0.3625554 -0.26561952 0.28261948 -0.7244487
0000d0 6f 1b a4 3d 1f 2f 25 3d db 6d 5d bf 39 f2 b1 be
       0.08013045 0.04032814 -0.8649575 -0.34755114
0000e0 28 da 9a be 9f fb 86 3e 9b 39 3d bd 37 90 8a 3e
       -0.30244565 0.26363847 -0.046197515 0.27063152
0000f0 b3 f9 0a 3f 27 3a 51 3e bc bb d5 3d aa 37 2d bf
       0.5428726 0.2043234 0.10436198 -0.6766306
000100 d1 e9 d2 3d 91 9a 69 bf fc 2f 45 3d 92 d5 46 3e
       0.10298503 -0.91251475 0.048141465 0.19417408
000110 0f fb 83 be 02 ba ed 3e 9f 77 35 bf be 0f 06 bf
       -0.2577748 0.46430975 -0.7088565 -0.5236777
000120 c7 a9 32 bf 1e fb 8a be 91 40 fe 3e 00 a1 08 bf
       -0.6979031 -0.27144712 0.49658635 -0.53370667
000130 1b 11 82 3f 3a 72 c8 3e 42 60 c9 bd 6c fa 85 3e
       1.016147 0.39149648 -0.09832813 0.2616762
000140 9c 0d 10 be 91 35 04 bf b5 8d 18 bf 64 ee aa 3c
       -0.14067692 -0.51644236 -0.5959123 0.020865627
000150 84 d8 0c bf 69 2c 32 3f 59 bc 3d 3e c9 f3 d8 be
       -0.55017877 0.69599015 0.1852888 -0.42373493
000160 2f 54 51 3b 0b f9 7c 3d 32 f6 9c bd 37 ce 3c be
       0.0031941046 0.061760943 -0.076641455 -0.1843804
000170 fe b0 2c 3d fb fa d1 3e c0 5e e9 3e bc 2e a8 be
       0.04216098 0.41011795 0.455801 -0.32848155
000180 f9 bc f9 3d ac f1 2d 3e d8 99 09 3f 27 d6 d0 3d
       0.12194247 0.16986722 0.5375037 0.10197096
000190 9e b0 ec 3e d0 22 b7 3e 07 77 0d bf 0e c7 aa 3d
       0.46228498 0.35768747 -0.55259746 0.08338748
0001a0 1e f1 35 be f4 76 45 3e 60 15 6f be 9d fb 95 3f
       -0.1776776 0.19283658 -0.23347998 1.1717411
0001b0 92 94 d9 3d b8 c1 31 bf ca 68 cb be 43 0d 20 bf
       0.10624041 -0.69436216 -0.39728385 -0.62520236
0001c0 5d 5c 0d 3c fd a5 36 3f b4 be c3 bf f3 61 ad 3d
       0.008627978 0.7134703 -1.5292573 0.08465948
0001d0 67 43 e6 3e f1 7b e2 be 86 90 87 3f 3e 98 83 be
       0.449733 -0.44235185 1.059098 -0.2570209
0001e0 9e 55 0f bf 4a 69 85 3f 59 7a 4d 3c 39 b9 85 bd
       -0.55990016 1.0422757 0.012541377 -0.06529469
0001f0 9e b4 cb be 55 d6 df 3d 95 bb ad 3f c9 f9 48 bf
       -0.39786237 0.109295525 1.357287 -0.7850614
000200 cc 1c a0 be 1e e5 07 3f 98 3b d8 3e 4c 3c 3d bf
       -0.3127197 0.5308398 0.42232966 -0.7392013
000210 90 25 f8 3e 95 65 3c be a0 c7 b6 3d aa 27 97 be
       0.48466158 -0.18398125 0.08924794 -0.2952245
000220 d0 70 13 bf 53 a8 6a 3e 9c 3e d5 be 7a 9f 48 3e
       -0.57594013 0.22915773 -0.4164933 0.19592085
000230 bd 8a 0b bf a5 e8 ef 3e ca 28 10 bf 8c 23 7e be
       -0.5450857 0.4685718 -0.5631224 -0.24818248
000240 45 6a cd be a2 11 b3 3d 73 8f 45 be 3c 9e 5f be
       -0.4012014 0.087435976 -0.19293003 -0.21837705
000250 11 e8 4d bf f2 9f 76 be d9 8d 92 3f 57 d8 df 3e
       -0.8043223 -0.24084452 1.1449538 0.43719742
000260 a8 ed 2e 3f a8 ae 1f c0 3f 11 03 bf dd fa 28 3f
       0.68331385 -2.4950352 -0.5119819 0.66007787
000270 92 29 c8 3e 9b f2 23 3e bb 2b a5 3f 2c fd 1f c0
       0.39094216 0.16010515 1.290397 -2.4998274
000280 e5 fe 08 bf 2c a7 19 be eb e6 71 3f d0 46 d5 be
       -0.5351394 -0.15005177 0.9449298 -0.41655588
000290 3d 9f 48 be e3 bd dd 3e 44 6b a4 3f b0 0c 0c c0
       -0.19591995 0.43308935 1.2845235 -2.1882744
0002a0 71 b0 ea be d1 c7 e7 3d 09 a6 db be 3a 0d 91 3f
       -0.4583774 0.11317409 -0.42900112 1.1332161
0002b0 a9 1e b8 be 84 e1 00 3f 0a 65 19 c0 85 41 d2 3d
       -0.35960892 0.5034411 -2.396792 0.10266403
0002c0 05 a5 70 bf 40 3e 36 be 5d d6 49 3e 1d e4 42 be
       -0.940018 -0.17797184 0.1971068 -0.19032331
0002d0 14 79 31 3f 31 c8 e7 bf 5a 63 87 bf 26 87 96 be
       0.69325376 -1.8107969 -1.0577195 -0.29399985
0002e0 f2 69 4f 3f 5a 54 f0 3e 76 53 52 be e9 31 3f 3f
       0.81021035 0.46939355 -0.2053965 0.7468553
0002f0 f8 6b 1d bf 5b 10 d6 bd db 51 1c 3f c3 4a 44 3f
       -0.6149287 -0.10452338 0.610624 0.7667658
000300 ad 0b 15 c0 32 cd ae bd ee 16 6e bf d8 b5 45 3d
       -2.3288376 -0.08535232 -0.9300374 0.048269123
000310 48 f9 55 bf 55 d5 a6 3d af 95 d9 3e 0e 0f b6 bf
       -0.835835 0.081461586 0.42497012 -1.4223344
000320 03 71 77 be 42 3c 18 bf c0 ad 5f 3e ea ac 85 be
       -0.24164204 -0.59466946 0.21843624 -0.26108485
000330 6c b1 43 3f ee f1 c5 3d e7 59 6c be 33 c1 47 c0
       0.764426 0.09665285 -0.2308117 -3.121167
000340 5c 95 85 be 33 72 6e be 67 24 23 bf f1 6b 9a 3e
       -0.26090515 -0.23285751 -0.6372742 0.30160478
000350 fa b6 2b c0 53 06 f0 3e 3c 00 2c c0 9e bc e2 bf
       -2.683043 0.46879825 -2.6875143 -1.7713811
000360 34 c9 bb 3f 5c f3 4d 3d a1 c4 63 3f 2f 8a 2c 3f
       1.4670777 0.050280914 0.88971907 0.6739835
000370 34 6f 6b 3e f6 8c 5d 3f 30 74 7b 3f a1 90 b5 3e
       0.2299164 0.86543214 0.98224163 0.35461906
000380 48 70 34 3f 02 ae a6 bf 7a 75 29 bd bf 66 35 3f
       0.7048383 -1.3021853 -0.0413718 0.70859903
000390 62 04 97 3f ef 9a 29 3e eb d5 9f 3f ba 5e 2c bf
       1.1798213 0.16563009 1.2487158 -0.6733204
0003a0 01 d9 d0 bd be 0b 0b 3f 6a df 62 3f 3a 55 e3 3e
       -0.1019764 0.5431479 0.8862215 0.4440096
0003b0 87 cd 52 be 53 91 0e 3f 35 85 9b 3f 08 24 1e be
       -0.20586215 0.556905 1.2150027 -0.15443432
0003c0 31 33 3d 3f a8 fb 4a 3e ae 26 0a 3e 35 58 a3 be
       0.73906237 0.19822562 0.13491318 -0.31903234
0003d0 e0 cc a7 be 09 9e 0a 3f 13 d4 99 bf 70 5c c7 3e
       -0.32773495 0.5414739 -1.2017845 0.38937712
0003e0 30 bc ee bc f8 cf 31 be 05 ac a8 3f 79 60 88 be
       -0.02914247 -0.1736449 1.3177496 -0.26636103
0003f0 d5 cb 3b 3f 4f e2 89 bf 25 9e 41 bd ca cd 78 bd
       0.733579 -1.0772189 -0.04726996 -0.06074313

Q2.head.0.bias f4 [64]
000000 49 9c 53 3e f5 68 25 3f e9 10 ce bc c7 b2 70 bf
       0.20665087 0.64613277 -0.025154548 -0.9402279
000010 8e cb b9 bd 92 ee 24 be c8 0c 1d 3f e9 8b c4 3d
       -0.09072028 -0.16106632 0.6134763 0.09596998
000020 0c 2f 17 bd 6a 2a 24 bf a9 34 8b 3b e8 2a 5c bc
       -0.0369101 -0.6412722 0.004248221 -0.013437964
000030 b0 a0 a6 3f f3 cf d9 be 24 17 0c 3f 44 e6 21 bd
       1.3017788 -0.42541465 0.5472281 -0.03952624
000040 c2 cc 8f bf e4 e8 b6 3d 23 55 33 bf 67 53 92 3d
       -1.1234362 0.08931139 -0.70051783 0.07144814
000050 71 27 36 bf 3f 4f a3 bf 6c fb 63 bf 15 f4 a8 be
       -0.7115393 -1.2758559 -0.89055514 -0.3299872
000060 69 a7 ea bd c6 9e 4f bd df 15 4f be 1a 40 69 be
       -0.11457712 -0.050688528 -0.20223187 -0.22778359
000070 6d ae 64 bf 0b 98 c5 bc a2 67 1c bf e0 6b 88 be
       -0.8932865 -0.024120351 -0.6109563 -0.26644802
000080 2d 67 ca bf 1f dd 96 be 7c 4e a4 be 5b c5 05 3e
       -1.5812737 -0.29465577 -0.3209113 0.13063566
000090 1a 93 07 3f 6d fa b6 bf ad 9a 10 3e 83 4f 4f bf
       0.52958834 -1.4295174 0.14121504 -0.809807
0000a0 e7 5f a3 bf 5f f5 aa be d3 63 c2 3d 05 8e 63 3e
       -1.2763642 -0.33390328 0.09491696 0.22222145
0000b0 f4 6d 75 3f 67 ed 5e 3f 80 fd 97 3d 7c 06 71 be
       0.958709 0.87081 0.07421398 -0.2353763
0000c0 c4 6a fb bd 6b d5 af be 40 26 2f bf 83 47 be 3c
       -0.12276223 -0.34342512 -0.6841774 0.023227459
0000d0 3b 52 0c 3d 3b 86 41 bf 1f d2 b3 3d 58 77 12 bf
       0.03425811 -0.75595444 0.08780312 -0.57213354
0000e0 51 03 c8 be 5d 18 80 be 95 7d 79 3d 2a b5 f9 bd
       -0.3906503 -0.25018588 0.06091078 -0.121927574
0000f0 fd e2 09 bf 5a 24 25 bd 3d d1 4c 3e d1 74 52 3c
       -0.5386198 -0.04031787 0.20001693 0.012845234

Q2.head.2.weight f4 [64, 64]
000000 bc cb 9a bd 06 6a d0 3d 73 95 b4 be f8 e9 93 be
       -0.075583905 0.10176472 -0.3527027 -0.28889441
000010 e4 de 92 bf 1d 33 7e bf 9d cc 0a c0 3e b0 1c bf
       -1.1474271 -0.9929674 -2.1687386 -0.61206424
000020 a0 c6 8c bf 2b 1e db bf bb a7 b0 bf 69 76 e1 be
       -1.0998116 -1.7118582 -1.3801187 -0.44035652
000030 e0 dc c8 bf 54 2a 20 bf d1 05 31 be 08 7e 32 bf
       -1.5692406 -0.6256459 -0.17287375 -0.6972356
000040 bf 24 8a bf db 00 11 3f c8 f4 07 be c2 0c 05 c0
       -1.0792464 0.5664193 -0.1327697 -2.0789037
000050 34 63 f9 bf 19 8e 2f be 5b 3e 35 bf 98 e5 8c be
       -1.9483399 -0.1714405 -0.7079827 -0.27518916
000060 e3 50 6c bf 22 25 0a c0 ff 95 6b c0 63 18 a1 bd
       -0.92310923 -2.1585164 -3.68103 -0.078659795
000070 4f 37 80 bf 19 a3 c8 be 55 5c d8 bc 4f 0e 12 3b
       -1.0016879 -0.39186934 -0.026411215 0.002228636
000080 26 36 07 bf 71 4c 7f bf a6 a4 de bf 41 32 28 be
       -0.52817 -0.99726015 -1.7393997 -0.1642542
000090 a5 6d 17 c0 24 f5 e4 3d 54 33 a9 bf 66 42 fb bf
       -2.3660672 0.11179569 -1.3218789 -1.9629638
0000a0 f6 5b 63 bf 09 c0 d4 be f2 e9 6a 3d 4a 47 ba bf
       -0.88812196 -0.4155276 0.057352014 -1.4553006
0000b0 a6 8e 21 3f 42 49 d6 bf 05 39 82 bf 03 39 4a bf
       0.6310829 -1.6741107 -1.0173651 -0.7899324
0000c0 56 bf 1e bf fb 32 7a bf 81 56 1f 3f da 45 88 bf
       -0.62010705 -0.9773404 0.6224137 -1.0646317
0000d0 bd 12 9d be ef c7 74 3f 4f 86 2c c0 15 4a 4d bf
       -0.3067836 0.95617574 -2.6956975 -0.80191165
0000e0 52 0f cb be 7a 79 a1 3e fa 83 a7 bf cc 28 b5 bf
       -0.39660126 0.31537992 -1.3087151 -1.4153075
0000f0 a9 57 aa bf c2 87 20 3e e6 18 99 be 03 6e 04 bf
       -1.3308002 0.15676787 -0.29901809 -0.51730365
000100 f1 f6 b2 be c9 47 b9 be 16 6f 4f bf 24 50 8e bf
       -0.34954026 -0.3618758 -0.8102888 -1.1118207
000110 aa 99 3d bf 5d 26 f7 bf f1 cf b7 3d bd fc da bf
       -0.740626 -1.9308583 0.089752086 -1.710838
000120 c6 ef 26 bf 34 99 d5 bf 3d 15 8a bf 83 ed cc bd
       -0.65209615 -1.6687379 -1.0787731 -0.10006239
000130 74 b8 31 bf b1 a1 c4 bf 39 7f 1c 3d 8d b3 61 bf
       -0.6942208 -1.5361844 0.038207266 -0.881646
000140 ed e5 9e be fc 37 02 c0 6e 33 ad bf 82 83 bd 3f
       -0.31034794 -2.034667 -1.353132 1.4805758
000150 17 03 06 c0 c7 7a d5 bf 8d fe 10 c0 94 f7 61 c0
       -2.0939386 -1.6678094 -2.2655365 -3.530736
000160 eb 04 09 c0 7b a2 4b c0 d8 ba 36 c0 4d c1 cc bf
       -2.1409252 -3.181792 -2.855154 -1.5996491
000170 e4 97 46 c0 54 90 63 3e 61 24 27 bf c3 d0 00 bf
       -3.1030207 0.22223026 -0.65289885 -0.50318545
000180 d8 6f af bf ca fc 19 bf 23 98 07 3f 52 0b d4 bf
       -1.3706007 -0.6015135 0.5296652 -1.6565955
000190 1b 56 b5 bf cf 4b 93 bf 39 bc 85 bf 70 c9 6e 3e
       -1.4166902 -1.150751 -1.0448066 0.2331903
0001a0 9c 2e e6 3b ed cc 40 bf 04 5a f4 bf 38 08 0e c0
       0.0070245992 -0.7531269 -1.908997 -2.2192516
0001b0 86 2d 19 bf dd b5 9c bd 4a b0 9f be 99 fc 7a c0
       -0.5983509 -0.07651875 -0.31189185 -3.9216673
0001c0 96 35 fa 3e 5d ca c3 bf e4 b8 ca bf 92 87 a1 bf
       0.48869008 -1.5296131 -1.5837674 -1.2619498
0001d0 15 1d 43 be 29 93 8c bd a7 51 48 c0 88 6f a3 be
       -0.19054063 -0.06864006 -3.1299837 -0.3192103
0001e0 ab d7 45 c0 b8 81 bb bf 50 1f 21 c0 6c 1b 21 bf
       -3.0912883 -1.4648962 -2.5175362 -0.6293247
0001f0 a2 49 a4 bf 50 31 3d bf 08 9d 5b be 63 2d 2e bf
       -1.2834971 -0.7390337 -0.21446621 -0.68038005
000200 06 88 bc bf aa dc 53 be e2 59 24 c0 4c 6b db 3e
       -1.4729011 -0.20689645 -2.567986 0.428553
000210 37 88 0b bf a9 ea 9b bf d7 73 33 3f 7b 89 32 bf
       -0.5450472 -1.2180988 0.7009863 -0.6974103
000220 a1 34 13 c0 45 ce 4d bf 8c db 2b bf 80 41 2c bf
       -2.3000872 -0.8039287 -0.67131877 -0.67287445
000230 bb 3b 0a c0 d9 a3 13 3e 3d e1 e4 3e 62 d4 f3 bf
       -2.1598957 0.14417972 0.44703093 -1.9049189
000240 a5 51 d9 bf d5 dc db bf 2e 9d ba 3d b7 86 66 bf
       -1.6978041 -1.7176768 0.09112011 -0.9004931
000250 b3 46 79 bf 99 8c 27 c0 9f 72 ae bf 84 10 d5 3e
       -0.97373503 -2.6179564 -1.362873 0.41614163
000260 a4 03 08 c0 cb 47 4b 3e 0f 23 12 be 79 07 dd 3d
       -2.1252222 0.19851606 -0.14271186 0.10792441
000270 0d 71 eb bf c1 72 2c 3f c4 8c bf bf 16 81 31 bf
       -1.8393875 0.673626 -1.4964833 -0.69337595
000280 c8 53 a3 bf e1 f0 fc be a1 ca 4f bc 2b 84 fe bf
       -1.2759943 -0.49402526 -0.012682588 -1.9884084
000290 73 c7 52 bf 51 2a 32 c0 0a cb a3 bd f4 e4 1e c0
       -0.82335585 -2.7838328 -0.07997711 -2.4827242
0002a0 f0 4b 7d be ea 42 2e bf 93 9e 75 bf 31 99 67 bd
       -0.24735999 -0.6807085 -0.9594509 -0.05654258
0002b0 a9 96 a5 bf 84 0c 22 bf c6 21 05 3f 77 32 78 3f
       -1.2936603 -0.6330035 0.5200466 0.96952003
0002c0 cd de 6e be 10 ab ec be c3 27 21 c0 35 63 55 c0
       -0.23327179 -0.4622426 -2.5180519 -3.33418
0002d0 70 6f c1 bf 0a cf 96 bf 8f e8 50 bf d7 b9 5b c0
       -1.5112133 -1.1781933 -0.81604856 -3.4332178
0002e0 b2 26 1b c0 0a e9 0c c0 d8 33 57 bf 8a e0 09 c0
       -2.4242368 -2.2017236 -0.8406348 -2.1543298
0002f0 7c 75 b4 bf 59 40 a3 3c 7c a3 bd bf ec 57 db bf
       -1.4098353 0.019928144 -1.4815516 -1.7136207
000300 07 ab 92 be 74 04 34 bf a3 b1 1a c0 dd a6 45 3f
       -0.28646109 -0.70319295 -2.417092 0.7720774
000310 f8 25 82 c0 29 bf 47 c0 9c 8c 01 c0 a6 98 3a c0
       -4.067135 -3.1210425 -2.024207 -2.915567
000320 e0 6e 4b c0 e8 e3 4b c0 01 39 6f bf c2 ae 4e c0
       -3.1786423 -3.1857853 -0.93446356 -3.2294164
000330 78 eb 78 3f 5e 85 c2 be 62 bd f1 bf 71 c0 93 bf
       0.97234297 -0.37992376 -1.888592 -1.1543103
000340 08 f6 ac 3f 8b b3 44 c0 8a 4b 96 bf 17 58 11 3e
       1.3512583 -3.0734584 -1.1741803 0.1419376
000350 02 aa 45 c0 83 40 0d c0 13 83 1a bf 4c db ab bf
       -3.0885015 -2.2070625 -0.60356253 -1.3426299
000360 75 94 81 c0 f1 b4 6f c0 b3 49 90 bf fa 2e 51 3e
       -4.049372 -3.7454188 -1.1272491 0.20428076
000370 63 0d 3d c0 c0 2f 0b bf c5 f9 16 bf c7 a6 44 bf
       -2.953942 -0.54369736 -0.5897487 -0.7681698
000380 d7 7f 8c bf 77 78 c0 bf 38 fb 8a bf b4 0f 06 c0
       -1.0976514 -1.5036763 -1.0857916 -2.0947084
000390 a8 22 5e c0 e7 35 fa bf 5b 22 25 bf 98 d2 cd bf
       -3.4708652 -1.95477 -0.6450555 -1.6079893
0003a0 9f 62 a5 bf 6e 94 d2 bf 73 07 8b c0 96 b2 7a bd
       -1.2920722 -1.6451547 -4.3446593 -0.06120547
0003b0 53 2c 2c c0 9f 4c 7e c0 5c 71 71 c0 c9 3e a2 3f
       -2.6902053 -3.9734266 -3.772544 1.267541
0003c0 b4 a2 8b be 02 02 05 c0 f4 cc 94 c0 3a 60 4d c0
       -0.2727257 -2.0782475 -4.6500187 -3.2089982
0003d0 7b 4a 23 bf 29 cd a0 be 5c e3 1b c0 7b 22 31 c0
       -0.63785523 -0.31406525 -2.435752 -2.7677295
0003e0 2d 49 48 c0 73 27 9e bf c4 83 5b be 87 a7 d1 bf
       -3.1294663 -1.2355789 -0.21436983 -1.637925
0003f0 66 ab 66 bf d5 51 2f c0 dc 76 89 bf 45 d2 01 c0
       -0.90105283 -2.7393696 -1.0739398 -2.0284588

Q2.head.2.bias f4 [64]
000000 82 81 a2 bf d6 d4 3a 3d 62 ef aa 3c 91 b3 32 bf
       -1.2695773 0.045613132 0.0208661 -0.69805247
000010 67 7f 2b 3b c5 ea 98 bf 81 8a d6 be fc 07 c5 be
       0.0026168467 -1.1946646 -0.41902545 -0.38482654
000020 d0 0b 1c be 63 00 1e bf 2d 75 1a bf ef f4 fc bf
       -0.15238881 -0.6171934 -0.60335046 -1.9762248
000030 dc 3d 89 bf ea 2b 88 3e 81 dc d6 be 1d f4 44 be
       -1.0722003 0.26596004 -0.41965106 -0.19233747
000040 a7 42 4a bf 31 43 2d be ac 3a 8e be 64 9a 9b bf
       -0.79007953 -0.16920163 -0.27779138 -1.2156491
000050 f0 8f 1b be a3 29 3e bf 4e 56 d4 be c2 4c 31 bf
       -0.15191627 -0.7428228 -0.41472095 -0.6925775
000060 6a 9d 81 bf 58 13 3d bf aa c2 89 be 6d d8 0c bf
       -1.0126164 -0.7385764 -0.2690633 -0.5501774
000070 47 64 93 bf c1 a2 31 be d2 9e 83 bf 89 8d 53 bf
       -1.1514977 -0.17347242 -1.0282843 -0.8263784
000080 49 2b 4c bf 82 14 ad be e7 ba 3e bf 67 67 6a be
       -0.7975355 -0.3380471 -0.7450394 -0.22891007
000090 97 32 37 bf ae b7 cd bf 95 4c 4c bf 85 06 d7 3d
       -0.7156157 -1.607168 -0.79804355 0.104992904
0000a0 08 3e 72 bf e0 00 12 bf c7 32 5e 3e 1b 96 f9 be
       -0.946259 -0.57032585 0.21699058 -0.48747334
0000b0 42 bd 7e be 0a 59 47 bf fc 97 2a bf 95 7f 5d be
       -0.24876884 -0.7787024 -0.6663816 -0.216307
0000c0 2c 19 a4 be d1 36 f8 bd ca fc 88 bf 2b b9 64 bf
       -0.32050455 -0.121198304 -1.0702145 -0.89345044
0000d0 7b f8 33 bf 3b a0 a1 bf 40 1b 54 bf 2a dc 91 bf
       -0.70301026 -1.2627023 -0.8285408 -1.1395314
0000e0 7f ef 4f bf ab 6d c4 bf 4b f3 d2 be 94 89 6c bf
       -0.8122482 -1.5345968 -0.41201243 -0.9239743
0000f0 fa b4 8c be eb cb 4a bf 56 d9 bf be 87 63 98 bf
       -0.27481824 -0.79217404 -0.37470502 -1.1905373
