script/logs/dome_held/model/best/target_critic.pth (torch, 187154 bytes, 12 tensors)

Q1.head.0.weight f4 [64, 144]
00000000: 78d3 99bf 7ebe 603e 15ea d3bf e4d6 fdbe
00000010: fac7 8b3e 645f 6e3e 8efd 9abd a8a1 9c3d
00000020: a599 2f3f bce9 63bf 39f3 92bf db7c 73be
00000030: 5df6 48bf 6f6d 41bf 89bb 08bf 1db1 213f
00000040: 5395 41bf 0dce 603e f8b9 9f3e 0ece 673e
00000050: d464 b63f 52d3 b0be 2988 b9be 2102 52bf
00000060: 7882 c1bf ff7c 6a3e 327a bc3f e42e a5be
00000070: 3d94 2cbf 5cbf 103f 46d0 eabf e885 84bc
00000080: f87b 2a3e 8f60 08bf 7bfb 9fbf e3fe 00bf
00000090: c40a 823e ef7d 89be 67b7 3fbe 8de6 7ebf
000000a0: 5963 cc3f d27f d7bf 2080 05bf 007c c03e
000000b0: 57b2 68bf 1992 76bf bcf0 8d3e 18b8 15bf
000000c0: 5412 eabe 3c7f 2dbe fea6 7fbf 03fd dcbe
000000d0: 83e9 05bf 884b 40bf d1c7 c23e 1a49 acbc
000000e0: 0cbd 12bf 733b 10bf 48c4 9f3e 01bb 02bf
000000f0: 3eb5 983e e4d4 97be e3c6 19bf 49f4 85bf
00000100: 6715 95bf 35d5 cebe 8b6a 823e 7610 44be
00000110: eb25 08bf 81f3 d5be 4e8e 4ebb deaf 5fc0
00000120: 7c0b d9be 251a a73e 7160 163d 5421 5fbc
00000130: e41c 36bf 1046 e03f 8dd4 cfbe 370f 3fbd
00000140: 36fb 1a3f 035d 98bf 6300 34bf 24cc 7ebe
00000150: bcb4 ccbe d7f0 34bf 3c69 e6be 1a1a c6bf
00000160: 6369 3fbe e18f 2a3f 10da a93e f850 763f
00000170: 280a ac3f c6c8 e9be 8732 f1be 4a78 f4bf
00000180: c320 16bf 72ca 353e 9bbf 0c40 c4f4 28bf
00000190: 9489 09bf 4ca9 e53e 5f44 63bf 886a 0f3f
000001a0: 31ed 4c3f d51a f8be e24f fabe 3894 f7be
000001b0: e96c 543e ffe9 d5bf 0fed dbbf 33de e8be
000001c0: 52df ca3f ea36 e5be cb1d b2be aaf0 873e
000001d0: 4ba4 05bf e0ec 48bd 2eff 843e 9c1b e3be
000001e0: 3b2b d7bf 6a84 f93e cb2d 1f3d 30df 7fbe
000001f0: 0c1a 83bf 12b2 44bf 56a2 a13e 6672 60bf
00000200: 6537 01bf 4d14 e83d 2f42 0d3f a5a3 6abf
00000210: c1cf 683e ed41 7cbe c1c3 edbe a42b 08c0
00000220: 683b b6be 9bb9 a4bb 2d51 0040 e990 bc3e
00000230: 62ed 1bc0 2dee 86be 6bd0 a4bf ba5b 14bf
00000240: e945 0ec0 2f21 37bf bc1a 27bf 473d 6abf
00000250: ecde b03f 8357 91bf 61bb 25bf f95f 7ebd
00000260: a1ec f4bd b49f 18bf 4784 4dbf d1d3 60bf
00000270: a59b abbf fb78 d6be 749f 02bf ac7a f3be
00000280: 7053 87bf bd85 bfbe b4b5 16bf c359 e2be
00000290: d4b1 e9be e164 ecbe bfd4 30bf 416c 8dc0
000002a0: a09f c3bf d04b a33e a37f 1640 6cac fabd
000002b0: 80e2 02bf 39cd 8c3c f1b4 8b3f b626 02be
000002c0: 77c2 24bf 9975 41be 940b 75bf 9ec5 30bf
000002d0: 4e5f 03bf 5bb5 85bf 9f61 03bf ca9f afbf
000002e0: 3b5e 8cbe 93d3 c6bf 8208 3cbf ed21 4cbf
000002f0: 693c afbf ee4b c23f 409d 71bf b9a8 3dbf
00000300: 8334 fabd 0baa 51be 5fe1 5dbf 3079 27bf
00000310: 5b36 7c3e a197 19be c9e1 a8bb cbf0 013f
00000320: 7a36 f9be 8bfa bfbf 7981 3d3f ea4c a5bf
00000330: b6eb 22bf afa7 44bf 6614 1cbf 2665 aebf
00000340: 4cc0 fa3b 5564 0abf e586 79c0 b981 cdbd
00000350: a002 d2be d57e c9be 518c df3d 50b9 733b
00000360: 428b 4fbf a2a6 25bf dcee e9bf 7fe4 71bf
00000370: 766e 8ebf 905a 00c0 2275 3abf f5a4 16bb
00000380: a2fd c5bd f4df 4ebf 3b88 f3be 0882 4cbf
00000390: 8921 0cc0 c00b e6be 6e6c c2be 952c 59bf
000003a0: 8003 85bf 40f0 b3be fe3b 2abf 9dba 1a3f
000003b0: 5443 ccbe 6cae 1cbf ba62 42bf 7262 553d
000003c0: 96c9 39bf 5882 783e 398d 5e3f ebae 8dbe
000003d0: c706 06bf 9e21 a7bd 19fd 8ebf b5b8 04be
000003e0: 9cd3 79bc 22b2 8cbe afce f9bf 57d8 53bf
000003f0: 3bf5 09bf d620 ddbf c8cc c6bf 5d5c adbf
-1.201766 0.21947667 -1.6555811 -0.4957801 0.27301008 0.23278576 -0.07567893 0.07648021
0.6859382 -0.89028525 -1.1480476 -0.23778097 -0.7850092 -0.7555761 -0.53411156 0.6316088
-0.75618476 0.21953602 0.3119657 0.22637197 1.424952 -0.34536225 -0.36236694 -0.820345
-1.5117941 0.22899245 1.4724791 -0.32262337 -0.67413694 0.5654199 -1.834481 -0.016177133
0.16648853 -0.53272337 -1.2498621 -0.50388926 0.2539884 -0.26853892 -0.18722306 -0.9957054
1.5967818 -1.6835883 -0.5214863 0.37594604 -0.90897125 -0.9631668 0.27722728 -0.5848403
-0.45717108 -0.16943067 -0.99864185 -0.43161783 -0.52309436 -0.7511525 0.38043073 -0.021030951
-0.5731971 -0.5634071 0.31204438 -0.51066595 0.29825777 -0.2965461 -0.600691 -1.0465175
-1.1647156 -0.4039704 0.2547191 -0.19146904 -0.5318286 -0.4178734 -0.0031517926 -3.495109
-0.42391574 0.32637134 0.036713067 -0.013618786 -0.71137834 1.7521381 -0.4059185 -0.04664537
0.6053957 -1.1903385 -0.7031309 -0.24882561 -0.3998164 -0.7067999 -0.45002162 -1.5476716
-0.18692546 0.6662579 0.3317418 0.962173 1.34406 -0.4566099 -0.47108862 -1.9099209
-0.5864374 0.17753008 2.1991947 -0.6599848 -0.5372555 0.44855726 -0.887762 0.5602193
0.80049425 -0.4845797 -0.4888907 -0.4835527 0.20744671 -1.6712035 -1.718172 -0.45482025
1.5849402 -0.4476846 -0.34788355 0.265508 -0.52203816 -0.049054027 0.25975937 -0.44357002
-1.6810068 0.48733836 0.03886203 -0.24987483 -1.0242324 -0.76834214 0.31569165 -0.8767456
-0.5047515 0.11331997 0.55179113 -0.9165595 0.22735502 -0.24634524 -0.4643841 -2.1276636
-0.35592198 -0.0050270087 2.0049546 0.36829308 -2.4363637 -0.2635359 -1.2876104 -0.57952464
-2.223017 -0.7153501 -0.6527517 -0.9149975 1.381803 -1.1354831 -0.6473904 -0.062103245
-0.11959196 -0.5961869 -0.80279964 -0.87823206 -1.3406874 -0.41889176 -0.51024556 -0.4755453
-1.0572338 -0.37406722 -0.58871007 -0.44209108 -0.45643485 -0.46170714 -0.69074625 -4.4194646
-1.5283089 0.31893778 2.3515403 -0.12239918 -0.5112686 0.017187702 1.0914594 -0.1271008
-0.6435923 -0.18892516 -0.9572079 -0.6905154 -0.513173 -1.044597 -0.5132083 -1.3720639
-0.27415642 -1.5533317 -0.7345048 -0.79739267 -1.3690311 1.5179422 -0.9438057 -0.74085575
-0.12217047 -0.20475022 -0.86672014 -0.6541929 0.2463011 -0.14999248 -0.005153869 0.50758046
-0.48674375 -1.4998335 0.74025685 -1.2914097 -0.63640916 -0.76818365 -0.60968626 -1.3624618
0.007652318 -0.54059345 -3.8988583 -0.10034508 -0.41017628 -0.39354578 0.10915435 0.0037189312
-0.81071866 -0.64707386 -1.8276019 -0.9448928 -1.112746 -2.0055275 -0.7283498 -0.0022986506
-0.09667517 -0.80810475 -0.47564873 -0.7988591 -2.1895468 -0.4493084 -0.3797335 -0.8483365
-1.0391693 -0.35144234 -0.6649779 0.60441 -0.39895117 -0.61203647 -0.75931895 0.052095838
-0.7257322 0.24268472 0.8693424 -0.27672514 -0.5235409 -0.08160709 -1.1170989 -0.12961085
-0.0152482055 -0.27479655 -1.95162 -0.82751983 -0.53889817 -1.7275646 -1.5531244 -1.3543812

Q1.head.0.bias f4 [64]
00000000: ee47 543f 25bd 08bf 5a6b 5bbf 3432 2d3f
00000010: 7a2c 6cbf c667 f9be 7b6d 13bf c99e 763e
00000020: a437 0ebf a065 75bf 289a 35be aca8 423f
00000030: 42a9 09bf ae2f d7bd 2ad5 b7be b4fe 4fbf
00000040: a102 bebf 62c3 b1bd 2c54 41be 9d4e 03bf
00000050: 9cfe 29bd 17c4 943f 5e57 00c0 545a 223d
00000060: b38d adbf 0789 9f3f 296a 0dc0 bd98 bc3e
00000070: 6e39 9ebe 2a39 afbe 55c1 6cbe bc00 13c0
00000080: 3a55 943e 131a c3be cba7 dd3d 6233 84bf
00000090: e481 2cbf 5437 f5bf a7f9 95bf eb17 8ebe
000000a0: 93a2 f73e 7939 00c0 c6dd 0d3e a2b5 f0bd
000000b0: 00b8 023d 3f8d 67be 1ba5 88bf ea2c 5bbf
000000c0: 5456 963e 3fd2 1d3f 6f35 763e 088b 9dbf
000000d0: 46c3 6bbf e4d9 a2be ff5c 30bf 6c23 80bf
000000e0: 2b8c 053f 227d 21bf 2237 32be 75f6 72bf
000000f0: b846 c23d 331d 63be d145 11c0 ce79 dcbe
0.82922256 -0.5341361 -0.8571068 0.6765473 -0.92255366 -0.48711985 -0.5758893 0.24084009
-0.5555365 -0.9585819 -0.17734587 0.7603862 -0.5377389 -0.10507141 -0.3590482 -0.8124802
-1.4844552 -0.086798444 -0.18879765 -0.5129183 -0.04150258 1.1622342 -2.0053325 0.039636925
-1.3558868 1.2463692 -2.2096045 0.3683528 -0.3090319 -0.342233 -0.23120625 -2.2969198
0.28971273 -0.3810583 0.108230196 -1.0328181 -0.673857 -1.915751 -1.1716813 -0.27752623
0.48366222 -2.0035079 0.13854131 -0.11753394 0.031913757 -0.22612475 -1.0675386 -0.8561541
0.29362738 0.61648935 0.24043821 -1.2308054 -0.9209484 -0.31806862 -0.688919 -1.001081
0.52167004 -0.6308156 -0.17403844 -0.94907314 0.09486145 -0.22179107 -2.2698863 -0.4306168

Q1.head.2.weight f4 [64, 64]
00000000: 4ea5 09c0 9bfc 83be 030f 32c0 c2f8 3140
00000010: 5e5c 50c0 8531 11bf c0b9 d8be efa0 493e
00000020: 562d 303c b371 3f3f b331 2ec0 6116 83c0
00000030: 1b44 123c 6575 07c0 48ae 30bd b1f1 3f3c
00000040: c771 6fc0 41f5 12c0 d06e 87c0 fb0b 903f
00000050: 34e6 fbbf 9fb2 c03f b72d a5be c136 833d
00000060: 1625 5bc0 dae6 d5bf 7f80 75c0 cc27 4bc0
00000070: 29db 41c0 877b 93c0 23fd 81c0 e053 bfbf
00000080: 4ad3 bd3e 0ce7 c5be 40fd 35c0 23ca 5ebf
00000090: 86b8 11bf 8ec2 1dc0 b377 79be 213c 76c0
000000a0: bedd eebf 4e8e 1bc0 ed5b 47be cac3 86be
000000b0: a51e 13bf 449f 043e fc12 8fbf 9736 a13d
000000c0: 360b 7dc0 a0a1 22c0 720f 203e 7266 80c0
000000d0: 2dbd 87be 2eed debf a267 09c0 598b b43d
000000e0: 1cae 4bc0 432d 0fbf 7fcf 5cc0 8747 c53d
000000f0: b292 8bc0 9068 a9c0 65c3 21c0 8d5a a2bf
00000100: e73e 77bf 550d 203f 9744 fbbd 1880 65be
00000110: f369 bcbe 982d 823f 79cc 9f3e daca 5d3c
00000120: a5b7 883e 95bc a5bf 4340 c7be 653a 673d
00000130: 0a76 033e 23bd e83c 097c 8ebf b13d f1bf
00000140: 545f 94be 5270 a8be 7581 5f3e 652a d73e
00000150: 1ba3 be3e 5635 03bf 24d4 e7be 982b c0bf
00000160: c92f 52bf 014f e8be 33ad 173d 8467 87be
00000170: aa6b 16c0 7a7f abbf e058 69be e3cb 78bf
00000180: 5a12 5abf a78d 12be afa2 a2bf 0382 9bbe
00000190: cc6c 3d3f 675f 60be a44f be3e 4bfd 34bf
000001a0: 65e4 31bd 2429 f4bf e5c3 7fbf fcf8 37bf
000001b0: d656 b6bf 416e 5ebf 2c69 c0be 5f16 0fbe
000001c0: 175f 56be 5237 613e e69e e3be e34e a9bd
000001d0: 4764 f0be f83d 0fbf 162b 12bf 81a6 d5bd
000001e0: eb2b fbbe 9c11 aabf 73c6 54bf 9077 adbf
000001f0: 5c77 e43e 8fa6 b9bf ac6b 63bf 3780 6f3e
00000200: 3644 283f 13d9 6c3f 62f5 e3bf 2856 b0bd
00000210: efaf 18bf e4d0 1bbf 0474 bdbf 9c49 67bf
00000220: bfa5 a73e 8990 8dbf 3f73 b33d 1dbe 84bf
00000230: cd45 bb3e e335 0dbf 1f9c ab3d 69f5 143e
00000240: 0b64 ffbd bd1a 74bf 9d95 97be 137a 20bd
00000250: 01c8 49bd 72dc 46bf 67bb a7be c750 033e
00000260: c4b2 febf d6c0 15bf cf31 6c3d 520f 93bf
00000270: 1b88 203e cfac 87bf c8fa 9bbe 5bcc 033f
00000280: f9a0 a5bf 64c8 683e 75f2 86bf 9e0e 4cbe
00000290: 1a61 e43d 6cda a9bd f391 1bbe 2314 543f
000002a0: 429e 353f b181 153f ce09 9bbf 5714 2bbf
000002b0: 2449 76bf 55a7 a8be 9255 e4bf 5668 b53e
000002c0: 084b 0abf 6320 0cc0 05d9 9fbf a5a4 90bf
000002d0: 05db a0bf 97ad 0cc0 b33f cebf f6e9 a9be
000002e0: 6b39 0cc0 2fd9 4c3e 4436 cabf f305 05bf
000002f0: 8d59 55bc cee2 153f 9a44 e2be e63b c7bf
00000300: 0b87 d5be 1c2a 803e 7526 773d 2589 d93f
00000310: 15f8 0dbf 5056 52be 95c2 11bf d4a9 c6bf
00000320: 300d 73be 04d4 18bf c24e 23bf d09b 4fbf
00000330: 0765 02bf 8398 17bf 7b0c bc3e 4bfe fbbf
00000340: 3345 b53c e50f a2be 6e36 0fbf 9ee3 f23e
00000350: f4b9 0cbf 2d75 dd3c 4bf7 e3bf ba75 f6be
00000360: 88d5 69be 8e9c 12bf 29c4 eb3d a2d4 48bf
00000370: 9d0a abbf b1b8 c1bf c123 4abf 9162 57bf
00000380: 04cd b83d 2068 a0bf e199 b3be 61de 28bf
00000390: 997e a5be 3987 2abf 0000 083f a968 e0be
000003a0: d3e0 c0be c8f7 d1be ed49 3bbf c74f 9bbf
000003b0: 10e9 a8bf ba01 06c0 e62c 6abf ab96 2d3f
000003c0: 4549 0cbf 96e5 95bf fb59 bfbf 5b1f 6d3d
000003d0: 58a9 d7be 1065 b8bf d657 1fbd 2982 2dbf
000003e0: fbed 03bf 4fe7 913e 3020 15bf ce9c 30bf
000003f0: 2662 55be 5852 89bf 6357 9abe 9dfa ef3e
-2.1507144 -0.2577866 -2.7821662 2.780808 -3.2556376 -0.56716186 -0.42329216 0.19690298
0.010752996 0.74782866 -2.7217834 -4.096482 0.00892737 -2.1165402 -0.043134958 0.011715339
-3.7413194 -2.296219 -4.232277 1.1253656 -1.9679627 1.5054511 -0.3226144 0.06406928
-3.4241385 -1.6711075 -3.8359678 -3.174304 -3.0290015 -4.608829 -4.0621505 -1.4947472
0.37075263 -0.38652837 -2.8435822 -0.87027186 -0.56922185 -2.4649997 -0.24362068 -3.84742
-1.866142 -2.4305606 -0.1946866 -0.2632125 -0.57468635 0.1295138 -1.1177669 0.0787174
-3.9538093 -2.5411148 0.15630892 -4.0125055 -0.26511517 -1.7416131 -2.1469502 0.08815641
-3.1825018 -0.5592844 -3.4501646 0.096327834 -4.361657 -5.294014 -2.527551 -1.2683884
-0.96580356 0.62520343 -0.12268942 -0.22412145 -0.36799583 1.0170164 0.31210688 0.013537133
0.2670261 -1.2948176 -0.38916215 0.056452174 0.12837997 0.0284105 -1.1131603 -1.8846952
-0.2897898 -0.32898194 0.21826728 0.42024532 0.37233815 -0.5125326 -0.45279038 -1.5013304
-0.82104164 -0.45372775 0.03703041 -0.26446164 -2.3503213 -1.3398278 -0.2278781 -0.97186106
-0.8518425 -0.14311849 -1.2705897 -0.3037263 0.73994136 -0.21911393 0.37170136 -0.70698994
-0.043430705 -1.9075055 -0.99908286 -0.71864295 -1.424525 -0.86886984 -0.3758024 -0.13973378
-0.20934711 0.2199376 -0.44457167 -0.082669996 -0.46951506 -0.5595393 -0.57096994 -0.10432149
-0.49056944 -1.3286624 -0.8311531 -1.3552113 0.44622314 -1.4503955 -0.8883617 0.23388754
0.6572908 0.9251873 -1.780926 -0.08610183 -0.59643453 -0.60865617 -1.480103 -0.90346694
0.32743642 -1.1059734 0.08762216 -1.0370518 0.3657669 -0.5516035 0.08379387 0.14546742
-0.124702536 -0.953533 -0.29606333 -0.03917892 -0.049263004 -0.7768012 -0.32760164 0.12823783
-1.9898305 -0.5849737 0.05766469 -1.148905 0.1567692 -1.0599612 -0.30464768 0.51483697
-1.293975 0.22732693 -1.0542742 -0.19927451 0.11151333 -0.08293614 -0.15192394 0.82843226
0.7094461 0.5840102 -1.2112367 -0.6682791 -0.96205354 -0.32940164 -1.7838614 0.35431165
-0.5402074 -2.1894767 -1.2488104 -1.1300246 -1.256684 -2.198095 -1.611319 -0.3318631
-2.1910045 0.20004724 -1.579781 -0.519622 -0.013021839 0.585492 -0.44192964 -1.5565155
-0.41704592 0.25032127 0.06033941 1.6994978 -0.5545667 -0.20540738 -0.56937534 -1.5520577
-0.237355 -0.5969851 -0.6379205 -0.81097126 -0.50935405 -0.5921709 0.36728272 -1.9686979
0.022127723 -0.31652752 -0.5594243 0.47439283 -0.5497124 0.027033413 -1.7809843 -0.48136693
-0.22835362 -0.57270133 0.11512024 -0.7844945 -1.3362614 -1.5134488 -0.78960806 -0.84134775
0.090234786 -1.2531776 -0.35078338 -0.65964323 -0.3232315 -0.66612583 0.53125 -0.4382985
-0.37671527 -0.41009355 -0.73159677 -1.2133721 -1.3196125 -2.0938554 -0.9147476 0.67808026
-0.547993 -1.1710689 -1.4949335 0.05789123 -0.42121387 -1.4405842 -0.038902126 -0.67776734
-0.51535004 0.28496787 -0.5825224 -0.68989265 -0.20838222 -1.0728254 -0.30144796 0.4687089

Q1.head.2.bias f4 [64]
00000000: 81d8 b33e 8ab7 eabe 0e38 f2bf d714 99bf
00000010: 118c 40bf f9f9 bbbf 657b a7bf 092d 98bf
00000020: 9559 1dbf 6a3e 89bf c52b a0bf 1d37 1bbf
00000030: 5c26 87bf 7c85 85be 194a 8d3d d1de afbf
00000040: 4f65 72bf 809a 4bbf 80d5 79bf 62df d8bf
00000050: ebc0 14bf a5bc 58bf 21b7 1abf aec0 93bf
00000060: c31c 1cbf 96bd 35bf dbbe 89bf a7bf 54bf
00000070: c080 a2be 04a6 b1bf 2f19 07bf c70d c1bf
00000080: ad16 dabf 6635 0ebf 7da8 8ebf fad8 a4bf
00000090: e9e0 b6bf 526f 05bf 9318 a5bf eecd d2bf
000000a0: 0826 adbf 68d8 ecbf 250b cebf d19f 5fbf
000000b0: fb83 90bf 8dff 25bf 8a38 7cbf 4f6e e4be
000000c0: 49ac 99bf 04fe 87bd 4509 10bf 7ac3 4bbf
000000d0: f51f debe acd8 12c0 390d 8cbf 7f8c fbbe
000000e0: 28c7 abbf 6ecd 3dbf c5df 6dbf ff78 c5bf
000000f0: 37b3 cbbf f7a0 56bf 933b cbbf d87a 2bbf
0.35126117 -0.45843154 -1.8923357 -1.1959485 -0.75213724 -1.4685661 -1.3084532 -1.1888744
-0.61464816 -1.0722172 -1.2513357 -0.6063097 -1.0558581 -0.26078403 0.06898899 -1.3739873
-0.94685835 -0.79532623 -0.975914 -1.6943171 -0.5810687 -0.8466285 -0.6043568 -1.1543176
-0.60981387 -0.7099241 -1.076137 -0.8310494 -0.31738853 -1.3878789 -0.527728 -1.508233
-1.703817 -0.5555023 -1.1145169 -1.2878716 -1.4287387 -0.52122986 -1.2898124 -1.6469095
-1.3527231 -1.8503542 -1.6097151 -0.87353235 -1.1290277 -0.64843065 -0.9852377 -0.4461541
-1.2005702 -0.066402465 -0.56264144 -0.7959515 -0.43383756 -2.2944746 -1.0941535 -0.49130628
-1.3420153 -0.74141586 -0.9291957 -1.542755 -1.5914067 -0.8383936 -1.5877556 -0.6698432

Q1.head.4.weight f4 [144, 64]
00000000: 9911 48bb dcaf 0d3e a4ef ed3e 11f1 183e
00000010: 38be f3be 8b91 993d c195 eeba fbab 40bf
00000020: 158b 0e3d 9630 733a 2812 923d 54e9 a0bf
00000030: 7c82 bdbe 6019 b83b 7bc8 013b 5cc6 aa3a
00000040: 8c45 f13c 9a1d 5d3e 40b8 c73e 185a 8b3b
00000050: a77b 5ebd 0806 2dbd 9a65 df3d 49b8 c5bb
00000060: a8e1 0ebd d3ae ae3c 0c42 2cbf bf52 1abe
00000070: f76e d6bd c89e b9bc a368 193d d9ea 90bf
00000080: 2daf 21c0 69f8 30be 7e6b 2bbd 2155 873d
00000090: eac7 9fbe 2793 24bd 0df5 853d 793e 81bd
000000a0: eaea 63bf 7dab 7f3e a714 023e 45a2 aebc
000000b0: f5cb e03e abf2 ad3d 9b24 71bd e637 333e
000000c0: 73a6 c1bc daec 9bbe 9e5a 79bd 9545 143a
000000d0: 9f1d c23d e46f 67c0 01d5 01be 685d 92bf
000000e0: 535f 753c 3235 f1bd 6e0b cc3c 590e 62bb
000000f0: 486b 673d df42 1dbf e0bc 95bd 3d12 8dbd
00000100: b0fb dabe 1b02 afbb 59c5 bf3d 37dd 0e3f
00000110: a66c 01be e2b3 2b3e 3511 37bc 6b47 5bbf
00000120: 5550 113c 62de cabd 64db 323e d259 3d3d
00000130: d0c0 83bd 669e d93d d5cf e4bd d532 f83e
00000140: 1e9d 7a3e 0188 863b 54db e4be 4048 be3b
00000150: 9794 4cbd 9b4d 0e3e a4e7 393d 8fe2 42bc
00000160: baa1 bf3e 1f1b ad3e fd03 ed3d 184b cb3e
00000170: 2439 173e ddc5 08bf 6443 833d f141 d73e
00000180: 1443 843e fd19 54bc fc02 8e3c a9c9 103d
00000190: aab7 403e d72d 82bd c104 923d 22f1 093f
000001a0: d692 57bf e8df cb3d 3387 0f3c 62d2 b73d
000001b0: 197f 663e 0659 913d 4211 83bc 7ea6 8e3e
000001c0: f746 0cbe eeb3 033e e258 c1bb 7e94 933c
000001d0: fa50 7fbc 3fb3 53c0 2df0 6e3e a69f 22be
000001e0: 4a09 2c3f d4c6 023e a28f e83c 0818 513e
000001f0: abf6 94bd 17ef 703e be45 c03e 258b b73c
00000200: 5c84 92b9 4a93 36bf 67f8 e2bd 43b0 20bf
00000210: e382 c13c 1a64 133c 99d9 34bf 232c 8a3d
00000220: 6907 cc3d d99d c03b f215 e23c 4e04 e63c
00000230: 9cd3 e33b dadc bd3d ce04 dab9 62a1 40bf
00000240: 3c54 b8bb f3d1 a2bd 43d4 4ebf bed6 a8bc
00000250: 72a4 bd3c 5557 6c3d 8a3d db3c 6e7a 00bd
00000260: 7feb 253b 69ac b939 35c3 c4bb 03c9 4c3b
00000270: 4b6a 933b 4b09 983a 2295 4b3d 003e 0ebd
00000280: b777 89bc 7745 6b3f dcad c43d 1587 d93c
00000290: b8f2 eabe 3655 423b cc37 323d 94b9 773c
000002a0: d1fb 40bf 4ca1 c33c b2e1 b73d d1f8 11bf
000002b0: 66f7 573d 8926 34bd 6730 103f d839 c63c
000002c0: 73ea c73c 826b 71bf f3bf 413d ba53 36ba
000002d0: 15b0 d1be c3aa 6ac0 82a5 b53d dc73 ebb8
000002e0: fe11 9739 726c afbe 7236 e9bd 6ea5 0bbf
000002f0: f1ee c53c 883d c23d 5ec9 c13e 56b7 2cbc
00000300: 4310 523c 0c1e 51be 9ff5 253e 0e38 bd3e
00000310: e2b4 fcbc 9f0f 09bb b79d 40be 7441 e93c
00000320: 5f82 9fbc 94c4 923e b514 9f3c 6e3f 4bbd
00000330: 620b 9cbd b816 3cbd aa4b 463c 02bc 2dbf
00000340: 5af0 3cbd 1426 393d 58b9 4dbf 55f1 883c
00000350: c2a9 103d ad46 353d 3b6f 45bd db96 2d3d
00000360: 3915 21be f8a1 afbc 1a90 f93c 7793 a03e
00000370: 4fac 0b3e 9aa7 67bc 8603 1e3d 8d90 fa3e
00000380: b90e 3d3f f851 ea3d 9f8d aebc 3a47 a93d
00000390: 5aca 2f3d 84bf c9be 01c3 4abf 6a81 2cbd
000003a0: 6473 42be c572 90bd 3391 c13e 9052 4abe
000003b0: b4ef da3d 85ce 383d fece 8d3d ff7c 693e
000003c0: 4e55 83bd ba20 9539 755d a73d 9d8d 40bd
000003d0: 0707 0f3d da21 4ec0 2e84 863e 135b f9bc
000003e0: 206f bc3d 2dd3 35be a421 4b3f ee82 60be
000003f0: 9e05 593f 76b4 94be 7b9b 79be 7410 c13c
-0.0030528067 0.13836616 0.46471894 0.1493571 -0.47606063 0.07498463 -0.0018202589 -0.7526242
0.034800608 0.0009276954 0.07132369 -1.2571206 -0.37013614 0.0056182593 0.0019803334 0.0013029086
0.029452108 0.21593323 0.3900776 0.0042526834 -0.054317143 -0.04224208 0.10908051 -0.0060339314
-0.03488317 0.021323597 -0.6728828 -0.15070628 -0.104703836 -0.02265872 0.037453305 -1.132167
-2.526317 -0.17282261 -0.04185056 0.06608034 -0.3120721 -0.040179398 0.0654088 -0.06310744
-0.89030325 0.24967761 0.1270319 -0.02131761 0.43905607 0.08493551 -0.0588728 0.17501792
-0.02363894 -0.3045414 -0.060877435 0.00056561205 0.09478306 -3.6162043 -0.12678911 -1.1434755
0.01497634 -0.11777724 0.024907794 -0.0034493415 0.056498796 -0.6143016 -0.07311416 -0.06888244
-0.42770147 -0.005340827 0.09363813 0.558063 -0.12639102 0.16767839 -0.011173536 -0.8565585
0.00886925 -0.099056974 0.17466503 0.046228237 -0.064332604 0.10625915 -0.11172453 0.48476282
0.24473998 0.0041055684 -0.44698584 0.0058069527 -0.049946394 0.13896792 0.045386925 -0.011894836
0.37428075 0.33809754 0.11573026 0.3970573 0.14767891 -0.53426915 0.06409338 0.42042497
0.25832427 -0.012945649 0.017335407 0.035348568 0.18820062 -0.063563995 0.07129813 0.53883564
-0.8420843 0.09954816 0.008760261 0.08975674 0.22509421 0.07097058 -0.01599944 0.27861398
-0.13698946 0.12861606 -0.0059004882 0.018015143 -0.015583271 -3.3078153 0.23333807 -0.15881214
0.67201674 0.1277116 0.028388802 0.20419323 -0.07273611 0.23528706 0.3755321 0.022405216
-0.00027945905 -0.71318495 -0.11082535 -0.62768954 0.023621982 0.008996034 -0.7064453 0.067467
0.09962351 0.005878192 0.027598355 0.028078225 0.006952716 0.0927064 -0.0004158378 -0.7524625
-0.005625276 -0.07950201 -0.80792636 -0.02061021 0.023149703 0.057700474 0.026762743 -0.031366758
0.0025317369 0.00035414405 -0.006004716 0.0031247742 0.004498755 0.0011599449 0.04970277 -0.034727097
-0.016780717 0.9190287 0.096034735 0.02655367 -0.45888305 0.002965284 0.043510243 0.015119929
-0.7538424 0.023880623 0.08978595 -0.5702029 0.052726172 -0.043982062 0.56323856 0.024197504
0.024403786 -0.9430467 0.047302198 -0.0006955225 -0.40954652 -3.6666725 0.08869459 -0.00011227254
0.0002881437 -0.34262425 -0.11387338 -0.545493 0.024161788 0.094843924 0.37848943 -0.010541758
0.01282126 -0.20421618 0.16206978 0.3695683 -0.03084797 -0.0020913852 -0.18810163 0.028473593
-0.019471345 0.28665602 0.019419054 -0.04962104 -0.076193586 -0.045920104 0.012103001 -0.67865
-0.046127655 0.04520233 -0.8036094 0.016716639 0.035318144 0.044256855 -0.04820178 0.042380195
-0.15730752 -0.021439537 0.03046422 0.31362507 0.1363995 -0.01413908 0.03857758 0.48938408
0.7385059 0.114414155 -0.021307765 0.082655385 0.042917587 -0.39403927 -0.792038 -0.042115606
-0.1898933 -0.070531406 0.3780609 -0.19758058 0.10690251 0.045118827 0.06924246 0.22801588
-0.06412755 0.00028443878 0.081721224 -0.047010053 0.03491881 -3.2208161 0.2627272 -0.030438935
0.09200883 -0.17756338 0.79348207 -0.21924946 0.84774196 -0.2904393 -0.24375717 0.023567416

Q1.head.4.bias f4 [144]
00000000: 8bd9 83bc 0728 dd3d dbab 4abc da08 2cbd
00000010: 08a1 b0bc d900 6abc 5ccf 73be eb71 81bf
00000020: 7ccb bbbf 23e3 52bb 9ea2 90bc e839 21bf
00000030: cd25 b7bc b004 0fbf 22d7 b9bf 0495 1ebb
00000040: f151 16bd dfd9 b5bc 4d63 27be f4cb 4ebc
00000050: b8ac 93bd 8bd2 62bf 725a bcbf 96b7 b8bb
00000060: 5712 acbc b573 eebe 59a6 9dbc 590f 63bf
00000070: 8849 11bf cc14 bbbf 142f 90bb 6299 b7bc
00000080: 21af 09bd f0be 72bf 8146 6bbc e690 4ebe
00000090: 20b9 d5bc 1c0c e1bb 67b7 d6ba e44e a2bc
000000a0: b257 57be c35a 5dbc f506 5fbd 1af5 b9bf
000000b0: fb9c e4bc 770f 3cbc 9f35 25bf bc9e eb3e
000000c0: 8a66 61bb b25e e4bc 4eab a8bc a227 92be
000000d0: 823e 78bc f660 63bd b324 d8bd 537f 7fbb
000000e0: 1820 fabe da54 a5bc c2bf 27bd a77a 21bc
000000f0: 50f5 cbbd afdf 57bd f1c8 81be f15e faba
00000100: 61c1 78bc 6455 6bbd 7297 1dbc b013 25bd
00000110: 7d13 26bb b430 19bf 82de 30bb 334c 11bb
00000120: 8b5a c5bc 62e2 83bf a97f abbc 6df9 21bd
00000130: 869e 57bc f55d 4fbc 130c e8bf 0070 f1bf
00000140: d733 06c0 d965 5cbb a45e cfbc ac2b bebf
00000150: 459c 4abc b961 b6bf 6207 05c0 ccce 50bb
00000160: b825 55bd 3d07 bfbc ee9b 0ebf 1225 4abc
00000170: 701a a1bf 50d9 e0be f1ec 2fc0 0d25 6dbb
00000180: c3c4 b6bc d3c3 dfbf 5024 63bc 99a4 0dc0
00000190: 87f3 f0bf d068 4dc0 2f12 f0bb 089d f8bc
000001a0: 48a9 b7bc d9a2 d8bf 5617 67bc 6058 15be
000001b0: 3d99 57c0 0fd0 14bc 9191 2abb 0df8 dcbc
000001c0: 8004 64bf 9989 57bc e804 6dbd 1d7c 0ac0
000001d0: 9cf5 b3bc f583 56bc 5953 a0bf 899b 58bf
000001e0: b475 92bb fab7 a3bc fb62 debc 0839 0abe
000001f0: 02de 2fbc 6b49 86bd 95ae 8dbe dd39 52bb
00000200: 3c82 a4bf e1d1 8cbc a9d2 72bf ddc8 a1bc
00000210: 5ca9 9ebf e904 42bd 1509 a8bf d802 15bb
00000220: 2e28 82bc 8cb1 3abd bc85 37bc 7384 29bd
00000230: 04b5 98bb 18a5 b2bf 84f0 38bc 59d8 34bb
-0.016094944 0.1079865 -0.012370075 -0.04200063 -0.02156116 -0.014282429 -0.2380957 -1.011289
-1.4671474 -0.003217884 -0.017655667 -0.6297898 -0.022356892 -0.5586653 -1.4518778 -0.0024197707
-0.03669924 -0.022198616 -0.16346474 -0.012621868 -0.07210678 -0.88602513 -1.4715102 -0.0056371195
-0.021004839 -0.46572652 -0.01924436 -0.88695294 -0.56752825 -1.4615722 -0.0044001434 -0.022412006
-0.03361428 -0.948226 -0.014360071 -0.20172462 -0.026089251 -0.0068678986 -0.0016381562 -0.019813009
-0.21029547 -0.013510409 -0.054449994 -1.4527924 -0.027906885 -0.0114782965 -0.64534944 0.46019542
-0.0034393393 -0.027877185 -0.020589497 -0.28545862 -0.015151622 -0.05551239 -0.10553875 -0.0038985803
-0.4885261 -0.020182062 -0.04095436 -0.009855903 -0.09958899 -0.052703556 -0.2534862 -0.0019101781
-0.015182824 -0.05745448 -0.009618627 -0.04030198 -0.0025341206 -0.5983994 -0.0026988094 -0.0022170662
-0.024091026 -1.0303462 -0.020934897 -0.03954451 -0.0131603535 -0.012656678 -1.8128685 -1.8862305
-2.096914 -0.0033630042 -0.025313683 -1.4857078 -0.012366359 -1.4248573 -2.0785756 -0.0031861542
-0.052037925 -0.023318881 -0.5570668 -0.01233794 -1.2586193 -0.43915796 -2.7488368 -0.0036185414
-0.02231062 -1.7481636 -0.013863638 -2.2131712 -1.8824319 -3.2095222 -0.0073263864 -0.030348316
-0.022419587 -1.6924697 -0.014104685 -0.14584494 -3.368728 -0.009082808 -0.0026026706 -0.026973749
-0.89069366 -0.013155364 -0.057866007 -2.1638253 -0.021967702 -0.013092984 -1.2525436 -0.8461233
-0.0044695977 -0.019985188 -0.027146807 -0.13498318 -0.010734083 -0.06556972 -0.27672258 -0.0032077946
-1.2852244 -0.017189922 -0.9485269 -0.0197491 -1.2395434 -0.047367964 -1.3127772 -0.002273729
-0.0158883 -0.04557948 -0.011201318 -0.04138608 -0.0046602506 -1.3956633 -0.011287812 -0.0027594774

Q2.head.0.weight f4 [64, 144]
00000000: 2075 70bd cb52 3fbf 3776 18be b1ef cf3f
00000010: 05af 9f3d 087f fbbe 8b89 883e 110d 943f
00000020: 0239 11bf a695 0abf c5c6 4d3f f079 673f
00000030: 8761 993f 12b7 a93f 7b37 b13f d5a6 6dbe
00000040: ebe2 2dbf 27ba 7cbe 96b0 223e 0dc7 e93e
00000050: 01ce 243f 7eb7 473f 1b8d e43e 8434 0cbf
00000060: 821a 0dbd 6887 0a3f 397b b73e 453a 5b3e
00000070: 9bba 373f cf2c bd3e 9984 59bf abbd c93e
00000080: d3b4 08bd 0b60 e03e 1c7d 0a3f 155d b63d
00000090: 7370 d33e ff77 da3d bfcc 43be 4f70 2c3d
000000a0: 61d8 b13f f977 e23e 4c55 67be 62bc debe
000000b0: b85e 883e 2d0d 593f 0db0 a2bf a023 cb3e
000000c0: 419e fdbe 7ae9 36bf 6f61 a5be e7b2 5cbf
000000d0: 3df1 aabf e474 a63f 95e1 ddbf 7a5b a3be
000000e0: f19d cbbe e1e5 9e3e b4cb 5fbe 5c07 8a3e
000000f0: 0d01 a1bd 6fe6 4bbf 379d 213e 5b57 05bf
00000100: 87ee efbe ed21 6ec0 5b50 95bc a24b 383f
00000110: eeb8 99be 61a3 623f 34b5 45bf f4d0 0ebf
00000120: 8112 82be 7fc7 cdbe daea 893e d2d2 16bf
00000130: 024d 873e c45d 83bf ce4f 943d 6a86 833e
00000140: ba82 17bf 55aa f8be 77a2 963f e2ab 2740
00000150: db64 bfbf 9fbb 0c40 c30f d93f 7f4f dfbe
00000160: 9b8e 68be 4328 edbe c57a afbe fff3 4dbf
00000170: 2671 13bf 4425 143e 4bec 623e bc2e a8be
00000180: 698a 0fbf 6d1a 963e b4b2 683f 50e6 a2be
00000190: 79e2 4d3e 21f5 d83e c5d5 0dbf 9aee 46bf
000001a0: dc09 9ebe cf37 653f eaf2 ab3e 73c1 983e
000001b0: f148 fe3e 99aa 50bf 7c33 2ebf 93e0 2fbf
000001c0: 8acd 763f d306 203f 3266 17c0 a491 28bf
000001d0: 4051 0ebf fd9f 81bf f404 7040 d69a fc3e
000001e0: 6c91 11bf c1c9 523e 9887 cb3d 7f6d 66bf
000001f0: f8eb 76bf 58db 6dbf b412 053f 0506 49bf
00000200: d79a 92bf 7146 af3f 490f a43f bc5d 7dbf
00000210: 2bd3 f5bd 9d77 2240 aa88 3a3d aa27 97be
00000220: 1d9f d13e f8df 09bf daea 4ebe a546 14c0
00000230: dd68 0fbf bf74 f63d 6d21 10bf 5694 a2be
00000240: 1763 17bf a211 b33d 9318 cdbe 3c9e 5fbe
00000250: 96c3 64bf 7265 4dbf 5bd6 963f 57d8 df3e
00000260: a8ed 2e3f 94cb 21c0 a7ea 02bf 59d3 e73e
00000270: 3834 42bf ee71 95bc f36d 9e3f afcd 1fc0
00000280: 1e27 09bf 2ca7 19be ebe6 713f 7ebe 18bf
00000290: baba 1cbe e3bd dd3e f44d 563f 7e83 0dc0
000002a0: de0a 12bf d1c7 e73d 6840 26bf 3a0d 913f
000002b0: dab3 c7be 84e1 003f d99b 19c0 8541 d23d
000002c0: 05a5 70bf d255 7abe 83c5 c13e d7df 7fbe
000002d0: 1479 313f 3a8d c1bf 4853 a9bf 6276 8fbe
000002e0: 0122 153f 265e abbe 5c9b 7dbe e931 3f3f
000002f0: 2b9e 1ebf 0ed6 fb3d db51 1c3f c34a 443f
00000300: cc7a 1ac0 32cd aebd ee16 6ebf d8b5 453d
00000310: e509 74bd 0d08 8f3c af95 d93e 8528 e9bf
00000320: f283 b6be 38a8 21bf c0ad 5f3e 1fab 36bf
00000330: 6cb1 433f fb72 8c3d e759 6cbe 33c1 47c0
00000340: 5dd6 aabe fa0c 97be 31b5 42bf f16b 9a3e
00000350: aaa9 2fc0 50ee 133f c925 2ec0 462a fabf
00000360: 3973 a33f 5cf3 4d3d 719c 2e3f 2f8a 2c3f
00000370: 2e00 103e e29e 9b3e a8c1 6d3f a190 b53e
00000380: 4870 343f 02ae a6bf e40b 27bd 7355 003f
00000390: eb55 f83c 285e 50bc 2318 993f ba5e 2cbf
000003a0: d01a d2bd be0b 0b3f 6adf 623f de1e 873e
000003b0: 0fe9 26be 5391 0e3f cb81 443f 0824 1ebe
000003c0: 3780 203f a8fb 4a3e b020 afbd 3558 a3be
000003d0: 1162 b7be 099e 0a3f 13d4 99bf 705c c73e
000003e0: 30bc eebc 8ae7 75be 8be2 bf3f 45de a6be
000003f0: d5cb 3b3f 4fe2 89bf 3ed8 10be 4746 40bd
-0.05870545 -0.7473571 -0.14888845 1.6245023 0.07797054 -0.49120355 0.26667437 1.1566488
-0.5672761 -0.54134595 0.80381423 0.90420437 1.1982888 1.3258994 1.3845056 -0.23208173
-0.67924374 -0.24680386 0.15887675 0.45659676 0.64376837 0.7801436 0.44638905 -0.5476763
-0.034449108 0.54112864 0.358362 0.21408947 0.7176911 0.3694825 -0.8496795 0.39402518
-0.033375572 0.43823275 0.5409715 0.08904473 0.4129673 0.10667419 -0.19121073 0.042099293
1.3894159 0.44232157 -0.22591132 -0.435031 0.26634765 0.8478573 -1.2709976 0.39675617
-0.495348 -0.71450007 -0.32300898 -0.86210483 -1.335487 1.3004422 -1.7334467 -0.3190573
-0.39768937 0.3103476 -0.2185505 0.2695874 -0.078615285 -0.7964849 0.15782629 -0.5208642
-0.4686167 -3.7208207 -0.018226793 0.71990407 -0.30023903 0.88530546 -0.7722962 -0.5578759
-0.25404742 -0.40191266 0.2693699 -0.58915436 0.2642594 -1.026299 0.07241784 0.25688487
-0.5918385 -0.48567453 1.176833 2.619866 -1.4952654 2.1989515 1.6957935 -0.43615338
-0.2271065 -0.4631978 -0.34273353 -0.80450433 -0.57594526 0.1446734 0.22160451 -0.32848155
-0.5607057 0.29317036 0.9089768 -0.3181634 0.20105924 0.4237452 -0.5540431 -0.7770783
-0.30866897 0.8953828 0.33583766 0.2983509 0.49665025 -0.8151031 -0.6804731 -0.6870205
0.9640738 0.6251041 -2.3656125 -0.6584723 -0.5559273 -1.012695 3.7503023 0.4933688
-0.5686252 0.20584776 0.09937972 -0.9001083 -0.9645381 -0.92912817 0.51981664 -0.7852481
-1.1453503 1.3693372 1.2817165 -0.9897115 -0.12003168 2.5385506 0.04554049 -0.2952245
0.40941706 -0.53857374 -0.20206776 -2.3168118 -0.56019384 0.12033986 -0.56301004 -0.31753796
-0.59135574 0.087435976 -0.4005781 -0.21837705 -0.8936094 -0.8023292 1.1784166 0.43719742
0.68331385 -2.5280504 -0.511393 0.45278433 -0.7586093 -0.018242802 1.2377304 -2.496929
-0.53575313 -0.15005177 0.9449298 -0.5966567 -0.15305606 0.43308935 0.837127 -2.2111506
-0.5704783 0.11317409 -0.64942026 1.1332161 -0.39004403 0.5034411 -2.4001372 0.10266403
-0.940018 -0.244468 0.37846002 -0.24987732 0.69325376 -1.5121224 -1.322854 -0.28020006
0.5825501 -0.33470267 -0.24766296 0.7468553 -0.61960095 0.12296687 0.610624 0.7667658
-2.413745 -0.08535232 -0.9300374 0.048269123 -0.05957975 0.017459894 0.42497012 -1.821549
-0.3564754 -0.63147306 0.21843624 -0.7135486 0.764426 0.06857868 -0.2308117 -3.121167
-0.3336667 -0.29502088 -0.76057726 0.30160478 -2.7447305 0.5778551 -2.7210562 -1.9544151
1.2769538 0.050280914 0.6820746 0.6739835 0.14062569 0.30394655 0.9287362 0.35461906
0.7048383 -1.3021853 -0.040782824 0.50130385 0.030314406 -0.012717761 1.1960491 -0.6733204
-0.1025902 0.5431479 0.8862215 0.26390737 -0.16299842 0.556905 0.7676055 -0.15443432
0.6269564 0.19822562 -0.085511565 -0.31903234 -0.35817006 0.5414739 -1.2017845 0.38937712
-0.02914247 -0.24014106 1.499101 -0.32591453 0.733579 -1.0772189 -0.1414499 -0.04694202

Q2.head.0.bias f4 [64]
00000000: 2c77 9b3e 37da 203f 76e4 45bf fe5d 69bf
00000010: 2c69 953b a97a a1bd 9ce0 9c3f 2bcf d5be
00000020: 2ea3 6bbe 5f23 2abf 9648 0c3e 6831 d5be
00000030: d00d c43f 0b7d f2be c741 6b3f 6270 aebe
00000040: adb5 65bf 53b1 32bf 4edd 85bf 3d32 b23e
00000050: 8691 ebbd 36e5 10c0 37b6 83bf db0c a3be
00000060: 445b 653f 62cf ed3e a564 bb3e a340 f1be
00000070: 85f8 20bf 88e1 c03e 4e71 81bf 5b8b 74bf
00000080: a1e3 b3bf 85b4 18bf de61 57bf 3a6c 7abd
00000090: 0c7c b3be c1cd 17c0 6fa3 313f 8c1c cebf
000000a0: 524d 943c 2827 58be fe2a 843e 1546 cb3c
000000b0: aafc 5a3e d1e2 a53f 8ebb 8fbe 8e35 873d
000000c0: dc94 a1be 6365 14bf e814 b8bf b7f3 bb3e
000000d0: 773b b1be c290 d0bf 6bc6 373e e4ea 95bf
000000e0: 08fc d9be a12a 43bf d6d3 1dbe 140f 783e
000000f0: 4ca7 d9be a615 45be a7bc 79bf f73a 1bbe
0.30364358 0.6283297 -0.7730173 -0.91159046 0.0045596566 -0.07884724 1.2256045 -0.4175962
-0.23011467 -0.6646022 0.13699564 -0.41639256 1.5316715 -0.47361025 0.91897243 -0.34070116
-0.8973034 -0.69801825 -1.0458162 0.34803954 -0.11502366 -2.26399 -1.0289983 -0.31845745
0.89592385 0.46447283 0.36600223 -0.47119626 -0.6287921 0.37672067 -1.0112703 -0.9552514
-1.4053842 -0.5965045 -0.8413371 -0.06113837 -0.35055578 -2.3719332 0.69390005 -1.6102462
0.018103275 -0.21108687 0.2581405 0.024813691 0.21385446 1.2959844 -0.2807278 0.066020116
-0.31558883 -0.57967204 -1.438138 0.36709377 -0.3461568 -1.6294177 0.17946784 -1.1712308
-0.42575097 -0.7623692 -0.1541284 0.24224502 -0.4251045 -0.1924654 -0.97553486 -0.15159212

Q2.head.2.weight f4 [64, 64]
00000000: bccb 9abd 066a d03d 6c83 b4be f8e9 93be
00000010: e4de 92bf 1d33 7ebf 9dcc 0ac0 bc86 2bbf
00000020: a0c6 8cbf 2b1e dbbf a7a7 b0bf 6976 e1be
00000030: e0dc c8bf 9ee5 28bf 96b2 31be 087e 32bf
00000040: bf24 8abf bc02 ff3e d46c 28be c20c 05c0
00000050: 3463 f9bf fb13 37be 5b3e 35bf 98e5 8cbe
00000060: ca6b 66bf 2225 0ac0 ff95 6bc0 84fe e1bd
00000070: 4f37 80bf dd66 cdbe 6a44 6ebd ef1c 2b3a
00000080: 2636 07bf 18b5 83bf a6a4 debf 4132 28be
00000090: a56d 17c0 0bd9 e33d 5433 a9bf 6642 fbbf
000000a0: f65b 63bf 09c0 d4be f2e9 6a3d 4a47 babf
000000b0: 0e66 183f 4249 d6bf 0539 82bf 0339 4abf
000000c0: 1d61 27bf fb32 7abf c105 1b3f da45 88bf
000000d0: 154a adbe 2106 713f 4f86 2cc0 6958 53bf
000000e0: a95e cbbe 5ac9 9c3e fa83 a7bf cc28 b5bf
000000f0: b057 aabf c287 203e e618 99be 036e 04bf
00000100: b0fa fbbe c947 b9be 166f 4fbf 034c 93bf
00000110: aa99 3dbf 5d26 f7bf 2e7c 97bd e338 12c0
00000120: a610 26bf 88da e4bf ff0f e0bf 83ed ccbd
00000130: 74b8 31bf 3977 10c0 ef73 0ebb 8db3 61bf
00000140: 5142 a1be ea8c 16c0 9f67 dbbf 2c69 633f
00000150: b066 0fc0 ea30 d4bf 0a49 15c0 70f2 83c0
00000160: 416e 07c0 e9cf 4ec0 a2fc 2fc0 25ed 0ec0
00000170: ea84 4ec0 4dd2 4dbe a797 aabf dffd 25bf
00000180: f9c9 c0bf 341c 3abf 9a48 f13e 300d d2bf
00000190: 8459 b5bf eb5a ddbf 7a4a 97bf 1149 783e
000001a0: ec8a 08bd e02b 52bf d9b3 fcbf 3808 0ec0
000001b0: 862d 19bf 9f2e 11be 4ab0 9fbe b44d 86c0
000001c0: cc91 653d fe03 c3bf ebfc e0bf 9287 a1bf
000001d0: b4bf 46be 3864 febd 7af3 59c0 73d2 03bf
000001e0: d46c 45c0 e24a 8dbf 0f2d 2ec0 e25c 9bbf
000001f0: 4db0 a6bf 5031 3dbf ca75 5bbe 632d 2ebf
00000200: ce4c ffbf aadc 53be 0779 2ec0 295a 90bf
00000210: 3788 0bbf 685a 17c0 a6d0 5dc0 9211 0cbf
00000220: 334c 06c0 86cc 2cc0 621e 84c0 c778 02c0
00000230: ba94 62c0 2f81 393e 32cd 7bbf 4ede 1cc0
00000240: cabe 57c0 9979 56c0 c86b 19c0 22ec edbf
00000250: 2a22 12c0 112f 90c0 a2cb 2ec0 4699 8d3f
00000260: 23da 8dc0 b3a8 c6be 7d3e bbbe 42ce 87bf
00000270: 5604 58c0 f73a 743f d1ef 3fc0 c934 3bc0
00000280: 72ed b4bf 74ff 59c0 a32f 74c0 7fb6 00c0
00000290: 5410 e9bf 9dab a3c0 3bc8 4fc0 1b29 29c0
000002a0: 97b3 0e3f 9810 d8bf be3e c3bf c680 81be
000002b0: 320c c5bf 207e f4bf 08ce 75be 131c 17c0
000002c0: 8f7f 723e 5af2 2ebe 4016 80c0 65d5 51c0
000002d0: f7b9 2ec0 8918 b5bf 550a 4cbf 67d7 73c0
000002e0: fbd1 31c0 6449 83c0 7a9a d8bf 330b 64c0
000002f0: 2d21 93c0 5940 a33c ca68 06c0 bcb8 2bc0
00000300: ec9a c9be 7404 34bf a3b1 1ac0 7dac 3b3f
00000310: f825 82c0 29bf 47c0 d81d 09c0 c468 37c0
00000320: 2ba4 4ac0 e8e3 4bc0 10e1 71bf c2ae 4ec0
00000330: 515a 013f 9853 49bc 62bd f1bf e29e 98bf
00000340: 2609 533e bb51 3fc0 f3ac 6ebe bae5 b6be
00000350: c3dc 43c0 af48 10c0 0053 29bf 85bb babf
00000360: c3b9 81c0 b89a 0bc0 600d 9dbf 2a52 c03c
00000370: 84fb 3cc0 1c62 67bf eab8 9b3c 58fd 42bf
00000380: d77f 8cbf 6359 6ebe 65ea 6ebf b40f 06c0
00000390: 7428 5ec0 1447 edbf d578 adbf 98d2 cdbf
000003a0: 9f62 a5bf a45b dfbf 7816 8bc0 72cd 89bd
000003b0: 532c 2cc0 2b67 7ec0 5c71 71c0 2365 4740
000003c0: a2f5 0e3d 0202 05c0 eac0 85c0 3a60 4dc0
000003d0: f95e 3cbf 9037 2ebe 69cf 18c0 f228 31c0
000003e0: 8b50 4ac0 884e aabf fd95 16bf 87a7 d1bf
000003f0: a06c 44bf d551 2fc0 0533 9ebf 45d2 01c0
-0.075583905 0.10176472 -0.35256517 -0.28889441 -1.1474271 -0.9929674 -2.1687386 -0.67002463
-1.0998116 -1.7118582 -1.3801163 -0.44035652 -1.5692406 -0.6597537 -0.17353281 -0.6972356
-1.0792464 0.49806774 -0.16447765 -2.0789037 -1.9483399 -0.17878716 -0.7079827 -0.27518916
-0.90008223 -2.1585164 -3.68103 -0.11034873 -1.0016879 -0.4011754 -0.058170713 0.0006527444
-0.52817 -1.028964 -1.7393997 -0.1642542 -2.3660672 0.11125382 -1.3218789 -1.9629638
-0.88812196 -0.4155276 0.057352014 -1.4553006 0.59530723 -1.6741107 -1.0173651 -0.7899324
-0.6538256 -0.9773404 0.60555655 -1.0646317 -0.33845583 0.94149977 -2.6956975 -0.8255678
-0.39720657 0.3062237 -1.3087151 -1.4153075 -1.330801 0.15676787 -0.29901809 -0.51730365
-0.49214697 -0.3618758 -0.8102888 -1.1507572 -0.740626 -1.9308583 -0.07396732 -2.284722
-0.64869153 -1.787919 -1.7504882 -0.10006239 -0.6942208 -2.2572768 -0.0021736582 -0.881646
-0.31495908 -2.3523507 -1.7140998 0.88832355 -2.2406425 -1.6577427 -2.332583 -4.1233444
-2.1161044 -3.2314398 -2.7497945 -2.2332242 -3.2268624 -0.20099755 -1.3327531 -0.648405
-1.5061637 -0.72699285 0.47125703 -1.6410275 -1.4167943 -1.7293371 -1.1819603 0.24246623
-0.03333561 -0.820982 -1.9742385 -2.2192516 -0.5983509 -0.14177941 -0.31189185 -4.1969852
0.056047246 -1.5235593 -1.7577184 -1.2619498 -0.19409066 -0.12421459 -3.4054856 -0.51492995
-3.0847673 -1.1038477 -2.7215002 -1.213772 -1.3022553 -0.7390337 -0.21431652 -0.68038005
-1.9945314 -0.20689645 -2.726137 -1.1277515 -0.5450472 -2.364893 -3.46586 -0.5471431
-2.0984008 -2.6999831 -4.128709 -2.0386217 -3.5403275 0.18115686 -0.9835998 -2.4510684
-3.3710198 -3.3511717 -2.3972034 -1.8587687 -2.2833352 -4.5057454 -2.7311788 1.10624
-4.432878 -0.38800582 -0.36571112 -1.060982 -3.3752646 0.95402473 -2.9990122 -2.9250968
-1.4134963 -3.4062166 -3.8154075 -2.0111387 -1.8208108 -5.114699 -3.246596 -2.6431339
0.5574278 -1.6880064 -1.5253522 -0.2529356 -1.5394347 -1.910099 -0.24004376 -2.3610885
0.23681472 -0.17084637 -4.002716 -3.2786496 -2.7301004 -1.4148113 -0.79703265 -3.810022
-2.7784412 -4.102709 -1.6922143 -3.5631835 -4.5978 0.019928144 -2.1001458 -2.6831503
-0.3937601 -0.70319295 -2.417092 0.7331007 -4.067135 -3.1210425 -2.1424465 -2.8657694
-3.16627 -3.1857853 -0.94484043 -3.2294164 0.50528437 -0.012287997 -1.888592 -1.1923487
0.20608959 -2.9893634 -0.23308162 -0.35722142 -3.0603492 -2.2544363 -0.6614227 -1.4588476
-4.053926 -2.1813183 -1.2269707 0.023476679 -2.9528513 -0.9038408 0.019009072 -0.7616782
-1.0976514 -0.23276286 -0.9332641 -2.0947084 -3.471219 -1.8537316 -1.35525 -1.6079893
-1.2920722 -1.7449841 -4.346493 -0.06728639 -2.6902053 -3.9750469 -3.772544 3.115548
0.034902222 -2.0782475 -4.179799 -3.2089982 -0.73582417 -0.17013383 -2.3876593 -2.768124
-3.161166 -1.3305216 -0.58822614 -1.637925 -0.7672825 -2.7393696 -1.235932 -2.0284588

Q2.head.2.bias f4 [64]
00000000: 2a94 abbf 163e f3be c9e3 5a3e 8fbc 1abf
00000010: 29e1 e93d 8bb3 abbf 5038 04bf 96d1 1ebf
00000020: 1129 22bf 1e45 90bf 43c0 37bf 1d87 42c0
00000030: 4b21 babf 53dd 1b3f c549 89bf c98f 3dbf
00000040: 4080 85bf 07a3 1ebf ad36 98be 448b aebf
00000050: a000 bbbe f84c 72bf cfd6 2fbf 6132 50be
00000060: 06cf c5bf d3c4 5cbf 2664 a3be 420e 76be
00000070: e5e8 92bf d005 1dbf 828b a7bf 5e08 69bf
00000080: 558b 58bf d850 e7be 3134 82bf 13a0 873e
00000090: 4b7a dfbe 8f4d 07c0 eec8 15bf 963e 19bf
000000a0: 418a a8bf 2dea 5b3e a264 b33e b317 49bf
000000b0: df16 83be 4ff7 4ebf 8329 8bbe 20cf 99be
000000c0: 2c19 a4be 8846 6bbe d0eb a5bf a546 8abf
000000d0: 6c33 5abf ca19 e6bf 0396 99bf eaef cbbf
000000e0: d37b 9dbf 7907 dabf 0e3a 83bf 756c 94bf
000000f0: 7ac8 1fbf 5ad2 5fbf f6eb 50bf d419 bfbf
-1.3404591 -0.47508305 0.21375956 -0.6044397 0.11419899 -1.3414167 -0.51648426 -0.6203855
-0.6334391 -1.1271093 -0.71777743 -3.0394967 -1.454141 0.6088459 -1.0725638 -0.74047524
-1.0429764 -0.6196751 -0.29729214 -1.363625 -0.36523914 -0.94648695 -0.68687147 -0.20331718
-1.5453804 -0.8623783 -0.31912345 -0.24028876 -1.1477324 -0.61336994 -1.308945 -0.9102839
-0.84587604 -0.45178866 -1.0172178 0.26489314 -0.4364799 -2.1141088 -0.5850972 -0.59861124
-1.3167192 0.2147605 0.35037714 -0.7855179 -0.25603387 -0.8084611 -0.27180108 -0.30040836
-0.32050455 -0.22976124 -1.2962589 -1.0802809 -0.85234714 -1.797662 -1.1998905 -1.5932591
-1.2303413 -1.703353 -1.0252092 -1.1595598 -0.6241528 -0.87430346 -0.8161005 -1.4929757

Q2.head.4.weight f4 [144, 64]
00000000: 92f7 303e 1b02 0fbe 5a61 96bc ed09 513d
00000010: 7c4f 383f 46dd 9e3d a653 f8bd 671f f7bc
00000020: 0141 f2bb eeba 883d 39f4 d1be 12c4 48be
00000030: b8ad 2bbd 902c 86bc 11d2 383e 01b5 fbbd
00000040: 9029 b0be e9be 4d3f 1a80 b9bd 5efc f03a
00000050: c8a7 35bf 1fc0 70bd 9ca8 fd3d 1fec 8c3f
00000060: 0fe1 13c0 0d70 963e 4556 aa3d 1bb0 90ba
00000070: c10b debe d4e1 afbc ad97 91bd 6de1 36bc
00000080: fedf e93c 51c6 043d ee20 8f3d dc42 c4be
00000090: c8a4 45bd 3a8f 90bd 63a1 00be 1532 c73e
000000a0: 6ea6 c43d f790 eebb fe1f 403d 786d 5ebb
000000b0: 4d53 b0bd 4319 80b6 9b99 8ebf 3ce0 48bd
000000c0: 48ca e13c 22e5 89bd 235e 463e 70fd 33be
000000d0: 6d6c 143e 1b58 f4bd e8a7 a03d a17a be3e
000000e0: 9911 2fbf 0d38 b83c 67de f2be aa4e 03be
000000f0: bcec c43b 1f05 da3b fad1 60be e68c ffbb
00000100: a138 77bf 21e3 18bf ef90 8cbc fc0e 5cbe
00000110: 03dc a03b 7a58 e63b 8a16 b3bf 806c 083f
00000120: d763 5ac0 2be1 273f 5cec ed3d f7e5 a33d
00000130: 2a0d da3d 2ed1 b43a a9a7 2f3f c588 acbd
00000140: b8a1 123f 63e3 323e 8087 a6bd bfc5 dfbc
00000150: d6c2 383f e186 783e 066b 283f 8058 a43c
00000160: 62d7 123f b5ef 8fbd a833 f3bd a5bf 613e
00000170: 2313 67be e93c 94bd ba20 463f 9008 65bf
00000180: 4fde 023e 84e3 41be 1e14 45bc 8d60 533d
00000190: 1ee4 41be 60a6 ed3d 2469 35be 03a9 bfbf
000001a0: 29d8 353e 0b77 61be 90ec 91bf 1ab5 6f3e
000001b0: 4ef0 1fbe 91ef 88bd cc9f 173f 3a27 da3d
000001c0: e608 e03d 9fd5 ddbf bf0e b7bb 3122 5ebe
000001d0: dcc9 0ebe b488 3ebe 9343 b0bd 7b8b 06be
000001e0: 4a52 763e 7025 41bd b5e1 a83d 770f 423e
000001f0: 3e0a 8fbe 11d9 753d 8f25 913e ca3d c5bd
00000200: f40a 923d f9d9 75bb 623b 05bb 9d11 78bc
00000210: b7e2 1abf 4c8a a7b8 ed18 893c 09f9 b33d
00000220: d3bc 98be 1ce3 133d 94df f23b aff6 02bf
00000230: c6f9 cb3b 8e2a 08c0 6321 733b 0696 b53d
00000240: a8a9 7c3d 6146 6b3e bcba 193d 8a82 b8bf
00000250: 318a 463d 8757 6dbe 4ae4 0f3c 87cd a23e
00000260: 980f d3bc 303b 053f 8017 c03b acd4 efb9
00000270: 4da2 cdbc f69c ecbf 81eb 003e 2348 f8ba
00000280: a939 d43e 995c db3e 7729 d63e d2b8 41bd
00000290: d241 24be 8ac4 d13c 29d0 c7bc b080 8abd
000002a0: 46a7 ddbc 2e95 0bbb b429 513c bc5e 603c
000002b0: 0000 78b6 a831 9c3c deb1 19bd 604c b83d
000002c0: cf42 2ebd 7d04 77bc 69a4 7bba 7ee9 92bc
000002d0: b82f 3ec0 ffbf 14bc 4c33 8c3b 15e1 3bbd
000002e0: d013 99bc 3abc 53bc 51ab e63c ccb2 2f3d
000002f0: 1bc8 203c a0f4 b93c 41d6 4fbc b385 18bc
00000300: d295 4ebf bdc8 043f 5dc6 96bc f9c0 943e
00000310: cbd2 9f3d 330d 923d 661c fcbf ae18 9f3f
00000320: ea93 bbbd ce64 5e3f f171 983e 4d45 afbe
00000330: dab4 773d f0cf 0cbd 4baf 11bb 7877 173e
00000340: 6214 373e acdc a9bb 58fc 14bd a8de f93c
00000350: c5d3 e13e f80f cfbc 6b6e 723f 0bcf 33be
00000360: 7e3d 0a3f 2459 39bb fe64 d0bd ce5d 2e3f
00000370: ba7f b7bd d305 5bbe 10ad 8dbe 978c 5d3c
00000380: 4942 5a3b c372 0fbd 03d8 2c3d 0c40 f63c
00000390: 7daa 973b 8686 b73d 0a98 933b 1fb4 abbf
000003a0: 1815 db3c 8ced 5fbf 22ed 33bd ec09 a0bb
000003b0: 0ca4 373c 911a d7ba 6a31 7c3f 307f a3bc
000003c0: 40ba 68bb 7db8 06c0 bf75 b43d 78a1 453f
000003d0: d20f 8ebf 1238 d43e ac5b 09c0 681f 003f
000003e0: c19a bfbe 48cc b73c 61bc 8c3f f26b ea3c
000003f0: 574a 08be 7109 513d ad24 633e 49f5 7bbd
0.1728194 -0.13965647 -0.018356968 0.051034857 0.71996284 0.07757048 -0.1212533 -0.030166341
-0.007393003 0.06676279 -0.4100664 -0.19606045 -0.041913718 -0.01637867 0.18048884 -0.12290383
-0.3440671 0.8036943 -0.090576366 0.0018385758 -0.7095914 -0.05877697 0.12385675 1.1009558
-2.3106115 0.29382363 0.08317236 -0.0011038812 -0.43368343 -0.021469988 -0.07109008 -0.011162144
0.02854919 0.03241569 0.06988703 -0.3833226 -0.04825285 -0.07058568 -0.12561564 0.38905397
0.096020564 -0.0072804647 0.04690551 -0.003393976 -0.08609638 -3.817638e-06 -1.1140627 -0.04904197
0.027562276 -0.06733157 0.19371848 -0.17577147 0.14494486 -0.11930867 0.078445256 0.37202933
-0.68386227 0.022487665 -0.47435305 -0.12822977 0.0060096662 0.0066534425 -0.219551 -0.007798779
-0.96570784 -0.5972157 -0.017158953 -0.21490091 0.00490904 0.00702959 -1.3991253 0.5329056
-3.4123437 0.65577954 0.116173476 0.08002847 0.10647042 0.001379525 0.68615204 -0.08424524
0.57278013 0.17469554 -0.08131313 -0.027315972 0.72172296 0.24270202 0.65788305 0.020061731
0.573599 -0.07028142 -0.11875087 0.22045763 -0.22565894 -0.0723818 0.77393687 -0.8946619
0.12780116 -0.18934447 -0.012028722 0.05160575 -0.18934676 0.11603999 -0.17715889 -1.4973453
0.1775824 -0.22018068 -1.1400318 0.23408929 -0.15619013 -0.06686319 0.59228206 0.10652013
0.10939197 -1.7330817 -0.0055864747 -0.2169273 -0.1394419 -0.18606836 -0.08606639 -0.13139145
0.24054828 -0.047154844 0.08246175 0.18951212 -0.27937502 0.060021464 0.28348967 -0.09630926
0.071309954 -0.0037513955 -0.0020329584 -0.015140918 -0.6050219 -7.98894e-05 0.016735518 0.08787734
-0.2983156 0.03610526 0.0074119065 -0.5115766 0.0062248437 -2.1275973 0.0037098757 0.08866505
0.061685234 0.22976066 0.0375316 -1.4414837 0.048471633 -0.2317792 0.008782456 0.3179743
-0.025764272 0.5204344 0.0058621764 -0.00045744085 -0.025101805 -1.8485401 0.12589838 -0.0018942397
0.4145024 0.42844084 0.4182851 -0.0472954 -0.16040733 0.025606412 -0.02439125 -0.067628264
-0.027057301 -0.0021298635 0.01276629 0.013694461 -3.695488e-06 0.019066647 -0.037523143 0.089989424
-0.042544182 -0.015076754 -0.0009599389 -0.017933603 -2.9716625 -0.009078979 0.004278576 -0.04586895
-0.018686205 -0.012923295 0.028157862 0.042895123 0.009813334 0.022699654 -0.012685359 -0.00930922
-0.8069736 0.518688 -0.018405134 0.29053476 0.078038774 0.07131424 -1.9696167 1.2429407
-0.09159072 0.86872566 0.2977443 -0.3423256 0.060475208 -0.034377992 -0.0022229727 0.14791667
0.17878869 -0.005183777 -0.036373466 0.030501679 0.4410688 -0.02527617 0.94699734 -0.1755945
0.5400008 -0.0028281892 -0.10175513 0.68111885 -0.08959909 -0.2138894 -0.276711 0.013522289
0.003330367 -0.035021555 0.042198192 0.030059837 0.004628478 0.08961205 0.0045042085 -1.3414344
0.026743457 -0.8747184 -0.04392732 -0.0048839953 0.011208545 -0.0016411116 0.985129 -0.019958109
-0.0035511404 -2.1050103 0.08811521 0.77199507 -1.1098578 0.41449028 -2.1462202 0.5004792
-0.37422755 0.022436276 1.0994989 0.028615925 -0.13309608 0.051034395 0.2218196 -0.06151322

Q2.head.4.bias f4 [144]
00000000: d780 7ebc d6e5 773d 5107 4cbc 61f5 33bd
00000010: 9e92 a3bc ea92 81bc b423 32bf 3e2d 9abf
00000020: 34cc 99bf cb6d 44bb bbc9 8ebc 1e15 97bd
00000030: d7a9 b5bc 7d31 87be ba58 2ebf 3f9d 1ebb
00000040: 8dde 17bd cb83 b4bc 7926 46bf 9e6b 4cbc
00000050: 76a5 fcbe f26f 57bf 4951 c7bf 54c0 b8bb
00000060: 8623 acbc f229 86bf 2466 a0bc 8eca ccbd
00000070: c88f 30bf f929 c6bf a8af 92bb 0aa1 b8bc
00000080: 6eca 04bd 5094 94bf 4093 60bc 323e 9cbd
00000090: 5d54 aabd 6f61 dfbb 07d0 d6ba c3e3 96bc
000000a0: f4df f1be 853f 5bbc 19bc 5cbd 8f58 b3bf
000000b0: 1077 dcbc d83a 3ebc 82aa f3be dde2 2cbe
000000c0: 9b18 5ebb 86c3 e6bc fe96 9dbc 89c4 babe
000000d0: 4500 7fbc 5e3e 64bd 8e18 29be 9d2d 7fbb
000000e0: c4b8 6ebf 9698 a0bc dc15 2fbd 3b32 1bbc
000000f0: 2517 b3bf 0a85 5abd 321d 4cbf 49bd faba
00000100: 6c6a 80bc 8889 5fbd 8133 1dbc eb90 26bd
00000110: ba13 26bb 19c7 4ebf a919 30bb b891 12bb
00000120: 9788 c7bc 0241 9bbf e131 aabc 6714 38bd
00000130: 9fa1 57bc 58ed 52bc 4feb 15c0 57e3 22c0
00000140: d74e 32c0 da65 5cbb 52dc 13bd 5bff 12c0
00000150: 7648 4bbc 5ae5 bcbf accc 09c0 98c4 50bb
00000160: 741b 3abd 49b8 b9bc 015f 09c0 4826 4abc
00000170: 925e 00be 8ea5 96bf 9baa 69c0 9325 6dbb
00000180: fbb0 cebc 42ce f5bf 48f0 60bc 734f 29c0
00000190: 04cb f7bf ffaf 52c0 3612 f0bb e7c7 f4bc
000001a0: 14c0 bdbc 3fb0 01c0 42c0 66bc e268 b8bd
000001b0: 2936 56c0 1dd0 14bc 9291 2abb a9ad ebbc
000001c0: 8271 6ac0 85b8 57bc 627c 71bd e32f 27c0
000001d0: cb0e b2bc 4c02 56bc 5b9f 83bf 6456 14bf
000001e0: e375 92bb a984 d9bc 4f4b 9cbc fea0 a4be
000001f0: 8b90 30bc 75ef 82bd e7a4 19bf dd39 52bb
00000200: d7b4 b5bf b795 84bc e744 45bf 6cc5 a1bc
00000210: 5e15 34c0 0e7b 3fbd ef53 8abf dd02 15bb
00000220: 1ff1 83bc f08b 34bd 3885 37bc 3fc4 25bd
00000230: 87b5 98bb ecaf ffbf 8f05 38bc 59d8 34bb
-0.0155336475 0.060521923 -0.012452916 -0.043935183 -0.019967373 -0.015817124 -0.6958573 -1.2045057
-1.2015443 -0.0029972668 -0.017430177 -0.07377075 -0.022175713 -0.26404944 -0.68104136 -0.0024202613
-0.037077475 -0.0220355 -0.77402455 -0.01247683 -0.49344987 -0.8415519 -1.5571681 -0.0056381617
-0.021013033 -1.0481551 -0.019579954 -0.09999572 -0.6896939 -1.5481559 -0.0044765063 -0.022537727
-0.032419614 -1.1607761 -0.013706982 -0.0762905 -0.08316872 -0.006817035 -0.0016388901 -0.018419152
-0.47241175 -0.013381843 -0.05389032 -1.4011401 -0.026912242 -0.011610709 -0.47591025 -0.16883416
-0.0033889178 -0.028169405 -0.019237038 -0.3647807 -0.015564029 -0.05572354 -0.16513273 -0.00389371
-0.9325068 -0.019604009 -0.042745456 -0.009472425 -1.3991438 -0.053349532 -0.7973205 -0.0019129898
-0.015675746 -0.05457452 -0.009594799 -0.04066555 -0.0025341348 -0.8077255 -0.0026870763 -0.0022364687
-0.024357123 -1.2129214 -0.020775737 -0.044941332 -0.013161092 -0.01287397 -2.342487 -2.5451257
-2.786062 -0.0033630044 -0.036098786 -2.2968357 -0.012407413 -1.4757493 -2.1531172 -0.003185546
-0.045436338 -0.022670882 -2.1464236 -0.0123382285 -0.12536076 -1.1769273 -3.651038 -0.0036185726
-0.025230875 -1.920357 -0.0137291625 -2.6454742 -1.935883 -3.291992 -0.0073263897 -0.029880477
-0.023162879 -2.0263822 -0.014083924 -0.0900438 -3.3470557 -0.009082821 -0.0026026708 -0.028769331
-3.663178 -0.0131665515 -0.05895651 -2.6122978 -0.02173557 -0.013062071 -1.0283006 -0.5794432
-0.0044696196 -0.026552515 -0.019078879 -0.32154077 -0.010776649 -0.06393329 -0.60017246 -0.0032077946
-1.4195813 -0.01618467 -0.7705826 -0.019747458 -2.8138041 -0.046748213 -1.0806865 -0.0022737302
-0.016106186 -0.044078767 -0.011201195 -0.040470358 -0.0046603116 -1.9975562 -0.011231794 -0.0027594774
