script/logs/toy/model/best/policy.pth (torch, 23422 bytes, 6 tensors)

head.0.weight f4 [64, 8]
000000 22 79 2d bb e1 36 40 3e e0 9f 96 be 1d 38 85 be
       -0.0026469906 0.18770935 -0.2941885 -0.26019374
000010 91 70 0d be 18 2b be 3d 88 c1 12 bc 11 e4 8d 3e
       -0.13812472 0.09285563 -0.008957274 0.27713063
000020 de 83 00 bd 97 99 bf 3d 5d d3 da bd 1b 54 8e bd
       -0.03137576 0.09355467 -0.106848456 -0.069496356
000030 c2 ef ac be 90 c5 6f be 9f 3d 15 be 4c 94 56 3c
       -0.3377667 -0.23415208 -0.14574288 0.01309688
000040 d5 ca 1f 3e 6e 83 5f 3e e1 2a 5f be 4e 9d ab bd
       0.15604718 0.2182748 -0.21793701 -0.08379613
000050 0b e4 43 3e 89 b9 b9 3e ef e6 f5 bc 83 82 8f 3e
       0.1912996 0.36274365 -0.030017344 0.2802926
000060 33 30 4f bd 8f 3a 4b 3d 3c 76 ae 3e 24 3c 9f be
       -0.050583076 0.049616393 0.3407458 -0.3110057
000070 79 6a 52 be b0 2b 06 bd 7e 08 f0 bd 74 84 a3 3e
       -0.20548429 -0.032756507 -0.1172037 0.3193699
000080 85 aa 6a be d0 71 24 be 53 ef 7c be 78 58 a1 be
       -0.2291661 -0.16059041 -0.2470067 -0.3151281
000090 29 2c 36 be 6f c4 b4 3e 5c 81 37 3e 5f 78 2f 3e
       -0.17790283 0.35306117 0.1792044 0.17135762
0000a0 56 0b c1 3c ff 23 3b be d1 1c 93 3d 09 aa 9d be
       0.023564976 -0.1827545 0.07183231 -0.3079379
0000b0 86 4f 7e be a2 30 38 be 40 20 7b 3e c5 12 5e 3e
       -0.24835023 -0.17987302 0.24524021 0.21686848
0000c0 32 9f 10 be 96 70 9e bb 37 ff 81 3e 7d 94 d7 3e
       -0.14123228 -0.0048351986 0.25390026 0.42105475
0000d0 56 f3 4e 3e ea 40 b7 3d 57 71 90 3e b2 58 45 be
       0.20210013 0.08947928 0.2821147 -0.19272116
0000e0 9e 28 93 3d b7 37 8b be d1 b0 76 be ed 64 33 be
       0.071854815 -0.27190945 -0.24090888 -0.17518969
0000f0 c9 70 63 3e ee 65 58 3e cf 0e 48 be b8 bf da 3d
       0.22210993 0.21132633 -0.19536899 0.10681099
000100 d8 f7 54 3e bc d8 19 bd f5 b8 1e 3d 46 46 18 3e
       0.2079767 -0.03756021 0.038750608 0.14870557
000110 3b 8e 91 3e 4b 66 cd 3e 65 c1 6d be a1 97 ee bd
       0.28428826 0.40117106 -0.23218305 -0.11650015
000120 79 82 19 3e b1 b4 9d 3e cd d2 a6 3e 67 22 ad 3e
       0.14991178 0.3080192 0.32582703 0.3381531
000130 4c 95 de 3d c8 e9 aa be 9c e9 37 3d 74 2a 59 be
       0.1086832 -0.33381486 0.04490052 -0.21207601
000140 cb 8d a6 be 8e 01 a6 3e 9e 5b 97 3e e7 31 a9 be
       -0.32530054 0.3242306 0.29562086 -0.33045885
000150 26 54 07 3e bd 19 b5 39 61 a5 bb bc 3b dc 19 be
       0.13215694 0.00034542187 -0.022906007 -0.15025418
000160 7a c5 15 3e fe 4a 6a be 61 f9 10 3e 7a 3d 81 3e
       0.14626113 -0.2288017 0.1415763 0.25242215
000170 2f a6 9e 3e b6 9c 50 3e 82 cf b0 be 6a b8 6e be
       0.30986163 0.2037228 -0.34533316 -0.23312536
000180 15 8e 37 3e 55 07 a1 3d e3 9c 85 be b7 1a 5c be
       0.17925294 0.078627266 -0.26096258 -0.21494566
000190 15 6d cb 3e 40 53 9b 3e 75 1f 0c be 5a b2 ad bd
       0.3973166 0.30336952 -0.13683875 -0.084812835
0001a0 4d 70 ac be 12 3c d0 bb 77 51 88 be 67 a1 8b be
       -0.3367943 -0.006354817 -0.26624653 -0.27271578
0001b0 e4 95 9f bc ea 6e 59 3d 0b 44 14 be 5d d3 56 3e
       -0.019480653 0.05308429 -0.14479081 0.20979066
0001c0 3b 77 5f be 96 63 a4 3e d9 92 86 3e 27 19 8a be
       -0.21822827 0.32107228 0.2628391 -0.26972315
0001d0 2c 3b 82 bd 20 04 ad 3c ed 7a 98 3d 4a 97 ca 3d
       -0.063589424 0.021120131 0.07445321 0.09892137
0001e0 d8 51 18 3e b8 f1 e0 3c 2a a6 30 be 70 e5 6a 3e
       0.14874971 0.02745901 -0.17250887 0.22939086
0001f0 81 a4 ad be 55 56 4c be 57 0b 67 bd 97 5a 30 be
       -0.3391457 -0.19954808 -0.0564073 -0.17222057
000200 a3 c9 f1 bd a5 8b 92 be 56 e2 4b bd 41 ff 07 3e
       -0.11806037 -0.28622165 -0.049776398 0.13280965
000210 45 d3 58 be c4 9d 1d 3c 25 83 93 3e a1 8a cd bc
       -0.21174343 0.009620134 0.28810993 -0.025090517
000220 55 b1 89 3c f9 e8 a1 bc e0 9c b2 3d 4c b4 90 3e
       0.016808191 -0.01976441 0.08721328 0.28262556
000230 6f a2 cb 3e f4 6b 8d 3e 19 0c bb 3e 44 55 9d bc
       0.39772364 0.27621424 0.36532667 -0.019205697
000240 ff 73 a3 be 61 a2 2b be a3 5c 89 3e 6b e2 5e 3d
       -0.31924435 -0.16761161 0.2682849 0.054415148
000250 e3 5f e3 bd cf 66 54 be cc b9 9a be b0 44 96 be
       -0.11102273 -0.20742343 -0.30219877 -0.2934928
000260 32 bd 77 bd ec dc 4a 3e 7e f7 5f 3e d8 22 91 be
       -0.060483165 0.19810838 0.21871755 -0.28346896
000270 c2 bc 8d 3e 74 2a 5e be 4e 13 20 bd 12 32 05 be
       0.27683073 -0.21695882 -0.03908091 -0.13007382
000280 e6 77 8b bd d4 2a 8e bd 0c 70 a2 be 88 4c 9c be
       -0.06809978 -0.069417626 -0.3172611 -0.3052714
000290 43 9b 62 bd 88 d2 95 3b 0f 77 24 be 33 61 08 3e
       -0.05532385 0.0045722164 -0.16061042 0.13318329
0002a0 8f ed a2 be 28 ee f7 bc 55 de a0 3e 74 e8 07 be
       -0.31821868 -0.030264929 0.31419626 -0.13272268
0002b0 c7 94 9a 3e 3b 98 dc 3d b2 af a1 be aa 0e 6f 3e
       0.30191633 0.10771223 -0.31579357 0.23345438
0002c0 ed 5b 0f bd be a9 1e be 9d 38 9d 3e 16 f3 85 be
       -0.034999777 -0.15494439 0.30707255 -0.26162022
0002d0 17 fd 7b 3d 8f bc 83 bd cf f4 8e 3e c1 65 e8 3d
       0.061520662 -0.06432449 0.2792115 0.11347533
0002e0 04 6d 35 3e d2 98 fe 3d de 33 a8 bd 02 77 3c bc
       0.17717367 0.12431492 -0.08213018 -0.011502983
0002f0 99 7e 8e be dd e8 81 3e de f2 9c 3e c3 aa 6f 3e
       -0.2783096 0.25372973 0.30654043 0.23404984
000300 cd 5f 7f be d2 2c 81 3c a2 36 7f be eb 4b 47 be
       -0.24938889 0.015768442 -0.24923185 -0.19462554
000310 40 f6 52 be fa 34 47 3e 5d be 57 be ed c1 fc bb
       -0.2060175 0.19453803 -0.21068712 -0.0077135474
000320 68 66 91 3c a6 a6 6d 3e 6b a7 87 be 69 99 75 be
       0.017749026 0.23208103 -0.26494917 -0.23984303
000330 a1 6a 4f be f6 89 a0 3e 4a bc fb bd b4 de 99 3e
       -0.2025552 0.31355256 -0.12291773 0.30052722
000340 80 5e 0a 3e 78 94 4a 3d f6 43 98 3b d8 3a 80 bd
       0.13512611 0.049457997 0.0046467735 -0.062612236
000350 0b 82 53 3d d6 56 a5 bd 74 1a 9d 3b 76 c2 4e 3d
       0.05163769 -0.08073203 0.004794413 0.05047842
000360 a0 07 8d be fa dd 41 be 07 d4 98 3e 43 ad a7 be
       -0.2754488 -0.18932334 0.29849264 -0.32749376
000370 51 76 e0 3c 8b 53 b4 3e 95 f3 f3 3d d9 5b 93 3c
       0.027400168 0.35219988 0.11911694 0.017988132
000380 87 df 9c be 90 58 33 3e c4 ef 80 be 28 8a cd bd
       -0.30639288 0.17514253 -0.25182927 -0.10036117
000390 95 f0 f2 bd 14 74 56 bd ff 71 7d 3b 5d 4e 95 3e
       -0.11862294 -0.052356794 0.0038672683 0.2916135
0003a0 34 de 5e 3d 1f db 9f 3e e5 4a 72 3e d1 aa 32 be
       0.05441113 0.31221864 0.23661382 -0.17447974
0003b0 13 d3 63 3e 86 30 52 be 54 57 f9 bd 9e 39 ec 3d
       0.22248487 -0.20526323 -0.1217486 0.11534427
0003c0 5c 62 04 3e 48 dc 8a 3e 4c fb bd bd 70 c0 82 3d
       0.12928146 0.27121186 -0.09276447 0.06384361
0003d0 75 76 7c 3e bb 77 a6 be 7d 8d 91 3e 68 27 91 be
       0.24654563 -0.32513222 0.2842826 -0.28350377
0003e0 92 36 cf bc 77 3e 6d bd 0d ad 3e be af cb c7 3d
       -0.025294576 -0.0579209 -0.18620701 0.097556464
0003f0 df 2a b1 3e 85 ca 7c bd 91 a2 52 be 5d e5 05 be
       0.3460302 -0.061716575 -0.20569827 -0.13075776

head.0.bias f4 [64]
000000 9d e5 cc bd 6a f7 06 be 58 b9 2b 3e 4b 76 4f 3e
       -0.10004733 -0.13180318 0.16769922 0.20259969
000010 06 1c fd bd 0c 4c dc 3d c1 a8 91 3e 0d 20 3f 3d
       -0.12358861 0.10756692 0.28449062 0.046661425
000020 de 91 3c 3e 3e af 5f bd 2a c1 40 3e ef 12 37 be
       0.18415019 -0.054610483 0.18823686 -0.17878316
000030 e1 2e 0f be 74 c4 37 be ff 76 b7 3e 68 57 07 bd
       -0.13982727 -0.17946035 0.35832974 -0.03304234
000040 52 1d 86 3d 25 17 de bd bd 3f db 3e 00 60 d7 3e
       0.06548561 -0.10844258 0.42822066 0.4206543
000050 b9 85 88 be 74 a0 9b be ee 0b 77 be 02 3b 91 3d
       -0.26664522 -0.30395854 -0.24125645 0.07091333
000060 8e 6c 86 bc db 4b 29 be bf cc f4 bd 70 ad 13 3e
       -0.016409185 -0.16532843 -0.11953115 0.1442163
000070 6f 29 3d be 8e e9 20 3e 2b 9b 3c bc b4 f1 f0 bd
       -0.18472837 0.15714094 -0.011511604 -0.11764851
000080 5f 7e 01 3e eb b8 bc 3e 2e bb 38 be ce b1 c1 3d
       0.12645863 0.3685983 -0.18040153 0.09457742
000090 30 89 8c bd 69 cc d8 3e 97 be ab be cb f4 b8 be
       -0.06862104 0.42343453 -0.33543846 -0.36124262
0000a0 d9 71 d8 3e 59 6a 2f be c5 a7 12 3e 4b de a3 bb
       0.4227436 -0.17130412 0.14321811 -0.0050008646
0000b0 bc b5 1d bc 6b f7 25 bc 7b 26 91 3e 1a df c0 3d
       -0.009625848 -0.01012979 0.2834967 0.09417553
0000c0 5d 7b b8 be 94 fd 0b be f3 a9 4a bd 99 7d 64 3e
       -0.3603162 -0.13670951 -0.049478482 0.22313537
0000d0 0f ec 2d be fb 53 ca 3e d3 c4 78 bc 55 75 8d bd
       -0.1698458 0.39517197 -0.015183645 -0.06907145
0000e0 92 01 b4 3e 56 d6 7e 3e e4 bc c2 3e 85 84 8e 3e
       0.35157448 0.2488645 0.38034737 0.2783548
0000f0 81 a5 00 bd 98 3e 58 be 3b 4d 64 3d 61 9b b7 3e
       -0.031407837 -0.21117628 0.055737715 0.35860732

head.2.weight f4 [64, 64]
000000 7a 13 0e bd 1e 68 ed bd 60 ae f6 3d 79 30 47 3e
       -0.034686543 -0.115921244 0.12044978 0.19452085
000010 58 9d a3 3c d6 b8 d6 bc bc 0a 38 bd df 07 cf 3d
       0.019972488 -0.026211184 -0.044932112 0.10108923
000020 be 9b 6f 3d 95 81 3d bb fa c9 c6 3d c3 f7 d0 3d
       0.058498137 -0.0028916348 0.09706493 0.10203507
000030 81 d3 22 3e fc c0 c6 3d dc 32 52 3d 01 6c 3c bd
       0.15900995 0.097047776 0.051318035 -0.046001438
000040 e1 1a 1f bd 45 67 31 3e e9 bf 00 3e ff e1 fc 3d
       -0.038843993 0.1732455 0.12573208 0.12347793
000050 20 7f dd bd 3f ed 25 3e 79 6c 07 3e ee 87 32 3e
       -0.10815263 0.16203783 0.13224973 0.17434666
000060 ae 81 34 bd 0e ea 85 3c dc 9e b6 bd b7 f2 3f 3e
       -0.044068985 0.016346958 -0.08917019 0.18744932
000070 04 ff 5b bd 0f 52 65 3c 7e 32 ff 3d d2 ba 91 bb
       -0.05371 0.013996615 0.124608025 -0.0044473195
000080 d3 7d 38 3c 3b 64 6c 3d 05 33 41 3d 2e 95 04 bd
       0.011260468 0.057712775 0.047167797 -0.03236883
000090 a1 e0 2b 3e ed 79 7b 3c 30 9d 35 3d 53 d3 e9 3d
       0.16784908 0.015348894 0.04433936 0.1141726
0000a0 fe 5d 06 3e cf fa a0 3d c6 d5 32 3e 09 31 a3 3d
       0.13121793 0.07860338 0.1746436 0.07968337
0000b0 fe fc 85 3b 43 f3 35 3e 32 8e ce 3d 0f 97 66 bd
       0.004088997 0.17768578 0.10085715 -0.056296404
0000c0 83 27 05 bd dc 75 b7 bc ec d2 2a 3e f5 20 46 3d
       -0.032508384 -0.022395067 0.16682023 0.048371274
0000d0 95 9b 4d bd 4d 07 81 3d c5 95 08 3e 1f 32 bc 3d
       -0.050197203 0.06300221 0.13338383 0.09189247
0000e0 73 f3 dc 3d e6 1a ac 3d 8e 5f f1 3d b7 f4 29 3d
       0.10788622 0.08403568 0.11785804 0.041493144
0000f0 12 3a 0b 3c e0 4a b9 bd 03 ee 00 bd e0 63 fd 3d
       0.008497732 -0.090474844 -0.031476986 0.12372565
000100 66 9d 8a bd e0 e8 92 3c 97 98 d1 3d 33 5d 9a 3d
       -0.067683026 0.01793331 0.10234182 0.075373076
000110 4c 13 c3 bc 90 91 39 3e 26 e8 28 bc a3 27 27 3e
       -0.023812912 0.18121934 -0.010309255 0.16323714
000120 94 f4 1b bd 10 ba bf 3c 0b 69 08 3e a9 f8 c0 bb
       -0.038075045 0.023404151 0.1332132 -0.0058890176
000130 e0 25 1d 3e 06 2b b0 bd 0f 80 2a bd bc 84 14 bc
       0.1534648 -0.08601956 -0.041626032 -0.0090648495
000140 cc c5 b9 3d 55 4e 29 3e 2d cd a6 3b 6e e6 db 3d
       0.0907093 0.16533788 0.005090377 0.1073731
000150 ac 5c 00 bd 07 db 41 3c 98 36 f0 3d 9c e8 cc bc
       -0.03133838 0.011832005 0.11729163 -0.02501326
000160 ca 69 9a 3d f0 ed 3a 3e 45 b7 de bb c6 b6 25 3e
       0.07539709 0.18254828 -0.00679675 0.16183004
000170 84 ac 1d bd 6c 80 29 3e 58 8b 88 bd 32 17 ed 3c
       -0.0384946 0.16552895 -0.06667203 0.028941724
000180 39 47 3d 3d 2f 6b d1 3d af 90 d1 3d 6f 7c 22 3e
       0.0462105 0.10225522 0.10232674 0.1586778
000190 b3 bb 07 3d b4 68 73 3d ca 4f af 3d 1e 80 94 bc
       0.03313799 0.059426025 0.085601404 -0.018127497
0001a0 f4 40 2f 3e 19 2e 09 bd 9f c0 49 3d 8d d1 67 3d
       0.17114621 -0.033491228 0.049255963 0.056596328
0001b0 0a 6d ee 3d ff 25 0f 3e 72 10 3e 3d 03 5c 38 bd
       0.11641891 0.13979338 0.046402402 -0.045009624
0001c0 e8 62 a2 3d c0 65 b6 3d 11 0f d3 3d 9e 3b 80 bc
       0.07929021 0.08906126 0.10305608 -0.015653428
0001d0 f4 46 0a 3e 22 20 3b 3e a1 1b 91 3d 79 1d 65 bd
       0.13503629 0.18273976 0.07085348 -0.05593631
0001e0 e1 73 18 3e 06 e7 da bc 70 a4 c0 3d a6 c2 aa 3d
       0.14887954 -0.026721489 0.09406364 0.083379075
0001f0 53 a1 f0 ba 29 13 98 3d 49 0d 43 bd 59 84 bd 3d
       -0.0018358625 0.074255295 -0.04762009 0.09253759
000200 28 b4 94 bd 30 75 5d bc 51 8d 9b 3d cf a7 27 3e
       -0.072609246 -0.013516709 0.07595313 0.16372608
000210 f2 a3 69 bc 76 26 0d 3e d0 22 31 3d a0 1d bf bb
       -0.014260279 0.13784203 0.04324609 -0.005832389
000220 ce bf 46 bd a8 b7 91 bd 2b 12 37 3e 95 b3 e4 3c
       -0.048522763 -0.07115108 0.17878024 0.027917663
000230 45 fd 69 3d 3c cf 0a 3d ad a8 10 3e 6c 8d 11 3e
       0.057126302 0.03388904 0.14126845 0.14214104
000240 f9 28 29 3e 0a 90 16 bd d9 4a 0f 3d b4 77 93 bc
       0.16519536 -0.03675846 0.03498349 -0.018001415
000250 1c 44 92 bd 71 5c 88 3d 71 68 0d 3e 28 d6 0f bd
       -0.07141897 0.06658257 0.13809372 -0.035116345
000260 ce dc f9 3d 4f e1 98 bc cb 30 9f bc cb 2b 22 3e
       0.12200318 -0.018662123 -0.019432446 0.15837018
000270 30 99 e7 bc 9f bd 8b 3d 2f 90 3a bd 88 d4 20 3e
       -0.028271288 0.06823277 -0.04554766 0.15706074
000280 88 fc 31 3d 06 b1 08 bd 04 51 94 3d ee 33 d4 bc
       0.043453723 -0.033371948 0.07242015 -0.025903668
000290 65 a4 30 bd 6e 99 84 3d cc f7 ca 3d cd 4c d4 bc
       -0.04312553 0.06474577 0.09910545 -0.025915528
0002a0 4a a8 ef 3d c2 b0 1d 3e ef b6 11 3e 26 a0 5e bc
       0.117020205 0.15399459 0.1422994 -0.013587987
0002b0 5d b7 3f 3d 10 1e 88 3c c2 d6 33 bd 52 8a 76 3d
       0.04680573 0.016615897 -0.04390598 0.060190506
0002c0 c8 85 c9 3d 43 91 24 3e 20 7a 74 3d 28 6f b2 3d
       0.0983997 0.16071038 0.05968678 0.087126076
0002d0 b1 e8 63 bc c4 55 1a 3e 9e 13 86 bc cc cc 08 bd
       -0.013910458 0.1507178 -0.016366776 -0.033398435
0002e0 af 8c 9f 3d 5d a5 05 3e f6 c7 66 bd 9f 07 2e 3e
       0.07790505 0.13051362 -0.05634304 0.16995095
0002f0 b8 1b d3 3d e0 ce 7b bd 58 10 f6 3c 13 f6 2a 3e
       0.10308021 -0.06147659 0.03003709 0.16695432
000300 fe 42 ce bd 5c a5 15 bd 19 ab ad 3d ad 71 63 bd
       -0.100713715 -0.036534652 0.084799 -0.05552833
000310 97 b4 9c 3d a0 8b fc 3d aa e0 0f 3e 59 b8 65 bd
       0.07651632 0.12331319 0.14050546 -0.05608401
000320 d2 42 37 3e dd 29 ab bc 2c d6 2f 3e 7e 45 70 bd
       0.17896584 -0.020893985 0.17171544 -0.058660023
000330 dc ad be bd f8 3b 9d 3d 6e 19 76 3d fb 0a 7f 3d
       -0.09310505 0.07677454 0.060082845 0.06226633
000340 97 b1 a9 bb 9e 29 c8 3b bf d8 bd 3c 9e 32 94 bd
       -0.005178641 0.006108477 0.023174642 -0.07236217
000350 20 dd d4 3b 2a 02 04 bb 3f 66 a2 3c 50 4f a2 3d
       0.0064960867 -0.0020142891 0.019824145 0.07925284
000360 b1 99 01 3e 8d 97 1d 3d 1e c4 14 bd 22 4b 79 bc
       0.12656285 0.03847461 -0.036319844 -0.015215667
000370 4c ca a3 bd 6f 95 19 bd 1c 23 db 3c 00 e3 04 3d
       -0.079975694 -0.037496027 0.02675014 0.032443047
000380 b6 cf c8 3d 49 21 95 3b bb 33 ed 3d 00 0c b3 bc
       0.09805243 0.004551087 0.115821324 -0.021856308
000390 8b db 95 3d 59 37 2b 3e 06 90 fe 3d 13 0c 6d bd
       0.07317265 0.16720332 0.12429814 -0.057872843
0003a0 13 66 9f 3d fd 3b d6 3c 42 77 41 3b 7c 84 9a 3c
       0.07783141 0.026151652 0.0029520546 0.018862002
0003b0 37 11 ce 3d 26 08 cc bc 4a 7c ae 3d ef 08 eb 3d
       0.10061877 -0.02490623 0.085198 0.11476313
0003c0 35 e6 ff bc 5f fd 30 3e 98 e9 48 3d 8b 81 e1 3d
       -0.031237701 0.17284153 0.049050897 0.110110365
0003d0 3f f3 38 3e 3b b5 28 3c 34 b1 d1 3d 71 74 a7 3c
       0.18061541 0.010297115 0.10238877 0.020441266
0003e0 d5 62 25 3d af 41 19 3d f0 a8 59 3d 80 7a b6 b9
       0.040377457 0.037416156 0.053139627 -0.00034805015
0003f0 85 3b bb 3d b6 93 2d 3d b1 e0 14 3e b3 55 12 3d
       0.09142212 0.042377196 0.14538838 0.03572626

head.2.bias f4 [64]
000000 9d c1 be 3d f5 71 73 bd ce 3f fc bc 02 2d 1d 3e
       0.093142726 -0.05943485 -0.030792143 0.153492
000010 5b e7 db 3d 57 de 67 3d 37 c7 8f 3d ca 41 16 3a
       0.10737487 0.056608524 0.07020419 0.0005731849
000020 91 2a bc 3c f0 c7 ae bd 09 45 08 3d 5c f3 ea bd
       0.022969516 -0.08534229 0.033268962 -0.11472198
000030 1b ab e1 bd 55 b5 06 3c 76 fd 08 3d a5 91 1a 3e
       -0.11018964 0.008221944 0.033444844 0.15094621
000040 35 02 b9 3d c8 86 53 3d 64 fc a5 3b d6 92 02 3e
       0.09033624 0.05164221 0.0050654877 0.12751326
000050 c1 cc 03 bd 40 85 e7 bc 42 3a 24 3d 56 ee 33 bd
       -0.03217769 -0.02826178 0.04009462 -0.043928467
000060 71 db 08 3d 3f 75 fc bd 6e e8 52 b9 7e 57 ba bd
       0.0334124 -0.123270504 -0.00020113747 -0.09098719
000070 f0 ee 27 3e ba d2 eb bd e5 ae 45 3e f2 5c 7b 3c
       0.16399741 -0.11514802 0.19304998 0.015341984
000080 ca 00 ad bd ca 38 1c 3e f3 11 fb bc d8 db ea bd
       -0.08447416 0.15256038 -0.030648207 -0.11467713
000090 27 e1 2a 3d 02 6f eb 3d ec e7 f8 bd 2b 3b 43 3d
       0.04171863 0.114957824 -0.121536106 0.04766385
0000a0 ba 78 d7 3d 51 4f d0 3c 95 65 5f 3d 37 05 4f bd
       0.10521074 0.025428446 0.054540236 -0.050542083
0000b0 ea 7b 17 bd e8 7b c8 3d b0 c5 b5 bd c2 75 88 3d
       -0.036983408 0.09789258 -0.088755965 0.066630855
0000c0 7b c7 cd 3c 1d c6 e8 bb 0e 3f fa 3d a3 62 f2 bd
       0.025119534 -0.007103695 0.12219058 -0.1183522
0000d0 25 b2 40 3e 51 fd dc 3d 34 a8 5e bc 6c f3 d4 bd
       0.18817957 0.10790504 -0.013589907 -0.103979915
0000e0 dc 72 98 3d 45 0c bd 3d 74 e5 08 bc 70 f5 80 bc
       0.07443783 0.09230856 -0.008355487 -0.015742034
0000f0 50 bc 9a bd 4b 37 09 be 90 89 6a 3d ae 52 30 3e
       -0.07555449 -0.13399999 0.057260096 0.1721904

head.4.weight f4 [8, 64]
000000 d9 0b 57 bd dd 76 37 bc b8 35 00 be b3 0d b9 bd
       -0.052501533 -0.011197773 -0.12520492 -0.09035816
000010 23 97 70 bd 08 f8 db bd 23 be d6 3c d1 4e b1 3d
       -0.058737885 -0.107406676 0.026213711 0.08657611
000020 3b 96 bb bd 4c 0a 1d 3d da 14 ca bd 16 36 93 bd
       -0.091595136 0.038339898 -0.09867258 -0.071880504
000030 44 79 82 bd 41 5a bc bd 12 e9 ff bd a8 42 d5 bc
       -0.06370786 -0.09196902 -0.124956265 -0.02603276
000040 5d be cd 3c b4 67 95 bd 52 ab 5f bd 33 21 2a bd
       0.025115186 -0.072951704 -0.054606743 -0.041535567
000050 b5 fb b0 bd c0 78 8d 3d 84 c3 8a 3d 10 2e a2 bd
       -0.08641759 0.06907797 0.06775573 -0.07918942
000060 3c 32 13 bd 8e 0f cb 3d 8a 27 0d 3d df c6 c1 bd
       -0.03593658 0.09915076 0.034461536 -0.0946176
000070 a7 9a de bd 2c 1e fb bd 9d a4 ec 3c 37 ef d5 3d
       -0.10869341 -0.12261614 0.028887087 0.10446017
000080 28 59 3a bd e4 0d 91 bb 06 df e8 3c 35 24 d1 bd
       -0.045495182 -0.0044267047 0.028426658 -0.10211984
000090 61 7b b0 3b b3 33 87 3c 80 29 34 3b 34 6a 08 bd
       0.0053858017 0.016504144 0.0027490556 -0.03330441
0000a0 66 3a 85 bc 48 e0 99 3c f7 34 87 3d f5 8d 85 3c
       -0.016263198 0.018783703 0.06601899 0.016303042
0000b0 26 fc 8d bb cc f3 05 bd da a0 98 3d de 74 ce bd
       -0.004333037 -0.032703206 0.07452555 -0.100808844
0000c0 56 c6 c8 bd 2f c4 63 3b 97 15 8d bc d2 34 0b 3d
       -0.098034546 0.0034754386 -0.017222209 0.03398592
0000d0 11 4f e2 3b 6e 22 fc bc 16 5a 91 bb 9c a1 50 3d
       0.006906398 -0.030778136 -0.004435788 0.050935373
0000e0 4c 3d ee bd 40 86 ab bd 87 ed dc bc 78 77 9b bc
       -0.11632785 -0.083752155 -0.02696873 -0.018977866
0000f0 d2 3e 29 be d4 3c a9 3c f8 00 a2 3c 7f cc e7 bd
       -0.1652787 0.020658888 0.019775853 -0.113183014
000100 5e 39 72 3d b2 b7 35 bd 88 83 4f bc 98 18 e8 bd
       0.05913674 -0.04436464 -0.012665637 -0.11332816
000110 6b 7c 28 be 98 94 dd bd b4 cc 81 bd b5 db a5 bd
       -0.16453712 -0.10819358 -0.06337872 -0.080985464
000120 2b ce d7 3d 3e d9 a3 bd d4 b4 1d be fc 9b 35 bd
       0.1053737 -0.0800042 -0.15401012 -0.04433821
000130 ad b7 bb 3d 39 e3 e5 bd 68 22 48 3d 20 45 b2 ba
       0.09165893 -0.1122498 0.048860937 -0.0013600923
000140 bd 43 ae bd d1 31 ca bb 0d 71 03 3d 55 92 02 be
       -0.08509014 -0.0061704894 0.032090236 -0.12751134
000150 c8 bf 55 bd cb 71 ef 3d c4 5e 30 3b a5 20 cb bd
       -0.05218485 0.11691626 0.0026911953 -0.09918336
000160 b8 3b d5 bd fa 57 81 3d d0 15 84 bc e7 1a 5b 3b
       -0.10411781 0.06315608 -0.016123682 0.0033432783
000170 8a c9 20 be 20 d1 bc bd c0 f8 c4 bd d9 ae d1 3c
       -0.15701881 -0.09219575 -0.09617758 0.02559607
000180 70 56 5a bc 17 07 27 be 01 e6 03 bd 4a f4 f4 3d
       -0.013326272 -0.16311298 -0.03220177 0.11960657
000190 18 a3 28 be bc ee 25 be de ed a0 3d 6c 46 77 3d
       -0.16468465 -0.16204351 0.078578696 0.060369894
0001a0 22 b7 3a be 93 a6 3c be e6 62 cf bd c2 06 fd 3d
       -0.18233922 -0.18422918 -0.10126285 0.123548046
0001b0 c0 6c 00 be 60 1a 2f 3c cc fa d0 3d 57 1c ee bd
       -0.12541485 0.010687441 0.10204086 -0.11626499
0001c0 e2 ec 4d bd be c2 24 be 13 b2 97 bd 05 e3 dc 3d
       -0.050274737 -0.16089913 -0.07407012 0.10785488
0001d0 25 0d 38 bc 9c 90 cd 3c 4a e9 19 bd 90 a6 a2 bc
       -0.011233603 0.02509337 -0.037575997 -0.019854814
0001e0 c7 c4 bd bd ed de 90 bb 73 2d b5 bd 92 ac da bd
       -0.09266048 -0.004421106 -0.088465594 -0.106774464
0001f0 e9 53 c7 bd da f4 1a 3d 65 9b 38 3d 05 5f af bd
       -0.097328015 0.037831165 0.04507007 -0.085630454
000200 13 00 28 be 73 8f 1f be bc da 1c be ea 2a d0 bb
       -0.16406278 -0.15582065 -0.15317816 -0.006352772
000210 77 56 18 3d 05 a9 8e bc be 5f 4d bc e5 e6 71 3d
       0.037191834 -0.01741458 -0.012535034 0.05905809
000220 72 84 a5 3d aa dd 98 3d cd 59 3b 3c c0 8a 0a 3d
       0.080819026 0.07464154 0.011434984 0.03382373
000230 5f 64 81 3d bb 8d 01 be 09 00 10 be 0d c4 9b bc
       0.063179724 -0.12651722 -0.14062513 -0.019014383
000240 55 ee 1a bd a5 6d 2c be f7 fe d4 bd ac 3b 1b be
       -0.037824947 -0.16838701 -0.10400193 -0.15159482
000250 55 49 bd 3d 1a 43 a4 3d b7 53 fd bd c6 37 bd 3c
       0.092425026 0.08020611 -0.12369483 0.023097884
000260 69 d9 b8 bd 2a 8c de 3d 67 93 3a be 57 f9 c8 bd
       -0.09025843 0.10866578 -0.18220292 -0.09813183
000270 20 29 2e be 8a fc 94 3d 01 12 00 be 81 8c 57 3d
       -0.17007875 0.072747305 -0.12506868 0.05262423
000280 98 12 2d 3d c7 a2 e3 bd 23 47 0f bd 8e 64 58 bd
       0.04225406 -0.11115032 -0.03497995 -0.05283027
000290 8e a3 dc 3a 3c ef da bd c8 c1 2d 3d 53 6d 3d bd
       0.0016833411 -0.106901616 0.042421132 -0.046246838
0002a0 ba d8 1c be f2 55 16 be 49 05 0f be cf ae 84 3d
       -0.1531705 -0.14681223 -0.1396686 0.064786546
0002b0 4a 68 ae bc c0 fa 4d bb d6 6e 98 bd 3a a3 3c be
       -0.021289963 -0.0031429976 -0.07443015 -0.18421641
0002c0 59 df 6a bd 13 79 25 be 65 b6 44 be b3 b0 00 be
       -0.057341907 -0.16159467 -0.19210203 -0.12567405
0002d0 30 58 0b be 25 67 32 be 2b cc 69 3d 8c 93 3f 3d
       -0.1360786 -0.17422159 0.057079475 0.04677157
0002e0 88 48 30 bc 15 67 2b be e3 35 71 3c 88 a4 c7 3c
       -0.01075948 -0.16738541 0.01472232 0.024370447
0002f0 d8 64 a8 3c fe 0a 22 bd 77 aa 9a bb 7a 05 32 be
       0.020555899 -0.039561264 -0.004720028 -0.17384902
000300 2e 8e e7 3d 24 9e 33 3e 7b c5 f8 3d f7 db 39 bd
       0.113064155 0.17540795 0.121470414 -0.04537579
000310 2c cf 0e 3d 48 9d 5c 3d 66 e3 0e 3e 9c f1 ca bc
       0.034865543 0.053860933 0.13953933 -0.024773411
000320 50 47 93 3c f0 bc 33 bd 49 89 75 3d 80 12 23 bb
       0.01797834 -0.043881357 0.05994538 -0.0024882853
000330 8a 97 ef bc 0c ce ff bc 0c ea 33 3e 17 ab 33 3e
       -0.029247064 -0.03122618 0.1756975 0.17545734
000340 ff 31 8f 3d 69 a1 41 3e d9 cb 16 3e 15 f9 b0 bb
       0.06991958 0.1890923 0.14726199 -0.0054007866
000350 98 ab a0 bc 37 17 a5 bd b2 06 ef 3d 1e fa 80 3d
       -0.019613072 -0.080610685 0.11671199 0.06297706
000360 3b 79 77 3d 50 12 be 3d 42 79 0e 3d d5 cd 84 bd
       0.06041835 0.092808366 0.03478361 -0.06484572
000370 2f a8 3b bc 12 3c 82 bd 45 d3 49 3e 1e 9d 1c bd
       -0.011453672 -0.06359114 0.19709499 -0.038235776
000380 e4 e0 0c bd 26 a2 fc 3d b1 6f c0 bd a4 61 9b bd
       -0.03439416 0.12335615 -0.093963034 -0.07586983
000390 0e 63 25 3e 64 9a c4 3c 1c d7 84 bd 2b 7a 68 3d
       0.16151068 0.0239994 -0.06486341 0.056757133
0003a0 dd f7 56 3d 9f bc c9 3d 8f 4e ef 3d f1 e4 bc bd
       0.052482475 0.0985043 0.11684906 -0.092233546
0003b0 f0 f9 2b 3e 90 64 f3 bd 18 68 2d 3d 4d e8 30 3d
       0.16794562 -0.11884415 0.0423356 0.04319029
0003c0 6f 87 20 bd 34 1c 4b 3e 92 83 1c bd 79 ef 2e 3c
       -0.03919166 0.19834977 -0.038211413 0.010677212
0003d0 f8 73 19 3e 3f 58 3c 3e 66 96 c4 bd 40 c0 76 3c
       0.14985645 0.18393038 -0.09598999 0.015060484
0003e0 74 a5 4c 3e de c8 67 bd e1 07 e1 3d f4 66 a0 bd
       0.1998499 -0.056588046 0.10987831 -0.07832137
0003f0 4b d9 89 3d 2f e3 d7 bd 4c 0a 0c 3e ec 75 2b 3d
       0.067308985 -0.10541379 0.13675803 0.041860506

head.4.bias f4 [8]
000000 61 d3 1d be 90 19 a5 bc 3f 6f 14 be f7 1c b3 3c
       -0.15412666 -0.02015379 -0.14495562 0.021864397
000010 42 e7 12 3b 19 ad 4b 3d b3 c1 21 bc d8 a1 14 be
       0.0022415672 0.049725626 -0.009872842 -0.14514863
