script/logs/dome_partial/model/final/policy.pth (torch, 37886 bytes, 6 tensors)

head.0.weight f4 [64, 36]
0.016628366 0.1783551 -0.113330446 -0.12448907 -0.0641924 0.0683445 -0.00973186 0.094270945
-0.014790675 0.048368994 -0.0811959 -0.0327609 -0.16231205 -0.118405625 -0.094191164 -0.018494956
0.05440359 0.046325974 -0.12080101 -0.07998997 0.092716396 0.09065696 -0.03430003 0.12471863
-0.050195277 -0.025984941 0.09553978 -0.15461174 -0.18980522 -0.05509031 -0.06496666 0.24013317
-0.12922123 -0.076722145 -0.14955655 -0.15609351 -0.16691706 0.17214918 0.08740616 0.045252576
0.00814898 -0.15108013 0.03150955 -0.17787695 -0.12042771 -0.13279293 0.06977875 0.09910357
-0.07855727 -0.019755589 0.13352446 0.12542666 0.07452077 0.0013270639 0.1039104 -0.16401221
0.02327176 -0.15650274 -0.13411234 -0.08482903 0.11209985 0.023761982 -0.11872192 0.0566427
0.056427915 0.00088505115 0.0057472987 0.045050275 0.05788281 0.16146284 -0.1470327 -0.05644385
0.08204009 0.16911812 0.14670557 0.073328026 0.024901226 -0.122559674 -0.025268143 -0.13911846
-0.18010621 0.16250986 0.0660863 -0.20318149 -0.015750507 -0.055561066 -0.00936117 -0.12384116
0.044122398 -0.1285799 0.01430168 0.07940518 0.13674045 0.01151083 -0.16647227 -0.1457931
0.11988571 -0.04799835 -0.18080793 -0.080769345 0.16596255 0.073844865 -0.07473906 -0.0005496372
-0.19311315 -0.024335645 -0.090324335 -0.15494072 -0.018537767 0.010546403 -0.117619485 0.08187017
-0.10445394 0.18991512 0.15328251 -0.0808581 -0.028398363 -0.021109749 0.060612474 0.08399605
0.11262282 0.0949497 -0.12124386 0.08867611 -0.12001352 -0.028523473 -0.0038371847 -0.10025262
-0.093899444 -0.04716466 0.01553482 0.06996984 -0.1367062 0.027237346 0.106995255 -0.022515275
-0.02608616 -0.0011271065 0.041243263 0.1487362 0.18389474 0.09517739 0.23223524 -0.010770036
-0.18848793 -0.06620015 0.09950395 -0.02345795 -0.08284106 -0.17205563 -0.14423983 -0.14687888
-0.033806127 0.05806587 0.055596944 -0.16073865 0.10396367 -0.12932676 -0.033662986 -0.078999154
-0.032102548 -0.07141221 -0.14955834 -0.23267016 -0.017333794 -0.013411487 -0.07571249 0.062783204
-0.19522864 -0.068606324 0.08569089 -0.07942396 0.13106447 0.020510687 -0.15041016 0.14023918
-0.039913252 -0.07440114 0.18867981 -0.13468254 -0.0033699952 -0.03693561 0.086313315 -0.00068540144
0.094920196 0.029904714 -0.061026562 -0.06949728 -0.13734691 0.06707444 0.09830981 0.09813064
-0.12289358 -0.0023934203 -0.14741959 -0.1328631 -0.10557842 0.027158132 -0.11075551 -0.054011878
-0.009783458 0.07127353 -0.15117149 -0.103182085 -0.106609054 0.04883182 -0.099628076 0.12645842
0.028838081 -0.005124833 -0.0008092527 -0.023068292 -0.0074816397 -0.02114406 0.014389716 0.029280005
-0.17313527 -0.09460703 0.10887134 -0.1391525 -0.011967699 0.14008091 0.0688701 -0.01367985
-0.14443499 0.070259646 -0.13003077 -0.052647397 -0.058236994 -0.023843033 -0.014193334 0.10920436
0.04233779 0.12631693 0.104943514 -0.19532216 0.06228968 -0.1542023 -0.06899511 0.04902045
0.044865552 0.0729282 -0.086757675 0.002451284 0.05659254 -0.18186808 0.12049677 -0.19454736
-0.010569572 -0.028336128 -0.06911214 0.022028506 0.12459093 -0.052870184 -0.12822276 -0.056159846
00000000: 3638 883c b8a2 363e cb19 e8bd 20f4 febd
00000010: 4e77 83bd 34f8 8b3d 6172 1fbc 2011 c13d
00000020: 9654 72bc 911e 463d 094a a6bd 4b30 06bd
00000030: 2135 26be a67e f2bd 4ce7 c0bd bc82 97bc
00000040: 4cd6 5e3d 4ec0 3d3d 8566 f7bd c8d1 a3bd
00000050: 18e2 bd3d 5baa b93d 307e 0cbd 7b6c ff3d
00000060: 9099 4dbd 5fde d4bc 5caa c33d 8a52 1ebe
00000070: 4d5c 42be 60a6 61bd 3e0d 85bd 78e5 753e
00000080: 9252 04be 8020 9dbd 5a25 19be fad6 1fbe
00000090: 4eec 2abe e047 303e 0002 b33d c45a 393d
000000a0: 4d83 053c c0b4 1abe 2810 013d 6025 36be
000000b0: cea2 f6bd dffa 07be 29e8 8e3d d0f6 ca3d
000000c0: a2e2 a0bd 79d6 a1bc a3ba 083e d96f 003e
000000d0: 589e 983d e0f0 ad3a face d43d d1f2 27be
000000e0: 6ba4 be3c 4142 20be bf54 09be d8ba adbd
000000f0: 9b94 e53d 7da8 c23c 7a24 f3bd 2d02 683d
00000100: f520 673d c702 683a d653 bc3b a386 383d
00000110: 8616 6d3d 8456 253e bd8f 16be ab31 67bd
00000120: a204 a83d 4d2d 2d3e fc39 163e 012d 963d
00000130: a8fd cb3c 9100 fbbd 23ff cebc 1275 0ebe
00000140: c36d 38be fc68 263e 4158 873d cf0e 50be
00000150: 3507 81bc 0094 63bd 985f 19bc 6fa0 fdbd
00000160: b0b9 343d 73aa 03be 9851 6a3c 2f9f a23d
00000170: b005 0c3e ec97 3c3c b577 2abe c94a 15be
00000180: a486 f53d eb99 44bd b725 39be 666a a5bd
00000190: 16f2 293e fa3b 973d cb10 99bd 8715 10ba
000001a0: 74bf 45be 8c5b c7bc f7fb b8bd c8a8 1ebe
000001b0: 84dc 97bc d2ca 2c3c 7ce2 f0bd 8cab a73d
000001c0: f3eb d5bd 1c79 423e 17f6 1c3e ee98 a5bd
000001d0: afa3 e8bc 5aee acbc c944 783d 1f06 ac3d
000001e0: cba6 e63d fd74 c23d b34e f8bd d29b b53d
000001f0: a6c9 f5bd 0faa e9bc 4779 7bbb 3f51 cdbd
00000200: 5a4e c0bd bb2f 41bd c285 7e3c 594c 8f3d
00000210: b6fc 0bbe db20 df3c 5420 db3d f471 b8bc
00000220: a5b2 d5bc 6bbb 93ba b2ee 283d 4d4e 183e
00000230: e74e 3c3e 5dec c23d 13cf 6d3e ce74 30bc
00000240: fb02 41be f293 87bd bac8 cb3d e32a c0bc
00000250: 93a8 a9bd 5a2f 30be 9bb3 13be 6b67 16be
00000260: 4b78 0abd 7ad6 6d3d 9fb9 633d ac98 24be
00000270: e8ea d43d 3c6e 04be 33e2 09bd 4fca a1bd
00000280: f67d 03bd 9140 92bd d225 19be 1641 6ebe
00000290: 9aff 8dbc dbbb 5bbc 260f 9bbd 7b94 803d
000002a0: 04ea 47be 7981 8cbd b57e af3d 07a9 a2bd
000002b0: c435 063e 0706 a83c 1f05 1abe dc9a 0f3e
000002c0: 147c 23bd a05f 98bd 4835 413e 38ea 09be
000002d0: 23db 5cbb cb49 17bd 09c5 b03d 83ac 33ba
000002e0: 8565 c23d bbfa f43c fdf6 79bd 9754 8ebd
000002f0: aba4 0cbe 535e 893d a756 c93d b8f8 c83d
00000300: a1af fbbd eeda 1cbb 29f5 16be 440d 08be
00000310: 8039 d8bd bb7a de3c c9d3 e2bd 8f3b 5dbd
00000320: cc4a 20bc dbf7 913d b3cc 1abe 2151 d3bd
00000330: d955 dabd e003 483d ce09 ccbd 517e 013e
00000340: d73d ec3c 37ee a7bb 0824 54ba b7f9 bcbc
00000350: 8b28 f5bb 4f36 adbc d8c2 6b3c 9fdc ef3c
00000360: 5f4a 31be 55c1 c1bd f0f7 de3d fe7d 0ebe
00000370: 2b14 44bc 5f71 0f3e c40b 8d3d 7321 60bc
00000380: c4e6 13be 4ae4 8f3d c926 05be cca4 57bd
00000390: ea89 6ebd 7752 c3bc 288b 68bc 89a6 df3d
000003a0: 646a 2d3d 3a59 013e a0ec d63d 8802 48be
000003b0: 7723 7f3d 35e7 1dbe 4f4d 8dbd abc9 483d
000003c0: f1c4 373d 615b 953d 02ae b1bd b9a5 203b
000003d0: 94cd 673d a03b 3abe 03c7 f63d 6c37 47be
000003e0: 002c 2dbc 2b21 e8bc aa8a 8dbd 2075 b43c
000003f0: 8829 ff3d 688e 58bd d44c 03be de07 66bd

head.0.bias f4 [64]
-0.04958346 -0.08677281 0.19526374 -0.0090914415 0.20504563 0.154142 0.13285805 0.21461526
-0.15854752 0.20518488 0.15953414 0.0044182152 0.15208286 0.06012295 0.04136881 0.08493215
-0.0029032985 0.23798062 0.23552746 0.084165655 -0.0434775 0.09976748 0.10149383 0.19802947
0.10335977 0.14356913 0.13237858 -0.027610715 -0.12654707 -0.09096064 0.09874906 0.12995687
0.09265835 0.23898596 0.084050246 -0.038899764 0.121661045 -0.02145916 0.07819834 0.262813
0.098484986 0.2343845 0.11661798 0.079822175 0.22109258 -0.039325476 0.10480551 0.1308859
0.18679151 -0.10463353 0.108192004 0.059181307 0.20437273 0.15471068 0.1507732 0.16227171
0.078850985 0.09770768 0.23722178 -0.04572234 -0.052883245 0.113291964 -0.00798903 0.11443431
00000000: 0718 4bbd f1b5 b1bd 38f3 473e 45f4 14bc
00000010: 7bf7 513e 67d7 1d3e f10b 083e 1ac4 5b3e
00000020: 485a 22be fc1b 523e eb5c 233e adc6 903b
00000030: 9cbb 1b3e 7b43 763d 5772 293d e8f0 ad3d
00000040: 4445 3ebb 31b1 733e 1c2e 713e 0b5f ac3d
00000050: 7715 32bd e452 cc3d ffdb cf3d 3dc8 4a3e
00000060: 49ae d33d c903 133e 408e 073e de2f e2bc
00000070: 8e95 01be 9249 babd f23c ca3d 6a13 053e
00000080: a9c3 bd3d bcb8 743e 8922 ac3d 5c55 1fbd
00000090: 6d29 f93d 1fcb afbc 7426 a03d 6d8f 863e
000000a0: 7fb2 c93d 7e02 703e 68d5 ee3d cf79 a33d
000000b0: 1866 623e c013 21bd 45a4 d63d f406 063e
000000c0: 4646 3f3e 1b4a d6bd c593 dd3d 1968 723d
000000d0: 1647 513e 7a6c 1e3e 4a64 1a3e 8e2a 263e
000000e0: a07c a13d f71a c83d 44ea 723e 5947 3bbd
000000f0: 1a9c 58bd 9e05 e83d 6ce4 02bc 895c ea3d

head.2.weight f4 [64, 64]
0.1951297 0.048782673 -0.056252852 0.040185403 0.20672995 0.053383157 0.031458575 0.13758163
0.012423968 -0.031926896 0.19003639 0.15860331 0.19760248 0.13299678 0.032930493 0.028301112
0.12990037 0.042200614 0.09609711 -0.065509975 -0.13081907 0.14029966 0.062363647 0.024431514
-0.06450377 0.11569954 0.06960417 -0.039397728 0.13037781 0.015150486 0.020469902 0.0066492595
0.2073937 0.07704225 0.008169238 0.0530254 0.061974294 -0.03439053 0.03996329 -0.020619541
0.0114336535 0.04402992 -0.0025345066 0.24545263 0.08723727 -0.014977905 0.1200784 -0.070083246
0.017645579 0.099905685 0.007096357 0.12148669 0.08204518 -0.02008455 -0.033488102 0.13089335
0.17496197 0.06421278 -0.022908833 -0.00963134 -0.046127174 0.087973796 0.061127625 0.10954067
-0.0530459 0.020370822 0.09083515 0.14481589 0.0917503 -0.079243556 -0.06494471 -0.036985524
0.03694485 0.027879763 -0.011626376 -0.12292634 -0.11394319 0.06654489 -0.068968974 -0.07928384
-0.08624373 -0.11952444 -0.024359256 0.0027925002 -0.023598498 -0.048922483 0.034607563 -0.07609511
-0.15453345 -0.06543179 0.08801253 -0.008837428 0.011635433 -0.018656097 0.022317175 -0.095194556
0.07058698 -0.031079212 -0.024917616 0.014987328 -0.099641845 0.10495685 0.08792016 -0.12276485
-0.14965661 -0.084742345 0.053300917 -0.08708853 0.16949174 -0.09212405 -0.16342834 0.032153565
-0.024864806 0.04227711 -0.012911551 0.0020920383 -0.18726733 -0.11284164 0.021197772 -0.03592363
-0.11902319 -0.04702671 -0.13555145 0.04024736 0.07017266 0.07372046 -0.16850685 -0.050145626
0.067836866 0.114557594 -0.088934004 0.053120285 0.05160801 0.07535885 -0.08617702 0.08920206
-0.05444546 -0.07694359 0.024819642 0.105892524 -0.082777694 0.0667385 -0.0143157095 0.03990467
0.0975088 0.033940032 -0.103769556 -0.037634492 0.024809644 -0.1054488 0.020781219 -0.06712112
-0.02484715 0.044717625 -0.10060246 -0.0802518 0.057013035 -0.12363008 0.08602354 -0.0963849
-0.0020127296 0.02566047 0.04932405 -0.07758346 0.016821608 0.05382341 0.10721369 -0.094068676
-0.0621465 0.036414534 -0.004012838 -0.08435339 -0.10520634 -0.110991165 -0.08746852 -0.053221077
-0.086799935 -0.10965589 0.00975737 0.07330704 -0.058935866 0.01249972 -0.0015409589 0.058429167
-0.086688355 0.0059345663 0.11667438 0.08923982 -0.123889595 -0.01881744 0.0011652112 -0.041274518
-0.05661228 -0.032574046 0.0886838 -0.0512451 -0.015034969 0.020686846 -0.05657455 0.01794779
0.07277848 -0.07571125 0.047499515 0.036533494 0.06602751 0.067161866 0.016653048 0.0076558683
-0.181179 0.057532042 0.07208403 -0.038093414 -0.10598216 0.12954055 -0.010630696 -0.0017319506
-0.040906712 0.08526125 0.10804779 0.10924553 -0.04032915 0.079057775 0.08558567 0.011379869
-0.10844456 -0.05817701 -0.1373995 0.07742565 0.11316304 0.059629478 0.048637036 0.043821126
0.14122373 -0.058810037 -0.0070696804 -0.0540563 -0.04150166 0.030252714 0.025414385 -0.110022984
-0.049406894 -0.099241495 -0.048453085 -0.009702352 -0.108897336 0.04401498 -0.12908936 -0.08643022
0.018950637 -0.10302337 0.09680107 0.12957262 -0.0653163 0.059211772 0.053725887 0.02797298
00000000: 14d0 473e 57d0 473d 6469 66bd 7399 243d
00000010: 04b1 533e 4ca8 5a3d b5da 003d 33e2 0c3e
00000020: e68d 4b3c c7c5 02bd e698 423e e868 223e
00000030: 4e58 4a3e 4f30 083e 20e2 063d bcd7 e73c
00000040: 9a04 053e 8dda 2c3d 90ce c43d 182a 86bd
00000050: 6ff5 05be b7aa 0f3e 0671 7f3d 9924 c83c
00000060: 8d1a 84bd e1f3 ec3d a28c 8e3d 835f 21bd
00000070: c381 053e be39 783c 7fb0 a73c 08e2 d93b
00000080: 045f 543e 54c8 9d3d 45d8 053c 2931 593d
00000090: c2d8 7d3d 16dd 0cbd 8cb0 233d 50ea a8bc
000000a0: 3854 3b3c b858 343d f719 26bb ef57 7b3e
000000b0: 74a9 b23d e365 75bc aaeb f53d ce87 8fbd
000000c0: 768d 903c 5a9b cc3d 8f88 e83b 04ce f83d
000000d0: 4e07 a83d 5b88 a4bc d22a 09bd e808 063e
000000e0: 3b29 333e fd81 833d 4eab bbbc c5cc 1dbc
000000f0: d9ef 3cbd 9b2b b43d f660 7a3d dc56 e03d
00000100: a846 59bd b6e0 a63c c707 ba3d 9e4a 143e
00000110: 95e7 bb3d 724a a2bd bb01 85bd 227e 17bd
00000120: 7c53 173d 1a64 e43c 8e7c 3ebc cec0 fbbd
00000130: 0c5b e9bd b048 883d 9b3f 8dbd 915f a2bd
00000140: 8da0 b0bd 3bc9 f4bd 108d c7bc 6102 373b
00000150: a351 c1bc f162 48bd a9c0 0d3d c1d7 9bbd
00000160: 043e 1ebe 1a01 86bd ea3f b43d dcca 10bc
00000170: 8ba2 3e3c acd4 98bc 82d2 b63c 5df5 c2bd
00000180: e88f 903d d599 febc 0720 ccbc 698d 753c
00000190: 0611 ccbd 9ef3 d63d 7c0f b43d 236c fbbd
000001a0: 953f 19be 658d adbd 1052 5a3d 795b b2bd
000001b0: 3e8f 2d3e 89ab bcbd c259 27be 75b3 033d
000001c0: 47b1 cbbc c32a 2d3d f88a 53bc 941a 093b
000001d0: 02c3 3fbe 8519 e7bd f3a6 ad3c a824 13bd
000001e0: 6ec2 f3bd 149f 40bd 00ce 0abe 6ada 243d
000001f0: afb6 8f3d c1fa 963d 0f8d 2cbe 8065 4dbd
00000200: 0eee 8a3d 2c9d ea3d 0823 b6bd a894 593d
00000210: ec62 533d be55 9a3d 947d b0bd 92af b63d
00000220: 3402 5fbd 9a94 9dbd 9052 cb3c 2ede d83d
00000230: 5a87 a9bd 32ae 883d 708c 6abc 1473 233d
00000240: b2b2 c73d b404 0b3d 2285 d4bd a026 1abd
00000250: 983d cb3c 8af5 d7bd 603d aa3c cc76 89bd
00000260: 408c cbbc d429 373d aa08 cebd 0e5b a4bd
00000270: 8086 693d c431 fdbd 1c2d b03d 7265 c5bd
00000280: 00e8 03bb e835 d23c 0408 4a3d 14e4 9ebd
00000290: 78cd 893c f075 5c3d da92 db3d 14a7 c0bd
000002a0: 548d 7ebd 6827 153d 207e 83bb 78c1 acbd
000002b0: 6c76 d7bd 564f e3bd b222 b3bd 58fe 59bd
000002c0: 2ac4 b1bd 4493 e0bd 60dd 1f3c 0022 963d
000002d0: bc66 71bd a0cb 4c3c 00fa c9ba 6c53 6f3d
000002e0: aa89 b1bd c076 c23b faf2 ee3d 5ec3 b63d
000002f0: d4b9 fdbd 0827 9abc 00ba 983a 780f 29bd
00000300: 47e2 67bd 5d6c 05bd da9f b53d 62e6 51bd
00000310: 3b55 76bc 7677 a93c b7ba 67bd 3e07 933c
00000320: e20c 953d 800e 9bbd da8e 423d 25a4 153d
00000330: 6e39 873d 298c 893d f96b 883c 14de fa3b
00000340: fd86 39be b8a6 6b3d cba0 933d d707 1cbd
00000350: 2d0d d9bd 47a6 043e 5f2c 2ebc 9e02 e3ba
00000360: cc8d 27bd 739d ae3d 2948 dd3d 1fbc df3d
00000370: 2e30 25bd 0be9 a13d 8a47 af3d a172 3a3c
00000380: 2e18 debd 044b 6ebd 74b2 0cbe 5791 9e3d
00000390: 06c2 e73d 0a3e 743d a137 473d c87d 333d
000003a0: f49c 103e cbe2 70bd c7a8 e7bb 246a 5dbd
000003b0: a5fd 29bd 8ad4 f73c d431 d03c bb53 e1bd
000003c0: e25e 4abd 203f cbbd be76 46bd 9df6 1ebc
000003d0: 9105 dfbd 0d49 343d 0030 04be 5402 b1bd
000003e0: 5e3e 9b3c ebfd d2bd a43f c63d afae 043e
000003f0: 8dc4 85bd 0b88 723d ad0f 5c3d 9727 e53c

head.2.bias f4 [64]
0.09048309 0.048219368 -0.072065786 -0.07319137 -0.035485238 0.17678975 0.02314446 0.08720563
0.056793045 -0.00066391745 0.14601693 0.07038618 0.011063086 0.09087854 0.019894147 -0.0043810843
0.0065612528 0.12964071 0.0032762098 0.011972466 0.109925255 0.03730906 -0.063656114 0.12675194
0.047124628 0.04817048 0.1732898 0.17495501 -0.122348875 0.17926592 0.16998613 0.0072167204
-0.12092724 -0.09538687 -0.033185482 0.07263417 0.023087746 0.005315387 0.10401782 -0.043091703
0.18519576 0.18756156 0.15841077 0.09846482 -0.039388552 0.059964053 -0.008022455 0.17798261
-0.021642987 0.16719565 0.19123246 0.019868419 -0.03704368 0.11301762 -0.009627197 -0.11032634
0.008101606 0.15411597 -0.0008922954 -0.027038291 0.031130815 0.14931853 0.12597488 0.13877608
00000000: 334f b93d ac81 453d 3a97 93bd 5be5 95bd
00000010: f858 11bd 5f08 353e 7399 bd3c de98 b23d
00000020: d39f 683d bf0a 2eba 7685 153e a126 903d
00000030: f241 353c 871e ba3d 0df9 a23c 338f 8fbb
00000040: c7ff d63b 89c0 043e aeb5 563b 2928 443c
00000050: 7e20 e13d 63d1 183d 235e 82bd 43cb 013e
00000060: c105 413d 694e 453d e272 313e 6827 333e
00000070: 0c92 fabd 7c91 373e d810 2e3e 3d7a ec3b
00000080: b3a8 f7bd 315a c3bd 80ed 07bd 39c1 943d
00000090: 8322 bd3c b32c ae3b 4b07 d53d ed80 30bd
000000a0: f5a3 3d3e 2310 403e 6f36 223e eca7 c93d
000000b0: e455 21bd de9c 753d 9d70 03bc 1341 363e
000000c0: a24c b1bc 5635 2b3e 71d2 433e 18c3 a23c
000000d0: 1dbb 17bd c875 e73d 64bb 1dbc c7f2 e1bd
000000e0: 99bc 043c 94d0 1d3e eee8 69ba 687f ddbc
000000f0: 0d06 ff3c f5e6 183e 8fff 003e 511b 0e3e

head.4.weight f4 [36, 64]
0.07373433 -0.07982123 0.045051217 0.03545702 0.19275576 -0.028058905 -0.0010628713 0.10603086
0.12381504 -0.016843455 0.061321173 0.21984363 0.12832855 0.052034225 0.028112227 0.12693638
0.08990563 0.042352222 -0.059943106 -0.018513387 0.15266275 0.21517886 -0.12032608 0.0155772995
0.012436827 0.00820338 0.21160388 0.026459528 -0.05880083 0.17692244 0.18537201 -0.24450086
-0.11706374 -0.12011505 0.019116446 0.025745928 -0.083507165 -0.067619175 0.13808998 -0.11318633
-0.02729065 0.20907836 0.22061671 0.051213253 -0.11753859 -0.08770658 0.010616971 -0.018097563
0.16140158 -0.020166075 0.0009389952 0.1874027 0.023559263 0.060219068 0.08647869 -0.12672712
-0.017317811 -0.012295671 0.070542246 -0.08654102 0.18919012 0.17986262 0.20893334 -0.005447284
0.036404904 0.0775423 0.0433331 -0.06565385 0.17910258 0.008012088 0.20962173 -0.0854235
0.14580229 -0.12599713 -0.027381541 0.14829928 0.0024543859 0.09009405 0.046537966 0.058629468
0.052490566 0.1531946 -0.010095879 -0.037576675 0.1278597 0.08526038 -0.05861933 0.03249974
-0.020211184 -0.0003456615 -0.011091339 -0.026554208 0.020000309 0.05946868 -0.04428163 -0.06013763
0.0064694905 -0.031191902 0.005125776 0.07794942 0.07903403 -0.09602112 0.09624125 0.026329882
0.15621285 0.08548733 0.16292915 0.118519984 -0.1101628 -0.08715817 0.18248253 0.19149467
0.0004052277 0.18961598 0.0514873 0.10424095 0.20924586 0.033076443 0.1351641 -0.006560361
0.0155788865 0.064503506 0.18810654 -0.052851137 0.040497854 0.19562574 0.10055238 0.1922002
0.19889951 -0.035817366 0.099794984 -0.06903909 0.09516497 0.0655326 0.085281126 0.00040582378
-0.04084984 -0.05071235 0.17968524 0.114682585 0.05526376 0.10414487 0.056003083 0.11101364
-0.037494943 0.09730925 -0.08648725 -0.04701639 0.14502 0.1625236 -0.058939777 0.17630091
0.06572134 0.0018913295 0.12124374 0.06837818 -0.09862316 0.14241233 0.18271753 0.058533594
-0.11699038 -0.2224038 0.10708955 0.0064373403 0.024900472 -0.10637062 0.14762914 -0.023433514
0.18016705 0.12216154 0.03032337 0.1636043 -0.174604 -0.111581795 0.14115365 0.0020185227
0.10540253 0.07890063 0.07666371 0.0086133955 0.17463264 0.09462791 0.1130126 0.013780682
0.017054144 0.01697574 0.15163586 -0.17019984 0.040958345 -0.044170395 -0.006353507 0.0905448
-0.10637118 0.016884513 0.09524681 0.07299618 0.05692698 -0.06118106 0.039256323 -0.006297953
-0.088047154 0.2131019 -0.20984961 0.021030093 -0.05277552 -0.18096536 -0.14202234 0.04336087
-0.060732868 -0.1669509 -0.06803315 0.12388682 -0.11395344 0.027516458 0.011820802 -0.059520062
-0.019489512 -0.13016136 -0.09115543 -0.10540211 0.09537397 0.025795499 -0.050038833 0.13805008
0.04868357 0.19962014 0.108438656 0.003280305 0.010289318 -0.14128955 -0.059915338 0.02210392
-0.0031154011 0.013430132 -0.13862233 -0.06620821 0.21242021 0.11996552 -0.004066716 -0.01742904
0.021637304 -0.09830069 -0.14490035 0.07019806 -0.19501154 -0.10999186 -0.017625934 -0.006800308
-0.15191314 -0.09271125 -0.061517794 0.05951528 -0.2161827 -0.047261182 -0.1719274 -0.15562841
00000000: 0602 973d 5079 a3bd a087 383d 613b 113d
00000010: c461 453e cadb e5bc 0b50 8bba b526 d93d
00000020: bd92 fd3d 49fb 89bc e92b 7b3d b01e 613e
00000030: 8f68 033e d721 553d 9d4b e63c 9cfb 013e
00000040: 7120 b83d 8679 2d3d e786 75bd 63a9 97bc
00000050: a053 1c3e d957 5c3e 856d f6bd ee37 7f3c
00000060: d5c3 4b3c 7867 063c b0ae 583e a7c1 d83c
00000070: 24d9 70bd 282b 353e 29d2 3d3e 6f5e 7abe
00000080: 1dbf efbd e1fe f5bd 189a 9c3c 20e9 d23c
00000090: ce05 abbd ec7b 8abd 7667 0d3e 3cce e7bd
000000a0: a490 dfbc a318 563e 59e9 613e fdc4 513d
000000b0: 13b8 f0bd 829f b3bd cef2 2d3c 5741 94bc
000000c0: 7546 253e 5333 a5bc e726 763a 7ee6 3f3e
000000d0: 5bff c03c 45a8 763d bd1b b13d c1c4 01be
000000e0: 15de 8dbc c873 49bc 7478 903d 6b3c b1bd
000000f0: 0ebb 413e e82d 383e 9ff2 553e 217f b2bb
00000100: 4f1d 153d 7fce 9e3d 0c7e 313d 8775 86bd
00000110: ab66 373e 2245 033c 14a7 563e 84f2 aebd
00000120: 324d 153e 6405 01be 414f e0bc c4db 173e
00000130: c3d9 203b 3b83 b83d 989e 3e3d 7425 703d
00000140: 5900 573d 0cdf 1c3e 3069 25bc 00ea 19bd
00000150: a7ed 023e fe9c ae3d d31a 70bd 731e 053d
00000160: ed91 a5bc e739 b5b9 73b8 35bc 3688 d9bc
00000170: b0d7 a33c 6e95 733d a860 35bd e052 76bd
00000180: 05fe d33b 2986 ffbc 20f6 a73b f2a3 9f3d
00000190: 98dc a13d b9a6 c4bd 221a c53d c4b1 d73c
000001a0: 43f6 1f3e fb13 af3d e6d6 263e 9bba f23d
000001b0: 099d e1bd fc7f b2bd b3dc 3a3e 2e17 443e
000001c0: be74 d439 b12a 423e 59e4 523d 477c d53d
000001d0: 8c44 563e 2a7b 073d 7568 0a3e 4cf8 d6bb
000001e0: 963e 7f3c 6a1a 843d 009f 403e 6f7a 58bd
000001f0: 14e1 253d 1d52 483e 68ee cd3d 21d0 443e
00000200: 50ac 4b3e 3bb5 12bd 5061 cc3d 5e64 8dbd
00000210: dae5 c23d f535 863d dfa7 ae3d bfc4 d439
00000220: 2952 27bd c1b7 4fbd 68ff 373e b4de ea3d
00000230: 415c 623d e849 d53d 7d63 653d 1f5b e33d
00000240: 4c94 19bd 124a c73d 3a20 b1bd 4294 40bd
00000250: 1f80 143e 966c 263e d66a 71bd 3a88 343e
00000260: e998 863d 7de6 f73a a34e f83d dc09 8c3d
00000270: f0fa c9bd 8ad4 113e 4e1a 3b3e ecc0 6f3d
00000280: a798 efbd d2bd 63be c451 db3d 53f0 d23b
00000290: 13fc cb3c d7d8 d9bd 182c 173e a4f7 bfbc
000002a0: b67d 383e d42f fa3d b768 f83c e387 273e
000002b0: 64cb 32be ff84 e4bd 958a 103e 3149 043b
000002c0: 48dd d73d a796 a13d dd01 9d3d 331f 0d3c
000002d0: e6d2 323e 47cc c13d 2673 e73d 5fc8 613c
000002e0: 22b5 8b3c b510 8b3c 6e46 1b3e de48 2ebe
000002f0: f0c3 273d 04ec 34bd 1431 d0bb 8d6f b93d
00000300: 22d9 d9bd 6451 8a3c c210 c33d 057f 953d
00000310: 442c 693d fe98 7abd 3dcb 203d 0f5f cebb
00000320: 1152 b4bd 6237 5a3e d1e2 56be 4d47 ac3c
00000330: 252b 58bd fc4e 39be 4e6e 11be 2b9b 313d
00000340: 07c3 78bd 2df5 2abe f754 8bbd 60b8 fd3d
00000350: 6c60 e9bd 326a e13c 0aac 413c 4fcb 73bd
00000360: 78a8 9fbc 0549 05be b3af babd 10dd d7bd
00000370: 6e53 c33d 1551 d33c 85f5 4cbd 005d 0d3e
00000380: 6c68 473d 3969 4c3e 1615 de3d 63fa 563b
00000390: 8794 283c 35ae 10be c969 75bd 4813 b53c
000003a0: c22b 4cbb 0e0a 5c3c 03f3 0dbe 2c98 87bd
000003b0: af84 593e 7cb0 f53d 1642 85bb 59c7 8ebc
000003c0: b740 b13c df51 c9bd c260 14be 00c4 8f3d
000003d0: 1bb1 47be 6a43 e1bd 4364 90bc 1ed5 debb
000003e0: 1e8f 1bbe 65df bdbd 15fa 7bbd 4bc6 733d
000003f0: ff5e 5dbe f194 41bd bd0d 30be 0e5d 1fbe

head.4.bias f4 [36]
0.09692052 0.16179305 0.13373725 -0.12422976 -0.11175336 0.09597968 -0.12163985 -0.06437133
-0.02956853 0.018013475 -0.0077317883 -0.09683246 0.050887134 -0.15540245 0.16129838 0.030701676
-0.1663253 -0.0170179 -0.06478171 0.11746812 0.14018442 -0.111909464 -0.13633867 -0.14588897
0.16222794 -0.14616108 -0.10982522 0.050101824 0.12711878 0.028803624 0.049874622 -0.04147592
-0.08803109 -0.0830131 0.16810274 -0.08599547
00000000: 447e c63d 14ad 253e 6bf2 083e 2c6c febd
00000010: f2de e4bd ff90 c43d 501e f9bd 1ed5 83bd
00000020: b439 f2bc ff90 933c f15a fdbb 1950 c6bd
00000030: 076f 503d d221 1fbe 672b 253e 1582 fb3c
00000040: 2e51 2abe 1f69 8bbc 46ac 84bd 2093 f03d
00000050: 818c 0f3e ca30 e5bd 5d9c 0bbe eb63 15be
00000060: 151f 263e 40ab 15be 0cec e0bd 9237 4d3d
00000070: 6d2b 023e 94f5 eb3c 5549 4c3d a7e2 29bd
00000080: a549 b4bd c602 aabd 2023 2c3e 651e b0bd
