logs/arch/model/final/target_critic.pth (torch, 42938 bytes, 68 tensors)

Q1.head.module_0.att_src f4 [1, 1, 16]
00000000: f084 d63d e270 b53d c7fb 363e 2f12 993e
00000010: 42da a53d c8e3 06bf 12f2 16bf bd66 0cbf
00000020: 5519 03bf de1e e73e e36d 31bd 7e9d cdbe
00000030: 44eb e1bb a53c 433c 38f9 a8be 9b5b 0fbf
0.104745746 0.08859421 0.17869483 0.29896685 0.0809827 -0.52691317 -0.5896312 -0.54844266
-0.5121053 0.45140737 -0.043317687 -0.4015922 -0.006894501 0.011916314 -0.3300264 -0.55999154

Q1.head.module_0.att_dst f4 [1, 1, 16]
00000000: b65b 2d3e d8c5 273d 6142 5fbe 2a99 b7be
00000010: d9c7 1fbe b11d 013f 66c5 fcbe e780 41be
00000020: 16df 1bbe 7b21 093f cc42 173d 350d d23e
00000030: 818e 9ebc 3dd1 b7bd dc98 b93e 1937 6cbe
0.16929516 0.040960163 -0.21802665 -0.35859042 -0.1560358 0.5043593 -0.49369353 -0.18896829
-0.1522182 0.5356671 0.036928937 0.410257 -0.01935506 -0.08975456 0.36249435 -0.23067893

Q1.head.module_0.bias f4 [16]
00000000: 2ac2 413e 59de 593e 0bf2 d13d 5607 aebd
00000010: 8609 1ebc 0287 913b 4003 0cbb ad36 1f3e
00000020: 1cf3 91bd 34cc dcba 1e81 73bc 2ff8 193e
00000030: a726 5b3d 245a c73e 889d 2e3e 27cd c73c
0.18921724 0.21276225 0.10251244 -0.08497493 -0.009645825 0.004441143 -0.0021364242 0.15548201
-0.071264476 -0.0016845525 -0.014862327 0.15036081 0.05350366 0.3893596 0.17052281 0.024389816

Q1.head.module_0.lin.weight f4 [16, 2]
00000000: 0c50 f73e a35f 1ebf fc11 8b3e 544e ccbe
00000010: 8fd0 e23e 7ee6 eb3e e82f 193b 0aad 813e
00000020: c682 863e c326 c83e c4d1 473f 89bf 993e
00000030: 3895 51be c3d6 973c 494f c33d 6215 fcbe
00000040: 6557 553e 16d1 c2be bebb e53e 47c0 103f
00000050: 9542 e63d 0f24 033f 51ac a2bc ba68 c03e
00000060: fcad b83e ee46 41bf c7d6 f5be a570 f0be
00000070: ff84 4a3e afff 2ebe 582b 613e 362b 133f
0.48303258 -0.6186468 0.27162158 -0.3990351 0.44299743 0.4607429 0.0023374502 0.2532733
0.26271647 0.39092073 0.7805445 0.30028942 -0.20467079 0.018535024 0.09536607 -0.49235064
0.2083412 -0.38050145 0.44869798 0.5654339 0.11243168 0.51226896 -0.019857557 0.375799
0.3607024 -0.75498855 -0.48015425 -0.4696094 0.19777296 -0.17089723 0.2198919 0.5748781

Q1.head.module_2.att_src f4 [1, 1, 16]
00000000: 327a 80be 5a3a 6b3e a0af f63d 1883 a5be
00000010: 3e94 af3e bc32 aa3e 7a15 3b3e 5411 c03e
00000020: 508c 05bf bca2 17be e2b2 8c3e c252 923e
00000030: cba1 053f 7a9b 7a3d 5fee 53be 3dd6 393f
-0.25093228 0.22971478 0.120452166 -0.3232658 0.34292787 0.33241832 0.18269911 0.3751322
-0.52167225 -0.14808172 0.27480227 0.28578764 0.522 0.06118343 -0.206964 0.72592527

Q1.head.module_2.att_dst f4 [1, 1, 16]
00000000: 3795 013f 520f 06bf e5d0 063f 6aee 213f
00000010: 9702 fd3b 87f9 14bf bf8c 433d b0cc 46be
00000020: faa8 aa3e 5458 14bf 0825 0cbe d0e7 633c
00000030: 72bd f2bc 56ef a13e 5263 b13d ba36 0fbf
0.5061831 -0.52367127 0.526625 0.63254416 0.007721256 -0.5819325 0.047741648 -0.1941402
0.33332044 -0.5794728 -0.13686001 0.013910249 -0.02963135 0.3162791 0.08661522 -0.5594288

Q1.head.module_2.bias f4 [16]
00000000: 12d0 94bd 1585 a9bd 2e9f 493e c818 5a3e
00000010: 0404 1ebd ddd5 98bd d37f 47bd 5f1a 183e
00000020: d843 34bd dbf6 1abd 7158 f5bd fe9a 2c3e
00000030: c97e f0bd 54e0 0d3e cff5 4c3e 266f dc3d
-0.07266249 -0.082773365 0.19689628 0.21298516 -0.03857805 -0.07462666 -0.048705887 0.1485381
-0.044010013 -0.037833076 -0.119797595 0.16856 -0.11742932 0.13855106 0.20015644 0.107633874

Q1.head.module_2.lin.weight f4 [16, 16]
00000000: 2821 23bf 5ca4 e0be adb1 7cbe d9d5 773e
00000010: e41a de3d f85e b7be e762 cf3e 1e18 49bc
00000020: ff07 7e3e 63d1 863d 3beb e7bd c425 233e
00000030: 6fa8 f23e 2a33 60be ba69 f2bd 318f a23e
00000040: b7e3 a7be 6cf2 17be 9a24 e4bb 13b6 43be
00000050: 629d f03d a63d a83d 3399 eabe b397 eabe
00000060: 7acd 413f e49b 9a3e 255c 26be 80a4 e03e
00000070: 50fd 27bf 11ea 5ebf 3d5d 2d3e 7f72 cf3e
00000080: c0a7 223f cb9a 123f 2eca 44be 76f4 cbbb
00000090: bb03 9fbe 019c 4a3d 844a da3e 7b50 e73e
000000a0: 9abf 58bf 3c53 3dbe 9ce2 d1be db10 7d3e
000000b0: c154 ff3e 750b 0d3d c934 e43c f82d 4b3e
000000c0: f685 ac3e ba08 2a3f d80c c63d 51b1 853d
000000d0: cd2b 58be 17bf 203e 9e9a 013c c694 3f3f
000000e0: 3247 70bd b8ea 90be 5acd eabe 40f2 c8be
000000f0: 4b6d 493f 4da5 0f3f 9876 203f 1a61 d03c
00000100: 56aa 3b3e 63f8 9d3e cc84 36be 7bae 6abe
00000110: e596 ae3e 9dd6 ba3e e44b c5be 54f0 0ebe
00000120: aa62 55bf d6b3 303e 473b 8a3e d863 0e3e
00000130: ca92 3fbf 9a30 0bbd fee6 18bd aebf e73e
00000140: f555 01bf e70f 7fbe d259 71be 379a 92be
00000150: ac53 e73e 7e24 fa3c baaa dfbe 9953 84be
00000160: 7df4 0abf ea70 1e3e 01ee ac3e bd84 293c
00000170: 0163 2c3e c5af 9fbe 04b5 9cbe 5d01 583e
00000180: 9ac0 c93e bd79 fabb b2a0 283e 59fd 0f3e
00000190: 2d26 3a3e 910d 8b3e 0f63 21bf 6306 3abc
000001a0: af43 3e3e b49a 433e 9c96 493e eb03 90be
000001b0: e604 20be 2291 00bf 2e2b 353e f1b0 01be
000001c0: 2200 bc3e 0da1 fd3d 2455 ad3e 3218 0fbf
000001d0: 5c73 de3c 48ca ab3e 5983 99be 09d6 85bb
000001e0: 89ac 15bf c9bf 313e 3c6f 9bbb 21b5 4f3e
000001f0: 8908 9fbf 0136 b33e ac44 433e 94e4 983e
00000200: f85c ac3d 2a7c 7ebd 71ea 8b3e 16df 0d3f
00000210: da0d 0c3f bdc9 8abe dcd7 d7bd cf8d cdbe
00000220: b3fd 133f 806b d43e 8c7f 48be 9140 623d
00000230: 91a6 e73d 2024 9b3e 3359 a2be cb6b c23e
00000240: fe2e c9be 7781 03bf e77d 813e f54e 023f
00000250: c28f e73e e053 34be 3102 cebe 1a3e 6fbe
00000260: 7abe d03e 232c 47be 5135 613e ba64 f63d
00000270: bae6 94be d53b e03e ca54 80be 17bd 933e
00000280: 346c 583f 2551 c43e 2ddf 01be 8cca cabd
00000290: 20c8 9abe 3b5f 00be d5bf 94be 1de0 f8be
000002a0: 7920 973f 079f 373e 80e9 ae3e 1d3c bcbd
000002b0: 1823 7fbb 1d2c a5be 566e 4b3d 301a 9dbd
000002c0: 9676 9abe 55ed d93e 436d d03e 0b18 e4be
000002d0: 2511 2dbe 1308 a9be 0d43 e3bd 37fc dd3e
000002e0: b7da d6bd e972 35bd da84 463e 0a80 273e
000002f0: 9cb9 c53e add1 09be 9bd4 633e e7fb ccbe
00000300: 1c4c 8e3e f001 663e e123 a73b 87df 00bf
00000310: 5f8e 863d 5fa4 243e 3254 99be 85b4 0ebe
00000320: 24b9 00bd 7d88 79bc 4925 6dbe 6c52 c6be
00000330: 6b79 87bf 52a5 13bf 6511 2cbe ebd0 fdbd
00000340: 207e 1d3f d781 cd3e 6b47 f13e a5f8 a73e
00000350: c5cf c7bd 21cd 26bd 7fcf a63c a723 d7be
00000360: 984b 8cbe 029f 0ebc ff36 b4be d70d 8bbe
00000370: 6f4c 40bf fae6 eab9 13a9 073f 8184 db3e
00000380: f33a 9f3d 6bae 77bd 3818 f3bd db78 a0be
00000390: 1b4b bbbd fd5f a4be 871c 873e 14ab 29be
000003a0: 5a76 09bf a92f a73e d119 94be 62fb 2d3e
000003b0: 51f1 813f 35a2 2f3f c372 c43e 572d 40bd
000003c0: 0d4d e13e 9652 563e 411a be3d 7110 a33d
000003d0: c8c7 a93e b1c1 0c3f 9b27 20bd 6c5b 98be
000003e0: b13a 49bf f20b 573e 6e19 bf3e c665 943e
000003f0: 4c37 cebf 9731 dfbe 5707 773c f0c8 f1bb
-0.6372247 -0.43875396 -0.24677153 0.2420267 0.10844973 -0.35814643 0.40505144 -0.012273816
0.24807738 0.06582906 -0.113241635 0.15932375 0.4739413 -0.21894518 -0.11836572 0.3174987
-0.3279092 -0.1483857 -0.006962371 -0.19112425 0.117487684 0.082148835 -0.45820007 -0.45818862
0.7570416 0.3019706 -0.16246088 0.43875504 -0.656209 -0.87075907 0.16930099 0.4051704
0.63537216 0.57267445 -0.1921775 -0.0062242104 -0.31057534 0.049465183 0.42634976 0.4517859
-0.8466736 -0.18488783 -0.40993202 0.24713461 0.4986935 0.034434754 0.027857201 0.19841754
0.33695954 0.66419566 0.096704185 0.06527961 -0.21110459 0.15697895 0.007910399 0.74836385
-0.058661647 -0.28304076 -0.45859796 -0.39247322 0.7868239 0.56111604 0.6268096 0.025436927
0.18326697 0.30853567 -0.17824095 -0.22918122 0.34099498 0.36491862 -0.38534462 -0.13958865
-0.83353674 0.17256102 0.2699835 0.13905275 -0.7483336 -0.033981897 -0.037329666 0.45263427
-0.50521785 -0.2490841 -0.2356942 -0.28633282 0.45181024 0.030534979 -0.43684942 -0.2584503
-0.5427931 0.15472761 0.33775333 0.010346589 0.16834642 -0.3118879 -0.30606854 0.2109427
0.39404756 -0.007643907 0.1646755 0.14061488 0.18178625 0.27158788 -0.63041776 -0.011354062
0.18580507 0.19101983 0.19686359 -0.2812799 -0.15626869 -0.50221455 0.17692253 -0.12665154
0.3671885 0.123842336 0.3385402 -0.55896294 0.027154617 0.33552766 -0.29983023 -0.004084353
-0.5846639 0.17358316 -0.004743485 0.20283939 -1.242448 0.3500214 0.19069165 0.2986189
0.0841617 -0.06213013 0.27327302 0.5541853 0.54708636 -0.2710704 -0.10539219 -0.40147254
0.5780899 0.41488266 -0.19579905 0.055237357 0.11311067 0.30301 -0.3170868 0.37972865
-0.39293665 -0.5136942 0.25291368 0.5090173 0.45226866 -0.17610121 -0.40236047 -0.23363534
0.40770322 -0.1945043 0.21992995 0.12030931 -0.2908228 0.43795648 -0.2506469 0.28855202
0.84540105 0.38343158 -0.12682791 -0.09901914 -0.30230808 -0.12536328 -0.29052606 -0.48608485
1.1806785 0.17931758 0.3416252 -0.09191153 -0.003893083 -0.32260218 0.04966577 -0.076710105
-0.301686 0.42563882 0.4070836 -0.44549593 -0.16901071 -0.33013973 -0.11096773 0.43356487
-0.10490935 -0.04429904 0.19386616 0.16357437 0.3861817 -0.13458891 0.22249071 -0.40035936
0.27792442 0.22461677 0.0051007126 -0.50341076 0.06570124 0.16078328 -0.29947048 -0.1393605
-0.031426564 -0.015230295 -0.23158754 -0.38734758 -1.0583929 -0.57674134 -0.1680351 -0.123933636
0.61520576 0.40138122 0.471248 0.32806888 -0.09756426 -0.04072297 0.020362614 -0.42019388
-0.27401423 -0.008704903 -0.3519821 -0.27158996 -0.7511663 -0.0004480405 0.5299236 0.4287453
0.077749155 -0.060469072 -0.11869854 -0.31342205 -0.091451846 -0.32104483 0.26388952 -0.16569167
-0.53696215 0.3265355 -0.28925946 0.16990426 1.0151769 0.68606883 0.38368806 -0.04691824
0.44004098 0.20929942 0.09282351 0.0796212 0.33160233 0.5498305 -0.03910027 -0.2975725
-0.7860518 0.2100065 0.3732409 0.28983897 -1.6110625 -0.43592522 0.015077434 -0.00737869

Q1.head.module_4.att_src f4 [1, 1, 16]
00000000: 43b8 2fbf c935 953d b0cd a2be 7a5c 40bf
00000010: 4229 7abd d629 50be 7c9e 7b3f 68e2 19bf
00000020: e28f 4abe 838d 20bf 6c06 26bf daa6 f63e
00000030: 1f6d 0bbe fe06 5fbe c9ee ee3e a6f4 db3e
-0.68640536 0.07285649 -0.31797552 -0.7514111 -0.061074503 -0.20328459 0.982887 -0.60111094
-0.1978145 -0.6271593 -0.6485355 0.48174173 -0.13615845 -0.21780011 0.46666554 0.4296009

Q1.head.module_4.att_dst f4 [1, 1, 16]
00000000: 9419 b4be c428 133f 2bbf 7dbd fcbc e8be
00000010: dc28 213f 15e9 94be 326e 7abe 3cff 7ebf
00000020: 2a63 413e c162 30bf 5e6a 263e a34e 213e
00000030: e0c3 a63d 6221 343d 4a92 723e 3a3a 33bf
-0.35175765 0.5748408 -0.06194989 -0.45456684 0.6295297 -0.29084077 -0.24456099 -0.99608207
0.18885484 -0.68900687 0.16251513 0.15752654 0.08142829 0.04397715 0.23688617 -0.7001072

Q1.head.module_4.bias f4 [16]
00000000: 2830 fa3d 1cd7 263d c7ad 0a3e f5d8 913d
00000010: 5d45 953d 6054 e9bd 57cd f5bd ee37 f3bd
00000020: a06b c2bd 82fa 093e 8cff 47bd d000 80bd
00000030: 6ed2 043c 970d b63d db2f f0bd 2200 32be
0.12216216 0.040732488 0.13542853 0.071214594 0.072886206 -0.113930464 -0.12002056 -0.11875902
-0.09493184 0.13474467 -0.048827693 -0.06250155 0.008106811 0.08889311 -0.11727878 -0.17382863

Q1.head.module_4.lin.weight f4 [16, 16]
00000000: 5b35 69be d080 82be 022f 5e3e f256 8e3c
00000010: 9fce b33d 77c5 123d 4842 e7be 8fbe 203e
00000020: f4e8 92be e66f dfbe a651 cebe 8ac9 1d3d
00000030: aa60 9dbe 38b6 003e 02e4 073f a250 5dbd
00000040: a543 2fbe c9ff 1b3e 8085 94be 3dc1 9f3d
00000050: 44de 273f 3658 123c 72bb 5d3e 419a 073f
00000060: c2ae 073f fe29 29bf 2598 e8be 48a3 c7be
00000070: 7a27 893e ed4b f53e 1846 afbe 89f2 b83e
00000080: 2b3d 3cbd 0a76 02bf 7056 fd3e 5cfe fa3e
00000090: a4a4 e4bb 3afa 8dbe e1d4 e53d b2ea d43e
000000a0: 4ef8 b33e a88d e0be 8378 88bd 1b85 8b3d
000000b0: 7034 5b3e 6e39 7abc cd71 f1bd a1a6 aa3e
000000c0: 69a3 033e e81d 80bd 116d ec3e 8fa5 aa3e
000000d0: 1303 5f3c ba49 10be 137b a0be a6fb 7abd
000000e0: cb0b 8bbd d716 3abe 122f f6be c8f2 e13d
000000f0: f389 763e b521 25be 983d 2f3f 54d0 7c3d
00000100: 2541 fd3c 441a 87be 1a83 2ebe da6c dc3b
00000110: b93f 60bc a528 08bf 5a72 d63e 8320 47be
00000120: 071a b6be 4851 25bf 5c37 453e 7597 8fbe
00000130: c8d0 fc3e 4c92 ae3e 7ca1 92bd dd0a b03e
00000140: 0e15 543e 2ea9 8abe 7f2e 20be 5e7f b73e
00000150: d5ae aa3e c4d7 0dbe 0f26 9ebd 64d6 5a3e
00000160: b46f 793e 9b22 32be 99ae 153e c2b1 e8be
00000170: eae1 5fbd d7c2 e53d c655 c5bd 0c26 cabe
00000180: 8d27 05be 2551 353f 3054 56bf f7c3 44bf
00000190: a8fe 0c3f 8315 6d3f 3e9d 21be 7823 63be
000001a0: 5d22 e23d ac62 143f eb61 b1be 2314 a6be
000001b0: cfec bf3e 9bb2 08be 0b62 34bf 6dbf bbbd
000001c0: c143 b63d 32e6 4cbd 20aa f13e fcbc 1f3f
000001d0: 8a11 e1be b817 cbbe 8aaa 03bf e500 323c
000001e0: 02f8 ebbe 9067 8abe 9f68 04bf dddc 913e
000001f0: d8c1 ae3e ac69 70be 6eba f1bc 8f6f 32bf
00000200: 1558 9fbe 6c90 e7bd a343 ef3e 2259 9f3e
00000210: aee7 9abb c89e 363e 6483 783e 17e1 ec3d
00000220: 7d95 7f3d f08b dfbd bc4b 213f 5185 e9be
00000230: be9d 6dbe bba7 a53c 9d7f 373e 8086 0ebf
00000240: f96e dbbe 5a0a e6be aec5 243f 8f0c 163f
00000250: 789c cabe 3d37 8bbe b085 2dbe ee43 d63e
00000260: cedd fabe 2afb f5be bb7b 0abf 41d9 dd3e
00000270: 35e9 aebe c367 b63e e9f5 f23e 386a 33be
00000280: cb6c cb3d 7d59 b8be 58cc b23e 2dae 81bd
00000290: b7e0 30bd 4c07 d3be a17f 1cbf f39b edbe
000002a0: f009 e1be c85a cb3e 4f6b 793e 904e 953e
000002b0: b39f 6bbe 0af0 20bf a66e 483e 234d 0ebf
000002c0: 9881 95be 6ce1 efbd 6a25 4ebf 3ca4 74bf
000002d0: af9c c03e 983d 233f 5b74 bc3e f72a bebe
000002e0: 06fd 043f a2ef 973e efa5 7a3d 24ae bfbe
000002f0: 471b e73d 87af e6be af6d cebe 855d d83e
00000300: 448c ca3d 1738 a2be ff69 99bd c0bb 02bd
00000310: 6da9 aa3e 2bbd b1bd fe04 163e bcb2 b5bd
00000320: 1216 243d a4f4 c6bd e383 07bf 2296 58be
00000330: 1454 a23e f3fe d73e 3218 223d 2b55 db3e
00000340: 5918 093e feb5 4fbe f051 afbd 484f 74be
00000350: c41a 903e 9688 283d 2407 e93d dd15 fe3e
00000360: 2e49 45bd 7a16 08bf 608d 23bf db93 1bbe
00000370: 38ff b43e 7007 d2bc 2901 c3bd 0ebd c43e
00000380: 9ac5 33be 4592 47be 3e3f 96bd 58e2 24bf
00000390: 3339 9fbe 7c7b f43e 5b7e 6bbd 105c 933c
000003a0: ccb6 193e b8c4 76be 687c 093f 6465 6abf
000003b0: 4f07 d43e db56 a7be 3441 5fbf cb3d ae3e
000003c0: 5dd3 51bf e339 d33d 2d70 c13e 1b1f 093f
000003d0: 41c1 30be 1fd7 17bd 4e7b 303f 041f a0be
000003e0: a33f 4e3e 186e 8ebe 0bfd d23e 6aa8 8bbe
000003f0: 45e9 283d 85e2 0c3d 7844 973e 7167 863d
-0.2277426 -0.254889 0.2169762 0.017375443 0.08779644 0.03583285 -0.45167756 0.15697692
-0.28693354 -0.4364006 -0.40296668 0.03852228 -0.3073781 0.12569511 0.5308229 -0.054031976
-0.17115648 0.15234293 -0.29008102 0.07800529 0.65573525 0.008932164 0.21653536 0.5296975
0.53001034 -0.660797 -0.45428577 -0.3899176 0.2678793 0.4790949 -0.34233165 0.3612254
-0.04595677 -0.50961363 0.4948001 0.49022186 -0.0069776345 -0.2772997 0.11222244 0.41585308
0.3515038 -0.43858075 -0.06663611 0.06812497 0.21406722 -0.015272481 -0.11789284 0.33330253
0.12855305 -0.06255704 0.4617696 0.33329436 0.013611573 -0.14090624 -0.31343898 -0.061275147
-0.06789359 -0.18172775 -0.48082787 0.11032635 0.24076061 -0.1612614 0.6845336 0.061722115
0.030914852 -0.26387227 -0.17042199 0.0067268433 -0.013687068 -0.5318702 0.41884118 -0.19445996
-0.35566732 -0.6457715 0.19259399 -0.2804524 0.49378037 0.3409599 -0.07159707 0.34383288
0.20711157 -0.270822 -0.15642737 0.3583936 0.3333651 -0.1385184 -0.07722103 0.21370846
0.24359018 -0.17396013 0.14617385 -0.45448118 -0.054658808 0.112188034 -0.096355006 -0.39482152
-0.13003369 0.7082694 -0.8372221 -0.7686152 0.55076075 0.9261095 -0.1578264 -0.22181499
0.110417105 0.5796306 -0.34645018 -0.32437238 0.37485358 -0.13349383 -0.704621 -0.09167371
0.08899642 -0.05002422 0.47200108 0.6239774 -0.43958694 -0.39666533 -0.51432097 0.010864471
-0.46087652 -0.27032137 -0.5172214 0.28488818 0.34132266 -0.2347781 -0.029507842 -0.69701475
-0.3112189 -0.11306843 0.4673129 0.3112269 -0.0047273254 0.17834008 0.24268872 0.1156637
0.062398423 -0.10915363 0.63006186 -0.45609525 -0.23204705 0.020221582 0.17919774 -0.5567398
-0.42858103 -0.44929773 0.64364135 0.5861291 -0.395725 -0.2719058 -0.16945529 0.418487
-0.4899735 -0.48043185 -0.5409505 0.43329814 -0.34162298 0.3562604 0.4745324 -0.17520988
0.0993286 -0.36005774 0.34921527 -0.063320495 -0.043183055 -0.41216505 -0.61132246 -0.46408042
-0.43952894 0.39717698 0.24357341 0.291615 -0.23010139 -0.6286627 0.19573459 -0.5558645
-0.29200435 -0.11712918 -0.8052584 -0.955631 0.3761954 0.6376586 0.36807522 -0.37142155
0.51948583 0.29675013 0.061193403 -0.37437546 0.112844996 -0.45055792 -0.40318057 0.4225885
0.09890035 -0.31683418 -0.0749092 -0.031917334 0.33332387 -0.08678659 0.14650342 -0.088719815
0.04006011 -0.0971463 -0.5293562 -0.21151021 0.31704772 0.42186698 0.039573856 0.42838416
0.13388194 -0.20284268 -0.0856055 -0.23858368 0.2814542 0.041145884 0.11378315 0.49626055
-0.048165493 -0.53159297 -0.63887596 -0.15193121 0.35350966 -0.025638312 -0.09521706 0.38425487
-0.17555848 -0.19489391 -0.07336281 -0.64407873 -0.31098327 0.4775046 -0.05749355 0.017988235
0.15011138 -0.2409848 0.53705454 -0.9156096 0.41411826 -0.32683453 -0.8720887 0.3403152
-0.8196314 0.103137754 0.37780896 0.5356309 -0.1726122 -0.03707039 0.6893815 -0.31273663
0.20141463 -0.2781837 0.4120868 -0.27276927 0.04123809 0.034395713 0.29544425 0.06562699

Q1.head.module_6.att_src f4 [1, 1, 16]
00000000: d10e 483f 5aea 1f3f 4ca7 23bf ba36 863e
00000010: 323d 3a3f c241 df3e 08d8 8fbd c203 0cbf
00000020: 0cca 523f 2c02 4e3d efa6 72bf a13e 963e
00000030: d60d 7d3f b211 30bf 113f 9d3d 3bb6 3cbf
0.7814761 0.6246697 -0.6392715 0.26213628 0.72749627 0.43604857 -0.070236266 -0.54693234
0.8233955 0.05029504 -0.9478597 0.29344657 0.98849237 -0.68777 0.076780446 -0.7371556

Q1.head.module_6.att_dst f4 [1, 1, 16]
00000000: 9c96 c5be 965b 8f3c 693a e13e ef82 82bd
00000010: 5929 d0bd f6b4 553e 4b14 10bf 292f 45be
00000020: db54 6f3e 13c2 a3be c30d dd3b dfa5 783f
00000030: c499 df3e 8ad3 bebe b4b1 dc3e 8e67 87bd
-0.38591468 0.017499726 0.43989876 -0.0637263 -0.101641364 0.20869812 -0.56280965 -0.19256271
0.23372214 -0.31984004 0.0067460253 0.971281 0.43672 -0.37270766 0.43104327 -0.06611548

Q1.head.module_6.bias f4 [16]
00000000: 69c7 43be 9c6e c8bc 37f8 3d3d cbc6 2cbe
00000010: 5627 853d 92e9 043e 27fc 8e3c e706 223e
00000020: ac8e 973d f0c9 d33d d81f 8ebd 95c8 a83d
00000030: efca 91bd ab60 e6bd 2fc2 f1bc 37db eebd
-0.19119038 -0.024466805 0.046379294 -0.16872708 0.06501643 0.12979725 0.01745422 0.15822946
0.074002594 0.10341251 -0.069396675 0.08241383 -0.07118785 -0.11248907 -0.02951154 -0.11662906

Q1.head.module_6.lin.weight f4 [16, 16]
00000000: e498 22bf d117 73be 2fd4 e63c 8765 2abf
00000010: b716 973d bda7 be3c 2d5c 34be fb7d 0cbf
00000020: f4be 353e 614f 01bf d307 bc3c ddbf 8d3e
00000030: aae2 0c3f d0ee e53e 0ae0 14bf 4258 70be
00000040: a8c4 aabe cd05 083b 468f 873e 8713 51be
00000050: b61c 90be db92 1ebd 5dae 6f3f 62e6 d4be
00000060: 862b 063e 6f35 10bf 9c66 92be a275 863f
00000070: fe94 fa3d cd15 2cbe 66b9 073e ab19 cfbe
00000080: e865 cabd 4c45 5abe d624 0d3e 5eb5 113f
00000090: 790d 113f 7b73 e33e 2d0e ecbe 9f3b 323f
000000a0: abf0 b93e 921c 553e ba3e 38be e68f 87bd
000000b0: 3f93 75be afd8 e7bd 622d a4bd fc8c da3e
000000c0: 7147 2cbf c25e 503e 0782 b6be 1f54 1dbf
000000d0: dfae b03d d706 73be ed00 3f3f a2e8 84be
000000e0: 5b64 38be 955d 7abe 2105 bdbe 8faa a63e
000000f0: 9b62 843e 943a 24be 914d 893d 4303 293c
00000100: e221 61be 8894 4e3e 60a3 87be 0450 0dbf
00000110: 0504 5138 99fe 003f 5e2b 84be 91e2 cfbe
00000120: 6e37 cf3d 7b29 bbbe 54ff 39be 0b01 303e
00000130: 5d9a 943e 429b 193f d92e 02be 421f 79bf
00000140: f64d 173f 1b7c 13bd 8f51 c53e 1deb 123f
00000150: 50cf 863e 5e3d a4bd b547 97bc a630 5a3e
00000160: b579 b53e 9a72 003f 320a f2be 4131 493e
00000170: 2196 db3e bfd8 a43e 7406 173f 3c0a 933e
00000180: 511d d5bc 8721 08bf 651f 90be 25dc 9f3e
00000190: 74a6 17be ca23 fa3d 2d62 65bd 7366 453f
000001a0: 7e13 bf3e d22b b83e f9eb 3b3e de6b c13d
000001b0: ed44 1fbf d231 03bf 030a 33be 8e02 9d3e
000001c0: 26f6 033f 2598 f3bc 985f 6a3e 9a06 663e
000001d0: 8de2 fc3d a32f 30be c37a 983e 6be2 583e
000001e0: 1451 26bd ab3b 013f 12ac f3be 996b 01be
000001f0: 7ae5 0fbc f026 c5be c2e0 03be 539b 113f
00000200: 383f b33e 5e88 213e ccbb d63e 06bb 7c3d
00000210: e41b 863e 57a6 943e 18dd 39bd ae19 0abf
00000220: 5200 39be 2228 c73e d9bd 043e 4343 b6bd
00000230: 0d7b e9bd a835 503e 9a5e 083d 6baf c5be
00000240: 56fd 893e e1c8 f33d a8b2 2d3d e747 dc3e
00000250: e231 b13e c030 98be 352f 253f 3f74 09bf
00000260: 9361 c53e 3ab6 fd3e b0f6 e0bc 7206 0dbc
00000270: 3817 88be 1e73 04be 5f45 363e c5d6 c8be
00000280: f80c fe3e 6feb 2dbf 474a c5be 0a24 acbe
00000290: 2cab c4be 74ca fa3c 3440 4e3c 1cf2 223f
000002a0: ed72 ccbe e02a e7be a116 5d3e eb1d 8f3e
000002b0: 86ea b0bd f63f 1abf 4f2c 16be d8c7 86be
000002c0: 1c2e 66be 252d 023f 5bdc 013f 16bb b1bd
000002d0: ce9e e9bd bdef 16bd 6abe 59be 28b0 31bf
000002e0: 7ec0 03be 01d2 b4bb 3906 9cbe 6732 bbbe
000002f0: b41f ca3e 1faa 683e a969 20bf 96c5 3bbe
00000300: f5ad 5d3e 0a5e d93e 41ec cd3e d130 af3d
00000310: 6f83 483f 39fc 10bf 17d2 24bf 31a5 47bf
00000320: bcdb b5bd 0221 b3be e6db 2bbf e428 36bf
00000330: 0685 cb3e 704d 313f 2e8c 8a3d 7f50 ccbd
00000340: bde1 96be 3948 36bf b113 ecbe 9563 d2be
00000350: 5735 19bf ea42 8bbe 5ac8 493f 8fcd 5f3f
00000360: 50e8 04ba 36fc 93bd ecdd 5d3e acbd 273f
00000370: 3d08 2fbe 5d6d 60bf 43c2 adbe 9dec 0c3f
00000380: d47c 00bf 4dd1 c13e c794 01be 4715 f8be
00000390: 2c72 02be 4a5a e33e 3546 a2bf 4b76 a5be
000003a0: dae2 903e a8e6 30bf 4d39 a3bd e293 1dbf
000003b0: b9e8 8dbe 378c 82bc 3550 4fbe 4d25 193f
000003c0: 5a66 c4be eb7f 22bf d224 16bf 812f 2d3e
000003d0: 041c e1be 5802 38bf 2322 fb3d a6f5 233f
000003e0: aa4b 56bf a6cd 173e 796d e33d 48ea bf3e
000003f0: 71ae bdbe 948e 17bf 8131 c6bc ee7c de3e
-0.6351454 -0.23739554 0.028177349 -0.6656117 0.073773794 0.023273343 -0.17613287 -0.5487973
0.17748624 -0.5051175 0.02295295 0.27685443 0.5503336 0.44908762 -0.58154356 -0.23471168
-0.33353162 0.002075541 0.26476496 -0.20417605 -0.28146905 -0.03871427 0.9362543 -0.41582018
0.1310254 -0.56331533 -0.2859391 1.0504649 0.12235449 -0.16805191 0.13254318 -0.4044927
-0.09882718 -0.21315497 0.13783583 0.5691737 0.5666118 0.44424042 -0.46104565 0.69622225
0.36316428 0.2081168 -0.17992678 -0.06619243 -0.23981951 -0.11320626 -0.080164686 0.42685688
-0.6729651 0.20348647 -0.35646078 -0.61456484 0.08627104 -0.23733078 0.7461079 -0.25958735
-0.18007033 -0.24449761 -0.36917976 0.32552 0.2585648 -0.16037971 0.06704248 0.010315719
-0.21985582 0.20173848 -0.26491833 -0.5520022 4.9833227e-05 0.50388485 -0.25814337 -0.40602544
0.10117994 -0.36555085 -0.18163806 0.17187898 0.2902402 0.6000253 -0.12713183 -0.9731332
0.59103334 -0.036007028 0.38538787 0.57390004 0.26330042 -0.08019517 -0.01846681 0.2130762
0.35444418 0.5017487 -0.47273403 0.19647695 0.42887977 0.32196614 0.5899422 0.28718746
-0.026014956 -0.5317616 -0.28148952 0.31222644 -0.1480959 0.122138575 -0.05600183 0.7710945
0.3731956 0.35970932 0.18351735 0.09444402 -0.6221455 -0.51247895 -0.17484288 0.30666012
0.5154747 -0.029735634 0.22888029 0.22463456 0.12347899 -0.17205672 0.2978116 0.21180122
-0.040604666 0.5048167 -0.47592217 -0.12638701 -0.008782739 -0.3850627 -0.12878707 0.5687763
0.3500917 0.15774676 0.41940153 0.061701797 0.26193154 0.29033157 -0.045376867 -0.53945434
-0.18066528 0.38897806 0.12963046 -0.08899548 -0.11400423 0.20332968 0.033293344 -0.38610396
0.26951092 0.11903549 0.042406708 0.43023607 0.3460837 -0.29724693 0.6452516 -0.53693
0.38551006 0.4955309 -0.02746138 -0.008607494 -0.26580215 -0.12934539 0.177999 -0.39226356
0.4961927 -0.6793737 -0.38533232 -0.33621246 -0.38411844 0.030614115 0.012588549 0.6365068
-0.3993143 -0.451499 0.21590663 0.27952513 -0.08638482 -0.60253847 -0.1466534 -0.26324344
-0.22478527 0.50850135 0.5072686 -0.08678262 -0.11407243 -0.036849726 -0.21264043 -0.6940942
-0.12866399 -0.0055181985 -0.30473498 -0.3656189 0.39477313 0.22721146 -0.62661225 -0.18337092
0.2164839 0.4245456 0.4021931 0.08554233 0.7832555 -0.5663486 -0.6438307 -0.7798644
-0.08879802 -0.3498612 -0.67132413 -0.71156144 0.39749926 0.69258785 0.067650184 -0.09976291
-0.294691 -0.71203953 -0.46108773 -0.410916 -0.59847015 -0.2719949 0.7882134 0.8742303
-0.00050700177 -0.0722584 0.21666688 0.6552379 -0.17092986 -0.87666875 -0.33937272 0.55048543
-0.5019047 0.37854996 -0.1265441 -0.48453733 -0.12738866 0.44404823 -1.2677675 -0.32316813
0.28298074 -0.69101954 -0.07969914 -0.61553776 -0.27716616 -0.015936 -0.2024544 0.5982254
-0.38359338 -0.6347644 -0.58649933 0.16912653 -0.43966687 -0.71878576 0.122623704 0.64046705
-0.83709204 0.14824542 0.111048646 0.3748343 -0.3704715 -0.5920193 -0.024193527 0.4345469

Q1.head.module_8.att_src f4 [1, 1, 16]
00000000: 98e8 833e f947 163e 0ebc edbe 7bad 43be
00000010: 886d d43e ecb6 2dbe 1ae7 533f 7703 2c3e
00000020: 3f7c 10bf df51 333d b678 74be 0d69 1d3f
00000030: 9b4d 633c b577 153e ea03 1d3f b575 1e3f
0.25763392 0.14675893 -0.46432537 -0.19109146 0.41489816 -0.1696431 0.8277451 0.16798197
-0.56439584 0.04377925 -0.23874173 0.6148842 0.013873483 0.14596446 0.613341 0.61898357

Q1.head.module_8.att_dst f4 [1, 1, 16]
00000000: d9c0 91be 9f80 f43e f5b5 acbf fdc1 ea3e
00000010: 02a5 5abe 9fcb 333f 2646 013f bb64 c53c
00000020: 836e 67be 9e66 303f eb40 2ebf 4f51 6e3e
00000030: 0ab9 023f c8d5 073f c9cb a23e 167d ce3f
-0.28467444 0.4775438 -1.3493029 0.45851126 -0.21352008 0.70232576 0.50497663 0.024095884
-0.2260075 0.6890658 -0.68067807 0.23273204 0.510636 0.5306058 0.317961 1.6131923

Q1.head.module_8.bias f4 [16]
00000000: 5564 dbbd 8ba7 063e 773d b63b 9f36 b93d
00000010: e362 d93d bc26 a1bd be71 7a3c 7169 a0bd
00000020: 8920 ebbd 1268 27be e6bc bf3d 1124 c83d
00000030: 8715 2d3d 66c7 aabc 57d9 26bd 3df2 003d
-0.10712496 0.1314985 0.0055615264 0.09043621 0.10614564 -0.07868716 0.015285907 -0.07832611
-0.11480815 -0.16348293 0.093622014 0.09772504 0.04225686 -0.020847034 -0.040734615 0.031481016

Q1.head.module_8.lin.weight f4 [16, 16]
00000000: 01a3 913e 714c 8bbd 3769 30be 2374 003f
00000010: d43c 22bd a696 8d3e 155c 3d3e 235b 11be
00000020: 4402 fabe 2360 8d3d 3703 da3d 7a70 ea3d
00000030: f68d 6b3e cd25 8a3e 7ebb 64be fd15 d3bc
00000040: cf47 b3be 5199 903e a6a1 0f3f 26dc 89be
00000050: e52e 053f 4cd2 e93e 9bca 373f d6f5 773e
00000060: 656a 613e a290 01bd 80da 8cbd 5fa1 933e
00000070: cbc8 babb 8b89 333d e3d3 0ebd 580c 55bb
00000080: b2ad 0c3f b6d7 253f c965 bc3e 6500 343e
00000090: 02da 90be 615f ae3e cc66 193f c7ed fc3e
000000a0: 9a5e f1be 4959 7ebe 6357 20be 59e9 25bf
000000b0: 3aa9 2dbe aff4 b0bc 5b54 d93e 4cfc e63e
000000c0: e6a6 0dbf 6a89 07bd d5fb 16be 12f1 82be
000000d0: 61fe 5ebe 4057 a73e 051f 5abe fba7 28be
000000e0: 598c 28bd 9a54 5ebd 6461 85be 2f09 92be
000000f0: 3d59 a73e 5981 1ebe 64fd 1dbf b000 cdbe
00000100: 5b9c 98be e2da a4be a1fe 103e 1763 df3d
00000110: 36bd 75be cb7c 243e eac7 293f 6329 76be
00000120: a22c 38be 42a9 643e a502 5ebe 5cfd 03bd
00000130: 0cf9 d83e 772e 11bf 8548 2cbf 4383 c53d
00000140: bcfe 53be 934b 29bf 2d35 03bd 6f2f a4bf
00000150: 8d0d ccbe d5be b6be 3717 18bf 17bd 1ebf
00000160: 48e7 10be 64e7 23bf 4f3a 92be b058 ac3e
00000170: 42a4 123f 2150 be3e 4767 663f 4a52 1dbe
00000180: f68e 74bd 2c91 1cbf cd99 95be d784 79be
00000190: c677 823d 3b25 9a3e 7937 a53d 5e41 1abd
000001a0: 948d f03e c546 c33e ddf2 c8be 0613 ce3e
000001b0: 1ac5 bb3e f2c9 4fbe b429 1cbf 6ec2 fe3d
000001c0: 2c02 993e f9ab 923e 106d 963e 1771 183f
000001d0: c037 043f 337a 93be dbaa b5bc 42df 67bf
000001e0: e86d b3ba 9305 05bf ac7f e13e a368 b2bd
000001f0: aee3 ca3e cc7e 58be f2ac a93e d229 a3be
00000200: 8bdc 11be aa90 af3e beaa cc3e 1009 63bc
00000210: f073 ebbd 8f32 d5be 13ed d43e b4ee 333d
00000220: fe2c 9abe 631f 293e 31bd 283e 5457 47bf
00000230: d1e4 07bf d054 133f 0431 f93e 798f 793f
00000240: 511d 043f e85a b0bd cd04 163e 060c 3a3f
00000250: 1faf 323e 2a59 c0be e66d febe ed4f ffbe
00000260: ef93 19be 00de 9dbe c04c 56be f6f2 e33e
00000270: eb8e c43d 8b87 203e 619b 6b3e 2fe9 9b3e
00000280: 35cb 1abe 5437 843e 6dbe 113f faa2 21be
00000290: 24dd 3cbf f535 28be 4ff3 373f 901a af3e
000002a0: ed84 bf3e 6c69 62bd 5cf1 92be 6f4b 08bf
000002b0: d48b 9d3d 7e27 25be 8be3 013f 8f88 7cbe
000002c0: 3661 e9be 9693 003e 2c44 81bd b0a0 73bd
000002d0: c40e 203f 29c4 ba3e 42f1 19bf c1fb 313e
000002e0: 8cd0 ad3d da2d 103f d553 f1be 534e 493e
000002f0: 177b b9be ed95 01bf b288 0abf 0fdf 01bf
00000300: 8a52 42be 3aa3 9e3e 6c36 c7be b5be 92be
00000310: afab 823d 6524 b8be 6943 81be f93a 79bd
00000320: 2ec7 df3e 22be 273e 8ef8 0d3e 35b8 9d3e
00000330: 2da7 0d3f 75f4 b1be d3af e9be b802 6f3e
00000340: bfea b23e ce80 f53e c9b6 283e 8569 013f
00000350: f8b1 dd3e 8ca8 853e f2e2 943e 7ecf debe
00000360: e53f bd3d bccd bebe 0b45 933d 925c 823e
00000370: 458a 02be 9d5f c73e c309 1d3f 1f1a df3d
00000380: d8b1 0bbf 7dc1 5ebe 6749 033f 6e2e 71be
00000390: 2ba0 cc3e 0970 e63d cbd7 5a3e 528a a43e
000003a0: bebf 323e 9b9f 933e ec7a b6be 1853 c6be
000003b0: 7941 983e 5df0 ec3d 57ac fe3d f324 e0be
000003c0: 17e7 a5bd 3c63 533d 066f 81be 845c b03e
000003d0: 1023 1b3f 94f3 e83e 5ef7 8abe 2eb9 9dbe
000003e0: 37c2 68bd e676 4e3e 15e1 17be 138f a73e
000003f0: e9a1 e9b8 6ff7 883e 7c5a 063f add6 a33e
0.28444675 -0.068016894 -0.17227636 0.5017721 -0.03960879 0.27653998 0.18492158 -0.14194922
-0.48829854 0.06903102 0.106451444 0.114472345 0.23003373 0.26981965 -0.22337148 -0.02576732
-0.35015723 0.2824197 0.5610603 -0.26925772 0.5202468 0.45668256 0.71793526 0.24214873
0.22013243 -0.031632073 -0.06877613 0.28834054 -0.005700206 0.043832343 -0.03487004 -0.0032508578
0.5495254 0.64782274 0.36796406 0.17578276 -0.28291327 0.34057143 0.5992248 0.4940016
-0.47142488 -0.24838747 -0.15658335 -0.64809185 -0.16959086 -0.02160105 0.4244717 0.45114362
-0.5533279 -0.033090033 -0.14744504 -0.25574547 -0.21776725 0.32683754 -0.21300896 -0.1647033
-0.04114947 -0.0542799 -0.26050866 -0.28522632 0.3268527 -0.1547903 -0.6171477 -0.40039587
-0.2980679 -0.32198244 0.14159633 0.10907572 -0.2399796 0.1606323 0.6632067 -0.24039225
-0.17985776 0.22330192 -0.21680696 -0.032224044 0.42377508 -0.56711525 -0.67298156 0.09644177
-0.20702642 -0.6613094 -0.032033134 -1.2826976 -0.39854088 -0.35692468 -0.59410423 -0.6200728
-0.14150727 -0.6402495 -0.2856011 0.33661413 0.5728189 0.37170509 0.9000134 -0.15363422
-0.05970665 -0.61159015 -0.29218903 -0.2436708 0.06370501 0.3010653 0.08067221 -0.037659995
0.46983016 0.3813993 -0.3924779 0.4024889 0.36673814 -0.2029188 -0.61001134 0.12439428
0.2988447 0.2864683 0.29380083 0.5954756 0.5164757 -0.28804168 -0.022176197 -0.9057504
-0.0013689371 -0.5196163 0.44042718 -0.08711364 0.3962683 -0.21142119 0.3313976 -0.31867844
-0.14244287 0.34290057 0.39974016 -0.013857141 -0.11496723 -0.41640136 0.41587123 0.043928817
-0.3011245 0.1651588 0.16478421 -0.7786763 -0.5308352 0.5755129 0.48670208 0.97484547
0.51607233 -0.08611089 0.14650269 0.72674596 0.17449616 -0.37568027 -0.4969322 -0.49865666
-0.14997838 -0.30833435 -0.20927715 0.44521302 0.09597572 0.15676706 0.23008491 0.30451342
-0.1511658 0.25823462 0.5693119 -0.15784827 -0.73774934 -0.16426833 0.71855634 0.34199953
0.37406102 -0.05527632 -0.28699768 -0.532401 0.07692686 -0.16128346 0.5073783 -0.24661468
-0.4558198 0.125563 -0.06311831 -0.059479415 0.6252253 0.36477783 -0.60133755 0.17381193
0.08487043 0.56319964 -0.4713427 0.19658785 -0.36226723 -0.50619394 -0.5411483 -0.50730985
-0.18976799 0.30983907 -0.38908708 -0.28661123 0.06380402 -0.35965267 -0.25246742 -0.060847256
0.4370665 0.16381124 0.13864347 0.308046 0.55333215 -0.34756818 -0.45641956 0.23340881
0.34944722 0.47949833 0.16475977 0.50551635 0.43299842 0.26105154 0.29079396 -0.4351768
0.092407025 -0.37266338 0.07190903 0.2546125 -0.12748058 0.38940135 0.6134302 0.10893654
-0.54568243 -0.21753497 0.5128388 -0.23552868 0.39965948 0.11251838 0.21371381 0.3213678
0.17455956 0.28832707 -0.35640657 -0.3873527 0.29737452 0.11569283 0.12435215 -0.4377819
-0.081007175 0.05160831 -0.25280017 0.34445584 0.60600376 0.45498335 -0.2714185 -0.30805343
-0.056825843 0.20162544 -0.14831956 0.32726344 -0.00011140464 0.26751277 0.5248182 0.31999722

Q1.head.module_10.att_src f4 [1, 1, 16]
00000000: 76b6 bcbe dfdf ccbd 3c81 df3e 01ee bfbe
00000010: 4955 8fbe 6ef7 773f 08a4 073f 526e f3bd
00000020: 3873 1fbc 3a7c 55bd c21b 25be 570b 073e
00000030: d965 823d fe7a 8e3f 8f5e 24bf 01ea 1d3f
-0.36857957 -0.100036375 0.43653286 -0.3748627 -0.27994755 0.9686192 0.52984667 -0.11886276
-0.00973206 -0.052120425 -0.1612387 0.1318792 0.06367082 1.1131284 -0.64206785 0.61685187

Q1.head.module_10.att_dst f4 [1, 1, 16]
00000000: 87de 25be 21f9 133e 0ba2 043f 61e1 8cbe
00000010: fb77 8b3e 896c 97bd cdbb afbe dd0a 26bd
00000020: 4cef 023f f971 a93e 368b a1be 67ac 0b3f
00000030: c50e e83d fa84 033f e0ad 0e3f 4afb 1fbe
-0.16198169 0.14450504 0.5180976 -0.275157 0.27239975 -0.07393748 -0.34322968 -0.040537704
0.5114639 0.33094767 -0.31551522 0.5455994 0.11330942 0.5137478 0.5573406 -0.15623203

Q1.head.module_10.bias f4 [16]
00000000: 816d 45bd 7341 a73d 714f 063d 22a2 dcbd
00000010: 7e24 d03c 45e3 163d 5042 f6bd 5fdd 67bc
00000020: cb52 523d 3538 5b3c 525d 1bbb 37b2 e43c
00000030: 2adc 283d 93ba 303e 23ad 10be 1529 afbd
-0.048200134 0.0816678 0.032790605 -0.10773112 0.025408026 0.036837835 -0.12024367 -0.0141519
0.05134849 0.0133801 -0.0023706746 0.02791701 0.04122559 0.17258672 -0.14128546 -0.08552758

Q1.head.module_10.lin.weight f4 [16, 16]
00000000: 99c2 8a3e 216e 16be be9d 723c 5acd a1be
00000010: 71e6 a13d be92 d7bd 8309 e5be 8048 443e
00000020: 773d e3be 38ec cf3e 10b9 8abe a2b3 cf3e
00000030: d0c3 8bbe 4d63 9f3d 36a0 adbd bc3c dabe
00000040: 3c1a af3d 2b51 d73d a339 78bf b45e cf3e
00000050: 2913 e23d 5919 68bf 02ce 84bc 60da b8be
00000060: 25fc 72be a544 24bf ec72 ce3e 8410 0a3f
00000070: 25dd ccbe 75cc a73e 396e b43e 1cac 92be
00000080: 5f6d 33be 1c74 0f3e ab8e af3d 47dd 043f
00000090: 09dd 2a3f 10ef abbd a013 053f bcc8 fdbe
000000a0: 1004 193e e596 1abf 73dc bf3e a805 ea3d
000000b0: f679 e9bd d33a f1be 43af 85bd 78f1 82be
000000c0: cdd3 63be ef82 f9be de94 8ebe 456c 963e
000000d0: d4bd f9be f5fe 20be c89c adbd 18e0 aebb
000000e0: 5d02 8cbe 9f0c bc3e 3a2c 1d3e 2803 0fbd
000000f0: 052d 863e 6012 5fbd cf50 8f3d dc67 ae3e
00000100: 92f5 24be 0ebf a73e 7ee4 6cbe 3e0f 71bd
00000110: 75b5 09bf f83a 30bd 5852 0bbf 710e 3b3d
00000120: a7fb 04bf 6ad4 a5bd 5c5e 64bd 93ca 143f
00000130: 7972 2fbf a303 01bf 6a6b 56be 53be 893e
00000140: f270 543d 57f5 6bbe bf83 15bf 1ea7 df3e
00000150: d6e6 2e3f 8cdc 3fbf bac0 423e 72fa 70be
00000160: ab68 ea3e 4bb9 99be ad57 9d3e 7cc5 013f
00000170: f997 b43e b88c 84bd db91 dc3d 1295 f33d
00000180: a91f 30be 338f 9dbe 49b6 cdbe 87ff 113e
00000190: d2da 1dbe efe0 6d3f 95cd 293d 3133 00be
000001a0: 518e 523f 746a 093e c649 ccbe b377 94be
000001b0: 5ea5 60bd 0dd6 eebc 42ea 12bf 7079 cd3e
000001c0: 9f56 ed3d f34a 2bbe 6fee 6e3e 9551 0abe
000001d0: ff41 14bf b65b 31be 9c1b 83be ff47 643d
000001e0: d5bd 8bbd 196e 1f3f a829 fdbe 5303 033f
000001f0: 1376 643e b542 b8be 355c a3be 2e1d bfbe
00000200: 6b4c d1bd 055b 8c3d c39b cabe fa38 133c
00000210: ff83 a7bd 7910 fdbe 873a d93e dae1 e33e
00000220: f6be 2dbe b4da b63e 5b77 00bf 6802 013e
00000230: 304c 9dbe 5d2c 223f 3e90 98be b784 ec3e
00000240: e3cc f93e 95de 62be a2a7 babe 21b8 663e
00000250: 2ec7 4dbf 6e56 2dbf 05de b8be 32e0 973e
00000260: c52d 9f3e 1d00 9a3c db72 4dbe ee84 aa3e
00000270: f6be b43d 9cb9 db3e fc56 84be e37f 57be
00000280: c0f7 a13d 440f 4f3e 06a7 1b3f 104d c8be
00000290: fca8 83bd 9efa 88be c230 1f3d 42e3 6d3d
000002a0: 44bb eb3e bdd5 903e a85c ab3e 23ba 80be
000002b0: 29ea 2cbf 1686 9cbb 0bb1 783d b843 afbe
000002c0: 3690 ddbd c259 2e3e 1e55 743e 432d 983e
000002d0: 6c2f a3be 384f 63bf a827 86be 78a9 57be
000002e0: 9d0e d83e e623 9ebc 0ee8 b8be 69b2 cc3e
000002f0: 7679 b03e debc 33be eef3 b9bd 626c 683e
00000300: 837c 643e c98c 07be 6c16 e5be 6ddf 03bf
00000310: b6ff 3e3d 6153 4c3e 83f3 9fbe 860d f43e
00000320: f67f 323f e4c5 833d 1eee 26bd 4e7c 27be
00000330: de1d 41be 0e0b d1bd bb47 1a3e d259 17be
00000340: 1fd3 24bf b152 e23e a624 04bf 7528 82bd
00000350: e330 8a3e f4d4 cabe e80d 8cbe e26c 15bf
00000360: 3cc0 c13e 3fa8 aebe 2c22 b83e e180 a93e
00000370: dbb4 063f 7ce2 9fbe 1a49 43be 1a44 9b3e
00000380: cecc 813e 676c 92be 89ea 9b3e 8e2a 6dbe
00000390: b951 133e c6bf 32bf 13d3 7abd 8712 c93d
000003a0: 4a6d 81bf 5c44 923e 3305 84be 8f5f cf3d
000003b0: 2f55 edbe 9597 c7be b432 4fba eee0 343d
000003c0: 0387 c4bc 0052 c83e f6a9 4e3f 06ee a6bd
000003d0: 6ba7 8a3e 74e8 d13e e323 c4be c4fd 94be
000003e0: 43d1 8c3e e058 0cbe 2a0d d23e a191 3fbe
000003f0: 19fd f3be e4d9 d03e f23f ba3e 4b30 0e3e
0.2710159 -0.14690448 0.0148081165 -0.31601983 0.07905281 -0.10526036 -0.4473382 0.19168282
-0.4438283 0.40609908 -0.27094316 0.40566736 -0.2729783 0.07782612 -0.084778234 -0.42624462
0.08549926 0.105135284 -0.96962947 0.4050194 0.11038811 -0.9066368 -0.016211513 -0.36104107
-0.23728998 -0.64167243 0.40322053 0.5393145 -0.4001247 0.32773176 0.35240343 -0.28646934
-0.1752219 0.14009136 0.08572134 0.5190014 0.6674352 -0.08395207 0.5198307 -0.4956721
0.14942956 -0.60386497 0.37472877 0.1142686 -0.11400215 -0.47115192 -0.06527569 -0.2557485
-0.22248764 -0.48732707 -0.27847952 0.29379478 -0.4877764 -0.15722258 -0.08477169 -0.0053367727
-0.27345553 0.3672838 0.15348902 -0.03491512 0.26206222 -0.054460883 0.06997835 0.34063613
-0.16109303 0.3276295 -0.23134038 -0.058852427 -0.53792506 -0.043024987 -0.5442252 0.04566807
-0.5194649 -0.080971554 -0.05575405 0.58121604 -0.68534046 -0.50396174 -0.20939413 0.26903018
0.051865526 -0.23042808 -0.58404154 0.43682188 0.6832098 -0.749459 0.19018832 -0.23533037
0.4578298 -0.3002418 0.30730954 0.5069196 0.35272196 -0.064721525 0.10770007 0.11893667
-0.17199577 -0.30773315 -0.40178135 0.14257632 -0.15415505 0.92921346 0.041455824 -0.12519528
0.8224841 0.13419515 -0.39900035 -0.28997573 -0.054845206 -0.029154802 -0.573887 0.40131712
0.11588787 -0.1672781 0.23333143 -0.13507684 -0.579132 -0.17320141 -0.25607002 0.055732723
-0.06823317 0.6227737 -0.49445844 0.5117695 0.22310667 -0.35988393 -0.31906286 -0.3732695
-0.10219654 0.06853298 -0.39571962 0.008985752 -0.08179473 -0.4942663 0.42427465 0.4450825
-0.16967377 0.35713732 -0.5018212 0.12598574 -0.3072219 0.63348943 -0.29797548 0.46195003
0.4878913 -0.22155221 -0.3645602 0.22531177 -0.8038205 -0.67710006 -0.36106887 0.29663235
0.31089607 0.018798882 -0.20063345 0.33304542 0.088254854 0.42915046 -0.25847614 -0.21044879
0.07908583 0.20220667 0.6080173 -0.39121294 -0.064287156 -0.26753706 0.03886486 0.058078058
0.4604131 0.2828807 0.3346913 -0.2514201 -0.675448 -0.0047767265 0.060715716 -0.34231353
-0.10818522 0.17026427 0.23860595 0.29722032 -0.31872118 -0.88792753 -0.2620213 -0.21060741
0.4219865 -0.019304227 -0.36114544 0.39979866 0.34467667 -0.17552516 -0.09079729 0.22697595
0.22313122 -0.13237299 -0.4474367 -0.51512796 0.046630584 0.19953682 -0.31240472 0.47666568
0.697265 0.06434229 -0.04075443 -0.16356012 -0.1885905 -0.10207187 0.15066426 -0.14780357
-0.64384645 0.44203714 -0.5161842 -0.06355373 0.26990423 -0.39615595 -0.2735436 -0.58369267
0.37841976 -0.34112737 0.3596357 0.3310614 0.52619714 -0.3122748 -0.19070855 0.30325395
0.25351566 -0.2859833 0.30452374 -0.23160765 0.14386643 -0.69823873 -0.061236452 0.09817987
-1.0111477 0.2856778 -0.25785217 0.10125648 -0.46354052 -0.38982835 -0.00079039787 0.044159822
-0.02399016 0.3912506 0.8072809 -0.08150868 0.27080855 0.4099766 -0.3830863 -0.29099858
0.27503404 -0.13705778 0.41025668 -0.18707897 -0.47654036 0.40791237 0.3637691 0.1388561

Q1.head.module_12.att_src f4 [1, 1, 16]
00000000: 142c 4d3e 812b 1cbf 47a6 ed3f dd9d fe3d
00000010: b89e a0bd 2026 293f 40ae 1d3f bed0 1c3f
00000020: 099c 8fbd 49ae a1be fe67 aabf 99d8 4cbf
00000030: dc09 5cbf 6c1c 443f 89ff ddbe d254 f5be
0.20036346 -0.6100388 1.8566369 0.12432454 -0.07842773 0.660738 0.6159401 0.61256015
-0.07012183 -0.31578282 -1.3312986 -0.80018 -0.85952544 0.7660587 -0.4335902 -0.47916275

Q1.head.module_12.att_dst f4 [1, 1, 16]
00000000: a053 653e cde9 c0be 688e 08be 4a18 253f
00000010: 2ddb de3e e25d 09be d0a2 053f a489 dabe
00000020: 5c1c 6b3e a3cf c73e e44b c8be 668b f73e
00000030: 6cef 323f df72 96be 142f 363f 5f78 903d
0.22395182 -0.37678376 -0.13335574 0.6449019 0.43526593 -0.1341472 0.5220156 -0.42683136
0.22960037 0.39025602 -0.391204 0.4834854 0.6989658 -0.29384515 0.71165586 0.07054209

Q1.head.module_12.bias f4 [16]
00000000: 978b 8d3d d6ac 7a3b fc3c 8bbb d38d cfbd
00000010: 9fa6 5ebc 7744 033d f5b7 db3c d803 03be
00000020: d1df 653c f95c 0a3d f026 503a aaa8 5abd
00000030: d7ca 3cbe 7756 093d 2d49 cb3d 8c4c 933d
0.0691139 0.003824999 -0.0042492133 -0.10134473 -0.01358953 0.032047715 0.026821116 -0.12794435
0.014030413 0.033780072 0.00079403725 -0.053383507 -0.18436752 0.033529725 0.099260665 0.071923345

Q1.head.module_12.lin.weight f4 [16, 16]
00000000: 1345 09bf 3d60 b9be 67c9 9e3e 66a9 29bd
00000010: f83d f5be 48ca db3e d93a 823e 14ec 79bd
00000020: cd35 d1bd 9b49 833d f9ad 45bf 98a6 0b3e
00000030: bb94 a0be 6482 b53d 25a3 8b3e 968f 89bd
00000040: 3963 d9be 7d6d 0abf 28bb 19be c4d8 cc3e
00000050: 22ad 4fbe 8a2e a8be d2e6 1f3f 92c4 c13d
00000060: 5c42 80be 88ad 5e3e 8fde 66be c24d ae3e
00000070: 3915 e53c 75db b13c 8804 6f3d 9f3e 09bf
00000080: 74aa 9cbe 6f67 c3bd 5812 a13e 4db4 a6be
00000090: 9b16 6ebe 306a 433e 1061 76be 828e 3c3e
000000a0: 25ef 953e 82ce 12be 460d 3cbe 6dc8 db3e
000000b0: 092b 7bbd cde9 8abe bcfc 333e cb31 143f
000000c0: 2d11 bd3e 9196 8cbe b81f d73e c4cd 92bb
000000d0: dff2 c1be 16db b63e c8b7 82be 7eb6 fb3e
000000e0: 1514 0a3f 7993 88be f2fe ef3e 7207 183e
000000f0: 2c8d 29be 4c44 ba3d 48dd 3c3e 6ca9 91be
00000100: 78a5 043f fe4e a53e cc6a a8be 7b02 bc3e
00000110: 4698 703e bbd1 2b3e a6e9 3cbd 32be 5c3e
00000120: d4f0 423e a626 0b3f 5577 003f b2aa ca3e
00000130: c5a9 023e 883b 9b3d 51b7 0c3d 677d 20bc
00000140: 29f3 b0be 6115 1e3f d3c9 16be 28a4 4c3e
00000150: a150 d53d c70e 9f3e 1a8c 0ebf 43ee babd
00000160: 25c8 00bf 279f a2be a68a 0e3f 072d bcbd
00000170: f9a7 843e 55a0 b23e 130e 69bc bb45 1ebe
00000180: 722e 623e 5006 1b3f 174c 3f3e 4d3d 85be
00000190: bc4c b93d 8992 1f3d 9a50 b9be 79de 053d
000001a0: 3f19 e03d 166e bbbd 6d5b 5e3f 12d7 f23e
000001b0: fd93 2a3e ef7a c53d 8768 19be a5f4 493e
000001c0: e917 2abd 8288 b03e 107c 7cbd f7fd eebe
000001d0: 0a75 bb3d 3599 00bd 2703 d93d c0da b03e
000001e0: 514d 5ebf 618e 053e 757b ce3e bb31 37be
000001f0: 887c cb3e d530 19bf 6caa 103f 1d76 b43e
00000200: b1c1 c23d cdb3 ba3e 8695 bf3e be07 4abe
00000210: f679 4b3e fc19 c53e 5134 143e 52c5 d3be
00000220: 4d1b 433e 4bf4 99be e8c2 013f f35d 9fbe
00000230: 7054 a7bd 4610 b9bd ab9b 94be 1112 66be
00000240: 4141 4b3e 5123 243e a740 33bd 1273 a6be
00000250: f3c5 b1be 4ace b63e 3179 18be 1f1d a8be
00000260: de04 63be cb1e 10bf e4e3 72be 053e c73e
00000270: 1ec8 c7bd 2960 013f 8070 e2be 66c6 86bf
00000280: 6585 d4bd f95e b5be 2567 1cbf 807b 8e3e
00000290: 92c9 46be 8d1b debe 38fb b73f 5866 663d
000002a0: 6c13 9ebe fd11 3c3e f4d5 b3bd 869f 8d3e
000002b0: fca4 debe a846 5dbe b062 bb3d b250 87bf
000002c0: 9fe6 573e 8c32 67bf b133 10bf cf2c 1f3e
000002d0: fe9d 9c3e 3439 7cbe b1e1 86be 4432 db3e
000002e0: b4d8 bd3d 81b4 f03e 76c2 32bf f13f ab3e
000002f0: 317d 9fbe acb0 4bbe 6cac c03d 4942 b7bf
00000300: 1b38 3f3e 7c7a 12bf 80b9 0bbf 22e9 b43d
00000310: 99e1 9f3e 515d 18bf 79ee 383f d4b3 f33e
00000320: aaff c73e 089b 043f fb3f 963e 0e86 aebe
00000330: 9068 123e cb3b 4dbf b9da 003f fb15 63bf
00000340: b5a2 20be 06a9 cc3e f817 f93e 223f 4ebe
00000350: 9064 a4be a5bb 973e 6821 efbe f840 96be
00000360: 7dec f7be ddca e83e 1aaf 873e 5439 463c
00000370: 0612 92be b658 953e d9bd f9be e6b4 68bd
00000380: d32a f13c 0bd9 4d3e 28fe 71be 02ca 633e
00000390: 0478 f73e 7665 763d c1c8 473e 3eb0 23bc
000003a0: 0691 e23e 981e c23d d39c fdbc 5dd1 733e
000003b0: 6088 d23e 03b9 1cbd 74d6 203d 4030 83bf
000003c0: 3952 75be 8eb6 a53e a1f4 77be 9f36 12be
000003d0: 4e99 403e 349a 063d ef7f 83be 82bf cd3e
000003e0: 8c8e 9f3e 1b02 3e3e 1b95 5fbe 5f40 30bd
000003f0: c944 b73e f11f d23d 267f c4be 4e28 eebe
-0.53621024 -0.36206236 0.31013033 -0.041421317 -0.4789884 0.42927766 0.25435522 -0.061016157
-0.1021534 0.064105235 -0.77218586 0.13637769 -0.31363472 0.08862761 0.27272907 -0.0671684
-0.42458513 -0.54073316 -0.150128 0.4000913 -0.20280889 -0.32848006 0.6246158 0.09461321
-0.25050628 0.21745884 -0.22545837 0.340437 0.027964221 0.02171109 0.05835393 -0.5361118
-0.30598795 -0.09541213 0.31459308 -0.32559434 -0.23250811 0.19083476 -0.24060464 0.18413737
0.29284015 -0.14336589 -0.18364438 0.4292635 -0.06132034 -0.271315 0.1757688 0.5788848
0.36927167 -0.27458623 0.42016387 -0.0044800956 -0.37880608 0.35714024 -0.2553084 0.49162668
0.5393689 -0.26675013 0.46874195 0.1484659 -0.16557759 0.09095058 0.18443787 -0.2844957
0.51814985 0.3228683 -0.3289398 0.36720642 0.23495588 0.16779225 -0.046121262 0.21556929
0.19037181 0.5435585 0.50182086 0.39583355 0.12760074 0.07579714 0.03435451 -0.009795523
-0.34560516 0.6175137 -0.14725427 0.19984496 0.10415769 0.31065962 -0.5568253 -0.09127476
-0.50305396 -0.3176205 0.5568031 -0.09188276 0.25909403 0.3488795 -0.014224547 -0.15456288
0.2208803 0.6055651 0.1868137 -0.2602333 0.09047839 0.038958106 -0.36194307 0.03268287
0.10942315 -0.091518566 0.86858255 0.4742971 0.16658016 0.09642588 -0.1498128 0.1972223
-0.04152671 0.34479147 -0.061641753 -0.46678135 0.09153183 -0.03139611 0.105963044 0.34541893
-0.86836725 0.13042594 0.40328565 -0.17890064 0.39743447 -0.59840137 0.56510043 0.35246363
0.095096 0.36465302 0.37418765 -0.19729516 0.19870743 0.38496387 0.14473082 -0.4136148
0.19053383 -0.30069193 0.5068803 -0.31126365 -0.08170402 -0.09036307 -0.29025015 -0.2246783
0.19849111 0.16029097 -0.04376283 -0.32509667 -0.34721336 0.3570426 -0.14889981 -0.32834718
-0.22169825 -0.56296986 -0.23719746 0.38914505 -0.09754966 0.50537354 -0.44226456 -1.0529296
-0.103770055 -0.3542402 -0.61094886 0.27828598 -0.1941283 -0.43380395 1.4373541 0.056249946
-0.30874193 0.18366237 -0.08781043 0.2766077 -0.43485248 -0.21608984 0.091496825 -1.0571501
0.21084069 -0.90311503 -0.56328875 0.15544437 0.30589288 -0.24631196 -0.26344064 0.42811787
0.092698485 0.47012714 -0.69827974 0.3344722 -0.311502 -0.19891614 0.09407887 -1.4317104
0.18673746 -0.57218146 -0.54579926 0.08833529 0.31226805 -0.5951739 0.7223888 0.47598135
0.39062244 0.5179906 0.29345688 -0.3408665 0.142977 -0.8016936 0.50333744 -0.88705415
-0.15687068 0.39972705 0.486511 -0.20141271 -0.32107973 0.2963535 -0.46705174 -0.29346442
-0.48422614 0.45467272 0.2650078 0.012098629 -0.28529376 0.29169244 -0.48777655 -0.056813143
0.029439365 0.20102327 -0.23632109 0.22245029 0.48333752 0.060155354 0.19510175 -0.00999075
0.4425127 0.094784915 -0.030958569 0.23810335 0.4111967 -0.03826238 0.03926702 -1.02491
-0.23957147 0.3236584 -0.24214412 -0.14278649 0.18808481 0.032861903 -0.25683543 0.4018517
0.31163442 0.1855549 -0.21834223 -0.04303014 0.35794666 0.102599986 -0.38378257 -0.46515125

Q1.head.module_14.att_src f4 [1, 1, 16]
00000000: 94d8 b1bf ccdb c7bf f8c6 443f d4d9 80be
00000010: ae0f d03f ed0a 353f 083d 873f 94de 2dbf
00000020: 0680 88bf 875a d2be 4ed3 88bf 5412 f3bf
00000030: 5884 f43e af2a 313e 66a9 ec3e 4c30 d5be
-1.3894219 -1.5613952 0.768661 -0.2516619 1.6254785 0.70719796 1.05655 -0.6791775
-1.066407 -0.41084692 -1.0689485 -1.8989968 0.4775722 0.17301439 0.4622299 -0.4163841

Q1.head.module_14.att_dst f4 [1, 1, 16]
00000000: d8f2 a13e 141a 5e3f 13b8 ae3e 0479 843e
00000010: 1bf1 63bf 079b edbe 20d4 1a3e bea5 a53e
00000020: 9841 9abe 32ae e83e 8b04 353e 9e8b 6cbf
00000030: 5ddf ab3f 3f79 f93e f61d 60be 0398 273f
0.31630588 0.8675854 0.34124812 0.25873578 -0.8903977 -0.4640734 0.15119982 0.32353014
-0.3012817 0.454454 0.17677514 -0.9240054 1.342754 0.48725316 -0.21886429 0.65466326

Q1.head.module_14.bias f4 [16]
00000000: 12cb 51bd 7838 af3b ebcb bb3c 035f a43c
00000010: 556c 4fbc 33f4 273b d8d5 8dbc 8935 b3bd
00000020: 1f16 513c b4cb e43c 0bfe a93c d377 1a3c
00000030: a61d afbb b170 a1bd 93a6 033d 1784 a6bc
-0.051219054 0.005347308 0.022924384 0.020064836 -0.012660106 0.0025627732 -0.017313883 -0.087504454
0.012761622 0.027929164 0.02075102 0.009427982 -0.0053441105 -0.07882822 0.03214128 -0.020326657
