logs/dome_gnn/model/best/target_critic.pth (torch, 42938 bytes, 68 tensors)

Q1.head.module_0.att_src f4 [1, 1, 16]
000000 d6 dd d9 3e 76 61 92 3e 27 e5 67 3e df 32 b6 3e
       0.4255206 0.28589982 0.22646008 0.35585687
000010 55 0a 04 3e 37 54 f1 be 44 25 20 bf 82 56 18 bf
       0.12894566 -0.47134563 -0.6255686 -0.59507
000020 a8 c2 0d bf f1 52 ff 3e 07 cc a6 3a 52 b7 9d be
       -0.55375147 0.49867967 0.00127256 -0.30803925
000030 f0 00 79 bd 5d 34 2f bd 95 1c b5 bd 57 77 02 bf
       -0.06079191 -0.042774547 -0.08843342 -0.5096335

Q1.head.module_0.att_dst f4 [1, 1, 16]
000000 2c 08 10 3e 28 47 35 3c 7d 50 4b be de 20 a8 be
       0.14065617 0.011064328 -0.19854923 -0.32837576
000010 d9 65 1a be 9e 96 05 3f d4 1c f6 be 3b 76 73 be
       -0.15077914 0.5218295 -0.4806887 -0.2377557
000020 9e e7 40 be b1 11 0e 3f 1e 59 20 3d 17 d2 ce 3e
       -0.18838355 0.55495745 0.03914749 0.4039466
000030 58 cf 5c bd 43 53 d3 bd 80 46 ae 3e fb bb 63 be
       -0.053908676 -0.10318615 0.34038162 -0.22239678

Q1.head.module_0.bias f4 [16]
000000 a1 fc 20 3e ab d2 01 3e 18 ac 6e 3a a1 86 1e bd
       0.1572137 0.1267802 0.00091046235 -0.03870261
000010 b1 73 12 3d 34 94 bf 3d 62 7a 2e 3e 61 86 5f 3e
       0.035754863 0.093544394 0.17038873 0.21828605
000020 0d 94 ed 3c f3 e7 f8 3b 3f b9 26 bc 98 2a 96 3d
       0.02900126 0.00759601 -0.010176002 0.07332343
000030 5b a9 48 bc d7 3c a5 3e 9b a9 dc bc 83 6f 96 3d
       -0.012247409 0.3227298 -0.026936343 0.07345488

Q1.head.module_0.lin.weight f4 [16, 2]
000000 e5 24 9d 3e 43 ad 40 bf 81 66 82 3e 8e 6c f4 be
       0.3069221 -0.75264376 0.2546883 -0.4773907
000010 5f ad 18 3f 62 1d 26 3f 11 25 b5 3d 5a 98 ab 3e
       0.59639543 0.64888585 0.088449605 0.33514673
000020 b8 fb 89 3e 8e 8b d9 3e fe f9 88 3e 00 56 91 3d
       0.2694986 0.42489284 0.2675323 0.07096481
000030 a7 d3 b2 be 59 56 01 be 3a 97 b3 bc ee 1d 17 bf
       -0.34927103 -0.12630595 -0.021922696 -0.59030044
000040 0a 31 34 3e 56 7f d7 be a7 ac ef 3e 30 38 20 3f
       0.17596832 -0.42089337 0.4681141 0.62585735
000050 0f 4c 37 3d 08 6a df 3e 44 e9 5d be a0 15 8b 3e
       0.04475027 0.43635583 -0.21671015 0.27164936
000060 5f 12 01 3f 8a 60 d4 be d1 34 1f bf d2 de 8f be
       0.5041866 -0.41479903 -0.62189966 -0.28099686
000070 31 78 7b 3e 8c b1 97 be 2e ad 1d 3e f2 8e 39 3f
       0.24557568 -0.29627645 0.15398094 0.7248374

Q1.head.module_2.att_src f4 [1, 1, 16]
000000 06 69 8c 3e bb b6 c2 3e ec b9 f2 bd 6b 34 fe be
       0.27423877 0.38030037 -0.11851868 -0.49649367
000010 02 0f aa 3e a7 d9 c9 3e 5d 25 7f 3e 91 83 de 3e
       0.33214575 0.39423868 0.24916597 0.43459752
000020 0f cf a2 be 8a 62 eb 3e 7e 8c 32 3e 69 f9 0c 3f
       -0.31798598 0.45973617 0.17436406 0.5506807
000030 34 65 e7 3d dc 67 1d bd 72 6a 84 be f5 ec e1 3e
       0.112986 -0.038429126 -0.2586246 0.44126096

Q1.head.module_2.att_dst f4 [1, 1, 16]
000000 59 f1 14 bd 46 3c e3 be a7 ab 33 3f 8e 5f a7 3f
       -0.03636298 -0.44381922 0.70183796 1.3076036
000010 ba 1b 3c 3f 6a ce f3 3e f9 79 9c be 3f af e4 3e
       0.7347981 0.4761842 -0.30561808 0.44664952
000020 a4 9b 84 bc 27 82 61 bf 55 fb 36 3f a9 db b6 be
       -0.016187496 -0.8808922 0.7147725 -0.35714462
000030 01 b2 24 3f e7 68 54 3f 2a 98 08 3e 43 73 35 3f
       0.6433411 0.8297257 0.13339296 0.70879

Q1.head.module_2.bias f4 [16]
000000 cd af 23 be 38 ba 77 bc e4 ec 00 3e dd 7d 65 3e
       -0.15985031 -0.015120082 0.12590367 0.22411294
000010 44 87 45 3d 80 f1 9d 3d 8e bf d7 bd af df 85 3d
       0.048224702 0.07712078 -0.10534583 0.06536805
000020 23 8f 20 bc d9 93 a9 3c dd 52 45 3d 7d f7 9c bd
       -0.009799751 0.020700382 0.048174728 -0.07664392
000030 f7 d8 1f 3e d2 c0 c0 ba f3 d9 ee 3d 31 52 12 3e
       0.1561011 -0.0014705902 0.11662664 0.14289166

Q1.head.module_2.lin.weight f4 [16, 16]
000000 b3 45 ec be b0 67 94 be 88 4d 23 be 39 30 2c 3e
       -0.46146926 -0.28985357 -0.15947545 0.1681527
000010 df 28 03 3e e7 8e ac be 4d 05 3b 3e aa fe 32 be
       0.1280856 -0.33702776 0.18263741 -0.17479959
000020 90 bc 97 3e 82 e3 00 3e a4 ec 0d be 29 08 f9 3d
       0.2963605 0.12586787 -0.13859802 0.121597596
000030 1f 19 2e 3f 49 99 8e be f9 b5 bf 3f 19 c0 76 3e
       0.6800708 -0.27851322 1.4977409 0.24096717
000040 b0 11 0e bf 00 e0 43 be d1 0e b2 3c a0 24 30 be
       -0.5549574 -0.19128418 0.02173558 -0.17201471
000050 4c c8 ea 3d aa f7 af 3d c4 dc 7d bf d8 f6 02 bf
       0.11463985 0.0859216 -0.99164987 -0.51157904
000060 6c 04 17 3f b8 04 a2 3e 47 d8 1c be 75 29 ea 3e
       0.5899112 0.31644225 -0.15316878 0.45734754
000070 d5 9a 90 be f3 5c 23 bf f1 7d f9 3c eb 0e d8 3e
       -0.28243127 -0.63813704 0.030455561 0.42198882
000080 27 59 7c 3f 77 21 22 3f 4b 30 c7 be e1 5e 2f be
       0.98573536 0.63332313 -0.38904032 -0.17126037
000090 42 75 b8 be 4c 2b 15 3d 32 dc 76 3f 8c e8 52 3f
       -0.3602696 0.036418244 0.9642974 0.8238609
0000a0 e7 9a bb be 43 75 ab be 19 56 e7 be f4 fe 67 3e
       -0.3664162 -0.334879 -0.45182875 0.2265585
0000b0 b9 ff 5d bf 16 66 a0 3e 05 4d 21 bd a6 b4 a7 3d
       -0.86718327 0.31327885 -0.039380092 0.08188753
0000c0 0c 08 97 3e a1 f8 25 3f 05 45 b6 be 18 4b 84 bd
       0.29498327 0.648325 -0.35599533 -0.064596355
0000d0 5b e3 fc be 4f 9b 9b be 93 3f 93 3e bf f3 24 3f
       -0.49392208 -0.3039193 0.2875944 0.6443443
0000e0 36 19 5b 3d 02 4a 18 bf df ce 37 bf fc a9 76 bf
       0.05349084 -0.59487927 -0.71800035 -0.96353126
0000f0 16 6e 4e be 07 c3 eb 3e 1a 40 cc be 67 ca f0 be
       -0.20159182 0.46047232 -0.39892656 -0.4702942
000100 79 d3 86 3e d7 87 80 3e 93 ed 3c be 70 72 94 be
       0.26333216 0.25103638 -0.18450002 -0.2899356
000110 82 8a 9e 3e 1d ed 90 3e e7 cd 30 be e3 b5 c6 3d
       0.30965048 0.28305903 -0.17266046 0.09702661
000120 42 50 b3 bd c2 99 19 3e 9b 05 69 3e a6 8f 23 3e
       -0.08755542 0.1500006 0.22756045 0.15972766
000130 40 2c 63 be 52 0e 5d 3e c4 eb d7 3e ad 24 ff 3e
       -0.22184849 0.21587494 0.42172062 0.4983267
000140 a4 df 66 bc b9 9d 73 bd fb 62 c0 be ca e3 0d bf
       -0.014091406 -0.059476588 -0.37575516 -0.55425704
000150 9e ce a7 3e 9d 3a a9 bd af 98 6a bd 3f 93 d5 3e
       0.32774824 -0.08263133 -0.057274517 0.41713902
000160 c2 03 b4 bd a0 c8 cc 3b 65 f5 03 3e 1c 55 b5 bd
       -0.08789779 0.0062495023 0.1288658 -0.08854124
000170 ea 44 56 3f 6b 36 ae 3e f9 d2 38 be 1c 38 f0 3d
       0.83698905 0.34025893 -0.1804923 0.11729452
000180 7f 65 4a 3e fc f0 97 be 53 c6 3f 3e 62 a3 80 3e
       0.1976528 -0.29676044 0.18727998 0.2512465
000190 f3 53 21 3e 23 67 40 3e f7 8c 68 bf c4 cc 41 be
       0.1575468 0.18789344 -0.90840095 -0.18925768
0001a0 00 ff 4f 3e 70 55 4a 3e 01 c4 4c 3e bb 36 9f be
       0.20312119 0.19759154 0.19996645 -0.31096444
0001b0 7b 14 3b 3d ef 6b c7 be 78 73 8d 3e 57 2c 0b be
       0.04567383 -0.38949534 0.27627158 -0.13591133
0001c0 8e cf 62 3e 3f 27 e5 bd 75 44 f9 3e 64 2f b1 be
       0.22149488 -0.11189126 0.4868504 -0.3460647
0001d0 2e 2e 6f 3e 3e 45 d2 3e eb bf 3a be a8 6d 75 3d
       0.2335746 0.41068453 -0.18237273 0.05991903
0001e0 7c f0 1d 3f c7 4c b1 3e 24 30 4d 3e 30 e8 c0 3e
       0.61695075 0.3462889 0.20037895 0.37677145
0001f0 c0 ff 07 bf ff 89 c7 3e 0a 8f 25 3f 6d 5e 06 3f
       -0.5312462 0.3897247 0.64671385 0.5248783
000200 e0 5e 76 bd 15 09 92 bd 76 8e b0 3e 5f 48 1a 3f
       -0.060149074 -0.071306385 0.3448369 0.6026668
000210 ba c2 0d 3f 41 31 7c be 6d 7f 1c be 84 e6 01 bf
       0.55375254 -0.24628164 -0.15282984 -0.50742364
000220 fd f2 14 3e 1a 53 f0 3e d7 ca 09 be 28 3f 9e 3d
       0.14545818 0.469384 -0.13456284 0.0772689
000230 ae 0b 6f 3e a0 e9 83 3e 9b da 0f bf d6 68 c7 3e
       0.23344299 0.2576418 -0.5619294 0.3894717
000240 7f 5e 92 be 7e 5a 00 bf d6 c6 91 3e 40 3f dc 3e
       -0.2858772 -0.5013808 0.28472012 0.43017006
000250 e0 d9 e3 3e 9e 6a 2f be 66 d9 7c bf 2b 5a 6f bf
       0.44502163 -0.17130515 -0.98769224 -0.9349696
000260 24 39 72 3e f6 36 1a be 98 d9 4e 3e 09 f7 ba bc
       0.2365461 -0.15060028 0.20200193 -0.022822874
000270 25 23 0a 3e aa 6c c2 be ab af b6 be b4 ea 3b 3e
       0.13489969 -0.3797353 -0.356809 0.18351251
000280 da ed bf 3f b7 88 3f 3f ab 63 d8 bd a8 57 80 3c
       1.4994462 0.74817985 -0.10565885 0.015666798
000290 76 79 a4 be 39 5f f9 bd ec c4 21 be ee 6b 16 bc
       -0.32123917 -0.121763654 -0.15797776 -0.009181006
0002a0 9f 05 8c 3f 0d 90 2c 3e 88 88 81 3e 82 ed a8 be
       1.0939215 0.16851826 0.25299478 -0.32993704
0002b0 47 c7 9e 3f 79 56 7f 3d 27 0c 10 40 e7 cd 5c be
       1.2404565 0.062338326 2.2507417 -0.2156292
0002c0 98 37 2e bf 93 62 15 3e fc eb 0a 3f 0f da a4 be
       -0.6805358 0.14588384 0.54266334 -0.32197616
0002d0 f0 c7 15 bc 8d 86 5b be 2e 1f 15 bf 9c 78 a7 bd
       -0.009141907 -0.21438046 -0.582507 -0.08177301
0002e0 dd 77 0a 3f c1 f4 ea 3d 5b b9 93 3e c8 8a 44 3e
       0.54089147 0.11472464 0.28852352 0.19193566
0002f0 b2 af ef 3e b3 bd 6f bf c7 fe 52 3f 0a a3 89 be
       0.46813732 -0.93648833 0.8242001 -0.268822
000300 15 49 f4 3d 76 70 72 3d c9 b9 06 bd ec c9 d9 be
       0.11928002 0.059189282 -0.032892022 -0.42536867
000310 3c 28 40 3d af 36 fa 3d f0 05 83 3e 03 64 1f 3f
       0.04691337 0.12217461 0.25590467 0.6226198
000320 db f6 a0 3e 31 0c 76 bd 23 57 5b be 13 4a 98 be
       0.31438336 -0.06007022 -0.21419959 -0.29744014
000330 01 c3 e3 be ab 2f 28 3e 64 df 2a 3d 71 d4 06 be
       -0.44484714 0.16424434 0.04171695 -0.13166977
000340 51 d0 c3 3e e8 92 8a 3e e0 c7 f8 3e 3e 6c 1d 3f
       0.3824487 0.27065206 0.48589993 0.6149329
000350 5a 61 a2 bd cb ee 95 bd 40 7d 04 3d cb 42 c0 be
       -0.079287246 -0.07320937 0.03234601 -0.3755096
000360 5e e7 46 3e e6 0f 60 3c 79 e7 9a be 2d 54 9f be
       0.19424197 0.0136756655 -0.30254725 -0.3111891
000370 c7 50 8a bd 06 6d 5a 3e 4e 08 80 3f cb 0e cd 3e
       -0.06753688 0.21330652 1.0002534 0.4005035
000380 8d 80 93 3e 3e 97 c0 3d 00 3c 05 bf 78 a7 0a bf
       0.28809014 0.09403847 -0.5204468 -0.5416179
000390 76 f2 d9 be b5 bb ed be a0 94 31 3f b9 3a 01 3d
       -0.42567796 -0.46432272 0.6936741 0.031550143
0003a0 69 97 c2 be 69 ff 0d bd 59 88 09 bf 2f be 49 3c
       -0.38006142 -0.034667406 -0.53723675 0.01231341
0003b0 e8 6d 65 3e a4 96 6c 3f 0a 8a bb be 3b 0a e5 be
       0.22405207 0.9241736 -0.36628753 -0.44734368
0003c0 4a 84 1b 3f 99 ba 2f 3e 6a 08 38 be 93 1b 39 be
       0.6074873 0.17161025 -0.1797196 -0.18076925
0003d0 eb 9e ae 3d 2f ae 9f 3e 8e f2 19 3f 0e 93 1c 3f
       0.08526405 0.3118758 0.60135734 0.6116189
0003e0 1e 47 e7 3d cd 15 92 bd a2 9a 17 3e a9 4d 32 3e
       0.112928614 -0.071330644 0.14805081 0.17412437
0003f0 28 13 e9 be da f2 d4 3e 3d ee 4b 3e 9d 24 47 be
       -0.45522428 0.4159153 0.199151 -0.1944756

Q1.head.module_4.att_src f4 [1, 1, 16]
000000 a4 f1 2e be 28 8d 98 3d b8 79 5b 39 5b 3a 05 bf
       -0.17084366 0.074487984 0.00020930811 -0.5204217
000010 63 74 41 be 0a f7 b9 be 04 18 07 3f c7 bf 01 bf
       -0.18892054 -0.36321288 0.5277102 -0.50683254
000020 80 fb 15 3d 30 ce 73 be e7 14 43 bf 78 48 e2 be
       0.036616802 -0.23809123 -0.7620377 -0.44195914
000030 ab 51 02 bf 85 70 a2 be 1c c6 b0 3b 8e 98 30 3e
       -0.50905865 -0.3172647 0.00539471 0.17245695

Q1.head.module_4.att_dst f4 [1, 1, 16]
000000 1b bf be 3e 57 e1 09 3f e7 82 97 3e bc 9a b8 3c
       0.37255177 0.53859466 0.29592058 0.02253472
000010 23 67 49 3f 7a ce 38 bf c3 bb 5b bf c8 41 a8 3e
       0.78673 -0.7219006 -0.85833377 0.32862687
000020 5b 5e 88 3e 43 53 98 3d 74 5c 05 3e 1d bf 03 bf
       0.26634488 0.07437756 0.1302355 -0.5146349
000030 f9 d4 71 3e 86 b0 26 bd 01 2b a8 3e 8c dd 7c bf
       0.23616399 -0.04069569 0.3284531 -0.98775554

Q1.head.module_4.bias f4 [16]
000000 a5 06 2b 3e ab 7b 74 3d f6 9d f7 3d 4e 8d de 3d
       0.16701753 0.05968825 0.120906755 0.108667955
000010 e6 5d b9 3b 27 d1 ae 3b 31 66 1e be 0e b9 05 be
       0.0056569455 0.0053349915 -0.1546867 -0.13058874
000020 78 7a 66 bd b2 a2 01 3e 0b 58 82 3e 49 bd ef bd
       -0.05626914 0.1265972 0.25457796 -0.11706025
000030 61 b8 16 3e 73 ef 17 3e 5f d2 05 3e 63 af 93 3e
       0.14718772 0.14837436 0.13068531 0.28844747

Q1.head.module_4.lin.weight f4 [16, 16]
000000 b1 33 1d bf 7a ba ca be 0e d1 ed 3d c8 aa 00 3d
       -0.61407 -0.39595395 0.1161214 0.03141287
000010 66 dc bd 3e 0c 44 99 3e dc 22 12 bf 8e 30 6c 3e
       0.37082213 0.29934728 -0.5708444 0.23065397
000020 0c 04 a4 be a2 78 08 bf 2c 53 82 bd 78 d6 c3 be
       -0.32034338 -0.5330907 -0.0636352 -0.38249564
000030 b0 71 a7 bd e8 4a ac bb 45 c1 d8 3e 66 61 00 3e
       -0.08175981 -0.005257953 0.42334953 0.12537155
000040 70 ba 0a 3e f2 da 32 3e 50 01 a8 bb dc 27 a8 bd
       0.13547683 0.17466334 -0.0051271096 -0.082107276
000050 79 78 fe 3e a3 bf a3 bb 13 f2 be 3e 33 c7 f1 3e
       0.49701288 -0.00499721 0.37294063 0.4722229
000060 28 d6 03 3f d4 23 96 be 3a c4 32 be d7 59 46 bd
       0.5149865 -0.2932421 -0.17457667 -0.04842552
000070 f5 a7 2a 3e ad e0 ca 3e 6a 13 e6 be 23 d2 78 3e
       0.16665633 0.3962454 -0.44936687 0.24298911
000080 1e 29 5d 3d 1e 83 54 bf 96 d5 40 3f 2b 25 ee bc
       0.05399429 -0.8301257 0.75325906 -0.029070457
000090 59 1a af 3d 9d ef a8 3e d2 20 23 3e 66 c9 a4 3e
       0.08549947 0.3299531 0.15930489 0.32184905
0000a0 3e d9 06 3e 89 f4 94 be 6a 87 b3 3e 73 1c c2 3d
       0.13168809 -0.29092816 0.3506425 0.094780825
0000b0 3e 16 01 3f 3d 2a 99 be 70 f6 35 bf c6 23 d8 3e
       0.50424564 -0.29915038 -0.7107916 0.42214793
0000c0 33 63 8e bc 5a 97 34 be ba 7b 92 3e ef 3d 98 3e
       -0.017381286 -0.17635861 0.2861002 0.29734752
0000d0 97 1f 68 3e 4b 14 88 3d 7f 32 23 bf 31 03 66 3d
       0.226683 0.066444956 -0.63748926 0.056155387
0000e0 7a 60 94 bd af 2f 9c be 21 0b 4e bf e1 92 da be
       -0.07244964 -0.3050513 -0.8048573 -0.42690185
0000f0 9c 2f 80 3e b8 90 94 be 92 da 05 3f f9 50 34 3e
       0.25036323 -0.29016662 0.52286637 0.17609014
000100 3b e9 52 3c a4 d9 0e bf 92 32 af be d5 61 10 bd
       0.012872989 -0.55800843 -0.3421827 -0.03524955
000110 20 58 fd 3c b5 f5 54 be 75 c9 ba 3d 2a 3a a1 be
       0.03092581 -0.20796855 0.09120456 -0.31489688
000120 d7 6e 11 bf 2b 88 28 bf 38 20 54 3e a0 06 95 be
       -0.56809753 -0.65832776 0.20715415 -0.29106617
000130 92 cf a4 3e 98 84 e5 bd 16 96 fb bc 7e 9f 83 3e
       0.32189614 -0.11206931 -0.030711215 0.2570762
000140 75 be 0b be 82 c5 8b 3e a4 88 86 bf 73 44 ab 3e
       -0.13646872 0.27299124 -1.051045 0.3345066
000150 a9 3c a1 3e d7 ca f5 be 4c 88 9f be 9a 26 c5 3e
       0.31491593 -0.48006317 -0.31158674 0.38506013
000160 9c f2 f3 3e b5 26 97 3e 56 b3 30 bf 08 1e d3 be
       0.47646034 0.2952172 -0.69023645 -0.4123385
000170 d2 f5 d4 be 0e a0 30 3e f3 c5 e7 bd ae 06 ea be
       -0.41593796 0.17248556 -0.11317053 -0.4570822
000180 8a 3b fa bd a4 38 48 3f 9d 6a 3b bf ff 3f 6d bf
       -0.122183874 0.78211427 -0.73209554 -0.92675775
000190 99 a8 8e 3e e3 09 3b 3e 2a fd 80 3c 58 8e 9d be
       0.27863005 0.1826549 0.015745718 -0.30772662
0001a0 ff 59 34 3e b7 c0 43 3f 98 07 87 bd 66 f4 80 3f
       0.17612456 0.76465935 -0.06593245 1.0074584
0001b0 08 e2 07 3d 88 11 0b 3d d6 72 3d bf 6a 38 2c bf
       0.033174545 0.033952266 -0.7400335 -0.6727358
0001c0 d4 c9 3a be 0c 91 8a 3e ff d2 dc 3e df 6a 6c 3f
       -0.18241054 0.27063787 0.43129727 0.9235057
0001d0 da f0 b2 be 15 09 05 3e 5e ea 02 bf 09 e8 00 bd
       -0.3494938 0.12991746 -0.51138866 -0.031471286
0001e0 1c 4a 8a be a7 6b fa be c1 a3 3d be af df ed be
       -0.27009666 -0.48910257 -0.18519498 -0.4645972
0001f0 8d 5b 0a 3f a1 92 66 be 39 64 84 3e b9 c1 bb be
       0.54045945 -0.22516872 0.25857714 -0.36671236
000200 0f 82 10 3d b3 5d eb 3e 1b a0 f9 3e 36 b4 46 be
       0.035280284 0.45969924 0.48754963 -0.19404683
000210 cc 7a 8f 3e f0 f8 ed 3d 7f a6 27 3f c9 6d dc 3e
       0.28023374 0.11619747 0.6548843 0.4305251
000220 89 77 9d 3e ae 60 d0 3e 1b ee 3e 3f 75 47 fe 3d
       0.3075526 0.4069876 0.7458207 0.12415973
000230 37 ea f9 be d0 9b 93 3e 8a d0 8a be e5 25 e2 be
       -0.48811504 0.28829813 -0.27112228 -0.44169536
000240 4f d2 ee be 86 bb 33 bf ac 15 18 3f 12 9d da 3e
       -0.46644828 -0.70208013 0.5940807 0.4269796
000250 18 b1 d7 bd ba 93 34 3e 16 95 ac be db 38 f6 3e
       -0.10531825 0.17634478 -0.33707494 0.48090252
000260 d3 69 fc be 41 88 23 bf e2 40 20 be 6f 64 45 be
       -0.49299487 -0.6387978 -0.15649751 -0.19276594
000270 f4 c1 f2 bd 74 fd 86 3e 95 46 4a 3e f2 76 9e bc
       -0.118534 0.26365244 0.19753487 -0.019343827
000280 2f ac de be 17 59 9b be f3 91 99 3e c4 2d de 3e
       -0.4349074 -0.30341408 0.29994163 0.4339429
000290 da d5 5c 3d 73 89 19 3e fb cd 46 bf 57 5d d2 be
       0.053914882 0.14993839 -0.7765805 -0.41086838
0002a0 ce 28 92 be c7 b9 07 3e 5a dd 17 bf 22 6b 47 bf
       -0.28546757 0.13254462 -0.5932213 -0.77897847
0002b0 62 c0 06 be fa 26 06 bf ff f2 07 3f f2 39 b1 be
       -0.13159326 -0.52403224 0.5310516 -0.3461452
0002c0 33 43 d3 be 89 26 00 bf ed 34 22 bf 3b 8a f7 bd
       -0.41262206 -0.500588 -0.6336201 -0.12086912
0002d0 b8 b9 28 be a9 dd 7e be 1e 24 b0 be 68 f8 2a bf
       -0.16477096 -0.24889244 -0.34402555 -0.6678529
0002e0 80 e3 a5 3e 39 69 8f 3d 70 9d 7b bf 6e 85 7f bf
       0.3240013 0.070024915 -0.98287106 -0.9981297
0002f0 1e e7 27 be 6f ca dd be 02 73 c5 3e 04 9a 21 be
       -0.16396758 -0.43318507 0.38564306 -0.15781409
000300 69 78 a2 bc 3c fe 3d bf af 79 30 3f 44 85 b6 3e
       -0.019832807 -0.74216056 0.68935674 0.3564855
000310 78 49 9e 3e ad ad f3 3e 0e 42 88 bd 6c 31 1f be
       0.30915427 0.47593442 -0.06653224 -0.15546197
000320 ed f1 11 be 25 e9 68 be 23 a5 33 be 1a 70 65 bf
       -0.14252444 -0.22745188 -0.17543463 -0.8962418
000330 37 ad 50 3f 2f cf c6 3e 8a fb c4 3e f2 df 3d 3f
       0.81514305 0.38829944 0.3847316 0.7416984
000340 e5 eb 5e 3d 70 62 7f be 88 1e cc b9 f1 85 f6 be
       0.054424185 -0.24939895 -0.0003893266 -0.48149064
000350 b1 77 75 3e a4 4b 3f bd b4 2c 19 bd 07 e8 d4 3e
       0.2397144 -0.046702996 -0.037396148 0.41583273
000360 de 2e 6c be 96 ed b6 be 5e f6 5a bf 5b 72 d6 be
       -0.23064753 -0.3572814 -0.85532176 -0.4188412
000370 71 75 ff 3e 67 9b 48 be d0 36 db be 81 35 a1 3e
       0.49894288 -0.19590531 -0.42815256 0.31486133
000380 4d da 32 bf fa 84 11 bf 1d 60 08 3f cb 23 fc bd
       -0.6986435 -0.5684353 0.5327166 -0.123115145
000390 79 17 12 be a9 aa 4e bd bf 07 a0 be 29 05 05 3e
       -0.14266767 -0.050455723 -0.3125591 0.1299025
0003a0 50 ff 09 bd d9 9b 1f bf 1c 48 89 3e 3d a8 6a bf
       -0.03369075 -0.6234718 0.26812828 -0.9166296
0003b0 c7 b2 cf 3e 8f 38 4e be dd bc 52 be 51 1d 1c 3f
       0.40566084 -0.20138763 -0.20579858 0.60982233
0003c0 53 ba 4b bf 6a d4 e5 3e a0 75 9f bf e3 8c 51 3e
       -0.79581183 0.44888622 -1.2457771 0.204639
0003d0 7d 09 f5 bd b7 97 1d be 07 7d 13 3f 77 9d e1 bd
       -0.119647 -0.15389906 0.5761265 -0.11016362
0003e0 b6 3e b5 3e 7f c0 cb bb d6 0f eb be cd d7 a2 3d
       0.35399407 -0.0062180157 -0.4591052 0.07951317
0003f0 f8 ec aa 3c 28 5f 13 3e bf ad 2a bd 53 dd 3f be
       0.020864949 0.14391768 -0.041669603 -0.18736772

Q1.head.module_6.att_src f4 [1, 1, 16]
000000 78 ff 04 3f 2d 12 e7 3e 3b e7 10 bf 0d 98 33 3e
       0.51952314 0.45131055 -0.5660283 0.17538472
000010 98 f9 c7 3e 2b f3 41 3e 57 40 d6 3e be fc 0a bf
       0.39057612 0.18940417 0.41845962 -0.54291904
000020 9d eb 09 3f 7b 8f aa 3e 35 08 da bf 12 85 8f 3e
       0.5387514 0.33312592 -1.7033755 0.28031212
000030 9f 27 79 3f 0f 07 54 bf 19 9d 8a bd 78 a6 3b bf
       0.9732608 -0.8282327 -0.06768245 -0.73300886

Q1.head.module_6.att_dst f4 [1, 1, 16]
000000 10 82 28 bf d7 80 b0 be 15 21 3f 3f 9f b1 00 be
       -0.6582346 -0.34473297 0.74659854 -0.12567757
000010 09 db 07 bf 91 3d 92 3e d6 4e 40 bf ce 37 f0 be
       -0.53068596 0.28562596 -0.75120294 -0.46917576
000020 cb b2 38 3e d1 b4 ae bd 42 c6 9e 3d 56 7a 0c 3f
       0.18036954 -0.08530582 0.077526584 0.5487417
000030 ab dd 74 3e 92 ac 74 be 3e d8 22 be 4c 88 d1 bd
       0.23912685 -0.23893955 -0.15902802 -0.10231075

Q1.head.module_6.bias f4 [16]
000000 2c 28 2d be 31 e9 fc bc c8 e2 ae 3d 4c f3 64 bd
       -0.16909856 -0.030872913 0.08539349 -0.05589609
000010 fb da 92 bd 66 d9 69 3d bd 2a 51 be ab 97 ae bc
       -0.071706735 0.057092093 -0.2042646 -0.021312555
000020 61 64 02 3e cd 09 af 3d a9 33 14 be ad 7f 33 3c
       0.12733604 0.08546791 -0.14472832 0.010955733
000030 04 85 4a 3e 27 1e 52 bd 44 00 7e bc d8 c4 96 bd
       0.19777304 -0.051298287 -0.015502993 -0.07361764

Q1.head.module_6.lin.weight f4 [16, 16]
000000 dc ef 3e bf 0b a9 20 be da 33 c8 3d 7c 63 1a bf
       -0.74584746 -0.15689485 0.09775515 -0.6030805
000010 9d 63 7f 3e 40 fa 46 3e 85 ec de 3e c2 94 c7 be
       0.24940343 0.194314 0.43539825 -0.3898068
000020 61 1e 11 3f 7a f8 81 bc eb 67 85 be bd 6e cc 3d
       0.5668698 -0.015865553 -0.26055846 0.09982059
000030 c5 9f 5a 3e 1d 7a 01 3e f0 48 f9 be e7 29 9d be
       0.2135001 0.12644239 -0.4868846 -0.3069603
000040 b2 69 d3 be df 02 e6 3c ac c7 96 3e d9 a2 2f 3b
       -0.41291577 0.02807754 0.29449213 0.0026799946
000050 56 c3 95 be ab d7 74 3e f6 bc 96 be c7 8d 27 3e
       -0.29250592 0.23910396 -0.2944104 0.16362678
000060 7a 3c c7 3e 8a e8 07 bf a1 06 e2 be f9 9d 6a 3d
       0.38913327 -0.530892 -0.44145682 0.05727956
000070 7f 82 d6 be cf 82 e7 be b4 af 35 bf 65 e9 0b be
       -0.41896436 -0.45216987 -0.70971227 -0.13663252
000080 00 74 bb bd d5 16 32 be 75 d7 21 3d c4 12 db 3e
       -0.091529846 -0.17391522 0.039512116 0.42787755
000090 02 de c9 3e 52 c7 41 3f 07 1d b1 be 75 7d 7b 3e
       0.3942719 0.75694764 -0.3459246 0.24559577
0000a0 f2 08 56 3e 1a 49 fc 3d 73 c5 0c be e2 16 0b bd
       0.2090185 0.123186305 -0.13747196 -0.03395737
0000b0 ab 1a 50 be 53 2e 40 3d 29 b8 1f be 2a c2 60 3f
       -0.20322673 0.04691918 -0.15597595 0.8779627
0000c0 6a 91 4a bf 2a 2f b7 3e ac 2b 61 be ea 38 5c bf
       -0.79128134 0.3577817 -0.21989316 -0.86024344
0000d0 45 f2 2f 3e d8 38 c8 3d a7 57 28 3f 19 2e d7 3d
       0.17182262 0.09776467 0.65758747 0.10506839
0000e0 ed 7d 1b 3e ea 76 91 be dc 0b 21 bf 94 48 58 be
       0.15184756 -0.28411037 -0.6290872 -0.21121436
0000f0 95 6c ef bd c3 87 87 be 49 0c 4e 3d aa bd ac 3d
       -0.11690632 -0.26470765 0.050304685 0.08434613
000100 94 87 cd be 48 cc 61 3d c8 17 f7 be a1 0b bc be
       -0.401425 0.05512646 -0.4826033 -0.36727622
000110 6f e4 ac be c8 3d 1c 3f b6 c2 1c bf 7d ba 7f 3d
       -0.3376803 0.6103177 -0.61234605 0.06243371
000120 a4 b1 3d 3d b6 6c 8c be 8d 25 4b be cb 13 81 3e
       0.04631199 -0.2742669 -0.19838543 0.25210413
000130 55 6a 4d be a6 b5 0e 3f 10 11 b9 be 80 00 9e be
       -0.20060094 0.55745924 -0.3614583 -0.30859756
000140 03 58 0a 3f ac 2d 0c be e2 27 bc 3e 9f 59 03 3f
       0.54040545 -0.13689297 0.36749178 0.51308626
000150 1e 2a 93 3e 0e 9a 55 bf f2 ae 06 bf ba 27 6c 3e
       0.2874307 -0.83438194 -0.52610695 0.2306203
000160 66 72 86 3d 80 aa f6 3e d7 c0 e6 be 39 a9 37 bd
       0.065647885 0.48176956 -0.45069 -0.044839118
000170 02 7d 3c 3f 46 a4 a9 3e 36 fe 1f 3f 3c d9 db bd
       0.73628247 0.33133143 0.6249727 -0.107347935
000180 a8 4b 1b bf 25 00 7b be 73 d4 ed bd a1 73 7d 3d
       -0.6066232 -0.24511774 -0.11612787 0.06187785
000190 f1 a1 4b bd 34 67 0d 3e 7f 23 68 3d 3d d5 86 bd
       -0.049714986 0.138089 0.056674477 -0.06583641
0001a0 71 81 f9 3e 1a a3 fe 3d cc 53 a3 be 36 21 17 3d
       0.48731568 0.12433453 -0.3189987 0.036896907
0001b0 34 65 fc be f1 20 05 bf 49 50 13 be 8d e5 2d bf
       -0.49295962 -0.5200339 -0.14386095 -0.6792839
0001c0 3e f4 12 3f 8b 10 e0 be 76 f4 53 3d 48 41 04 3e
       0.57403934 -0.4376262 0.051746808 0.12915528
0001d0 0b 5c ab 3d f9 9b 18 bf 5d 18 d3 3d f7 b7 e9 39
       0.08367165 -0.59612995 0.10307381 0.00044578288
0001e0 ba 79 3f bf 5e 61 ff 3e d0 e8 0e be 9d 6d 8e 3e
       -0.74795115 0.49878973 -0.13955998 0.27818003
0001f0 6d b1 cc 3e e7 96 d5 be c9 36 89 3e 45 8c 7a 3e
       0.39979115 -0.41716692 0.2679961 0.24467571
000200 86 3b 70 3e eb 88 77 3e b6 6a cf 3e 9a 9e 21 bc
       0.23460206 0.24173324 0.405111 -0.009864474
000210 cc 77 7b 3d 18 da 01 3e 95 c0 29 bf 09 6d 83 bf
       0.061393544 0.12680852 -0.6630948 -1.026765
000220 5e 14 c9 bd fa e0 5c 3e e3 bb ba be 4c 95 b8 be
       -0.09818338 0.21570197 -0.3647147 -0.36051404
000230 64 c9 9a be 25 5c 8e 3e 35 1b f9 be b1 a9 fd 3c
       -0.30231774 0.27804676 -0.4865357 0.030964704
000240 40 e8 93 3e 8c 10 06 3e e4 a8 86 3d 9f 9f bc 3e
       0.2888813 0.1309225 0.06575182 0.3684053
000250 c6 e2 3a 3e de f3 45 bf c9 1d 23 3e fd 0d 14 bf
       0.1825057 -0.77325237 0.15929331 -0.57833844
000260 1e fd b5 3e 12 50 e4 3e e2 49 50 be 8d 89 5e be
       0.35544676 0.4459234 -0.20340684 -0.21732159
000270 3d 9c 89 bd 97 23 bf bd 56 8d b7 3d 44 7b fb be
       -0.06719253 -0.0933296 0.089625046 -0.49117482
000280 ee f5 fc 3e 39 ac f6 be 7a be 2d bf b6 5f 1d bf
       0.4940638 -0.4817827 -0.6786877 -0.6147417
000290 09 c8 7e 3d c9 03 3d 3f 77 e4 80 3f 59 74 ea 3e
       0.062202487 0.738339 1.0069722 0.4579189
0002a0 67 93 f7 be 4e e2 12 bf ba 13 de 3e a0 11 77 3f
       -0.48354647 -0.57376564 0.43374425 0.9651127
0002b0 f2 4d fe 3e c0 b4 74 be 47 68 33 be e3 91 d2 3e
       0.49668843 -0.23897076 -0.17520247 0.41126928
0002c0 fc da c8 be da dd c3 3e 20 12 da 3e ad 79 9c bc
       -0.39229572 0.38255197 0.42591953 -0.019100988
0002d0 10 da 43 be 3c 71 11 be 92 b6 ae be a5 29 25 bf
       -0.19126153 -0.14203352 -0.34123665 -0.6451667
0002e0 19 58 97 be ab 47 d9 bd b3 74 cb be b4 fe ad 3c
       -0.295594 -0.10609373 -0.39737472 0.021239616
0002f0 14 c1 a7 3e 4e 97 85 3e 45 c3 96 be a0 b2 98 3e
       0.32764494 0.26092 -0.29445854 0.2982378
000300 10 e8 a2 3e 56 f1 dd 3e 57 2d bb 3e 82 f5 b0 3e
       0.31817675 0.43348187 0.3655803 0.34562308
000310 15 ea 83 3e f2 22 5e be 34 30 a9 bf 35 79 30 bf
       0.25764528 -0.21693018 -1.3217835 -0.6893495
000320 43 56 87 3e 28 e7 c0 be 03 67 90 bf 79 de 1a bf
       0.26433 -0.37676358 -1.1281437 -0.60495716
000330 a2 fe 0c be 6d f5 2c 3f 2f c7 7a 3e 7c 4d 42 3e
       -0.1376901 0.6756199 0.24490045 0.1897487
000340 d1 8a 86 be ee 30 36 bf 08 be 62 bf fa ea 24 bf
       -0.26277784 -0.7116841 -0.88571215 -0.64421046
000350 24 a4 21 be 90 5d c3 3e 8f f1 00 40 c6 38 26 3f
       -0.15785271 0.3815732 2.0147436 0.6493038
000360 77 51 8e be 16 38 22 be 88 86 20 3f 47 6a 88 3f
       -0.27796528 -0.15841708 0.6270528 1.0657433
000370 f6 f5 c6 3e 66 53 0d bf 69 01 ef be 00 0b 88 3f
       0.38859528 -0.5520538 -0.46680763 1.0628357
000380 3b 26 d5 be 45 a5 c2 3e dc 90 41 be de 1e 03 bf
       -0.4163073 0.38016716 -0.18902916 -0.51218975
000390 a2 0c a2 be 40 ee 21 3f cb 98 3b bf b2 a1 e2 bd
       -0.31650263 0.63254166 -0.7328002 -0.11065997
0003a0 60 59 c9 3e 6b 9c 36 bf 97 db 8a be b5 cc ca be
       0.39326 -0.71332425 -0.2712066 -0.39609304
0003b0 db 2c 4a bf 54 c2 24 be 0c 18 46 be 61 c7 04 3f
       -0.78974694 -0.16089755 -0.1934511 0.5186673
0003c0 6a d5 c4 be fb c6 00 bf d9 8e a3 be 99 36 a8 3c
       -0.38444072 -0.5030362 -0.31944922 0.020533847
0003d0 28 b9 98 3d cf 9e 44 bd 7e 24 40 3f ff b6 b2 3e
       0.07457191 -0.048003014 0.7505568 0.3490524
0003e0 0d d2 74 bf f2 b1 03 3e 2a 2e 3e 3b d2 2e 77 3f
       -0.9563301 0.1286085 0.0029019215 0.9655582
0003f0 23 3f 3c 3e d4 55 8d be 37 3a 52 3d 22 45 7f 3f
       0.1838346 -0.27604544 0.05132505 0.99714863

Q1.head.module_8.att_src f4 [1, 1, 16]
000000 f5 e9 c6 3e 43 64 89 bf 1b 76 eb be f0 ce 04 bf
       0.3885037 -1.0733722 -0.45988545 -0.5187826
000010 54 fb 70 3c 93 06 20 be 5c d3 45 3f a8 89 10 3f
       0.014708359 -0.15627508 0.77275634 0.56460047
000020 c3 18 5a 3e 69 55 c5 3e 53 45 82 bf 2a 68 7d be
       0.21298508 0.38541725 -1.0177406 -0.24746767
000030 c4 fd 6a 3e 29 58 8a 3f b4 b5 a1 3f 79 35 e8 3f
       0.22948366 1.0808154 1.2633576 1.8141319

Q1.head.module_8.att_dst f4 [1, 1, 16]
000000 fa 26 4b 3e 56 ae 26 3f ea 1b 41 3e 2e 89 80 3f
       0.19839087 0.65109766 0.18858305 1.0041864
000010 b1 44 c0 3e 34 8d 2c 3e f2 9b 74 3f 2f 76 bb be
       0.37552407 0.1685074 0.95550454 -0.36613604
000020 e6 2a 59 3c ad ce 72 3e 56 25 d1 bd 92 fd a9 3e
       0.013254857 0.23711653 -0.102121994 0.3320127
000030 78 fb 86 3f b6 7e 5c be 13 08 86 3f b5 09 a9 3f
       1.0545492 -0.21532711 1.0471214 1.3206087

Q1.head.module_8.bias f4 [16]
000000 ad 5a f4 3c c9 fb 14 be 72 fe 11 3c 7d 08 35 3e
       0.029828394 -0.14549173 0.008910762 0.1767902
000010 7f cc bd 3d f7 56 c5 bd 4b 05 83 3d 6f 53 16 be
       0.0926752 -0.09635728 0.06397494 -0.14680265
000020 51 01 31 3b 29 d7 21 3d 5a 93 06 3e 09 0d 37 bc
       0.0027008841 0.039511833 0.13142148 -0.011172541
000030 94 88 0a 3e aa 07 53 be af f6 13 3d 4b 34 58 bc
       0.13528663 -0.20608392 0.036123928 -0.013196061

Q1.head.module_8.lin.weight f4 [16, 16]
000000 66 a8 63 3e 95 0d 42 bf 5b 90 66 be cd fb ee 3d
       0.22232208 -0.75801975 -0.22516005 0.11669121
000010 2a 5f 14 bf 7a 03 9f 3e 28 3a 11 3e 42 b2 38 3e
       -0.5795771 0.3105734 0.14182341 0.1803675
000020 54 22 c3 be 54 90 1f 3e 4e b9 73 bd b7 04 59 3d
       -0.38112128 0.155824 -0.059502892 0.052983012
000030 c7 df a6 3e 20 30 e5 3e 44 69 19 3e 0f de 92 bd
       0.32592604 0.4476328 0.14981562 -0.071712606
000040 31 2b 4c bf 88 f7 57 bf b1 83 a9 3e 54 56 04 bf
       -0.79753405 -0.8436208 0.33108285 -0.51694226
000050 6b 84 54 3b d5 ba 91 3e a8 92 f4 3c 44 cb 26 3f
       0.003242756 0.28462854 0.029855087 0.6515391
000060 be 94 43 be 8a 07 8e be 92 e5 fc 3e 8f b1 ee be
       -0.1909971 -0.27740127 0.49393898 -0.4661984
000070 da b4 14 bf 4c 2d aa be e0 79 5a bf c7 e8 41 3f
       -0.5808846 -0.33237684 -0.85342216 0.75745815
000080 a5 c6 de 3d d0 44 29 be dd 99 cf 3e 92 7e 9c be
       0.10877732 -0.16530156 0.40547076 -0.30565315
000090 c0 af ed be 40 f4 fc 3e 9d c2 e9 3e aa 88 81 3f
       -0.4642315 0.49405098 0.4565629 1.0119832
0000a0 6e 8c 8f be 9a bc 2a be fd 8a 40 be f4 7d a1 be
       -0.28036827 -0.16673508 -0.1880302 -0.31541407
0000b0 3d 99 a8 3e ae 78 25 bf 1e 32 44 bf 96 e7 00 3f
       0.32929412 -0.6463727 -0.7663897 0.5035337
0000c0 0b 94 24 bf fc ce 1f be 30 d7 7d 3e e5 65 c5 be
       -0.64288396 -0.15606302 0.24789119 -0.38554302
0000d0 b1 ac 0b 3f 2a b8 e5 3e 12 9e c2 be 1a 74 d6 be
       0.5456038 0.4486707 -0.38011223 -0.41885453
0000e0 54 8a 37 3e 2a 53 01 3e 55 57 ad be d0 0d c9 bd
       0.17923862 0.12629381 -0.33855692 -0.09817088
0000f0 f7 ce ee 3e 24 de cd be 3c ba be be b9 ed ee be
       0.46642277 -0.40208542 -0.3725146 -0.46665743
000100 e2 16 f1 be 3d 3d e5 be a8 49 20 3e ec 36 53 3e
       -0.4708777 -0.44773284 0.15653098 0.2062642
000110 a0 53 00 bf bf 99 0c 3e 3f df 61 3e 98 5a 30 be
       -0.501276 0.13730524 0.22057818 -0.17222059
000120 d3 db 5e be 4d da 60 3e 57 63 30 be c4 e2 ef bc
       -0.21763544 0.21958275 -0.17225395 -0.029282935
000130 5f 94 d9 3e ae bb a3 be d0 a0 44 be 63 33 82 3e
       0.4249601 -0.31979126 -0.1920197 0.2542983
000140 5b 2a c4 be 14 82 43 3e fe 90 4a 3d 2b c5 00 bf
       -0.38313565 0.1909259 0.04945468 -0.50300854
000150 34 db 58 bd a6 17 e2 be fe b9 c8 be 12 94 f6 be
       -0.052943423 -0.44158667 -0.392044 -0.48159844
000160 59 e5 c9 bd 55 d7 da be f9 97 bb be a6 45 62 3d
       -0.09858198 -0.4274241 -0.36639383 0.055242203
000170 a2 f2 8d 3e d3 9b 9f 3f 53 36 cc 3e dc cd 0a 3d
       0.27724177 1.2469429 0.39885196 0.03388773
000180 97 5a 37 3d 9d 43 1a be 02 d8 48 be 29 33 d8 3d
       0.044764128 -0.15064855 -0.1961365 0.10556633
000190 52 99 f9 3e 40 ec b3 3e 46 2b ad be 15 4d bf be
       0.48749787 0.35141182 -0.33822078 -0.37363496
0001a0 93 b6 e3 3e b4 7c e4 3e 2c 1d a8 be fa ae 95 3e
       0.4447523 0.4462639 -0.32834756 0.2923506
0001b0 5b 76 a8 3e ff d2 98 3e c7 c4 d0 be 19 c9 6b 3e
       0.32902798 0.29848477 -0.4077513 0.23025931
0001c0 ad 74 ae 3d 57 11 17 3f 78 df da 3d d6 2f b6 3e
       0.08518348 0.59010834 0.106871545 0.3558337
0001d0 71 cb b4 3f 26 57 01 bf 36 fd 1e 3e 6b 7c b8 be
       1.4124585 -0.505236 0.1552628 -0.36032423
0001e0 df 59 f6 bd 91 0d dc be 89 2a e6 3e 8f a1 9c be
       -0.1202886 -0.429791 0.44954327 -0.3059201
0001f0 2a 9e 2f 3e 1c ba 40 3f 2d 90 ab 3e e0 dd a2 be
       0.17150179 0.7528398 0.33508435 -0.31809902
000200 63 3d 44 bf 17 80 f5 3e 08 74 89 3e 09 c4 cb be
       -0.7665617 0.47949287 0.26846337 -0.39798
000210 b0 91 34 3f 66 3a 91 be 62 03 85 3d a2 89 6c be
       0.705348 -0.28364867 0.06494786 -0.23099378
000220 2f 91 45 bd a1 23 3f 3e 58 cc 7c be 7b 2b 6d be
       -0.04823416 0.18665935 -0.24687326 -0.23161118
000230 98 b5 d0 bd b3 57 68 3f bd 79 07 3f 94 58 8c 3e
       -0.10190886 0.9075882 0.5292013 0.2741133
000240 38 20 97 3e 7e 06 87 3d 27 0a f0 3e 01 ce 83 3e
       0.29516768 0.06593035 0.46882746 0.25743106
000250 42 5b 1c 3f 82 6a a8 be d5 65 31 3e 50 49 17 bf
       0.6107675 -0.3289376 0.17324002 -0.5909624
000260 1c 05 91 3d a5 fc 91 be 86 d4 e2 be d6 1b 20 3f
       0.07081053 -0.28513065 -0.44302768 0.62542474
000270 e9 e3 0f 3e d5 ea eb 3e 11 85 4f 3e 06 65 df 3d
       0.14051785 0.460776 0.20265605 0.109079406
000280 df e6 0e bf 24 b6 12 bf 4e 91 15 3f 63 4c aa be
       -0.5582103 -0.57309175 0.5842484 -0.33261403
000290 5b e3 4e bf 08 b6 99 be 47 d2 a3 be 95 94 f3 3e
       -0.80815667 -0.3002169 -0.31996366 0.47574297
0002a0 a0 ac dc 3e 5f 47 6a be e7 74 51 be e0 f8 de be
       0.43100452 -0.22878788 -0.20454751 -0.43549252
0002b0 8d 5a 05 3e c9 29 41 bf 78 b0 1f 3f b2 eb 88 be
       0.13022824 -0.75454384 0.62378645 -0.2674232
0002c0 95 02 9b bf 4b d2 9c bf cd 78 90 be ff 78 3c bf
       -1.2110163 -1.2251676 -0.28217164 -0.73622125
0002d0 8c fd 4c 3e 36 5f ca 3e f3 7d 1d bf 82 74 fd be
       0.20018595 0.39525765 -0.6152031 -0.4950295
0002e0 b7 c5 93 3d 3b 5d 08 3f d4 2c dc be 25 5c 00 3e
       0.072154455 0.5326726 -0.4300295 0.1253515
0002f0 5a ad b1 be ff 71 0b bf 63 4a 7c bf 61 ab 16 bf
       -0.3470257 -0.5447082 -0.98551005 -0.58855253
000300 5a 0b 64 be 41 9e ba 3e cf 1f 7f 3c 0c ba 4d bf
       -0.22269955 0.36448863 0.015571549 -0.8036201
000310 35 c8 a5 be 16 a5 b7 be 17 ce 16 3f 18 d7 d5 be
       -0.32379308 -0.35868138 0.5890822 -0.41765666
000320 55 2c 16 3f 2d a6 80 3e 6e e7 3e bd b7 dc d6 3e
       0.58661395 0.25126782 -0.046607427 0.41965267
000330 8c 0b 1a 3f ff 00 11 be 4e 5d 23 be dc 42 c5 bd
       0.6017387 -0.14160536 -0.15953562 -0.09631893
000340 1f 9d ed 3e e3 44 5e 3f f4 e5 ae bc c5 23 2c 3f
       0.46408936 0.8682386 -0.021349885 0.6724208
000350 b1 35 77 3f 73 74 30 3e a3 63 58 3f a0 12 20 bf
       0.965663 0.17231922 0.84527034 -0.6252842
000360 fe e3 73 bd 91 77 d8 be 8d 7f 08 be a0 31 14 3e
       -0.059543602 -0.42278722 -0.13329907 0.14472055
000370 53 23 a2 be 06 95 7c 3f f5 32 04 3f d6 5c e6 3d
       -0.31667575 0.9866489 0.51640254 0.11248176
000380 fc a0 9a be 2f cc 13 bd 65 64 9e 3e ac ef 49 bd
       -0.30200946 -0.036083397 0.3093597 -0.049300835
000390 94 15 2e bb a1 69 2c 3d 24 76 2c be 86 b5 06 3f
       -0.0026563155 0.042092923 -0.16841942 0.5262073
0003a0 32 e4 12 3e 32 2d 92 3e 6b f4 b0 be 89 f3 c2 be
       0.14344862 0.28550106 -0.34561476 -0.38076428
0003b0 23 61 ac 3e 30 34 10 3e ff 41 3d 3f ec 58 aa be
       0.3366786 0.14082408 0.7392883 -0.33270967
0003c0 96 77 ab be 38 f7 f0 3e 03 34 73 be 57 0e 21 bd
       -0.33489674 0.47063613 -0.2375031 -0.039320316
0003d0 34 fa 64 3f c6 bf e7 3e 50 e2 89 be fa d5 3d bf
       0.8944428 0.452635 -0.26930475 -0.7415463
0003e0 93 4d fb bd e8 10 3b 3e 8c 56 cc bd 2a e4 55 3e
       -0.122706555 0.18268168 -0.09977445 0.20887819
0003f0 9c cf af bd 49 c9 78 3f ee ea 82 3e 55 9e ce 3e
       -0.0858452 0.97182137 0.25569862 0.40355173

Q1.head.module_10.att_src f4 [1, 1, 16]
000000 10 7f 5e be 79 12 4a 3e a5 b8 0d 3f 09 c0 ca be
       -0.21728158 0.1973361 0.5535987 -0.39599636
000010 32 6f 45 bd ea 93 36 3f dd 95 17 3f e8 a3 b1 bd
       -0.048201747 0.7131945 0.5921305 -0.08673841
000020 7a 74 41 3e d8 6c a9 3d 7a 6a 7a bd 01 1a 88 3e
       0.18892089 0.082727134 -0.0611367 0.2658234
000030 cc b7 ae 3e 42 be 0d 3f d9 33 ba be 29 ed 1d 3f
       0.341246 0.55368435 -0.36367682 0.6169

Q1.head.module_10.att_dst f4 [1, 1, 16]
000000 2c 05 e3 bb 36 86 ba bd 04 b3 e6 3e fe d3 0f be
       -0.006928107 -0.0910763 0.45058453 -0.14045712
000010 2c 3e b7 3e b3 ab 76 bd 51 31 9e 3e 6d 48 76 3d
       0.3578962 -0.06022234 0.30897 0.060127664
000020 a6 e9 1d 3f 25 78 fd 3e a4 60 b1 be 14 62 27 3f
       0.61684644 0.49505726 -0.34644043 0.6538403
000030 31 7d 50 3e 46 d5 3e 3f 85 43 41 3f 79 b4 e5 be
       0.20360257 0.7454418 0.7549365 -0.44864252

Q1.head.module_10.bias f4 [16]
000000 4d 65 32 be 61 be 38 3d f5 c5 26 3c a3 39 be bd
       -0.17421456 0.045103434 0.010179033 -0.09288337
000010 01 c3 08 be 51 a3 9e 3d b2 ee f1 3d ca f2 47 be
       -0.13355638 0.07745994 0.11813106 -0.1952621
000020 e2 d6 e5 3b d0 ca 15 bd 53 2f 57 bd 2f e8 9b 3d
       0.0070141414 -0.03657037 -0.052535366 0.07612645
000030 3d d7 4f be 1e 86 f5 3d 10 e6 81 bd a9 3c ae bd
       -0.2029695 0.119884714 -0.06342709 -0.08507664

Q1.head.module_10.lin.weight f4 [16, 16]
000000 f0 2c 84 3c aa 84 42 be d7 db d3 bd 2b b0 e5 be
       0.01613471 -0.1899592 -0.103446655 -0.44860968
000010 6c 46 a3 3e f2 bf 43 3e dd b8 61 be 08 29 75 3d
       0.31889665 0.1911619 -0.22043176 0.059853584
000020 66 f0 9b 3e d1 02 b4 3e d9 72 4a bf e8 12 3a be
       0.30456847 0.351584 -0.79081494 -0.18171275
000030 96 bf d1 3d 7a df e0 3e 38 a7 d1 be 61 82 e8 bd
       0.1024162 0.439205 -0.4094789 -0.11352993
000040 36 66 a1 3e 8c 25 ab bd 66 b3 57 be ea 33 e2 3e
       0.31523293 -0.08356771 -0.21064529 0.44180232
000050 da e2 af 3d 38 1e 27 bf 36 75 a9 3d eb b1 eb bf
       0.085881904 -0.65280485 0.08274309 -1.8413671
000060 5b 8f d9 bf 76 95 fa bf 49 fd d3 3e 93 80 e1 3e
       -1.6996874 -1.9576862 0.4140418 0.44043407
000070 69 b9 cd be 88 e4 2b be 6c 79 76 3e e4 9a 3a be
       -0.4018052 -0.16786397 0.24069756 -0.18223149
000080 0f 8e 35 bd 25 88 55 3e e1 a1 c4 3d 5f e2 db 3e
       -0.04432493 0.20852716 0.096011885 0.42946145
000090 0d 7d ee 3e a5 ae 94 be 64 57 0e 3f 30 85 99 be
       0.4657978 -0.29039493 0.556021 -0.29984426
0000a0 f9 ba 1e be 87 f1 37 bf d8 79 6f be ea b7 b0 3e
       -0.15501012 -0.71852916 -0.23386323 0.34515315
0000b0 2e 59 92 be b2 7e 30 be fa b8 d3 bd 1e 81 36 3e
       -0.28583664 -0.1723583 -0.10338016 0.17822692
0000c0 a9 b7 96 be 51 fd ad be 63 25 f3 3e ab 86 34 3e
       -0.29436997 -0.33982328 0.4748946 0.17629497
0000d0 b9 e6 bf be 4f 98 ef 3e 7b db 8b bd 6b 80 93 3e
       -0.37480715 0.4679589 -0.06828972 0.28808913
0000e0 f6 2d e5 3e d0 28 21 3f 86 fb 59 3c 23 62 d7 bd
       0.44761628 0.629529 0.013304597 -0.10516765
0000f0 61 6a c0 3e 22 2c c0 3d 7b 13 f4 3a 91 b7 b3 3e
       0.3758116 0.09383418 0.0018621528 0.35100988
000100 de f2 ec be 45 e5 8a 3e 93 5f 93 be 6e f7 b5 bd
       -0.46279043 0.27128044 -0.28783855 -0.08885084
000110 3d 64 9c be 25 ed b3 3d 2f 9e d7 be af 1b 3f be
       -0.30545226 0.08785466 -0.42112872 -0.18662904
000120 0c cb c7 3c 92 28 b9 3c 4e 38 2c bf 22 df b3 3e
       0.024388812 0.022602353 -0.67273414 0.35131174
000130 85 e9 cd be 01 5c 09 be b5 1d 07 bf 8d 14 17 3f
       -0.40217224 -0.13414003 -0.52779704 0.59015733
000140 d7 3a 8c 3e 9b fe 4b be 8c 5f 95 be e3 7b 0c 3f
       0.2738864 -0.19921343 -0.2917446 0.54876536
000150 e0 27 20 3f 5a 89 88 be da f8 46 3e 9b 49 d0 be
       0.62560844 -0.2666729 0.19430867 -0.40681157
000160 74 20 1c 3e 2c 6f d1 be 97 fe 04 3f 08 b5 2f 3f
       0.15246755 -0.4090513 0.51950973 0.68635607
000170 62 03 92 3e a0 7a cd be fe 84 02 3e f7 5a 36 3e
       0.28518206 -0.40132618 0.12746045 0.17808138
000180 2d 16 1e be c2 85 cc be 9c 98 2e bc 88 e6 d2 3e
       -0.15438147 -0.399458 -0.010656502 0.41191506
000190 1f 41 d7 bd 8d e5 08 3f cd 44 9f 3d ba fd fe 3b
       -0.10510468 0.53475267 0.077767946 0.0077817114
0001a0 58 d2 a1 3e 25 32 02 3e ba 18 9e be 19 d6 72 3e
       0.31605792 0.12714441 -0.3087824 0.23714484
0001b0 6b f9 19 bd 9b 89 d4 bd 89 13 2c be 9b e2 b3 3e
       -0.03759138 -0.10377809 -0.16804327 0.35133824
0001c0 75 00 b6 bd 77 fe 2a be b8 8d 87 3e b0 dd 10 be
       -0.08886806 -0.16698633 0.2647531 -0.14147067
0001d0 ac dc b0 be 7f 45 31 3c 0a 49 b2 be c1 df a0 bc
       -0.3454336 0.010819792 -0.3482135 -0.019637944
0001e0 b7 c3 c5 3e 28 b6 d2 3e 73 48 4e bf a8 11 ce 3e
       0.3862588 0.411546 -0.805793 0.40247846
0001f0 83 b9 4d 3e 36 cf bf be c1 64 2c bf c1 99 e8 be
       0.20090298 -0.37462777 -0.6734124 -0.45429805
000200 98 8c 41 bc fe 50 1e be 36 ad 92 3e c2 18 3c 3e
       -0.011813305 -0.15460584 0.28647774 0.1836882
000210 b3 d3 21 3e c3 cf 24 be fa 56 f3 3e 67 37 16 3f
       0.15803413 -0.1609488 0.47527295 0.5867829
000220 43 87 e7 3e b7 28 ad bc 48 01 d9 be b8 60 52 3e
       0.45220384 -0.021137578 -0.4238379 0.20544708
000230 78 ed 96 be a1 54 c5 3e 2a 28 9f be e4 a6 f8 3e
       -0.2947805 0.3854113 -0.3108533 0.48564827
000240 ba cf ce 3e 42 74 76 be 4b 08 11 bf 11 8b 85 3e
       0.40392858 -0.24067786 -0.5665328 0.26082662
000250 32 1e c0 be b6 03 1a 3f 64 ea 54 be 32 ad cc 3e
       -0.37523037 0.6016191 -0.20792538 0.39975888
000260 ad 9c 42 be f8 86 05 be 0a f4 47 bf f6 5a dd 3e
       -0.1900508 -0.13039768 -0.7810675 0.4323346
000270 98 95 a5 bc 31 a8 88 3e ec fa 4a be 42 3b 6e be
       -0.020212933 0.2669082 -0.19822282 -0.23264793
000280 ce 48 c7 bc 55 8b 95 3e 71 2a c1 3e 0e d0 21 bf
       -0.024326708 0.29207864 0.37727693 -0.6320809
000290 5b 83 e1 be 16 e6 10 3f 64 e4 b1 bd 23 0e f1 3e
       -0.4404553 0.56601083 -0.0868614 0.47081098
0002a0 75 81 95 3e 17 a6 f0 3e 8b 41 45 3e 5e 1e 0e bf
       0.2920033 0.47001716 0.19263284 -0.55515087
0002b0 be 08 a3 be b5 84 8f 3d f7 6b 11 be a9 6b 0d be
       -0.31842607 0.07007734 -0.14201342 -0.138106
0002c0 0d 17 b0 be 29 ed 42 3e a2 6f a9 3d 40 e8 bc 3e
       -0.34392586 0.19035782 0.082732454 0.36895943
0002d0 0d 43 6b be 1f 20 0b bf 51 64 8e be d7 8e 72 bf
       -0.22974797 -0.5434589 -0.2781091 -0.94749206
0002e0 e0 4a 01 3c 8b e0 7a bf be cd 5b bf 41 89 a6 3e
       0.007891387 -0.97998875 -0.8586081 0.3252659
0002f0 bc 26 c5 3e 3d 8b 60 bf 12 12 34 be 33 09 6a 3e
       0.38506114 -0.8771246 -0.17585018 0.22855072
000300 00 7f ee 3d 41 ed e1 be ee 63 36 bf ff 71 54 be
       0.11645317 -0.44126323 -0.7124623 -0.20746611
000310 43 34 2c 3e db 46 f9 bc 83 24 9c be dc f9 01 3f
       0.16816811 -0.030429294 -0.30496606 0.5077188
000320 43 9a 91 3e 9c f1 97 be 71 ea c8 bd ba 73 41 bc
       0.28438005 -0.2967652 -0.09810341 -0.0118073765
000330 53 b7 b5 be a4 7d ed be 96 a4 5d 3e 99 06 ca 3d
       -0.35491428 -0.4638492 0.21644816 0.0986454
000340 2e 2e 59 be 7b da 9b 3e ab fa 09 bf ff ab 7b bd
       -0.21209022 0.30440125 -0.53898114 -0.061443325
000350 d9 71 32 3d 43 87 82 be 6d e6 5d be b6 3c bf be
       0.043565605 -0.25493822 -0.21669932 -0.37351006
000360 6e 5e 58 bd 12 40 c4 be 67 e5 f0 3d 75 1c d3 3e
       -0.05282443 -0.38330132 0.11762505 0.41232648
000370 3c a7 cb 3e c8 8f dc be 24 16 17 be d9 7a 35 3f
       0.39776027 -0.43078446 -0.1475454 0.70890576
000380 6a 7e 31 be 35 70 bf be ad 7c a1 3e 67 6a ec be
       -0.1733338 -0.37390295 0.31540433 -0.4617493
000390 62 1b 7f 3e 33 dd aa be 5c d3 fd bd 4f 6c 2b be
       0.2491279 -0.33371887 -0.12393829 -0.16740535
0003a0 12 12 df be 09 e5 14 3f 40 9e 5b bf 4e fe a3 be
       -0.43568474 0.5816198 -0.85788345 -0.32029957
0003b0 f5 32 f2 bd 7d 2e 32 bd 40 bb ec be 9a e3 c1 bd
       -0.118261255 -0.043501366 -0.4623661 -0.0946724
0003c0 25 5f 50 bb 64 3d 16 3f a6 71 f8 3e dd 1a fe bc
       -0.0031794992 0.58687425 0.48524207 -0.031018669
0003d0 c2 e5 81 3d c4 37 50 be 45 b8 d0 be 1f 3a b3 be
       0.06342651 -0.20333773 -0.40765586 -0.3500528
0003e0 db 4b 9d be d1 74 2b bf d4 92 a2 3d 68 7c 07 3c
       -0.30721936 -0.6697512 0.079381615 0.008269407
0003f0 0d 73 96 bf 49 8f 83 bc 01 e7 8a 3e 46 4b 63 3e
       -1.1753861 -0.016059535 0.27129367 0.22196683

Q1.head.module_12.att_src f4 [1, 1, 16]
000000 c4 48 95 3e 0c 9b 67 3f e8 71 8f 3e ba 1f 12 be
       0.29157078 0.9047096 0.2801659 -0.14269915
000010 bc a3 53 be 51 ae 32 3f f0 09 9f be e2 ba cb 3e
       -0.20667928 0.69797236 -0.3106227 0.39791018
000020 34 65 31 bf d4 ad 93 3b ce 07 13 bf 0e af 19 3f
       -0.6929505 0.004506806 -0.57433784 0.6003274
000030 b9 bb c9 be eb e2 41 3f d6 5a 38 bf 19 12 92 bf
       -0.39401034 0.75736874 -0.72013605 -1.1411773

Q1.head.module_12.att_dst f4 [1, 1, 16]
000000 96 0c b0 3d bd 21 6e be a3 a0 39 bf 0c b7 a6 3e
       0.085961506 -0.23255058 -0.7251074 0.3256153
000010 a8 7c 75 3e 69 c0 b1 3d 1e 50 83 be 1b 3a 44 be
       0.23973334 0.086792774 -0.25647062 -0.1916279
000020 68 0e 66 be ae a5 2f 3f 05 ce cc be fa 9d f6 3e
       -0.22466433 0.6861218 -0.4000093 0.48167402
000030 03 7b 53 3f 67 eb ac be 91 bc f7 3e 7d 20 29 3d
       0.82609576 -0.33773348 0.48386052 0.04129075

Q1.head.module_12.bias f4 [16]
000000 b6 2f 86 3e 3b 70 e6 bd 87 83 44 be 8f fa b1 bd
       0.26208276 -0.11251875 -0.19190799 -0.086903684
000010 68 d2 98 bd 4e 43 1c 3e 9f 90 11 be e0 e5 22 bc
       -0.07462007 0.1526005 -0.14215325 -0.009942502
000020 86 d6 10 3e d3 7b 75 3e 11 12 af bd 91 17 a6 bd
       0.14144334 0.23973016 -0.08548368 -0.08109964
000030 c8 df 81 3d 75 e0 18 3c 73 9d 9f bd 7c a1 86 be
       0.06341511 0.0093308585 -0.07793703 -0.26295078
