script/logs/dome_partial2/model/final/policy.pth (torch, 37886 bytes, 6 tensors)

head.0.weight f4 [64, 36]
0.007579431 0.20616361 -0.16759476 -0.029989036 0.3567633 0.087266006 0.28372702 0.12668511
-0.317138 0.0003039538 0.6281167 -0.31701633 -0.26953244 -0.6329374 -0.13387486 -0.29179364
-0.15477619 -0.5830494 -0.14134516 -0.44152808 0.11839471 0.45963925 0.16586299 -0.1897619
-0.04305788 -0.07726005 0.55395097 -0.09748704 -0.15146695 -0.5678965 0.39930478 0.47334197
-0.11205337 -0.24816054 -0.25883418 -0.56477547 -0.51760453 0.20228598 0.26007113 -0.0011115378
0.19858538 -0.28734255 -0.009298177 -0.00077421824 -0.36456984 -0.2018291 0.055155393 0.42947102
0.37912 0.12280969 0.24914129 0.09120885 -0.09200112 0.19258903 0.16470774 -0.40752912
-0.034574002 -0.11474494 -0.5183087 -0.09185175 0.17271137 0.29377186 -0.14838073 -0.8721005
-0.06776877 0.116689295 0.64044976 -0.023769699 0.077163406 0.52878594 -0.13017367 0.0542659
0.0067210593 0.02746647 0.05901678 -0.056830678 0.42564073 -0.45521328 -0.04922408 -0.0046169474
-0.36844957 0.21377176 0.102242425 0.043832097 -0.15805821 0.008274386 -0.07232958 -0.09197141
0.29210415 -0.13064826 0.23008123 -0.04384033 0.22460604 0.4256441 -0.1455223 0.5951737
0.17044252 0.03978563 -0.27712688 -0.5018889 0.18867555 0.207174 0.12027076 -0.1380926
-0.05597483 0.21938585 -0.014331422 -0.105121836 0.095179304 0.22496554 0.002516163 0.1422488
-0.09420471 0.47865093 0.16504315 -0.0241367 0.24071597 0.20737997 -0.15448552 0.3307809
0.39713258 0.11354297 0.01588707 -0.09420941 -0.031956818 -0.2050922 -0.7091653 0.0056272163
-0.019572606 -0.9384791 -0.35630476 -0.56193274 -0.5405741 0.14326939 -0.33860785 -0.27912173
0.00024177931 0.147236 -0.58044624 0.1780727 0.29758888 0.08720995 0.17909265 0.269532
0.011243996 0.08881508 0.24369572 0.34410807 -0.2579068 -0.39511183 0.01861778 0.04667351
-0.038104415 -0.24890128 -0.117325656 -0.26221892 0.006951588 -0.37629348 -0.081868865 0.420126
-0.006746163 -0.26885012 -0.13150877 -0.27941045 -0.20053557 -0.2241948 -0.07571249 -0.06489273
-0.5859113 0.016881308 -0.18941663 -0.09381651 0.2889248 0.020858329 -0.2048057 0.15094447
-0.33066064 -0.07440114 0.32940012 -0.19479743 0.090701565 -0.01162723 0.031688612 0.24276802
-0.07054497 0.11265117 0.15661162 0.06738557 0.31999412 0.0017230805 -0.08712341 0.2823217
0.21895881 0.49345484 -0.27492136 -0.060363624 -0.18471862 0.046809893 -0.62255955 -0.13925426
-0.019468991 0.071681805 -0.41809085 -0.6355113 -0.540881 -0.0008789248 -0.58101624 -0.21235827
0.015568344 0.49484736 -0.20346285 -0.21977927 0.2213112 0.17329007 0.055716466 0.5716513
-0.14343674 -0.009030967 0.23252106 -0.050629213 -0.11347786 0.11125057 0.0598223 -0.20897341
-0.2875342 0.18142805 -0.33277687 0.13326162 -0.35247344 0.2192004 0.050858926 0.26269555
-0.13552074 0.50861365 -0.09984954 -0.4563643 0.24899065 -0.58766174 -0.3435472 -0.16813976
0.2569185 0.09027364 -0.4094861 -0.36498496 0.07780822 -0.06274288 -0.06975062 -0.43490797
0.0018164045 -0.5111505 0.026226552 -0.38827404 0.39338404 0.061319456 -0.1679335 -0.10890388
00000000: e05c f83b 8e1c 533e f69d 2bbe 91ab f5bc
00000010: aea9 b63e 85b8 b23d ab44 913e beb9 013e
00000020: e95f a2be fd5b 9f39 42cc 203f f74f a2be
00000030: 2800 8abe 2f08 22bf 7e16 09be fa65 95be
00000040: a67d 1ebe ba42 15bf c9bc 10be f80f e2be
00000050: ed78 f23d d655 eb3e fdd7 293e f250 42be
00000060: 765d 30bd 843a 9ebd bbcf 0d3f 49a7 c7bd
00000070: 271a 1bbe aa61 11bf ad71 cc3e e159 f23e
00000080: 3d7c e5bd cc1d 7ebe ea85 84be 2095 10bf
00000090: bb81 04bf 0e24 4f3e 0b28 853e 05b1 91ba
000000a0: f759 4b3e 901e 93be 6257 18bc e8f4 4aba
000000b0: e6a8 babe 4aac 4ebe 9fea 613d a0e3 db3e
000000c0: 041c c23e a683 fb3d e51e 7f3e b5cb ba3d
000000d0: 156b bcbd 0f36 453e 25a9 283e a8a7 d0be
000000e0: 789d 0dbd 65ff eabd e1af 04bf c51c bcbd
000000f0: 40db 303e 4469 963e 1ef1 17be fa41 5fbf
00000100: 5aca 8abd ccfa ee3d 84f4 233f acb8 c2bc
00000110: d907 9e3d 845e 073f 3f4c 05be ec45 5e3d
00000120: 553c dc3b 5d01 e13c 94bb 713d 49c7 68bd
00000130: 95ed d93e b711 e9be 309f 49bd c349 97bb
00000140: 6ca5 bcbe fce6 5a3e 7a64 d13d 4989 333d
00000150: 03da 21be 4a91 073c 8821 94bd 825b bcbd
00000160: ad8e 953e a8c8 05be 6a9a 6b3e eb91 33bd
00000170: 20ff 653e 06ee d93e cc03 15be 4e5d 183f
00000180: 7c88 2e3e 42f6 223d 93e3 8dbe ca7b 00bf
00000190: 2a34 413e 6c25 543e 8450 f63d 2668 0dbe
000001a0: dd45 65bd afa6 603e 57ce 6abc 1e4a d7bd
000001b0: 5eed c23d 5e5d 663e 36e6 243b aba9 113e
000001c0: 66ee c0bd bc11 f53e 1201 293e 54ba c5bc
000001d0: 3f7e 763e 6a5b 543e 7431 1ebe 1d5c a93e
000001e0: f654 cb3e 3789 e83d 9a25 823c ddf0 c0bd
000001f0: 27e5 02bd b103 52be db8b 35bf 8364 b83b
00000200: bb56 a0bc 2b40 70bf 946d b6be d3da 0fbf
00000210: 1063 0abf 36b5 123e 025e adbe 0be9 8ebe
00000220: 2486 7d39 09c5 163e 2098 14bf b158 363e
00000230: 925d 983e 219b b23d 1064 373e 1900 8a3e
00000240: bd38 383c aee4 b53d 5f8b 793e ef2e b03e
00000250: 5c0c 84be 194c cabe 5184 983c b92c 3f3d
00000260: 6013 1cbd fadf 7ebe 6f48 f0bd 8f41 86be
00000270: 26ca e33b 8aa9 c0be ddaa a7bd c11a d73e
00000280: eb0e ddbb b9a6 89be 3caa 06be e30e 8fbe
00000290: 3259 4dbe 5293 65be 260f 9bbd 7be6 84bd
000002a0: 48fe 15bf ab4a 8a3c 6ff6 41be df22 c0bd
000002b0: f4ed 933e 16df aa3c 96b8 51be 3091 1a3e
000002c0: 5a4c a9be a05f 98bd 22a7 a83e fa78 47be
000002d0: bec1 b93d 2380 3ebc ebcb 013d 2e98 783e
000002e0: e279 90bd a8b5 e63d cc5e 203e 7201 8a3d
000002f0: 45d6 a33e fdd8 e13a c26d b2bd 788c 903e
00000300: bd36 603e 1da6 fc3e 7ec2 8cbe d93f 77bd
00000310: e126 3dbe bbbb 3f3d 1060 1fbf ab98 0ebe
00000320: 6f7d 9fbc e9cd 923d 0110 d6be deb0 22bf
00000330: 2d77 0abf a567 66ba 7bbd 14bf 7274 59be
00000340: 5e12 7f3c a25c fd3e 9158 50be d10d 61be
00000350: 679f 623e f472 313e f336 643d bd57 123f
00000360: 15e1 12be 9ff6 13bc 001a 6e3e 9460 4fbd
00000370: 1567 e8bd 57d7 e33d 3a08 753d 20fd 55be
00000380: af37 93be 46c8 393e bb61 aabe bc75 083e
00000390: 6677 b4be 1276 603e 7351 503d 0880 863e
000003a0: f3c5 0abe 8134 023f ea7d ccbd 95a8 e9be
000003b0: 68f7 7e3e 0071 16bf 6be5 afbe d42c 2cbe
000003c0: d28a 833e 63e1 b83d 29a8 d1be 4fdf babe
000003d0: eb59 9f3d 577f 80bd 6ad9 8ebd 42ac debe
000003e0: 6c14 ee3a c2da 02bf 11d9 d63c dbcb c6be
000003f0: a269 c93e 1c2a 7b3d c2f6 2bbe ff08 dfbd

head.0.bias f4 [64]
0.028114349 0.062149946 0.0827984 0.09147257 0.33174852 0.21765043 0.34541124 0.29046205
-0.16649164 0.28429434 0.21335757 0.045027427 0.39724842 0.12633738 0.115620494 0.09620603
0.20070226 0.18216576 0.26771134 0.12279987 -0.20636849 0.2717905 0.38107562 0.2973299
0.05770315 -0.046672534 0.31294 0.10229065 0.11718349 -0.1710123 0.21580355 0.22970994
0.16983595 0.20769091 0.1555444 -0.10969853 0.24697992 -0.038417593 0.02724955 0.29893887
0.13344534 0.065459915 0.13414977 0.09110283 0.29009584 0.10185864 0.20973891 0.08454011
0.20346606 -0.006271357 0.114752024 0.09441446 0.34299025 0.15637158 0.2444513 0.15557662
0.1077872 0.2853955 0.1724182 0.12034947 -0.031658232 0.13489799 0.08560104 0.08746136
00000000: 1050 e63c f190 7e3d 3592 a93d f955 bb3d
00000010: f1da a93e c1df 5e3e bed9 b03e 71b7 943e
00000020: c97c 2abe 078f 913e 687a 5a3e ae6e 383d
00000030: 2564 cb3e 965e 013e 70ca ec3d ab07 c53d
00000040: e584 4d3e a989 3a3e 7611 893e 807e fb3d
00000050: 4352 53be 2028 8b3e 581c c33e a03b 983e
00000060: 235a 6c3d b32b 3fbd ac39 a03e c37d d13d
00000070: e6fd ef3d d91d 2fbe 9bfb 5c3e 1539 6b3e
00000080: 7ae9 2d3e edac 543e 0847 1f3e 9fa9 e0bd
00000090: 4ee8 7c3e c45b 1dbd 733a df3c 840e 993e
000000a0: e5a5 083e d90f 863d 8f5e 093e 1f94 ba3d
000000b0: 7187 943e 439b d03d ccc5 563e 5d23 ad3d
000000c0: 6859 503e f57f cdbb 1c03 eb3d 5e5c c13d
000000d0: 6b9c af3e df1f 203e 7151 7a3e 7a4f 1f3e
000000e0: 89bf dc3d 5c1f 923e 668e 303e c879 f63d
000000f0: 10ac 01bd b322 0a3e 994f af3d f11e b33d

head.2.weight f4 [64, 64]
1.024676 -0.48583916 0.21299917 0.22659747 0.16921711 0.12939322 -1.012819 0.49173564
0.015474528 0.47954068 0.5639893 0.62465173 -0.062345628 -0.17280734 0.30803496 0.7257954
-0.30545735 0.1882797 -0.506984 0.32811192 -0.06788264 -0.5186247 0.63455486 -0.6489844
-0.22696501 0.10599326 -0.036438886 -0.28716007 0.47219542 0.16091996 0.044837832 -0.69478315
-1.1659797 0.29139397 0.044600654 0.11064941 0.7314303 0.211742 0.6332014 -0.64396703
-0.5846274 -0.12134729 -0.024224361 -0.20389152 0.7513547 0.19718872 0.14330631 -0.089871936
0.4076835 -0.07743379 0.8292496 0.84998924 -0.48232818 -0.43374455 0.2959238 -0.42027515
0.09000732 0.54321486 -0.113022655 0.18677524 0.11063262 -0.3641424 -0.00494246 -0.21466245
0.3789774 0.22477934 0.37015855 0.13252947 -0.2517287 -0.68912023 -0.18577793 -0.2774319
0.03694485 -0.18345436 -0.19348061 0.11897617 -0.05893994 0.010849997 0.05268752 -0.71525806
-0.29067823 -0.074201874 -0.0538905 -1.0445521 0.33531967 -0.64903075 0.09488388 -0.2517149
0.30266505 0.26905727 -0.34458923 -0.04849267 0.21036085 0.49546906 -0.4635662 -0.01799714
-0.25064847 0.1436192 0.40695894 0.14093153 -0.9178021 0.6541241 -0.39666218 -0.377781
-0.06529297 0.2783757 0.1392686 0.04220754 0.1975755 0.58391654 -0.3987362 0.34173816
-0.00014278984 -0.2491672 -0.7526164 -0.018474996 -0.18892288 -0.29071575 -0.65484524 0.27704778
-0.55204964 -0.55859965 0.16828234 0.0020347857 0.61945844 0.4190809 -0.14438373 -0.5161836
0.1943931 0.1686779 0.14407873 -0.33005443 0.36830294 0.07513277 -0.13139041 -0.16894512
-0.05444546 0.041894924 -0.07716202 0.060269073 -0.20563062 0.16455272 -0.1239626 0.09257062
0.2860679 0.17910425 -0.34139135 -0.331154 0.23953165 0.070215024 -0.19122797 -0.06298596
0.06188277 0.2048772 -0.17008382 0.0734564 -0.065944895 0.049453173 0.7286057 -0.27016604
-0.32636312 -0.089857444 -0.11945404 -0.092943884 -0.40949562 0.09313869 0.19757001 0.092053585
0.09140965 0.099730864 -0.15761556 -0.105523236 0.3743831 -0.46917245 -0.17965129 0.26763144
-0.025417935 -0.19892386 -0.14940421 0.35632908 0.03381297 0.36451608 -0.30336592 -0.25809875
-0.78376 -0.07115321 -0.25555533 -0.03530492 -0.5193198 0.042598356 0.26415658 -0.1723625
-0.108073525 0.111660525 0.43929127 -0.31302583 0.27896583 0.20561278 -0.12608542 -0.61623776
0.06800375 -0.21797515 0.28479618 -0.23597933 0.61773646 0.17567718 -0.36810064 -0.083094686
0.63917714 0.406743 0.9227393 0.34752616 -0.45130154 0.08514986 0.20060202 0.42131817
-0.0024937505 0.13366349 0.5165313 0.5837798 0.077513725 -0.13100998 0.6269567 -0.45711917
0.5069884 -0.030040648 -0.40398175 0.14301635 -0.16225527 0.025406659 0.38739085 0.12837617
0.8669675 0.30364183 0.2107472 0.35781923 0.19106644 -0.36809954 0.051230546 -0.11763855
-0.13132042 -0.29563853 -0.49282217 0.21445401 0.58058983 -0.04421695 -0.033627152 -0.082699455
0.060998857 -0.22294134 0.6030419 0.073329285 -0.41775134 0.490404 0.4684548 0.18395047
00000000: 9528 833f e9bf f8be 741c 5a3e 2b09 683e
00000010: 4047 2d3e a87f 043e 0ea4 81bf c6c4 fb3e
00000020: e088 7d3c 5b86 f53e 9a61 103f 2de9 1f3f
00000030: 215e 7fbd 68f4 30be c2b6 9d3e bacd 393f
00000040: e864 9cbe 65cc 403e b4c9 01bf 49fe a73e
00000050: 0e06 8bbd 97c4 04bf 3072 223f d723 26bf
00000060: 8469 68be ff12 d93d f140 15bd a506 93be
00000070: 99c3 f13e 34c8 243e e0a7 373d 4fdd 31bf
00000080: d33e 95bf 9731 953e 2daf 363d 289c e23d
00000090: 043f 3b3f e5d2 583e 7d19 223f 06db 24bf
000000a0: 24aa 15bf ee84 f8bd 2b72 c6bc f0c8 50be
000000b0: c858 403f d7eb 493e e4be 123e c70e b8bd
000000c0: e4bb d03e 9b95 9ebd b449 543f e598 593f
000000d0: b8f3 f6be c413 debe 5383 973e 4e2e d7be
000000e0: c255 b83d 2110 0b3f 6c78 e7bd 0242 3f3e
000000f0: 5b93 e23d df70 babe 5cf4 a1bb 79d0 5bbe
00000100: 5309 c23e 8e2c 663e 6c85 bd3e ceb5 073e
00000110: 96e2 80be 2f6a 30bf 923c 3ebe 8e0b 8ebe
00000120: 7c53 173d 76db 3bbe c81f 46be c7a9 f33d
00000130: 026b 71bd 30c4 313c dece 573d 271b 37bf
00000140: c7d3 94be 27f7 97bd 49bc 5cbd e2b3 85bf
00000150: 05af ab3e e126 26bf 7b52 c23d c6e0 80be
00000160: eaf6 9a3e e0c1 893e 006e b0be 40a0 46bd
00000170: d668 573e 1fae fd3e 8d58 edbe bd6e 93bc
00000180: ff54 80be e910 133e ec5c d03e 5b50 103e
00000190: 14f5 6abf ad74 273f 4e17 cbbe 836c c1be
000001a0: 52b8 85bd 4287 8e3e 6e9c 0e3e d0e1 2c3d
000001b0: 3b51 4a3e 8e7b 153f 2727 ccbe 4ef8 ae3e
000001c0: dbb9 15b9 b025 7fbe 78ab 40bf e058 97bc
000001d0: 0075 41be b2d8 94be f0a3 27bf 35d9 8d3e
000001e0: 2053 0dbf 6300 0fbf 3552 2c3e 0a5a 053b
000001f0: d494 1e3f c691 d63e 54d9 13be 9c24 04bf
00000200: fc0e 473e e6b9 2c3e 6089 133e e5fc a8be
00000210: 3492 bc3e 36df 993d 358b 06be f3ff 2cbe
00000220: 3402 5fbd 039a 2b3d 1f07 9ebd b4dc 763d
00000230: d590 52be 8280 283e 1be0 fdbd aa95 bd3d
00000240: 7e77 923e 1b67 373e d9ca aebe 048d a9be
00000250: c947 753e e5cc 8f3d 44d1 43be c8fe 80bd
00000260: ca78 7d3d 54cb 513e 742a 2ebe 4f70 963d
00000270: 1e0e 87bd 698f 4a3d e785 3a3f 3453 8abe
00000280: 1119 a7be 2e07 b8bd 52a4 f4bd 5d59 bebd
00000290: 69a9 d1be 7fbf be3d cb4f 4a3e 9786 bc3d
000002a0: fc34 bb3d b23f cc3d f965 21be 911c d8bd
000002b0: 24af bf3e 5f37 f0be 82f6 37be fd06 893e
000002c0: 4639 d0bc b2b2 4bbe 6bfd 18be c470 b63e
000002d0: 787f 0a3d daa1 ba3e c752 9bbe 8525 84be
000002e0: 7fa4 48bf c6b8 91bd 26d8 82be e49b 10bd
000002f0: 24f2 04bf 9d7b 2e3d 883f 873e cc7f 30be
00000300: a755 ddbd 46ae e43d c9ea e03e ec44 a0be
00000310: 9cd4 8e3e 288c 523e 891c 01be c2c1 1dbf
00000320: 8d45 8b3d e134 5fbe ced0 913e 91a4 71be
00000330: fa23 1e3f b8e4 333e b077 bcbe 8c2d aabd
00000340: 1da1 233f 9e40 d03e a538 6c3f f3ee b13e
00000350: ff10 e7be 0d63 ae3d 9e6a 4d3e 04b7 d73e
00000360: 316e 23bb 15df 083e 653b 043f 9872 153f
00000370: 84bf 9e3d 7b27 06be 3c80 203f 860b eabe
00000380: fec9 013f ce17 f6bc b2d6 cebe e172 123e
00000390: 3f26 26be a021 d03c 1858 c63e 0b75 033e
000003a0: 95f1 5d3f f176 9b3e 1dce 573e 1534 b73e
000003b0: eca6 433e 8b77 bcbe 1fd7 513d 7bec f0bd
000003c0: dc78 06be ef5d 97be 3053 fcbe d599 5b3e
000003d0: 89a1 143f d51c 35bd a0bc 09bd 555e a9bd
000003e0: f0d9 793d bc4a 64be f460 1a3f aa2d 963d
000003f0: 81e3 d5be 3c16 fb3e 4fd9 ef3e 835d 3c3e

head.2.bias f4 [64]
0.108726464 0.32590902 0.0669303 0.058762155 -0.08313848 0.23413211 0.023289522 0.28941828
0.06445668 0.023267947 0.15608874 0.07724456 -0.04035447 0.13771762 -0.075314924 0.13510573
0.003091267 0.2668692 -0.026355159 0.16822848 0.22828163 -0.056319013 0.09459839 0.0011341578
0.01804596 0.119478084 0.2928479 0.1552985 -0.19942972 0.19382429 0.22486119 0.16058433
-0.054837164 -0.054213796 0.13128136 0.037711065 0.0153502915 0.15422173 0.0907607 0.059729107
0.13863252 0.30257842 0.08754421 0.09677465 0.039488293 0.2823776 0.0004934405 0.20985204
-0.11765304 0.4458819 0.15147293 -0.0026897679 0.03685778 0.10092728 -0.09187731 -0.06683242
-0.03473053 0.11235003 -0.068468206 -0.026291754 -0.14360891 0.16415355 0.13849899 0.29890078
00000000: fbab de3d 8cdd a63e c112 893d 96b0 703d
00000010: 8244 aabd 54c0 6f3e abc9 be3c a22e 943e
00000020: dd01 843d 6c9c be3c bad5 1f3e 6532 9e3d
00000030: bb4a 25bd d905 0d3e b63e 9abd 2859 0a3e
00000040: db96 4a3b 14a3 883e c6e6 d7bc 1644 2c3e
00000050: a9c2 693e c4ae 66bd cdbc c13d 05a8 943a
00000060: 1fd5 933c edb0 f43d 29f0 953e 9206 1f3e
00000070: 4e37 4cbe e079 463e 0342 663e 3870 243e
00000080: ef9c 60bd 490f 5ebd 9f6e 063e eb76 1a3d
00000090: ca7f 7b3c 4dec 1d3e bfe0 b93d 82a6 743d
000000a0: aff5 0d3e 8feb 9a3e 614a b33d ca31 c63d
000000b0: 7abe 213d cc93 903e 3b5a 013a 74e3 563e
000000c0: 14f4 f0bd a24a e43e b81b 1b3e d146 30bb
000000d0: 2ff8 163d f6b2 ce3d 2c2a bcbd 70df 88bd
000000e0: 9a41 0ebd c617 e63d 0f39 8cbd ce61 d7bc
000000f0: 370e 13be de17 283e aed2 0d3e 8609 993e

head.4.weight f4 [36, 64]
0.84621215 0.14176498 0.13176484 0.13207568 0.33343592 -0.107580505 -0.28280595 -0.33711645
0.22315036 0.06643857 0.13623749 0.43559283 0.32485583 0.10152365 0.1535534 0.042419374
0.35657138 -0.09455878 -0.04525916 0.11667919 0.24054794 0.396283 0.05125408 0.5389854
-0.03392989 0.103935525 0.17189586 0.179974 -0.063262 0.21710825 0.4634931 0.20249195
0.24721596 1.125884 0.81003094 0.028630396 -0.0835646 0.4702756 0.08671174 0.0022215338
0.04889012 0.44410124 0.20581686 0.11348299 0.08730444 0.15506628 -0.019371223 0.018528609
0.0669551 -0.0016553766 0.07823732 0.4427891 0.7517845 -0.099762954 0.16164057 -1.1579002
0.20359443 0.13275002 -0.06869311 -0.00565618 0.088920936 0.40286762 0.37183663 -0.16018693
0.42153287 0.1794627 -0.17518389 0.006321415 0.1259752 0.33127406 0.5417864 -0.18446702
0.22151251 0.20793538 0.07959946 0.20079839 0.16206798 0.20981735 0.17117804 0.47924462
-0.02736061 0.015815465 0.0046798475 0.1295557 0.212887 -0.2938671 0.12033581 0.8212376
0.14754237 0.09392239 0.056968983 0.031626202 0.030285213 0.41488695 -0.34325707 0.33684346
0.3327897 0.19255982 -0.106894255 0.2936505 0.059541937 -0.43918326 0.2713539 -0.06258312
0.47748807 0.44458488 0.11559896 0.23913221 -0.03810205 0.23652981 0.34363392 0.26521853
0.02058768 0.14987114 0.16145793 0.15171196 0.18402694 0.2145141 0.50408465 0.08407014
-0.057669938 0.20894696 0.23967467 0.19476599 -0.064642474 0.07755442 0.14309922 0.24225338
0.5977787 0.43666354 0.29240906 0.21080118 0.23735262 0.3161402 0.33579165 0.2793068
0.01240002 0.39780703 0.38761288 0.21628706 0.16973475 0.20021462 0.17298321 -0.09838148
-0.06614159 0.08290088 -0.093120016 0.21191062 0.21833542 0.08076553 0.4806274 0.005792812
0.26501423 -0.013337383 0.28874665 0.18764922 -0.09862316 0.2848726 0.55644286 0.33610803
-0.1816344 0.099328 0.11888025 0.05722541 0.0049501713 0.09778922 0.32482618 0.45193696
0.3511136 -0.024168648 0.04124089 0.30337977 -0.11965859 0.15577388 0.22692576 0.10259584
-0.009647794 0.6040285 0.40668476 0.08220059 0.43509406 0.30810153 0.07629895 0.31888413
0.18027307 0.075877555 0.24427642 0.33001128 -0.043202147 0.07414421 0.07348475 0.18910678
0.077808976 0.18372121 0.1734639 -0.26621026 -0.04704986 -0.20682812 0.45874897 -0.6131705
-0.040541418 0.055956896 -0.6261812 0.15788196 0.33185613 -0.3208416 0.0011356834 0.63038784
-0.07015972 -0.2887085 -0.06985924 -0.5328101 -0.29403016 0.68610215 0.07493803 -0.23854263
-0.26998773 -0.1708683 -0.44379514 -0.105069675 0.09577025 0.1484378 0.16535127 0.25705308
-0.22763951 -0.13066101 -0.17802815 0.13304366 0.0341172 -0.24089462 -0.4725118 -0.40590844
0.08311335 0.2966226 -0.18352532 -0.32295355 0.14636305 -0.98863953 -0.028615775 -0.31049976
0.15735754 0.1319967 -0.13905255 0.2038276 -0.21875222 -0.55929136 0.34169152 0.096124426
-0.11644124 -0.0392015 -0.13778609 -0.44237685 -0.12381951 -0.24549599 -0.40328515 -0.7040384
00000000: 5ca1 583f d72a 113e 5ded 063e d93e 073e
00000010: 1db8 aa3e 2b53 dcbd f1cb 90be 879a acbe
00000020: 8781 643e f210 883d d781 0b3e 0606 df3e
00000030: 8153 a63e a2eb cf3d 1a3d 1d3e f0bf 2d3d
00000040: 8690 b63e 09a8 c1bd ab61 39bd 80f5 ee3d
00000050: 3352 763e 9be5 ca3e ccef 513d f2fa 093f
00000060: 11fa 0abd 26dc d43d 7805 303e 1b4b 383e
00000070: 828f 81bd a051 5e3e f84e ed3e 0d5a 4f3e
00000080: 2e26 7d3e f81c 903f 305e 4f3f 4b8a ea3c
00000090: eb23 abbd f7c7 f03e ed95 b13d 2797 113b
000000a0: 0241 483d 3d61 e33e a8c1 523e c569 e83d
000000b0: accc b23d b2c9 1e3e 66b0 9ebc 4fc9 973c
000000c0: c11f 893d 39f9 d8ba e33a a03d 41b5 e23e
000000d0: f374 403f 8550 ccbd 1b85 253e 1336 94bf
000000e0: 0f7b 503e 9fef 073e f9ae 8cbd 7a57 b9bb
000000f0: 2e1c b63d aa44 ce3e 5f61 be3e 0b08 24be
00000100: 28d3 d73e 12c5 373e 6863 33be df23 cf3b
00000110: a5ff 003e c19c a93e 83b2 0a3f ece4 3cbe
00000120: 2dd4 623e 03ed 543e 0b05 a33d 189e 4d3e
00000130: 26f5 253e 5cda 563e 4c49 2f3e 8d5f f53e
00000140: 5c23 e0bc 6f8f 813c 6859 993b 40aa 043e
00000150: 0dff 593e c075 96be 9f72 f63d a13c 523f
00000160: 5915 173e 625a c03d 4f58 693d 7a8a 013d
00000170: b218 f83c 106c d43e 64bf afbe bf76 ac3e
00000180: 6963 aa3e 672e 453e 60eb dabd 5c59 963e
00000190: 3fe2 733d a1dc e0be e6ee 8a3e 942b 80bd
000001a0: 5179 f43e a1a0 e33e 26bf ec3d 13df 743e
000001b0: e510 1cbd df34 723e c9f0 af3e b9ca 873e
000001c0: 7fa7 a83c d277 193e 3a55 253e 615a 1b3e
000001d0: 8f71 3c3e 96a9 5b3e b10b 013f f72c ac3d
000001e0: 5037 6cbd 31f6 553e 476d 753e bc70 473e
000001f0: 4663 84bd dad4 9e3d 9a88 123e 4511 783e
00000200: 0608 193f 5d92 df3e a4b6 953e 44dc 573e
00000210: 910c 733e 21dd a13e e2ec ab3e 4d01 8f3e
00000220: 7429 4b3c 5dad cb3e 3275 c63e 5b7a 5d3e
00000230: f2ce 2d3e 1005 4d3e 8322 313e 3b7c c9bd
00000240: 3e75 87bd f0c7 a93d b5b5 bebd 19ff 583e
00000250: 5293 5f3e 6668 a53d cb14 f63e a1d1 bd3b
00000260: f2af 873e 0a85 5abc 9ad6 933e 1e27 403e
00000270: f0fa c9bd d2da 913e 0a73 0e3f 5a16 ac3e
00000280: 5efe 39be 7a6c cb3d 7d77 f33d 3165 6a3d
00000290: 0c35 a23b b745 c83d 9e4f a63e 4864 e73e
000002a0: 29c5 b33e 54fd c5bc 35ec 283d 9854 9b3e
000002b0: 900f f5bd 3083 1f3e 3a5f 683e c51d d23d
000002c0: c811 1ebc 9da1 1a3f fc38 d03e c858 a83d
000002d0: a6c4 de3e 7cbf 9d3e a042 9c3d c844 a33e
000002e0: 8199 383e b165 9b3d 9923 7a3e 3df7 a83e
000002f0: bcf4 30bd ebd8 973d 2c7f 963d 35a5 413e
00000300: 505a 9f3d 6a21 3c3e 85a0 313e b64c 88be
00000310: 5bb7 40bd c0ca 53be 25e1 ea3e bef8 1cbf
00000320: c20e 26bd 0f33 653d 694d 20bf cfab 213e
00000330: 0ce9 a93e 5a45 a4be 36db 943a 1961 213f
00000340: e6af 8fbd 9ad1 93be 5c12 8fbd 3e66 08bf
00000350: 1f8b 96be 64a4 2f3f 1c79 993d 8544 74be
00000360: d53b 8abe 1af8 2ebe 1e39 e3be c52e d7bd
00000370: 3123 c43d 1400 183e d851 293e 769c 833e
00000380: 551a 69be 00cc 05be 034d 36be 993c 083e
00000390: 7abe 0b3d 14ad 76be 11ed f1be 3bd3 cfbe
000003a0: 5537 aa3d ebde 973e 10ee 3bbe 2b5a a5be
000003b0: 32e0 153e 7b17 7dbf a16b eabc d3f9 9ebe
000003c0: 5622 213e 252a 073e cb63 0ebe 2fb8 503e
000003d0: 9500 60be b82d 0fbf 31f2 ae3e e2dc c43d
000003e0: bf78 eebd c191 20bd cc17 0dbe 387f e2be
000003f0: 1595 fdbd 4d63 7bbe 647b cebe dc3b 34bf

head.4.bias f4 [36]
0.20109805 0.34396908 0.31026903 -0.23894708 -0.49358907 0.25803852 -0.03775666 -0.13045175
-0.010120477 0.09305214 -0.045502324 -0.22899245 -0.009268115 -0.24926783 0.16634686 0.040348273
-0.23019114 -0.19754156 -0.13190834 0.23915298 0.18568887 -0.03265293 -0.19985457 -0.20706913
0.20796603 -0.18474147 -0.053832646 -0.10312085 0.22027686 0.08154199 -0.025002884 0.12580179
-0.2536908 -0.18298806 0.20926417 -0.14819847
00000000: a6ec 4d3e b71c b03e 95db 9e3e 8bae 74be
00000010: b5b7 fcbe a01d 843e baa6 1abd 2595 05be
00000020: 5bd0 25bc 1f92 be3d a560 3abd ff7c 6abe
00000030: 4bd9 17bc 1140 7fbe d556 2a3e 3b44 253d
00000040: 3ab7 6bbe 5648 4abe fb12 07be 85e4 743e
00000050: 3925 3e3e 14bf 05bd ada6 4cbe ee09 54be
00000060: 0cf5 543e de2c 3dbe 9f7f 5cbd 0631 d3bd
00000070: 4290 613e 7dff a63d d9d2 ccbc 2fd2 003e
00000080: c3e3 81be 3961 3bbe 5949 563e 57c1 17be
