script/logs/dome/model/best/online_critic.pth (torch, 285842 bytes, 12 tensors)

Q1.head.0.weight f4 [128, 72]
00000000: adbe 36be 72a2 ae3c 6bfc 8abd eaa8 b6bd
00000010: 59ed 26bb 737e b93e 70ff 69be 0a88 853d
00000020: cfca ae3d 52de 04be 5402 febd c20d 2ebe
00000030: 3766 303e cb69 88be 416e 7cbd de10 36be
00000040: e2ef a03d ee91 b1b9 183b 82be 6daf 993d
00000050: 2e47 2bbe 75ab 163e f716 cdbd b191 fd3d
00000060: b8e3 ed3a 758a 65be e455 a13e 8263 a63d
00000070: 536f 88be 5de5 59bd d770 b03d 48d8 273e
00000080: 5e46 7abe 4587 3cbe 1c52 b63e d4bb 17be
00000090: 58ed 413d ad7f edbd 4f8f 22be 3001 733d
000000a0: 37e0 023e c7da 163e 2356 8c3c 7047 8d3d
000000b0: 511c 203d b23f 963a fd31 2ebe 5f0c 64bc
000000c0: 8a9d 06be ca07 5ebe 3605 1cbb 65d3 193e
000000d0: 5a0c 743e e3c5 0cbe 9b31 f53c 96e0 4cbc
000000e0: de8d e7bd 1323 483c a1de d73d 4689 723e
000000f0: 0613 7c3d d327 be3e 19ff ce3d 3207 88bd
00000100: 25ca 573d df8b e7bd a4c1 ff3d 6196 ccbd
00000110: 5ca4 02be 67eb e63d 0c1f 553d da67 e3bd
00000120: a680 9d3d 0303 b73b 96eb 07be 18ab a93b
00000130: 881f d8bd 378a 0e3c 2f07 df3d 233f 84bd
00000140: 8c87 8cbd 8892 1fbe 787b 0f3d 8866 f03d
00000150: c7d0 06be ad28 66bd 7469 00bc 8ebf acbe
00000160: 8c0e 31bc d8e2 713d dba8 da3d e123 ea3d
00000170: eef4 9cbc 551b 6ebd 8500 be3d 8d4d d5bd
00000180: 268d 873b 58db de3d 6324 9a3d b5df b33d
00000190: 4eba 8abd 7707 e33a dd83 1e3e 2732 f7bc
000001a0: 9c25 dbbd 65d7 cc3c a4c8 b3bd f2be 0b3d
000001b0: c104 b03d e4e4 c8bd 5b30 843d 3df8 873d
000001c0: 6424 a83d 96ec d33b 343a e1bd 98f1 c5bd
000001d0: a337 833d 642f 383e 883b bdbd 2817 cf3d
000001e0: 688b 853d 84c1 d9bd 9cd9 41bd 0479 cbbd
000001f0: 78ba 92bd a149 36bc 20f6 24bc a271 a93c
00000200: 67ec 40bc 1867 863d 1b6a a83d c6c5 0dbe
00000210: 9f65 e13c 8d6e 77bd b16d b6bc 9af0 11be
00000220: 5001 74bd 1055 82bd 566a 16be 3457 38bd
00000230: e5fb eebd c0ea ddbd 83f9 c13c 3b29 23be
00000240: 7488 0abd 2a02 423d e192 0f3e b11f 673d
00000250: a34e 59be 074d 8e3d 35cd 43bc e148 303d
00000260: c57b 94bd d817 8b3d 5a17 9abd 9593 973d
00000270: 19d1 0b3e 2921 3c3c f70a bb3d fa10 b0bd
00000280: 6f9e 91bc 3263 1abd 553d 223b 1563 ee3d
00000290: 88d4 d5bd c49a a93d 82ae e6bd 0747 193d
000002a0: cd48 65bd 95f2 f43b 4c6d c23e 53d3 89bd
000002b0: a232 35bd 4e90 d9bd 8d44 87bd 1c54 fa3c
000002c0: 15c4 083d 8d48 e5bd 4f8d f7bd f91a 2d3c
000002d0: 954e 86bd 87f2 683c fa74 18be ab7c 9f3c
000002e0: 492c 86bd 513e 80be 2680 49bc 5972 a43d
000002f0: ecbf 123e 35c0 2ebd 284f cc3b 64f6 b53d
00000300: 15ef 2fbe 668b af3d a554 16bc 71db b6bd
00000310: 3d4c 64be 83dc d63d 72b1 31bd 2ce3 42be
00000320: 6808 e93d 1760 d23c 2912 d63c 4162 67be
00000330: ba6a da3d d184 c63d e364 c3bd d868 803d
00000340: b595 353e a53a b7bd e648 5dbd 194e 4dbd
00000350: b4b5 873d 5ba8 a53d 4527 d63d 07ae 3bbe
00000360: 1543 863d dcb5 e6bc 18a0 453d 0334 643d
00000370: 4697 3dbe 6195 d5bd 3ae5 1bbc 6a23 c6bd
00000380: 14fc f8bc bca6 5ebb 27f2 9c3d 86b7 18bc
00000390: 49cb c4bd 0902 b6bd 4e86 123d 90cf abbd
000003a0: e901 4e3d 7ab6 04be 1194 bc3b fe54 9ebd
000003b0: 2c34 88bd 79b0 ea3c 4da7 c5bd 5761 83bd
000003c0: 87e4 683d a9d6 9dbd 7c46 033e 8b2e 30bd
000003d0: 4003 a5bd e966 f9bb bfee 34be d1d9 813a
000003e0: a8f3 5c3d 45e1 b6bd 35b8 dfbd 03b0 a7bc
000003f0: 8c26 7e3b 7dcf 8c3d 8ce3 053e bde1 bfbd
-0.17846175 0.021317694 -0.06786426 -0.089189366 -0.002547106 0.36229286 -0.22851348 0.06520088
0.085347764 -0.12975433 -0.12402788 -0.16997436 0.17226492 -0.26643214 -0.061628584 -0.17779872
0.07858254 -0.00033868797 -0.2543571 0.07504163 -0.16726372 0.14713843 -0.10014146 0.12381304
0.001814953 -0.22416098 0.31510842 0.08124448 -0.26647434 -0.053197253 0.086152725 0.16391098
-0.24440905 -0.18410976 0.3560952 -0.14817744 0.04734549 -0.11596618 -0.1587498 0.059327304
0.12780844 0.14731894 0.017130917 0.06898391 0.039089505 0.0011463074 -0.17011257 -0.013918965
-0.13146034 -0.21682659 -0.0023806817 0.15022047 0.23832837 -0.13747363 0.02993088 -0.012504717
-0.11306356 0.012215394 0.1054051 0.23685178 0.06154158 0.37139758 0.1010725 -0.066419974
0.052683014 -0.11305975 0.12488106 -0.0998962 -0.1275801 0.11275368 0.05203156 -0.111037925
0.07690553 0.005585076 -0.13273463 0.0051778667 -0.10552889 0.008699945 0.10890042 -0.06457355
-0.06861791 -0.15583241 0.03502986 0.11738306 -0.1316558 -0.056191135 -0.007837642 -0.33739895
-0.010806691 0.059054226 0.10676738 0.114326246 -0.01915976 -0.058131535 0.09277443 -0.10415182
0.0041366993 0.1088168 0.075264715 0.08782903 -0.06773816 0.001732095 0.1547999 -0.030175282
-0.10700533 0.025005052 -0.087785035 0.034117647 0.08594657 -0.098092824 0.064545356 0.066391446
0.08210066 0.006467412 -0.109974295 -0.09665221 0.06407096 0.17986828 -0.0923987 0.101118386
0.0652073 -0.10632613 -0.04732667 -0.09935191 -0.07164472 -0.011125953 -0.010068446 0.020684067
-0.011775113 0.06562632 0.08223363 -0.13844976 0.027514277 -0.060408164 -0.022269102 -0.14251938
-0.059571564 -0.06363881 -0.14689001 -0.04500504 -0.11669139 -0.10835791 0.023678547 -0.15933697
-0.033821538 0.047365345 0.14020874 0.056426708 -0.21221404 0.069482855 -0.011950781 0.043038253
-0.0725017 0.06791657 -0.07523985 0.07401196 0.13653983 0.011482515 0.09132951 -0.08596988
-0.017775742 -0.037692256 0.0024755795 0.11639992 -0.10440928 0.08281472 -0.112637535 0.037421253
-0.05597763 0.007475207 0.37974012 -0.0672976 -0.04423774 -0.10623227 -0.06604872 0.030557685
0.033390123 -0.111954786 -0.12087499 0.010565513 -0.06557957 0.014217979 -0.14888373 0.019468626
-0.065514155 -0.25047544 -0.012298619 0.080296226 0.14331025 -0.04266377 0.006235022 0.08884886
-0.17181046 0.0857151 -0.009175454 -0.08928574 -0.22294708 0.10491278 -0.043382116 -0.19031972
0.113785565 0.025680585 0.026131706 -0.22596075 0.10664888 0.096933015 -0.09540727 0.06269997
0.1773289 -0.089467324 -0.0540246 -0.050123308 0.06626454 0.08088752 0.10456709 -0.18328105
0.06555764 -0.02816289 0.04824838 0.055713665 -0.18514737 -0.104288824 -0.009515101 -0.096747234
-0.030393638 -0.0033973893 0.076633744 -0.009321099 -0.09609086 -0.08887107 0.035772614 -0.08389199
0.05029479 -0.12960234 0.0057549556 -0.07731055 -0.06650576 0.028648602 -0.09651051 -0.064150505
0.056858566 -0.07706959 0.12819856 -0.043013137 -0.080572605 -0.007611145 -0.176692 0.0009906833
0.053943306 -0.089296855 -0.109238066 -0.020469671 0.00387803 0.06875513 0.13075083 -0.09369228

Q1.head.0.bias f4 [128]
00000000: 2bfa e7bd 91bc 873d 4d97 ae3d c52b 1d3d
00000010: d8b0 003e 4630 d93d 0971 3fbd dc18 11bd
00000020: ed76 103e 51fa 21be 1b74 9fbd 18f7 a53c
00000030: 91c7 633d 74a9 91bd 9a43 16bd 5106 163e
00000040: 6906 bd3d 77c8 1e3e e457 f43d 49d4 753d
00000050: a51d e63d fc0b d2bd d5d6 5f3d 9488 0e3e
00000060: 40e2 0f3c 01cf ae3c afd4 153e b32b 1b3e
00000070: 8e62 bfbc f19e 0dbe 03cb d1bd c2e8 923d
00000080: ccab 8cbc 2222 cf3d 51b2 f4bd 3a15 1a3e
00000090: 5f1c 05be f956 6b3d aa38 f2bd 8fa0 4038
000000a0: d4a7 293e c1fa d63d 6d30 50be 0e76 b2bd
000000b0: 2f1a 0b3e e1a1 6f3d 32e2 073d b63e cd3d
000000c0: 9c88 1cbd 2088 e4bd 76f7 c83d 7d03 0a3e
000000d0: 978c 4cbd 08b9 713d 7ae4 47bd f797 383d
000000e0: fd07 213e bd8c 10be 0673 1a3d 4e9b a63d
000000f0: 9481 02bd da3d 4f3d d8b1 e93c 5349 e13d
00000100: dc7e a53d a67b 14be 8f53 4c3d c31c 0b3e
00000110: 19fc d13d e52c f13d ab03 9c3d 6cb0 d93d
00000120: a1b1 1b3e b99d 91bc 0968 a13d fdba d2bc
00000130: 8737 1e3e 974d 1abd f986 e9bc e322 443d
00000140: bcf5 073e 8bc9 b73d 125e be3d d405 46bd
00000150: 0c3a 603d ffc9 143d 2f61 36be e7f2 97bd
00000160: b758 db3d 1797 dabd 46d7 6b3d 11a4 083e
00000170: 6bec 913d 0575 fe3d 5c5c 96bd df35 94bd
00000180: b119 973d 2227 f63d c8c5 35bc 92a7 ddbd
00000190: 2960 11bd 8d00 473d 6399 193e 357e 973d
000001a0: c77e f23d 27a7 563d f7df 21bd 216d 333e
000001b0: cfaa 963d c200 97bd 2c57 d23d e815 b23d
000001c0: 8b35 44bd 8795 2d3d e2f8 e1bd 487f 15be
000001d0: 814e ca3c 8e19 2c3e 07fe 2b3c 8bbb 8c3d
000001e0: 2b41 f3bd efc3 e53d d381 b23c 2f27 dc3d
000001f0: 16d1 2b3e 8be5 773d e6d0 ad3d 209b 89be
-0.11327013 0.06627763 0.08524952 0.03837182 0.1256746 0.106049106 -0.046738658 -0.0354241
0.14107867 -0.15818144 -0.07785817 0.020259425 0.055610243 -0.07112399 -0.036685564 0.14650847
0.09229738 0.15506159 0.11930826 0.060016904 0.11236123 -0.10256192 0.05464824 0.13919288
0.00878197 0.021338942 0.14631914 0.15153389 -0.023362424 -0.13830163 -0.102437995 0.07173301
-0.017171763 0.10113932 -0.11948074 0.1504716 -0.12999104 0.05745599 -0.11827214 4.59259e-05
0.16567928 0.10497046 -0.20330973 -0.087139234 0.13584207 0.05850399 0.0331747 0.10021727
-0.03821622 -0.11158776 0.098128244 0.13477893 -0.049938764 0.05901435 -0.048801877 0.0450668
0.15725704 -0.14116187 0.03770735 0.08135091 -0.031861857 0.050596096 0.028527185 0.110003136
0.08080837 -0.14500293 0.049884375 0.1358519 0.10253162 0.11776141 0.07617887 0.10629353
0.15204479 -0.017775403 0.07881171 -0.025723929 0.1545087 -0.03767165 -0.028506743 0.047884833
0.13277334 0.08973988 0.09295286 -0.048345402 0.054742858 0.03632545 -0.1781051 -0.07419377
0.107102804 -0.10673349 0.057578348 0.13343836 0.07125171 0.124246635 -0.07341835 -0.072368376
0.07377947 0.12019183 -0.011094518 -0.10822977 -0.035492096 0.04858451 0.14999919 0.07397119
0.11840587 0.052405503 -0.03952023 0.17522098 0.07356798 -0.073731914 0.10270533 0.086955845
-0.047902625 0.04237893 -0.11033799 -0.14599335 0.024695637 0.16806623 0.010497577 0.068717085
-0.11877664 0.11219012 0.02179042 0.10749661 0.16778979 0.060521644 0.0848711 -0.26876163

Q1.head.2.weight f4 [128, 128]
00000000: 03f1 8fbc 8e98 e53b 8754 833c f507 323d
00000010: 2a0d 0b3d 87c5 cb3d ae26 673d a478 78bc
00000020: 24e6 f5bc 859e 953e 19d1 cc3d ab6d ba3d
00000030: 8b05 7bbd 94cf 55bb 242a 78be 0bc4 b1bc
00000040: b7a4 c2bb 8a7c 9d3c 109b aa3c 2ceb 983e
00000050: 13ac 8c3d 8e1e cf3c b08e bd3d 54d4 953d
00000060: e29a 2a3e 8d3e e23d cc7c 843d 036e e33d
00000070: c22a 44bd 5f44 e73d ccfd 0cbe 70b0 553e
00000080: f726 74bc d740 8d3d 20ff 153a d7f5 74bc
00000090: 2e42 003c be8e b83d 6af6 ccbd bdf3 283c
000000a0: b620 c03d 8e9e 21bc 68b3 193d e9a0 843c
000000b0: 0932 eb3d e1b4 bd3d 5f58 373c 95e2 b53d
000000c0: 385a 97bd 019d 1c3b da24 013c 5357 dd3d
000000d0: 403b f33b b564 083d 01ae be3b a1e8 4a3e
000000e0: 2e65 a63d d685 98bc 0ab7 f3bc 6ffc 903c
000000f0: 4e28 a1bd 6049 293d fe54 d53d 2488 aa3d
00000100: 4585 0c3d 5347 c53e b591 a63c aea9 003d
00000110: 99cb b33d d679 cdbc 2a34 d53d 606a cb3c
00000120: 5f3b 033e 8389 37bd 0ad8 2cbc a55d 553c
00000130: 0e12 533d a8f0 23be 8daf fc3d 297b 123d
00000140: 7646 ef3d 2e1c 303c 76dd 173e 1fc3 3a3e
00000150: 1ea4 4d3c 1725 68bb 45aa 6b3e c6ce 993d
00000160: b05b 47bc 907d 6e3d 7e23 a9bb 6c7f ad3d
00000170: 0131 053d d059 b93c 8d2a 00be 3e33 dfbd
00000180: 8101 80bc 9da6 493d 1e77 b73d a4f3 6a3e
00000190: c45c a23d 8809 323e fdfd 983d d91a c33d
000001a0: 800e de3d fe4c 9a3d ae4f 56bd e4e4 d5bd
000001b0: 484c a63d 548c 16bd 6775 c93d ad07 b2bc
000001c0: 1895 873d 788b c73d 006f fe3d be5c 7cbd
000001d0: 9c88 b6bb 5fdd e139 d958 69bd 3320 0c3e
000001e0: f08c 32bd d388 f53d 95e7 963d 28ef febc
000001f0: 98c8 61bd aead 293d 7b4a fa3d d1ac 02bd
00000200: 4316 2cbe 71fd f83d 967a 283c f628 a13c
00000210: f541 8f3d cbc5 e23b 4ee8 6b3d ef2f 12be
00000220: 580a 223c 1a6c babe bd8e 03be 7af2 903c
00000230: cc9f 493c e6f4 e03d 0206 193e 542e cc3d
00000240: 131f b43d 1aff 903b cf29 303d 6523 563e
00000250: dcf8 f63d 6462 133e b54e 133e 64f4 d8ba
00000260: c702 aabd d29d c03b 6748 f73d 9be4 f13d
00000270: 31ed 7ebe ef8c 1e3e 0e64 10be 3efc 1d3c
00000280: 65fe 63bc 6773 15bd 663d 323d 00dc 4d3d
00000290: 9c4a e33d 0370 82bc b692 a6bb e145 713d
000002a0: 15c8 e93d 08f9 183d bd4a 0f3e 0c89 64bb
000002b0: 112d 05bc 1b30 f83d d06d 093d fc9f 213d
000002c0: 5ef6 babc d621 ea3d fb4c 6b3d 6da9 c0bc
000002d0: de65 b03d b024 383d 2265 a13d ab15 963e
000002e0: 391f ad3c a006 d2bd 90ab 973d c891 843d
000002f0: d4fa d8bd ab7e 773e f461 6fbd fa63 423d
00000300: c035 4f3c fcc6 30be faf3 183d 94b8 aabc
00000310: 74a1 0f3e 3df6 933d 5216 893d 3a34 873d
00000320: eda3 f83d 4188 753d 7e54 5abd 8da3 293c
00000330: 37c9 8e3d 886d c63c b9e7 b83d 5940 b13d
00000340: c98b d43d b43e 923d 50a6 be3d 479d 753d
00000350: fd39 2a3d f9ef ad3e 5c7e 13be c579 943c
00000360: 3b44 1b3c f1cc 50bd 9798 853c 2aa4 c43d
00000370: fc02 e23d 8ddc 013d 0efc 003e 2842 0bbe
00000380: 5a73 fe3d 307b 093c 9b4f b2bd 3d11 00be
00000390: 4dbe e53d e3df 93bc ab2c 8d3d bf82 e3bc
000003a0: 7556 b13d edd6 1b3d a76c fa3c b571 303d
000003b0: 3806 ee3d c3f1 a5bc 17ff e83d f533 ce3c
000003c0: d3e5 44be e8b7 a0bc 7cc4 58bd c264 89bd
000003d0: 25e6 b03d baf6 8b3c 6cbb 3d3d e58b ca3d
000003e0: bf02 0c3e 46ec 043e cd44 973d 054a f63b
000003f0: 6c61 c53d 90f8 843c d90a a03d 607d e13d
-0.017570978 0.0070067113 0.016031517 0.04346462 0.0339481 0.09949785 0.056433372 -0.015165482
-0.030016966 0.29222503 0.1000082 0.09102949 -0.061284583 -0.0032624947 -0.24234825 -0.021699926
-0.0059400457 0.019224424 0.020825893 0.29866922 0.06868758 0.025283124 0.09255731 0.07315889
0.16660646 0.11047087 0.064691156 0.111049674 -0.04789234 0.112923376 -0.13768691 0.20868087
-0.014901868 0.06897133 0.00057219155 -0.014951191 0.0078282785 0.09011601 -0.10007937 0.010312018
0.09381239 -0.009864463 0.03752461 0.01619001 0.11484153 0.092630155 0.011190503 0.08881108
-0.07390255 0.0023897293 0.007882321 0.108076714 0.0074228346 0.033299167 0.0058190827 0.19815303
0.08124767 -0.018618505 -0.029750366 0.017698495 -0.07869016 0.04132974 0.104166016 0.08326748
0.034306783 0.3853098 0.02033315 0.03141182 0.087790675 -0.02508251 0.1041034 0.024830997
0.12815617 -0.044808876 -0.010549555 0.013022815 0.05153089 -0.16009772 0.12338171 0.035761986
0.11683361 0.010748906 0.14830574 0.18238495 0.012551336 -0.0035422498 0.23014171 0.07510142
-0.012167856 0.058225214 -0.0051617017 0.084715694 0.032517437 0.022625834 -0.12516232 -0.108984455
-0.015625717 0.04923116 0.08958267 0.22944504 0.0792785 0.17386448 0.074703194 0.09526605
0.108426094 0.07534216 -0.052322082 -0.10444048 0.08120018 -0.03675492 0.09836846 -0.021732176
0.06620234 0.097433984 0.12423515 -0.061611883 -0.0055704843 0.0004308028 -0.056969497 0.13684158
-0.04359144 0.11988988 0.073683895 -0.031119898 -0.05512294 0.0414254 0.12221237 -0.03190309
-0.16805367 0.12157715 0.010283133 0.019672852 0.06995002 0.0069205514 0.05759459 -0.14276098
0.009890161 -0.364106 -0.12847419 0.017693747 0.012306165 0.10984211 0.14943698 0.09969774
0.087949894 0.0044249417 0.04300862 0.2091194 0.12059185 0.14393002 0.14385493 -0.0016552326
-0.08301311 0.0058781886 0.120743565 0.11811181 -0.24895169 0.1548345 -0.14100668 0.009642659
-0.013915633 -0.03648701 0.043515585 0.050258636 0.11098215 -0.015922552 -0.0050834073 0.058904532
0.11415116 0.03734687 0.13993354 -0.0034871725 -0.00812842 0.121185504 0.03355199 0.039459214
-0.022822555 0.11432235 0.05744646 -0.023518289 0.086131796 0.044956863 0.07880618 0.29313406
0.021133052 -0.1025517 0.0740577 0.06473118 -0.10594717 0.24169414 -0.058443025 0.047458626
0.012647092 -0.17263407 0.03734205 -0.020839967 0.14026433 0.072247006 0.066937104 0.06601758
0.12140641 0.059944395 -0.053303234 0.010353935 0.069719724 0.02422215 0.090285726 0.086548515
0.103782244 0.07140866 0.09309065 0.059964444 0.04155921 0.33972147 -0.14403671 0.01812447
0.009476717 -0.050976697 0.016308112 0.09601624 0.110357255 0.031704474 0.12596151 -0.13599455
0.12424345 0.008391187 -0.0870659 -0.12506576 0.112179376 -0.018051093 0.06893285 -0.027772306
0.086590685 0.038046766 0.030569388 0.04307719 0.1162228 -0.020256883 0.113767795 0.02517126
-0.19228296 -0.019618943 -0.052921757 -0.06708671 0.086376466 0.017085422 0.046321318 0.09889964
0.13672923 0.12980756 0.073861696 0.007516148 0.096377224 0.016231805 0.07814569 0.110102415

Q1.head.2.bias f4 [128]
00000000: b015 ac3d 2f36 db3c 7006 943d 974b 1d3d
00000010: 2175 9e3d c791 ff3d b9ad bc3b 774e 27be
00000020: 35ec 64bd dca4 043d 7c41 583d ba52 c2bc
00000030: c50a 7b3d 9689 533d e996 603d 661b 87bd
00000040: 7ac4 043e f7f8 c4bd 28fa d63d 26b4 013e
00000050: 4671 2d3d b921 023d 8e0a 933d 3def 703d
00000060: 9f8d de3d 4841 d53d 11b9 ad3c f7e8 4f3d
00000070: e22b af3d 8eeb 133e 702f 09bd 686a a43d
00000080: 749f 0bbd 207d 243c d8f2 ab3d a476 8b3d
00000090: a522 6a3d aa32 003e cbb2 41bd a76a 69bd
000000a0: eea3 3a3d 2d0e ce3d dbd3 813d a20e 9a3d
000000b0: dd97 ce3c 38dc 483c 51be a93d 663b 6f3d
000000c0: db29 b63d d248 eb3d d173 cf3d b3f3 b73c
000000d0: 9908 353e 95bc d63d e425 ee3d 1b4d bebd
000000e0: a672 fe3d 6adc 1f3d c135 813d 3afa f93b
000000f0: b1c1 19bd c126 d93d da49 e7bd d88d b33d
00000100: 6f9a bc3d 7d54 d53d 91d0 ea3c f1d6 ce3d
00000110: cfff d73d 2499 5d3d 33eb 6ebd 952f 173d
00000120: a3a0 b43c 327f be3d 0311 4f3d 06a6 d53d
00000130: 1c42 1a3d 439a ee3d df1f 883d 21c1 033e
00000140: f4f7 713d 4656 373d cc15 983d 35c2 5dbd
00000150: 0356 f43d 5cde 7cbc a4ba cb3c b406 083e
00000160: 2021 ad3d 0783 d93c cd67 a9bb 8bf7 b33c
00000170: 41c8 7b3d b2bd bebd 94c7 de3d 821e 123c
00000180: cf24 e83c b07a 893d 2156 443d cdf5 6c3d
00000190: 9581 d8bd 43f7 0e3e 63e6 b93d a460 9f3d
000001a0: 3f89 aebd 1379 55bd 745f fc3d 5b92 d0b8
000001b0: 11f0 c0bd b7ae 213d 8914 c83d c9f9 92bd
000001c0: dbf8 783d 1898 103c 6d08 6e3d fdab 583d
000001d0: 39d2 083d 678b 733d 4a40 43bc d367 12bd
000001e0: 02e2 6d3d c5dd d03d eb7e eabc 035a a63d
000001f0: 997b 86bd 7a7b d93c 8129 d63d e30f 95bd
0.08402574 0.026759235 0.0722779 0.038402166 0.07737184 0.12478977 0.005758014 -0.16338526
-0.055889327 0.032383785 0.052796826 -0.023721088 0.061289568 0.051644884 0.05483142 -0.06597023
0.12965575 -0.09617799 0.10496932 0.12666377 0.042344354 0.03177044 0.071797475 0.058821905
0.10866856 0.10412842 0.02120641 0.050759282 0.08553292 0.14445326 -0.033492506 0.08028108
-0.034087613 0.010039598 0.08395928 0.06809738 0.057161946 0.12519327 -0.04728965 -0.056986477
0.04556649 0.100612976 0.06339236 0.07522322 0.025218898 0.0122595355 0.08288253 0.058406256
0.08894702 0.11488499 0.10129512 0.022455072 0.17679061 0.10485188 0.11628321 -0.092920505
0.12424211 0.039028563 0.06309081 0.0076287063 -0.037538234 0.10603095 -0.11293383 0.08767289
0.09209143 0.104165055 0.028663905 0.100995906 0.105468385 0.054101124 -0.058329772 0.036910612
0.022049254 0.09301604 0.050553333 0.10432057 0.037660703 0.11650517 0.06646704 0.12866642
0.059074357 0.04476001 0.074260324 -0.05414029 0.11930468 -0.015433874 0.02486927 0.13283807
0.08453584 0.026551737 -0.0051698447 0.021968624 0.061470274 -0.09313525 0.1087791 0.008918406
0.028337864 0.06712854 0.0479337 0.0578516 -0.10571591 0.1396151 0.09077146 0.077821046
-0.08522271 -0.05211742 0.12322894 -9.945474e-05 -0.09420789 0.03947326 0.09769542 -0.07176549
0.060784202 0.0088253245 0.058113504 0.052898396 0.03340361 0.059459116 -0.011917183 -0.035743546
0.058076866 0.10198549 -0.028624972 0.08122637 -0.06566543 0.026548136 0.10457135 -0.07278421

Q1.head.4.weight f4 [72, 128]
00000000: 8669 9bbd f718 ba3c 3d7b 25be b826 823e
00000010: e468 493e 9a39 e9bd e1b4 1bbd 0b54 123e
00000020: 3498 4a3e d35a ca3d 3915 8fbd 231d 07bd
00000030: dd4f 17bd 5887 80be bd3f 98bd c1a8 9c3e
00000040: 11fd 2ebe f390 95bc 8423 d6bd 641e 3dbe
00000050: a843 c2be 7448 57be eac0 bcbd 9fab dbbd
00000060: f6fb c33e 17d6 53bd e419 b3be 3058 7d3d
00000070: 0a05 aebb d78d c83e fce7 d43d c687 38bd
00000080: c54c a2be a246 dabd 6012 443e 64bb 98be
00000090: 07cd 263b d84d 27be 7abc e5bd 7988 aabe
000000a0: 9680 d7bd e62c b1bd 09cb d6bd 4dae 183e
000000b0: 188c 4abe 390e 42be 2d29 3abe 731c 45bd
000000c0: be0d 1bbd d3c6 a8bc 2a4d 95be 1440 c7bd
000000d0: c1d8 a9bc 871c 2fbe 0c6f eabd 6f72 f1be
000000e0: 514f 023d 4b44 99be a6fb d5bd 8280 81bd
000000f0: 25f4 24bf 5def 86be 2fcb 543e 1619 803c
00000100: c243 0ebe f90a 0dbe e924 c0bd 37f5 67be
00000110: 717c 653c 9f5d 08be b1eb bf3e 237e 91be
00000120: 0e2e 9cbd 7199 813d 1a90 6e3c ba9b 81bc
00000130: 3e5b 31be ca9f 183d 3628 a3bd 9a6d e0bd
00000140: a18c 0e3d 29d7 80be ec81 0bbe 0b0f 98be
00000150: b75f 1c3d a85b 3b3e f2ae bdbd bf17 f7bd
00000160: 1931 30bf 31da 90bd d73c cdbe ae01 ad3c
00000170: db8e 2dbe c592 3d3c cdc8 353e 6600 c4be
00000180: e0d7 1cbe 4251 fcbe 3661 d8bd dadc 613e
00000190: b8ab f13c de46 d53c b435 23be 59dd 53bf
000001a0: b4ad 943b 716f acbf 8ab3 37be 8260 543e
000001b0: d306 cf3c 3cb6 e1be c240 a4bc b6a9 b13e
000001c0: de89 5b3e 293d 03be ac56 dabb 6172 85be
000001d0: 0754 b4bd 2b9c 88be 0bf7 2bbe ed34 383e
000001e0: ad3e 64be a823 85be 467f 05bf 588f c33d
000001f0: 8644 ddbd 3c17 26bd 7ecf a8bd 8ec3 af3e
00000200: 1adf d2bd 2e0d afbd 325f adbd 5115 c4bd
00000210: c08b cabe 0203 9dbc 63be 53bc 2d01 a5be
00000220: af0d 3cbf 3d64 a4bd e0a5 eabc 6fd4 bfbd
00000230: 9b0b 65bd a210 42bd 534b 2bbf 49e5 aabd
00000240: 02a9 a23c 702e cc3c 1e44 9abd 2595 4ebd
00000250: 0c12 1dbe 05e0 02bf 99b3 20bc 1a3f bfbd
00000260: ef53 59bd 3b65 2bbf 4732 5abe 216c 89bc
00000270: 8add 8abc fb9f 773d 8d41 d8be ac23 d03c
00000280: c10b 6c3b 3b77 08be 8690 98be 9ed9 083c
00000290: c76e 12bc 1478 3abc f228 c73c d399 62be
000002a0: 9662 95bc bf88 c7bb d163 08bd 35ab 9539
000002b0: af3a 35bd 6266 0dbe ff5a b63c d65c 4fbd
000002c0: 1d3a 5a3c ea55 60ba 59df 99bd 3af6 8cbd
000002d0: a38f 0fbf 0cb0 17bc c8ea c1bd ceb8 d9be
000002e0: 8afb 44bd 2851 06bd 7c43 133d 71fc 5fbd
000002f0: 7c51 9abe e696 0fbe 5c51 01bf c6a9 81bd
00000300: 6dcc 47bf 9ab2 bfbc a175 a3bc 0fa6 2d3b
00000310: dc9c abbd 751e e8bd d3fe 40bd b740 e0bd
00000320: 3d04 543d 65d6 07bd d4f3 98bd fd70 a2bd
00000330: 14e1 d9bd 34df 1f3c d77e 74bd 636e aabd
00000340: d17d 91be 2283 74bd 7917 8abd fbea 84bc
00000350: e1a9 05be 66d5 1ebf 3a34 76bd d282 ddbd
00000360: c9b9 f2be d043 debd 9a15 a3bd 7d46 7dbf
00000370: 9fe0 273c 32e8 0bbb 51a7 d6be 50d5 0cbf
00000380: fbad 51bd ecfc 62bd 211c 29bd 35ed 0bbe
00000390: 2a45 a4bd ceba 9ebc b2d5 1d3d 9c2d c9bd
000003a0: 02cd 61bc 2a27 0bbf 934f 0cbe c5d8 f93d
000003b0: ba2c 653d 4c67 ddbe 6bf6 77bd 85bf 45be
000003c0: 8d65 3cbf 6792 0fbe 9f65 93bc 2492 29bb
000003d0: 56c7 d8bd 94f3 0fbe 7ee2 e4be f47a 80bd
000003e0: 9e17 9fbd ed7b d1bd e5a0 b0be c244 4ebc
000003f0: 9b8a debe e926 16bf afed 4cbd f260 f9bd
-0.075884864 0.022716982 -0.16160293 0.25420165 0.19668919 -0.1138794 -0.038014296 0.14289872
0.19784623 0.098806046 -0.0698647 -0.03298677 -0.036941398 -0.2510326 -0.07434032 0.305975
-0.17088725 -0.018257594 -0.10455993 -0.18468624 -0.37942243 -0.21023732 -0.09216483 -0.107260935
0.38278168 -0.051717844 -0.3498069 0.06185168 -0.0053106593 0.39170715 0.1039581 -0.04505136
-0.31699196 -0.106580034 0.19147635 -0.29830468 0.0025451796 -0.16338289 -0.1121759 -0.33307245
-0.10522573 -0.08651142 -0.10487945 0.1491024 -0.19780004 -0.18950738 -0.1817977 -0.048122834
-0.037854902 -0.02060262 -0.29160434 -0.09729019 -0.02073324 -0.17100726 -0.11446962 -0.47157618
0.031813923 -0.29934916 -0.10448389 -0.06323339 -0.64435035 -0.26354495 0.20780633 0.015636962
-0.13893035 -0.13773717 -0.0938204 -0.22652136 0.01400672 -0.13316964 0.37484506 -0.28416547
-0.07625972 0.06328095 0.014560724 -0.015821327 -0.17319962 0.03726176 -0.07966654 -0.10958405
0.034802083 -0.25164154 -0.1362378 -0.29698977 0.03817722 0.18296683 -0.09261884 -0.12065076
-0.6882492 -0.07072867 -0.4008548 0.021118965 -0.16949026 0.011570637 0.1775238 -0.38281554
-0.15316725 -0.49280745 -0.105654165 0.22056904 0.029500827 0.026034769 -0.15938455 -0.82759625
0.0045373086 -1.3471509 -0.17939582 0.2073994 0.025271809 -0.44084346 -0.02005041 0.34699792
0.21439311 -0.128163 -0.006663164 -0.26063827 -0.088050894 -0.26681647 -0.16793458 0.1798894
-0.22289534 -0.26003766 -0.5214733 0.09548825 -0.108040854 -0.0405495 -0.08242701 0.34328884
-0.102964595 -0.08547436 -0.08465423 -0.09574378 -0.39559746 -0.019166473 -0.01292381 -0.3222746
-0.7345838 -0.080269314 -0.028643548 -0.0936669 -0.05591927 -0.047379144 -0.6691181 -0.08344514
0.01985598 0.024924487 -0.075325236 -0.050435204 -0.15338916 -0.51123077 -0.009808444 -0.093382075
-0.05305856 -0.6695134 -0.21308242 -0.016775193 -0.016951341 0.060455304 -0.4223751 0.025407635
0.0036017748 -0.13326733 -0.29797763 0.008352665 -0.008937544 -0.011381168 0.024311516 -0.22128992
-0.018235486 -0.0060892995 -0.033298317 0.00028547054 -0.04424542 -0.13808587 0.022260187 -0.050625645
0.013319519 -0.0008557724 -0.07513303 -0.068829015 -0.5607855 -0.009258281 -0.09468609 -0.42523807
-0.04809145 -0.03279224 0.03595303 -0.054684106 -0.30140293 -0.14022407 -0.5051477 -0.0633121
-0.78046304 -0.023400594 -0.01995355 0.0026496684 -0.08379528 -0.11333934 -0.04711802 -0.109498434
0.051761854 -0.033163447 -0.074683815 -0.07931707 -0.10638633 0.009757806 -0.059691276 -0.08321836
-0.28416303 -0.05969537 -0.06742758 -0.016225329 -0.13053085 -0.6204437 -0.0601084 -0.108159676
-0.47407368 -0.10852778 -0.079631045 -0.9893568 0.010246425 -0.0021348116 -0.41924527 -0.5501299
-0.05119131 -0.055416986 -0.04128659 -0.13664706 -0.080210045 -0.019376185 0.038533874 -0.098231524
-0.013781788 -0.54356635 -0.1370223 0.12199549 0.055950858 -0.43242872 -0.060537737 -0.1931134
-0.73592454 -0.14020692 -0.017992793 -0.002587446 -0.10584895 -0.14057761 -0.4470405 -0.062734514
-0.077681765 -0.10228715 -0.34497753 -0.012589635 -0.43465123 -0.5865312 -0.05003136 -0.12176694

Q1.head.4.bias f4 [72]
00000000: 0757 9bbd dabc b2bd c7fe a5bc 89e5 00bd
00000010: b5a6 1c3d 15a2 c3bd 2d19 0cbd 8cef fabd
00000020: f9d1 48bd a061 e13d d760 3fbe 523f ffbd
00000030: b32d 103d 37c3 8dbd 5782 0ebe 4ac7 203b
00000040: 61c1 2dbd 4523 533c 04da 52bd 7877 0c3d
00000050: d784 163d 155d d0bc ff7c 67bd e522 5a3c
00000060: 67d4 18bd 5b49 c2bd c5cd a0bd 65f1 f9bd
00000070: bc65 38bd c4fc 1bbc 1c03 1ebd f4d8 d0bd
00000080: e9f9 0abe 4ff5 07bd 1e6c c13b a05c 19be
00000090: e1fc d6bd 3734 b13d fc6c e9bb 4b0d 39bc
000000a0: 9641 4c3d da22 b5bd e16d 58bd 6364 6bbd
000000b0: cc76 3d3c 061d 723d defe 253c 7135 efbd
000000c0: e501 fc3d fa64 2dbc 2cfb f6bc d6e1 03be
000000d0: d30d fbbc f0a2 99bd f977 e9bd d810 933c
000000e0: 2a3c 5fbd a01a 57bd 8e78 9ebc 4805 17bd
000000f0: 237b b5bd beb1 01bd bfcc 20bd cc55 833c
00000100: dcd8 743d d0ec e9bc 1557 99bc 9bd7 ad3b
00000110: 3127 543d f6a9 cd3a 83ed f93d 7d2a 8b3d
-0.075849585 -0.08727427 -0.020263089 -0.0314689 0.03824492 -0.09552399 -0.034203697 -0.12252721
-0.04902837 0.110049486 -0.18689285 -0.12463249 0.035199832 -0.06922 -0.13916908 0.0024532848
-0.04242075 0.012886827 -0.051477447 0.03429362 0.03674778 -0.02543501 -0.05651569 0.013313984
-0.037311938 -0.09486648 -0.078517474 -0.122042455 -0.045018896 -0.009520713 -0.038577184 -0.101976305
-0.13571896 -0.03319293 0.005902781 -0.1497674 -0.104974516 0.08652537 -0.0071235877 -0.011294673
0.049867235 -0.08844538 -0.052839164 -0.057468783 0.011563968 0.05910971 0.010131566 -0.11680115
0.12305049 -0.010583157 -0.030149065 -0.12879118 -0.03064624 -0.07501781 -0.11399836 0.017952368
-0.054500736 -0.052515626 -0.019344594 -0.03687027 -0.08861377 -0.03166365 -0.03925776 0.016032122
0.059777126 -0.028555304 -0.018718282 0.005305243 0.05179519 0.0015690911 0.12203505 0.06795213

Q2.head.0.weight f4 [128, 72]
00000000: 8a68 8abd 6f0c 0cbd a5f7 ef3d 8cea 543d
00000010: ac68 25be 8b34 82bb 408a d5bc 1757 cdbd
00000020: 9e11 bfbd cb84 343d 6545 ff3c 9bce 64bc
00000030: 6786 7ebe 113e c5bd 7557 d9bd 376e 0cbd
00000040: 1287 b83d 7761 d13d ace6 4ebd 2451 df3e
00000050: 5cdc efbc a4be 81bd 2c75 7a3d 4e4c bbbd
00000060: 49c2 abbd 1d97 a3bd 369f 1dbd 1df3 663d
00000070: 4d15 c33b 3427 dd3d e4da 983b 42ed 5bbb
00000080: 793b 213d 66fe ee3d c345 663c 36d6 273d
00000090: 1f8c cfbc 5229 e2bc b69e 7ebe ea9a 643d
000000a0: 3a2d 0b3d ff34 20be 6efa 1e3d c647 7bbd
000000b0: 2c5e b9bd e79d e13d fc80 98bc 2f07 4e3d
000000c0: 2d7e e53c 015d b03b c62b 813d 254e 8c3d
000000d0: cb73 313e 04c3 43ba 5413 b53d c0d5 5bbc
000000e0: 6239 da3d 4b78 63bd 23b1 8ebd d9b7 2bbe
000000f0: a15f c03a 44b7 0e3d a130 2ebc 0c6b edbe
00000100: 62ce c7bd ca00 633d 5aef b3bd c7c7 87bc
00000110: 23c8 41bd 47ec afbc f382 f3bd 892f 593d
00000120: 49c6 47be 0113 87bd 019c c63d 4fb8 2fbc
00000130: a45e 88be d4a2 a93e 51da 783e a64d c6bd
00000140: 1923 aebd 810c f8bd 4403 093e ffa2 dabb
00000150: 6aa1 19bd 589d 55be 9e25 16bb d04b 92bc
00000160: 6559 35be 7872 4f3d bebf 9bbd ff58 193e
00000170: 545a 8abd 8a5b 8fbd f1ae 92bd 79c9 833c
00000180: b6b9 3c3d 8a17 a8bd 035a 443e d97b 843c
00000190: 29fa 0ebe 4cba 29bc b9ac d9bd b70e 033d
000001a0: 9a42 b23d 1656 16be d50f 113d 1b3e 86be
000001b0: 07aa 0e3e fef9 e7bc bb1d 61bd 6c21 31bd
000001c0: 45f0 0fbe 4acb 4b3d dd4c bdbd 8aec 64bd
000001d0: 4eb2 e4bd 913a 513e f6f8 10be 136f afbd
000001e0: 6076 9b3d c4c6 1cbe 3179 e03c 1dc0 b23d
000001f0: 4315 19be cd70 413d ea38 f03d e4ee f2bd
00000200: a344 533d a663 1c3d 1a6c c03d 2d75 26bc
00000210: 23de 2f3d e91a a63e 2e4c a1bc 8910 ae3c
00000220: 55ba 063d 8149 883d 35f0 fa3d ac94 183d
00000230: d52d 36be 61f0 92bd d2f9 aa3d 7750 113d
00000240: 67b6 83bd b62e d63d de8f 263f b8e4 d1bd
00000250: 36f0 f1bd 8415 f3bd 0da0 d33d d760 b3bc
00000260: a71a b63d 5254 d5bd be50 f4bd 9dc5 813c
00000270: f739 6cbe ec0a ae3d b978 bb3d 314a 3dbe
00000280: b864 893c 46da 0c3e 61f4 fb3d f38d 94bd
00000290: f006 f33c a71f a4bd ef97 933d 5891 23be
000002a0: d841 003d 8c09 9abd 8a8c ad3c a8c4 07bb
000002b0: 9890 ce3d 9b35 03bd a3dc cb3c f395 833d
000002c0: 8766 063d c2cf ce3d 77fb 01bd 6720 9d3c
000002d0: ad8c 8b3d b7cb f0be 03d1 033e 15c2 f4bd
000002e0: c9e5 743c b3b3 8fbd 031a ca3d 203a 86bd
000002f0: 949c 34bd 7469 d4bc 4a2c 793d 2f26 b5bd
00000300: e199 d1bc c264 9dbb c798 d63d 4d16 26be
00000310: 471c 11bd f878 483d 3ee3 2cbd f049 d2bd
00000320: 32d2 dfbd d71b 9f3d 1f73 babd b4ef 06bd
00000330: 9613 a43d 1846 17be 5269 a03d f5a8 79bd
00000340: 4530 c2bd 4b07 e23d c33e 4c3d 9d82 c1bd
00000350: 5ee0 ba3b ebf0 273d 2a2f 0d3e 19be 8c3d
00000360: e5f3 7cbd ec83 2f3c 8088 a6be 6c49 ea3d
00000370: 1ec4 88be 8a86 72bd e47f 6fbd 06f8 c83d
00000380: 479c c6bb 23e1 2b3e cdb0 093d 7afb 983d
00000390: ed55 2cbe bc63 a9bc a3f1 11b9 3798 91bd
000003a0: e25c 6dbd 9282 e53d 24b3 aabd 0b49 183e
000003b0: 78f1 e83c 2068 29bd f3c2 69bd 3524 17bd
000003c0: a22b d03d 697f b1bd 029c 0f3e 841e efbd
000003d0: c8e2 6f3d 93c2 e0bb d3ac b53d fc69 46bd
000003e0: ef25 8c3d 9e36 5c3c a965 243e 604c c73d
000003f0: 5353 e0bd 9f69 e8bd 22dc 573d d4ca 84bd
-0.067582205 -0.034191545 0.11717156 0.051981494 -0.1615321 -0.0039735488 -0.0260669 -0.10026377
-0.09329532 0.044071954 0.03116102 -0.013965274 -0.24855958 -0.09630979 -0.10612384 -0.034284797
0.090101376 0.10223668 -0.050512955 0.43616593 -0.02927988 -0.0633519 0.0611469 -0.09145413
-0.08386666 -0.07987807 -0.038481914 0.056384195 0.005953467 0.10798493 0.0046647657 -0.0033558165
0.03936336 0.116696164 0.014054718 0.04097577 -0.02533537 -0.027607594 -0.24865231 0.0558118
0.03397868 -0.15645216 0.038813047 -0.061347745 -0.09051165 0.110164456 -0.018616192 0.05029982
0.028014267 0.0053821807 0.06307177 0.068508424 0.17329328 -0.0007467719 0.08841577 -0.013417661
0.10655476 -0.055534642 -0.0696738 -0.16769351 0.0014676937 0.034842744 -0.010631711 -0.46370733
-0.09756161 0.055420674 -0.08785887 -0.016574753 -0.047310006 -0.02147497 -0.11890211 0.05302385
-0.19509234 -0.065954216 0.09697724 -0.010725095 -0.26634705 0.3313204 0.24302031 -0.09682779
-0.08502788 -0.1211176 0.13380152 -0.0066722627 -0.037507452 -0.20860803 -0.0022910605 -0.017858416
-0.17709883 0.050646275 -0.07604931 0.14975356 -0.0675551 -0.069998816 -0.07162274 0.01608728
0.046075545 -0.08207615 0.19174962 0.016172336 -0.13962616 -0.010359358 -0.10628647 0.031996455
0.087041095 -0.14681277 0.03541549 -0.26219258 0.13932048 -0.028317448 -0.054959994 -0.043244764
-0.140565 0.04975442 -0.09243176 -0.055889644 -0.111668214 0.20432498 -0.14157471 -0.085661076
0.075909376 -0.15310198 0.027401539 0.08728049 -0.14949517 0.047226716 0.117296055 -0.11861971
0.05157913 0.03818097 0.09395619 -0.010159773 0.042936455 0.32442406 -0.019689646 0.021248119
0.032892544 0.06654645 0.12252847 0.03725116 -0.17790921 -0.07174755 0.08348431 0.035477128
-0.06431275 0.10458128 0.65063274 -0.10248703 -0.11813395 -0.11869338 0.10333262 -0.021896763
0.08891802 -0.104164734 -0.11929463 0.0158413 -0.23068987 0.08498177 0.091538854 -0.18485333
0.01677166 0.1375514 0.12302471 -0.07253637 0.029666394 -0.0801385 0.072067134 -0.15973413
0.031312793 -0.07521352 0.021185178 -0.0020716581 0.10086173 -0.032033544 0.024885481 0.06425085
0.03281262 0.100982204 -0.031733956 0.01918049 0.06813941 -0.47030422 0.128727 -0.11951081
0.014947363 -0.07016697 0.098682426 -0.06554055 -0.044094637 -0.02592919 0.060833253 -0.088451736
-0.02558607 -0.004803271 0.10478359 -0.16219445 -0.035427358 0.04894349 -0.042208903 -0.10268009
-0.109287634 0.07768982 -0.09103989 -0.032943442 0.08011548 -0.14772832 0.07832588 -0.060952146
-0.09481863 0.11036547 0.04986454 -0.09448741 0.005703016 0.04100124 0.13787523 0.06872196
-0.061756033 0.010712605 -0.32526016 0.11439785 -0.26712126 -0.059210338 -0.058471575 0.09812932
-0.00606111 0.16785102 0.033615876 0.0746984 -0.16829653 -0.02067744 -0.00013918294 -0.07109111
-0.057949908 0.11206545 -0.083349496 0.14871614 0.028435454 -0.041359067 -0.057070684 -0.036899764
0.10164572 -0.0866688 0.14024356 -0.11675742 0.058565885 -0.0068591326 0.08870854 -0.04844092
0.06843173 0.013440756 0.16054405 0.09731364 -0.10953393 -0.113482706 0.05270017 -0.06483999

Q2.head.0.bias f4 [128]
00000000: daac 853d 6fe2 d93d 6680 f13c 1220 513c
00000010: 2d8c 09ba 3618 863d 3794 15be 6487 fb3d
00000020: 2cb4 8dbb ebdb 643d 0419 9abe 6a41 13be
00000030: a480 003c 84c2 e8bc f590 b83d 22d4 d7bd
00000040: 2a70 473d 6fb7 00be 5708 cc3d 8ba6 51bd
00000050: 64ad a8bd 261b f4bd 5cb0 da3d f3ed 86bc
00000060: ae53 de3d 77d1 c53d 20ce 2e3d 9ca8 abbd
00000070: 282f a63d 8308 1c3e a358 e73d 8b66 d13d
00000080: 41fd e73d 9215 95bd 9f96 a13d 03ec f6bb
00000090: fa6d f13d 2c7b a4bd afc9 e6bc 909f 703d
000000a0: f13b a8bc 6dcf 023e d164 81bd a878 e63d
000000b0: b2cf 7a3d aa04 573c a5e5 8ebd 3f5f d03d
000000c0: 0dc8 f23d 87cb ec3d cb9a 513b e505 b33d
000000d0: 11d5 c13d cc08 083e b530 ef3d 0149 f7bd
000000e0: dd0b 87bd 28a0 44bc b576 e13d b444 883d
000000f0: ac50 d8bd b04b a53d 0a4b cf3c 9266 ac3d
00000100: e817 b23d 43af 4f3d c4d3 3fbe 61d4 793d
00000110: f716 ec3d b689 c83d bbb0 793c 2c84 19be
00000120: be66 6fbd af93 693b 5f2c 6d3d 54c8 b93d
00000130: 1fab 90bd 24ee 1f3d 8740 343d 939a 08be
00000140: 97ca a83d dec5 493d 6000 2d3d f1f6 123e
00000150: 7d63 1ebe 17d3 c3bd 7ae2 9b3c 8b92 e03c
00000160: 5374 ec3d 4196 6dbd 709e 1bbe a751 5f3d
00000170: 243d 0a3e 09ab 863d 4881 ba3d 0c2f 0dbe
00000180: 741c 67bd 7838 143e 4101 053e 02b5 93bd
00000190: a885 a33d 6604 43bd cb01 cebb c6c1 eb3d
000001a0: 8875 983d fcb7 563c ad13 5a3c 829b 69bd
000001b0: a7bc 1a3e 90ca ccbd eda6 243e 56ac 953d
000001c0: 174b bb3d c863 fc3d 60a9 94bd 544c d23d
000001d0: fa3b eb3d 89f6 ba3b be81 bfba b98f 723d
000001e0: 8055 fd3d d861 c23c 00ab b8bd 77c8 95bd
000001f0: a79b 8e3d 1de2 c33d 93bf 20bd 47a2 91ba
0.065271094 0.10638892 0.02948017 0.012763994 -0.0005247023 0.065475866 -0.1460732 0.12281683
-0.0043244567 0.055873793 -0.3009721 -0.14380422 0.00784317 -0.028413065 0.09012023 -0.10538508
0.048690952 -0.12569974 0.09962528 -0.05118422 -0.08236197 -0.11919241 0.10678169 -0.016470885
0.108558044 0.09659093 0.042677045 -0.08381769 0.08114463 0.15237622 0.11296203 0.10224637
0.11327601 -0.07279505 0.07890057 -0.007535459 0.117885545 -0.08031306 -0.028172342 0.05874592
-0.020536395 0.12774439 -0.06318057 0.11253482 0.06123323 0.013123671 -0.06977395 0.10174417
0.11854563 0.11562257 0.0031983133 0.08741359 0.09464467 0.13284606 0.11679212 -0.12074471
-0.065940596 -0.012001075 0.1100897 0.06653729 -0.10562262 0.08071077 0.025304336 0.08418001
0.08695966 0.050704252 -0.18733126 0.060993556 0.11527818 0.09791891 0.01523989 -0.14991826
-0.058447592 0.0035641005 0.057903644 0.09071413 -0.07063889 0.039045468 0.04400685 -0.13340215
0.08241766 0.049260966 0.042236686 0.14352013 -0.1546764 -0.095617466 0.01902889 0.027413627
0.115456246 -0.05800462 -0.15197158 0.05452123 0.13499886 0.06575591 0.0910669 -0.13787478
-0.05642362 0.14474666 0.1298876 -0.07212259 0.07984477 -0.047611617 -0.006286835 0.11511569
0.07444292 0.013105389 0.013310355 -0.05703307 0.15111028 -0.09999573 0.16079302 0.07308261
0.091451816 0.12323719 -0.07258868 0.10268465 0.11486049 0.005705659 -0.001461081 0.059219096
0.123698235 0.023728296 -0.09016991 -0.07313626 0.06963282 0.09564612 -0.0392452 -0.0011110984

Q2.head.2.weight f4 [128, 128]
00000000: fe77 953d 9af1 95bb 89ea 99bd d69a 5dbd
00000010: b0ae 3dbd 44dc 05bd 66c2 b3bd 446d a13c
00000020: c925 76bd 2f1a ea3c 11de 85bd 061c edbc
00000030: fd10 63bc 135c 4a3d 76de 92bd d2e2 91bd
00000040: a286 a3bd 0810 02bc 06fc 933d 08c8 21bb
00000050: b6ef afbd 5b5c 76bc 50cf 3cbd 6e56 41bd
00000060: 9c63 4cbc bf2a 49bd 3ffe 95bd 8286 533d
00000070: d137 c1bd 5cfe bdbd 8714 28bd aa8b 66bd
00000080: a304 80bd 9934 983d e3cf afbd 20c2 373d
00000090: 0181 9b3d 2773 1bbd 396a 163d e4b1 5f3c
000000a0: 93c1 0abd 46d6 19bd abfa 15bd 37ae 003d
000000b0: c427 05bc 6041 1a3d 2a6d a43c b9ec 223c
000000c0: b690 913c 18ea 66bc d15a 8d3d 9ef0 4b3d
000000d0: 640d b4bc c778 86bd d032 2dbd 119f b3bb
000000e0: 8955 96bc 776d 5bbd c5a3 de3c e46c 483d
000000f0: 31a3 1a3c eb5b b23d fe1f 873a 1e00 b03b
00000100: 020e aabc 2871 4abc fbd4 50bd 1db8 12bd
00000110: ced5 b43c ec00 b2bc 699f bd3b 48aa 153d
00000120: b950 3a3d 4f7e 703d ec0e afbd f57d 203d
00000130: c4f6 8bbd 7ba1 a4bd ad61 2cbd af00 dbbc
00000140: f39f 383d 52e7 c63b 8970 3fbd b2dd 843d
00000150: ab6e c13c 3f91 a53d 08d1 8d3d 1ee6 3c3b
00000160: c243 593d 3347 94bd 0fb5 8abd 2ee0 833d
00000170: 41bc 933b a0f5 edbc da99 09bd f470 afbd
00000180: 9b8c 673d d595 963d cabc 77bd 9e55 a8bd
00000190: 981c 1ebd 387f 123c 5078 a5bd f820 02bd
000001a0: 6b95 86bd 5464 de3c a35c f1bc 4dc6 3cbd
000001b0: 4b78 a8bd 3168 c1bc e35d a03d b9ad 0dbc
000001c0: c37b 0e3d 8156 2f3c 4113 b2bd 15c2 563d
000001d0: 95ef d33c 94ca aebd 5784 2dbd 9f65 803c
000001e0: d527 873d b9cf a2bd ea5a c03c fb06 db3c
000001f0: 7540 f03c cd7a 04bd 822d 553d fcab 6b3d
00000200: 9c35 d93d 2f75 b53d 2bd5 1e3e 53d6 8ebc
00000210: 82a3 fdbd 9727 99bc 7c22 3fbd 6274 adbd
00000220: 0656 d3bd 0b1b 3abd 3ee7 ae3e a639 813b
00000230: 593b d3bc 7cc9 333e b87b ca3c c828 973c
00000240: 6048 973c b727 73bc d77b adbd 3ff6 e23c
00000250: 0fda 103e 18aa 8e3e bbd4 fc3d e9a5 87bd
00000260: d842 e13d f738 e83d 1a6e 35bd 0232 debd
00000270: ac9a 8c3c 6f05 82bd c461 46bc c3b1 72bd
00000280: 22a4 a33d 161f adbc 575e d8bc f3e4 623c
00000290: 17bf 543d 2c55 c4bc 1023 02be 9c4d 5b3d
000002a0: fb44 7e3d 6939 b13d ae12 233e e648 a43d
000002b0: fd5e ea3d ef71 95be 8dc1 8fbb a650 1a3e
000002c0: a7f4 c63d 214c 023d fca2 1e3e 527a 4c3c
000002d0: a9e7 af3b d27a ac3d d22d 153d 5991 153e
000002e0: efd7 ce3c c0c7 9cbd d8d6 6bbd 9101 373c
000002f0: f80d c9bb b5ff 483d 6e4a 913d 2f75 713c
00000300: 82c8 adbc f26a c33d d09e b73d 1ca2 493d
00000310: 6b7d 3fbc 7001 03bd ed3b 27be 3005 503d
00000320: a544 b5bd fc29 0cbd 3e8a 543d c1b1 d93c
00000330: 7478 e73d c153 3e3e 1f16 bd3d 06fe 2abd
00000340: f2cf 733c f0a2 0a3d aaaa a4ba 016f 80bd
00000350: 9929 4e3d e501 babe 8c55 99bd e376 1bbe
00000360: deba cc3c a04c 7dbe ef6b 9d3c a420 8e3d
00000370: a98a 9fbd e84d b4bc 5ccb 0a3d 7505 9fbc
00000380: 4392 f43c 6e4b ff3d 1243 cc3b d382 01bd
00000390: 7c69 56ba fd84 273d 8671 86bc 2db3 4f3d
000003a0: 81b1 c03b 9ce3 16bc 9e52 cebc c0ab d43d
000003b0: 6c22 9ebb 3c7b 693d 782c db3c c7ba 013e
000003c0: d852 75bd 65ba 9f3d 9f00 fb3a a4ae 9cbd
000003d0: 118a 853d 0c39 bebd e9fa 4f3d 027f 9f3d
000003e0: 6c41 1a3d 8a41 a23c 73e5 b03d c823 a33d
000003f0: ab3a d3bc a20f 52bd 1333 c6bd 3698 1a3e
0.07298277 -0.0045759203 -0.07515437 -0.05410274 -0.046309173 -0.032680765 -0.08777313 0.019705422
-0.06009463 0.028576938 -0.065364964 -0.028944027 -0.013859031 0.049404215 -0.07171337 -0.07123341
-0.079846635 -0.007938392 0.07225804 -0.0024685878 -0.08590643 -0.015036668 -0.046096146 -0.047201566
-0.012474921 -0.04911303 -0.07323884 0.05164195 -0.09434474 -0.09277031 -0.0410352 -0.056285538
-0.062508844 0.07431907 -0.08584573 0.044862866 0.07592965 -0.037951615 0.036722396 0.013653252
-0.033876013 -0.037557863 -0.03661601 0.031416144 -0.008127157 0.037660003 0.020071585 0.009944134
0.017769199 -0.014093898 0.069020875 0.049790017 -0.021979041 -0.06566005 -0.042284787 -0.0054816087
-0.018351333 -0.05357119 0.0271777 0.04893197 0.009438322 0.08708938 0.0010309217 0.0053711077
-0.020758633 -0.01235608 -0.050984364 -0.035820115 0.022074606 -0.021728955 0.0057868254 0.036539346
0.04548714 0.058714207 -0.08547768 0.039182622 -0.06834176 -0.080386125 -0.04208534 -0.026733724
0.045074414 0.006070056 -0.04673818 0.064875975 0.02361234 0.08084344 0.06924635 0.0028823684
0.053043135 -0.07240143 -0.067728154 0.06439243 0.0045085256 -0.029047787 -0.03359399 -0.08566466
0.056530576 0.07352797 -0.060482778 -0.08219455 -0.038601488 0.008941464 -0.080795884 -0.031769723
-0.06571468 0.02714745 -0.029463118 -0.04608755 -0.08226069 -0.023609253 0.078304075 -0.008647376
0.034785997 0.0107017765 -0.08695079 0.052431185 0.025871078 -0.085347325 -0.042362537 0.015673457
0.06599394 -0.07949776 0.023480851 0.026736727 0.02932761 -0.032343674 0.052045353 0.057537064
0.10605928 0.088602416 0.15511005 -0.017436182 -0.12384702 -0.018695636 -0.046663746 -0.08469464
-0.10319142 -0.045435946 0.341608 0.00394364 -0.025785135 0.17557329 0.024717197 0.018452063
0.018467128 -0.014841012 -0.08470886 0.02770531 0.14145683 0.27864146 0.123452626 -0.06623442
0.109990776 0.1133899 -0.044294454 -0.10849382 0.017163597 -0.063486926 -0.01210827 -0.059251558
0.0799029 -0.021132987 -0.026412172 0.013848531 0.05194005 -0.023966394 -0.12708688 0.05354081
0.062077504 0.08653528 0.15925094 0.08021717 0.11443899 -0.29188487 -0.0043870867 0.15069827
0.097146325 0.031810883 0.15491861 0.012480335 0.005368192 0.084218636 0.03642065 0.14606227
0.02524945 -0.07655287 -0.057577938 0.011169807 -0.0061356984 0.049071986 0.070942745 0.014737411
-0.021213774 0.095418826 0.08965838 0.049226865 -0.011687617 -0.031983793 -0.16331454 0.050786197
-0.088509835 -0.034219727 0.05188965 0.026574017 0.113022715 0.18586637 0.09232735 -0.041746162
0.014881121 0.033846796 -0.0012563069 -0.06271172 0.05033264 -0.3632957 -0.0748702 -0.1518207
0.024991449 -0.24736261 0.019216506 0.069398195 -0.07790119 -0.022009805 0.033885345 -0.019411782
0.0298549 0.12465559 0.0062335813 -0.031618904 -0.00081791705 0.040898312 -0.016411554 0.050707985
0.005880535 -0.00920954 -0.02518588 0.10384321 -0.0048258808 0.05700229 0.026754603 0.12668906
-0.05989346 0.07799224 0.0019149965 -0.076504976 0.06520475 -0.092882246 0.050776396 0.07787897
0.037660047 0.019806642 0.08637514 0.07965809 -0.025784811 -0.05128444 -0.096777104 0.15097126

Q2.head.2.bias f4 [128]
00000000: f10d d2bd 5527 683d 48bf 8ebc 719d a13d
00000010: fa8c 383d 9330 953d 6056 ab3d 86c4 0a3e
00000020: 9ac4 e13d a6b8 9b3d 0a52 053d a3a3 d4bb
00000030: 7ddc db3d 1451 393d e77f d5bd 721c bbbd
00000040: fa77 8fbc d347 90bb a704 a83d 4557 ac3d
00000050: 40c6 fa3d 882a a3bd 97ba ec3d 1d70 a33d
00000060: 1477 163c ea87 3a3c 6370 503d 6bfb 0c3e
00000070: 1036 983d 933c f6bd 289f db3d 2a5a 7ebd
00000080: c6a7 b63d 19ee afbd ae21 493c 0a2d 83bc
00000090: 76f5 d43c b169 e93d 6fc8 b63d 4a8c 11bd
000000a0: c440 223d 775a 8fbd 493e e5bd 1242 bcbd
000000b0: 854e df3d 37ae d23d a344 c13d f3c3 8c3d
000000c0: 0c2d 023e 28b5 c13d 6eaf b5bc be0a d33d
000000d0: fc8f 833d a176 e8bd c6dd e73d ed2d 2b3d
000000e0: 1790 febc 27fa a33c d6d7 a73d 29dc c53d
000000f0: cc15 ee3d 779e 443d 95b1 dd3d 9b83 b43d
00000100: ac53 823d c25d 50bc 41e7 bf3b e21c b73d
00000110: 3522 573c 6f82 a03d 1c18 8f3d 4778 953d
00000120: e229 5b3d 9d9f d03c 63d2 ce3d a48c c23d
00000130: 6014 043e 2d4f d93d 2446 753d 12a6 df3d
00000140: 6dc6 5c3d d159 223d aa03 2fbd a268 db3d
00000150: 5901 eb3d abcc 18bd 4e02 ae3d 934a 063e
00000160: f2b6 9f3d 0be0 a9bd e7d2 943d a65c 173c
00000170: 0f20 f63d e6ae 28bc 9714 623d 1d8d c53d
00000180: 488b f83d f115 98ba fad3 ac3d 35c1 433d
00000190: 5a82 033e 540e aa3d d3cd 2d3d 7cc7 043e
000001a0: 30e4 a73d 9581 ccbd a648 033e d149 103d
000001b0: feb8 e7ba fdb7 a93d ce06 6b3d bb67 993d
000001c0: 509f 14bd 9fdb 493b 7e7f d73d 9d86 19bb
000001d0: e6ba 943d 1e44 843d d17e 573d fc62 3ebd
000001e0: caca b83c bdb9 0fbd f1b6 41bd 4197 183d
000001f0: 53ac 953d 991e 9fbd a966 a53d f12e a63c
-0.10256565 0.056678135 -0.017425194 0.07891358 0.04505632 0.072846554 0.08366084 0.1355153
0.11023827 0.07603578 0.03254894 -0.0064892336 0.10735414 0.045243338 -0.10424786 -0.09136285
-0.017513264 -0.0044030934 0.08204012 0.08415083 0.122448444 -0.079670966 0.11559027 0.07980368
0.009183664 0.0113849435 0.05088843 0.13767783 0.074321866 -0.12023272 0.10723716 -0.062097706
0.08918719 -0.085903354 0.012276096 -0.016012687 0.025995951 0.11397112 0.089249484 -0.03553418
0.039612547 -0.06999677 -0.111935206 -0.091922894 0.10903648 0.10287135 0.094369195 0.06873312
0.12712497 0.09458381 -0.022178378 0.10304783 0.06423947 -0.11350752 0.11321597 0.041791845
-0.031074567 0.020016743 0.08195464 0.09661133 0.11625251 0.048002686 0.10824887 0.08814164
0.063636154 -0.012717666 0.005856425 0.08941056 0.013130714 0.07837378 0.069870204 0.07298332
0.05350674 0.025466735 0.10098722 0.09499481 0.12898397 0.10610805 0.059881344 0.10920347
0.05390017 0.039636437 -0.042728104 0.107133165 0.114748664 -0.03730456 0.08496533 0.13114385
0.07798566 -0.08294686 0.07266789 0.009238398 0.120178334 -0.010295605 0.055195417 0.09646056
0.12135941 -0.0011603219 0.08438869 0.04779168 0.12842694 0.08303514 0.042432617 0.12966722
0.0819782 -0.09985653 0.12820682 0.035226647 -0.0017679033 0.08287046 0.057379536 0.07490488
-0.036284745 0.003080107 0.10522364 -0.0023426183 0.072622105 0.06458305 0.052611176 -0.046481118
0.022557635 -0.035089243 -0.047293607 0.037253622 0.07308259 -0.07769508 0.080762215 0.020286055
