script/logs/dome/model/best/online_critic.pth (torch, 112786 bytes, 12 tensors)

Q1.head.0.weight f4 [64, 72]
000000 b7 ed 62 3c 72 a2 ae 3c 74 d8 30 bc ea a8 b6 bd
       0.013850621 0.021317694 -0.010793794 -0.089189366
000010 62 93 0f 3d 0f f2 15 bc d0 a9 3e 3d 0a 88 85 3d
       0.035052665 -0.00915195 0.046548665 0.06520088
000020 cf ca ae 3d a2 fc 82 3d 1d dd c1 3b 66 d6 4f bd
       0.085347764 0.06395842 0.0059162513 -0.050741576
000030 aa 01 e2 3d ca a1 d5 bd 41 6e 7c bd 71 24 4a 3d
       0.11035474 -0.104312494 -0.061628584 0.04935116
000040 17 b2 67 3d c3 fc 8b 3d ba 68 d5 bd 88 b2 27 3d
       0.056566324 0.0683532 -0.10420366 0.040941745
000050 e9 d1 c8 bd 9a 03 ab 3d f7 16 cd bd 8e b0 81 3d
       -0.09805662 0.08350296 -0.10014146 0.06332503
000060 cd eb 9e 3c 16 df cd bc a5 b5 5a 3d 82 63 a6 3d
       0.019399548 -0.02513079 0.053395886 0.08124448
000070 d2 16 28 3d 52 7d ca 3c 97 cf 21 3e f4 ff e3 3d
       0.04103739 0.02471796 0.15801845 0.111328036
000080 3e 38 a6 bd c7 3c d9 3d b8 97 ea 3d 18 b6 ca 39
       -0.08116196 0.106072955 0.11454719 0.00038664113
000090 ec 14 21 3d ae 71 e2 bc 42 cf 2a bc 61 19 9f 3c
       0.039326593 -0.027642097 -0.010425391 0.019421281
0000a0 76 0b 57 bd b7 52 0c 3d b6 18 4c 3d 70 47 8d 3d
       -0.052501164 0.03425857 0.049828254 0.06898391
0000b0 42 18 ac bd ab 9c 74 bd fa 79 a8 bc f0 2a 41 3d
       -0.08403064 -0.059719723 -0.020565975 0.04716009
0000c0 7d fd 68 3a 81 2f 64 bd a7 b8 e3 bc 00 a4 24 3d
       0.00088878704 -0.055709366 -0.02779801 0.040195465
0000d0 e4 96 9e 3b 7a 63 f2 bc 9b 31 f5 3c c7 dd 56 bd
       0.004839765 -0.02958845 0.02993088 -0.052457597
0000e0 de 8d e7 bd 9d 6b 88 3d a1 de d7 3d 2e 26 8a bb
       -0.11306356 0.066611506 0.1054051 -0.004215977
0000f0 06 13 7c 3d 14 ed a9 3d 19 ff ce 3d 7f bb 39 3d
       0.06154158 0.08297172 0.1010725 0.045344826
000100 c1 71 34 bc df 8b e7 bd 86 5b 03 bc 07 bd 08 bd
       -0.011013449 -0.11305975 -0.008017426 -0.033383396
000110 91 b4 30 3d 67 eb e6 3d bd 13 0d 3b 31 a3 90 bd
       0.04314095 0.11275368 0.0021526658 -0.07062376
000120 6f 99 db 3d 03 03 b7 3b 60 83 9c bd 18 ab a9 3b
       0.107226245 0.005585076 -0.07642245 0.0051778667
000130 20 a0 f7 ba 21 d4 1f 3d 2f 07 df 3d 23 3f 84 bd
       -0.0018892325 0.03902066 0.10890042 -0.06457355
000140 8c 87 8c bd 96 ec 8a 3c 83 d6 85 3d 88 66 f0 3d
       -0.06861791 0.016958516 0.065350555 0.11738306
000150 a3 e5 9a bd ad 28 66 bd 74 69 00 bc 56 58 a8 bd
       -0.07563331 -0.056191135 -0.007837642 -0.08219974
000160 8c 0e 31 bc 35 0a b7 3d db a8 da 3d bd fb ae 3d
       -0.010806691 0.08937494 0.10676738 0.08544109
000170 ee f4 9c bc 55 1b 6e bd 85 00 be 3d 17 e1 87 bc
       -0.01915976 -0.058131535 0.09277443 -0.016586823
000180 26 8d 87 3b 58 db de 3d 0b 19 19 bc b5 df b3 3d
       0.0041366993 0.1088168 -0.00934435 0.08782903
000190 4e ba 8a bd 77 07 e3 3a 85 f2 1c 3e d6 7f 18 39
       -0.06773816 0.001732095 0.15326889 0.00014543472
0001a0 d3 0c 9d bd 65 d7 cc 3c 55 00 3c bd 40 f8 83 3d
       -0.07668462 0.025005052 -0.045898754 0.06443834
0001b0 c1 04 b0 3d 36 4e 80 bc f5 8b e7 3d 06 11 c6 3d
       0.08594657 -0.015662294 0.113059916 0.09671216
0001c0 64 24 a8 3d 99 b8 95 3d 34 3a e1 bd 98 f1 c5 bd
       0.08210066 0.073106 -0.109974295 -0.09665221
0001d0 6c 50 c1 3d 9c 35 35 3d 88 3b bd bd 28 17 cf 3d
       0.094391674 0.04424058 -0.0923987 0.101118386
0001e0 5c 7a 16 3d 84 c1 d9 bd 9c d9 41 bd 04 79 cb bd
       0.036737785 -0.10632613 -0.04732667 -0.09935191
0001f0 81 43 29 bd a1 49 36 bc 20 f6 24 bc 2f d3 d8 ba
       -0.041324142 -0.011125953 -0.010068446 -0.001654243
000200 67 ec 40 bc e1 7f c4 3d 1b 6a a8 3d c3 72 dd bd
       -0.011775113 0.095947035 0.08223363 -0.10812905
000210 9f 65 e1 3c 8d 6e 77 bd b1 6d b6 bc 0e 38 0d bd
       0.027514277 -0.060408164 -0.022269102 -0.034477286
000220 50 01 74 bd 10 55 82 bd e5 bb ee bd 34 57 38 bd
       -0.059571564 -0.06363881 -0.11656932 -0.04500504
000230 54 28 39 3b c0 ea dd bd a9 c9 98 3d cd 45 52 bd
       0.0028252797 -0.10835791 0.074603386 -0.0513361
000240 74 88 0a bd 2a 02 42 3d 11 5b e8 3d b1 1f 67 3d
       -0.033821538 0.047365345 0.113454945 0.056426708
000250 10 09 b3 bd 82 a9 ae 3d 35 cd 43 bc e1 48 30 3d
       -0.08741963 0.08528425 -0.011950781 0.043038253
000260 c5 7b 94 bd b8 c0 13 3e 5a 17 9a bd 95 93 97 3d
       -0.0725017 0.14428985 -0.07523985 0.07401196
000270 08 4d ca 3d 29 21 3c 3c f7 0a bb 3d 38 e2 b1 3d
       0.09877974 0.011482515 0.09132951 0.08685726
000280 6f 9e 91 bc 60 13 74 3c 55 3d 22 3b 08 31 9c bc
       -0.017775742 0.0148971975 0.0024755795 -0.019066349
000290 88 d4 d5 bd c8 6e 88 3d 82 ae e6 bd 0f 86 94 3d
       -0.10440928 0.06661755 -0.112637535 0.07252132
0002a0 ff 9d 2f bd 95 f2 f4 3b 26 1e c7 bc 53 d3 89 bd
       -0.042875286 0.007475207 -0.024306368 -0.0672976
0002b0 a2 32 35 bd 4e 90 d9 bd c8 bf 27 bd 1e 87 7a 3d
       -0.04423774 -0.10623227 -0.04095438 0.061164014
0002c0 f0 40 c7 3d 8d 48 e5 bd 7c e4 82 bc f9 1a 2d 3c
       0.09729183 -0.111954786 -0.01597809 0.010565513
0002d0 95 4e 86 bd 7b e8 77 3d eb 12 b6 3c ab 7c 9f 3c
       -0.06557957 0.060524445 0.022225818 0.019468626
0002e0 49 2c 86 bd 86 46 c9 bd 26 80 49 bc 59 72 a4 3d
       -0.065514155 -0.098279044 -0.012298619 0.080296226
0002f0 14 f0 d1 3d 9c 8b bf 3d 28 4f cc 3b 64 f6 b5 3d
       0.102508694 0.093528 0.006235022 0.08884886
000300 d4 40 7b bc 66 8b af 3d c5 b0 95 3c 71 db b6 bd
       -0.01533528 0.0857151 0.018272767 -0.08928574
000310 36 52 1e bd 83 dc d6 3d 72 b1 31 bd 3e 6e 99 bd
       -0.03865262 0.10491278 -0.043382116 -0.0749173
000320 68 08 e9 3d 97 61 16 3d 29 12 d6 3c e0 7d 55 bd
       0.113785565 0.036714163 0.026131706 -0.052121997
000330 ba 6a da 3d d1 84 c6 3d e3 64 c3 bd b4 4b b4 3d
       0.10664888 0.096933015 -0.09540727 0.08803502
000340 45 3f dd 3d a5 3a b7 bd 22 89 0b 3d 19 4e 4d bd
       0.10803083 -0.089467324 0.034066327 -0.050123308
000350 70 3b f6 3d 5b a8 a5 3d 13 41 bf 3d b2 be 7d 3b
       0.120230556 0.08088752 0.09338584 0.00387184
000360 8b 8a c3 3d dc b5 e6 bc 87 17 a0 3d 03 34 64 3d
       0.09547909 -0.02816289 0.078169875 0.055713665
000370 ea 9a c6 bd eb 4d 98 bd 3a e5 1b bc 6a 23 c6 bd
       -0.09697516 -0.07436737 -0.009515101 -0.096747234
000380 14 fc f8 bc bf 5c ac 3d 9d 39 da 3d 86 b7 18 bc
       -0.030393638 0.084161274 0.1065552 -0.009321099
000390 82 2c e7 bc 09 02 b6 bd 4e 86 12 3d 19 7d 62 3d
       -0.028219465 -0.08887107 0.035772614 0.055295084
0003a0 e9 01 4e 3d 79 25 cc bd 11 94 bc 3b f2 59 55 bd
       0.05029479 -0.09968085 0.0057549556 -0.05208773
0003b0 2c 34 88 bd 33 e7 6f 3d 4d a7 c5 bd 36 74 f0 bc
       -0.06650576 0.058570098 -0.09651051 -0.029352289
0003c0 bf b9 b1 3d a9 d6 9d bd 87 99 a2 3d 8b 2e 30 bd
       0.086780064 -0.07706959 0.07939439 -0.043013137
0003d0 40 03 a5 bd e9 66 f9 bb 44 39 15 bd 8d 3b fd 3c
       -0.080572605 -0.007611145 -0.036431566 0.030912185
0003e0 4f c1 ab 3d 45 e1 b6 bd f9 46 a1 bd 03 b0 a7 bc
       0.0838648 -0.089296855 -0.07874865 -0.020469671
0003f0 8c 26 7e 3b 69 26 06 3e 7a cd 0a 3e 47 9a 82 bd
       0.00387803 0.1310059 0.13554946 -0.06377082

Q1.head.0.bias f4 [64]
000000 83 a9 95 3d 34 ec f2 b9 47 80 1f 3e 38 11 b9 3d
       0.073077224 -0.00046333822 0.15576278 0.09036487
000010 74 71 55 3d 5b 1f c6 3d 27 47 93 bd 97 90 46 3d
       0.05211015 0.09673949 -0.071913056 0.048477735
000020 84 a2 98 bd a5 ba b7 bc e7 5b a2 bd 4a ce 04 3d
       -0.074528724 -0.022427866 -0.07927685 0.032423295
000030 3c 9b 2d bd 4a cf 56 3d 41 14 1a bd 40 13 0e 3d
       -0.04238437 0.05244378 -0.037616972 0.034686327
000040 b1 4d 64 bd 67 7c 28 bd 83 79 26 3e ed b8 f5 3d
       -0.055738155 -0.041134264 0.1625729 0.119981624
000050 95 2e 30 3e 7c 72 84 3d 55 9b 05 3e 43 ad 98 3d
       0.1720527 0.06467149 0.13047536 0.07454922
000060 ad 8b 5b 3d 46 8b d3 bd 40 97 65 3d ce 80 09 3e
       0.053600002 -0.10329299 0.056052446 0.13428041
000070 da 65 67 3c 19 68 cb bd b0 02 00 bd e1 ea 1e 3e
       0.014123404 -0.099319644 -0.031252563 0.15519287
000080 b1 05 7c bd ae e0 fc 3d 97 6c c3 3d 81 23 2f 3e
       -0.061528865 0.12347542 0.09542196 0.17103387
000090 9e dd f1 3b d6 95 d0 ba 5b 5b 83 bd 4e d2 45 bd
       0.007381155 -0.0015913795 -0.06413909 -0.048296265
0000a0 e1 b8 1d 3e fe 0d 12 bd db 49 8a 3d 59 5e dc bd
       0.15402557 -0.035657875 0.06752368 -0.10760183
0000b0 f8 55 74 bc 46 16 05 bd f9 d8 11 3e 4f c8 04 3e
       -0.014913075 -0.032491945 0.14242925 0.12967037
0000c0 bb 68 d9 3d e3 a3 be bb 0e 7a f9 3d f1 79 d5 3d
       0.10615679 -0.0058178767 0.12181483 0.10423649
0000d0 fb b6 de 3d 9e a5 1f 3d c9 b7 75 3d 4f 77 0a 3e
       0.108747445 0.038976304 0.059989724 0.13522075
0000e0 00 0c 17 3e f9 c3 00 3d 98 e4 fd bd f4 bc c5 3d
       0.14750671 0.031436894 -0.123971164 0.096551806
0000f0 33 89 c1 3d 49 e3 02 3e af 0f d5 bd af 2c c0 3d
       0.09449997 0.12782015 -0.10403382 0.09383523

Q1.head.2.weight f4 [64, 64]
000000 d1 58 37 3e 43 98 82 3d d0 8c a3 3b 02 3b 6f 3c
       0.17904975 0.06376698 0.0049911514 0.014601471
000010 48 88 e8 3d 88 83 f8 3d 58 4c 69 bd ce 1c 3a 3e
       0.113541186 0.121344626 -0.056957573 0.1817505
000020 cf 67 11 bd 75 3f 87 3d 9b ce bd 3d 0d cc 46 bd
       -0.03549939 0.066039 0.092679225 -0.04853444
000030 4a be 0a 3e 5b 5f 6a 3d 45 aa 04 3a 91 be a0 bc
       0.13549152 0.057219844 0.00050607725 -0.01962212
000040 7f cd f9 3d ce 9c cf 3d b5 41 21 3d 86 d2 c1 3d
       0.121973984 0.1013733 0.039369304 0.09463982
000050 28 a3 cc 3d fe a4 f3 bc 89 11 33 3e 29 b2 01 bd
       0.09992057 -0.02974176 0.17487158 -0.031664047
000060 5a 30 ec 3d 6a e6 8c 3d 3d 2a 88 3d f5 33 ad 3b
       0.1153266 0.068798855 0.06648681 0.005285735
000070 66 55 69 bd 52 71 ac 3d b6 bd f4 3c d0 c6 e1 3b
       -0.056966208 0.08420052 0.029875617 0.0068901554
000080 f0 d3 89 bc db 63 ae 3d a7 8c 24 3e 72 83 58 bd
       -0.016824692 0.0851514 0.1606928 -0.05285973
000090 c4 06 84 3d 2d 94 a7 bd ef 86 89 bd 2a 67 20 bd
       0.06446603 -0.08182559 -0.0671519 -0.039160885
0000a0 37 33 1b 3e 0d 77 f1 3c ba 6a ab 3d df 98 85 3d
       0.15156256 0.029475713 0.08369966 0.065232985
0000b0 28 c2 1f 3d b4 3e 82 3d 50 e1 3f 3b d9 67 cf 3d
       0.03900352 0.06359616 0.0029278584 0.10127229
0000c0 9b f5 2d 3e e0 14 a5 bd 62 2c 08 3e 73 42 2c 3d
       0.16988222 -0.08060622 0.1329818 0.04205556
0000d0 e9 e8 0d 3e 42 2f 92 3c 85 0c c1 3d e9 af 25 bd
       0.1385838 0.0178448 0.09426216 -0.040450964
0000e0 94 c0 11 3d aa 89 d5 bb b0 dd af bd bb c4 d3 3d
       0.035584047 -0.006516655 -0.085872054 0.10340258
0000f0 d6 06 40 3e 4c ea b9 bc 63 ae 10 3e 23 2a a6 3d
       0.18752608 -0.02269473 0.14129023 0.08113506
000100 31 ad 81 bd 93 73 af bc 14 69 0f 3e ac a5 30 bd
       -0.06331862 -0.021417415 0.14004928 -0.043126747
000110 b9 5c 05 3d 73 cd 33 3e ef e3 0c bd f6 3b 05 3e
       0.03255913 0.17558841 -0.034397062 0.13011155
000120 c5 6b 22 39 58 9f 8f 3b 77 1b 88 bd 35 7d 04 3e
       0.00015489671 0.004383009 -0.066458635 0.12938388
000130 99 0d a2 bd 0c 7c d7 bc 14 47 c3 bd 5b 81 6d 3d
       -0.0791275 -0.026304267 -0.095350415 0.05798469
000140 ed 74 85 bd 2c 1a 0b 3e 55 d3 e1 3d bc 25 10 3e
       -0.065164424 0.13584203 0.110266365 0.14076895
000150 95 96 93 3d 74 c9 1f 3e 88 76 10 bc 52 9f c0 3c
       0.072064556 0.15604192 -0.008817323 0.02351347
000160 a6 c6 1e 3e 6f c0 87 3d 52 ed c8 bc 34 b3 67 3d
       0.15505466 0.06628501 -0.024527226 0.056567386
000170 e6 d1 ab 3d b5 90 18 3d d7 d5 1e 3e 1c 83 02 3c
       0.08389644 0.03724738 0.15511261 0.007965829
000180 fa e7 e7 bd 40 65 05 3e ec 4d 95 3d df 94 2e bd
       -0.11323543 0.13026905 0.07290253 -0.042622443
000190 91 c1 82 3c e6 cc a7 bd 05 44 c3 3d a4 07 05 3e
       0.01596144 -0.08193378 0.09534458 0.12991196
0001a0 58 b0 b9 3d 3d 1d 17 3e be aa 88 bc be e8 7d bc
       0.09066838 0.14757247 -0.016682979 -0.015497385
0001b0 65 a6 31 3d 67 2c 96 3c b0 14 25 3e 9d e5 1f 3e
       0.043371577 0.01833172 0.16121173 0.15614934
0001c0 ac f1 eb 3c ba 6c b2 bd c8 12 b2 3d 66 1b 10 3e
       0.028801762 -0.08712144 0.086949885 0.14072952
0001d0 0a ea 9c 3d 41 07 a5 39 ae 69 c1 3d b9 a4 7f bd
       0.07661827 0.00031476657 0.09443985 -0.06241295
0001e0 4e 00 26 3e f9 91 6c 3d c1 1f f7 3d 01 48 2c 3e
       0.16211054 0.057756398 0.120666035 0.16824342
0001f0 cb a5 08 3e d7 5c 76 3c 89 28 47 bd 2d 62 91 3d
       0.13344495 0.015036783 -0.04862264 0.07098804
000200 11 a7 40 3e 6f 10 41 3c ca 72 1b 3e ec c1 56 3d
       0.18813731 0.011783703 0.15180507 0.052431032
000210 76 69 e3 3d 83 01 12 bc 4f 9a cf 3c f9 ce 2d 3e
       0.111040995 -0.008911493 0.025342135 0.16973485
000220 2a ad a6 bd 53 15 25 bd 0a 0f 39 bb 9d a3 8f bd
       -0.08138497 -0.04030354 -0.0028237724 -0.07013629
000230 9b 4d 86 bd 08 27 82 3d 31 c8 8c 3c de 2a 08 3e
       -0.06557771 0.06355101 0.017185302 0.13297603
000240 d2 84 37 3c 80 47 cd 3d eb 8e 04 3e 02 53 24 3e
       0.0112011 0.10023403 0.12945144 0.1604729
000250 dd 00 0a 3d d6 9b 9e 3d de a1 51 bd a5 d6 12 3e
       0.03369223 0.07744567 -0.05117976 0.14339693
000260 01 85 e4 3d d1 ce 40 3d 06 07 d3 3c f5 b9 33 3e
       0.11158181 0.047072235 0.025760185 0.17551406
000270 d2 b2 7c bd 71 3c ad 3d aa 33 1c 3e 32 7b d6 3d
       -0.061693974 0.08458794 0.15254083 0.104727164
000280 12 8e ee 3d 11 23 7d bc 74 38 37 3e e7 15 1b 3e
       0.116481915 -0.015450255 0.17892629 0.15145074
000290 64 aa aa bc 16 9d 0c 3e 4f 97 b2 bc 40 09 a5 bd
       -0.020833202 0.13731799 -0.021800665 -0.08058405
0002a0 7d 37 35 3e 52 a6 9c 3d cd 8a 0b 3e fe ff 42 3d
       0.17696948 0.076489106 0.13627167 0.047607414
0002b0 65 3f 23 3d a9 f2 6e 3d 42 9c dc 3d be e1 c0 bc
       0.03985538 0.058336888 0.10771991 -0.023545142
0002c0 a8 93 14 3e a8 34 1e 3d 28 b7 ed 3d ca 7b 35 bd
       0.14509451 0.038624436 0.116072 -0.044307508
0002d0 a4 39 63 bc fa 41 c6 bb c8 66 17 bd 33 45 1c 3e
       -0.013868723 -0.0060503455 -0.036963254 0.15260772
0002e0 a3 64 a1 3d 3c 70 36 bd 91 18 6e bd 19 af 0f 3d
       0.07880523 -0.04454063 -0.058128897 0.035079096
0002f0 8a e4 2f 3e e6 c7 36 3c e2 bc 01 3e f3 95 0a 3e
       0.17177024 0.011156058 0.1266971 0.13533764
000300 9c 14 b8 bd ca 2d e6 bd 58 1b 12 3d 52 f2 ae 3d
       -0.08988306 -0.11239202 0.03567061 0.08542313
000310 70 da cb bc f2 91 e0 bd 20 83 3e 3d 4c 24 2a bd
       -0.024884433 -0.10965337 0.04651177 -0.04153852
000320 80 8f 72 bd 10 22 2e 3c 72 66 bf 3d 54 36 e6 bd
       -0.059218884 0.010628238 0.09345712 -0.11240831
000330 c8 60 e6 3c 00 35 c4 bb 04 af af bd a6 94 d6 3d
       0.02812232 -0.0059877634 -0.085783035 0.10477571
000340 40 af 9a bc fe e0 f4 3d 2a 2d b6 bd 40 77 f9 3b
       -0.018882394 0.11956976 -0.08895333 0.0076130927
000350 84 af 07 bd 00 da d6 3c 84 ce f6 bd a4 49 18 3d
       -0.03312637 0.026226997 -0.120511085 0.037179604
000360 7a 65 88 bd e2 5e 8f 3d 6c 09 5c bd 80 01 89 ba
       -0.0665998 0.07000519 -0.053719923 -0.0010452718
000370 ae 1c c6 bd 14 73 a4 bd c0 9a 73 3d d8 78 e4 3d
       -0.09673439 -0.08029762 0.059473753 0.111558616
000380 12 5a d5 3d 86 88 d2 bd 04 e6 28 bd 6a d0 af 3d
       0.1041757 -0.10279946 -0.041234985 0.08584674
000390 50 9d 49 3d 5a 0d 8f 3d 30 06 e8 3d 68 8b 0c bd
       0.04922229 0.069849685 0.11329305 -0.034312636
0003a0 24 fc 2b bd 30 a2 24 3c 08 35 e8 bd d8 cd dc bc
       -0.041988507 0.010048434 -0.1133824 -0.026953623
0003b0 4c 67 f2 3d d0 f1 28 bc 70 d2 3b bd ec f6 47 bd
       0.118361086 -0.010311559 -0.045854986 -0.048819467
0003c0 38 57 cc bc 00 9c 06 ba 10 55 e1 bd 1e d8 c2 3d
       -0.024943933 -0.000513494 -0.110025525 0.09513877
0003d0 fe 0d f7 bd 08 4c 7b bd 94 f6 d1 bd be e9 94 bd
       -0.12063216 -0.061351806 -0.10252109 -0.07271145
0003e0 1c db 18 3d a4 db 9e bd 8c 38 49 bd 4c b7 b3 bd
       0.037318334 -0.07756737 -0.049126193 -0.087751955
0003f0 00 e9 b8 bb b4 f0 e4 3d 2c 76 58 3d 4a 0d 9c 3d
       -0.00564301 0.11178723 0.052847072 0.07619722

Q1.head.2.bias f4 [64]
000000 f8 63 5f 3d ba ec c9 3d d2 59 c5 3d fc 9e ee bd
       0.054538697 0.09859605 0.096362725 -0.116514176
000010 17 14 f7 bc bd b7 e3 bd 7c 96 2d 3e a0 39 89 3c
       -0.030160947 -0.1111903 0.16951936 0.01675111
000020 2d f5 83 3d ac 57 69 bd 68 13 f1 3d ac 83 4c bd
       0.06443248 -0.056968376 0.117712796 -0.04993026
000030 ba a8 1e 3e 9a f2 0b 3e 36 d9 db bd 40 14 2b bc
       0.15494052 0.13666764 -0.10734789 -0.01044184
000040 61 45 11 3e c1 eb 18 3e 33 ba a3 bd 17 be ab bd
       0.14186622 0.14933683 -0.07994499 -0.08385866
000050 6c e9 06 3e fc 03 82 bd 1b 60 a3 3d 47 4b f6 3d
       0.13174981 -0.06348416 0.07977315 0.12026077
000060 9c 55 fc 3d 82 8e b9 3d 44 87 ac 3d 45 25 0a 3e
       0.12321016 0.09060384 0.08424237 0.1349078
000070 2b 33 a3 bd 97 07 50 bd 94 76 63 3d 35 0e 4f 3d
       -0.07968744 -0.05078849 0.055533007 0.05055066
000080 a1 d9 a8 bd 5b 7a 47 3c 62 80 0d bc 40 57 9d 3d
       -0.082446344 0.012175168 -0.008636566 0.07682657
000090 06 34 d3 bd e2 c5 25 3e db 88 f6 bd 51 b8 84 3d
       -0.10312657 0.16188768 -0.12037822 0.06480468
0000a0 48 03 ff bd 5b 72 e6 3d e5 2e a2 3d 32 1c 7f 3d
       -0.12451798 0.1125228 0.07919101 0.06228275
0000b0 9d 11 cb 3c c4 f2 22 3e 15 6f eb 3d 15 19 08 3e
       0.024788672 0.1591292 0.114957966 0.13290818
0000c0 be 86 8e 3d 5b c0 f2 bd 56 ac ab bd 5e 0e b1 bd
       0.06959294 -0.11853095 -0.0838248 -0.086453184
0000d0 96 1d 35 3d 7a 82 d7 bc 5e a0 9d 3d 0c 45 4f bd
       0.04421767 -0.026307333 0.07696603 -0.050602958
0000e0 d9 ca bb 3d 05 29 2d 3e 0f 1d 52 3d 38 ab d1 bd
       0.091695495 0.16910179 0.051297244 -0.102377355
0000f0 d2 56 c5 3d 2b 47 9c 3d 8e 31 fe 3b 9c 06 d1 bd
       0.096357 0.07630762 0.007757372 -0.10206339

Q1.head.4.weight f4 [72, 64]
000000 a4 53 40 bd 8f b6 ee bd 49 8d 0e be 42 32 df bd
       -0.046954766 -0.11655914 -0.13921084 -0.10898258
000010 50 d5 43 3d f0 70 17 3c af 9d 80 3d 60 7a a3 bb
       0.047810853 0.009243235 0.06280076 -0.0049889535
000020 0e 87 10 bd 80 55 0d bb b1 33 f2 bd 88 74 91 bd
       -0.03528505 -0.0021565855 -0.118262656 -0.07102305
000030 e6 b8 b2 bd ef 5d d4 b9 ab be 99 3d e2 49 4a 3d
       -0.08726673 -0.00040505777 0.0750707 0.049386866
000040 f3 c6 af bd 5d e4 15 be 77 b6 ad bd 0e 11 e1 bd
       -0.085828684 -0.14637895 -0.08482068 -0.10989581
000050 7d ce a7 3d 70 5f 58 3d 06 39 47 3c cc c6 4c bd
       0.081936814 0.05282539 0.012159592 -0.049994275
000060 a0 81 54 3d 34 51 04 bd c6 f2 51 bd 80 1e 65 3c
       0.051881433 -0.032304004 -0.051256917 0.013984323
000070 88 e5 f9 bc d1 67 8b bd de 2d 21 be 67 c4 72 3d
       -0.030504957 -0.06806911 -0.15740153 0.059269335
000080 fc 0d 07 3d 34 3f f8 bd d5 c0 14 be f2 d9 24 bc
       0.03297232 -0.1212143 -0.14526685 -0.010061728
000090 08 6c ef bc 89 97 80 3d e4 cf 5a 3d d1 b5 aa bd
       -0.029226318 0.06278903 0.053420916 -0.0833546
0000a0 70 8d b8 3d a6 8a ba bd 34 a2 b6 bd 08 a6 0d be
       0.09011352 -0.09108476 -0.089176565 -0.13832867
0000b0 e4 58 08 bc 44 90 99 bd 39 44 7a bd 8c 04 d4 bd
       -0.008321974 -0.074982196 -0.06110022 -0.1035243
0000c0 7d 8c 39 3d 06 8b e6 3d 64 8f 10 3d 00 83 cc ba
       0.045299996 0.11256985 0.035292998 -0.0015603006
0000d0 f2 cf b9 bc 68 94 a3 bd d0 dd c3 bd 79 fc 00 be
       -0.022682164 -0.079872906 -0.09563792 -0.1259631
0000e0 1c 06 83 bd 91 6b 0c be 6c 2b 86 bd b0 47 3c 3d
       -0.0639765 -0.13712908 -0.06551251 0.045966804
0000f0 64 79 5c 3d c0 82 99 bd 03 69 90 bd c0 62 3f 3d
       0.053826705 -0.07495642 -0.070512794 0.046725035
000100 92 70 13 be 87 cd 10 be 35 0d 94 3d 0c af 2a bd
       -0.14398411 -0.14140902 0.072290815 -0.041670844
000110 ee 9c ae bd 16 a0 bb 3d 5c a1 2b 3c 7c 1c 6f 3d
       -0.08526026 0.09161393 0.010475483 0.058376774
000120 64 1e fc bb 42 0e d1 3d 48 c2 52 3d a2 48 8b bd
       -0.0076940525 0.102077976 0.051454812 -0.06800963
000130 f0 ec a1 3d c0 11 e7 bc a5 c3 87 3d 9a c2 c5 bd
       0.0790652 -0.028206706 0.06629113 -0.09656258
000140 2d b6 7c 3a ab cf 08 3d 59 73 0e 3d 1c fd 74 bd
       0.00096401834 0.033401173 0.034777973 -0.059811696
000150 c1 1e 8d 3c 46 91 e4 bd 1b 4a f8 3b 8e 85 dd bc
       0.017226579 -0.11160521 0.0075771934 -0.027041223
000160 8b 69 27 be 8f 8d 83 bd d5 1a f0 bd a4 2b 10 be
       -0.16348855 -0.064234845 -0.11723868 -0.14079148
000170 cc 0c 3f 3d 36 4e 12 3d d2 9e 17 be a0 ee 92 bc
       0.046643063 0.03571912 -0.14806679 -0.01793605
000180 42 6c 9c 3d 0f 4d a3 bd c6 2d 8e bd 2c c8 84 bb
       0.07637836 -0.07973682 -0.06942324 -0.0040521827
000190 2c 24 5d 3d f5 17 75 bd 27 d1 87 bd 58 9d 44 bd
       0.053989574 -0.0598373 -0.066316895 -0.048001617
0001a0 d8 d8 27 bd 35 fe 15 be 79 e9 0b be b4 b5 0d be
       -0.040978283 -0.14647754 -0.13663282 -0.13838845
0001b0 2e 8b ea bd ed 07 e8 bd e9 1a e6 bd 5d 26 f6 bd
       -0.11452328 -0.11329637 -0.112356015 -0.12019036
0001c0 10 b8 8a 3d 2c 47 cd 3d 42 b7 eb 3d 00 de 8b 3d
       0.067733884 0.100233406 0.11509563 0.068294525
0001d0 c8 1e 76 bd dc b6 3d bd b3 11 80 bd a5 0f c0 bd
       -0.06008795 -0.046316966 -0.06253376 -0.09377984
0001e0 03 56 54 bd 16 64 b0 bc 31 d7 21 be 80 83 6b 3b
       -0.05183984 -0.0215321 -0.15804745 0.0035936534
0001f0 dc 3d fb bd 4f 98 af bd d1 e9 19 bc 54 2b 66 3d
       -0.12267658 -0.085739724 -0.009394125 0.056193665
000200 37 86 ec bc c8 61 cf bd bc fb 20 3c c0 39 dc bc
       -0.028872592 -0.10126072 0.009825643 -0.026883006
000210 bc 83 56 3d a0 23 b4 3d ad 7c 46 bd 4c d8 5a bd
       0.052371725 0.087958574 -0.048458744 -0.053428933
000220 50 da 88 39 f0 44 eb bc af 1a 08 be 90 57 29 bc
       0.00026102597 -0.028719395 -0.13291429 -0.010335818
000230 b7 41 24 3d 78 83 29 3d d5 35 fd bd ce e5 a7 bd
       0.040101733 0.041385144 -0.12363783 -0.08198129
000240 59 81 f8 bd 3a 46 0b 3d 94 1b 81 3d 64 26 0a 3d
       -0.12134046 0.03400252 0.06304088 0.03372802
000250 88 d5 71 3d ab e1 91 bc 74 59 08 be 72 04 96 bd
       0.05904153 -0.017807802 -0.13315374 -0.073250666
000260 03 d8 cc bd 81 c0 4c 3b 65 f5 27 be 77 f0 80 bd
       -0.100021385 0.003124267 -0.16402204 -0.06295865
000270 64 dd 75 bd e4 4b 8c bd bc a6 4d 3d 7f f6 80 3d
       -0.060025588 -0.068504125 0.05020784 0.062970154
000280 8a 27 b9 bd f8 60 c8 bc c2 4b fe bc 11 c9 94 3d
       -0.090407446 -0.0244603 -0.031041984 0.07264913
000290 0a ca b8 3d a9 68 51 bd 96 96 d7 3d d9 5f 03 bd
       0.09022911 -0.051125202 0.10526769 -0.03207383
0002a0 d6 b5 b4 3d 60 7d fe bc 95 54 90 bd 27 16 9e 3d
       0.08823745 -0.031065643 -0.07047383 0.07719069
0002b0 e0 3a 9a 3c 21 1d 1a be 9f 18 46 3c 04 e4 a1 bd
       0.018826902 -0.15050174 0.012090831 -0.07904819
0002c0 88 93 95 3c 40 81 65 bd 5a 22 bf bd 54 dd fe bd
       0.018258825 -0.056031466 -0.09332724 -0.12444559
0002d0 14 29 c2 bd 54 66 1c 3d 44 c7 48 bc 7c 40 20 bd
       -0.09480491 0.038183525 -0.01225454 -0.039123997
0002e0 04 e0 6e 3d 72 31 a0 bc 4c 4c 47 3d 0c 57 7d bd
       0.058319107 -0.019554827 0.048656747 -0.061850592
0002f0 ba 0e 63 ba 34 68 1c be ac 2b f9 bd 6a 75 d5 bd
       -0.0008661557 -0.15274125 -0.12166533 -0.104227856
000300 80 67 19 bc 4d 7a b6 bd 6c f8 8c 3d ea 59 fb bd
       -0.009363055 -0.08910046 0.0688332 -0.12273009
000310 5c 1f 8b bd 88 0b e9 3c 80 29 4c bd b8 45 a7 3d
       -0.06793091 0.028447881 -0.049844265 0.08167595
000320 5a da 26 bd 24 a4 c5 3d f7 57 47 bd 86 9b bb 3d
       -0.04073558 0.09650448 -0.048667874 0.09160523
000330 9e 4c 1a be ed ba a0 3d 4c d1 1f bd 8a 00 a2 bb
       -0.1506829 0.07848153 -0.03901796 -0.004943912
000340 76 a6 7c 3d d1 82 17 be 70 c8 2a bd 4c df 07 3d
       0.061682187 -0.14795996 -0.04169506 0.033171937
000350 95 e8 d4 bd 86 77 6f 3d 4e b9 4e bc 6d 23 11 3d
       -0.10395924 0.058463596 -0.012617422 0.035434175
000360 5a 15 f5 bb 3c 88 28 be 07 4b f5 bd 2a 24 27 bd
       -0.007479352 -0.1645822 -0.11977201 -0.040805973
000370 fa 4a 93 bd d6 ab f6 bd 91 7d 16 be 48 b3 fb 3c
       -0.07192035 -0.12044494 -0.14696337 0.030725136
000380 b4 de cc bd 32 d2 af 3d e1 9d d3 3b a9 66 1a be
       -0.10003415 0.085850134 0.0064580296 -0.15078224
000390 22 e4 f8 bd 96 9c 0a be c2 1b 82 3d 01 ba 0f be
       -0.12152888 -0.13536295 0.06352951 -0.14035799
0003a0 a4 64 a5 3d 4c 16 c9 bd 49 cf 92 bd 10 46 31 bd
       0.08075836 -0.09818706 -0.07168443 -0.043279707
0003b0 36 6c bc 3d 20 2c b9 bd e1 2b 5c 3d 08 39 c4 bd
       0.09200327 -0.09041619 0.053752784 -0.0958119
0003c0 32 5b 2c 37 38 b9 c6 3d b8 45 f9 3d cc 7b 25 3d
       1.0273232e-05 0.097032964 0.12171501 0.040401265
0003d0 19 38 14 be 6e c8 bb bd 9a dc 65 3d 54 55 9e bc
       -0.14474525 -0.09169088 0.056118585 -0.019327797
0003e0 1e 53 00 be 87 65 f5 bd e7 ab 1c be a0 b7 93 bc
       -0.12531707 -0.119822554 -0.1529995 -0.018031895
0003f0 c6 b1 09 be a1 0a 68 3d 8e c1 e5 bc 04 5b 13 bd
       -0.13446721 0.05665076 -0.028046396 -0.03597547

Q1.head.4.bias f4 [72]
000000 2f 57 06 be 26 a4 8c 3d 01 1a da bd d0 63 d8 bd
       -0.13119195 0.06867246 -0.10649491 -0.10565913
000010 85 ec 9b bd 41 62 1e be 45 06 06 bd e8 b4 08 bd
       -0.07613472 -0.15467168 -0.032720823 -0.03337565
000020 53 a6 cb bb ca df eb 3c 3b 95 d3 bd 41 0d 8d 3d
       -0.0062148958 0.028793234 -0.10331198 0.068872936
000030 18 99 b3 bd d9 74 0a be d5 d0 61 3d a9 1e 86 bd
       -0.08769435 -0.13521136 0.0551308 -0.06548817
000040 1a 3c f6 bd ea 54 15 be 43 65 0b 3d e7 0d 51 bb
       -0.12023182 -0.14583173 0.034032118 -0.0031899156
000050 f4 e2 6e 3d 7f 6f 28 3d ae 86 d1 bd 39 a8 81 3d
       0.058321908 0.041121956 -0.10230766 0.06330914
000060 b0 80 cd bc 8e 0d 1c 3d 12 4b b3 bd 1b ae 8a 3d
       -0.025085777 0.038098864 -0.08754553 0.06771489
000070 63 03 6d bd 01 8f d0 bd 3a d6 c1 3c e4 98 fc 3c
       -0.057864558 -0.10183526 0.023661721 0.030834623
000080 0a d6 86 bc 9f 5d 8d 3d 8a d4 08 3c 72 a1 9c 3d
       -0.016459484 0.069026224 0.0083514545 0.07647981
000090 12 68 00 3c 82 45 bb bd 71 a8 e2 3c 2a 78 93 bd
       0.007837312 -0.09144117 0.02766821 -0.07200654
0000a0 36 50 92 3d d8 8c 98 3d 2e 87 a2 ba c7 3f bb bd
       0.07144205 0.07448739 -0.0012399906 -0.09143024
0000b0 44 8c 91 bd eb 92 e1 bd 1a 0e 13 be dc de c7 bd
       -0.07106832 -0.110143505 -0.14360848 -0.09759304
0000c0 1a 34 06 3e cf 3c 7c 3c 21 fc 46 bc 7f 41 94 3d
       0.13105813 0.015395357 -0.012145073 0.07239055
0000d0 76 27 a0 bd 6a 77 a2 3d 1f 15 dd bd a2 ec 5a 3d
       -0.078200266 0.07932933 -0.10795044 0.053448327
0000e0 95 08 90 bd a2 b1 d6 3c a1 f7 ef 3b fb 76 dc 3c
       -0.07032887 0.026207749 0.007323221 0.026912203
0000f0 56 62 a9 bb 6a c1 0a be cf bf 2b 3d 9a ce 80 3d
       -0.0051691933 -0.13550344 0.04193097 0.06289406
000100 84 9d c9 3c 3e 97 05 be 67 54 1a be fb 2f 24 3d
       0.024611242 -0.13045976 -0.1507126 0.04008482
000110 7b 2d f4 3d 36 2b c6 bd 1b e6 a6 bb 6a 95 9e 3d
       0.11922737 -0.096762106 -0.0050933487 0.07743342

Q2.head.0.weight f4 [64, 72]
000000 ff ef a3 bc 0f a3 af bd 27 f2 c8 bd 45 86 16 3d
       -0.0200119 -0.08576023 -0.09811812 0.036749143
000010 ad 9f d6 3d 1f ff df 3d 93 06 7d bd 0f a9 c3 3d
       0.104796745 0.10937332 -0.061773848 0.0955373
000020 41 f1 1f ba ec 7f 0a 3d 87 42 c7 bd 85 95 8a bc
       -0.0006101318 0.033813402 -0.09729486 -0.016917
000030 78 0c d4 bb f2 9e 6a 3c d1 bb cc 3c 14 65 7e 3b
       -0.006471213 0.014320122 0.024991902 0.0038817571
000040 01 cf 5e bb ce 60 87 3c 57 05 84 bd 35 b7 ad 3d
       -0.0033997896 0.016525652 -0.06446331 0.084822096
000050 7e 48 91 bd b2 ec cd 3c 2b ad b5 bd 13 47 ed 3c
       -0.07093905 0.02513728 -0.0887092 0.028964555
000060 ff 51 d2 3d 97 2e b3 bd 83 9d 89 3d ff bc 96 3d
       0.10269546 -0.08749121 0.06719496 0.07360267
000070 30 db 99 3d 46 54 d8 3d 1f 54 99 bd 4f b9 eb 3d
       0.0751251 0.10562949 -0.07486748 0.11509954
000080 10 f6 52 bd 87 63 a8 bc fe c2 54 3d 7a 5a 94 bd
       -0.051504195 -0.02055527 0.05194377 -0.072438195
000090 52 a1 91 bc da 40 08 3e 5f 41 9a 3c 1b 5c 89 bd
       -0.017777119 0.13305989 0.01883 -0.06707021
0000a0 44 9d 4e bd c3 06 39 3d 52 28 f3 bc 3a 3d 7c bd
       -0.05044295 0.045172464 -0.029682312 -0.061581828
0000b0 d5 bb 2b 3d 68 66 dc 3c b5 0c 93 3d d4 7d 87 bb
       0.041927177 0.0269043 0.07180158 -0.004134873
0000c0 56 46 51 3d 0e 29 0b bd c3 9f 91 3d a3 e6 35 bc
       0.05109247 -0.0339747 0.0711055 -0.011102351
0000d0 7e 71 d8 3d 93 4f cf bc 8b 01 d3 bd bc 62 cb 3a
       0.10568522 -0.025306499 -0.10303029 0.0015517096
0000e0 ce 30 2e 3d cf d6 cb 3d ec a5 d8 bd 85 ab bc 3c
       0.042527013 0.09953081 -0.10578522 0.023031006
0000f0 8d 01 9a 3d 36 01 1a bd 1b d2 d4 bc eb fb da 3c
       0.07519827 -0.03759881 -0.025979092 0.026731452
000100 38 6c a0 3d c8 a7 bb 3d 2a f9 c9 3d ca 45 07 3c
       0.07833141 0.09162861 0.098619774 0.008256385
000110 13 94 82 3d 6b ce 58 bd 09 8b 83 bd 12 a0 a5 3d
       0.06375899 -0.05293123 -0.06423003 0.080871716
000120 8b 1a bd bd 0f b8 ee 3d ee 54 af 3c 6a 05 c0 3c
       -0.09233578 0.116562 0.021402802 0.023440082
000130 89 9e f8 bc 48 2c 49 bd 12 fd 92 bc c5 c1 93 3d
       -0.030349033 -0.049114496 -0.017942939 0.07214693
000140 40 a5 ab bd e3 f7 41 bd 17 9b c9 bd 4c 50 f2 3c
       -0.08381128 -0.047355544 -0.09844034 0.029579304
000150 9a 1d 5b 3d 45 f8 05 bc b1 39 d2 3d 90 4e 3e 3d
       0.053495027 -0.008176868 0.1026491 0.04646164
000160 ef 89 86 bc 09 49 49 bd 4f 6d 60 bc 7e 49 72 3d
       -0.016423194 -0.049141917 -0.013697936 0.05915212
000170 13 67 9f 3c 7b 3a e8 bd 59 9a bf bd 68 27 cb 3d
       0.01945833 -0.11339279 -0.09355611 0.099196255
000180 ce 17 0a bd 06 cf be bd ff fc 34 bc ca 45 70 3d
       -0.03371411 -0.0931683 -0.011046647 0.058660306
000190 83 25 d3 bd e4 e5 32 b9 d1 74 ea bd ad 72 9c 3c
       -0.10309889 -0.00017061044 -0.11448062 0.01909765
0001a0 8a 25 e3 3d 3e 20 01 bc 99 b3 c3 bd eb 5d 00 3d
       0.110911444 -0.007881222 -0.0955574 0.031339567
0001b0 5d b0 d7 bd 59 41 13 3d 69 3f 60 bc da 3a 8a 3d
       -0.105316855 0.035950992 -0.013686993 0.06749506
0001c0 d2 77 89 3d e7 d2 23 bd 26 3b bd 3d a1 2b a5 3c
       0.06712307 -0.039996054 0.09239797 0.020162405
0001d0 78 f1 b0 3d 72 c6 92 bd ba 7e 69 3d b0 22 64 3d
       0.086398065 -0.07166757 0.05700562 0.055697143
0001e0 14 ad b7 bd 04 f1 af bd ec bf df 3d 7f eb 49 3d
       -0.08968559 -0.08590892 0.10925278 0.049296852
0001f0 84 91 b4 bd 5e 9a 90 3d 78 9f a7 bd 07 61 3d 3c
       -0.088168174 0.07060693 -0.08184713 0.011558778
000200 09 62 e7 bd 27 6f 60 bd 26 c1 bf 3c 3b 15 e6 bc
       -0.112979956 -0.054793503 0.02340753 -0.028086295
000210 48 8e 45 3d 95 a4 a8 3c 95 f6 81 3c 3f 45 80 3d
       0.048231393 0.020586291 0.01586465 0.06263208
000220 1b c7 eb 3c 2d 0f ea bd 74 4b 83 3d 0e 58 9e bd
       0.028781464 -0.11428676 0.06410876 -0.07731639
000230 2b b3 ef bb f6 22 94 bc e7 04 99 bd 1a 83 b8 bd
       -0.0073150597 -0.018083077 -0.07471638 -0.09009381
000240 25 20 d7 3d ca 29 17 bd 43 e8 2a 3d 19 89 fe bc
       0.10504178 -0.036905088 0.04172541 -0.031071233
000250 7a c4 cb bd f2 09 8f bd d8 ea 79 3d 4b f2 15 bc
       -0.09949584 -0.06984319 0.06101498 -0.009152005
000260 ef 91 94 bd f9 26 bb 3d fa ce 58 3d ad 68 db bb
       -0.07254397 0.09138293 0.052931763 -0.006695828
000270 80 a2 83 3c 63 0a 3c bd d1 8d 4f bd bd b0 8e bd
       0.016068697 -0.045908343 -0.050672356 -0.06967304
000280 37 dc b2 bd 71 10 bd 3d a4 3a e4 3c 3f 4c ce 3d
       -0.08733409 0.092316516 0.027859993 0.100731365
000290 d2 5a cb bc 6b 6f a2 bb 64 21 ab 3b 4e ec b8 bd
       -0.02482358 -0.0049571297 0.0052224863 -0.090294465
0002a0 e5 61 d6 3d 26 52 d3 3b 7d 0a d7 3d 3e 4d da bc
       0.10467891 0.006449002 0.10500047 -0.02664816
0002b0 c1 77 81 3d 60 f7 de 3d a5 39 19 3e 8d d6 e0 3d
       0.06321669 0.10887027 0.14963396 0.10978422
0002c0 13 60 7f 3d 6d 88 bb bb 9f e5 31 3b f4 6a a2 bd
       0.062347483 -0.0057230503 0.0027144921 -0.07930556
0002d0 b9 f7 88 3d 05 73 15 bc 8c 3a 0b 3e 8e fc bb bd
       0.06687874 -0.009121661 0.13596553 -0.0917903
0002e0 0e 05 d2 bd c7 da 25 3c db 6f ab bd b9 c7 e3 3d
       -0.1025487 0.010122961 -0.08370944 0.111220784
0002f0 58 13 b2 3d a0 84 f2 bc c6 00 d4 3c 6f c8 c2 3d
       0.08695096 -0.029604256 0.025879275 0.09510886
000300 8e c5 c7 bd 54 cc b7 3d 9f 35 64 3d 00 82 9d 3d
       -0.097544774 0.08974519 0.0557152 0.07690811
000310 19 f3 6c bc 51 34 dd bd f4 bd b8 bd f9 19 1b 3e
       -0.014462256 -0.10800994 -0.09020606 0.15146627
000320 7b 92 be 3c 03 e2 7b 3d a5 70 7f 3d d9 c4 54 bd
       0.023263207 0.06149484 0.062363286 -0.05194554
000330 48 f7 ad bd 1a e7 6b bd 02 c2 b7 bd 9c bb 8b 3d
       -0.08494431 -0.057593442 -0.08972551 0.06822893
000340 6d 93 2b 3d 7f e6 ed bd a2 39 6e 3d c4 6b 95 bd
       0.041888643 -0.11616229 0.05816043 -0.07295945
000350 fb 2b 4c bb cd 96 8d 3d 11 5b df 3d 04 dc 1f 3e
       -0.0031154144 0.069135286 0.109060414 0.15611273
000360 77 47 a9 3d ba d2 a4 bd 3b a8 b3 bb f9 06 ad bd
       0.08265584 -0.080480054 -0.005482701 -0.084485956
000370 bf 9b 9f bd 32 6e 87 3d 67 34 30 bc f3 23 fc 3c
       -0.07793378 0.06612815 -0.010754681 0.03077886
000380 7e 8a b6 bd 4b 16 4b bd e9 af 4a bc a3 e5 c4 bc
       -0.08913134 -0.049581807 -0.012371042 -0.02403528
000390 5d d0 4b 3d 63 ef e6 bd 15 f5 af 3d 19 c5 f8 3c
       0.049759258 -0.11276128 0.085916676 0.030367421
0003a0 7b 1e d2 3d 25 16 c5 3d c5 3f c1 bd 8a 91 bc bd
       0.1025972 0.09623364 -0.09435991 -0.09207447
0003b0 f9 68 cc bd 88 fc b1 bd 16 c1 93 3d ae be eb 3d
       -0.099809594 -0.08690745 0.072145626 0.11510979
0003c0 9c 25 e9 bd 23 d8 ad 3d 69 fb 06 3d bc c4 93 bd
       -0.113841265 0.084884904 0.032954607 -0.072152585
0003d0 35 60 a9 3d 47 60 b8 3d 7e b0 24 bd 55 c8 43 3d
       0.08270303 0.090027384 -0.04020738 0.047798473
0003e0 44 86 ea bd e2 dd d4 3d 0a 3e 1c bd 7c bc ce bd
       -0.114513904 0.10393883 -0.038145103 -0.10094544
0003f0 42 cc 98 3d 02 57 5e bd 67 84 8f 3d a9 a2 ea bc
       0.07460834 -0.054282196 0.070076756 -0.028642016

Q2.head.0.bias f4 [64]
000000 8b 64 b5 bd 89 e2 37 bc 95 47 89 3d 30 f5 92 bd
       -0.08857068 -0.011223444 0.06703106 -0.07175672
000010 21 10 3f 3e 03 f8 b2 3d b9 59 dd 3d 97 a7 cf bd
       0.18658496 0.08738711 0.10808129 -0.10139387
000020 2d 99 19 3e 11 cf 45 bc 4d ad d9 3d 1c fa 21 3e
       0.14999838 -0.012073294 0.106287576 0.15818065
000030 0a 8c 1d 3e 52 64 a7 bd 4c 58 95 bd 28 92 db 3c
       0.15385452 -0.081734315 -0.07292232 0.026803091
000040 60 b6 f6 3d 71 ae 4d bd 6a 52 ff 3d e0 52 18 bd
       0.12046504 -0.05021519 0.12466891 -0.03718841
000050 57 4c 9a 3d e9 b8 a9 3d 4a bb 4b bd e8 4a 5c 3d
       0.07534092 0.08287222 -0.04973916 0.053782374
000060 18 69 9c bd 99 bc 86 bd 96 96 cc bd 4e 22 e2 3d
       -0.076372325 -0.06578941 -0.099896595 0.11041699
000070 04 82 9c bd 65 8e 4c 3c f6 b8 00 3e ec 38 0f 3e
       -0.07641986 0.012485121 0.12570557 0.13986558
000080 6d e3 f0 3d 11 88 cf 3d ab cf 37 3e da a0 3f 3d
       0.11762128 0.101333745 0.17950313 0.04678426
000090 3e 58 36 3e 21 f8 27 bd 2e 54 c7 bd f4 56 a2 3d
       0.17807099 -0.04100812 -0.09732853 0.07926741
0000a0 92 5e d9 bc 2c 47 8f bd 02 f6 8a bd 68 9c 53 3d
       -0.026534352 -0.06995997 -0.067852035 0.051662832
0000b0 41 91 80 3d ac f8 7d 3d de 0c c3 bc 4f 67 fd 3d
       0.06277705 0.06200473 -0.023809846 0.1237322
0000c0 0a 4d 10 3e 80 c1 76 bc c9 8e 91 bd 3c ae af 3d
       0.14091888 -0.015060782 -0.07107312 0.085781544
0000d0 ec 25 04 3e 49 a3 29 3e 01 d6 17 3e f2 2d 02 3e
       0.12905091 0.16566195 0.1482773 0.12712839
0000e0 88 99 65 3d 53 57 b5 bd 76 fe b2 3d d4 43 d9 3d
       0.056054622 -0.088545464 0.08739941 0.1060864
0000f0 63 ba ce 3d 05 13 9e bd 78 23 ac bd 79 dd 03 3e
       0.10094144 -0.077184714 -0.084052026 0.12877454

Q2.head.2.weight f4 [64, 64]
000000 de 24 d0 bc 9e 18 79 bd c2 b8 3d 3e 17 66 9e 3d
       -0.025408205 -0.060814492 0.18527511 0.07734316
000010 fa b1 1f 3e bc f6 1c 3e 37 6f 2a bd bf 35 00 3e
       0.15595236 0.15328497 -0.04160997 0.12520503
000020 67 e3 28 3e e5 f5 a0 bd c9 e4 6f 3d f6 12 0d 3e
       0.16492997 -0.07859401 0.058567796 0.13776764
000030 62 01 d7 3d 86 83 91 bd 49 f3 3f bd 3c d2 c6 bc
       0.104983106 -0.07105164 -0.046862874 -0.02427017
000040 a6 de e9 3d b0 f4 a1 bd 3d 5a a9 3d b7 57 2a bd
       0.1141942 -0.079079986 0.08269165 -0.041587558
000050 e5 e2 04 bc 6f 99 30 3e f7 09 50 bd 79 44 72 3d
       -0.0081107365 0.1724603 -0.050790753 0.059147332
000060 2b 69 d3 3d 61 e7 55 bd bc 25 d9 bc 35 0b cc 3c
       0.103227936 -0.052222613 -0.026507251 0.024907688
000070 ab 68 02 3e ad c3 97 3d d6 ee 00 3e 43 30 ef bb
       0.1273524 0.07410369 0.12591109 -0.0072994544
000080 5a 94 8e bd f4 53 0b 3e df 01 02 3e 15 6a 13 3e
       -0.069618896 0.13606244 0.12696026 0.14395936
000090 16 79 dc 3d 9e 86 a8 3d f9 d6 6f 3d a5 60 51 bb
       0.10765283 0.08228801 0.058554623 -0.0031948474
0000a0 24 4d d9 ba a1 38 f3 3d 75 fc ed 3c e4 59 7f 3d
       -0.0016578776 0.118760355 0.029051045 0.062341586
0000b0 43 3b e9 bc ad 79 1c 3e 65 21 83 3c eb 3c 8b 3d
       -0.028470641 0.1528079 0.016007135 0.067987286
0000c0 35 da 6e 3d cd a3 01 3e 95 a4 0c 3e f5 e8 32 3e
       0.058313567 0.12660141 0.13734658 0.17471679
0000d0 33 d4 b2 bc 76 fa c6 3c ea 0f 9a 3b cb 17 f2 3d
       -0.0218297 0.024289351 0.004701604 0.118209444
0000e0 16 53 cb 3d d1 fd b3 bd da ca 4a bd 5e d5 fb 3c
       0.09927957 -0.08788646 -0.04950986 0.03074139
0000f0 18 5d 37 3d 48 ed d5 3d 0b 9f 79 3d 14 cf 0d 3e
       0.044766515 0.104456484 0.06094269 0.13848525
000100 cc 45 98 bd 90 70 fc 3d 55 16 37 3e ca 64 ab 3d
       -0.07435188 0.12326157 0.17879613 0.08368833
000110 06 43 93 3d 3e 38 43 3e 98 9a 62 3d 72 3f 68 3c
       0.07190518 0.19064423 0.055323213 0.014175283
000120 81 49 45 3d d3 c6 bf 3d 25 60 e8 3d 29 22 2c 3e
       0.048165802 0.093640946 0.11346463 0.16809906
000130 5f 40 16 3e b8 32 bd 3d fe 36 72 3d 0a 9a cb 3d
       0.14672993 0.092381895 0.059134476 0.0994149
000140 68 49 20 3e 66 28 c7 bc 6d 7c 11 3e 59 36 98 bc
       0.15653002 -0.024311256 0.14207621 -0.018580602
000150 82 b0 82 3c 9a dc f2 3d 63 eb 18 bd f7 26 46 3c
       0.015953306 0.11858483 -0.037333857 0.012094251
000160 e7 01 48 3d 25 63 e9 3c ee 09 c9 3d f6 0c 14 bc
       0.04882994 0.028489659 0.09816347 -0.009036293
000170 25 45 bc bd 45 70 3c 3d a1 4b f4 3d 4d 6d 94 3d
       -0.09192876 0.046005506 0.119284876 0.0724741
000180 b1 f7 a7 bc 2d aa 48 bc 9e 48 df 3d b9 92 a9 3d
       -0.02050385 -0.012247604 0.109025225 0.08279938
000190 44 17 09 3e 71 67 2b bd 5f 9a d6 3d 53 79 89 3d
       0.13387781 -0.041846696 0.10478663 0.06712594
0001a0 d9 f7 8a 3d 81 39 77 bd c0 d6 0d 3b 3a 46 14 3d
       0.067855544 -0.060357574 0.0021642894 0.036199786
0001b0 52 a7 be bc 7d 75 11 3e 90 5d a1 3d 2d 17 ac bc
       -0.023273144 0.14204974 0.07879174 -0.021007145
0001c0 2c c5 c7 3d 8b df 34 3c 5d 1f dd bd 4d d5 c9 3d
       0.097544044 0.011039625 -0.10796998 0.09855137
0001d0 d3 a8 37 3d 8a 91 0e 3e 3e 7a 68 3d 4d 03 2d bc
       0.044838738 0.13922706 0.056757204 -0.010559869
0001e0 8d cb bb 3c 15 e7 8e 3d cc 30 09 bd 05 93 a0 3d
       0.022924209 0.06977669 -0.033493802 0.07840542
0001f0 73 32 0e bd 40 ce 91 bd 46 49 f6 bb 83 5d 28 3e
       -0.03471608 -0.07119417 -0.007516059 0.16441922
000200 fc ba 6a bd 76 30 8f bd dc 09 50 bd f6 96 af bd
       -0.05730723 -0.06991665 -0.050790653 -0.085737154
000210 10 99 6a bc a2 1a dc bd d0 5b 4e 3d 98 0f f4 bd
       -0.0143187195 -0.10747267 0.050380528 -0.11917037
000220 82 ce f1 bd a4 30 ed bd 5a 10 99 bd 58 fd ef 3c
       -0.11806966 -0.11581543 -0.07473822 0.029295608
000230 b8 b8 be 3d b0 f0 8c bd da 7c 9a 3d 5c 16 d5 bd
       0.09312576 -0.06881845 0.07543345 -0.10404655
000240 6a 73 be bd 18 d3 30 3d 70 5a 8e bc b4 77 74 bd
       -0.09299357 0.043170065 -0.017377108 -0.05968447
000250 60 8f 41 3c 80 a4 f6 3a 66 9f c5 3d ec 7c 37 3d
       0.011813968 0.0018817335 0.096495435 0.04479687
000260 e0 d3 d6 bb d8 e5 d2 bd 78 f8 29 bd 10 20 c9 bd
       -0.006556019 -0.102977455 -0.041496724 -0.098205686
000270 a0 75 c4 bc 18 ee f3 bc b8 b1 d9 bc 48 79 c2 bd
       -0.02398187 -0.029776618 -0.026574 -0.09495789
000280 0c fd 49 3d 40 5f 46 3d 20 6d 6c bc cc c3 42 bd
       0.04931359 0.04843068 -0.014430314 -0.047550008
000290 80 d1 f9 3c e8 fa 98 3d d4 14 3d 3d f0 d3 72 3c
       0.030495405 0.074697316 0.04616244 0.014821038
0002a0 e0 0a 7c 3c a8 85 b5 3c 30 ad 49 3c 34 6c 06 bd
       0.015383452 0.022158459 0.0123093575 -0.032818034
0002b0 be e8 b2 bd 20 8d a3 3d 50 42 92 3d fc d3 f1 bd
       -0.08735798 0.07985902 0.07141554 -0.11808011
0002c0 e8 71 82 3c e2 bc ad bd a0 a6 e9 3d 80 21 f4 bb
       0.015923455 -0.08483292 0.11408734 -0.0074502826
0002d0 20 21 89 bd 96 e6 8e bd 16 a7 8a 3d ec 3d 04 bd
       -0.06695771 -0.069775745 0.0677015 -0.032285616
0002e0 10 74 65 bc a8 73 e7 3d c4 b8 25 bd 86 d7 9a bd
       -0.014004722 0.113013566 -0.04045941 -0.07560639
0002f0 68 d4 f3 3c d8 e0 c3 3c d4 86 ad bd f8 f1 1f 3d
       0.02976437 0.023910925 -0.08472982 0.03904912
000300 6c ae b9 bd 54 25 a0 bd 5d f0 d1 bd 58 6f 14 bd
       -0.090664715 -0.0781962 -0.10250924 -0.036239
000310 40 c7 ea bb fe 38 77 bd cd 4e a6 bd ab 44 60 bd
       -0.0071648657 -0.060357086 -0.08120499 -0.054752987
000320 7d dc a7 3c 8d 77 4f 3a 95 ca 05 be d1 ba e3 bd
       0.02049088 0.0007914238 -0.1306556 -0.11119617
000330 50 7b ac 3d 89 51 d0 3b b4 6f 7c 3d 00 e3 52 bb
       0.084219575 0.006357376 0.061629966 -0.003217876
000340 9a c4 03 be b0 03 f2 bd 3f f8 8e 3d b6 20 11 bd
       -0.12867966 -0.118171096 0.06980943 -0.035431586
000350 df 8e 80 bd 40 18 05 be 78 30 8d 3d 5e 35 0e 3c
       -0.062772505 -0.12997532 0.0689401 0.008679716
000360 f6 d6 b6 bd 88 0e a1 3c 6a 76 a6 bd df e4 26 bd
       -0.08927719 0.01966025 -0.081280544 -0.040745612
000370 1f ef 95 bd 8c 93 4a bd 44 be 0f bd 16 73 c9 bd
       -0.07320999 -0.049457118 -0.03509356 -0.09836404
000380 17 72 bd bd dd 89 fe bd 04 64 90 3d ce 7a 97 bd
       -0.092502765 -0.12428639 0.070503265 -0.0739647
000390 0e d1 af 3d 48 71 a8 3d 52 12 92 bd b4 5a a6 3d
       0.08584796 0.08224732 -0.071324006 0.08122769
0003a0 a3 1e 5d bb 57 c5 97 bc 98 b0 8e 3d 06 c1 9b 3d
       -0.0033740185 -0.018526716 0.06967276 0.07605176
0003b0 0e 0f 66 bc c9 35 e4 3d 13 97 a7 bd 10 04 9b 3d
       -0.014041675 0.11143071 -0.08183112 0.07569134
0003c0 83 f6 75 3d ee fa d8 3d 4f c3 76 bc 0c 45 d4 3d
       0.060049545 0.10594736 -0.015061214 0.10364732
0003d0 c7 a8 bd 3d 22 e5 b7 bd eb 6d e4 3d 34 27 ca bd
       0.09260707 -0.089792505 0.11153778 -0.09870759
0003e0 f7 a9 ec 3d 8c 92 b6 bd e3 4a c5 3b bc e4 d1 bd
       0.11555856 -0.0891467 0.00602089 -0.10248706
0003f0 cf 43 4b 3d a2 6b 9c bd e0 c1 60 bd 46 f4 6c bd
       0.049625214 -0.07637717 -0.054872394 -0.057850145

Q2.head.2.bias f4 [64]
000000 8c 9c a8 3b 84 1f b5 3d 68 7f b2 bd b1 63 67 bd
       0.005145615 0.08843902 -0.08715707 -0.056491558
000010 0e 63 9d 3d 79 61 73 bd f9 8e 18 3e 30 5c a1 ba
       0.07684909 -0.05941913 0.1489829 -0.0012310799
000020 50 c5 e5 bd d9 9b f1 bd 8c 3c fe bd 18 02 81 3d
       -0.11219275 -0.11797304 -0.12413892 0.062992275
000030 8e 09 9f 3b 19 56 09 3e 7e e4 cb 3d 25 16 ee 3d
       0.004853434 0.1341175 0.09955691 0.116253175
000040 59 fc 0c 3d 70 68 ad bd ec d3 9e 3d e8 fe 48 bd
       0.034420345 -0.084671855 0.07755265 -0.049071223
000050 ac e6 50 3d 09 f1 d9 bd 82 1f ff 3c b5 20 25 bd
       0.051001236 -0.10641677 0.031142954 -0.040314395
000060 77 e0 42 bb 0a 20 76 3d 61 1d 2f 3d 81 02 0a bd
       -0.0029735842 0.06008915 0.042752627 -0.033693794
000070 36 70 d4 bd ff 2b 92 3d 7a f8 f3 bd 92 0f b1 bd
       -0.10372965 0.07137298 -0.119126275 -0.08645548
000080 04 5e a5 3d 74 f5 26 3e d9 e6 eb bc 68 48 c7 bc
       0.08074573 0.1630457 -0.0287966 -0.024326518
000090 e5 32 67 3d 12 47 92 3d c2 e4 5d 3d 44 4d c7 bd
       0.05644502 0.07142462 0.05417324 -0.09731534
0000a0 c6 84 75 bd e0 dd b8 bb 46 8f fe bd 93 a4 0a bb
       -0.059941076 -0.005641684 -0.12429671 -0.0021155223
0000b0 38 50 3d bd 17 2c 02 3d 92 f5 19 3e c2 7a c2 bd
       -0.04621908 0.03178033 0.15035084 -0.094960704
0000c0 d0 c4 3c bd ea 63 17 bd c9 e8 97 bd 48 aa db bd
       -0.046086133 -0.03696052 -0.07417447 -0.10725838
0000d0 15 14 55 3d 48 d1 9d bd 0f 59 bd 3c 48 a6 65 bd
       0.052021105 -0.07705933 0.023113756 -0.05606678
0000e0 98 3e e5 bd 80 52 02 3e 31 98 a6 3d d9 d4 27 bd
       -0.111935794 0.12726784 0.08134497 -0.04097447
0000f0 bb 3a 30 3d 32 a0 20 3e a2 50 cb bd 33 5a 0b bd
       0.04302476 0.1568611 -0.09927489 -0.034021568
