script/logs/dome/model/best/policy.pth (torch, 56446 bytes, 6 tensors)

head.0.weight f4 [64, 72]
000000 2e 4c 67 ba be 79 81 3d 42 a6 c6 bd 27 a0 b1 bd
       -0.00088233023 0.063220486 -0.0969968 -0.08673125
000010 c9 eb 39 bd c7 71 01 3d e5 06 19 bb 01 5f bf 3d
       -0.045390878 0.031602647 -0.0023350057 0.093442924
000020 7d 5a 2b bc 00 3a 2f 3d 3e e2 11 bd 7a c5 bd bc
       -0.010458586 0.042779922 -0.035616152 -0.023165453
000030 02 95 e6 bd 0b d9 9f bd d4 fc 46 bd 11 15 82 3c
       -0.1125889 -0.078050695 -0.04858096 0.015879186
000040 e4 d5 3e 3d 2b d2 90 3d 94 a0 a3 bd b2 34 52 bd
       0.0465907 0.07071336 -0.07989612 -0.051319785
000050 df 54 2f 3d f5 6b c8 3d df af c6 bc 83 86 c8 3d
       0.04280555 0.09786216 -0.024253784 0.09791281
000060 bf 9c 9b bc 47 50 4c 3c 81 8b da 3d d6 e6 df bd
       -0.01899564 0.0124703115 0.106711395 -0.109327
000070 d9 f1 97 bd 3b 6a f4 bc 4a 28 06 bd d3 88 d0 3d
       -0.07419176 -0.02983581 -0.032753266 0.10182347
000080 ae 71 9c bd 09 36 5e bd 8a ff a6 bd 2b 0c e2 bd
       -0.0763887 -0.05425075 -0.08154209 -0.11037477
000090 1e e4 8c bd 9b cc cf 3d 8e e8 45 3d d5 f5 69 3d
       -0.068794474 0.10146447 0.048317485 0.05711921
0000a0 62 18 cb 3b 5e b5 87 bd 4a 56 a3 3c 11 5b e1 bd
       0.006197975 -0.0662639 0.019938607 -0.11003698
0000b0 e0 65 ae bd 11 db 78 bd 5a 48 98 3d 94 83 8d 3d
       -0.08515525 -0.060755793 0.07435675 0.06909862
0000c0 0f 0d 7b bd 4c 57 8b bb 22 5d 9a 3d 6e f1 ef 3d
       -0.06129175 -0.00425235 0.07537295 0.11715971
0000d0 0f 95 3f 3d 6f 6c 82 3c f7 d3 a1 3d d6 a0 8c bd
       0.046773013 0.015920846 0.07901757 -0.068666145
0000e0 40 e7 b3 3c 86 20 bb bd 5c 48 a7 bd 43 5d 79 bd
       0.021960855 -0.09137063 -0.08168098 -0.060879957
0000f0 c0 6a 5a 3d 52 21 42 3d 3d f8 8e bd 4d 39 2d 3d
       0.05332446 0.047395058 -0.069809414 0.042290974
000100 d9 7f 84 3d ae b5 73 bc 8a 72 93 3b 39 b2 df 3c
       0.064696975 -0.014874859 0.004499738 0.027306663
000110 de 3f 8b 3d 69 c0 e7 3d e0 d1 ba bd 52 f2 07 bd
       0.06799291 0.11315996 -0.09122062 -0.03319008
000120 8a b6 3d 3d 5b fa c7 3d 50 08 d2 3d 00 f7 d4 3d
       0.04631666 0.097645484 0.10255492 0.10398674
000130 ca 22 c0 3c b7 e1 d1 bd 36 a0 31 3c dd fe 96 bd
       0.023454089 -0.1024813 0.01084142 -0.0737283
000140 85 ef e0 bd 78 93 09 3e 0f 85 b7 3d 31 c3 f0 bd
       -0.10983185 0.13435161 0.08960926 -0.1175598
000150 e6 b3 b4 3c 2f a3 a2 bc 93 df 9e bc db 11 1a bd
       0.022058439 -0.019853203 -0.019393718 -0.037614685
000160 dd a1 39 3d 36 f5 8e bd d8 f5 30 3d 51 1d 74 3d
       0.04532038 -0.06980364 0.043203205 0.05959827
000170 3a c8 ac 3d 65 7e 34 3d b2 e1 ee bd 9a f3 49 bd
       0.08436628 0.04406585 -0.11664142 -0.049304582
000180 49 07 71 3d 31 11 ca 3c c7 47 bc bd b2 fa 8a bd
       0.05884484 0.0246664 -0.09193378 -0.067860976
000190 f4 0e e3 3d d0 a1 a2 3d c6 39 a6 bc 55 fc f2 bc
       0.110868365 0.079410195 -0.02029122 -0.029661337
0001a0 11 eb e5 bd b7 d2 0a bb 18 4e b2 bd 89 2c ba bd
       -0.11226476 -0.0021182725 -0.087063015 -0.09090526
0001b0 da c7 d4 bb 1c 56 c3 3c 09 82 21 bd 93 37 8f 3d
       -0.0064935507 0.023844771 -0.03943065 0.06993022
0001c0 60 e0 92 bd 21 0b d0 3d 43 67 a5 3d b6 88 cb bd
       -0.071717024 0.10158373 0.08076336 -0.09938185
0001d0 31 48 f0 bc 8a 40 ae 3b b5 db 8c 3c 08 fa e4 3c
       -0.029331299 0.0053177522 0.017194608 0.027951255
0001e0 71 01 18 3d b8 51 e7 3b 38 88 6b bd be 6a 64 3d
       0.03711075 0.007059302 -0.057502955 0.05576586
0001f0 02 86 e7 bd 1f 0e 8f bd 75 ad f1 bc 54 69 4b bd
       -0.11304857 -0.06985115 -0.029501656 -0.049660996
000200 f6 de 28 bd bb d2 c5 bd eb 5c cd bc 47 5e ce 3c
       -0.041228257 -0.09659334 -0.02506872 0.02519144
000210 b9 3c 9d bd ad 2e c6 bb f2 c6 ac 3d 13 63 af 3c
       -0.076775976 -0.0060480447 0.08436383 0.021409547
000220 27 a7 56 3b 04 93 26 bc e8 62 c3 3c 35 77 99 3d
       0.003275344 -0.010166887 0.023850873 0.0749344
000230 8a 58 f4 3d cb 46 99 3d af 33 f7 3d 2e 60 c9 3b
       0.1193095 0.07484206 0.12070405 0.0061454987
000240 6e d1 d8 bd 81 d8 64 bd ba 57 a4 3d 03 45 48 ba
       -0.105868205 -0.055870537 0.08024545 -0.0007639678
000250 ef ee 6f bd d2 f4 b8 bd 5d e0 e1 bd 86 b5 cb bd
       -0.058577474 -0.09031071 -0.11029122 -0.09946732
000260 74 d3 c3 bc ae 06 c7 3d 18 7d 82 3d 41 c6 e8 bd
       -0.02390454 0.09718071 0.06371516 -0.11365939
000270 34 8e 96 3d a4 dd bc bd 6b 1a cc bc 28 f3 4c bd
       0.07351342 -0.09221962 -0.02491494 -0.05003658
000280 33 f5 b9 bc 71 8e bd bc 66 95 d8 bd 0b 66 d0 bd
       -0.022699928 -0.02313921 -0.105753705 -0.10175713
000290 2d 12 97 bc 60 c3 c7 3a 6a 49 5b bd 63 5e 84 3d
       -0.018441284 0.0015240721 -0.05353681 0.06463315
0002a0 bf 3c d9 bd 2d 4f 02 bc 83 41 d4 3d 9b e5 44 bd
       -0.106072895 -0.007953447 0.10364058 -0.04807053
0002b0 b2 f2 d9 3d 77 d1 2e 3d 02 4a 02 be 10 b5 98 3d
       0.106419936 0.04268023 -0.12723544 0.0745641
0002c0 e3 cf 5e bc 1d 7d 57 bd 2f f2 be 3d 89 0a c3 bd
       -0.013599369 -0.05260955 0.093235366 -0.09523494
0002d0 33 31 4f 3c 0e 2d 6c bc d9 0c 99 3d 87 bf 06 3d
       0.012646007 -0.014415039 0.074731536 0.0328975
0002e0 dd f2 67 3d 98 ea 11 3d bd 29 e8 bc 5b 09 cb bc
       0.056628097 0.035624117 -0.028340215 -0.024784734
0002f0 4a e6 c6 bd 6e c7 82 3d 44 a2 bf 3d d7 24 a5 3d
       -0.09711893 0.063856944 0.093571216 0.08063667
000300 e0 8f e4 bd c3 3b ac 3b 6c 24 aa bd 48 dd 84 bd
       -0.111602545 0.0052561476 -0.08307728 -0.064875185
000310 2b a4 8c bd 70 f7 24 3d 3e d4 8f bd f8 3d 82 bb
       -0.0686725 0.040275037 -0.07022904 -0.0039746724
000320 d7 74 a2 3b ed 95 9b 3d bd 72 b6 bd 2c b2 a5 bd
       0.004957776 0.075969554 -0.08908603 -0.08090624
000330 e0 25 8c bd 70 ef a8 3d 33 85 2d bd 7d c1 e9 3d
       -0.068431616 0.08248794 -0.042363357 0.11413858
000340 f7 8d 2e 3d ae 7f 74 3c b6 f9 65 ba 56 d9 be bc
       0.042615857 0.014923019 -0.00087728666 -0.023296993
000350 7b 2e a6 3c c9 73 dc bc 43 6b ee 3b fc dd b2 3c
       0.020285835 -0.02691068 0.00727597 0.021834366
000360 d6 ca bc bd ff 01 7d bd 4f e5 c2 3d cb df c3 bd
       -0.092183754 -0.06176948 0.095163934 -0.095641695
000370 0d a6 0a bc 04 c3 ee 3d 2e 60 2e 3d f0 ac 5a 3b
       -0.008462441 0.1165829 0.042572193 0.003336724
000380 09 2a d1 bd 99 87 be 3d 5b ea ab bd c6 06 09 bd
       -0.10213096 0.09303207 -0.08394309 -0.033453725
000390 b9 f5 21 bd 0e f8 8e bc aa f6 a8 3a 45 17 03 3e
       -0.03954098 -0.017452266 0.0012890894 0.12801845
0003a0 44 0c 71 3c 02 2f d8 3d 73 a4 93 3d 32 97 98 bd
       0.014712397 0.10555841 0.072091006 -0.07450713
0003b0 48 80 58 3d a6 9d aa bd 8f 96 4c bd 7d f6 8d 3d
       0.052856714 -0.0833085 -0.04994827 0.069317795
0003c0 c6 63 1f 3d 0a 13 b5 3d 08 65 1b bd ee d3 45 39
       0.03891351 0.08841522 -0.037938148 0.00018866334
0003d0 c4 83 78 3d a0 6a e9 bd b0 26 de 3d d4 95 c7 bd
       0.060672536 -0.1139729 0.10847223 -0.09745374
0003e0 e8 e5 d4 3a f0 23 a4 bc dc cb 7f bd 9a 34 7f 3c
       0.0016242834 -0.020036668 -0.062450275 0.015576506
0003f0 99 95 c7 3d d6 b6 ab bc 3d 13 67 bd 28 87 32 bd
       0.0974533 -0.020961206 -0.05641483 -0.043585926

head.0.bias f4 [64]
000000 82 10 21 3e 87 fc 24 3e 41 a2 a3 3d ab 55 35 3e
       0.15728953 0.16111957 0.07989932 0.17708461
000010 3d 8d 0f 3e 59 8d 41 bc 54 10 61 3c f0 e6 b8 3d
       0.14018722 -0.011813485 0.013736803 0.09028423
000020 ba ba 7c bd 39 19 55 3d 62 68 34 3e 3a 8e 0d 3e
       -0.061701514 0.052026007 0.17617944 0.13823786
000030 13 82 2f 3e 9a 2a a5 3d ac 1b 2f bc 34 62 01 3e
       0.17139463 0.08064766 -0.01068775 0.12635118
000040 05 93 c2 3d b3 cc 8f 3d 4b f1 5e 3c 4b b5 08 3e
       0.09500698 0.07021465 0.013607333 0.13350408
000050 32 02 f4 bc d5 6a 24 3e 47 cb 37 3e eb 5f f5 3d
       -0.029786203 0.16056378 0.17948638 0.119811855
000060 e2 9a 24 3e ab 3d e2 3d a0 d4 5e 3a 03 0f a3 bd
       0.16074708 0.110469185 0.00085003115 -0.07961848
000070 15 05 d4 3d 2e 4a 1d 3e e6 97 9b 3d 1b 31 ce 3d
       0.10352532 0.15360329 0.07597332 0.1006796
000080 f2 a5 e0 3d 56 9c 0b 3e 22 14 34 3e 12 7c c7 3d
       0.109691516 0.13633856 0.17585805 0.097404614
000090 d3 e8 c0 3d 76 1f 87 3d be ca 8c 3d 22 51 db bb
       0.09419408 0.065977976 0.068746075 -0.0066930214
0000a0 68 ae 2b 3e 8e 1b 45 3e 8e c2 03 3e 7a da e1 3c
       0.1676575 0.19248793 0.12867185 0.027569998
0000b0 d9 2e 25 bb 3c 13 82 bd 5a 2e 1b 3d c1 e3 ca bd
       -0.0025204925 -0.06351325 0.037886 -0.09906722
0000c0 7f ed 04 bd 9f 5d 91 3d 28 f8 4f bc 53 b6 d5 3d
       -0.032453056 0.07097935 -0.012693442 0.10435166
0000d0 73 25 19 b9 c4 8d 19 3e e3 f7 f7 bc 05 6e 11 3d
       -0.00014605168 0.14995486 -0.030269569 0.035505313
0000e0 15 57 48 3d c9 e3 b9 3d 5d 1d 0d 3e 08 b6 35 3d
       0.048911173 0.0907665 0.13780732 0.04436305
0000f0 d3 8f ba 3d 7a b2 0e 3d 7a 23 12 3d b5 eb 9d 3d
       0.091094635 0.034838177 0.035678364 0.07710973

head.2.weight f4 [64, 64]
000000 0b 63 af 3d 32 2e 75 bd 99 f1 aa bc 8b b2 20 3e
       0.08563813 -0.05985851 -0.020867156 0.15693109
000010 0d 9b ef 3d 5c 16 63 3d ba c1 80 3d 71 f7 ad 3d
       0.116994955 0.055441245 0.062869504 0.08494461
000020 45 61 1a 3d e9 49 bf bc 88 65 e7 3c ca 1e 59 bd
       0.03769042 -0.023350673 0.028246656 -0.05300788
000030 2c 8e 1a bd 1b dd 1c 3d 72 9b c8 3c bf 41 23 3e
       -0.037733242 0.0382968 0.024488185 0.15943049
000040 bf 1b aa 3d 5c f3 1d 3d ee 3e 55 3d dd 55 06 3e
       0.083060734 0.038562164 0.052061968 0.13118692
000050 13 ec 0d 3c c3 30 0f 3d 45 af 1b 3d be 65 20 bd
       0.0086622415 0.034958612 0.038008947 -0.03915953
000060 af 82 34 3d 9a 1f 71 bd 79 3b b5 bc 2a 03 9f bd
       0.044069942 -0.05886803 -0.022123085 -0.07764275
000070 b0 68 1d 3e e1 0e 65 bd d7 e7 3a 3e ad 16 de 3d
       0.15371966 -0.055922393 0.18252502 0.10844169
000080 fa a5 cb bc ba c7 2e 3e 7d 4c 2c 3d f5 27 31 bd
       -0.024859417 0.17068377 0.042065132 -0.043250997
000090 68 59 28 3d 14 ca fd 3d 17 58 6f bd 39 78 2e 3d
       0.04110089 0.12392059 -0.05843362 0.042595122
0000a0 c7 04 e5 3d 7d cc 42 3c a0 b5 93 3d 1e d1 3e 3c
       0.11182552 0.011889574 0.072123766 0.011646537
0000b0 e2 98 13 bd 94 d0 17 3e d8 5a c1 bc 3a b6 30 3c
       -0.036034472 0.1482566 -0.023602888 0.010785634
0000c0 19 c2 c5 3d d5 fa ee 3b fc d2 e0 3d f3 e6 29 bd
       0.09656162 0.007293085 0.10977742 -0.041480016
0000d0 5a 44 25 3e 95 64 ec 3d 7e 94 f3 3c 6b ed fa bc
       0.16139355 0.11542622 0.029733893 -0.030630788
0000e0 d6 e3 8a 3d b7 4c da 3d ec 85 27 bc 67 5f 4c 3d
       0.067817375 0.106591634 -0.010224801 0.04989567
0000f0 80 c3 86 bd 52 de 6a bd 47 36 57 3d 03 11 2b 3e
       -0.065802574 -0.057340927 0.052541997 0.16705708
000100 d1 32 6b 3d d3 7b d1 3d 58 14 8d 3c fe f8 b9 3c
       0.05742151 0.10228696 0.017221615 0.022701737
000110 d2 55 53 3d 9f 26 20 bb 7a 1d 05 3e cf 51 1a 3e
       0.051595517 -0.0024437082 0.12999526 0.1507027
000120 ff 37 d2 bd 59 ad ce 3d 2b 39 60 3c e6 32 b5 bb
       -0.10264587 0.10091657 0.013685505 -0.005529749
000130 9d c0 47 3d 33 6c 17 3d 3b 5f 53 bd 81 ef aa 3d
       0.048767675 0.03696842 -0.05160449 0.08346463
000140 a6 3e 11 3e 11 27 3d 3d 91 80 e0 3c 51 cd 98 3d
       0.14184055 0.046179835 0.027405055 0.07461036
000150 53 9d ae bc 90 9a 05 3e df 86 37 3e 2b 04 66 3d
       -0.021315252 0.13047242 0.17922543 0.05615632
000160 1c 44 95 3d de 63 25 3e ed 33 25 3e 4c 66 de bd
       0.072883815 0.16151378 0.1613309 -0.10859355
000170 38 07 3c 3c bb d0 71 bd e4 0c 16 3e 52 dd 2c 3e
       0.01147633 -0.05903695 0.14653355 0.16881302
000180 09 15 74 3c c9 01 dc 3d b0 60 c2 3d 8b 49 1a bd
       0.014897593 0.10742528 0.09491098 -0.037667792
000190 82 53 fc 3d 27 e6 0b 3e c0 5a a6 3d 78 90 85 3d
       0.12320615 0.13662015 0.08122778 0.06521696
0001a0 2b e0 c1 3d e6 88 1d 3e 37 07 35 3e 1e e3 94 3d
       0.09466585 0.15384254 0.17678533 0.07269882
0001b0 2e 8e cc 3d 72 ca ba bb 4a ee 15 3e e4 61 28 bd
       0.09988056 -0.005700403 0.14641681 -0.04110898
0001c0 91 7c 3e bd 2a c7 00 3e 6e d7 ac 3d 22 f6 be 3d
       -0.046505515 0.12575975 0.084395275 0.0932429
0001d0 6d 82 9e 3d 58 87 a3 3d 1b ff a6 3d 02 ea df 3d
       0.077397205 0.07984799 0.08154126 0.10933305
0001e0 dc 70 51 3c 3b 79 7e 3d 77 94 b0 3d e6 2f 4c 3d
       0.012783255 0.062127333 0.086220674 0.049850367
0001f0 ea 5f 08 bd ba b7 95 3d 18 ca 1c 3e 2c ee 1a 3b
       -0.033294596 0.07310434 0.15311468 0.0023640497
000200 f6 b0 d4 3d 68 b7 0d 3c a1 7c 02 3d ec 47 8d bd
       0.10385315 0.0086496845 0.031857137 -0.06898484
000210 46 69 fd bd 7a 17 7b bd ce 61 b9 bc d0 66 b3 bd
       -0.12373595 -0.061301686 -0.022629645 -0.08759844
000220 79 f5 d3 3d 86 da cc bd 56 9f d7 bd c4 55 88 bd
       0.103495546 -0.100026175 -0.10528438 -0.066569835
000230 ed 7b bc 3d 42 5e b0 bd f7 7b c1 3d 50 9b 28 3d
       0.092033245 -0.08611728 0.094474725 0.041163743
000240 4c 78 3a bd ae 14 4c 3d d8 c2 2d 3d 1f 3a ae bd
       -0.04552488 0.04982441 0.042422146 -0.085071795
000250 8f ab 2d bd 29 f0 cf 3d d8 6f 50 3d 57 76 aa bd
       -0.04239994 0.10153229 0.050887913 -0.08323353
000260 5c fb 5c bd ec 23 56 3d 6c f8 5c 3d 2a 36 50 bb
       -0.053950652 0.05228035 0.05394785 -0.0031770566
000270 9a c7 d6 bd 75 ef e7 bd 65 59 62 bd bf 97 a0 3c
       -0.1048729 -0.1132497 -0.055261035 0.019603608
000280 bf d7 fc bc 94 54 02 be 7f ce 55 bd a9 d0 c9 3d
       -0.030864595 -0.12727576 -0.052198883 0.09854252
000290 3a 31 06 be 73 91 f0 bd a4 6f 23 3d dc 88 bb 3d
       -0.13104716 -0.11746492 0.03990139 0.09156963
0002a0 21 1a 11 be 4e 46 09 be f4 32 7a bd ee df eb 3d
       -0.14170124 -0.13405725 -0.06108375 0.115173206
0002b0 67 67 d0 bd 0c 68 62 ba 61 d6 98 3d c5 43 57 bd
       -0.101759724 -0.000863672 0.074627645 -0.052554864
0002c0 3e 27 5b bd cd 14 df bd cb 10 28 bc f5 51 bf 3d
       -0.05350422 -0.10892639 -0.01025791 0.09341804
0002d0 28 0b b4 3c a8 79 8b 3d 49 be 9c bc 5d 60 1d bd
       0.021977976 0.068103135 -0.019133704 -0.038421977
0002e0 c8 dc 63 bd 99 00 3a 3d eb 87 1f bd d1 0a fb bd
       -0.055630475 0.045410726 -0.03894798 -0.122579224
0002f0 66 50 8b bd b2 ba f9 3c c4 cc d2 3d ec a9 42 bd
       -0.06802444 0.030484531 0.10292962 -0.04752533
000300 d4 e3 de bd 54 7f bc bd 28 6c c9 bd 94 63 4e 3d
       -0.108832985 -0.092039734 -0.09835082 0.050387934
000310 78 b4 bc 3d 88 6a 17 3d f4 88 30 3d 6c c7 a6 3d
       0.09214109 0.03696683 0.04309936 0.081435055
000320 4c 08 af 3d aa dd 98 3d b8 27 8f 3d c0 8a 0a 3d
       0.085465044 0.07464154 0.069899976 0.03382373
000330 44 23 84 3d 86 a8 af bd 7e b2 a5 bd d8 b2 09 3d
       0.06452039 -0.08577065 -0.08090685 0.033617824
000340 68 5b 9f 3c 24 0e e1 bd de 7e ba bd 98 cb cb bd
       0.019452766 -0.10989025 -0.09106229 -0.09950942
000350 44 52 cb 3d 56 5f a7 3d e6 be 86 bd 88 80 9a 3c
       0.099278 0.08172481 -0.0657938 0.018860117
000360 08 87 eb bc 2a 8c de 3d 3c de e7 bd 26 c3 ba bd
       -0.028750911 0.10866578 -0.11321685 -0.09119253
000370 fe 22 d5 bd 8a fc 94 3d 44 f1 7f bd e4 79 98 3d
       -0.10407065 0.072747305 -0.06248595 0.07445124
000380 98 12 2d 3d 04 43 7a bd 84 ed 09 bd 90 32 4f bd
       0.04225406 -0.061099067 -0.03367378 -0.05058533
000390 98 e1 61 3d 18 54 4d bd c8 c1 2d 3d 00 4f 12 3c
       0.055146784 -0.050129026 0.042421132 0.008929968
0003a0 78 71 cc bd b6 ec a0 bd f2 80 b1 bd 86 24 86 3d
       -0.0998258 -0.07857649 -0.086671725 0.06549935
0003b0 b0 e1 dd 3c c0 fa 4d bb d6 6e 98 bd 8e a5 fd bd
       0.027085155 -0.0031429976 -0.07443015 -0.12385093
0003c0 98 30 35 bd 7c ed c3 bd 48 a2 fe bd a2 29 f4 bd
       -0.044235796 -0.09566781 -0.124332964 -0.11922003
0003d0 c0 37 a7 bd 36 de f8 bd 84 9a 1f 3d 8c 93 3f 3d
       -0.0816493 -0.121517584 0.038965717 0.04677157
0003e0 e8 5e 4e 3d c0 d8 fe bd ce 4c 9e 3d 88 a4 c7 3c
       0.05038348 -0.124436855 0.07729493 0.024370447
0003f0 12 e7 82 3d e8 ac fb bc b0 de 75 3d 54 cb f2 bd
       0.063917294 -0.030722097 0.060026824 -0.11855188

head.2.bias f4 [64]
000000 4a 43 b6 3d a7 a6 86 3d 52 d2 d5 3d 18 aa 54 bd
       0.08899553 0.06574755 0.10440506 -0.051920027
000010 ef d7 fb b9 c0 3d be bd 04 78 fe 3d f5 b0 2d bd
       -0.00048035334 -0.09289122 0.12425235 -0.042405088
000020 f1 e1 35 3e 6e 0d e0 bc 93 91 09 3e bc aa 7f bd
       0.17761971 -0.027350154 0.13434438 -0.062418684
000030 92 97 38 3e fd 37 cd bb 38 13 b2 ba 9f 20 99 3c
       0.1802657 -0.006262778 -0.001358605 0.018692313
000040 3e 03 23 bd e4 b8 37 3e a3 cd d8 3d 1d c8 72 bd
       -0.039798014 0.17941624 0.10586097 -0.059272874
000050 0b 04 ca bd 5f ac 43 3c b4 b9 bc 3b 78 8a 66 bd
       -0.098640524 0.011942952 0.005759442 -0.056284398
000060 83 f9 0b 3e 68 b5 33 3c 77 5f db 3d 13 e7 e1 3d
       0.136694 0.010968544 0.10711568 0.11030402
000070 52 80 b5 bd 82 e0 c7 bd 4d 17 58 bd 25 03 a3 3d
       -0.08862366 -0.09759618 -0.052756596 0.07959584
000080 de 35 29 3e fb 07 1e bd fb 01 a6 bc 3f 41 17 3e
       0.16524455 -0.03858183 -0.020264616 0.14770983
000090 00 8d 30 3e 1f 24 00 3e df a8 cd 3d 34 b5 b3 3d
       0.17241287 0.12513779 0.10041975 0.08774796
0000a0 98 04 38 3d d0 14 3b 3e bf 63 8d 3d 69 87 3d 3d
       0.044926256 0.18269658 0.06903791 0.046271715
0000b0 52 47 70 3d e6 2f d4 3d 24 b5 fd bd 84 d5 22 bd
       0.058661766 0.103606984 -0.123880655 -0.039754406
0000c0 84 07 0a be e0 1f c0 3d a9 f1 04 3d 23 02 c2 bc
       -0.1347943 0.0938108 0.032457028 -0.02368266
0000d0 fc 14 c4 bd 0c 77 eb 3d 54 62 0c 3e 51 aa d2 3d
       -0.09574315 0.11497316 0.13709384 0.102863915
0000e0 63 ca 17 3e 89 e7 c2 bd 42 04 f1 3d 05 19 33 3e
       0.14823298 -0.09516818 0.1176839 0.17490013
0000f0 4e 0a 68 3d 27 6b fb bd 17 f5 b6 bd af be 6b bd
       0.056650452 -0.12276297 -0.08933466 -0.057554897

head.4.weight f4 [72, 64]
000000 1f 33 46 bd e6 6b 08 3d 38 00 7c 3d 40 01 79 bd
       -0.048388597 0.033306025 0.061523646 -0.060792208
000010 88 b0 bf bd c8 27 f2 3c fd 71 e4 bd 55 33 b6 bd
       -0.093598425 0.029559985 -0.11154554 -0.088965096
000020 65 bc 99 bc 3c 30 dd bd fc 6e 65 bc d0 ca 91 bc
       -0.018766591 -0.108002156 -0.0140035115 -0.017796904
000030 49 82 62 3d 88 5f 3c be c7 1f c3 3c 8f 88 1b 3c
       0.05530003 -0.18395817 0.023818864 0.009493007
000040 11 bc 2f be 03 fa d3 bc 70 f9 9b bd 8d fc 7f 3d
       -0.17161585 -0.02587605 -0.07615936 0.06249671
000050 78 5a e8 3d 78 62 13 be 4a 4f a4 bd 34 1b ba bd
       0.113453805 -0.14393032 -0.08022936 -0.0908722
000060 b4 64 0e 3d 1b 7e 3b be 54 1a 16 be 99 83 9b 3d
       0.034764007 -0.18309824 -0.14658481 0.0759346
000070 ba ec 83 3d 2c b8 af 3d 47 61 2c 3d cc ab 2f be
       0.064416364 0.0858005 0.04208496 -0.17155379
000080 20 46 b0 bd 20 ba a6 bc ac 0c e3 3d 73 0e c6 bd
       -0.08607125 -0.020352423 0.11086401 -0.09670725
000090 9b cc 85 bd 2e 60 74 3c 2c 41 54 ba b2 60 1c be
       -0.06533166 0.014915509 -0.00080968696 -0.15271261
0000a0 1a 85 20 be 98 34 d3 bd cb a1 0e bd de 5c d7 3d
       -0.15675774 -0.10312766 -0.034822267 0.1051576
0000b0 77 ba 95 bc 93 f0 1b 3d 6c 94 1d 3d c4 23 02 bd
       -0.01827739 0.038071226 0.038471624 -0.03177239
0000c0 cb 55 d8 bc 57 cf 31 3d 37 2c 45 bd 8d ac 50 bd
       -0.026408097 0.043410625 -0.04813787 -0.050945807
0000d0 a6 cf 95 3d ab 9b 3b 3c 8e a3 9e bc ea ae a4 bc
       0.073149964 0.011450688 -0.019365098 -0.020102937
0000e0 c8 2b e1 bd ea 5d 61 bd 7f 13 cc bd 68 13 43 3d
       -0.10994679 -0.055021204 -0.09964656 0.04762593
0000f0 12 f7 05 3d 49 46 85 bd 97 72 de 3d 99 63 ae bd
       0.032706328 -0.065075465 0.108617 -0.085150905
000100 1c bc c2 bd b5 a8 48 bc d3 19 be bd 24 75 97 bd
       -0.09508535 -0.012247254 -0.09282269 -0.0739539
000110 69 8b 82 bd 7c e9 20 bd 58 c2 20 3d 24 86 90 bd
       -0.063742466 -0.039285168 0.03924784 -0.07056835
000120 ff f6 0e be 6d 1f 30 be c0 8c a9 3d b0 e2 66 3d
       -0.13961409 -0.17199488 0.08278799 0.05636853
000130 a8 14 25 be 9f d9 22 be ea 20 00 be e8 49 60 3d
       -0.16121161 -0.15903328 -0.12512556 0.054757982
000140 14 b0 ef 3b e1 73 f8 3b e0 f6 ff 3c f2 73 be 3c
       0.0073146913 0.007582173 0.031245649 0.023248646
000150 d5 7d d8 3d 5a 71 21 be 6c 5a d8 3d 98 08 6a 3d
       0.105708756 -0.15765896 0.105641216 0.057137102
000160 c8 03 eb 3b 14 10 16 3d e6 9e 95 bd b3 36 9b bd
       0.0071720816 0.036636427 -0.07305698 -0.075787924
000170 b4 48 0b bd 2c 08 c0 bd 6b da 83 bd 0e 50 b2 3c
       -0.034004882 -0.09376559 -0.06438144 0.021766689
000180 10 f9 2e bc 55 13 f0 bc a1 84 4c 3d 89 ba 1b be
       -0.010679498 -0.029306093 0.049931172 -0.15207876
000190 b1 97 ef bd 40 f6 11 be 67 97 ab 3d 03 8c 20 be
       -0.11698855 -0.14254093 0.08378487 -0.1567841
0001a0 6b 2f ad 3c bb 6f 65 3d 17 f4 9b bd 52 99 c7 bc
       0.021140775 0.056014758 -0.07614916 -0.024365101
0001b0 05 f2 75 3d 52 9e e1 bd 46 57 ff bd 68 20 96 bc
       0.06004526 -0.11016525 -0.12467818 -0.018326
0001c0 36 94 86 bc 1a 12 bd bd cb d2 02 bd c1 f1 83 bb
       -0.016428094 -0.09231968 -0.03193931 -0.004026622
0001d0 e6 f7 88 3d d6 4f ff bb 0d 1a 5b 3d 5e 19 5e bd
       0.06687908 -0.0077914996 0.05349164 -0.05422341
0001e0 3e d8 c7 bc 2e 4f 4d 3d d3 b5 c1 3c 7d 0f a0 bd
       -0.024395104 0.05012434 0.02364627 -0.07815454
0001f0 2f c2 5b 3d df 2b c2 bd e7 5c 65 bd a0 59 31 be
       0.053651985 -0.09481024 -0.0559968 -0.17319345
000200 db 3c 43 bd 28 63 1f be 91 3b 97 3d dc 69 ab bd
       -0.04766546 -0.15565169 0.07384408 -0.083698004
000210 7f 77 af 3c 1e 50 e3 3d 9d f2 ab 3d 0e 21 dc bc
       0.021419285 0.110992655 0.08395884 -0.02687123
000220 72 5d e5 3b af 10 4c 3b 4c 80 ec 3c 10 49 0e bc
       0.006999665 0.0031137874 0.02886977 -0.008684412
000230 7d 12 0d be f2 27 06 3d 98 f8 2c be 8c 75 5f 3d
       -0.13776584 0.03275294 -0.16891706 0.05455546
000240 e1 4f 0d bd 76 2e 98 3c 12 d8 22 bd 01 c3 6a 3d
       -0.034500007 0.018576842 -0.039756842 0.057314876
000250 7b 2d e3 3d cb f6 3b be ca 48 80 3d 98 11 2d bd
       0.11092659 -0.18355863 0.062638834 -0.042253107
000260 89 33 1b be 3b 29 2d be 09 a0 3d bd f3 5c 90 3d
       -0.15156378 -0.1691026 -0.0462952 0.07048979
000270 c6 38 f2 bd c0 7a 14 3d cb e7 30 3d 64 b0 25 be
       -0.11827235 0.036249876 0.043189805 -0.16180569
000280 7e a8 2a bc 14 01 57 bd 9b e8 79 3c 91 b1 be bd
       -0.010416148 -0.052491263 0.015253211 -0.09311212
000290 06 d8 7a 3d 72 c9 1e be 02 ea 6c 3c 66 f4 d9 bd
       0.061241172 -0.15506533 0.014460089 -0.106423184
0002a0 35 5a 4d bb 9e dd dc bc 85 b3 38 be f5 8c 81 bd
       -0.0031334285 -0.026961144 -0.18037231 -0.063257135
0002b0 fd 23 6c bd 92 4f a5 bc a8 82 81 bd d2 5e 92 3d
       -0.05765151 -0.020179544 -0.06323749 0.07146992
0002c0 ec be 77 bd 90 77 e5 bd 41 85 06 bc d2 d5 b7 bd
       -0.06048481 -0.11204445 -0.008210481 -0.0897633
0002d0 34 f6 1f 3d bb 64 f5 3b c1 21 b1 bd 26 b1 e9 3c
       0.039053157 0.0074888146 -0.08649016 0.028526854
0002e0 25 6b 7b 3d 23 3e 27 3d 9d 2e aa 3d 59 e3 8e 3c
       0.061381478 0.040830743 0.08309672 0.017442392
0002f0 ee dd 24 3d 5a 59 c9 3d e0 86 a0 3d a1 37 07 3d
       0.04025071 0.098314956 0.07838225 0.033012036
000300 28 22 8c 3b 46 42 81 3c 20 b1 18 bc c0 5a ae 3c
       0.0042765327 0.015778672 -0.009319574 0.021283507
000310 6e 06 54 bd 20 2a 8b bb 10 0d d9 3c d4 21 a5 bd
       -0.051763944 -0.004246965 0.026495486 -0.08063093
000320 3f 94 b4 bd b8 0b 9d bc 71 a0 63 bd 00 46 2d 3c
       -0.08817338 -0.019170627 -0.05557293 0.010575771
000330 9c 96 a2 bd 25 6e 99 bd 3f cb d5 bd fa 01 25 3d
       -0.07938883 -0.074917115 -0.10439157 0.040285088
000340 b4 35 0a be d1 1a 13 be e1 c6 9b bd e8 96 5e 3c
       -0.13497049 -0.14365698 -0.076062925 0.013585784
000350 fb cb df 3d 06 c3 02 bd fc 00 32 bc ca 3c f2 bd
       0.10927578 -0.03192427 -0.0108644925 -0.11828001
000360 83 5d dc bd 9f 51 1c bd 45 92 ce bd 28 6f da bd
       -0.107600234 -0.038163777 -0.100864924 -0.106657326
000370 40 1a 01 3d 9e b2 b6 3d 14 49 1a bd b2 99 24 3d
       0.031519175 0.08920787 -0.03766735 0.040185638
000380 d1 fa 75 3d 98 f7 df 3c 0e 86 f7 3d 10 a2 4d bc
       0.06005365 0.027339742 0.12086116 -0.012550846
000390 6f ea 0d bc 34 a5 87 bb 34 4d 32 be 8d 42 4e bc
       -0.00866185 -0.004139567 -0.17412263 -0.012589109
0003a0 45 ea 8b 3d 7f e5 d0 bc 3a 79 74 bd eb d9 ed bc
       0.06831793 -0.025500057 -0.059685923 -0.029034575
0003b0 8e 31 29 be 2f 44 72 bc d0 4b 4e 3d b8 49 43 3d
       -0.1652281 -0.014786764 0.05036527 0.047677726
0003c0 34 25 e2 3d 7b 27 03 be 4f af 2f 3d 31 5c c4 bd
       0.11042252 -0.1280803 0.042891797 -0.095878966
0003d0 04 56 15 bd ca 84 09 be b9 b6 04 be 31 2d a3 3c
       -0.036458984 -0.13429561 -0.12960328 0.01991901
0003e0 f7 62 98 bd d6 15 3d 3d 86 2a 1c be 8e 36 b2 bd
       -0.07440751 0.046163402 -0.15250596 -0.08701812
0003f0 77 fb df 3b fa ba 74 bd d3 18 f5 3d 47 f6 cf bd
       0.006835397 -0.059748627 0.119676255 -0.101543956

head.4.bias f4 [72]
000000 ae b4 89 3c dc 69 59 bd b6 3f 7d 3d 10 85 88 3c
       0.016809788 -0.05307947 0.061828338 0.016665012
000010 c4 83 f2 bd cc 0f fe bc fe 4e a3 3d 95 9a 68 3d
       -0.118415385 -0.031013392 0.07974051 0.056788046
000020 90 d2 9d bd 18 8a de bc ce 29 e0 ba f8 ac 3f 3d
       -0.07706177 -0.027165458 -0.0017102303 0.046795815
000030 0a 39 43 bd 18 28 13 be af f0 ad 3d 2a 56 cf 3d
       -0.04766182 -0.14370763 0.084931724 0.10123856
000040 6f f1 2a be b2 2c ee bc b5 a1 21 bd 33 14 bd 3d
       -0.16693662 -0.029074047 -0.039460856 0.09232368
000050 14 b1 da 3b 7d f1 39 3a e1 23 99 bd 7e 09 21 bd
       0.0066739414 0.00070931745 -0.074775465 -0.039315693
000060 b2 31 12 3b 5f fd 2e 3c 0b 47 34 bd c0 50 c6 3d
       0.0022307453 0.010680526 -0.044013064 0.096833706
000070 41 c4 1b 3d 33 41 11 be 14 a7 65 3d 46 4d 71 bd
       0.03802896 -0.14185028 0.05606754 -0.058911584
000080 ff 38 1f bd 2d 54 75 bc f6 cc 0f bd b6 35 43 3d
       -0.038872715 -0.014973682 -0.035107575 0.047658645
000090 fd 36 93 3d 80 f0 c7 3b 2a fc 19 3c d7 84 b6 bd
       0.071882226 0.006101668 0.0093984995 -0.08912056
0000a0 a4 89 8c 3c 64 68 df 3c 45 45 9a 3d 75 8d eb bd
       0.017155476 0.027271457 0.07532743 -0.1150159
0000b0 b2 3c 0d be 7f d9 ea bd fb 9a 8e 3c 17 ad 9e 3d
       -0.13792685 -0.11467265 0.017407885 0.07747858
0000c0 a6 8b 1f 3d 42 9c e1 bd 4f fc 68 bc d5 79 01 be
       0.03895154 -0.11016132 -0.014220311 -0.12644131
0000d0 e8 9f 4c 3d be b3 ec bd 9e 7c 64 bc 15 75 75 3d
       0.049957186 -0.115577206 -0.013945727 0.05992611
0000e0 68 99 23 3d 8f 0d ed bd e9 4d 2c 3d 4d 90 9b bc
       0.03994122 -0.11574852 0.04206649 -0.018989706
0000f0 70 43 92 bb 11 78 0a be dd d3 c0 3d e2 db bc 3c
       -0.0044636056 -0.13522364 0.0941541 0.023054067
000100 31 00 bf bd 6a 73 8d bd 0c 9f 41 bd 0f b4 bb 3d
       -0.093262084 -0.06906779 -0.04727082 0.09165203
000110 fa e8 19 3e a0 dc 54 bd b5 5a 43 3e 96 60 81 3d
       0.1503028 -0.051968217 0.1907757 0.063172504
