script/logs/multi-block/model/best/policy.pth (torch, 24958 bytes, 6 tensors)

head.0.weight f4 [64, 11]
000000 3c ce ee b9 17 6a 05 3d de 33 a3 be ff be b3 be
       -0.00045548554 0.03257188 -0.3187551 -0.35106656
000010 bc d4 ed bd 73 fc 0d 3c b2 c0 c3 bb 24 97 bf 3e
       -0.116128415 0.008666146 -0.005973899 0.3742
000020 da 5d 51 bc a1 65 a3 3d af c0 d7 bd a2 c1 72 bd
       -0.012778724 0.079783686 -0.10534798 -0.059266694
000030 15 7b 93 be 60 7a 4c be ba 8b fe bd 6c fe 36 3c
       -0.28804842 -0.19968557 -0.124289945 0.011169057
000040 1b 1e f4 3d 70 41 39 3e 0d 50 51 be b8 72 06 be
       0.11919805 0.18091369 -0.20440693 -0.13129699
000050 eb 48 e0 3d ae 30 80 3e 99 b4 d7 bd 67 c7 26 3e
       0.10951408 0.2503714 -0.10532493 0.16287003
000060 42 d3 62 bd 4b 41 27 3c 76 d5 69 3e 72 95 91 be
       -0.055377252 0.010208438 0.22835335 -0.2843433
000070 4c 5e 42 be c4 dd 78 3c 64 35 6e be 0c 61 85 3e
       -0.18981284 0.015189592 -0.23262554 0.26050603
000080 43 9e 31 be 17 cb 83 bd 67 bc ab be 08 e7 a6 be
       -0.17345528 -0.06435221 -0.33542177 -0.32598138
000090 d6 a3 08 be 73 b5 79 3e 41 46 89 3d 39 a4 15 3e
       -0.13343748 0.24385624 0.06702853 0.14613427
0000a0 93 b6 b9 3d 44 97 04 bd 04 f1 50 3d a8 fb 97 be
       0.090680264 -0.03237082 0.0510111 -0.29684186
0000b0 16 92 46 be b1 3a 16 be 92 8d 8f 3e a6 0a 82 3e
       -0.19391665 -0.14670826 0.28037697 0.2539875
0000c0 d0 a5 19 be 19 c5 a4 bd 7d 76 45 3e aa d7 db 3e
       -0.15004659 -0.08045406 0.19283481 0.42937976
0000d0 8d 5d b6 3d a1 d6 26 3d 02 7f 10 3e 03 d6 3d be
       0.08904562 0.04073203 0.1411095 -0.1853867
0000e0 dd f6 6c bd 45 cc 74 be d3 76 8d be 73 7e 1f be
       -0.057852615 -0.23906048 -0.27629718 -0.1557558
0000f0 d2 b4 e5 3d 07 55 f8 3d 5b 4f 03 be d6 82 06 3e
       0.11216129 0.12125593 -0.1282324 0.13135847
000100 6a 7e 29 3e c7 67 ba bd 2c 27 a4 3c 18 02 97 3d
       0.1655213 -0.09101825 0.02003821 0.07373446
000110 53 b2 6d 3e 4e 5e d1 3e 5c 10 8a be db 70 57 be
       0.23212557 0.4089226 -0.26965606 -0.21039145
000120 87 ae f2 3d 01 fb ac 3e c6 a0 5e 3e 78 36 88 3e
       0.11849695 0.3378525 0.21741018 0.26604056
000130 a3 58 a9 bc a4 3d 86 be 3f 38 e3 3c 77 27 41 be
       -0.020672148 -0.26218903 0.027736781 -0.18862711
000140 8b de 8f be f4 28 89 3e 5f c2 6a 3e 00 fe 99 be
       -0.28099474 0.26789057 0.22925709 -0.300766
000150 dc 27 67 3d e8 0b 50 bd 41 3b 4b bd d3 54 0d be
       0.056434497 -0.050792605 -0.049617056 -0.13801889
000160 0c 1e 0b 3e 8b 70 bc bd 6a 8c 0d 3e 8f 44 8f 3e
       0.1358568 -0.09201153 0.13823095 0.27981994
000170 a7 ce 37 3e 12 f5 b1 3c 09 ca 98 be b9 2f 82 be
       0.17949925 0.021723304 -0.2984164 -0.25427034
000180 70 bc 89 3e 1a 3e 81 3d c1 d1 c6 be 57 0e 40 be
       0.2690158 0.06310673 -0.38831905 -0.1875547
000190 bc 58 d9 3e 99 44 bd 3e 2b fd 36 bd 8b 78 b4 bd
       0.4245051 0.36966398 -0.044675034 -0.08812054
0001a0 b0 20 80 be 47 95 b1 bb aa 2f 4e be 4f e7 77 be
       -0.2502494 -0.0054194066 -0.2013537 -0.24209331
0001b0 51 18 88 bc b1 2b 3b 3d 58 c4 17 be 64 21 5e 3e
       -0.016613157 0.045695964 -0.14820993 0.21692425
0001c0 22 7d 81 be e9 bd 9c 3e b9 c6 28 3e 1a 39 bd be
       -0.2529078 0.3061364 0.16482057 -0.36957628
0001d0 54 af 99 bd b2 3d dd bc 1f 3f 3d 3d 38 74 92 3d
       -0.07504144 -0.027006958 0.046202775 0.07151073
0001e0 cd 1f 83 bd 9f 73 96 bd 97 a5 16 be e4 b3 7d 3e
       -0.0640255 -0.07346272 -0.14711605 0.24775654
0001f0 8a 72 95 be 2d ff 36 be d7 93 9a bd 25 65 16 be
       -0.2918895 -0.1787078 -0.075477295 -0.14687021
000200 99 ed 19 be 3f ea 87 be c0 59 83 bd f2 9d ae 3d
       -0.15032043 -0.26545903 -0.06413603 0.085262194
000210 c2 be 3c be 2b cd 89 bc 39 7c 95 3e 21 c5 1a bd
       -0.18432143 -0.016821465 0.29196337 -0.037785653
000220 c0 47 2d 3d fe 0f d5 bd 67 f0 79 3d 90 94 a0 3e
       0.042304754 -0.10403441 0.06102028 0.31363344
000230 bc 7b 8a 3e 6e 12 44 3e 28 7b 9a 3e ac ab 01 3d
       0.27047527 0.19147655 0.30172086 0.03165786
000240 ec 6b cb be a1 76 0c be 58 15 9d 3e 8e 54 36 bd
       -0.39730775 -0.13717128 0.30680346 -0.04451423
000250 73 4d 02 be d1 98 6c be d5 bb 8e be d6 66 ef bd
       -0.12724857 -0.2310517 -0.2787768 -0.11689536
000260 60 80 7a bd a5 99 5a bd 4d 6c 87 3e 81 8e cd be
       -0.061157584 -0.053369183 0.26449814 -0.40147784
000270 5a c9 4c 3e 3e 0b 75 be 5c 8d 90 bd 3c 19 a9 bd
       0.19998685 -0.2393007 -0.07058212 -0.08256766
000280 c6 e0 6d bd 60 03 9c 3d 0c 52 26 be cd 4a 85 be
       -0.05807569 0.07617831 -0.16242236 -0.2603363
000290 3a 9f f7 bd c0 27 36 3d ca 85 9b be 5d 9c c0 3d
       -0.12090917 0.044471502 -0.3037551 0.09404824
0002a0 00 24 bd be 66 f2 92 bc ff 6b 73 3e 12 df fb bd
       -0.36941528 -0.01793785 0.23771666 -0.12298407
0002b0 7e b1 97 3e 54 c3 0b 3e fb 50 8b be 77 22 35 3e
       0.29627603 0.1364873 -0.2721022 0.17688929
0002c0 61 74 ca bb e9 c4 c1 be c5 4b 06 3e 59 63 d1 be
       -0.006178424 -0.37845543 0.13114841 -0.4089611
0002d0 d8 89 09 3d c0 16 9d bd 07 7b 5c 3e 74 ce e1 3d
       0.033578724 -0.07670355 0.21531306 0.11025706
0002e0 47 34 10 3e f0 12 da 3d 81 de 2f be 5f 6d 05 be
       0.14082442 0.10648143 -0.17174722 -0.13030003
0002f0 e1 01 91 be ff 74 6d 3e 2e c8 c3 3e ec 05 09 3e
       -0.28321746 0.23189162 0.38238662 0.13381165
000300 63 05 4b be 5f 52 5c 3c 88 56 bc be 42 e8 09 be
       -0.19826274 0.013447373 -0.36784768 -0.13467506
000310 b0 e8 33 be 59 87 80 3d 55 37 79 be 39 05 6c bb
       -0.17569232 0.062758155 -0.24337514 -0.0036013855
000320 3c dd 89 3d f5 a4 9e 3e df 26 90 be 4f 15 96 be
       0.0673165 0.30985227 -0.28154656 -0.29313132
000330 22 47 33 be 35 05 a3 3e e0 0b 76 be 6b 36 82 3e
       -0.17507604 0.3183991 -0.24027967 0.25432143
000340 cc f3 89 bd c6 61 1c 3d c1 17 13 bb 84 22 74 bd
       -0.06735954 0.03817918 -0.0022444578 -0.05960323
000350 22 f3 1a 3d 73 00 8d bd 5d d7 0a bb 81 93 1d 3d
       0.037829526 -0.06884851 -0.0021185495 0.03847075
000360 04 81 71 be 07 d3 21 be bc 4f 79 3e 28 90 7a be
       -0.23584372 -0.15803157 0.24346823 -0.24469054
000370 87 90 22 39 bd c6 09 3f 6e f0 99 3d c9 9a e7 3d
       0.00015503365 0.53818876 0.075165614 0.1130882
000380 30 99 7f be 67 3c 16 3e 3d ea 5b be 81 5d af 3c
       -0.2496078 0.14671479 -0.21476074 0.02140689
000390 66 b7 27 bd f2 e2 36 bd e9 46 90 bc f4 0d 82 3e
       -0.040946387 -0.044650026 -0.017611938 0.2540127
0003a0 2d 83 f1 3d aa e4 63 3e 56 ea af 3e 37 8b 55 be
       0.11792598 0.22255197 0.34358472 -0.20853887
0003b0 a8 9c 18 bd a2 40 5a be d3 96 28 be 87 9c ab 3d
       -0.037258774 -0.21313718 -0.16463785 0.083794646
0003c0 5d e4 cb 3d ae a2 45 3e 77 6a 9a bd f8 4c cd 3c
       0.09955666 0.19300339 -0.07539838 0.025061116
0003d0 2d 48 dc 3d 79 4e be be 50 61 4f 3e ea 40 84 be
       0.10755954 -0.37169245 0.20251966 -0.25830775
0003e0 89 2b 88 3b 03 2d af bc ad 73 c2 bd df 3a 23 3d
       0.0041555804 -0.021383768 -0.0949472 0.039851066
0003f0 aa 48 65 3e 84 81 b4 bd 38 4d 37 be 2d a3 e9 bd
       0.22391 -0.08813766 -0.1790055 -0.114080764

head.0.bias f4 [64]
000000 2b 69 65 bd 47 8b 05 bd 57 23 52 3e 38 12 cc 3e
       -0.0560085 -0.03260353 0.20521294 0.3985765
000010 92 2f a5 bd fe 88 a8 3e 0f ad 56 3d 01 a2 12 be
       -0.08065714 0.32917017 0.052411135 -0.14319612
000020 3b 53 2c be 5a d9 fa bd ce df cd 3e 21 4c 81 b8
       -0.16828625 -0.12248488 0.40209812 -6.1653795e-05
000030 d7 d1 99 3d 26 9f 7e 3e 4a 15 bb 3e 20 1d c2 3e
       0.07510727 0.24865398 0.3653968 0.37912846
000040 77 94 c8 3e 96 8a 33 bd 99 81 9e 3d 95 b2 36 be
       0.3917577 -0.043833338 0.077395625 -0.17841561
000050 6d c3 c2 bd 03 eb 10 3e b1 33 ca 3e 86 f8 79 be
       -0.09509931 0.1415215 0.39492562 -0.2441121
000060 33 fd a3 3e 91 fd 3e 3d 51 18 18 3d d1 8e ba 3e
       0.32029113 0.04662854 0.037132565 0.36437085
000070 25 3f 2e bc 7d c0 28 3e d3 d6 1b be 25 e1 bb 3e
       -0.010635172 0.16479678 -0.15218668 0.3669521
000080 4b 9e 03 3e a8 9d c7 bd 58 f7 48 3e 92 9f 01 be
       0.12853353 -0.097468674 0.19625604 -0.12658527
000090 c5 1f db bd ae 99 08 3e 4e de b1 3e 31 c9 16 38
       -0.10699419 0.13339874 0.34739918 3.595016e-05
0000a0 45 87 8b 3e 6e df bd 3e be ac 97 3e fc f4 21 be
       0.2725164 0.37084526 0.2962398 -0.1581611
0000b0 1a 0a 73 3d c2 f3 8d 39 ef a3 7a bd 5a ff 21 3e
       0.059335805 0.0002707523 -0.061191496 0.15820065
0000c0 78 88 a8 3e aa 52 c6 3e fb 71 2c 3e 7e be df 3d
       0.32916617 0.38734943 0.16840355 0.109250054
0000d0 2a c1 83 bc a5 56 b0 3e 5c ec 4f 39 8c 9a 0f be
       -0.016083319 0.34441105 0.00019829109 -0.14023799
0000e0 e3 12 0e 3e be d4 a0 3e 62 99 00 be 3f f2 c0 3e
       0.13874392 0.3141231 -0.12558511 0.3768482
0000f0 a9 0a 74 3e ac af a6 bd c9 67 84 3c d8 00 bc 3e
       0.23832192 -0.081389755 0.01616277 0.36719394

head.2.weight f4 [64, 64]
000000 82 cc 30 be 5c a5 15 bd 01 33 55 3e fd b1 4d 3c
       -0.17265514 -0.036534652 0.20820238 0.012554643
000010 22 4b 14 3e cb 61 22 3e 02 31 d4 3d 4a 36 a3 bd
       0.14481786 0.15857618 0.1036091 -0.07969339
000020 68 56 e2 3d b2 26 c2 bd 95 4a 40 3e f2 c8 72 be
       0.11051637 -0.09480037 0.18778451 -0.23709467
000030 c9 d3 bf bd e4 c9 7c 3e 3f e0 e7 3d 86 ae 93 3d
       -0.09366567 0.2468639 0.113220684 0.07211022
000040 bd d1 8a 3b 7f fe 24 3d a7 d4 0e 3e 40 62 f9 bd
       0.0042364285 0.04028177 0.13948308 -0.12176943
000050 6f 52 0d be 1f 7a 2b 3d 8b 34 98 3d 29 4d 1d 3d
       -0.13800977 0.04186451 0.07431897 0.038403664
000060 26 5a 84 3e 34 12 13 be 27 86 5c be a9 91 6d 3d
       0.25850028 -0.14362413 -0.2153555 0.05800024
000070 82 26 9f bd 91 5e 05 be 13 79 88 3d 91 ef be 3c
       -0.07771017 -0.13024355 0.06663718 0.023307594
000080 65 ce 43 3e f6 3f a3 bd bf ca 3c 3e 2f c2 19 be
       0.19121702 -0.07971184 0.18436716 -0.15015481
000090 3f f0 5e 3c f8 10 17 3e 27 a7 40 3e 1d bc 43 3e
       0.013607084 0.14752567 0.18813764 0.19114728
0000a0 fa 5a 1d 3e 30 1e 78 3d 82 9a 83 3c b4 e4 30 bd
       0.15366736 0.060575664 0.016064886 -0.04318686
0000b0 df 93 e8 3c 29 2d 8d bc 8a 98 1d bd 8b 90 ed 3d
       0.028390823 -0.017233448 -0.03847555 0.11599835
0000c0 6d e6 49 3d 1a e5 2a 3e d5 8c 45 3d 8c 75 d7 3d
       0.049292017 0.16688958 0.04823001 0.10520467
0000d0 35 56 ac 3e 56 fb 81 3d 56 45 19 bd 11 fe 26 be
       0.3365952 0.06346767 -0.03741964 -0.16307856
0000e0 b2 20 30 bb 5b e1 07 3e 3c cd 00 3d c5 ed 88 bb
       -0.0026874957 0.1326956 0.031445727 -0.004178735
0000f0 8e 5c 0e 3e 8a 9c 35 3d 83 31 d4 3d 7c 1c 95 3c
       0.13902494 0.04433874 0.10361006 0.018202059
000100 78 b4 10 bd 84 75 3e bd 83 7d f1 3d 76 9f 47 3e
       -0.03532836 -0.04649879 0.117915176 0.19494423
000110 fc 05 3a 3d 64 6b 86 3d 71 aa 0b bd 20 e6 05 3d
       0.045415863 0.06563452 -0.034098092 0.032690167
000120 90 80 ab bd 64 4e a6 3d bd b2 9e 3d eb ad 3d bd
       -0.08374131 0.081204206 0.07748935 -0.04630844
000130 a7 d2 aa 3d 2b bc c4 3d 34 08 3b 3e d1 41 42 3e
       0.0834096 0.09606203 0.18264848 0.1897042
000140 5e 82 e4 3d 6d b8 03 be 27 58 b6 3d fe 3e b1 3d
       0.11157678 -0.12863322 0.089035325 0.08654593
000150 18 85 01 be 1f e2 6c bd 9a 66 22 3e 97 1b e3 bd
       -0.12648427 -0.057832833 0.15859452 -0.11089247
000160 31 9e 14 3e 71 4c 46 be e8 e3 36 bd a6 82 c7 3c
       0.1451347 -0.19365098 -0.044650942 0.02435429
000170 e4 3d 71 3d db 42 69 3e 43 eb 97 3d ce c0 83 3d
       0.058896914 0.2277941 0.074179195 0.06433259
000180 80 7a 8d 3e 62 e0 a3 bd 9a e0 06 3d 06 c6 1f be
       0.27632523 -0.08001782 0.03292904 -0.15602884
000190 95 c9 22 bd f1 3f a0 3d b0 ad ec 3d 1e 96 ae 3d
       -0.039743025 0.07824696 0.11556566 0.08524726
0001a0 cd f2 44 bc 1b bf b8 3d 91 41 6a 3d 18 0c 9a 3c
       -0.012020779 0.090208255 0.057191435 0.018804595
0001b0 cf 86 b6 3d 7a db df 3d 3d 5e 08 be ea 77 fd 3d
       0.089124314 0.10930534 -0.13317199 0.123763874
0001c0 c1 ca 0d 3d 9f a4 32 bd ea c5 c8 bc bb be 53 3e
       0.03461719 -0.043614026 -0.024508435 0.20678227
0001d0 5a 2f 32 3e 44 ba 39 3e ba c5 58 bd 9c ec 83 be
       0.17400876 0.18137461 -0.05292294 -0.25766456
0001e0 ae 95 e3 3c 98 0e 77 3e cd 61 1c bd c9 08 25 3e
       0.027781334 0.24126661 -0.038179208 0.16116633
0001f0 15 74 40 3e 23 ae 94 3d 54 5f 7f bd 32 ae da 3d
       0.18794282 0.072597764 -0.06234677 0.10677756
000200 72 ac 83 bd f0 09 02 bc c5 60 4b 3e 66 e7 21 3e
       -0.06429376 -0.00793694 0.19861133 0.15810928
000210 f9 2a f8 3d 35 06 6b 3e c5 67 10 3e 5c e0 ab 3d
       0.121175714 0.22951587 0.14102085 0.083924025
000220 99 74 2c 3e cb 2c e7 bc 15 c8 75 bc 22 c5 fc 3c
       0.16841353 -0.028219601 -0.015001317 0.030855719
000230 db 0d db ba 81 3d b8 3d 85 fd 2f 3e a9 80 ec 3d
       -0.0016712503 0.08996106 0.17186554 0.115479775
000240 ab a7 e8 3d a3 79 ea 3d d5 43 44 3e 88 7c 3a 3d
       0.11360105 0.114489816 0.19166501 0.04552892
000250 83 94 8f be 40 1a 79 bd b6 fa 03 3e 91 16 73 3c
       -0.28042993 -0.06081605 0.12888607 0.014836923
000260 28 7c 50 3e aa fa 0d be a5 99 8e be 88 55 33 3e
       0.20359862 -0.13865152 -0.27851596 0.17513096
000270 d3 65 22 3e 9d 2b 18 3b 9a c1 e0 3d 0a b7 16 bd
       0.15859155 0.0023219355 0.109744266 -0.036795653
000280 64 b5 63 3e fd 51 0a 3d 62 c8 5c 3e 6d d7 68 be
       0.22237164 0.033769596 0.21560815 -0.22738428
000290 ea 5a e4 bd f9 e9 23 3e 0f 83 4e 3e 6c 2e 8b 3e
       -0.11150153 0.16007222 0.20167182 0.27183855
0002a0 5a 64 4e 3e 23 fe 0b bd fa c2 2d 3e a0 b3 f1 bd
       0.20155469 -0.03417791 0.16968909 -0.11801839
0002b0 09 9d 85 3c 9f 98 2c 3d 7c 53 cc bd 1d b7 20 3e
       0.016310232 0.04213774 -0.09976861 0.15694852
0002c0 7c 47 4f 3d 21 0d 49 3d f6 5b 8d bc b5 4e b7 bd
       0.050605282 0.049084786 -0.017255764 -0.08950559
0002d0 4d 14 53 3e 78 23 07 3d f3 de cc bd e3 23 66 be
       0.20613213 0.03299281 -0.10003462 -0.22474627
0002e0 36 0c 9f bd 96 aa 74 3d 75 e9 de 3d 27 0f 0b 3e
       -0.07766001 0.059732996 0.10884372 0.13579999
0002f0 7b 45 1f 3e 10 b9 fa bd 3a 75 32 3d 27 67 b2 3d
       0.15553848 -0.12242329 0.043568827 0.08711081
000300 b7 85 2d bd b8 5a dc 3c 46 09 d3 bd a4 e4 3c be
       -0.04236385 0.026898727 -0.10304503 -0.18446594
000310 27 a8 46 bd 37 37 ed 3b f4 e9 11 3e fc c5 9b bd
       -0.048500206 0.007239248 0.14249402 -0.07606122
000320 24 cb bf bd f8 31 7d bd a4 45 1f bd ff c5 b2 3d
       -0.09364918 -0.061815232 -0.038884774 0.08729171
000330 62 fa 5c 3e a2 46 94 bd 3b 25 a5 3c 93 26 c4 3d
       0.21579888 -0.07240035 0.020159354 0.0957767
000340 45 cc 02 3e 72 13 2c 3d af ce 16 be 18 a0 8a 3d
       0.12773235 0.042010732 -0.14727281 0.06768817
000350 b4 bc 27 be da 57 84 bd d9 69 6e 3d e4 c4 8a bd
       -0.16380578 -0.06462069 0.058206413 -0.06775835
000360 de 11 c1 bc d0 02 08 bd 75 99 a8 be 44 af 15 be
       -0.02356809 -0.033205807 -0.32929578 -0.1461764
000370 2c f4 9e bb de d0 39 3e e1 a7 a2 3d e2 e6 dd 3d
       -0.004850885 0.18146083 0.079421766 0.10835053
000380 83 6a 05 be 44 2d 9b b8 54 32 9a 3d d8 81 51 3e
       -0.13028912 -7.399407e-05 0.075291306 0.20459688
000390 27 45 ad 3d 7e a8 47 3d f5 2d 1e bc 39 7a ca 3d
       0.084604554 0.04874467 -0.009654512 0.09886593
0003a0 34 8f d0 bd aa 62 ea bd 56 08 91 3d c8 7d d4 bd
       -0.10183564 -0.114446 0.07081668 -0.10375553
0003b0 e5 e5 c9 ba a9 e7 bb 3d 82 23 c1 bd 29 68 5e be
       -0.0015403597 0.09175045 -0.09430601 -0.21719421
0003c0 8b ef 91 bc 37 02 da 3c c7 87 32 3d 41 48 16 3e
       -0.017814418 0.026612384 0.04358652 0.14676
0003d0 fc c4 8b 3d 2f 9a d8 bd e7 04 07 be b5 3d 68 3d
       0.06824681 -0.10576283 -0.13185464 0.056699473
0003e0 5d eb 0f 3e 16 87 16 bd 84 ee a1 bd 5a 57 a4 3b
       0.14054628 -0.03674992 -0.07906821 0.005015296
0003f0 84 b6 dc 3d ba e7 31 3d 33 a9 48 bc 11 8a 67 3d
       0.107769996 0.043433882 -0.0122473715 0.056528155

head.2.bias f4 [64]
000000 e1 8f 12 bd 0b f6 8e bb 8c e3 5d bc be 3b 57 3d
       -0.035781745 -0.0043628267 -0.013543021 0.05254721
000010 d9 f5 24 3e 88 6a 17 3d 2a 4b fe 3d 59 00 d0 3d
       0.16109408 0.03696683 0.1241668 0.10156316
000020 f8 14 17 3e 27 dc 0c 3e fb de a9 3d ab d1 e0 3d
       0.14754093 0.13755856 0.08294483 0.10977491
000030 db 8b 42 3d 34 ad cb bc 82 76 ea 3b 54 a1 e0 3d
       0.047496658 -0.024862863 0.0071552405 0.10968271
000040 ad 9a d3 3d 11 7d 8f bd de 7e ba bd 26 7a ee bd
       0.103322364 -0.070062764 -0.09106229 -0.11644392
000050 ad c3 2e 3e 99 0e 1f 3e ed 76 1e ba 7f 18 b8 3d
       0.17066832 0.15532912 -0.0006044943 0.08989047
000060 ed 8c 60 3d 9f 46 15 3e 3c de e7 bd 26 c3 ba bd
       0.054821897 0.14577721 -0.11321685 -0.09119253
000070 7c 20 9d 3c 8f 76 46 3d 35 f4 0e 3d 25 ff 58 3d
       0.019180529 0.04845291 0.034900863 0.0529777
000080 98 12 2d 3d 97 9f fd 3b 7a 09 21 3d d9 61 fb 3c
       0.04225406 0.007739972 0.03931568 0.030686306
000090 a9 52 04 3e e4 94 01 3d ef ae d0 3c 0a ba 9d 3d
       0.12922157 0.031636134 0.02547404 0.077015
0000a0 78 71 cc bd ae 6e 03 bb f2 80 b1 bd 05 90 1e 3e
       -0.0998258 -0.0020054984 -0.086671725 0.15484627
0000b0 22 6a e1 3d c4 d3 7d bc 77 b2 81 3d 8e a5 fd bd
       0.11006571 -0.015492383 0.063328676 -0.12385093
0000c0 62 0e 3b 3b 7c ed c3 bd e3 46 c5 bc 8b 09 a7 bd
       0.0028542508 -0.09566781 -0.024081653 -0.08156117
0000d0 b4 5a 6d 3c 32 11 fe bd 1f 2a e4 3d 9d 7a 11 3d
       0.014486957 -0.124056235 0.111408465 0.035517324
0000e0 b6 e6 ff 3d 0e f3 bd 3c 24 ea 1a 3e 0d 4d e0 3d
       0.124951765 0.023187187 0.1512838 0.10952196
0000f0 da 45 f2 3d d2 aa 4b 3d d8 95 00 3e db ff 79 bd
       0.118297294 0.049723454 0.12557161 -0.06103502

head.4.weight f4 [11, 64]
000000 89 76 08 3e e8 0b 4e 3e 26 7e 22 3e dd ba f2 bd
       0.13326468 0.2012173 0.15868434 -0.118520476
000010 46 21 3e 3d 30 54 7e bc 53 4f 36 3e 99 12 c3 3c
       0.04641845 -0.015523002 0.17803697 0.023812579
000020 ab 1c cb 3d 00 b9 f1 3c 55 57 90 bd 86 b3 c7 3d
       0.09917577 0.02950716 -0.07047907 0.09751038
000030 6f d1 77 bd df b8 25 be 2f 6d 29 3e 0c e6 5f 3e
       -0.060502466 -0.16183804 0.16545556 0.218651
000040 a6 c5 a6 3d ca 50 88 3d 1a 45 c5 3d f0 0b 29 bd
       0.08143167 0.06656034 0.09632321 -0.04127115
000050 f7 05 92 3d 2a 3d 3d 3d 2c b4 ad 3d 75 c6 c3 3d
       0.07130044 0.04620091 0.08481631 0.09559337
000060 4f 52 99 3d 65 f4 c0 bc 2c 20 48 bd 42 1b 8c bd
       0.07486402 -0.023554036 -0.048858806 -0.068411365
000070 66 f9 04 bd 3b 72 79 bd 81 18 0a 3e 1c 88 5e bd
       -0.032464407 -0.060899954 0.1348591 -0.054329023
000080 e4 e0 0c bd e9 1e 17 3e 81 99 c1 bc 9e 97 d4 3c
       -0.03439416 0.14757885 -0.023632767 0.025951203
000090 7c 6a 1f 3e 1f 26 56 3d 2f 47 66 bd 99 70 9c 3d
       0.15567964 0.05228245 -0.05622023 0.07638664
0000a0 78 e9 91 bc d5 b0 f4 3d c8 b5 3b 3d a0 02 21 bd
       -0.017811522 0.119477905 0.045827657 -0.039309144
0000b0 d1 f3 3f 3e a3 ec df bd 2b 18 05 3e cc 76 10 bd
       0.18745352 -0.10933807 0.129975 -0.035269544
0000c0 c6 29 16 3d b8 77 ef 3d 2f 67 29 bd ae e0 f9 bd
       0.036660932 0.116927564 -0.04135817 -0.122010574
0000d0 44 de 21 3e 36 b6 e3 3d 7a 66 39 be e4 6f 1b 3c
       0.15807444 0.11118738 -0.18105498 0.009487126
0000e0 e5 20 72 3e 58 66 88 3d f6 ea ee 3d 44 7c fa 3c
       0.23645361 0.066601455 0.11665909 0.030576833
0000f0 f1 00 cc 3d f1 94 95 bc 57 76 01 3e 25 58 1d be
       0.09961117 -0.018259497 0.126428 -0.15365656
000100 a0 be dc 3d 4d 4a 7b bd 7a 64 28 bd 66 38 61 be
       0.10778546 -0.061350156 -0.041111447 -0.2199417
000110 63 0c 6e be 44 7a 59 bd 40 e3 f2 bd 49 8f 96 be
       -0.23246913 -0.053095117 -0.11859751 -0.29406193
000120 b4 6e 4a 3e d8 96 37 be 1c 13 27 be 42 c3 a9 bd
       0.19768792 -0.17928636 -0.16315883 -0.082891956
000130 34 db e6 bd 0e cb 83 3e eb 47 fa bb 2a 8c 36 be
       -0.112722784 0.25740856 -0.007637968 -0.17826906
000140 3e d1 67 3c 6b a0 96 3e c8 28 fc 3c 37 79 aa 3d
       0.014149008 0.29419264 0.030781165 0.08323901
000150 90 b7 c9 bd f5 bd 8f be b3 f3 8c 3e 32 17 25 be
       -0.09849465 -0.28074613 0.27529678 -0.1612213
000160 dd e7 1c be 17 ba f0 3c f8 2a 7f 3d 1c 07 99 bd
       -0.15322824 0.02938561 0.062296838 -0.07472059
000170 48 a0 3b 3e 08 bd 7d bd f6 37 03 3e 96 9e 43 bd
       0.18322861 -0.061947852 0.12814316 -0.04775866
000180 b0 06 db bc da 58 17 be c2 29 b5 3c 87 b7 fb bd
       -0.026736587 -0.14779988 0.022114638 -0.122908644
000190 02 01 14 3e 45 36 f7 3d 89 d3 e9 bd 00 71 88 be
       0.1445351 0.12070898 -0.114173 -0.26648712
0001a0 fa 6a 85 bd f8 24 a8 3d 08 49 a5 bd 0b 76 0e 3d
       -0.06514545 0.08210176 -0.0807057 0.034780543
0001b0 9c f9 5c 3d 0a 03 64 bd 8d fd ca be 12 23 e8 3d
       0.053948984 -0.05566696 -0.3964657 0.11334814
0001c0 b1 a8 f1 bd 7c 95 2a bd 88 65 f8 3d 88 99 3f 3e
       -0.117997535 -0.041646466 0.121287405 0.18710911
0001d0 49 13 2b 3e 49 fa e0 bd 2a b7 9c 3e cf 15 eb bc
       0.16706575 -0.10985238 0.30608493 -0.028696923
0001e0 80 c8 7f be 6b 70 81 be aa 5a 88 be fb 45 77 3d
       -0.24978828 -0.2528108 -0.2663167 0.060369473
0001f0 b9 32 03 be 3f 4e 85 be 88 5b d7 3d 87 b0 75 3e
       -0.12812318 -0.2603626 0.10515505 0.23993121
000200 8c 8c ea 3d 55 c4 31 3e 16 3c 3a 3e 25 e1 cc 3c
       0.114525884 0.17360051 0.18186983 0.025009701
000210 7c 5f 4b 3e a0 0b d0 3d e9 67 01 3e 47 f8 f0 bd
       0.19860643 0.10158467 0.12637295 -0.11766105
000220 04 b7 ae 3d 49 2f ca 3c 13 49 8d bd 82 07 9a 3d
       0.08531001 0.02468075 -0.068987034 0.07520963
000230 b8 73 37 3d 54 5c 03 be 75 6a 09 bb fc 88 31 3e
       0.044788092 -0.12828189 -0.0020967994 0.17337412
000240 dc e4 6c 3d a4 7b 52 bd 6a 7d df bd 9c df d7 bc
       0.057835445 -0.051387444 -0.10912593 -0.026351742
000250 c3 5f c6 3d b1 e6 d9 3d 11 0b c8 3d b4 8d 45 3d
       0.09686234 0.10639704 0.09767736 0.04823084
000260 62 55 2d 3e 30 7d 19 3c 50 24 47 3d 2e 3b b4 bd
       0.16927102 0.009368226 0.048618615 -0.0880035
000270 d6 93 67 3d db f7 d1 bd a5 26 c0 bd 15 96 6f bd
       0.05653747 -0.10252353 -0.09382371 -0.05849274
000280 84 56 0f 3d 06 03 c1 3d 3b c8 9a 3d 05 28 a1 3d
       0.034994617 0.09424405 0.07557722 0.07868961
000290 95 f5 18 3e 8e e3 3a 3e d8 ab 7c 3d 18 6a 4f 3e
       0.14937432 0.18250868 0.06168732 0.20255315
0002a0 c0 6e ca bb 82 40 0c 3c 38 13 c7 3c 62 4a 19 3e
       -0.006177753 0.008560302 0.024301156 0.14969781
0002b0 b6 dc 83 3d a1 52 bb bd 51 59 c9 3d 50 84 02 bd
       0.06438582 -0.091466196 0.09831489 -0.031864464
0002c0 b9 ea 53 3b 02 b2 a1 3d ff c5 c2 3d 3b a9 a8 bd
       0.003233595 0.078952804 0.09510421 -0.08235403
0002d0 f3 01 ea b7 34 17 f1 3d 2e 48 76 3d 02 d5 a3 bd
       -2.7895881e-05 0.11772004 0.06012743 -0.079996124
0002e0 a0 dd b1 3d 31 0d c7 3d 04 be 1d 3e f1 ae 5b bd
       0.0868485 0.09719313 0.15404516 -0.053633634
0002f0 7c d2 b0 3d 2d aa fc 3d a3 67 e7 3d 48 aa 36 bd
       0.08633897 0.12337146 0.11299064 -0.044595987
000300 54 e9 99 3b 8a 2d 23 bd 36 f3 0d 3e dc cd 8b 3e
       0.0046970043 -0.03983835 0.13862309 0.27305496
000310 95 3e 67 3d 82 c6 e4 bd aa 0b f4 3d b6 26 89 3d
       0.056456167 -0.11170675 0.11916287 0.06696837
000320 0b 56 96 3c 62 ed d2 3d b7 ed 7b bc b0 3b 8e 3d
       0.018351575 0.102991834 -0.0153765 0.06944978
000330 12 ed fb 3d 70 92 47 bd 85 63 35 3e f1 46 33 3d
       0.12301077 -0.048723638 0.17713745 0.043768827
000340 d0 94 4d 3e 00 bd 8f 3d 02 1f e4 3d 3e 95 91 3d
       0.20076299 0.07018471 0.11138727 0.07108544
000350 cc 46 8f 3d 51 a0 14 3e 37 df 2a 3e b5 e0 db 3d
       0.06995925 0.14514281 0.16686712 0.10736219
000360 d8 8a 10 3e b3 92 51 be ca b5 8a 3d 76 fe f1 bd
       0.14115465 -0.20466118 0.06772955 -0.11816113
000370 ce 55 6c 3e 35 67 8d 3d 58 de 55 3d cf 99 cd bd
       0.23079607 0.06904451 0.052213997 -0.10039102
000380 e4 cb e8 3d 87 94 24 3e 5c c7 44 3e d5 c6 10 3e
       0.11367014 0.16072284 0.19216675 0.14138348
000390 07 cd 05 3e ce b9 17 3d b9 8b 39 bd b0 32 e9 3d
       0.13066493 0.03704243 -0.045299266 0.11386621
0003a0 78 90 31 3d e2 dd a8 3d 40 e0 a2 3c b8 5f 08 3e
       0.043350667 0.08245446 0.019882321 0.13317764
0003b0 0b a2 32 bd 46 08 bd bd 3d 4e 06 bd f2 59 ae 3d
       -0.043611567 -0.09230094 -0.032789458 0.085132495
0003c0 cb d3 18 3e 9e 57 f4 bd eb 96 03 3d e7 6c 8b bd
       0.14924543 -0.11930774 0.03212635 -0.06807881
0003d0 16 f4 18 3e 64 70 d1 3d 76 db 59 bd b1 c7 c5 bd
       0.14936861 0.10226515 -0.05318781 -0.09657229
0003e0 63 45 af 3d 39 87 08 3e b1 60 96 bc b1 6c 27 3e
       0.08558156 0.13332833 -0.018356653 0.16350056
0003f0 ff 5b 95 3d ad e7 ff 3d 4b eb 3b 3e 4d 40 33 bd
       0.072929375 0.124953605 0.18351476 -0.043762494

head.4.bias f4 [11]
000000 61 24 1b 3e 8b 0e 8b bc 0c 50 77 3d 70 e9 ae 3d
       0.15150596 -0.016974708 0.060379073 0.085406184
000010 07 29 f5 bd 2d cb 81 bd 1e b2 4b bd 46 15 97 bc
       -0.11970716 -0.06337581 -0.049730413 -0.018442761
000020 64 29 20 3d d2 46 88 bd b4 6c cc bd
       0.039101973 -0.06654133 -0.09981671
