script/logs/dome_partial3/model/best/policy.pth (torch, 37886 bytes, 6 tensors)

head.0.weight f4 [64, 36]
0.009766602 0.14977702 -0.10004336 -0.12591003 -0.0641924 0.043664716 0.009326644 0.14663751
-0.014790675 0.02261396 -0.06886713 -0.0327609 -0.15922475 -0.11190444 -0.10196278 0.009814543
0.063307166 0.09098026 -0.118120596 -0.09388104 0.08667133 0.12140441 -0.03430003 0.11871252
-0.037787504 0.0069461386 0.11489231 -0.15461174 -0.13476871 -0.05402725 -0.06496666 0.22327785
-0.09971425 -0.076722145 -0.12165573 -0.15609351 -0.13972418 0.18213849 0.08839204 0.06769487
0.01146637 -0.10745608 0.031550623 -0.14592552 -0.11617747 -0.11416928 0.09249607 0.097720206
-0.07391584 -0.018219594 0.106092006 0.15783998 0.06926307 0.014305116 0.10349428 -0.13093999
0.025478985 -0.12795295 -0.11551436 -0.08609726 0.096638925 0.052692864 -0.08714579 0.05050656
0.045706253 -0.013372631 0.0063635907 0.052150868 0.11220931 0.16003236 -0.14619763 -0.06107829
0.04414918 0.13728422 0.112202786 0.12770624 0.035754453 -0.14470395 0.028382141 -0.08777377
-0.13347745 0.13308243 0.101251125 -0.16625467 0.031195343 -0.038284354 -0.040712066 -0.08571034
0.085927 -0.11573031 0.05869563 0.038033687 0.10413582 0.042556774 -0.16495588 -0.1079761
0.0891351 0.010956402 -0.14334 -0.06526056 0.13489737 0.1195754 -0.07267086 -0.02330413
-0.15460333 -0.0029956899 -0.09808542 -0.12855946 -0.02262973 0.018490573 -0.119777456 0.08341452
-0.10142319 0.17461014 0.12251044 -0.14314313 -0.029630939 -0.03891117 0.013807274 0.039529048
0.06540471 -0.0041435244 -0.11041519 0.0655423 -0.15987483 -0.08515217 -0.041721642 -0.11247038
-0.07361051 -0.1403018 -0.035452526 0.033662423 -0.12491371 -0.016494649 0.101211414 0.0021553899
0.0013999781 0.005096858 0.03373023 0.14824086 0.1607039 0.10584265 0.20921232 -0.012053609
-0.15482615 -0.05722554 0.05413935 -0.0010804137 -0.08284106 -0.12592874 -0.15597534 -0.14676976
-0.033806127 0.017395636 0.06722955 -0.16073865 0.10396367 -0.13041824 -0.050727397 -0.06757878
-0.032102548 -0.059549138 -0.14955834 -0.18610029 -0.04221119 -0.01567888 -0.07571249 0.05807146
-0.16809441 -0.02643965 0.13162334 -0.067982 0.10570876 0.050867908 -0.15041016 0.124448024
-0.025761459 -0.07440114 0.14342918 -0.13468254 0.001094122 -0.032495573 0.07947682 0.02414938
0.07781278 0.042319614 -0.027870797 -0.024438677 -0.13551255 0.056608636 0.103388846 0.11403748
-0.117563054 -0.0055584754 -0.15629487 -0.09385844 -0.10234948 0.02995114 -0.10334327 -0.053751413
-0.00069134193 0.08563293 -0.12598668 -0.11765045 -0.10315128 0.086822666 -0.068706125 0.1403874
0.027168443 0.01766357 -0.0012406707 -0.018854683 0.01891561 -0.038057446 0.026480604 0.021265507
-0.15203471 -0.07424446 0.115570866 -0.12718906 -0.011967699 0.1517737 0.07172538 0.018970523
-0.14443499 0.07034324 -0.13362515 -0.04731071 -0.05591939 -0.027234044 -0.0076172403 0.12714264
0.040460747 0.13106796 0.09846526 -0.18222898 0.08245665 -0.11696384 -0.070637524 0.04476755
0.06753783 0.10421464 -0.06310049 0.017426662 0.06573666 -0.15546912 0.12049677 -0.16686198
0.0017831993 -0.028336128 -0.041705962 0.022028506 0.107001506 -0.057365544 -0.13516897 -0.074169606
00000000: 1904 203c 265f 193e 88e3 ccbd 8fee 00be
00000010: 4e77 83bd c6d9 323d c8ce 183c 2528 163e
00000020: 9654 72bc e940 b93c 360a 8dbd 4b30 06bd
00000030: d00b 23be 282e e5bd ddd1 d0bd 2dcd 203c
00000040: 30a7 813d dc53 ba3d 36e9 f1bd b444 c0bd
00000050: bd80 b13d e0a2 f83d 307e 0cbd 8d1f f33d
00000060: 12c7 1abd 6f9c e33b a94c eb3d 8a52 1ebe
00000070: cf00 0abe ad4b 5dbd 3e0d 85bd f3a2 643e
00000080: fc36 ccbd 8020 9dbd a426 f9bd fad6 1fbe
00000090: db13 0fbe 8382 3a3e e306 b53d 9ca3 8a3d
000000a0: 71dd 3b3c ef11 dcbd 3a3b 013d 806d 15be
000000b0: 74ee edbd 95d1 e9bd 946e bd3d 8821 c83d
000000c0: 3061 97bd 4241 95bc c446 d93d cea0 213e
000000d0: ccd9 8d3d 0160 6a3c cff4 d33d 2215 06be
000000e0: 4eb9 d03c 1906 03be cb92 ecbd c353 b0bd
000000f0: a1ea c53d 79d4 573d 7e79 b2bd f7df 4e3d
00000100: 7b36 3b3d e118 5bbc ab85 d03b 269c 553d
00000110: ffcd e53d 86df 233e d5b4 15be 3b2d 7abd
00000120: c5d5 343d 3c94 0c3e 93ca e53d 6dc5 023e
00000130: 4373 123d 462d 14be aa81 e83c bcc2 b3bd
00000140: 50ae 08be c346 083e c05c cf3d aa3e 2abe
00000150: 608d ff3c 0ed0 1cbd b2c1 26bd e788 afbd
00000160: 7ffa af3d 0304 edbd d46a 703d 36c9 1b3d
00000170: 2945 d53d 0350 2e3d 32ea 28be 9322 ddbd
00000180: 778c b63d 7b82 333c b9c7 12be 54a7 85bd
00000190: 8922 0a3e f3e3 f43d 76d4 94bd 4ee8 bebc
000001a0: 5650 1ebe 5653 44bb 02e1 c8bd 17a5 03be
000001b0: fc61 b9bc 8b79 973c e24d f5bd 3bd5 aa3d
000001c0: f6b6 cfbd 00cd 323e c1e6 fa3d 1d94 12be
000001d0: 95bc f2bc 5261 1fbd e837 623c 36e9 213d
000001e0: e8f2 853d 67c6 87bb 5c21 e2bd 0b3b 863d
000001f0: 3ab6 23be 4364 aebd 50e4 2abd df56 e6bd
00000200: 1bc1 96bd 46ab 0fbe ab36 11bd 9ce1 093d
00000210: c2d2 ffbd c91f 87bc ee47 cf3d 7141 0d3b
00000220: 787f b73a 8b03 a73b b628 0a3d 74cc 173e
00000230: 908f 243e 08c4 d83d c13b 563e 807c 45bc
00000240: bf8a 1ebe 5465 6abd 39c1 5d3d ab9c 8dba
00000250: 93a8 a9bd 77f3 00be 00b8 1fbe d04a 16be
00000260: 4b78 0abd 4b81 8e3c a5af 893d ac98 24be
00000270: e8ea d43d 5c8c 05be 88c7 4fbd be66 8abd
00000280: f67d 03bd cce9 73bd d225 19be 1391 3ebe
00000290: a4e5 2cbd ff70 80bc 260f 9bbd 57dc 6d3d
000002a0: f120 2cbe f797 d8bc 45c8 063e 263a 8bbd
000002b0: d67d d83d de5a 503d 1f05 1abe 9bde fe3d
000002c0: b209 d3bc a05f 98bd 19df 123e 38ea 09be
000002d0: a468 8f3a 141a 05bd bec4 a23d ecd4 c53c
000002e0: 4f5c 9f3d 5557 2d3d 4c51 e4bc 9f33 c8bc
000002f0: cdc3 0abe 75de 673d 88bd d33d 7b8c e93d
00000300: e6c4 f0bd df23 b6bb c30b 20be db38 c0bd
00000310: 9b9c d1bd 185c f53c a3a5 d3bd 712a 5cbd
00000320: 2c3b 35ba 5160 af3d a702 01be b8f2 f0bd
00000330: fa40 d3bd 15d0 b13d ccb5 8cbd b7c1 0f3e
00000340: 5b90 de3c 31b3 903c 009e a2ba 2375 9abc
00000350: e9f4 9a3c 20e2 1bbd daed d83c 0035 ae3c
00000360: fdae 1bbe 7b0d 98bd 6bb0 ec3d d93d 02be
00000370: 2b14 44bc 916a 1b3e c2e4 923d 1268 9b3c
00000380: c4e6 13be 1e10 903d 08d5 08be e0c8 41bd
00000390: bb0b 65bd ee19 dfbc 0b9a f9bb ae31 023e
000003a0: 2bba 253d ae36 063e 27a8 c93d 3c9a 3abe
000003b0: 08df a83d bd8a efbd 68aa 90bd 2e5e 373d
000003c0: 4651 8a3d 7c6e d53d d43a 81bd 5cc2 8e3c
000003d0: f1a0 863d 4c33 1fbe 03c7 f63d dedd 2abe
000003e0: 3dba e93a 2b21 e8bc dfd3 2abd 2075 b43c
000003f0: 9b23 db3d 22f8 6abd bc69 0abe 3ce6 97bd

head.0.bias f4 [64]
-0.061478756 -0.07386907 0.19859232 -0.011829809 0.22844131 0.15057056 0.13964324 0.22007798
-0.1636677 0.21819559 0.16300814 0.008760065 0.14094697 0.061154395 0.08215944 0.09367471
-0.06835513 0.23932643 0.23611605 0.092780456 -0.02390077 0.09726231 0.108752385 0.21650186
0.098304324 0.1337799 0.14336988 0.012090774 -0.12049545 -0.07806608 0.092668824 0.15144762
0.09624131 0.24353626 0.08811031 -0.017381188 0.12560964 0.0577512 0.098715454 0.26156092
0.10719154 0.24296665 0.11589073 0.014333116 0.20731628 -0.051641945 0.08613705 0.13811739
0.18474784 -0.09627961 0.110463366 -0.0095394105 0.18281262 0.16155484 0.16834606 0.121893145
0.07510537 0.10141511 0.24413587 -0.04578238 -0.015303239 0.11015495 0.045706235 0.12034528
00000000: 26d1 7bbd ab48 97bd c95b 4b3e d1d1 41bc
00000010: 85ec 693e 2b2f 1a3e a3fe 0e3e 1f5c 613e
00000020: 8198 27be aa6e 5f3e 9beb 263e 6086 0f3c
00000030: 6754 103e 087d 7a3d 3543 a83d 87d8 bf3d
00000040: c6fd 8bbd fd11 753e 68c8 713e ae03 be3d
00000050: 8ccb c3bc 7631 c73d 92b9 de3d aab2 5d3e
00000060: c753 c93d 99fd 083e 8ecf 123e 6218 463c
00000070: 52c6 f6bd 1ce1 9fbd 27c9 bd3d 1615 1b3e
00000080: 2a1a c53d 9261 793e 2e73 b43d fe62 8ebc
00000090: d09f 003e 868c 6c3d 542b ca3d 50eb 853e
000000a0: 3d87 db3d 40cc 783e 1e58 ed3d 72d5 6a3c
000000b0: b84a 543e 8186 53bd 9f68 b03d a56e 0d3e
000000c0: 8a2e 3d3e 3f2e c5bd 9e3a e23d 304b 1cbc
000000d0: 3b33 3b3e a26e 253e e962 2c3e 1da3 f93d
000000e0: d8d0 993d bab2 cf3d c1fe 793e 4e86 3bbd
000000f0: 70ba 7abc eb98 e13d 7636 3b3d 9677 f63d

head.2.weight f4 [64, 64]
0.10966766 -0.014490455 -0.10890609 -0.058893353 0.1117958 -0.030669473 -0.057267595 0.054267403
0.015474528 -0.11164331 0.10177354 0.0703906 0.105425276 0.051690403 -0.04214424 -0.042350303
0.060577765 -0.026560845 0.02200094 -0.12281839 -0.061790287 0.04304633 -0.008756409 -0.06318312
-0.112215385 0.07600426 -0.028478699 -0.124104045 0.12059805 0.05915367 -0.0752106 -0.09451624
0.11933599 -0.0020674677 -0.077042885 0.07064548 -0.027274685 0.005404523 -0.06639502 -0.10735743
-0.08427877 -0.016671726 -0.09274673 0.12191124 -9.820472e-05 -0.05193689 0.04638056 -0.11395897
-0.06537575 0.04695013 -0.10824568 0.05895243 0.007884379 -0.10570983 -0.12621903 0.036423832
0.05761793 -0.026280455 -0.11286403 -0.0720433 0.013285428 0.0017417566 0.028929953 0.020633984
-0.032986153 0.036253076 0.10239313 0.07916818 0.097282715 -0.057925276 -0.056996584 -0.026707087
0.03694485 0.035368577 -0.020633923 -0.095174536 -0.10711216 0.09323546 -0.039306086 -0.043275777
-0.07708713 -0.07636459 0.012936529 0.024286084 -0.05885885 -0.061111253 0.07403834 -0.07816452
-0.11768115 -0.041141517 0.10640237 0.012681827 -0.00053952617 -0.046773963 0.06798686 -0.07682481
0.071110725 0.016856583 -0.012688715 -0.0055602114 -0.08846495 0.05986808 0.04158429 -0.11128675
-0.13429384 -0.048094895 0.063595235 -0.077451885 0.10462497 -0.09161107 -0.13546002 0.03452073
-0.08795267 -0.04541825 -0.053568028 -0.031684253 -0.12319128 -0.12918572 0.03929301 -0.027801605
-0.102923036 -0.022559969 -0.12562722 0.012320489 0.021365616 0.106003955 -0.104159616 -0.028350273
0.067836866 0.114557594 -0.088934004 0.053120285 0.05160801 0.07535885 -0.08617702 0.08920206
-0.05444546 -0.07694359 0.024819642 0.105892524 -0.082777694 0.0667385 -0.0143157095 0.03990467
0.0975088 0.033940032 -0.103769556 -0.037634492 0.024809644 -0.1054488 0.020781219 -0.06712112
-0.02484715 0.044717625 -0.10060246 -0.0802518 0.057013035 -0.12363008 0.08602354 -0.0963849
-0.0020127296 0.02566047 0.04932405 -0.07758346 0.016821608 0.05382341 0.10721369 -0.094068676
-0.0621465 0.036414534 -0.004012838 -0.08435339 -0.10520634 -0.110991165 -0.08746852 -0.053221077
-0.086799935 -0.10965589 0.00975737 0.07330704 -0.058935866 0.01249972 -0.0015409589 0.058429167
-0.086688355 0.0059345663 0.11667438 0.08923982 -0.123889595 -0.01881744 0.0011652112 -0.041274518
-0.032130823 -0.11965014 0.13395108 0.025212893 0.083741404 0.12648752 0.0113673955 0.10134045
0.0755026 0.005288242 0.13245861 -0.013241798 0.15706474 0.13227303 -0.004482772 0.078274876
-0.124227315 0.12164598 0.1560769 0.0030240922 -0.22505206 0.19802862 0.031427395 0.10949697
0.009596005 0.10392326 0.21484286 0.07496575 -0.021850593 0.02993655 0.16811118 0.111549735
-0.010919278 0.025924075 -0.0432556 0.04449708 0.21411127 0.04650875 0.14348136 0.11936919
0.22043325 0.0021843843 0.06099743 -0.056990292 0.08282822 -0.03897623 0.106365636 -0.04749363
0.07515204 -0.1448515 0.006125572 -0.005002768 -0.043277852 0.12343722 -0.019112878 -0.009000395
0.06545986 -0.006927589 0.19277522 0.077897154 -0.1366863 0.10832841 0.055619776 0.12972297
00000000: 7099 e03d 6069 6dbc 280a dfbd 283a 71bd
00000010: 32f5 e43d 8c3e fbbc 6d91 6abd 7f47 5e3d
00000020: e088 7d3c 3fa5 e4bd a56e d03d f228 903d
00000030: 35e9 d73d 51b9 533d 709f 2cbd 8377 2dbd
00000040: 6420 783d 2196 d9bc 513b b43c 3588 fbbd
00000050: d017 7dbd 5951 303d 0b77 0fbc 2766 81bd
00000060: 2ed1 e5bd 1fa8 9b3d 294c e9bc 432a febd
00000070: 1cfc f63d 1e4b 723d 0408 9abd bb91 c1bd
00000080: 6d66 f43d 5a7e 07bb a9c8 9dbd 94ae 903d
00000090: 296f dfbc 6d18 b13b 1dfa 87bd 36de dbbd
000000a0: 599a acbd 2593 88bc fff1 bdbd 9aac f93d
000000b0: 42f3 cdb8 c7bb 54bd 8bf9 3d3d 5263 e9bd
000000c0: b9e3 85bd c84e 403d e9af ddbd 1a78 713d
000000d0: 7b2d 013c 657e d8bd 903f 01be 2831 153d
000000e0: c700 6c3d 1c4a d7bc 4225 e7bd 708b 93bd
000000f0: 20ab 593c a74b e43a 82fe ec3c 9a08 a93c
00000100: 7d1c 07bd 1b7e 143d 7db3 d13d ed22 a23d
00000110: 293c c73d 0e43 6dbd 4075 69bd d2c8 dabc
00000120: 7c53 173d a4de 103d 7908 a9bc deea c2bd
00000130: 9f5d dbbd 3cf2 be3d 6bff 20bd f141 31bd
00000140: dbdf 9dbd 0a65 9cbd bcf3 533c 9cf3 c63c
00000150: fa15 71bd cb4f 7abd 6aa1 973d b814 a0bd
00000160: d102 f1bd 0284 28bd 7ce9 d93d 70c7 4f3c
00000170: fd6e 0dba 0e96 3fbd b23c 8b3d 5356 9dbd
00000180: 80a2 913d d116 8a3c 54e4 4fbc 6f32 b6bb
00000190: 1d2d b5bd 3b38 753d 4a54 2a3d 4fea e3bd
000001a0: 5384 09be 27ff 44bd 383e 823d 189f 9ebd
000001b0: 9e45 d63d 969e bbbd 08b6 0abe 9c65 0d3d
000001c0: 8820 b4bd 7d08 3abd 266a 5bbd 59c7 01bd
000001d0: b64b fcbd 4349 04be b5f1 203d 31c0 e3bc
000001e0: 50c9 d2bd afcf b8bc 6ca4 00be e0db 493c
000001f0: f206 af3c 9a18 d93d a351 d5bd d53e e8bc
00000200: 0eee 8a3d 2c9d ea3d 0823 b6bd a894 593d
00000210: ec62 533d be55 9a3d 947d b0bd 92af b63d
00000220: 3402 5fbd 9a94 9dbd 9052 cb3c 2ede d83d
00000230: 5a87 a9bd 32ae 883d 708c 6abc 1473 233d
00000240: b2b2 c73d b404 0b3d 2285 d4bd a026 1abd
00000250: 983d cb3c 8af5 d7bd 603d aa3c cc76 89bd
00000260: 408c cbbc d429 373d aa08 cebd 0e5b a4bd
00000270: 8086 693d c431 fdbd 1c2d b03d 7265 c5bd
00000280: 00e8 03bb e835 d23c 0408 4a3d 14e4 9ebd
00000290: 78cd 893c f075 5c3d da92 db3d 14a7 c0bd
000002a0: 548d 7ebd 6827 153d 207e 83bb 78c1 acbd
000002b0: 6c76 d7bd 564f e3bd b222 b3bd 58fe 59bd
000002c0: 2ac4 b1bd 4493 e0bd 60dd 1f3c 0022 963d
000002d0: bc66 71bd a0cb 4c3c 00fa c9ba 6c53 6f3d
000002e0: aa89 b1bd c076 c23b faf2 ee3d 5ec3 b63d
000002f0: d4b9 fdbd 0827 9abc 00ba 983a 780f 29bd
00000300: 9c9b 03bd 220b f5bd 792a 093e 458b ce3c
00000310: 9d80 ab3d f285 013e 503e 3a3c 958b cf3d
00000320: 1ba1 9a3d fd48 ad3b 3ba3 073e 20f4 58bc
00000330: 94d5 203e 9572 073e 38e4 92bb 944e a03d
00000340: e46a febd 8721 f93d 9fd2 1f3e d92f 463b
00000350: 0c74 66be 04c8 4a3e 03ba 003d f33f e03d
00000360: 9038 1d3c b8d5 d43d c4ff 5b3e a587 993d
00000370: 0400 b3bc 7f3d f53c 5625 2c3e 3074 e43d
00000380: c5e6 32bc ba5e d43c c92c 31bd 9242 363d
00000390: fc3f 5b3e f67f 3e3d c7ec 123e d577 f43d
000003a0: 41b9 613e e327 0f3b 71d8 793d a76e 69bd
000003b0: d8a1 a93d 8aa5 1fbd 3ad6 d93d ae88 42bd
000003c0: 50e9 993d f453 14be 06b9 c83b 42ee a3bb
000003d0: 1e44 31bd a7cc fc3d 9c92 9cbc 6576 13bc
000003e0: d20f 863d d400 e3bb de66 453e 8b88 9f3d
000003f0: 7ef7 0bbe 49db dd3d 90d1 633d 19d6 043e

head.2.bias f4 [64]
0.013539077 0.040433 -0.072065786 0.022814197 -0.029642532 0.16690043 0.03942662 0.14037211
0.05988037 -0.013043322 0.13870998 0.071095854 -0.086076334 0.10549227 0.033636823 -0.00085960823
0.009162758 0.054003753 0.007643223 -0.0009866825 0.12917139 0.026440619 -0.069096304 0.011664194
0.04554549 0.05717592 0.16882059 0.16954818 -0.122348875 0.19063511 0.12292243 -0.090139404
-0.08571104 -0.10355539 -0.037042588 0.07321191 0.022506714 0.0055967364 0.08966967 -0.097585574
0.16680583 0.16408046 0.10943704 0.1042592 -0.044403642 -0.008211361 -0.0010166663 0.18867853
-0.051745534 0.15904546 0.19004746 0.028808123 -0.004455579 0.12236291 -0.017945783 -0.08159287
0.004520478 0.1438254 0.009667372 -0.049757004 0.042323675 0.16786928 0.11945649 0.13519198
00000000: 01d3 5d3c 139d 253d 3a97 93bd d7e4 ba3c
00000010: e5d4 f2bc f2e7 2a3e cf7d 213d b5bd 0f3e
00000020: 1e45 753d a8b3 55bc fd09 0e3e b49a 913d
00000030: ca48 b0bd 550c d83d c4c6 093d 5557 61ba
00000040: 641f 163c 0a33 5d3d 0074 fa3b 9253 81ba
00000050: 8145 043e ff99 d83c 5d82 8dbd 2d1b 3f3c
00000060: e88d 3a3d 4c31 6a3d 4edf 2c3e 0a9e 2d3e
00000070: 0c92 fabd da35 433e c1be fb3d 029b b8bd
00000080: 4589 afbd d914 d4bd f8b9 17bd 20f0 953d
00000090: 0060 b83c d464 b73b bba4 b73d f2da c7bd
000000a0: 26cf 2a3e b504 283e 8720 e03d d985 d53d
000000b0: 98e0 35bd f288 06bc a941 85ba f234 413e
000000c0: 20f3 53bd d0dc 223e cd9b 423e 03ff eb3c
000000d0: 1b00 92bb 6899 fa3d 0903 93bc 2a1a a7bd
000000e0: 8520 943b f746 133e e663 1e3c 00ce 4bbd
000000f0: 975b 2d3d ede5 2b3e 9ba5 f43d c46f 0a3e

head.4.weight f4 [36, 64]
-0.017791988 -0.059485786 0.045051217 0.15233938 0.19390461 -0.01852715 -0.09177245 0.17606945
0.12457562 0.09969966 0.06292652 0.2214312 0.04927536 0.050555322 0.027145464 0.11964855
0.09337339 -0.056358155 -0.060043108 0.057717267 0.14996497 0.20698059 -0.06540395 -0.045310643
0.016396841 0.011001723 0.20926265 0.025868373 -0.05880083 0.17638104 0.17251502 -0.11439906
-0.08400516 -0.027289275 0.026372753 0.022013538 -0.08408822 -0.06737813 0.1361116 -0.05819571
-0.028184002 0.20782697 0.14832997 0.051405735 0.016318189 -0.018513393 0.01452359 -0.024973653
0.060288563 -0.023777273 -0.0058936295 0.19460154 0.030741828 0.056021523 0.082276545 -0.20089042
-0.016853215 -0.017170921 0.072196715 -0.045239404 0.1179035 0.17380048 0.21094109 -0.014106564
-0.05892307 0.081948586 0.0433331 -0.0013625878 0.17798615 0.008814976 0.17245245 -0.054647364
0.13350518 0.018425757 -0.04026911 0.13995756 -0.051311776 0.07738076 0.04264543 0.063423544
0.037219435 0.09284196 -0.0078672655 0.085733935 0.11212309 0.049582794 0.035592865 -0.040258035
-0.022272428 -0.009111563 -0.026137345 -0.040540926 0.020000309 0.047810398 -0.06297046 0.06486106
0.090790644 0.13391286 -0.0012053233 0.062657565 0.06702492 -0.106253706 0.09926961 0.08179659
0.14712246 0.09190014 0.04661787 0.10961429 -0.0064069373 -0.0011077019 0.17198029 0.16508888
-0.022871034 0.17975534 0.027206281 0.10907539 0.17132947 0.010036187 0.14254619 -0.005229618
0.0012785861 0.04317208 0.18734181 0.072032906 -0.02394374 0.17391855 0.08883929 0.16226238
0.11508923 -0.042526647 0.099794984 0.050531104 0.11176276 0.069516025 0.097153045 0.027507035
-0.05039647 0.02530179 0.17432639 0.12879089 -0.10574998 0.0934861 0.06691719 0.1324248
-0.046985976 -0.017594833 -0.09259145 -0.05785774 0.13445476 0.16101882 0.012674364 0.10305322
0.061226808 0.008020492 0.11062487 0.06125053 -0.09862316 0.13567013 0.15339541 0.06844655
0.10087476 -0.053072467 0.10671772 0.0024140067 0.012829737 -0.121527255 0.15493588 0.025095582
0.16809933 0.12580095 -0.06989544 0.16335495 -0.14605881 -0.06571026 0.14364406 -0.013630888
0.10326225 0.071902916 0.06062214 0.015473373 0.19812028 0.085086815 0.13351889 0.0019604224
0.009963283 0.001518631 0.16200519 -0.10912039 0.046807688 -0.05498427 -0.011889742 0.06950262
-0.025740823 0.034724355 0.09524681 -0.0732481 0.033693753 -0.08044659 0.07721568 -0.055280827
-0.0891608 0.094194554 -0.1809542 0.01699742 0.114774175 -0.19957721 -0.13161975 0.024789853
-0.06056051 -0.029053528 -0.061310384 0.023082035 -0.10267633 0.028972646 -0.009975238 0.0014229122
-0.052024767 -0.1405563 -0.078489244 -0.09778218 0.09537397 0.018973265 -0.04869556 -0.06405726
-0.1319011 0.06858524 0.10922047 0.012090294 0.02955388 -0.1330823 -0.04885883 -0.023231938
0.0030318825 -0.006190882 0.02425208 -0.07120519 0.09459461 -0.015764853 0.0016835209 0.017844306
0.10013115 -0.09065659 -0.1148413 0.028456392 -0.18615322 -0.06364804 -0.029039728 0.15133305
-0.16721343 -0.0965363 -0.056512024 -0.010275784 -0.11976181 -0.025434306 -0.17172322 -0.10917743
00000000: 81c0 91bc 5ea7 73bd a087 383d dbfe 1b3e
00000010: ee8e 463e 40c6 97bc 32f3 bbbd 8d4b 343e
00000020: 8121 ff3d 562f cc3d 9fdf 803d dcbe 623e
00000030: f6d4 493d 1913 4f3d 2a60 de3c 4d0a f53d
00000040: 8c3a bf3d cfd7 66bd c3ef 75bd f168 6c3d
00000050: 6b90 193e b8f2 533e 82f2 85bd a797 39bd
00000060: ab52 863c 9240 343c f348 563e e9e9 d33c
00000070: 24d9 70bd 3b9d 343e c7a7 303e 0e4a eabd
00000080: e60a acbd c28d dfbc ac0b d83c bc55 b43c
00000090: 7236 acbd 8cfd 89bd d760 0b3e a05e 6ebd
000000a0: 23e2 e6bc 98d0 543e d0e3 173e d28e 523d
000000b0: b9ad 853c 66a9 97bc 5af4 6d3c 8c95 ccbc
000000c0: 24f1 763d 8ec8 c2bc 591f c1bb a045 473e
000000d0: 49d6 fb3c d376 653d 9b80 a83d 38b6 4dbe
000000e0: c10f 8abc 08aa 8cbc dfdb 933d f44c 39bd
000000f0: 6477 f13d c1f8 313e f100 583e 381f 67bc
00000100: 5159 71bd a9d4 a73d 0c7e 313d dc98 b2ba
00000110: 0042 363e b06c 103c 6097 303e ead5 5fbd
00000120: 95b5 083e 9df1 963c 39f1 24bd 0951 0f3e
00000130: 4c2c 52bd ce79 9e3d f9ac 2e3d 34e4 813d
00000140: 6873 183d ed23 be3d b4e5 00bc 4695 af3d
00000150: caa0 e53d 5417 4b3d d3c9 113d 9ce5 24bd
00000160: ab74 b6bc aa48 15bc fc1d d6bc 3e0e 26bd
00000170: b0d7 a33c d6d4 433d a8f6 80bd e0d5 843d
00000180: 72f0 b93d 7420 093e f0fb 9dba 9c52 803d
00000190: 5c44 893d 8b9b d9bd de4d cb3d f884 a73d
000001a0: 45a7 163e 2436 bc3d 61f2 3e3d 757d e03d
000001b0: 49f1 d1bb 4f30 91ba 9a1b 303e 0f0d 293e
000001c0: 095c bbbc c911 383e b5df de3c eb62 df3d
000001d0: fe70 2f3e d26e 243c a1f7 113e 375d abbb
000001e0: 3b96 a73a 35d5 303d 88d6 3f3e fd85 933d
000001f0: aa25 c4bc b417 323e 60f1 b53d 1c28 263e
00000200: e7b3 eb3d 6c30 2ebd 5061 cc3d b4f9 4e3d
00000210: e0e3 e43d 6b5e 8e3d 2df8 c63d 6f56 e13c
00000220: 876c 4ebd b345 cf3c 9e82 323e c2e1 033e
00000230: 7293 d8bd a475 bf3d e10b 893d 5e9a 073e
00000240: 5e74 40bd 0a23 90bc 96a0 bdbd 3dfc 6cbd
00000250: 82ae 093e 1ee2 243e 23a8 4f3c 910d d33d
00000260: f6c8 7a3d 6268 033c 4b8f e23d d6e1 7a3d
00000270: f0fa c9bd 1ced 0a3e b013 1d3e b42d 8c3d
00000280: 6d97 ce3d 8462 59bd d28e da3d 5034 1e3b
00000290: d133 523c 48e3 f8bd 83a7 1e3e 4095 cd3c
000002a0: 3b22 2c3e f7d1 003e 5725 8fbd 8546 273e
000002b0: 7190 15be 1a93 86bd 6e17 133e 1754 5fbc
000002c0: 297b d33d d641 933d ec4e 783d 0884 7d3c
000002d0: 0be0 4a3e ff41 ae3d 2db9 083e 6e7a 003b
000002e0: 0a3d 233c cd0c c73a b0e4 253e 837a dfbd
000002f0: 6bb9 3f3d 3037 61bd 31cd 42bc 6457 8e3d
00000300: 6bde d2bc 203b 0e3d c210 c33d 1a03 96bd
00000310: 7602 0a3d 2fc1 a4bd 4123 9e3d 266e 62bd
00000320: f099 b6bd 13e9 c03d 0f4c 39be 2c3e 8b3c
00000330: b90e eb3d f85d 4cbe 54c7 06be 1714 cb3c
00000340: 4c0e 78bd aa01 eebc 9920 7bbd 8916 bd3c
00000350: f847 d2bd 0b58 ed3c 2e6f 23bc 0381 ba3a
00000360: ec17 55bd feed 0fbe f8be a0bd 0642 c8bd
00000370: 6e53 c33d d26d 9b3c ff74 47bd 7430 83bd
00000380: 1511 07be 6b76 8c3d fbae df3d 5e16 463c
00000390: fb1a f23c ba46 08be 3220 48bd e850 bebc
000003a0: 8cb2 463b e2dc cabb 4cac c63c 07d4 91bd
000003b0: d2ba c13d 4b25 81bc 96a9 dc3a 392e 923c
000003c0: 8f11 cd3d 2aaa b9bd ea31 ebbd 611d e93c
000003d0: f39e 3ebe e759 82bd b9e4 edbc 0df7 1a3e
000003e0: ff39 2bbe d3b4 c5bd 2779 67bd c35b 28bc
000003f0: ae45 f5bd 9b5b d0bc 36d8 2fbe 6b98 dfbd

head.4.bias f4 [36]
0.09633567 0.14450717 0.11004989 -0.11769377 -0.11022556 0.091046646 -0.10800866 -0.057793137
-0.0012345792 0.009199375 0.015572198 -0.060729682 0.06676334 -0.15633163 0.15091403 0.05324135
-0.13779384 0.009486938 -0.063240804 0.112205125 0.12727386 -0.095258676 -0.123023845 -0.117240995
0.15914902 -0.13023868 -0.09135498 0.0731431 0.1010564 0.0545012 0.069262035 -0.06263173
-0.07626746 -0.06292974 0.15969129 -0.07843491
00000000: a34b c53d b0f9 133e d661 e13d 6e09 f1bd
00000010: f0bd e1bd aa76 ba3d a533 ddbd 7fb8 6cbd
00000020: 9bd1 a1ba fab8 163c 8822 7f3c b0bf 78bd
00000030: 38bb 883d 6615 20be 3589 1a3e 9a13 5a3d
00000040: d419 0dbe 1a6f 1b3c 6584 81bd cdcb e53d
00000050: 1454 023e fb16 c3bd edf3 fbbd 0c1c f0bd
00000060: f6f7 223e 4a5d 05be 5218 bbbd 0dcc 953d
00000070: a8f6 ce3d a63c 5f3d 41d9 8d3d 1145 80bd
00000080: 1d32 9cbd 4fe1 80bd 1d86 233e 7ba2 a0bd
