script/logs/dome_partial3/model/best/target_critic.pth (torch, 75666 bytes, 12 tensors)

Q1.head.0.weight f4 [64, 36]
0.046171527 0.12079016 0.12240779 -0.081425995 -0.14199263 -0.009403205 0.06601194 0.17114234
0.08951698 0.1399354 0.07038849 -0.04236319 -0.027505577 0.15529867 0.07408065 0.048118394
0.09120083 0.1624423 0.051309034 0.033730686 -0.018876618 -0.05751854 -0.08331724 0.123080656
0.15383056 -0.08870786 0.17730786 -0.0388982 0.022946846 0.08508746 -0.13547647 -0.0519695
-0.0052205473 -0.052380227 0.12856542 -0.039416395 -0.11855934 -0.14623046 0.1756652 0.046104807
-0.16590092 -0.109137215 -0.10919124 0.104645014 0.087987244 0.08883823 0.089376755 0.0282318
0.11883416 -0.13019496 0.15698287 0.055466887 0.07077178 0.06810466 -0.02933481 -0.058909774
-0.013804335 -0.13948599 0.0011358857 0.09587099 0.06584225 -0.0012351085 0.04126346 -0.15467896
-0.09039988 -0.15526694 0.16569673 -0.14149067 0.061339896 0.11980021 -0.022443723 -0.026264828
0.17337853 -0.16401733 -0.19289343 -0.031876765 -0.02134049 -0.09527707 0.026479043 0.078880236
0.08917211 0.06730653 0.09664607 -0.07769738 0.011132996 0.062237542 0.077071495 -0.06878809
0.1406289 -0.13288489 -0.07907133 -0.1929233 0.05027299 -0.1546053 0.11860435 -0.111597344
0.06721776 0.1468215 0.14563146 0.055340093 0.09198561 0.010438257 0.096023306 0.013677762
-0.13377665 0.14719784 -0.1775051 0.16209315 0.003096656 0.052960165 -0.0061032246 0.026535805
0.11356978 -0.16313899 0.07700231 -0.08125701 -0.15667133 -0.14717922 -0.017329501 0.12971614
-0.15769647 0.037742916 0.05757984 -0.20341885 0.05512823 -0.14049895 0.03225409 -0.08188054
0.116868824 -0.20290266 0.0871207 -0.050168023 0.039952904 0.0031917025 -0.20137481 -0.0954637
-0.008226809 -0.060126897 -0.084316656 0.095097065 -0.12725462 -0.08843148 0.04415746 -0.017887354
0.06016733 0.093886 -0.11122734 0.015338885 0.1357083 0.023895271 0.117002696 0.05221817
0.1005189 0.14302593 0.068221 0.04523651 0.08360144 0.09960807 0.014044993 -0.0038911013
-0.056123756 -0.05896674 0.09565331 -0.030999565 -0.07017603 0.0015859668 -0.005399744 0.02548965
-0.040361967 -0.01740383 -0.082295805 0.11179284 -0.18928297 -0.17339328 -0.03241974 0.02011799
0.064472094 0.04612317 -0.008676069 -0.15770668 -0.08363562 0.05641311 -0.04022467 -0.10205301
0.042025566 0.15275201 0.020502051 0.13075878 0.14376694 0.013686033 0.16476399 0.055046402
0.054976903 0.060420733 -0.1633277 0.05309812 0.13996643 0.034166526 0.01002413 -0.011016028
-0.1476164 0.01924446 0.06715369 0.07090047 0.18790019 -0.09971794 0.15484066 -0.03732139
-0.04854795 -0.0842918 -0.11144873 0.042035677 -0.03553311 0.030624926 -0.18191741 -0.054018736
0.13367137 -0.07605033 0.18359387 -0.1268535 -0.095960915 0.14240497 0.11970767 0.05373168
0.069078475 -0.13924907 0.0056439852 -0.01556164 -0.07841188 0.025286503 0.0830069 -0.10651431
-0.020442506 -0.0031667405 0.16880444 -0.14833248 0.17961259 -0.039881203 0.037079297 -0.14379835
-0.16331054 -0.08020159 -0.02172598 0.004558498 0.18969344 -0.055708036 0.11488806 -0.16493846
0.05456157 -0.14406171 -0.20338316 0.10002345 -0.14374138 -0.08210582 -0.10793808 -0.058955196
00000000: 5b1e 3d3d d560 f73d efb0 fa3d acc2 a6bd
00000010: 8466 11be e60f 1abc 4531 873d f03f 2f3e
00000020: ae54 b73d 3a4b 0f3e d727 903d 0685 2dbd
00000030: 6053 e1bc 9d06 1f3e 99b7 973d cb17 453d
00000040: 80c7 ba3d 4657 263e 6c29 523d 3029 0a3d
00000050: 23a3 9abc 9098 6bbd 3ba2 aabd b611 fc3d
00000060: c285 1d3e 77ac b5bd 3190 353e b853 1fbd
00000070: 06fb bb3c 5642 ae3d 58ba 0abe f8dd 54bd
00000080: 2011 abbb a68c 56bd a7a6 033e 1673 21bd
00000090: 3dcf f2bd 70bd 15be 94e1 333e 65d8 3c3d
000000a0: eee1 29be 5583 dfbd a89f dfbd 2050 d63d
000000b0: a832 b43d d1f0 b53d 290b b73d 6046 e73c
000000c0: 535f f33d d451 05be 1ec0 203e 3f31 633d
000000d0: ccf0 903d 757a 8b3d 8e4f f0bc 604b 71bd
000000e0: 942b 62bc 6ad5 0ebe 00e2 943a 0258 c43d
000000f0: 4dd8 863d 5de3 a1ba e003 293d 2964 1ebe
00000100: 9323 b9bd 4cfe 1ebe 67ac 293e eee2 10be
00000110: 8b3f 7b3d d059 f53d e6db b7bc 5629 d7bc
00000120: 248a 313e 29f4 27be db85 45be 3691 02bd
00000130: 40d2 aebc a020 c3bd 94ea d83c f68b a13d
00000140: de9f b63d 02d8 893d 60ee c53d ce1f 9fbd
00000150: 2b67 363c cbec 7e3d a9d7 9d3d c5e0 8cbd
00000160: 0601 103e fa12 08be 26f0 a1bd b08d 45be
00000170: 0deb 4d3d da50 1ebe d6e6 f23d 268d e4bd
00000180: 77a9 893d 6058 163e 6a20 153e 4bac 623d
00000190: f462 bc3d 3905 2b3c dea7 c43d b118 603c
000001a0: bffc 08be 08bb 163e e6c3 35be bffb 253e
000001b0: 44f1 4a3b c2ec 583d 8ffd c7bb 9e61 d93c
000001c0: 4697 e83d e80d 27be 63b3 9d3d 136a a6bd
000001d0: 736e 20be 26b6 16be 99f6 8dbc 4fd4 043e
000001e0: 2f7b 21be 5198 1a3d d7d8 6b3d 084d 50be
000001f0: 24ce 613d f5de 0fbe dd1c 043d fcb0 a7bd
00000200: ec58 ef3d b7c5 4fbe 566c b23d fc7c 4dbd
00000210: a8a5 233d e22b 513b 3335 4ebe 7982 c3bd
00000220: bdc9 06bc 9f47 76bd 36ae acbd 40c2 c23d
00000230: 094f 02be 901b b5bd 74de 343d 8088 92bc
00000240: 0572 763d 4e47 c03d 29cb e3bd f24f 7b3c
00000250: 1ef7 0a3e 04c0 c33c 1c9f ef3d b8e2 553d
00000260: dadc cd3d 6475 123e 74b7 8b3d eb49 393d
00000270: 3b37 ab3d 51ff cb3d f81c 663c d901 7fbb
00000280: 06e2 65bd 1c87 71bd e2e5 c33d cdf2 fdbc
00000290: 73b8 8fbd 37e0 cf3a 56f0 b0bb accf d03c
000002a0: 9752 25bd 7a92 8ebc b48a a8bd a5f3 e43d
000002b0: 65d3 41be 028e 31be 90ca 04bd 7cce a43c
000002c0: f209 843d a6eb 3c3d 1226 0ebc dc7d 21be
000002d0: 2749 abbd 6f11 673d a0c2 24bd 2b01 d1bd
000002e0: 0023 2c3d 066b 1c3e ebf3 a73c a1e5 053e
000002f0: a437 133e 623b 603c e4b7 283e 5678 613d
00000300: 762f 613d bb7b 773d 603f 27be 6a7d 593d
00000310: 5c53 0f3e 33f2 0b3d 403c 243c 927c 34bc
00000320: c128 17be 8fa6 9d3c e087 893d 4434 913d
00000330: e868 403e eb38 ccbd 8d8e 1e3e 50de 18bd
00000340: 37da 46bd 2ea1 acbd 3b3f e4bd 9a2d 2c3d
00000350: 2b8b 11bd 20e1 fa3c 8f48 3abe c042 5dbd
00000360: 26e1 083e 47c0 9bbd 0800 3c3e e2e5 01be
00000370: 2887 c4bd 9cd2 113e 4b29 f53d c015 5c3d
00000380: 0479 8d3d 4f97 0ebe 2ef1 b83b 40f6 7ebc
00000390: 6896 a0bd a425 cf3c 86ff a93d 2d24 dabd
000003a0: 0b77 a7bc 1789 4fbb 12db 2c3e 78e4 17be
000003b0: 5dec 373e 795a 23bd 76e0 173d e03f 13be
000003c0: e13a 27be bb40 a4bd affa b1bc 745f 953b
000003d0: ff3e 423e 1c2e 64bd 6e4a eb3d a1e5 28be
000003e0: f47b 5f3d ea84 13be ad43 50be 18d9 cc3d
000003f0: f130 13be 1927 a8bd a40e ddbd 017b 71bd

Q1.head.0.bias f4 [64]
-0.08730667 0.1806986 0.08754856 0.23944812 0.08192388 -0.11943747 -0.024774726 0.09099498
-0.06899665 -0.04044155 0.1612621 0.1698058 0.08647082 -0.13603157 -0.10733221 0.090410054
-0.14432997 0.13542478 0.10583396 0.11846044 0.09131416 0.19513574 -0.041226875 -0.13165548
0.037641793 0.17119221 -0.11458639 0.122379564 0.20008056 0.1926963 0.1574125 0.009436613
0.124753885 0.10623449 0.20411879 0.18258777 0.14230095 0.13374545 0.13996406 0.12282155
0.08259461 -0.065957 0.14933416 0.112282984 0.2048422 0.1931769 -0.0895086 -0.02760197
-0.084147856 0.23480861 0.11393976 -0.11372451 0.24192019 0.1997862 -0.014524652 0.16735399
0.09384968 0.08877991 0.16810729 -0.029182697 -0.02358969 0.13855617 0.006200512 0.1673816
00000000: d7cd b2bd 0e09 393e a94c b33d e331 753e
00000010: b5c7 a73d a29b f4bd 5ef4 cabc 935b ba3d
00000020: 1e4e 8dbd 0aa6 25bd e421 253e 92e1 2d3e
00000030: 9d17 b13d dc4b 0bbe fdd0 dbbd e828 b93d
00000040: 3ccb 13be cbac 0a3e 7abf d83d 639b f23d
00000050: eb02 bb3d aad1 473e 83dd 28bd b2d0 06be
00000060: 482e 1a3d 034d 2f3e 45ac eabd 23a2 fa3d
00000070: ebe1 4c3e 2e52 453e be30 213e 069c 1a3c
00000080: f77e ff3d 7891 d93d 8404 513e 4af8 3a3e
00000090: 57b7 113e 91f4 083e bd52 0f3e dd89 fb3d
000000a0: 5d27 a93d 7714 87bd 0eeb 183e 9ff4 e53d
000000b0: 27c2 513e 2ad0 453e 4950 b7bd 871d e2bc
000000c0: b655 acbd ab71 703e 4059 e93d 65e8 e8bd
000000d0: edb9 773e c194 4c3e cef8 6dbc d85e 2b3e
000000e0: 4334 c03d 3ed2 b53d 5124 2c3e 8d10 efbc
000000f0: 2a3f c1bc abe1 0d3e aa2d cb3b 1566 2b3e

Q1.head.2.weight f4 [64, 64]
0.106690854 0.021448106 0.11933592 0.10181674 0.14285669 0.03790471 0.04466677 0.11793311
-0.13658027 0.04719345 -0.047654986 0.061894737 0.14923503 -0.060262322 0.014898191 0.18471035
0.052321002 0.0804471 0.11279396 0.018968929 0.10964754 0.17340457 0.08897602 0.1370883
0.10100668 0.06191656 0.0048060915 0.13992593 0.08907921 0.11005794 -0.03368173 0.07162468
0.11062119 -0.011323202 0.10215071 0.122211635 0.07111459 -0.017215658 0.19712655 -0.023896623
0.1490537 0.015104723 0.0481801 -0.0020174666 0.18165278 0.17063648 -0.08946385 0.0075812144
-0.065508194 0.015612812 0.072892845 0.11771406 0.0731187 0.20569666 -0.09786792 0.050706774
0.09194659 0.014900267 0.08758954 0.023864819 0.11245619 0.046517853 0.028898334 0.14884752
-0.08038486 0.15975948 0.18990117 -0.0016969428 0.103085354 0.0097026685 0.13062823 0.069621526
-0.06474192 0.09711774 0.09207105 0.161848 0.027221931 -0.09707897 0.035962105 0.18729241
0.10857695 0.019093199 0.19337584 -0.0011211252 0.21435674 0.065404095 -0.015056299 0.039649826
0.12725861 0.16174263 -0.03998284 0.11517137 0.12478589 0.04590201 0.09458968 0.16814268
0.062900744 0.20088637 -0.028205046 0.024391694 0.105308704 0.042165373 -0.010769704 0.057439916
0.018309457 0.0832976 0.13584492 -0.0056375894 0.13565978 0.14399928 0.045521304 -0.055751637
-0.08718779 0.07135547 0.12978369 0.05622981 -0.021059798 0.18047789 0.14654294 0.06545142
0.08049463 0.084852315 -0.0111055365 -0.09299282 0.090066575 0.15880558 0.051546875 -0.031894423
-0.023595821 -0.0142006 0.13948382 0.19110064 0.20945178 0.14117418 0.09144738 0.2215964
-0.064061485 0.028648755 -0.010193267 0.1313577 0.13738863 0.07695899 0.09876639 0.19595432
-0.11116632 0.050171424 -0.008646714 0.16939454 0.09698891 -0.032171044 0.09699109 -0.06767382
0.037603244 0.15433389 0.09703695 0.16063386 0.08172716 0.065263405 0.07330423 -0.077729374
0.04642953 0.20802736 0.14690802 -0.038651556 0.10992542 0.20624827 -0.010097943 0.06983545
0.0171681 0.02774746 0.02545799 0.19799781 0.13265896 0.044300992 -0.13235092 -0.021749008
0.020234106 0.11248672 0.03468653 -0.0624908 0.065230824 -0.014723935 0.05694556 -0.032074492
0.06516805 -0.03075675 0.0376534 0.030479118 -0.04328686 -0.022175068 0.07274593 0.016731102
-0.00755147 0.058081295 0.034944616 -0.08093884 -0.006912703 -0.018023582 0.04771756 -0.06518349
0.059333403 0.0461468 0.044380505 0.035226367 0.022093415 0.03759812 0.09205774 0.012210685
0.058390763 0.10583759 0.101385884 0.03624135 0.0965672 0.041563258 0.083922215 -0.034122683
0.042221952 0.054521948 -0.12359941 0.07445116 -0.058328375 0.09010726 0.010887946 0.04653193
-0.042303693 0.12990543 0.11407642 0.06829853 0.07240855 -0.016653525 0.15242569 0.07109614
-0.071715325 -0.0008019726 0.0360036 0.08373281 0.049367785 0.12981606 -0.04282652 -0.020191554
-0.007415774 0.11105128 -0.07624913 0.10582905 -0.017516043 0.10466605 -0.09003979 -0.017752087
0.025822207 0.007108559 -0.043005083 -0.09915849 -0.09182856 0.13649388 0.08111885 -0.012183818
00000000: bc80 da3d f0b3 af3c 6466 f43d 4c85 d03d
00000010: 0649 123e f841 1b3d 81f4 363d ea86 f13d
00000020: b3db 0bbe eb4d 413d e031 43bd 5685 7d3d
00000030: 11d1 183e a0d5 76bd 8b17 743c b624 3d3e
00000040: 8c4e 563d 73c1 a43d 8500 e73d ba64 9b3c
00000050: e48e e03d f890 313e 0f39 b63d e060 0c3e
00000060: 97dc ce3d 389c 7d3d 6b7c 9d3b be48 0f3e
00000070: 296f b63d 0f66 e13d dbf5 09bd f6af 923d
00000080: 5d8d e23d f484 39bc 6434 d13d 184a fa3d
00000090: 87a4 913d da07 8dbc 8bdb 493e dac2 c3bc
000000a0: 88a1 183e cd79 773c 7f58 453d 7937 04bb
000000b0: 3003 3a3e 54bb 2e3e d338 b7bd d66b f83b
000000c0: 2929 86bd e1cc 7f3c d848 953d 1214 f13d
000000d0: 42bf 953d 25a2 523e fa6e c8bd e8b1 4f3d
000000e0: 7e4e bc3d 4020 743c 2562 b33d 2780 c33c
000000f0: 6e4f e63d 8189 3e3d 33bc ec3c 7c6b 183e
00000100: d1a0 a4bd fd97 233e 7475 423e f46b deba
00000110: 6a1e d33d f1f7 1e3c 68c3 053e bb95 8e3d
00000120: 6997 84bd aae5 c63d bf8f bc3d 7bbb 253e
00000130: 8700 df3c 57d1 c6bd 004d 133d 95c9 3f3e
00000140: 985d de3d 5769 9c3c 5104 463e b8f2 92ba
00000150: 5580 5b3e 95f2 853d b2ae 76bc db67 223d
00000160: 1550 023e dc9f 253e 0cc5 23bd f8de eb3d
00000170: bf8f ff3d bf03 3c3d 3cb8 c13d 982d 2c3e
00000180: 1bd2 803d 28b5 4d3e 450e e7bc 17d1 c73c
00000190: 17ac d73d 99b5 2c3d 6a73 30bc 1e46 6b3d
000001a0: b7fd 953c ef97 aa3d ee1a 0b3e 87bb b8bb
000001b0: 66ea 0a3e 8c74 133e 8c74 3a3d d45b 64bd
000001c0: 838f b2bd d122 923d 04e6 043e 3b51 663d
000001d0: 9985 acbc 32cf 383e 5a0f 163e 650b 863d
000001e0: 5eda a43d 0dc7 ad3d fff3 35bc 0573 bebd
000001f0: d374 b83d ee9d 223e d122 533d baa3 02bd
00000200: 064c c1bc a2a9 68bc d9d4 0e3e e3af 433e
00000210: 877a 563e f78f 103e c448 bb3d 2bea 623e
00000220: ab32 83bd cbb0 ea3c a901 27bc a282 063e
00000230: 9baf 0c3e ad9c 9d3d 0846 ca3d 40a8 483e
00000240: 2bab e3bd 8d80 4d3d f2aa 0dbc c375 2d3e
00000250: 1fa2 c63d c9c5 03bd 44a3 c63d 9298 8abd
00000260: dc05 1a3d b409 1e3e 4fbb c63d 347d 243e
00000270: 9260 a73d d2a8 853d 8720 963d 9430 9fbd
00000280: e42c 3e3d 2005 553e 0e6f 163e 1851 1ebd
00000290: 9420 e13d bf32 533e d871 25bc e305 8f3d
000002a0: 1ea4 8c3c a44e e33c 468d d03c f0bf 4a3e
000002b0: c0d7 073e f574 353d 0087 07be fa2a b2bc
000002c0: ffc1 a53c 705f e63d 7613 0e3d 5af6 7fbd
000002d0: bd97 853d a93c 71bc bf3f 693d 8b60 03bd
000002e0: d476 853d 94f5 fbbc 743a 1a3d 58af f93c
000002f0: 904d 31bd 7da8 b5bc d1fb 943d aa0f 893c
00000300: 5272 f7bb a7e6 6d3d 1622 0f3d 43c3 a5bd
00000310: f583 e2bb 31a6 93bc 7d73 433d ec7e 85bd
00000320: 9507 733d 6d04 3d3d 55c8 353d 8649 103d
00000330: 40fd b43c 7c00 1a3d c588 bc3d 530f 483c
00000340: 272b 6f3d 61c1 d83d 67a3 cf3d cf71 143d
00000350: 06c5 c53d 3c3e 2a3d 69df ab3d 3ac4 0bbd
00000360: edf0 2c3d 6852 5f3d b021 fdbd da79 983d
00000370: bce9 6ebd 288a b83d 5b63 323c 4498 3e3d
00000380: a346 2dbd ee05 053e e6a0 e93d 1ae0 8b3d
00000390: ef4a 943d f96c 88bc 7b15 1c3e da9a 913d
000003a0: 7cdf 92bd 783b 52ba 8378 133d 1c7c ab3d
000003b0: e035 4a3d 80ee 043e dc6a 2fbd c268 a5bc
000003c0: 0500 f3bb da6e e33d 8128 9cbd e7bc d83d
000003d0: ce7d 8fbc 275b d63d c866 b8bd d36c 91bc
000003e0: 1889 d33c eaee e83b 1926 30bd 9b13 cbbd
000003f0: 9d10 bcbd 0dc5 0b3e a421 a63d a39e 47bc

Q1.head.2.bias f4 [64]
0.018582806 0.08975344 0.06349004 0.12850004 -0.0105794715 0.1334631 -0.012495289 -0.02799517
0.027131695 -0.118206196 0.14893182 0.113135986 -0.014238749 -0.008371953 0.12603778 0.14879146
0.06662082 0.08720453 -0.0006819108 0.17630732 -0.13608038 -0.054631047 0.061235934 0.03622892
-0.029655755 0.014848975 0.09520671 0.11994038 0.11422804 0.009194056 0.02073011 -0.01960902
-0.029925607 -0.1062763 0.093410976 0.053127486 0.081261106 0.11734076 0.014670076 0.0038082902
0.08464667 0.10952094 0.16347843 0.1117677 -0.012178395 -0.09568355 -0.031511903 -0.021302061
0.11451404 0.09865787 0.14038682 0.18474525 -0.050830454 0.16219832 -0.110065565 -0.05970448
0.0822235 0.14859113 -0.06233214 -0.121172994 -0.10896189 0.038306847 0.12905227 0.16489452
00000000: f83a 983c a7d0 b73d 1107 823d 8495 033e
00000010: 8555 2dbc 8daa 083e 0ab9 4cbc 2056 e5bc
00000020: 4a43 de3c 1716 f2bd 9581 183e d7b3 e73d
00000030: a449 69bc 842a 09bc 0c10 013e ca5c 183e
00000040: 7f70 883d 4a98 b23d 42c2 32ba e889 343e
00000050: a858 0bbe cec4 5fbd 88d2 7a3d c764 143d
00000060: a0f0 f2bc 1e49 733c bcfb c23d 4da3 f53d
00000070: 64f0 e93d aaa2 163c 31d2 a93c 18a3 a0bc
00000080: 8c26 f5bc 64a7 d9bd 414e bf3d 359c 593d
00000090: 396c a63d 5a50 f03d c25a 703c 8294 793b
000000a0: 3c5b ad3d 844c e03d e466 273e 77e6 e43d
000000b0: e487 47bc bdf5 c3bd a012 01bd a981 aebc
000000c0: 5686 ea3d 230d ca3d 90c1 0f3e dc2d 3d3e
000000d0: 9833 50bd 5117 263e 0e6a e1bd af8c 74bd
000000e0: cb64 a83d 4628 183e fc4f 7fbd 8c29 f8bd
000000f0: 6927 dfbd a4e7 1c3d 4726 043e 1cda 283e

Q1.head.4.weight f4 [36, 64]
0.1588647 0.18706523 0.17238893 -0.07353442 -0.10841449 0.09580913 -0.08863722 0.108375534
0.17175187 0.019947007 0.029950697 0.012816075 0.009073397 0.1740782 0.020925317 0.1488026
0.051338393 0.03595594 0.1148539 0.017744618 0.045244906 0.027566694 -0.07557821 -0.06875439
0.12677233 0.049429644 -0.006879409 -0.032513205 0.055674504 -0.075607225 -0.034061186 0.16229573
0.19702935 0.101386994 0.00048187075 -0.042922296 0.11940315 0.02071005 -0.0039911373 0.038324222
-0.002747158 0.17213969 0.08199226 0.116808005 0.10565448 0.020941356 -0.11598691 0.065105475
0.11091722 -0.03921557 0.1588342 0.06608854 -0.0033981672 0.099378705 -0.03678506 0.07542965
0.12449211 0.113740765 -0.13303237 -0.050510626 0.040516846 0.04655003 0.00451554 0.03457634
0.13231114 0.013565955 0.20917308 0.10224989 0.12584688 0.09196042 0.05328264 0.057926275
0.030142315 -0.021787733 -0.018865015 -0.049085114 0.0781555 0.1649854 0.120214805 0.18117517
0.008473821 0.06755917 0.03553119 0.12958382 0.10552221 -0.090693384 0.008047507 0.004549992
0.0010370299 0.15514891 -0.062233627 -0.0156237455 -0.015447338 0.07343579 -0.08346058 0.09539426
0.068511166 0.019568864 0.039113663 0.08598161 0.1566703 0.09260498 0.16398774 -0.07415476
-0.008498516 -0.0014965641 -0.024245987 0.00054760865 0.047657713 0.029946357 -0.02933596 -0.004084494
-0.0047333157 0.07461246 0.06955809 -0.050218794 0.025397604 0.10500432 0.12861922 -0.036569018
0.16586258 0.009183789 0.09091057 -0.10830168 -0.026623797 -0.049205076 0.0040947846 0.1060475
0.13858518 0.16193226 0.18790555 0.018607315 -0.047341317 0.10196333 -0.091123566 0.018951265
0.049508106 -0.11847547 0.036241166 0.08752673 0.0328416 0.008571841 0.077707306 -0.002978762
-0.029776694 -0.027866833 -0.021898286 0.06940063 -0.068272404 -0.074001275 -0.037997305 -0.10286992
0.010334555 0.050522573 0.09201888 0.029260626 0.10038346 0.117947936 0.021193309 0.17557247
0.18506199 0.0018294847 0.13158932 0.06860589 -0.044141244 0.043904908 0.12820603 0.09277435
0.07939819 0.09654667 0.0050760163 0.077877104 0.08541296 0.032737426 0.08545708 0.06164004
0.13617776 -0.0708439 -0.025627166 0.022973912 0.09009862 0.0417434 -0.058797974 0.10064535
0.055278517 0.10942546 0.026982851 0.12125979 0.031284526 0.049833983 0.13719304 0.05109384
0.034123085 0.0730565 -0.08324498 -0.09098754 0.00097357866 0.064821534 -0.11034816 0.006279215
-0.017441405 0.064369306 -0.14604868 0.032844007 -0.027666772 -0.11347165 -0.15027353 -0.018664273
0.10601009 0.090578236 0.08968671 0.07199119 0.094163574 0.026628276 -0.063395806 0.055316683
0.13290922 -0.14924055 -0.068029 -0.046678 -0.12887198 0.08683814 0.05274636 -0.051439
-0.10913042 0.122858346 -0.09414585 -0.16955647 -0.14800145 -0.13474628 -0.13835153 0.11120529
0.038589768 -0.1592265 0.06529963 -0.18474436 -0.037561055 -0.06704243 0.073750675 -0.14289549
-0.07722296 0.035568796 -0.08500611 -0.08025557 0.03582561 -0.016555732 -0.10116745 -0.100284874
-0.08903665 0.033430412 0.060453136 0.124558866 -0.03741745 -0.07644041 -0.12385615 -0.08049225
00000000: 6ead 223e 078e 3f3e b986 303e 3799 96bd
00000010: 6b08 debd 9437 c43d 6e87 b5bd fef3 dd3d
00000020: b9df 2f3e e867 a33c 2a5b f53c 84fa 513c
00000030: 96a8 143c 8e41 323e 926b ab3c b55f 183e
00000040: 3548 523d 8946 133d 8638 eb3d 295d 913c
00000050: b952 393d 8cd3 e13c c0c8 9abd 1acf 8cbd
00000060: 9bd0 013e bd76 4a3d aa6c e1bb 912c 05bd
00000070: f30a 643d f6d7 9abd be83 0bbd da30 263e
00000080: 10c2 493e fca3 cf3d 99a3 fc39 4acf 2fbd
00000090: a489 f43d 1fa8 a93c 16c8 82bb dcf9 1c3d
000000a0: aa09 34bb 6345 303e 8feb a73d 0939 ef3d
000000b0: 6061 d83d 358d ab3c 8c8a edbd 0556 853d
000000c0: 9128 e33d 81a0 20bd 6fa5 223e 6e59 873d
000000d0: c9b3 5ebb 1087 cb3d eeab 16bd dc7a 9a3d
000000e0: b8f5 fe3d ebf0 e83d a339 08be 3be4 4ebd
000000f0: fef4 253d 3fab 3e3d 18f7 933b ec9f 0d3d
00000100: 927c 073e bd43 5e3c 7831 563e 6468 d13d
00000110: 01de 003e bf55 bc3d e63e 5a3d 1a44 6d3d
00000120: 04ed f63c 307c b2bc ce8a 9abc 790d 49bd
00000130: fe0f a03d eff1 283e 2e33 f63d fc85 393e
00000140: c8d5 0a3c 765c 8a3d 2789 113d 9fb1 043e
00000150: 071c d83d 74bd b9bd b1d9 033c 1918 953b
00000160: f3ec 873a 5bdf 1e3e b0e8 7ebd bdfa 7fbc
00000170: d516 7dbc 8165 963d 61ed aabd 115e c33d
00000180: 954f 8c3d e24e a03c a635 203d 2017 b03d
00000190: 2e6e 203e aea7 bd3d 67ec 273e 73de 97bd
000001a0: 5c3d 0bbc 5c28 c4ba 859f c6bc 658d 0f3a
000001b0: bc34 433d 1052 f53c f851 f0bc 38d7 85bb
000001c0: ee19 9bbb 6bce 983d 7974 8e3d 39b2 4dbd
000001d0: a30e d03c 810c d73d c2b4 033e 65c9 15bd
000001e0: e1d7 293e 9a77 163c 522f ba3d 45cd ddbd
000001f0: 261a dabc 438b 49bd 8b2d 863b 6f2f d93d
00000200: 46e9 0d3e 92d1 253e 506a 403e 5e6e 983c
00000210: f8e8 41bd 26d2 d03d fe9e babd af3f 9b3c
00000220: 03c9 4a3d 44a3 f2bd 9e71 143d 3741 b33d
00000230: ea84 063d e870 0c3c 0225 9f3d 5537 43bb
00000240: 41ee f3bc fc48 e4bc 0964 b3bc eb21 8e3d
00000250: 67d2 8bbd fb8d 97bd 10a3 1bbd 77ad d2bd
00000260: 4452 293c c2f0 4e3d 6574 bc3d fbb3 ef3c
00000270: d895 cd3d b08e f13d 979d ad3c 45c9 333e
00000280: e480 3d3e 52cb ef3a 5abf 063e 3f81 8c3d
00000290: 73cd 34bd a2d5 333d 7148 033e 7a00 be3d
000002a0: 859b a23d 43ba c53d b654 a63b 087e 9f3d
000002b0: fdec ae3d ae17 063d 1f04 af3d 447a 7c3d
000002c0: 2f72 0b3e 9b16 91bd 10f0 d1bc c933 bc3c
000002d0: a085 b83d 21fb 2a3d 25d6 70bd 261f ce3d
000002e0: ba6b 623d 751a e03d 240b dd3c 0e57 f83d
000002f0: 3424 003d b81e 4c3d 557c 0c3e c647 513d
00000300: a6c4 0b3d a59e 953d 587c aabd ad57 babd
00000310: c237 7f3a 27c1 843d 37fe e1bd e0c1 cd3b
00000320: 47e1 8ebc 0ed4 833d c98d 15be 7087 063d
00000330: 6da5 e2bc d363 e8bd 4ee1 19be d1e5 98bc
00000340: d11b d93d 1581 b93d aaad b73d 1e70 933d
00000350: d5d8 c03d 8b23 da3c a9d5 81bd bf93 623d
00000360: 5b19 083e 84d2 18be ca52 8bbd 6e31 3fbd
00000370: 04f7 03be 32d8 b13d 910c 583d b3b1 52bd
00000380: c57f dfbd 289d fb3d 8acf c0bd 36a0 2dbe
00000390: b18d 17be eefa 09be 06ac 0dbe 99bf e33d
000003a0: 4e10 1e3d 460c 23be d0bb 853d a02d 3dbe
000003b0: 9fd9 19bd 8b4d 89bd 980a 973d 3253 12be
000003c0: 1227 9ebd 96b0 113d af17 aebd 085d a4bd
000003d0: e0bd 123d e39f 87bc e130 cfbd 2862 cdbd
000003e0: d958 b6bd 54ee 083d b59d 773d b818 ff3d
000003f0: 0a43 19bd ca8c 9cbd 4ba8 fdbd 1fd9 a4bd

Q1.head.4.bias f4 [36]
0.009584126 0.15653759 -0.028933167 -0.10574589 0.045664348 0.13629042 -0.08391724 -0.007230098
-0.026731594 0.08699984 -0.056163594 -0.1558665 0.0002720607 -0.153846 -0.047990657 -0.12767135
0.007952685 0.024683336 -0.114851214 0.14445126 -0.04774109 0.06348162 0.016640998 -0.06552214
0.13707677 0.056540973 0.07285057 -0.14430644 -0.0069655236 -0.117078885 0.054493576 0.067901224
-0.08654037 -0.054325983 0.13395208 0.06852246
00000000: bd06 1d3c 644b 203e 4005 edbc 4d91 d8bd
00000010: 8a0a 3b3d b78f 0b3e cddc abbd 75ea ecbb
00000020: 37fc dabc f92c b23d cc0b 66bd 789b 1fbe
00000030: 5ea3 8e39 ce89 1dbe da91 44bd 47bc 02be
00000040: fa4b 023c b534 ca3c 1d37 ebbd 08eb 133e
00000050: 298c 43bd a702 823d b452 883c 7930 86bd
00000060: da5d 0c3e 8297 673d ae32 953d 11c5 13be
00000070: 0c3f e4bb 0ec7 efbd a834 5f3d cc0f 8b3d
00000080: 143c b1bd ec84 5ebd bc2a 093e 8155 8c3d

Q2.head.0.weight f4 [64, 36]
-0.0066976333 -0.20826139 -0.10878871 0.07124604 0.027492452 0.10481119 0.10517373 -0.09455545
0.08071212 -0.018494962 -0.10578844 -0.1151173 0.032547116 0.02408637 0.114479214 0.12581623
-0.12719613 -0.06770792 -0.04749228 0.06491118 0.068185195 0.10970694 0.114773035 0.12523149
-0.19377778 -0.13025573 -0.17967047 -0.10385537 -0.14983055 0.06565392 -0.08087566 0.14699233
0.09416391 0.10391363 0.087597646 0.118360266 0.0075733936 -0.12605038 0.12259778 0.06812356
0.115811996 -0.12372319 -0.056328304 0.06847927 -0.026407436 -0.010463431 -0.12152661 0.08345147
0.07350507 -0.03637675 0.12492537 -0.14141364 0.10204125 -0.070820704 -0.05987603 0.002753483
-0.15000576 0.08761534 -0.035232306 -0.07405837 0.013225787 0.06907535 0.06300916 0.078019604
-0.033034496 -0.02346485 0.1529846 0.093255185 0.10637335 0.028855007 -0.18355617 0.04943973
-0.03855949 0.059490837 0.08133791 0.07791062 -0.077150874 -0.10982799 0.13743259 0.030899966
0.08002336 0.057375446 -0.023744557 -0.15345836 0.14956948 0.17708947 0.010510294 -0.04456309
0.08120515 -0.15918534 0.040616322 0.17587258 -0.025696198 -0.011280973 0.082775734 -0.004843583
0.0056190905 0.06912604 -0.016662007 -0.006191952 0.0070771216 0.061613932 0.1539436 0.036463268
0.034848087 -0.11859171 0.12269517 0.094206855 -0.16863285 0.10224891 0.049100325 -0.112409696
-0.025302643 -0.19215314 -0.0064564026 0.061689463 -0.1353713 0.007858256 0.09425691 0.12773392
0.10645592 -0.09414978 0.0060060406 -0.093561836 0.1528392 -0.030776365 -0.0996646 -0.011971935
0.0321913 0.028739177 -0.025373757 0.0329366 -0.17826703 -0.047131322 0.04414218 0.037092578
0.1836358 0.0917444 0.08648988 -0.087288395 0.11353357 0.114300035 -0.05372262 -0.07719233
-0.082055174 -0.11043005 0.071386054 -0.1175057 0.14732997 0.05197584 -0.0042632925 0.02453082
0.09383643 -0.014210718 -0.14625396 -0.16279112 0.15498333 0.13625766 -0.05120687 0.10460686
0.06966867 -0.16583791 -0.021656532 -0.16845952 0.06624254 0.017938673 0.0793316 -0.0023790684
0.030203847 -0.095625825 -0.1634954 -0.05878369 0.0682943 -0.055471882 -0.034394227 -0.08683286
-0.111873694 -0.087251864 -0.029460741 0.15568916 -0.014171479 -0.009014698 -0.119354784 -0.112728484
-0.16322377 -0.14879192 -0.05008577 -0.04687728 -0.114737295 0.020219062 0.10650703 -0.12872127
0.10402864 -0.1408191 0.049025852 -0.0131672025 -0.13416168 -0.10381614 -0.079162106 -0.15961966
0.03066779 -0.15191767 0.15521562 0.017185666 -0.15008497 -0.07942723 0.09986299 -0.014156208
0.108136356 0.06665809 -0.08512573 0.16096854 -0.1042756 -0.13895214 0.124915235 -0.12666112
-0.113214135 -0.12689367 0.066073224 -0.008444409 0.14354753 -0.07317549 0.008045277 0.08618055
-0.027215242 -0.0037073097 -0.106010914 0.09874036 0.06251514 -0.028530082 -0.06771608 0.11098336
-0.14615488 0.073764615 0.11633937 -0.055907033 0.07418671 0.04468306 0.022968194 -0.0716244
-0.024254918 -0.024784824 0.06421666 -0.16512834 -0.0038896014 0.05258908 0.05017823 -0.0906175
-0.05954222 0.09894936 0.0456906 0.16567239 -0.06017568 0.11228224 -0.024132919 0.026432535
00000000: d277 dbbb 7942 55be 9dcc debd 72e9 913d
00000010: da37 e13c 40a7 d63d 5365 d73d 4aa6 c1bd
00000020: 654c a53d bf82 97bc 9ca7 d8bd 9ec2 ebbd
00000030: 2050 053d c750 c53c 1474 ea3d f8d5 003e
00000040: b43f 02be 73aa 8abd 4487 42bd 27f0 843d
00000050: aea4 8b3d 08ae e03d 200e eb3d af3c 003e
00000060: af6d 46be c261 05be 89fb 37be 20b2 d4bd
00000070: 2e6d 19be 9075 863d 23a2 a5bd 2885 163e
00000080: 02d9 c03d abd0 d43d 6566 b33d de66 f23d
00000090: 3b2a f83b 5a13 01be 8b14 fb3d 5d84 8b3d
000000a0: d72e ed3d 9562 fdbd 82b8 66bd dc3e 8c3d
000000b0: 6854 d8bc cf6e 2bbc f1e2 f8bd 9be8 aa3d
000000c0: d389 963d c9ff 14bd dfd8 ff3d bdce 10be
000000d0: 01fb d03d 720a 91bd 9140 75bd c773 343b
000000e0: 1c9b 19be ac6f b33d c04f 10bd eaab 97bd
000000f0: f9b0 583c 6177 8d3d f20a 813d bec8 9f3d
00000100: 2e4f 07bd 5b39 c0bc ffa7 1c3e 93fc be3d
00000110: 45da d93d 5661 ec3c 26f6 3bbe 5081 4a3d
00000120: 8ef0 1dbd aaac 733d 7d94 a63d 9a8f 9f3d
00000130: 4701 9ebd 7fed e0bd 21bb 0c3e ed21 fd3c
00000140: 4ae3 a33d 8402 6b3d f283 c2bc 3024 1dbe
00000150: be28 193e f156 353e 5e33 2c3c c987 36bd
00000160: e34e a63d 7b01 23be 4d5d 263d f117 343e
00000170: d580 d2bc d5d3 38bc 5386 a93d ebb6 9ebb
00000180: 5920 b83b f491 8d3d c37e 88bc dce5 cabb
00000190: 33e7 e73b e45e 7c3d 64a3 1d3e 825a 153d
000001a0: debc 0e3d 36e0 f2bd 9b47 fb3d 86ef c03d
000001b0: 17ae 2cbe e067 d13d 6c1d 493d 0e37 e6bd
000001c0: 7d47 cfbc cbc3 44be 3b90 d3bb 17ae 7c3d
000001d0: c69e 0abe eabf 003c c409 c13d aecc 023e
000001e0: 9005 da3d 9ad1 c0bd 52ce c43b 599d bfbd
000001f0: e181 1c3e b71e fcbc f41c ccbd ef25 44bc
00000200: 06db 033d 6c6e eb3c a0dc cfbc 87e8 063d
00000210: a28b 36be c60c 41bd 6ece 343d 63ee 173d
00000220: 060b 3c3e 7de4 bb3d 9b21 b13d 42c4 b2bd
00000230: 4a84 e83d 2316 ea3d 400c 5cbd 0317 9ebd
00000240: 8b0c a8bd 2629 e2bd da32 923d d4a6 f0bd
00000250: abdd 163e 9ee4 543d 17b3 8bbb dcf4 c83c
00000260: 502d c03d 12d4 68bc 99c3 15be b7b2 26be
00000270: f3b3 1e3e 2187 0b3e 4bbe 51bd 1f3c d63d
00000280: 73ae 8e3d 6ad1 29be 0a69 b1bc a780 2cbe
00000290: 2baa 873d 20f4 923c 9b78 a23d 25ea 1bbb
000002a0: 0f6e f73c 79d7 c3bd 576b 27be 2bc7 70bd
000002b0: e2dd 8b3d 7c36 63bd f6e0 0cbd 6dd5 b1bd
000002c0: 091e e5bd 1bb1 b2bd a757 f1bc fb6c 1f3e
000002d0: 7e2f 68bc 62b2 13bc 4870 f4bd 31de e6bd
000002e0: 2224 27be e95c 18be bd26 4dbd 6402 40bd
000002f0: 63fb eabd 72a2 a53c 5c20 da3d 82cf 03be
00000300: f80c d53d e232 10be 55cf 483d 40bb 57bc
00000310: ae61 09be 8e9d d4bd be1f a2bd 5673 23be
00000320: 043b fb3c 4e90 1bbe d8f0 1e3e f4c8 8c3c
00000330: e0af 19be beaa a2bd f884 cc3d 71ef 67bc
00000340: 9876 dd3d 0984 883d 6656 aebd f0d4 243e
00000350: 728e d5bd 7849 0ebe 8fd3 ff3d 74b3 01be
00000360: d0dc e7bd 6af0 01be 6651 873d 6b5a 0abc
00000370: 20fe 123e 08dd 95bd 56d0 033c 6e7f b03d
00000380: 80f2 debc 56f6 72bb 401c d9bd 6338 ca3d
00000390: f007 803d ebb7 e9bc baae 8abd 3e4b e33d
000003a0: a0a9 15be e711 973d 5643 ee3d c6fe 64bd
000003b0: 34ef 973d 9605 373d cb27 bc3c d0af 92bd
000003c0: 40b2 c6bc 8b09 cbbc 0684 833d 6717 29be
000003d0: afe8 7ebb a667 573d b087 4d3d ab95 b9bd
000003e0: 8be2 73bd f6a5 ca3d 1126 3b3d 06a6 293e
000003f0: c67a 76bd 3bf4 e53d 66b2 c5bc 0b89 d83c

Q2.head.0.bias f4 [64]
0.074612714 0.2133464 -0.06120549 0.1110672 0.25464672 0.099210985 -0.14656484 -0.0901732
-0.11252791 -0.05986415 0.14815176 -0.10287401 0.107760035 -0.117778145 -0.0008172789 0.1574082
0.16087188 0.2269246 0.17228766 -0.14124022 0.20327571 -0.08640176 0.092757404 0.17270562
0.2224039 0.10537545 0.15696433 0.18191007 0.254925 0.19849773 -0.036467057 0.13377546
-0.15566838 0.07933411 0.14313246 0.19357623 0.14380048 0.09493343 0.090453096 0.20652871
0.21670693 -0.024639374 0.11089985 0.080364 0.17401025 -0.052380513 -0.109416276 0.07035045
0.21475568 0.12846708 0.1365492 0.14520332 0.22308475 -0.08396885 0.10042181 0.15137377
0.11101732 0.21586457 -0.10368362 -0.009462801 -0.05992438 0.12048928 0.15171674 -0.049339395
00000000: 8dce 983d 7b77 5a3e 9cb2 7abd 3377 e33d
00000010: 0e61 823e 212f cb3d 1815 16be baac b8bd
00000020: 0875 e6bd 1c34 75bd 18b5 173e 9caf d2bd
00000030: 4bb1 dc3d ab35 f1bd a93e 56ba 9d2f 213e
00000040: 99bb 243e ec5e 683e 2d6c 303e 47a1 10be
00000050: 8227 503e 68f3 b0bd 98f7 bd3d bed9 303e
00000060: d9bd 633e 15cf d73d 42bb 203e a246 3a3e
00000070: 8885 823e fd42 4b3e 7b5e 15bd 6ffc 083e
00000080: 8867 1fbe ec79 a23d 5191 123e d938 463e
00000090: 6f40 133e 756c c23d 793f b93d 437c 533e
000000a0: 6ce8 5d3e 83d8 c9bc 761f e33d e195 a43d
000000b0: be2f 323e f38c 56bd a415 e0bd e613 903d
000000c0: eae8 5b3e e08c 033e 8ed3 0b3e 2eb0 143e
000000d0: 5470 643e dcf7 abbd f3a9 cd3d ba01 1b3e
000000e0: 0c5d e33d 9a0b 5d3e 1458 d4bd dd09 1bbc
000000f0: 4473 75bd 15c3 f63d a25b 1b3e 1b18 4abd

Q2.head.2.weight f4 [64, 64]
0.17841531 0.08785296 -0.10636381 -0.039270446 0.11801179 0.11417215 -0.08083678 0.08670292
0.102773935 0.1328481 0.0651592 -0.020681432 0.12584385 -0.13741273 -0.07383673 0.028822353
0.078627646 0.10519711 0.17161147 -0.0128986165 0.0036254355 0.0317681 0.14302297 0.18809721
0.16374049 -0.041833855 0.09489335 0.13503717 0.032344706 0.1394301 0.021002261 0.021603102
-0.053094935 0.13100405 0.17482883 0.18716021 0.10046073 0.06936462 0.17103095 0.16932972
0.04723681 0.0017950715 -0.0003423038 0.12658003 -0.04427349 -0.037695874 -0.100091726 0.19499578
-0.03899832 -0.003135369 0.06089955 0.047082923 0.05829994 -0.064706996 0.08894062 0.00066414964
-0.041667543 -0.053162303 0.1158505 0.06968326 0.14750604 0.08996182 0.03346415 -0.024617173
-0.08644213 0.16248946 0.07679075 0.003376806 0.08267188 0.13561682 -0.055489533 -0.082048126
-0.06532906 -0.098874554 0.17972673 0.0060123736 0.046817128 -0.015258809 -0.0954164 0.13892913
-0.08235068 0.13362226 -0.026542902 0.0638304 0.05251503 -0.103187166 0.16804028 0.11054527
0.082771115 0.10799667 -0.071080804 0.07597882 0.09079433 0.12808375 -0.11325852 0.038535662
0.10428588 -0.05344482 -0.03868958 0.15661365 0.06988575 0.014645111 -0.0030597355 0.06713572
0.0544326 0.11382953 0.018977225 0.10874169 0.10304286 0.0007940792 -0.07655485 0.08237958
0.025784029 -0.033730324 0.00017306878 0.017591868 0.019937726 -0.021348892 0.19740504 0.10694741
0.08916079 0.098620355 0.11738276 -0.08116486 -0.0057265284 -0.042892408 -0.017067976 0.054765806
0.16809414 0.116889104 -0.048998814 0.021262094 -0.0052167545 0.107398 -0.10448428 0.13099949
0.013221736 0.052297212 0.020193497 -0.053278774 0.115805335 -0.042591076 0.085288934 0.13142094
-0.032204673 0.17009264 0.07958088 -0.101865776 0.14976053 -0.049188197 0.18318993 0.005733538
0.022460857 0.12785599 0.17915702 -0.03275326 0.12155757 -0.02421551 0.12658505 0.05913321
0.06876185 -0.01330062 0.099909276 0.17081003 0.14458814 0.15058951 0.1795659 0.04018219
-0.056329835 0.06184812 -0.022905143 -0.042849697 0.1112742 0.0020475124 0.028249376 -0.03454634
0.08551824 0.16010681 0.093056045 -0.020715458 0.050877728 -0.08814567 0.10940761 0.021224463
-0.03904607 0.09078935 -0.029483791 -0.08167268 0.1330567 0.035881605 -0.034490295 0.027058797
0.13516805 -0.021088226 -0.102537744 0.036749747 0.1650275 0.17307048 0.053719938 -0.02187629
0.09318334 0.018541785 0.06653078 0.039912894 -0.005495226 -0.06358828 -0.051663794 -0.003061901
0.057688147 0.04515841 0.07076321 0.11411027 0.057095505 0.07828023 0.028815486 -0.05307075
0.10338526 0.16618405 0.11247551 0.0456245 0.014573522 -0.0674096 0.09942737 0.13332301
0.02844906 0.0048722713 0.09712598 -0.038866136 0.119124755 -0.057353232 0.18311754 -0.020880828
-0.022973586 0.03127327 0.009455722 0.067360595 -0.034577932 -0.07684922 0.0017280232 -0.00017782148
0.006485348 0.038989216 0.072957486 0.11145761 0.11054737 0.07384514 0.025520612 -0.03129282
0.014288884 -0.07209452 -0.09919176 0.08082803 -0.072754085 0.038387224 0.10970429 0.095849454
00000000: 81b2 363e 41ec b33d 45d5 d9bd 0cda 20bd
00000010: 2ab0 f13d 17d3 e93d c18d a5bd 4d91 b13d
00000020: 247b d23d 5509 083e 3072 853d 1b6c a9bc
00000030: 36dd 003e ecb5 0cbe b637 97bd db1c ec3c
00000040: 8807 a13d 9571 d73d ebba 2f3e b854 53bc
00000050: b798 6d3b 441f 023d 9d74 123e 8e9c 403e
00000060: 96ab 273e fa59 2bbd 7257 c23d 2f47 0a3e
00000070: e27b 043d c4c6 0e3e ef0c ac3c fdf8 b03c
00000080: 137a 59bd ed25 063e 5406 333e eda6 3f3e
00000090: 5bbe cd3d 0a0f 8e3d bd22 2f3e c564 2d3e
000000a0: 637b 413d 9b48 eb3a 3d77 b3b9 329e 013e
000000b0: 1e58 35bd fd66 1abd e4fc ccbd f9ac 473e
000000c0: b4bc 1fbd c37a 4dbb ce71 793d 06da 403d
000000d0: ebcb 6e3d 1a85 84bd 8026 b63d 541a 2e3a
000000e0: 96ab 2abd b7c0 59bd 0743 ed3d 19b6 8e3d
000000f0: d30b 173e e73d b83d b411 093d f4a9 c9bc
00000100: 9208 b1bd a363 263e 7844 9d3d 674d 5d3b
00000110: e04f a93d 23df 0a3e fe48 63bd d908 a8bd
00000120: 3ecb 85bd be7e cabd 490a 383e 7203 c53b
00000130: 51c3 3f3d 1500 7abc ac69 c3bd 7043 0e3e
00000140: 79a7 a8bd 46d4 083e 8070 d9bc 83b9 823d
00000150: 001a 573d cb53 d3bd c012 2c3e 8f65 e23d
00000160: e783 a93d 5c2d dd3d d092 91bd c99a 9b3d
00000170: 61f2 b93d 6328 033e 15f4 e7bd 92d7 1d3d
00000180: d693 d53d f5e8 5abd f778 1ebd 545f 203e
00000190: 4320 8f3d 0cf2 6f3c d885 48bb 747e 893d
000001a0: b8f4 5e3d 751f e93d 2076 9b3c f7b3 de3d
000001b0: 2308 d33d c129 503a cac8 9cbd a0b6 a83d
000001c0: 0739 d33c cf28 0abd cc79 3539 d21c 903c
000001d0: 7154 a33c dfe3 aebc 8c24 4a3e 3e07 db3d
000001e0: ef99 b63d 78f9 c93d 5f66 f03d c339 a6bd
000001f0: 9aa5 bbbb f3af 2fbd 24d2 8bbc 1c52 603d
00000200: df20 2c3e 8e63 ef3d fbb2 48bd d82d ae3c
00000210: 4ff1 aabb 7cf3 db3d dbfb d5bd bb24 063e
00000220: fb9f 583c 9a35 563d d56c a53c d83a 5abd
00000230: 592b ed3d fb73 2ebd f7ab ae3d 3693 063e
00000240: 0ce9 03bd c42c 2e3e 4dfb a23d 019f d0bd
00000250: d35a 193e 9079 49bd 2496 3b3e 67e0 bb3b
00000260: d5ff b73c aeec 023e f074 373e 4828 06bd
00000270: 2df3 f83d 9b5f c6bc 839f 013e aa35 723d
00000280: 03d3 8c3d d8ea 59bc 3c9d cc3d d3e8 2e3e
00000290: ea0e 143e 2334 1a3e 20e0 373e 1496 243d
000002a0: 1dba 66bd 7454 7d3d 91a3 bbbc 2a83 2fbd
000002b0: bae3 e33d 8f2f 063b 3c6b e73c 7780 0dbd
000002c0: 3024 af3d 0af3 233e 2b94 be3d 77b3 a9bc
000002d0: 2a65 503d b885 b4bd 1911 e03d edde ad3c
000002e0: c6ee 1fbd c4ef b93d fe87 f1bc 0244 a7bd
000002f0: 0440 083e 97f8 123d b245 0dbd 69aa dd3c
00000300: 7e69 0a3e 37c1 acbc 4fff d1bd e786 163d
00000310: f8fc 283e 6339 313e 7009 5c3d e835 b3bc
00000320: e8d6 be3d f1e4 973c 4a41 883d b47b 233d
00000330: 4c11 b4bb 923a 82bd 6a9d 53bd 2daa 48bb
00000340: 684a 6c3d 06f8 383d 4dec 903d a5b2 e93d
00000350: fadc 693d 6351 a03d 740e ec3c b760 59bd
00000360: a7bb d33d 272c 2a3e 8f59 e63d c1e0 3a3d
00000370: c8c5 6e3c 0b0e 8abd 94a0 cb3d d485 083e
00000380: 010e e93c 93a7 9f3b fce9 c63d 1932 1fbd
00000390: aef7 f33d 39eb 6abd 2a83 3b3e 450e abbc
000003a0: 1a33 bcbc 6618 003d 2cec 1a3c 5af4 893d
000003b0: 97a1 0dbd 2063 9dbd d67e e23a 9775 3ab9
000003c0: 0b83 d43b 28b3 1f3d bc6a 953d e343 e43d
000003d0: a966 e23d 1f3c 973d 9a10 d13c e62c 00bd
000003e0: ec1b 6a3c 4ba6 93bd 0d25 cbbd 2b89 a53d
000003f0: 1800 95bd ec3b 1d3d a5ac e03d b84c c43d

Q2.head.2.bias f4 [64]
0.01924332 0.11197276 0.030053906 0.14464265 0.10635485 0.042507637 0.09625302 -0.019636413
0.13083594 -0.05058709 0.013071411 0.14592494 0.15208262 -0.03816722 0.006281799 0.012978058
0.11638018 -0.08901861 0.14490539 -0.10658577 -0.08300522 0.14767145 0.0854586 -0.068153925
0.038977224 -0.1039694 0.015599112 0.057355013 0.0022398676 0.12492748 0.024045639 0.14362513
-0.012211825 -0.037866283 0.098333806 -0.023649234 -0.008060432 -0.026626645 0.068354584 0.13838376
0.09199604 0.122520514 0.08488383 0.11846491 0.105434105 -0.03014709 -3.3532953e-05 0.12877278
-0.051253706 -0.04422754 0.17279986 0.13985333 0.100051895 0.056242757 0.09095946 0.0046513993
0.116574936 0.026810572 0.0030717112 0.03954267 0.025891919 0.023569074 -0.07515047 0.15276669
00000000: 2ba4 9d3c f951 e53d 9c33 f63c 341d 143e
00000010: 92d0 d93d 7d1c 2e3d 4e20 c53d 8bdc a0bc
00000020: dbf9 053e 6934 4fbd 7929 563c 596d 153e
00000030: 8cbb 1b3e 3b55 1cbd 8dd7 cd3b eca1 543c
00000040: bb58 ee3d 644f b6bd 1462 143e a449 dabd
00000050: a4fe a9bd 2f37 173e eb04 af3d 4994 8bbd
00000060: 95a6 1f3d e9ed d4bd 6b93 7f3c 17ed 6a3d
00000070: beca 123b fbd9 ff3d 5cfb c43c 7712 133e
00000080: 1b14 48bc ad19 1bbd 3c63 c93d 0abc c1bc
00000090: e70f 04bc 1f20 dabc 7dfd 8b3d 79b4 0d3e
000000a0: 6b68 bc3d 09ec fa3d 93d7 ad3d bb9d f23d
000000b0: d6ed d73d 08f7 f6bc bca5 0cb8 03dd 033e
000000c0: 68ef 51bd f027 35bd 72f2 303e b635 0f3e
000000d0: 02e8 cc3d ce5e 663d f448 ba3d c46a 983b
000000e0: d7be ee3d d8a1 db3c c34e 493b 7ff7 213d
000000f0: 4a1b d43c ee13 c13c 7de8 99bd df6e 1c3e

Q2.head.4.weight f4 [36, 64]
0.044881012 -0.024980407 0.17442209 0.14543632 0.093536675 0.044535134 -0.01471378 0.062790856
0.14653593 0.13613893 -0.03149086 0.05460463 -0.06556006 -0.084951 0.13695939 0.025600431
0.15494266 -0.050285432 0.13409631 0.069591254 -0.065056294 0.050075028 0.050812498 -0.12705186
0.06517673 -0.18988423 0.023373917 0.13896748 0.034814224 0.17513417 0.021472923 0.10184039
0.07209436 -0.06684387 0.15963732 -0.02615272 0.1653412 0.10552147 -0.07191953 0.12500066
0.12130144 0.08012361 0.058557983 -0.008123916 -0.0755395 -0.022890244 0.16523045 0.10893326
-0.13642205 0.08991058 0.15639412 0.079905555 0.021369437 0.040306013 0.0629335 0.10692487
-0.047605142 -0.10972473 0.056372397 0.0075430945 0.078181826 0.084468395 0.038316123 0.16292493
-0.023250146 0.14800577 0.012548428 0.15176602 -0.07625396 0.07724207 0.17464957 0.126716
0.03991202 0.17960311 0.0023344867 0.08371104 0.0029648463 0.11094266 0.024347898 -0.035574716
0.042980157 -0.11380976 -0.07543445 0.051969707 0.11919248 0.17412162 0.17813991 -0.12899783
0.17291942 -0.024562461 0.03276813 0.1725436 0.06887374 0.106533095 0.10748955 0.16802366
0.11691667 -0.12957959 0.08335496 0.16127448 -0.009956552 0.019828526 0.13225947 0.064457744
0.13484752 0.0040032486 -0.011701708 0.18143937 -0.06828153 0.034890268 0.040413324 -0.05398431
0.05996735 -0.078265354 0.08723256 0.15308371 -0.014364194 -0.014497268 0.07651584 0.0564574
0.0906459 -0.090422705 -0.07729786 0.18077199 -0.03619279 -0.080069005 -0.099414706 0.16135074
0.17186525 -0.04574459 0.014041918 0.08153475 0.09739691 -0.0018878459 0.1123007 -0.06792901
-0.024080792 0.13656342 0.035194095 0.021756232 0.15720421 0.06634712 0.12505205 -0.01758008
-0.021451415 0.0019168945 0.10836285 -0.0005235672 0.03576809 0.15620196 0.096020915 0.006325269
0.15155065 -0.13466658 -0.018427808 0.13225849 -0.07415129 0.045422707 -0.007989008 0.015638836
0.13053809 -0.09295034 0.05090742 0.0029462024 0.10237403 0.016763693 -0.069682494 0.072330475
0.080306835 0.117067344 0.041105732 0.08646982 0.14098154 -0.02497067 0.15635543 -0.040317446
-0.09002797 0.0779129 0.0735572 0.1649006 -0.008240281 0.02254119 0.02312726 0.1323606
0.014882898 0.10856838 -0.0141673405 0.10756793 0.01191187 0.11216231 0.059388045 0.09275885
-0.06959637 -0.07542119 -0.095674284 -0.0040606684 -0.07958654 0.12012363 -0.007081087 0.11244411
0.007224817 -0.16029027 0.06402496 0.05085431 -0.09320648 0.02455078 -0.07569308 -0.12582274
-0.03199085 -0.09107497 -0.014838136 0.07076275 -0.046559468 0.032362264 -0.16865967 -0.0040174127
0.040080145 0.11712868 -0.044885032 -0.020302303 -0.10670567 -0.0019372943 0.01837981 0.0009903266
-0.07419609 -0.035329808 -0.00743311 -0.15049008 0.0155235 -0.1470823 -0.04239067 0.04280575
-0.12723024 -0.038917635 -0.14915453 -0.17193075 -0.044283673 -0.10507356 0.008322387 -0.118075974
0.08460673 0.01998925 0.021673588 0.014187477 -0.15977938 -0.05052464 -0.18376352 -0.037668705
-0.0077476976 0.006760635 0.029775206 0.043725327 -0.05158028 -0.009728472 -0.11046907 -0.07552991
00000000: 27d5 373d b6a3 ccbc b49b 323e 42ed 143e
00000010: 2890 bf3d 796a 363d 1112 71bc 7e98 803d
00000020: 840d 163e 0168 0b3e 8ffc 00bd 1ba9 5f3d
00000030: 5a44 86bd cafa adbd 153f 0c3e ffb7 d13c
00000040: 4aa9 1e3e 19f8 4dbd 8b50 093e dc85 8e3d
00000050: 3c3c 85bd 791b 4d3d c420 503d e219 02be
00000060: 617b 853d 0371 42be a87a bf3c 7e4d 0e3e
00000070: 5c99 0e3d 5f56 333e fce7 af3c b291 d03d
00000080: 35a6 933d 70e5 88bd f777 233e 3b3e d6bc
00000090: 344f 293e a41b d83d 8c4a 93bd 2c00 003e
000000a0: e46c f83d d917 a43d 7fda 6f3d 2c1a 05bc
000000b0: 74b4 9abd 5284 bbbc 2c32 293e 6718 df3d
000000c0: 39b2 0bbe 0a23 b83d c825 203e 86a5 a33d
000000d0: f50e af3c eb17 253d 47e3 803d 6dfb da3d
000000e0: 9cfd 42bd 5cb7 e0bd bee6 663d 102c f73b
000000f0: cb1d a03d c4fd ac3d 5ef1 1c3d cbd5 263e
00000100: 1777 bebc d38e 173e ec97 4d3c 8d68 1b3e
00000110: 092b 9cbd 1731 9e3d 56d7 323e d7c1 013e
00000120: c97a 233d e1e9 373e 30fe 183b b270 ab3d
00000130: de4d 423b e835 e33d 3e75 c73c cbb6 11bd
00000140: f60b 303d 1715 e9bd 607d 9abd 30de 543d
00000150: 301b f43d f04c 323e 4f6a 363e 0218 04be
00000160: ca11 313e 3737 c9bc e037 063d 45af 303e
00000170: ad0d 8d3d 062e da3d 7b23 dc3d 650e 2c3e
00000180: 0272 ef3d 83b0 04be 01b6 aa3d 2325 253e
00000190: ce20 23bc 6f6f a23c 076f 073e 6c02 843d
000001a0: 7815 0a3e af2d 833b 85b8 3fbc 3ecb 393e
000001b0: 30d7 8bbd 19e9 0e3d 7188 253d a71e 5dbd
000001c0: 53a0 753d 9649 a0bd fca6 b23d fac1 1c3e
000001d0: cc57 6bbc f385 6dbc 56b4 9c3d e03f 673d
000001e0: 8fa4 b93d 8a2f b9bd 574e 9ebd 4b1c 393e
000001f0: e43e 14bd 38fb a3bd f099 cbbd 2139 253e
00000200: 72fd 2f3e ae5e 3bbd 1310 663c b1fb a63d
00000210: 0878 c73d 9971 f7ba e9fd e53d 5d1e 8bbd
00000220: 1545 c5bc 48d7 0b3e af27 103d 203a b23c
00000230: 24fa 203e 00e1 873d a50d 003e 1a04 90bc
00000240: e1ba afbc 4e40 fb3a 58ed dd3d 0040 09ba
00000250: 9081 123d 68f3 1f3e 9da6 c43d 3444 cf3b
00000260: 1830 1b3e 09e6 09be eaf5 96bc c56e 073e
00000270: a2dc 97bd 290d 3a3d 54e4 02bc 041d 803c
00000280: c7ab 053e bf5c bebd 4d84 503d 1315 413b
00000290: 7aa9 d13d 0354 893c b2b5 8ebd 0022 943d
000002a0: e977 a43d 01c1 ef3d 7c5e 283d 1717 b13d
000002b0: 775d 103e 4a8f ccbc a31b 203e e823 25bd
000002c0: 9660 b8bd cc90 9f3d 28a5 963d b4db 283e
000002d0: 3e02 07bc 4da8 b83c 6175 bd3c 8a89 073e
000002e0: 66d7 733c 1959 de3d 221e 68bc 934c dc3d
000002f0: 012a 433c 5ab5 e53d e140 733d 5af8 bd3d
00000300: 8b88 8ebd 6d76 9abd e1f0 c3bd 5b0f 85bb
00000310: 45fe a2bd 6103 f63d 7708 e8bb 1949 e63d
00000320: 28be ec3b 2223 24be 851f 833d 9c4c 503d
00000330: 0ae3 bebd b81e c93c f904 9bbd add7 00be
00000340: d608 03bd 8485 babd a71b 73bc 10ec 903d
00000350: 24b5 3ebd 4b8e 043d 1fb5 2cbe 80a4 83bb
00000360: 142b 243d 29e1 ef3d 5ed9 37bd 0451 a6bc
00000370: 8188 dabd cfec fdba 4191 963c d9cd 813a
00000380: 1ff4 97bd fdb5 10bd 7291 f3bb 121a 1abe
00000390: 4756 7e3c be9c 16be d7a1 2dbd 1555 2f3d
000003a0: a548 02be 1968 1fbd f7bb 18be 9d0e 30be
000003b0: cc62 35bd ce30 d7bd 9f5a 083c d1d1 f1bd
000003c0: 4b46 ad3d 7fc0 a33c cf8c b13c 9772 683c
000003d0: 359d 23be edf2 4ebd 812c 3cbe 804a 1abd
000003e0: 66e0 fdbb 5188 dd3b 22eb f33c 5419 333d
000003f0: d845 53bd 2b64 1fbc 9c3d e2bd 6daf 9abd

Q2.head.4.bias f4 [36]
0.046382125 -0.041417293 0.15169124 0.052505624 -0.12642716 -0.057735797 0.044563863 -0.033877533
-0.108593926 0.14594173 -0.0068455776 0.073378205 0.011202284 -0.088380195 0.096945636 -0.12700848
0.07264743 0.033773616 -0.1568768 0.11278674 0.0056195455 -0.036196772 -0.056296214 -0.015061434
0.05233717 -0.08508025 -0.118383355 0.026743948 -0.076246135 0.08369844 0.07602947 0.03126318
0.06753652 -0.040206127 0.14093111 -0.11105555
00000000: 2ffb 3d3d 2ea5 29bd f354 1b3e 2310 573d
00000010: 1f76 01be 5f7c 6cbd 9988 363d 2bc3 0abd
00000020: 7e66 debd c071 153e de50 e0bb 5047 963d
00000030: c989 373c ad00 b5bd 6f8b c63d 830e 02be
00000040: 2dc8 943d 3456 0a3d 50a4 20be bcfc e63d
00000050: 2a24 b83b 1143 14bd dc96 66bd 3cc4 76bc
00000060: 805f 563d 8e3e aebd f972 f2bd 2016 db3c
00000070: ef26 9cbd 166a ab3d 57b5 9b3d d20d 003d
00000080: 9650 8a3d 2eaf 24bd 3f50 103e 1871 e3bd
