script/logs/arch/model/final/online_critic.pth (torch, 57106 bytes, 12 tensors)

Q1.head.0.weight f4 [64, 18]
00000000: 19e6 d5bd d04c e63d ce37 1b3e a0f8 9b3e
00000010: ee25 623c f14b 51bd c824 3ebd 8fa8 5bbe
00000020: 3667 693e 7a7c 0d3d 7fc1 05bd 2ee5 923e
00000030: 1a68 e63e 4496 cb3d 5226 843e a9ca 873e
00000040: 1326 ac3c 11a6 e43d 645b 403b 9978 d53d
00000050: dcbd 70be fc3d 43be e412 17bf 797c 523e
00000060: 65cc 2c3e ccbe 3f3c d8a6 d93d 97bb 45bd
00000070: 6e0a c6bc 2ea8 36be 0405 1a3e 7c28 89be
00000080: 6ea1 adbd a95f 553e 991e 5fbe 8f8a 833c
00000090: 1a78 cebc b256 56bd bae7 46be a294 57bd
000000a0: d71e df3c de3a ebbd 3023 81bd f33c 9e3e
000000b0: 29c2 cc3e fba8 183a 17c6 073e 199f 903e
000000c0: cf3e a93e 0210 27be 417e ce3d bca9 44be
000000d0: b4fe ca3e 995e 77be d048 933e 21c4 7d3c
000000e0: 60d5 d8bd fd88 f93e 6dd9 ec3c 0e89 6a3e
000000f0: dd63 a9bb ec93 73bd 5ac2 aebd c176 513e
00000100: de4c 00bd f37f 703e d65d 7d3e 5aee 90be
00000110: c62e 163e c7e5 0e3d ca6a a2bd cc19 953d
00000120: c40f 1ebe 6f88 0cbe 4ef9 3d3e 132d 843d
00000130: 5bc4 e4bd bd82 4b3e 6fc0 5e3e ba57 483d
00000140: 2af5 6ebd 6a14 d93e 9228 cc3e 8baa 183d
00000150: 77de 4d3d 163b ce3e ac5b 243e de1f 2c3e
00000160: c220 453e b553 9e3e fdee 493e 6da3 af3d
00000170: 0e12 693e cac3 9b3e e16a 263d b7d9 af3e
00000180: 33aa e8bc 7d18 f63d 2a08 df3e 7b08 dabd
00000190: 48d3 263e b789 f7bc b849 a6be 9d50 e1bc
000001a0: 9611 e83d 28b4 0a3e 6ce6 b63d 7bb6 773e
000001b0: 19b0 d1bc cf63 8c3e e61c 053e cf7b 88be
000001c0: 0403 3a3d ef78 fcbe 601b b03d 12c8 873d
000001d0: ddf5 3abc 5c8f 6cbd b395 0dbe dbc6 563d
000001e0: 5406 663e cb77 363e fcff 9cbe 17b7 393e
000001f0: 754f d9bd 0deb 503d b792 8dbe 96e4 263e
00000200: 4ea8 64be 159d 75be 6cdd 403e 864f 8b3d
00000210: 5124 85be 0812 713e 8c00 113d bc49 ac3d
00000220: ab9d 3b3e 94be ca3d 58cb 89bd 22ef cb3e
00000230: eb09 c63e edd1 bd3c 18db fabd 893c ad3c
00000240: bad6 8d3e 274e 99be cc1f 033d 47ba b2bd
00000250: 42ea 6b3e d3b4 4c3e 2039 8b3e b723 0fbd
00000260: 97f4 10bf 21cb 923e e380 12bf 61d8 613b
00000270: 9ad3 0b3f f5c5 523d 47dc 423e 9576 2a3e
00000280: 62f5 5a3e 3fb8 a6be 9774 9c3e c42e f03d
00000290: fea9 663d 4824 0a3e b4f4 28be 9c66 86be
000002a0: 93f8 0cbe 1558 25be 89fa f7bd efb0 36bd
000002b0: b548 483c 0b05 923d 0b61 de3d 3c4a 243e
000002c0: f4c3 d13e 156f d13d 51b5 9d3e bb0f 673e
000002d0: 5a54 d63e 230d 003e f1f4 f53d cb73 833e
000002e0: 21fd 0b3c 940f ce3e 4b04 cc3e e2cc 11be
000002f0: bf4f eabd 7cc9 a83e 01f3 3c3e e169 ba39
00000300: 5beb 9dbd 8ca9 cc3c a049 97bd 453a c33e
00000310: b3cd c03d c4b7 4e3e 48b9 0b3e 706e 16bd
00000320: 582e 903d 2967 5abd 6120 0b3e 4815 fc3d
00000330: 7372 9ebc 4a6d 38be b4a0 c9be 5995 25be
00000340: 0eb7 c63e 2a61 ce3e 3cb1 0d3e 30dd 3cbd
00000350: 7ba9 4a3e 61eb 5e3e dfaf 1f3e 5186 c73d
00000360: 392b 7d3e 9520 453d 1764 2bbe 46ec 41be
00000370: eeb7 053e 04ea 1d3e 5305 4b3d 2798 e3bd
00000380: 8c8d 17be 4780 b93e 387f 40be b092 8b3d
00000390: 982d 4e3d 4956 683e d0ae 3f3c 0be9 2f3e
000003a0: 4a74 e73d 0e19 963d c095 1dbe 8452 f43d
000003b0: 16cc 6dbd 37a7 68be 9348 1c3d ad94 f83d
000003c0: ff52 55bd 6744 e0bd a8a5 b6bd 058d 883e
000003d0: 4139 4d3e 0650 b13e 7df2 743e 38cb b83e
000003e0: 6274 b13e edaf 413e 4f35 a93e c6a3 c03e
000003f0: 44d0 2e3e 93fe 14be 19e8 9f3e 4e22 5b3e
-0.10444278 0.112451196 0.15158007 0.30463123 0.013802988 -0.051097814 -0.046421796 -0.21451019
0.22793278 0.03454254 -0.032655235 0.28690475 0.45001298 0.0994077 0.25810486 0.26521805
0.021014249 0.11164487 0.0029351348 0.10423393 -0.23509926 -0.19066614 -0.590132 0.20555295
0.16874845 0.011703204 0.10627526 -0.048274603 -0.024174895 -0.17837593 0.15040976 -0.267887
-0.08478056 0.20837273 -0.21789016 0.01605728 -0.025203753 -0.052328773 -0.19424334 -0.05263198
0.027236385 -0.114858374 -0.063055396 0.30905876 0.39991882 0.000582352 0.13259159 0.28246382
0.33055732 -0.163147 0.10082675 -0.19205374 0.39647448 -0.2415718 0.2876649 0.015488655
-0.10587573 0.48737326 0.02891227 0.22903845 -0.0051693753 -0.05946724 -0.08533163 0.20455457
-0.031323306 0.23486309 0.24742827 -0.28306848 0.1466628 0.0348871 -0.07930525 0.07280311
-0.15435702 -0.1372392 0.18552133 0.0645391 -0.11170264 0.19874091 0.21753095 0.048911788
-0.058339275 0.42398387 0.39874703 0.037272017 0.050260987 0.40279454 0.16050595 0.16809031
0.19250777 0.30923238 0.19720073 0.08576093 0.22760794 0.30422813 0.04062927 0.3434579
-0.02840147 0.120163895 0.43560916 -0.10646149 0.16291535 -0.030217035 -0.32478118 -0.02750426
0.11331479 0.13545287 0.08930668 0.24190705 -0.025596665 0.27419898 0.12999305 -0.26656958
0.045413032 -0.49311015 0.08598971 0.06629957 -0.011411157 -0.057753906 -0.13826637 0.052435737
0.22463351 0.17819135 -0.3066405 0.1813625 -0.10610858 0.051005412 -0.27650997 0.16298136
-0.22329828 -0.23985703 0.18834466 0.06802277 -0.2600427 0.23542035 0.035400912 0.08412501
0.18321864 0.09899631 -0.06728238 0.3983088 0.38679442 0.02317139 -0.1224882 0.02114703
0.27702886 -0.29942438 0.032012746 -0.08726936 0.23038581 0.19990854 0.2719202 -0.03494617
-0.56623214 0.286706 -0.57227916 0.0034461247 0.54619753 0.051458318 0.19029342 0.16646798
0.21382669 -0.32562444 0.305577 0.1172767 0.05631446 0.13490403 -0.16499597 -0.2625016
-0.13766699 -0.16146882 -0.12108333 -0.04460233 0.012224366 0.07129868 0.10858353 0.16043943
0.40969813 0.10226265 0.30802396 0.22564594 0.4186123 0.12505011 0.120096095 0.2567428
0.008544237 0.4024626 0.39847025 -0.14238313 -0.114409916 0.3296622 0.18452074 0.0003555557
-0.07710906 0.02498319 -0.0738709 0.38130394 0.09414234 0.20187289 0.13644898 -0.036726415
0.07040089 -0.053321037 0.1358657 0.123087466 -0.019341683 -0.1801044 -0.3938042 -0.16170253
0.38811535 0.40308505 0.13837141 -0.04610938 0.19791214 0.21769477 0.15594433 0.09742416
0.2472352 0.048126776 -0.167374 -0.18937787 0.13058445 0.15421301 0.049565624 -0.11113005
-0.1480009 0.3623068 -0.1879853 0.06815088 0.05033645 0.22689165 0.011699393 0.17178743
0.11301477 0.073289976 -0.15389156 0.11929801 -0.05805596 -0.22720037 0.03815515 0.12137733
-0.052081104 -0.10950547 -0.08918315 0.2667009 0.20041372 0.34631366 0.23920627 0.36092544
0.34659106 0.18914767 0.33048484 0.3762495 0.17071635 -0.14550237 0.31231764 0.21399805

Q1.head.0.bias f4 [64]
00000000: 4eb1 8bbd fc96 8a3e 4708 85ba d9e5 b7bd
00000010: 45f3 72be 15e9 3f3d e6b7 9c3e 7b87 553e
00000020: db37 0b3e 5bf0 543d 6b4a 01be 4164 e23d
00000030: 0024 04be 25e6 3abe 54ea 6bbe a843 433e
00000040: e8fb a13e b238 993d 8430 ab3d 9f09 95bc
00000050: 4384 bb3d 7641 a73e 179b 67be 0d11 da3c
00000060: 615c fb3c 973c 8cbc fa30 803e dbce 813e
00000070: 605c c83e 62f5 69bd c0c5 313d 4c3a 4e3e
00000080: 1413 983e 2afe 6abe b3c1 833d 002d 3cbd
00000090: 2a51 a0bc 3a0a 073e 4716 99be b23e 04be
000000a0: 25e1 8b3d 7183 df3d e738 28bd 9060 21be
000000b0: 281c b83e ffa2 e8bd cc22 8d3e 8530 41be
000000c0: 9f50 ebbd 2b6f a63e d5a0 8f3e 446b 4fbd
000000d0: 5f6d af3e fc74 fd3c 75de 543d f99e 073e
000000e0: dda0 883e b6ed 823e 140c 643e da9e 3b3d
000000f0: 0119 aa3e d29e c73d bd7e 863e ba7b 59be
-0.068209276 0.27068317 -0.0010149562 -0.08979387 -0.23725612 0.046853144 0.30609053 0.20852463
0.13595526 0.051987033 -0.12626044 0.11054278 -0.12904358 -0.18251856 -0.23038608 0.19068778
0.31637502 0.07481517 0.08358863 -0.018193064 0.09156086 0.3266713 -0.22617756 0.026619459
0.030683698 -0.017118735 0.25037366 0.2535313 0.39132977 -0.05711878 0.04340148 0.20139426
0.29702055 -0.22948518 0.064334296 -0.045941353 -0.019569952 0.13187495 -0.2989981 -0.12914541
0.06830052 0.10913742 -0.04106989 -0.15759492 0.35958982 -0.11359214 0.2756561 -0.18866165
-0.11489987 0.3250669 0.28052393 -0.050639406 0.3426313 0.030939572 0.051969964 0.13244237
0.2668523 0.25571984 0.22270232 0.04580579 0.332222 0.097470894 0.2626857 -0.21238604

Q1.head.2.weight f4 [64, 64]
00000000: 94ce 85bd 4f4b 60bc 4fcb e7be 87b0 6fbe
00000010: e8f7 2fbe d12c 3fbd b508 3fbc 5beb 083d
00000020: 0f62 bebd 3500 f33c bdf1 a53c 3bc9 47bc
00000030: 3756 e6bd 3455 a0bd 487c 9ebe f006 4e3e
00000040: f192 b4bc f89c b13e 2653 4fbe e634 a83d
00000050: 38a3 43be 49c4 633d 283d 2e3e 2662 9b3c
00000060: f5db 933d 730e 213e 4283 653e 811e e23d
00000070: 9b1d 983b 4f8f 0bbe 253f 893d f4ae db3d
00000080: 578b ce3e 863d dabd 6898 e83d d65e 6f3e
00000090: 7b8c 5e3e 8f79 aabd 943a 093e 5a9f 72bd
000000a0: bbd0 0fbd d1e4 62bd 8149 9f3e c493 233e
000000b0: 56fe f03d e73b 023d f8c0 c23d ca8f ab3e
000000c0: a986 64be 2fc4 e33d e7c9 f63d 748b 863b
000000d0: ed3a 6f3e 20b5 81be 800d f1bc 1ccc 233c
000000e0: 19ca 313d 2af9 033e a763 a03d c7d4 46be
000000f0: a23a d83d cc25 973b 8e08 04bd 6b6d d73c
00000100: e3f9 843d b804 c83d 1897 f8bc d243 2c3e
00000110: 218c 65be 8fac 06be 2595 943d a790 b53d
00000120: c305 b53d b01b 283e e1d8 67bd 23e9 ca3d
00000130: 1c6a 263d fb89 043e b68f 89bd 972a 493e
00000140: 322e 9a3d 4407 b13d fc9d 663b 1711 113d
00000150: a144 e23e c934 273e 3efb 0b3e 55d4 e83d
00000160: e503 3ebd 4425 31bd e4a5 d3bc fce5 cabc
00000170: 1a04 7d3b c84a f53d affc 4c3d e5f7 013e
00000180: 1eef 4cbd 4f72 8bbd 08fc 133d feb9 b43e
00000190: e764 efbd 5aba 8dba 35d6 1abe 42e7 eebc
000001a0: e207 eb3d 4402 f63d 97be 223e 4ead 4fbe
000001b0: 432a e73c 859b 7a3c 83d9 243c 42a9 6f3e
000001c0: 6484 2cbe c4ed 333e c92c 583e 332a 2a3e
000001d0: 2e60 403d 832a 1f3e 0e7b eebd cc97 0b3e
000001e0: 7900 ffbc 1507 d6bb fe01 c43d 0bc3 193e
000001f0: d6a1 4cbd 7b8d 8f3d 1068 7f3d ce62 9abd
00000200: 2f99 243e 8fae 26be 9044 59be db30 da3d
00000210: 7938 8fbe a357 96be d123 f13d 4af6 fcbd
00000220: f613 ab3e d59c 54bd e2ea f1bd ac6d 803e
00000230: b4d6 003b 48c2 61be b1ee cd3d eedf 123e
00000240: 83e2 00bd 146a 083e 00e6 753d 21d6 66be
00000250: 8dc4 d33d 4b6c 243e a7bc 5b3c 1715 8dbd
00000260: 2d48 80be 53dd 96be e3d0 70bd 9b30 d03d
00000270: 10b5 03bd 2d93 43be 6d01 dd3d 583c 6d3e
00000280: 8787 b43c fd24 93be bf83 b6bc 850b 96bd
00000290: 975b 59be 7017 87bd 0203 23be 1fa7 e5bd
000002a0: bc7f b13d 2bbd 163c 1e61 e6be 73a5 48be
000002b0: 1be9 113e 4bcd 0cbd b9fb 813d cc6b 2d3e
000002c0: fb73 6bbe 7121 813d 3b21 d3bd fe17 a43e
000002d0: de78 fe3c d2ec a6bd 6462 29be 47ed 803e
000002e0: 4504 3f3e c427 efbc 8701 b5bd 4743 3abd
000002f0: afb2 ea3d 7bd1 fb3d de9d a73c 2ad8 d1bd
00000300: a8a4 913d 8e09 cd3d 7d80 5cbd 50a2 15be
00000310: 6089 f73e e861 71be 027c 593e 136f 5cbc
00000320: 834e 183e a170 1a3e f76e 123e 121c 2abc
00000330: c30c 663e 9af6 933e 10ad a43d d29d 073e
00000340: cafa 7e3e 1abc ec3d 0c18 6d3d d81e e53c
00000350: 2e49 803c 582c c0bc 98e1 b13c e2f2 ce3d
00000360: eac1 d83d e274 dbbd d562 123e 2b23 4bbd
00000370: 9dcc 8a3e 53d9 003e 067c c5bc 73a4 163e
00000380: 533e 913e 0f50 b23e cc67 ea3c ceeb a43e
00000390: d1c7 b13c dfee 463d d63a 3f3d f5d0 edbd
000003a0: cb1c 9a3c 00b2 e5bd 8a41 9c3e 42b9 613d
000003b0: 8ec6 753e 36b4 53be 2f94 d33d 9cdc 34be
000003c0: ca84 39be 18eb e33d e9c7 813d 12d6 0b3e
000003d0: 953b 503d 3123 2fbd ea92 c93c 977b 433e
000003e0: 8e50 c43d aff3 243e 8de3 40bc cad3 9a3d
000003f0: e647 223e bddb 0f3e 052b 343d e193 293e
-0.06533542 -0.01368983 -0.452723 -0.23407184 -0.17184412 -0.0466736 -0.011659791 0.033427577
-0.09296047 0.029663185 0.020256871 -0.012193973 -0.11246913 -0.07828751 -0.30954194 0.20119834
-0.022042723 0.3469007 -0.20246562 0.082132146 -0.19105232 0.055607114 0.17015517 0.0189677
0.07219688 0.15728168 0.22413352 0.110409744 0.004642201 -0.13628887 0.06701497 0.10726729
0.40340683 -0.10656266 0.11357194 0.23376021 0.21733277 -0.08323967 0.13401252 -0.059234
-0.03511117 -0.055393998 0.31110767 0.15974337 0.11767261 0.03179541 0.09509462 0.3350814
-0.22316994 0.111214034 0.120502286 0.0041059796 0.23362322 -0.253335 -0.029425383 0.009997394
0.043405626 0.12888017 0.07831507 -0.19417106 0.10558058 0.00461266 -0.03223472 0.026297292
0.064929746 0.09766525 -0.030345485 0.16822746 -0.22416736 -0.13151763 0.072550096 0.08865481
0.088389896 0.16416812 -0.056603316 0.099077486 0.040628538 0.1294326 -0.06716864 0.19645153
0.07528342 0.08643964 0.003518938 0.03541669 0.44192985 0.1632873 0.1367006 0.11368624
-0.046390433 -0.04324843 -0.025835939 -0.024767868 0.003860718 0.11977154 0.050045665 0.1269222
-0.050032727 -0.06808912 0.036129028 0.3529815 -0.116891675 -0.0010812983 -0.15120776 -0.029163007
0.11476113 0.12012151 0.15893017 -0.20280954 0.028218394 0.015295868 0.010061624 0.2340441
-0.16847378 0.17571169 0.21110834 0.1661766 0.046966724 0.1554356 -0.116445646 0.13632125
-0.031128155 -0.006531606 0.095706925 0.15015809 -0.049959026 0.07009407 0.0623551 -0.07538377
0.1607406 -0.16277526 -0.21217561 0.1065385 -0.27972773 -0.29363737 0.117744096 -0.123516634
0.33413666 -0.05190738 -0.118123785 0.25083673 0.0019659223 -0.22046769 0.100552924 0.14343235
-0.03146602 0.13321716 0.0600338 -0.22542621 0.103402235 0.16056935 0.013411677 -0.06888788
-0.25055066 -0.29465732 -0.05879296 0.10165521 -0.032155097 -0.19099112 0.107912876 0.2316755
0.02203728 -0.28739157 -0.022279618 -0.07326416 -0.21226345 -0.06596267 -0.15919116 -0.112135164
0.086669415 0.009200375 -0.4499597 -0.19594364 0.14249079 -0.03437547 0.063468404 0.16935652
-0.22993462 0.063052066 -0.103090726 0.32049555 0.031063493 -0.08150639 -0.1654144 0.25181028
0.18653972 -0.029193766 -0.08838182 -0.045474317 0.114598624 0.122958146 0.02046102 -0.10246308
0.07111484 0.10011588 -0.053833473 -0.14612699 0.48346996 -0.23572505 0.21238711 -0.0134542165
0.148737 0.15082027 0.14300142 -0.010382669 0.22465806 0.2889908 0.080408216 0.13243797
0.24900356 0.11559315 0.05788426 0.027968809 0.015659895 -0.023458645 0.021714017 0.1010492
0.10583861 -0.10715653 0.14295514 -0.049594086 0.27109233 0.12582903 -0.02410699 0.1471117
0.28367862 0.34826705 0.028613947 0.32211155 0.021701725 0.04856765 0.04668697 -0.11612121
0.018812558 -0.112155914 0.30518752 0.055108316 0.24001524 -0.20674214 0.10330998 -0.17662281
-0.18117061 0.11128825 0.06336958 0.1365588 0.05083807 -0.04275817 0.024606187 0.19090115
0.09585677 0.16108583 -0.011773002 0.07559927 0.1584774 0.14048667 0.04398634 0.16560318

Q1.head.2.bias f4 [64]
00000000: 63ba 8d3d e0a5 ce3d 9c36 ac3a 414e 1ebc
00000010: c135 343d c1a8 8b3d 2b57 b63c c139 0dbd
00000020: bae3 e13d 7e6e 2d3d c01a 11bd 049d 1abd
00000030: 9615 863d 531c d53c f563 3dbb 2ce3 79bc
00000040: 5971 ee3d 2444 463e d37d 043d 5cdd d13d
00000050: 82ad 633d 52b3 63bd aa87 a13d 587a 1fbd
00000060: 1e6d 423e 7ec2 02bd c1f7 e2bd 46dd ecbd
00000070: fee0 e2bd 2e7d f43d d8b2 ad3c 1989 ab3c
00000080: 4b2e 053e 516d 3b3e f90f abbc 723c 213e
00000090: 477c a73d 4963 5d3d e98d 053e 6669 023e
000000a0: 227b 69bc 7ff2 a63c 9aa7 c53d 0d54 81bd
000000b0: 0fd8 e8bc 4019 c73d aee5 fb3d 1f8f 033e
000000c0: e425 f0bc a75b 933d 740e b8bd 2606 193e
000000d0: cdc9 69bd 49f1 b03d 4b26 133e aebf a33d
000000e0: b551 4a3e ccab d23d 945b b03d 9fa7 8a3d
000000f0: a059 963b 93dc 17bd bc34 3f3d 68e2 d33d
0.06920316 0.10090232 0.0013138833 -0.009662212 0.043996576 0.06819297 0.022258362 -0.034478907
0.110297635 0.0423417 -0.0354259 -0.037747398 0.06547086 0.026014483 -0.002889869 -0.015251916
0.11642713 0.19361931 0.032346558 0.10247299 0.05558539 -0.055590935 0.07887204 -0.038935035
0.18986937 -0.031923763 -0.110824116 -0.11565642 -0.1107807 0.11937939 0.021203443 0.020939397
0.1300594 0.1830342 -0.02088164 0.15745714 0.08178001 0.054049764 0.13042416 0.12735519
-0.014250549 0.020379303 0.09651108 -0.063148595 -0.028423337 0.09721613 0.12299667 0.12847565
-0.029314943 0.07195216 -0.08987132 0.14943752 -0.057077218 0.086397715 0.14370076 0.079955444
0.19757731 0.10286674 0.08611217 0.067702524 0.004588321 -0.03707559 0.04668115 0.10345918

Q1.head.4.weight f4 [18, 64]
00000000: 626d 023e fab8 ed3d d2c2 8ebe 18aa 3bbe
00000010: b995 7d3d 74b6 2bbf 947f f5bd d826 dabd
00000020: b978 843e b1ac 233e f10d a4be 2772 24be
00000030: 6625 3d3d df5b 2dbe 40d0 ca3d 3a3c 78be
00000040: 3e66 af3d 8b6d 173e be20 d1bc f5c5 703e
00000050: ebc4 b03c 283f 883d 8fa6 643d fde9 f43b
00000060: fe43 763e 6d99 d03c 2211 2cbd 4c69 fcbc
00000070: 620d 09bd b55a 143e 4500 91be 0de7 2d3e
00000080: 4751 0ebd b7a2 dfbd 7a3e a83e 0eac afbd
00000090: 13d9 1d3e 2670 c93c 472a 9cbd a397 52bd
000000a0: 8f40 05be 6efe d6bc 2319 3dbd 83a0 f73d
000000b0: 347a 083d 4d90 723e 6b54 7dbe d8ca 55bc
000000c0: b2b6 49be 984c cebd 6b8b 2cbe 2a3b e9bd
000000d0: 3564 7abe ed92 123e 4c10 533e ee31 34be
000000e0: 1270 30bd f943 293e be64 793e 247b e93d
000000f0: b265 d0bd c1bc 19bd a3f2 b6ba 6c51 f63d
00000100: f008 d3bd 69b9 6d3d a20d 8f3e 0d0f 3fbe
00000110: 18ca af3a 2521 273d 8360 8f3d a304 2ebe
00000120: 7cf8 26be 9662 783e 87db 3c3e f979 0bbc
00000130: 996d b73d b8ca 04be f6f3 703e 0029 80be
00000140: d296 e33d d300 233e 7a81 78bd b8fe 053f
00000150: 861a 703e a2ae bf3d 2197 41be 8321 8e3d
00000160: 2df4 65bd 0dd2 de3c 91a2 eabd c1c5 66be
00000170: 495c d23d 5880 29be c1e4 3dbc acac 2a3e
00000180: 1c83 253e ffde 92bd 7510 16be 69ce 5e3e
00000190: 29cd 1dbe 7047 44be a84d 2ebe 86e5 40be
000001a0: b4c7 22be 8d30 c9bd 8654 103e 20e7 a2bd
000001b0: d783 b2bd 014e 99be b026 c93d ae07 863e
000001c0: e412 2fbb 9a53 eebb f68d 27be 7ed2 f33d
000001d0: 6b0f 7abe de7c 653e 901b 9cbe 6493 70be
000001e0: 6fd2 16be 7d1f c03e 8b2d 363e a1aa 2a3e
000001f0: 12e1 6fbd 48a8 46be 6655 b1bd ae41 b43d
00000200: 7028 32be 0dee 023e ee64 25bd 23fb f6bd
00000210: d5a7 22be e1f6 783e bcdb 3abe dfb4 a5bd
00000220: 498d cfbd 4335 3f3e 5425 663e 6b78 86be
00000230: 74bf 8bbd 13ea 38be 539f b73d eb70 2a3b
00000240: f755 04bc 7966 203e fadb 873c f5a0 083c
00000250: 6e6e 043e 16b0 90bd ecb6 f63d 916e 23bd
00000260: f02d 403d 90b6 fbbd 004b d8bc 5d88 76be
00000270: f756 23be 3c7a 6b3e cd75 84be ddf4 463b
00000280: bf8d 353e de72 b7bc bb47 7fbd d8c4 603d
00000290: 0233 c3bc 92be 3c3d 8280 c83d 2173 93be
000002a0: c779 17be 57ab c73c e302 353d 313d c8be
000002b0: 8ab7 8abe 5186 613d 4f71 3c3d d236 3f3e
000002c0: a8e1 3fbe d51f 743d e4ed 9ebd 5fa2 c23c
000002d0: 3209 1ebe f64a 843e 676c 3f3e 6478 6cbe
000002e0: 9ffd e13e 8742 b93d 7fbe cd3d d1f5 1cbd
000002f0: b505 cabe 9ce3 38bd 7fc8 543e 0ab1 573e
00000300: ace2 083d 1b05 64be e2e3 e33d 5f4f ab3c
00000310: e0be 4a3d 4aa3 b33e e8a2 efbd 7221 e7bd
00000320: b3d9 53be 5a21 c43d e6f0 e53d 0fb7 84be
00000330: 8be3 3c3e 9274 02be 13df a43d 3387 21be
00000340: 3256 db3c e3b3 833e 781a 03bd 5542 7a3d
00000350: ecf3 9dbd b26f cb3d 9970 b8bd dcf1 9abd
00000360: 1d91 7e3e e8ae 1a3d c0a8 383d 8308 38bd
00000370: 3fac 80be f09c af3d 4888 7dbe f1e8 773d
00000380: 49ef ce3c e1aa 09be 7de7 4c3e 0998 1b3e
00000390: ae9d 8fbd c85d f93d 8682 0dbe d454 f33d
000003a0: cb7f 51be 3e07 a5bc f768 643d f533 18be
000003b0: 8c4e 71bd 8850 8dbd 9317 e93c d5e0 e03d
000003c0: 4aea e3bd c3d5 04bb 0738 dcbd 24ae 713e
000003d0: 8462 42be e418 aebc ea36 05bd 95b1 2f3d
000003e0: ab15 593e bd9d 973d afe6 b03d 179a d8bd
000003f0: a2df fdbe 7a59 37be bcaf 903e 4cca 00bd
0.12737039 0.11607547 -0.2788301 -0.18326604 0.061910365 -0.67075276 -0.11987224 -0.1065194
0.25873354 0.15983845 -0.32041886 -0.1605917 0.046178244 -0.16929577 0.09903002 -0.24241725
0.08564423 0.14787881 -0.025528308 0.23513015 0.021578273 0.06652671 0.055822905 0.0074741826
0.24049374 0.025463784 -0.042008527 -0.030811928 -0.03346003 0.14487727 -0.28320518 0.1698267
-0.03474548 -0.10919707 0.32860166 -0.08577739 0.15414838 0.02458961 -0.07625251 -0.051414143
-0.13012908 -0.026244368 -0.04616655 0.12091162 0.033319667 0.23687859 -0.24739234 -0.01304885
-0.19698599 -0.10073203 -0.16850059 -0.11388238 -0.24452288 0.1431386 0.20611686 -0.17597172
-0.04307563 0.16529836 0.24354836 0.1140044 -0.10175647 -0.037533525 -0.001395781 0.12027249
-0.10304439 0.05803815 0.2794009 -0.18658085 0.0013411669 0.040803093 0.0700083 -0.16993956
-0.16305727 0.24256358 0.18443118 -0.008512967 0.08956451 -0.12967956 0.23530564 -0.2503128
0.11112751 0.15918283 -0.060670353 0.52341795 0.23447618 0.093594804 -0.18905307 0.069399856
-0.056141067 0.02719977 -0.11456788 -0.22536375 0.10271508 -0.16552866 -0.011590184 0.16667432
0.16163296 -0.071714394 -0.14654715 0.21758427 -0.15410294 -0.19167876 -0.17021811 -0.18837556
-0.15896493 -0.098237135 0.14094743 -0.0795424 -0.08716553 -0.29942325 0.09821832 0.26177734
-0.002671414 -0.0072731497 -0.16362748 0.119053826 -0.24419944 0.22410914 -0.3048978 -0.23493725
-0.14728712 0.37524024 0.17790811 0.16666652 -0.058564253 -0.19400132 -0.086588666 0.0880159
-0.17398238 0.12786122 -0.040379457 -0.12059619 -0.15884335 0.24312927 -0.18247885 -0.08091139
-0.1013437 0.18672661 0.22475177 -0.26263747 -0.06823626 -0.18058042 0.089659356 0.0026007246
-0.008077136 0.1566409 0.016584385 0.008339156 0.1293275 -0.07064836 0.12046608 -0.039900366
0.04691881 -0.122906804 -0.02640295 -0.24075456 -0.15951143 0.22995847 -0.25871125 0.0030358352
0.17729853 -0.02239364 -0.062324267 0.054875225 -0.023828033 0.04608018 0.09790136 -0.28798774
-0.14792548 0.024373693 0.044192206 -0.39109185 -0.27093154 0.055059735 0.046006497 0.18673256
-0.18738425 0.05960067 -0.07760218 0.023759065 -0.15433195 0.2583844 0.18693696 -0.230928
0.4413881 0.09045892 0.100461 -0.038320366 -0.3945748 -0.04513894 0.20779608 0.21063629
0.033419296 -0.22267573 0.111274496 0.02091187 0.04949844 0.35085517 -0.11700994 -0.11285676
-0.20688514 0.09576674 0.11227588 -0.25920913 0.18446176 -0.1273978 0.080503605 -0.1577423
0.0267745 0.2572318 -0.032007664 0.061098415 -0.0771254 0.099334136 -0.09005851 -0.07565662
0.24860044 0.03776446 0.045082808 -0.044929992 -0.25131413 0.08574855 -0.24759018 0.060524885
0.025260584 -0.13444091 0.20010181 0.15194716 -0.07012497 0.121760905 -0.13819322 0.11881414
-0.20458905 -0.020145055 0.055764165 -0.1486357 -0.0589128 -0.06900126 0.028453624 0.10980383
-0.111286715 -0.0020269013 -0.10752874 0.23601586 -0.18982893 -0.021252103 -0.032523073 0.042893965
0.21199672 0.07403133 0.086377494 -0.10576265 -0.4958468 -0.17905226 0.28259075 -0.031442925

Q1.head.4.bias f4 [18]
00000000: 644e e3bd 36b8 b1bd 2fc5 503d 8598 ee3d
00000010: 0def 49bc 21e5 f33d bec2 253e f871 e13d
00000020: 37ff 4f3d bfe0 0bbd e1b5 f3bd 4c64 ae3d
00000030: ddcb 003e 5b03 a33d 4262 f4bc de41 be3d
00000040: c8ed 9eb9 90d0 f0bd
-0.11098936 -0.086777136 0.0509693 0.116501845 -0.012325061 0.11908937 0.1618757 0.11008066
0.0507805 -0.03414988 -0.11899925 0.08515224 0.12577768 0.079596244 -0.02983201 0.09289907
-0.0003031327 -0.1175853

Q2.head.0.weight f4 [64, 18]
00000000: 4381 193e 850a 123e b923 fd3d 31e2 443d
00000010: 4741 713d b509 5a3e e3f2 c93d 8ba4 dbbd
00000020: 52e0 873e 4c88 b03e 6212 473c d662 02be
00000030: 7351 18be e794 f7bd 437c 00be 6500 19be
00000040: 2495 673c 88c8 583e 4de4 5fbd 6f55 873d
00000050: 1b14 503e b8f6 8dbd 4aa3 a03e 5846 213a
00000060: 812e 013e bf46 73bd c9c7 e8be c32a 9fbd
00000070: 6fc8 e13d f947 593e a4ad 813e 9699 e33e
00000080: f532 803e 224d b33d 2e5f be3e 43e2 e63d
00000090: 7a5a 283c 94ad 3dbe d62b a83d 9bb6 dbbd
000000a0: 728d 53be 753d b63d 5da5 e3bd 1b94 ed3d
000000b0: 0329 77bd 3104 b4bd ddcc 183d 4e37 fc3d
000000c0: ae86 37be 184e e83e e631 b73e e049 863c
000000d0: bd6c 9bbe 9ee3 ccbd cc0b 503e a0e0 1dbd
000000e0: 9e6d 32be 720f d03d d422 c8bd 8f1a 753e
000000f0: 397b 723d c8f4 88bc b2e3 b83e be3f a7bd
00000100: 2c9f b0bd 0dd8 7d3e 98c2 b5bd 9959 903e
00000110: 40bd 473e cd84 523e 67ac 3cbe 6ae8 b73e
00000120: a888 dbbd 487b 03bd 305a bd3e a97b e3bd
00000130: 84ee b63e db67 803d 3046 ecbd 1579 913d
00000140: 9aae 9dbe 2b16 563e abdb 883e 2248 3f3e
00000150: 7c5b 6f3c fee9 973e 8289 9c3e faa6 913e
00000160: 77a7 813e 8d63 ba3e 9eb4 5d3e 2c03 293e
00000170: 9b46 ecbd 8a47 b63e 029c c83d ed34 09bd
00000180: 6f40 3f3e c367 8cbd 56e0 50be 8914 723d
00000190: 954d 623e 87fa d83e b1a6 763d e992 583e
000001a0: c705 e63e 4973 4a3e cb28 fa3d 0ed6 1e3d
000001b0: ef6b 46be 523d 61bc 2252 803e 753e 753d
000001c0: 003b bbbe a9f4 9cbe 30fb 1cbe 86da 71bd
000001d0: 178d d9bd 36d8 c4be 1449 d13e 90fe a2be
000001e0: 3902 753e f272 60be b247 93be 8ffc 17bd
000001f0: 1d3b 0e3c bbfd 86be bf83 eabe e765 283d
00000200: d373 4d3d 3b96 efbd 6dbe 31be 3e7d 68bc
00000210: eb67 af3e 06f2 57be 0c3f 7dbd 42a6 853e
00000220: 4282 133e fc75 833e 45bd ef3d f8bc fc3d
00000230: 0d63 953e f484 1cbe ff53 0c3d 53c3 6ebc
00000240: c0ca 11be a9e3 ae3e 1a03 923e 178a ae3e
00000250: f416 a23e 1cf3 6c3e 2fe0 873e b9d9 ec3c
00000260: fdf6 6d3d f659 8b3e 721e 123e d441 cd3e
00000270: af7a 0d3e f603 bcbe 7b09 173e f209 ce3e
00000280: 7fc8 853e c9ae 703e ebd4 843c cd9b e63d
00000290: 846b 49bd cc9c 3dbd 152e bbbc 1d78 b23d
000002a0: 3b54 81be 1f25 253c 6f04 e93e 1707 b93c
000002b0: 35b0 7b3b 1aec 0a3c ea31 22bc 9276 34be
000002c0: 99c3 4dbe a41e 123e 054c 2f3e 241e d03d
000002d0: 0bfb 7f3d 9008 63bd 2730 1d3e 796e a83e
000002e0: bafc 41bd 66ab 033d ac11 3d3e 0aa9 97bd
000002f0: c1df 61bc 092f 533e 035e 6f3e 9b10 a43c
00000300: c318 953d ea72 be3e bbc8 333e 034c af3e
00000310: 074e ad3e c913 a43e b3ac 45be c368 4abd
00000320: 7d55 113e a4e9 373e 5590 5fbe 12d4 99be
00000330: 89d7 3dbd fa85 9e3e fb97 083c cff1 853e
00000340: 4aac 083e 0a37 fc3e 6adf 813e fbba ac3e
00000350: b557 183e cdd8 d13e 8776 813e e2ec 393e
00000360: 799c b53d f9fb 99bb 1791 06bd 0e7d 2dbe
00000370: 00d2 83bd 2c9e 85be 6625 203e 231f 7f3e
00000380: 4fa7 4a3e 5d1b 0b3d 9a7c 03be 9a68 0ebf
00000390: cf02 60be 8d91 44be d65c f2be aced b53c
000003a0: f6b9 0dbe 4d41 193e c068 873e 5bfd db3d
000003b0: b771 c2bc 9874 983e d604 37bd 8768 513e
000003c0: 1bc5 5b3e e547 903e d069 07bc ee2a 813e
000003d0: c4c6 40bc 9b72 a8bd 892c 6a3e e3a2 3e3e
000003e0: dd65 923b 8879 d7bc edb8 28be cd13 853e
000003f0: 9920 56be a6f2 fa3c 5c9f 043e 97e7 28be
0.14990716 0.14261825 0.12360329 0.048067275 0.058900144 0.21292765 0.0986078 -0.107247435
0.2653833 0.34478986 0.012150379 -0.12733015 -0.1487482 -0.12088948 -0.12547402 -0.14941557
0.014134679 0.21170247 -0.054661084 0.06608092 0.2032017 -0.069318235 0.3137458 0.00061521446
0.12615396 -0.05939364 -0.45464924 -0.07771828 0.11024558 0.21218862 0.2532779 0.44453114
0.25038877 0.08754946 0.3718199 0.11273625 0.010275478 -0.18523246 0.08211486 -0.107281886
-0.20659426 0.08898441 -0.11115525 0.116005145 -0.060341846 -0.08789862 0.037304748 0.12315236
-0.1792247 0.4537208 0.35780257 0.016392648 -0.30356398 -0.10004352 0.20317 -0.038544297
-0.17424628 0.10159196 -0.09772268 0.23935913 0.059199546 -0.016718283 0.36111218 -0.08166455
-0.086241096 0.24789448 -0.088750064 0.28193358 0.19505787 0.20558472 -0.18425141 0.35919505
-0.107194245 -0.032099992 0.3698287 -0.11107571 0.35728848 0.06269809 -0.11536825 0.07103173
-0.30797273 0.20906894 0.26730093 0.1867986 0.014609214 0.2967071 0.3057366 0.28447706
0.25323078 0.36404076 0.21650931 0.16505116 -0.115369044 0.35601455 0.09795381 -0.03349774
0.18676923 -0.068557285 -0.20398077 0.059101615 0.22099908 0.42378637 0.060217563 0.21149792
0.44926283 0.1977054 0.12214812 0.038778357 -0.19377111 -0.01374753 0.25062662 0.059874017
-0.3656845 -0.3065541 -0.15330195 -0.05904629 -0.10622614 -0.38446206 0.40876067 -0.3183484
0.23926629 -0.21918848 -0.28765637 -0.037106093 0.008681086 -0.26365456 -0.4580364 0.041112807
0.050159287 -0.11698576 -0.17357798 -0.014190016 0.3425897 -0.21088418 -0.061827704 0.26103407
0.14405158 0.25675952 0.11706022 0.123407304 0.29177132 -0.15285093 0.034259792 -0.014572936
-0.14237499 0.34158066 0.2851799 0.3408973 0.31658137 0.23139614 0.26538226 0.028912412
0.058096875 0.27217072 0.14269426 0.40089285 0.13816331 -0.36721772 0.1474971 0.40241963
0.2612953 0.23504175 0.016214808 0.112601854 -0.0491748 -0.04629211 -0.022849122 0.08714316
-0.25259575 0.010079651 0.45511195 0.022586389 0.0038404588 0.008479143 -0.009899596 -0.17623356
-0.20094146 0.14269501 0.17118843 0.10161999 0.062495273 -0.055428088 0.153504 0.32896784
-0.04736016 0.03214588 0.18463773 -0.074052885 -0.013786257 0.20623411 0.23375706 0.02002745
0.072801135 0.37197047 0.17557041 0.3423768 0.33848593 0.32046345 -0.19304161 -0.049416315
0.14192767 0.1796022 -0.21832402 -0.3004461 -0.04634813 0.3096159 0.008337016 0.26161048
0.13346973 0.4926074 0.25365764 0.33736405 0.14877208 0.40985718 0.25285742 0.1815677
0.088677354 -0.004699227 -0.032853212 -0.16942236 -0.06436539 -0.26097238 0.15639266 0.24914221
0.19790386 0.033961643 -0.128405 -0.5562836 -0.21876071 -0.19196148 -0.47336453 0.022208057
-0.1384047 0.14966317 0.26447105 0.10741683 -0.023735864 0.29776454 -0.044682346 0.2045003
0.21461909 0.2817985 -0.008264974 0.25228065 -0.011766139 -0.08224984 0.22868551 0.18616824
0.0044677095 -0.026303068 -0.16476794 0.2599167 -0.20910873 0.030633282 0.12951416 -0.16494595

Q2.head.0.bias f4 [64]
00000000: dd64 7f3d 10ab e03d 6992 d33e 086d d6bd
00000010: 4702 1b3e a5dd 5ebd 604a 1f3e fbf5 c33e
00000020: 79ee 6fbe 29c0 173d df2a 4fbe 890f 0dbd
00000030: fd96 923e 3343 f8bd 1417 913e c85e 7d3d
00000040: ded8 833d 0714 33bd 18af 66bd f1da 903e
00000050: 550e 4f3e 5db0 0b3e 842d 96bc 866e 8b3e
00000060: f018 5bbe 98bf b73e b864 05bd 311b 4d3e
00000070: a377 12ba 1cab a43e 06c0 443e ddb1 d5bd
00000080: 7e01 563d 80e0 d93e 1171 553e 9bfd 493e
00000090: f157 29be 4749 cdbd a110 8d3e 9455 1b3d
000000a0: 0056 8a3e 03d0 a33e 71d3 d03e c9e5 af3e
000000b0: a988 c53d f473 c13e 64f7 85bd 9b91 ac3e
000000c0: 26ec b03c b031 5c3e 6a93 523e 6259 5e3e
000000d0: 7c68 5bbd f73c c83e 3ef8 873d 362f 42be
000000e0: bace b73e 01db 46ba b0b2 3d3e 57c7 e3bd
000000f0: 3f28 5e3e 98df 873e dbec 32be 4e46 9dbd
0.06235205 0.109701276 0.4132264 -0.10470015 0.15137587 -0.054410595 0.15555716 0.38273606
-0.23430814 0.037048493 -0.20231198 -0.034438644 0.2863082 -0.12122192 0.2833792 0.06185797
0.064378485 -0.04372027 -0.056319326 0.2829204 0.20220311 0.13641496 -0.01833225 0.2723276
-0.21396232 0.35888362 -0.032566756 0.20029904 -0.0005587285 0.32161796 0.19213876 -0.10434315
0.052247517 0.42554092 0.20843913 0.19725649 -0.16537453 -0.10023742 0.2755175 0.03792341
0.27018738 0.31994638 0.40786317 0.34355 0.096452065 0.37783778 -0.06541327 0.33704838
0.02159698 0.2150333 0.20564047 0.21713784 -0.05356644 0.39109012 0.06639145 -0.18963322
0.35899907 -0.0007585735 0.18525195 -0.111220054 0.2169504 0.26537776 -0.17473166 -0.07679425

Q2.head.2.weight f4 [64, 64]
00000000: e2df 6c3d dec4 543c eb16 0abe 46c3 dc3d
00000010: 927e 6d3d 800a aabd 0562 0ebe 8282 21be
00000020: 91a2 a03d 0c68 923e 1b05 a03e db25 403e
00000030: e96d 253e 24e7 873d c823 60bd b1fc d93d
00000040: 1e79 813e 7028 cc3d 410c 753e e85d 72bd
00000050: f635 cf3d b0dc 543c f55b 573e 5c3f 1bbb
00000060: 5b12 c43e 46f2 5e3d 6892 ca3d 5320 e13c
00000070: d89d 8bbc 353a 5a3d 0169 97be ca27 dc3d
00000080: b133 0a3e dfe5 98bd c71d 7c3c 1998 a83c
00000090: 8cf6 633e e4fe 613e 5318 dfbd 4a70 903d
000000a0: d2c4 fcbd a4c7 09b9 d167 e0bd 2db7 cdbd
000000b0: 4aa0 573c 3dc0 e3bd f76b 61be 0ec3 7abd
000000c0: 9657 963e 173f 3f3e 93b8 233e 7593 a0be
000000d0: ff99 19bc bc49 d6bd b5be 9a3d 4845 933d
000000e0: 0ba3 c5bd ad08 6ebd 0684 aabb 197a 1e3e
000000f0: 2cea b9bd 47d0 20bd e464 973e 8b8c 453d
00000100: e313 eb3d fa75 dc3d 2119 2bbe 28d1 603e
00000110: 512c 383e a32d 8e3e 4e53 67bd 36bc a4bd
00000120: 7c18 eb3e 2f8d 93bb f6d3 b63e 265f ca3d
00000130: d33f bfbe 62e7 193e 003e f9bd 3571 74be
00000140: 7776 1f3d eef9 2e3e 4e73 3d3e 393e a13d
00000150: 7e40 0bbc 9dd3 903e 0d92 3b3e b24f 83bd
00000160: 8e14 403e 7194 c0bd f110 af3e 0a7a 68bd
00000170: bbec 853e b3ff 54bd f23e dfbd 4790 813d
00000180: b2f6 d2bb e353 08be e2d3 1f3d 2aac 363e
00000190: c4f6 773e b614 3b3e 9025 a1bd d863 80bd
000001a0: a489 003e f114 96be c0ce 7bbe ab34 9abc
000001b0: faaa 773e 901f 83be e2d8 31be 44b3 f93c
000001c0: 2bfb 2d3e 411b 253d f707 f2bb a4e6 dc3a
000001d0: c06c 433e 8ef9 97be fc60 f1bd 25c8 953e
000001e0: 768b 80be ec22 be3d f020 7d3d d90a ea3e
000001f0: b432 013e 8250 c6bd 0573 b93e 831d cd3e
00000200: 8ff9 8fbc cdfb 8fba 773f f1bd 5740 05bc
00000210: 0d97 23be 3b09 43bd 3201 2c3d f853 933e
00000220: b237 9bbc 1497 9f3d 1b74 dc3d 38a1 873d
00000230: cb8c c13d e59a 0a3e 106a 0c3d b981 0abe
00000240: ba9c ec3d 10dc 8fbd 9f0d 653d caee 523e
00000250: 1f82 ea3d 61cb 193e 6385 003d 5e1a 453d
00000260: 3090 073e 654b 633d ab0b 5dbc cee7 e7bd
00000270: ba8b 4abe 8f23 b03d d6e1 ac3e 6116 9ebd
00000280: 9265 0cbe 0681 c9bd 7112 233e 3756 de3d
00000290: cd5c df3d 6d6d f33d bbab f6bc eb04 06bd
000002a0: 73d5 4d3e c4c5 373e bf2c fcbb a57f bbbc
000002b0: 7816 1ebc c158 5a3d f0cf 18bd c474 933d
000002c0: 15a2 383e e6f1 793e 54ec 573e a582 32bb
000002d0: dec8 2b3e fb62 543d 0398 9ebb 13ba 183e
000002e0: bf65 c73d 1ee3 23be 2fdd 81bd 3bf4 853d
000002f0: 88c3 9e3e 48da 3e3e 51e2 64be 0184 62bd
00000300: 3a2c 42bd 0254 563e 63b8 39bd f940 653e
00000310: 287e 913e 0adc c23e 40bc 31be ef55 5ebe
00000320: 198a 303d 5da4 efbd 0009 e93e 7283 273e
00000330: 3982 3bbe 2efa d23d 5b60 22be bfc9 083e
00000340: e0b0 37bd a5cd a8bd c440 2c3d 5810 83bd
00000350: f7cd 323d d9b4 1a3d 154d 663e 3775 91bc
00000360: ebbe f33e f532 06bd 7e93 123d ac96 bd3d
00000370: 61f0 813e 3fbc 2d3d a161 28be 4379 973d
00000380: df08 133e ca26 a6bd f2d0 fabc 411f e93d
00000390: 9972 a33e 785a 843e 0dab b93c 8a7d 1c3e
000003a0: d48a f6bd 3add 35bd b161 35bd 138f e4bd
000003b0: 5197 0b3e 36d7 12be c0c5 193d c079 683d
000003c0: 84f0 a93e 6ba6 813a 177a 0e3d c3f3 a1be
000003d0: b26c 253e ee16 94be 5189 2cbe f30e 183c
000003e0: d9e5 bcbd 3f42 223e 17a2 ffbd 7622 ef3d
000003f0: d353 293d 065c 27be 47e9 913e 459b e33d
0.0578307 0.01298639 -0.13485305 0.10779433 0.057982035 -0.08302784 -0.13904579 -0.15772441
0.07843507 0.28595006 0.31253895 0.1876444 0.16155209 0.066358835 -0.054721624 0.106439
0.25287718 0.0996865 0.23930456 -0.059171587 0.10117714 0.012992069 0.21031173 -0.0023688888
0.38295254 0.05443027 0.09891206 0.027481234 -0.01704304 0.053278167 -0.295723 0.10749777
0.13496281 -0.074657194 0.015387959 0.020580338 0.22262019 0.2206989 -0.10893311 0.070526674
-0.12342228 -0.0001313971 -0.109573014 -0.10044704 0.0131607745 -0.11120651 -0.22013842 -0.061221175
0.29363698 0.1867641 0.15988378 -0.313625 -0.009375094 -0.104632825 0.07555906 0.07190949
-0.096502386 -0.058113743 -0.0052037267 0.15476264 -0.09077868 -0.03926113 0.2956916 0.048229735
0.114784025 0.1076469 -0.16708805 0.21954787 0.17985655 0.27769193 -0.05647593 -0.08043711
0.45917118 -0.0045029144 0.35708588 0.098814294 -0.37353382 0.15029672 -0.12170029 -0.2387131
0.038931336 0.17087528 0.18501016 0.07873196 -0.008499263 0.28286448 0.18317433 -0.06411685
0.18757841 -0.09403313 0.34192613 -0.05675701 0.26157174 -0.052001666 -0.10900678 0.06326347
-0.0064381 -0.1331325 0.039020427 0.17839113 0.24215227 0.1826962 -0.078684926 -0.06269044
0.12552506 -0.29312852 -0.24590588 -0.018823942 0.24186316 -0.25610018 -0.1736789 0.030480988
0.16990344 0.040309194 -0.0073862034 0.0016853404 0.19084454 -0.29682583 -0.117860764 0.2925426
-0.251064 0.092840046 0.06179899 0.457114 0.12616998 -0.096833244 0.36220565 0.40061578
-0.017575053 -0.0010985077 -0.11779683 -0.008133016 -0.1597559 -0.047616225 0.041993327 0.28775
-0.018947456 0.07792488 0.10764333 0.06622547 0.09450682 0.1353565 0.034280837 -0.13526048
0.11553331 -0.070243955 0.055921193 0.20598903 0.114506 0.15018989 0.031377207 0.04812085
0.13238597 0.055491824 -0.013491551 -0.1132351 -0.19779864 0.08600532 0.3376605 -0.07719112
-0.13710621 -0.098390624 0.15925004 0.10856288 0.10906372 0.11886106 -0.030111184 -0.032719534
0.20100956 0.17946535 -0.007695764 -0.022888014 -0.009648912 0.0533073 -0.03730768 0.07200006
0.1803058 0.24408683 0.21086246 -0.0027238515 0.16775844 0.051852208 -0.0048398986 0.14914732
0.097362034 -0.16004607 -0.063410155 0.06540724 0.31008554 0.18637955 -0.22351958 -0.05530167
-0.04740546 0.20930484 -0.04534186 0.22388066 0.28416562 0.380585 -0.17356968 -0.21712469
0.04310045 -0.11701272 0.4551468 0.16358736 -0.18311395 0.10301624 -0.15857069 0.1335821
-0.044846416 -0.082423486 0.042053953 -0.06399602 0.043653455 0.037770126 0.22490342 -0.017756088
0.47606596 -0.03276344 0.03578519 0.09257254 0.25378707 0.042415854 -0.16443492 0.07396176
0.14358853 -0.08112867 -0.030617211 0.11382914 0.3192337 0.25850272 0.022664571 0.15282264
-0.12038198 -0.04440043 -0.04428262 -0.11160102 0.13631941 -0.14339909 0.037542105 0.056756735
0.3319131 0.0009891515 0.034784403 -0.31631288 0.16154745 -0.28923744 -0.16849257 0.009280908
-0.092235275 0.15845583 -0.12482088 0.11676495 0.041339707 -0.16343698 0.2849829 0.111136

Q2.head.2.bias f4 [64]
00000000: ac54 e5bd 8fe9 0abe 029d 223e 8a95 8b3d
00000010: 7c34 603e 8364 e53b 4c9a f3ba 4b30 2e3e
00000020: 307c ea3d 2235 0d3d d895 3f3e c669 083d
00000030: 6f76 02be 4796 283a 8897 3f3c 73fe cd3c
00000040: 37d5 233e 47c2 843d 1007 2d3d 171a bebd
00000050: d503 ab3c 27d2 2b3d 5028 adbd 69e7 0a3e
00000060: 3b3c 33bc 9210 3bbd 5cb1 e7bd c0c6 323b
00000070: c073 763d d593 a23c 339e 3dbd 2eaa ea3b
00000080: c9ef 6cbc 1b7d 563e 37db c53d ce5e 0b3e
00000090: 212e 52bd f102 8f3c 6dad 253d ad68 39bc
000000a0: 02df 373e 0958 84bc b3e3 d5bd c75e cebd
000000b0: 513f 96bd cbda 313e 454d 50bd dbb5 d7bb
000000c0: 66de 2e3d 88c2 c83d f68f 4ebe 4e79 173d
000000d0: e270 133d 5349 d9bd 1807 20bc 9e95 ad3a
000000e0: a17b 4ebd dcd0 383e 5f17 993c 37a6 c53c
000000f0: c258 25bb 262d e13d c2d6 403e 10a4 b73d
-0.111977905 -0.13565658 0.15880206 0.06815632 0.21895021 0.0070005073 -0.0018585413 0.1701061
0.11449468 0.0344745 0.18709505 0.033304 -0.12740491 0.00064310845 0.011693843 0.025145745
0.15999304 0.06482368 0.042243063 -0.0928232 0.02087585 0.041948464 -0.084549546 0.13564838
-0.010939653 -0.0456701 -0.113131255 0.0027279109 0.06016898 0.019845882 -0.04629345 0.0071614003
-0.014461466 0.20946161 0.096609525 0.13610384 -0.051313523 0.017457457 0.040448595 -0.011316461
0.17956164 -0.01615526 -0.10443821 -0.10076671 -0.073362954 0.17368619 -0.05085494 -0.006582958
0.042692564 0.09802729 -0.20172104 0.03698092 0.035996325 -0.106096886 -0.009767316 0.0013243442
-0.05041087 0.18048424 0.018687902 0.024127109 -0.0025229906 0.109949395 0.18831924 0.08966839

Q2.head.4.weight f4 [18, 64]
00000000: af15 34be d3c7 36be fb2c 0abe c110 b8be
00000010: 6851 953d 7a68 1abe c87c 1a3d 06b9 093d
00000020: 8b32 abbb 71d6 8a3d cad7 b2bd ad87 513d
00000030: 1e6f 0cbf 35fa f8bc 459d 1b3e 3c8a fdbd
00000040: 82bb 2c3e 9c98 3fbe b87b 11be 0842 dcbe
00000050: fd61 4fbe 30c2 e4bd be70 cdbd 55a9 5e3e
00000060: 4b35 3cbe 5886 5fbd f166 303c 2612 4a3d
00000070: 5d48 1d3e 384a 89bd 7334 673e e8d9 ae3d
00000080: 2e64 643e 5e26 5b3d f9a2 593c 48b6 4c3d
00000090: 1dee 9ebb 8344 193e 0686 3abe d376 a0bf
000000a0: f2ab 87bd 705b 15bd 881b 913c 2799 123d
000000b0: 126f ccbd 0a8b 753d be4a e73c 4aff 65be
000000c0: 0be2 753e 5660 7dbd fef8 a43c 4185 67be
000000d0: 357f 72bc 8f26 03bd bb57 053e fba2 453e
000000e0: b10c a5bd 322c 9ebc 54f3 5b3e 521d 4e3e
000000f0: 31fd d93b 861e 17be fb21 e03d 3224 f0bd
00000100: 69fd 0f3d 08e0 a9be bb88 42be 291c 5d3e
00000110: ff56 863d 3cc4 573d da3c 32be b743 79bd
00000120: e757 c33c 1af9 cf3d c1b5 363d 083b 573d
00000130: 870a 1dbe 7851 ba3d f408 86bd 4b3d ccbd
00000140: 41c6 ec3c 4a59 e6bd da96 4bbd 1f4e 10be
00000150: cba4 43be 5d94 b3bd 8ba2 2cbe ec5c 053e
00000160: aae0 aabd eade 77be 72b0 d83d 222f 3dbe
00000170: ac52 48be 47ee 75bd 8806 2c3e 7ee0 60bc
00000180: c743 5d3e ec5d 07bc c927 99be 0d32 283e
00000190: 6de6 1d3e e2a6 543e a746 0cbd 101b efbc
000001a0: 6def 303e e678 5b3c 33d7 efbe 4f1e 0fbc
000001b0: 4a4d bebd 0a54 9c3d c76c d7be 156d b7bd
000001c0: 93e8 c03d e002 0e3e fa37 a53d 944f 923e
000001d0: 96d5 913c cfb5 efbd bec8 233e 8ab5 6dbe
000001e0: eb4a 1f3e 7f15 7e3d fef9 17bc d637 123e
000001f0: 5dbb 14be 74cc a13d 282a 373d 8c5a 4b3d
00000200: d6c1 2bbe a9ae 863b c92c 0b3e 8808 00bf
00000210: 92e6 15bd 1271 953d 7fbd 01be 39ff f83d
00000220: 7048 8a3d 1bac 893d 275e 143e e5cc 393e
00000230: dcb6 28bc 2aca 67bd c44a febd 9bb7 90bd
00000240: f9c9 0e3e a479 9abd 8001 01be 2216 f93d
00000250: 2938 33be 007d 9cbd fdae 32bc 375c b13d
00000260: 4559 cebc d9a1 45be d3d3 c53c 4d87 debd
00000270: 5aa4 1dbd de22 123e 242e ce3d 25c1 22be
00000280: 33ac fcbd c0f9 2dbe c6ec abbd a728 e73d
00000290: 3a14 d73b 0b71 103d 2e97 b0be 3f73 a63e
000002a0: 8f51 8c3d 2df1 27be 2630 ea3d bb25 cebd
000002b0: 4854 8dbd 0a4f 373e 2a41 d5be dcba d73b
000002c0: 283f 653e 822e 1ebd ad55 91be 22cd 483d
000002d0: f006 3bbd b5a0 0dbe e783 933e 9383 6cbb
000002e0: 675d 48bd 2cc6 28be 6707 b33d cad5 de3d
000002f0: da12 a7bd 2836 b03e c70d 173d 1bfa 19be
00000300: 144f ed3c 98d4 183d dc50 b7b9 5d57 e2be
00000310: b628 7fbd 48f2 c4bd 6e6c 4ebe 394c 0c3c
00000320: a9e4 d4bd e495 2c3c e1f2 053e 1bc5 933e
00000330: 3c4a ff3c 0ad7 6d3e e3b4 dcbd c7af c7bd
00000340: d829 963d a3b0 11be 8ee3 003c e2e6 a13d
00000350: b3c9 823d 30ea e5bb b671 f9bd 0157 2cbd
00000360: a9f3 6d3d 78e2 91be 1a6a 32bd eb48 6fbe
00000370: 5d95 893c 6ad3 d33d d87c 403e 9d3e 60bd
00000380: ccbf c43d fede 0abe 8ae4 183e 33fb 433e
00000390: dd82 95bc 7caf 9e3d a9ad dfbe f020 973e
000003a0: 2fbe 993e af84 3ebd 542c 903d 12be 993d
000003b0: d68b 073c dd0c ef3d c57e b7be 2b0d acbd
000003c0: 515f 4e3e e0f2 efbd 6dd2 92bd 87e7 debd
000003d0: dece df3c 0601 e4be 4e38 a93e 12df 913e
000003e0: 89c0 243f 8676 84bb 239f 1abd 7b5e f53c
000003f0: e822 8abe 9d31 d03d b1e6 9abc 214e 49be
-0.17586397 -0.17849664 -0.13493721 -0.35950282 0.07290918 -0.15078917 0.037716657 0.033623718
-0.005224531 0.06779183 -0.08732565 0.05115478 -0.5485705 -0.030392746 0.15196712 -0.12379882
0.16868404 -0.1871056 -0.14207351 -0.43019128 -0.20252223 -0.11169851 -0.100312695 0.21744283
-0.18379705 -0.05457148 0.010766731 0.049333714 0.15359636 -0.06703609 0.22578602 0.08537656
0.2230384 0.053503387 0.013283485 0.049978524 -0.0048501627 0.14967541 -0.18215188 -1.2536262
-0.06624593 -0.036464155 0.017713323 0.03579059 -0.099821225 0.05994705 0.028233882 -0.22460666
0.2401201 -0.06185945 0.02013826 -0.22609426 -0.014800836 -0.032019194 0.13021748 0.19300453
-0.08059061 -0.019308183 0.21479541 0.20128372 0.006652497 -0.14757738 0.10943981 -0.11725654
0.03515378 -0.33178735 -0.18997471 0.21592773 0.06559562 0.052677378 -0.17406026 -0.060855594
0.023845626 0.10154934 0.044606928 0.05254653 -0.15336047 0.0909757 -0.065446764 -0.09972628
0.028903129 -0.11247499 -0.04970441 -0.14092301 -0.19105832 -0.087685324 -0.1685888 0.13023728
-0.083436325 -0.24206129 0.10580529 -0.18475011 -0.19562787 -0.060041692 0.16799366 -0.013725398
0.21607886 -0.008262139 -0.29913166 0.16425343 0.15419932 0.20766786 -0.034247067 -0.02918771
0.17278834 0.013395524 -0.4684387 -0.0087352535 -0.092920855 0.07633217 -0.42075178 -0.089563526
0.0941936 0.13868284 0.08067317 0.28576338 0.017802041 -0.11704599 0.15994546 -0.23213783
0.15555923 0.06203222 -0.009275911 0.14279112 -0.14524598 0.079003245 0.044717938 0.0496469
-0.16773161 0.0041101766 0.13591303 -0.5001302 -0.036596842 0.07296957 -0.12669943 0.12158055
0.067520976 0.0672228 0.14489041 0.18144567 -0.010297503 -0.056589283 -0.12416604 -0.0706627
0.13944234 -0.07542732 -0.12598228 0.121624246 -0.17501892 -0.07641029 -0.010905978 0.08660167
-0.025189051 -0.19300021 0.024148857 -0.1086565 -0.038486816 0.14271113 0.100673944 -0.15893991
-0.12337532 -0.16989803 -0.0839477 0.11287051 0.0065636905 0.035264056 -0.3449034 0.325098
0.068514936 -0.16400595 0.11434965 -0.1006579 -0.06900841 0.17901245 -0.4165128 0.0065835547
0.22387373 -0.038618572 -0.28385678 0.049023755 -0.045660913 -0.13830836 0.2881157 -0.0036089167
-0.0489172 -0.16481847 0.08741646 0.10880621 -0.081578925 0.34416318 0.036878373 -0.15036814
0.028968371 0.03731212 -0.00034964725 -0.44207278 -0.062294684 -0.09616524 -0.2015855 0.008563095
-0.10395176 0.010533784 0.13080932 0.28861317 0.031163327 0.23226562 -0.10776689 -0.09750324
0.073322 -0.14227538 0.007866753 0.079053655 0.06386127 -0.0070164427 -0.12179892 -0.04207516
0.0580937 -0.28493094 -0.043558218 -0.2336766 0.016794855 0.103430584 0.18797624 -0.054747213
0.09606895 -0.13561627 0.1493093 0.19138794 -0.018250877 0.07748315 -0.4368718 0.29517317
0.3002791 -0.046513256 0.07039705 0.07506956 0.008273086 0.11672375 -0.35838905 -0.08400949
0.20153548 -0.117162466 -0.07169042 -0.10884004 0.027320322 -0.4453203 0.3305077 0.28490502
0.64356285 -0.0040424494 -0.03774942 0.029952278 -0.26979756 0.10165713 -0.01890883 -0.1965871

Q2.head.4.bias f4 [18]
00000000: 9fa6 7f3d ee28 cd3d cd54 693d b475 0a3e
00000010: f4a4 133d c577 09bb c9e4 c6bd b7b5 9cbd
00000020: aab6 0ebe 6e4c 12be bed9 3ebd 348c a0bb
00000030: 6803 cbbd afe3 84bd 2e4e e1bd e015 ef3c
00000040: cd10 edbd 2d78 b1bc
0.06241476 0.10017572 0.056965638 0.13521463 0.036045983 -0.002097593 -0.09711606 -0.07651847
-0.13936868 -0.14286968 -0.046594374 -0.004899526 -0.09912759 -0.0648874 -0.1100124 0.029185236
-0.1157547 -0.02166375
