script/logs/dome_partial/model/best/target_critic.pth (torch, 211858 bytes, 12 tensors)

Q1.head.0.weight f4 [128, 36]
00000000: 2bd5 36bc 3399 c13d 13ce b13d e0c5 debd
00000010: 123f 14be cee7 80bd 66da 593d 7e68 223e
00000020: 50e8 993d 5081 c53d 3b1b 523d 0685 2dbd
00000030: 6053 e1bc 748d 0f3e 3669 113d 4b67 083d
00000040: 88bf c73d 160c f63d 9bcd 423d 16c9 89bc
00000050: f0f8 96bd fb67 cfbd 3ba2 aabd 9ae5 0a3e
00000060: 5be0 073e 9b77 b4bd 07f9 0f3e c65e 30bd
00000070: 5b81 2cbd c6b3 583d 58ba 0abe 86f1 c9bd
00000080: 40bb c7bc a68c 56bd 4056 ac3d 1673 21bd
00000090: db6e 11be e496 14be fccb 243e 76ec 993d
000000a0: eee1 29be 1304 0cbe 7691 d7bd 5b8e 1a3e
000000b0: 18b9 b93d 06d7 5e3d d33c c13d 6046 e73c
000000c0: 535f f33d d069 09be bb1c 063e bb05 9c3d
000000d0: 3b99 623d f844 da3d 605f 05bd fb26 a2bd
000000e0: 46b6 39bd 7305 00be 00e2 943a 5390 af3d
000000f0: b629 fe3c abc4 bcbb 6e22 813d f2a0 1bbe
00000100: 986a e0bd 4ffa 14be 67ac 293e 5820 1bbe
00000110: 0625 a23d d059 f53d 008a 41bd 5629 d7bc
00000120: d032 0c3e f07f 0bbe 2f3a 2abe 362b c8bc
00000130: 40d2 aebc 90b5 8bbd 9604 553c 189e b53d
00000140: de9f b63d b0db 463d f30f f13d ce1f 9fbd
00000150: 2b67 363c d0dd 643d 4b8b 5b3d 16ec 74bd
00000160: 9b97 0a3e ef6b 02be 26f0 a1bd 82b6 23be
00000170: 165d a33c 5b99 04be d6e6 f23d 268d e4bd
00000180: 5bfd 333d bf8a 173e d648 1b3e 4bac 623d
00000190: 8651 793d ebca f23c dea7 c43d c0b6 3dbc
000001a0: a3e8 ffbd 08bb 163e b880 00be bffb 253e
000001b0: 6b92 163c 8e93 9c3d 2b73 973b 7053 913d
000001c0: 4697 e83d 4410 21be 9e33 c23d 20c2 66bd
000001d0: 88a2 19be cad6 08be 00db 743c 4fd4 043e
000001e0: 2f7b 21be 00f9 453d a0c3 893d af43 1dbe
000001f0: 40f9 163d 2e81 a7bd 404f d53c 13d0 81bd
00000200: 7ac0 0a3e cbad 1cbe 566c b23d 8863 80bd
00000210: 5b02 403d 40bb 883c fbf0 1ebe 683c a2bd
00000220: 0050 e63b 0082 a73b 36ae acbd 1829 c33d
00000230: b89c a3bd 901b b5bd fe49 953d 8088 92bc
00000240: 4648 553d 36ef d33d d048 86bd 8002 423d
00000250: 431a 083e 0bfa d83c 5c2a 143e e844 943d
00000260: 0e9d fa3d 9be8 043e 504a cd3d eb49 393d
00000270: 3b37 ab3d e3f4 d03d 409c 383c 0079 e83c
00000280: bee6 82bd 808d b9bb 93db ae3d 96b1 55bc
00000290: 6069 5bbd e0da 283d 56f0 b0bb 0008 673c
000002a0: e680 12bd 5665 d8ba 3694 24bd 7e84 0f3e
000002b0: 9b6e e7bd 8a20 02be 90ca 04bd 96e4 4a3c
000002c0: fe7c e03d a6eb 3c3d 565b 33bb dc7d 21be
000002d0: be31 a1bd 06de 313d 709b 5abd 2b01 d1bd
000002e0: 0023 2c3d d398 f33d ebf3 a73c 5ba4 ff3d
000002f0: a437 133e d660 873b b6a5 2a3e 5678 613d
00000300: 762f 613d bb7b 773d cc02 1ebe f610 8b3d
00000310: 5c53 0f3e abaa fe3c 403c 243c 0b3f e9bc
00000320: 5b0d 06be 4031 ad3c e087 893d 2631 823d
00000330: 3304 1b3e eb38 ccbd d843 163e 50de 18bd
00000340: 5b1d 47bd 2ea1 acbd 3b3f e4bd 0b9b 123d
00000350: 2b8b 11bd 20e1 fa3c 671e 26be c042 5dbd
00000360: c659 af3d 46f0 a5bd 68ae 1d3e 8397 e2bd
00000370: 2887 c4bd a002 e33d 9ffc 123e c321 973d
00000380: 7682 b53d a3f6 f1bd 00f5 003d 40f6 7ebc
00000390: 6896 a0bd 8004 113d cb73 8a3d 5820 ecbd
000003a0: 0b77 a7bc 46d5 323d 1437 253e 3a75 09be
000003b0: a6a5 163e 7629 84bc 76e0 173d e03f 13be
000003c0: a71f 16be e8c3 aebd 8027 49bc 56d1 013d
000003d0: bfa1 183e 80eb e1bc 6e4a eb3d ee29 0fbe
000003e0: 631b bf3d ea84 13be 5efc 21be 18d9 cc3d
000003f0: 4ecf debd 2ba8 bcbd 2393 c9bd 4b7e 3cbd
-0.011159222 0.094530486 0.08681884 -0.108775854 -0.14477184 -0.06294213 0.053186797 0.15860173
0.07515013 0.09643805 0.0512955 -0.04236319 -0.027505577 0.14018804 0.035500728 0.033301633
0.097533286 0.12014024 0.047559362 -0.016819518 -0.073717 -0.101272546 -0.08331724 0.13564149
0.13269179 -0.088118754 0.1405984 -0.043059133 -0.04211555 0.05290582 -0.13547647 -0.0986052
-0.02438128 -0.052380227 0.084148884 -0.039416395 -0.14202444 -0.14510685 0.16093439 0.075158045
-0.16590092 -0.13673429 -0.10525791 0.15093367 0.09068507 0.05440428 0.094354294 0.0282318
0.11883416 -0.1341927 0.13096897 0.076182805 0.055321913 0.10657686 -0.03256166 -0.07917591
-0.045339845 -0.12502079 0.0011358857 0.085724495 0.031025749 -0.0057607493 0.06305395 -0.15198115
-0.10957831 -0.1454861 0.16569673 -0.15149057 0.07917218 0.11980021 -0.047250748 -0.026264828
0.13691258 -0.13623023 -0.16623758 -0.024434667 -0.02134049 -0.0682174 0.013001582 0.088680446
0.08917211 0.048549354 0.1177062 -0.07769738 0.011132996 0.0558756 0.053599637 -0.05979546
0.13534395 -0.12736486 -0.07907133 -0.1598759 0.019941848 -0.12949125 0.11860435 -0.111597344
0.04394279 0.14799021 0.15164503 0.055340093 0.060868762 0.029637774 0.096023306 -0.0115792155
-0.12495544 0.14719784 -0.12549102 0.16209315 0.009190182 0.07645331 0.0046218834 0.070959926
0.11356978 -0.15728861 0.094825014 -0.056337476 -0.15003407 -0.13363186 0.014944792 0.12971614
-0.15769647 0.048333168 0.06726766 -0.1535785 0.036858797 -0.08178936 0.026038766 -0.06338515
0.13549986 -0.15300672 0.0871207 -0.06268984 0.046877246 0.01669085 -0.15521614 -0.07921678
0.0070285797 0.0051119328 -0.084316656 0.095293224 -0.07988876 -0.08843148 0.072895035 -0.017887354
0.05207088 0.1034836 -0.06556857 0.047365665 0.13291268 0.026486417 0.14469284 0.07239705
0.12236987 0.12979357 0.100239396 0.04523651 0.08360144 0.102029584 0.011267722 0.02837801
-0.06391667 -0.00566262 0.08537974 -0.013042828 -0.05356729 0.04122436 -0.005399744 0.014101028
-0.03576746 -0.0016509693 -0.040180407 0.14015386 -0.11300393 -0.12707725 -0.03241974 0.012383601
0.1096134 0.04612317 -0.0027367673 -0.15770668 -0.07870816 0.04342463 -0.053370893 -0.10205301
0.042025566 0.11894383 0.020502051 0.1248252 0.14376694 0.004131417 0.16664776 0.055046402
0.054976903 0.060420733 -0.15430754 0.067903444 0.13996643 0.03108724 0.01002413 -0.028472444
-0.13091032 0.021141648 0.06715369 0.063570306 0.1513832 -0.09971794 0.14674318 -0.03732139
-0.04861198 -0.0842918 -0.11144873 0.03579239 -0.03553311 0.030624926 -0.16222535 -0.054018736
0.08562045 -0.08102469 0.15398562 -0.11064055 -0.095960915 0.11084485 0.1435418 0.073794864
0.08862774 -0.1181462 0.03148365 -0.01556164 -0.07841188 0.035404682 0.06760367 -0.115296066
-0.020442506 0.043660425 0.16134292 -0.13423625 0.14711627 -0.016133051 0.037079297 -0.14379835
-0.14660512 -0.0853346 -0.012277484 0.03169378 0.14905451 -0.027578115 0.11488806 -0.13980839
0.093313955 -0.14406171 -0.15818927 0.10002345 -0.10879384 -0.09211763 -0.09842517 -0.04601888

Q1.head.0.bias f4 [128]
00000000: ce4f eb3d 96e3 103c 3e31 80bd 0ee8 a9bd
00000010: 73d7 b03d 5b2b 773d 9295 103e 1fe0 0fbe
00000020: 674a 02be d642 ccbd 96a7 963d 0ab7 043e
00000030: eb18 5cbc 84d6 0ebe c049 d93c 77c9 12be
00000040: 660e da3d e21a 00be 1658 c63c 001c f33a
00000050: b8d5 ab3d ce76 ecbd 8332 993d ab8b 973b
00000060: d6d0 a63c 288a e7bd 863e 213e 1669 f6bc
00000070: 1ee3 c6bd 2647 3fbd 66cd 4abd c2b1 293e
00000080: a0ee f93d 56d5 403a ea6a 243e 00e8 7cba
00000090: 7676 a03c 76f8 f63c eb18 7abc f628 01be
000000a0: f60b 4b3d 160e 54bc c0d1 863d 88d7 bc3d
000000b0: 8b31 f73d e639 363d 1615 093c 9bf6 92bd
000000c0: 8ccf 1f3e 860f 17be d67e b2bd 20e3 aa3c
000000d0: 66d5 a33d d6f8 c53d 2ce7 16be f028 6d3d
000000e0: 4c00 0ebe b6d9 f13d 3405 11be e06b f23c
000000f0: 96bf e03c b692 11bd a8a6 9a3d 264f eb3d
00000100: c6b6 6d3d 862e 0f3d ff30 273e 6038 213e
00000110: f611 ebbd 2c9c 193e 3242 153e ab56 0f3a
00000120: d0cd 633d 7edf 89bd 8bfa 84bd 0b00 e13c
00000130: 430f 98bd 40c7 313d 6b51 903d 7bcc c73d
00000140: f660 f3bd 80f7 acbd 0043 eebc 1897 883d
00000150: 168f 89bd 005a a1bd f605 21bd 46d6 683d
00000160: 8047 e03b 0665 2bbd d060 2d3d a806 00be
00000170: c8bb 23be 73ed c03d 94a4 183e 565f c3bb
00000180: 533e b23d d04f f03d 5e5e 123e 563a 533c
00000190: d62f 7fbc 5fba 23be 80c4 39bc 9660 41bd
000001a0: 568e a2bb e748 233e 50c6 5dbd 186a 0abe
000001b0: bb47 1b3e ab68 013c d357 ddbd 80f2 ef3b
000001c0: 0019 2fbb 2608 623d 64b4 1d3e 6606 bbbd
000001d0: 1bbd c6bd ab97 31bc 8346 bd3d 24fd 293e
000001e0: b60e dbbd 36bf a2bd 169a 35bc 93d5 0cbe
000001f0: 6b65 7abc c26d 013e 9e9d 1a3e be76 f73d
0.11489831 0.008843323 -0.06259392 -0.08296214 0.08634844 0.06034408 0.14119557 -0.14050339
-0.12723695 -0.099736854 0.07356183 0.12960449 -0.013433675 -0.13949019 0.026524425 -0.14334665
0.106472775 -0.12510255 0.024211925 0.0018547773 0.08390373 -0.11546098 0.074803375 0.004624804
0.020363253 -0.11305648 0.15746507 -0.030079406 -0.09711288 -0.04669871 -0.04951229 0.16571715
0.12203717 0.0007356008 0.1605641 -0.0009647608 0.019587737 0.030147772 -0.01526473 -0.12613282
0.049571954 -0.0129428115 0.065829754 0.09220797 0.120699964 0.04448881 0.008366844 -0.071759425
0.15606517 -0.14752015 -0.08715598 0.020860255 0.07999687 0.09666602 -0.14736623 0.05790037
-0.13867301 0.11809103 -0.14162141 0.029592454 0.027435105 -0.035540305 0.075513184 0.11489706
0.058035634 0.034956478 0.16327284 0.15744162 -0.11478035 0.15000981 0.14576033 0.00054679316
0.0556162 -0.06732081 -0.064931 0.02746584 -0.07424786 0.04340291 0.07046779 0.097557984
-0.11883728 -0.084456444 -0.029084682 0.06669444 -0.067167446 -0.07878494 -0.039312325 0.056844972
0.006844461 -0.04184439 0.042328656 -0.12502539 -0.15989602 0.0942029 0.14906532 -0.0059622927
0.08703294 0.11733973 0.1429381 0.012892326 -0.01557537 -0.15989064 -0.011338353 -0.047211252
-0.0049608154 0.15945779 -0.054144204 -0.13517034 0.15164082 0.00789849 -0.10807767 0.0073226094
-0.0026717782 0.055183552 0.15400845 -0.0913208 -0.09704038 -0.010839383 0.09241965 0.16600472
-0.10696165 -0.07946627 -0.0110841 -0.13753347 -0.015282969 0.12639526 0.15099189 0.12083195

Q1.head.2.weight f4 [128, 128]
00000000: 656f 6bbc 7f94 32bd 6480 8e3d 0b27 d3bc
00000010: b853 4b3b 8124 a73d 90a5 e5bb c8e7 863d
00000020: 7517 50bd 9945 aa3a 82bb b33d c1bf e438
00000030: 3c93 6bbd 8ba1 993c c787 30bd 60f4 453d
00000040: 9103 843d 5097 80bc 262d 5a3d c48c 943d
00000050: 9536 7c3d 637e 563d a6eb a8bd 3275 94bd
00000060: 51fc 903d 35e8 073d a6ec 8dbd 5d51 9b3d
00000070: 11e4 c13b 2351 a3bd 3563 11bd c29a 98bd
00000080: 41e5 fdbc 39b7 08bc 3071 f7bb 4193 4abc
00000090: 4db1 10bc e85f 933d 289f 7c3d 1216 a6bd
000000a0: 370c a93c ea92 39bd 45d2 88bc eef7 0dbd
000000b0: fc00 37bd 987f 43bd ec0c b3bd 6741 0abd
000000c0: ad4b 8cbc 1070 a6bd 370f e53c 669f 3fbd
000000d0: aecc cfbc 9f81 113d 4d44 ae3d c457 2d3d
000000e0: cc46 86bd 21ff 823d e8d9 12bc a936 043d
000000f0: a7b9 5ebd 985c a93d 0723 67bd 5f5d 633d
00000100: c6b9 973d df18 0d3c 3948 8c3d 9ce3 573d
00000110: a66d 5abc 870e 373c ff5b f33a 8c49 6abc
00000120: 665f a0bd 2ca6 4c3d e202 adbd eb1a 043d
00000130: 7fb6 03bd f0b5 b73b 9d56 95bc fcbc 4ebd
00000140: f9e5 07bd 3a2c a3bd 7ed6 57bd 56e5 3b3d
00000150: b470 953d 6af6 abbd 6e34 a5bc 3ad4 013c
00000160: df75 49bd ef42 863c 6143 1fbc 013b 6f3c
00000170: 6e42 49bd 9ef8 9bbd 1c20 17bc 85ab 763d
00000180: 0f74 9d3d b5a8 8f3d 5e3b 993b cb78 883d
00000190: 55d4 13bd 8ca8 833d 2789 603c 9524 89bd
000001a0: 517b edbc 6225 a13d 1645 05bd 47ed b2bd
000001b0: 4dc6 ae3d 6292 e13c 9f8d a03c 681e 20bd
000001c0: 0bd0 a33d 9de3 943d aa8b 92bd 75cf 1e3d
000001d0: 73ef a53d fb6b 89bd b34d d13c 93fa 19bd
000001e0: 39a4 803d 877c 783d 0c67 3a3d 05d3 bfbc
000001f0: e8a7 923d 6508 adbc 4a23 703d 0227 2b3d
00000200: 2ff4 94bd e174 64bd d6d7 e9bb 8f9a 94bd
00000210: 0fbd babc 6107 443d 35ab a33d 4813 e5bb
00000220: 6161 adbc 8781 88bd 75c9 db3c 5838 4f3c
00000230: 6e81 1a3d 1b1c 99bd 0c6f 8d3b 7503 20bd
00000240: 424e 4cbd 66ed 333d 7a3d 94bd 555d 58bd
00000250: 4f4b 853d fdc1 6cbd 4ae6 733d e822 04bd
00000260: e084 77bd 2f0d bbbb 9dba 5ebd a9ec bd3c
00000270: fbd0 803d f328 89bd c301 75bd 0488 7bbc
00000280: e89c 3e3b 8eb9 9c3d b22f 8e3d 6ae7 43bd
00000290: 3239 6c3d 8a83 513d f5a9 8abd c71a 603d
000002a0: 5c7f ae3d a17f a9bc a343 9c3d 54c0 ab3d
000002b0: fadf b53c e062 fa3a 2b3c 963d d34a 7a3d
000002c0: 3f41 ac3d 8229 68bd 02f4 f63c 8afe 5c3d
000002d0: cdaa 6bbd bb58 763c cea3 44bd 7176 82bd
000002e0: 49d5 b13d eabd 92bd d1ae a5bd 3cbf 963d
000002f0: c42d 563d f6c0 a23c bbe8 823d e552 2f3b
00000300: 8847 e7bc ac22 56bc d789 873c 7c08 adbd
00000310: 5d3d a4bd ac22 02bd 7162 243c 8eab 6f3d
00000320: 8e97 2abd 5a90 98bd 4e8a a2bd d082 c2ba
00000330: 9f94 62bd 8b1a 9fbc ff9d 69bd f827 233d
00000340: 98a0 f1bc eeff 7cbd 5ab4 e43c d6d0 60bb
00000350: 6bf0 613d ed7a 9c3b 8cd1 153d b1e1 f13c
00000360: f983 4abd 27a9 903d e81b 833c 0871 56bc
00000370: 70ea 4c3c 177e a33d 1e82 853d ce30 993d
00000380: fbf9 4dbd be1d b1bc eb38 a13c 4806 45bc
00000390: e04f 88bc 9d35 883d 7234 42bd 963b 26bd
000003a0: 440a 503c 3ee5 25bd 5dac 4dbd 6cba 90bd
000003b0: 69ec 733d 6361 34bd b89f 35bc 0561 6b3d
000003c0: 6c96 adbd 0939 97ba 0d2b 27bd 0f2a 82bd
000003d0: f6f2 343c adc7 de3c 26de 6a3d 5eac b43d
000003e0: 001e ed3c 1a8f d2ba a472 3fbd 6a7a cbbc
000003f0: aad2 a4bd 27c5 a5bd b995 8abd 9268 7d3d
-0.01436982 -0.04359865 0.06958082 -0.025775453 0.0031025242 0.081612594 -0.007008262 0.065871775
-0.05080362 0.0012990712 0.08775999 0.00010907604 -0.05751346 0.018753788 -0.043098237 0.048328757
0.06445993 -0.015697151 0.053265713 0.072534114 0.06157549 0.052366626 -0.08248071 -0.07248916
0.070793755 0.033180434 -0.06929903 0.07583878 0.00591708 -0.0797446 -0.035495 -0.07451393
-0.030993106 -0.008344465 -0.007551335 -0.01236421 -0.008831334 0.07196027 0.06167522 -0.08109678
0.020635707 -0.045306124 -0.016701827 -0.034660272 -0.044678673 -0.047729105 -0.08742699 -0.03375378
-0.017125929 -0.08126843 0.027961357 -0.046782874 -0.025366154 0.035524007 0.08509121 0.042320028
-0.06556472 0.06396318 -0.008963086 0.03227869 -0.05437627 0.08269614 -0.05642989 0.055508967
0.0740848 0.008611887 0.06849713 0.0527073 -0.013331806 0.011172897 0.0018566846 -0.0142997615
-0.07830696 0.04996316 -0.084478155 0.032252233 -0.032156464 0.0056064054 -0.018229777 -0.0504732
-0.033178303 -0.0796742 -0.05269479 0.04587301 0.07296887 -0.08396609 -0.020166602 0.007924134
-0.049184676 0.016389338 -0.009720654 0.01460147 -0.049135618 -0.07615779 -0.009223964 0.060222168
0.07688152 0.070146 0.0046762666 0.066636644 -0.036091167 0.06428632 0.013704575 -0.066964306
-0.028989466 0.07868458 -0.03253659 -0.08736663 0.085339166 0.027535621 0.01959878 -0.039091498
0.079986654 0.07269976 -0.07155545 0.038772065 0.08102312 -0.06710049 0.025549745 -0.03759248
0.06281323 0.060665634 0.04550843 -0.023416052 0.07160932 -0.021122167 0.058627404 0.041785248
-0.07273137 -0.055775527 -0.0071363254 -0.07256042 -0.022795228 0.0478586 0.079916395 -0.006990824
-0.021164598 -0.066653304 0.02682946 0.012647711 0.03772109 -0.07476064 0.0043162163 -0.039065797
-0.04987932 0.043927573 -0.07238288 -0.052823383 0.065085046 -0.05780219 0.059545793 -0.03225985
-0.060429454 -0.0057083587 -0.054377187 0.023184137 0.0628986 -0.066972636 -0.059816133 -0.015352253
0.0029085223 0.07652579 0.06942691 -0.047828116 0.057671733 0.051150836 -0.06770698 0.054713037
0.085203856 -0.020690741 0.07630088 0.08386293 0.022201527 0.0019102953 0.07335695 0.061106514
0.08410882 -0.05668021 0.030145649 0.053953685 -0.057535935 0.015035803 -0.04800778 -0.06370247
0.08683259 -0.071651295 -0.08089984 0.07360694 0.05228974 0.019867402 0.06392046 0.002675229
-0.028232351 -0.01306979 0.01654522 -0.08448884 -0.080195166 -0.031771347 0.010033236 0.058513217
-0.04164844 -0.07449408 -0.07936536 -0.001484001 -0.055317517 -0.019421836 -0.057035442 0.03983304
-0.029495522 -0.06176751 0.02791803 -0.0034304163 0.05516092 0.004775396 0.036576793 0.029526563
-0.049442265 0.07063513 0.016004518 -0.013088472 0.012507066 0.07983034 0.065189585 0.07480012
-0.050287228 -0.021620627 0.01968046 -0.012025423 -0.01663965 0.06650851 -0.047413297 -0.04058417
0.01269776 -0.040501826 -0.050213207 -0.07066807 0.05955163 -0.044038188 -0.011085443 0.057465572
-0.08475956 -0.0011537384 -0.04081254 -0.06355678 0.0110442545 0.027194822 0.057340764 0.08821939
0.02894497 -0.0016064376 -0.04674019 -0.024838645 -0.080479935 -0.080942445 -0.067668386 0.061867304

Q1.head.2.bias f4 [128]
00000000: f7f0 bebc 95b0 2e3d a4c3 5c3c efee 3e3d
00000010: 8bc8 a3bd 388b 77bd b650 0fbd 3335 22bb
00000020: 7750 463d 45b5 05bc 2f97 03bd ecbd 9bbd
00000030: d55c 7e3d ca55 1ebc 527e 99bc b9be 5cbd
00000040: 2a2a 283d 370a 973d c039 373c 6cff 173c
00000050: 4f7c 543c 71ff 09bd 3aa8 a1bd 7e3d 05bd
00000060: 863f 4d3d 7728 9e3d 6c3e bebb 6e48 12bd
00000070: 9639 35bc 57d9 8dbd 1219 a63d 3f99 c1bc
00000080: a0b4 963d 0202 853d 8241 483c b00c 23bc
00000090: 153d 16bc b2b2 fd3b b39c afbc ec6d b4bd
000000a0: a5e8 4dbc c203 acbc 6be1 81bc 178c 36bd
000000b0: bf80 abbd ef8a 53bd 5810 3b3d da71 2bbd
000000c0: 0922 b43c 5b48 6a3c 30b1 023d 7055 9fbd
000000d0: a41f 853d 3b45 933c d7ad bd3c 261c cf3c
000000e0: 43d0 1cbc 6062 74bc b106 36bd 2ddb cf3c
000000f0: aa20 b0bc 27c7 97bd f226 853d a52e 143d
00000100: 0362 c83c 0729 9a3d 6654 83bd 72f6 cfbc
00000110: 5d2b 1abd abb5 acbd 7bb2 abbd 75b8 f63b
00000120: 3b21 6cbd 961b f23c 8fb2 52bd b9f5 9ebd
00000130: fc0f 1c3d ed7e 9c3c aa5a 4e3c a11b 9cbd
00000140: edbd 783c 07e9 78bd 43b9 653d 4f85 1ebd
00000150: 37ee 77bc 4377 23bd 2b44 84bd f116 9bbc
00000160: 5f14 7fbd 9f27 80bd 5a54 6c3d 9a09 223d
00000170: 3471 a53d 860c a2bd 4c16 3fbd f9a1 4e3d
00000180: 2cb2 8cbd 6a52 133d 6dab 10bb f65a c83c
00000190: 4c76 0d3d bbf5 803d 54d6 59bb c57c 89bc
000001a0: 8e9b a7bd 87b1 22bd 4cf3 403b 54f5 803d
000001b0: 25b8 a43d 175d cbba c813 58bd 23d2 a5bd
000001c0: a16f dc3b 2aeb 55bd 87c4 663d 7594 95bd
000001d0: ce32 d63b 493d 59bc 65f2 803c c256 30bc
000001e0: 6d98 203c 1a57 4f3d ce70 91bd 15b3 163c
000001f0: 688e 413d e1dc e03c 2225 9abc 60a7 833d
-0.02330826 0.04264887 0.013474379 0.046614584 -0.07997235 -0.060435504 -0.03498908 -0.0024750947
0.04841658 -0.008160894 -0.0321266 -0.07604584 0.06210025 -0.009664008 -0.018736992 -0.053892825
0.041055836 0.07374995 0.011183202 0.009277206 0.012969091 -0.033690874 -0.07893415 -0.032529347
0.05010941 0.07722562 -0.005805781 -0.035713606 -0.011061093 -0.0692622 0.081102505 -0.023632644
0.0735867 0.064945236 0.0122226495 -0.009951755 -0.0091698365 0.0077422494 -0.021437025 -0.088100284
-0.012567674 -0.020997886 -0.015854558 -0.044567194 -0.08374166 -0.05164617 0.045669883 -0.041856624
0.021988885 0.014299477 0.03190726 -0.07779968 0.065001756 0.017977348 0.023154182 0.025281977
-0.009571138 -0.014916033 -0.044439975 0.025373066 -0.02149995 -0.07411032 0.06501569 0.036177296
0.024460798 0.075273566 -0.06412582 -0.025386069 -0.03763901 -0.08433088 -0.08383652 0.007529313
-0.05764888 0.02955417 -0.051439818 -0.077617116 0.03810118 0.019103492 0.012594858 -0.07622457
0.015182001 -0.060769107 0.056084882 -0.03870135 -0.015132478 -0.03990866 -0.064583145 -0.018931838
-0.062275287 -0.06257557 0.05769763 0.039559938 0.080782324 -0.07912545 -0.046652123 0.050447438
-0.06869921 0.035967268 -0.0022074834 0.024457436 0.034536645 0.06296869 -0.0033239322 -0.016783128
-0.081839666 -0.039720085 0.0029441891 0.062967926 0.08042935 -0.0015515414 -0.05275324 -0.08096721
0.0067271744 -0.052226223 0.056339767 -0.073037066 0.006536818 -0.01325924 0.015740583 -0.010762872
0.009801966 0.050620176 -0.07101594 0.00919797 0.04725495 0.027449073 -0.018816534 0.064284086

Q1.head.4.weight f4 [36, 128]
00000000: f984 413d 6353 803c 8a3d 353d ddf5 8f3d
00000010: 1386 46bd de39 213d 37a3 293d b595 9c3b
00000020: d3d4 a33d 5a69 1d3d 885b afbd 86ae f4bc
00000030: 8433 7fbd 23ed 7e3c 015b f7bb 87fa 283d
00000040: 35c8 83bd 4424 ef3c 149f a43c 50f1 67bd
00000050: d2f7 a4bd ab55 31ba 36c3 1b3c fec0 2dbc
00000060: cc32 60bb 351e 1e3d a8eb 3b3d e984 033d
00000070: 7473 983c 7206 7cbd 005f 86bc b09e 3cbc
00000080: 4e04 94bc 61ab 8cbd c4bb f73c b387 0fbd
00000090: 9908 fc3c d4e6 9bbd 6373 1abd 19b8 d1bc
000000a0: 9322 523d 0beb 2d3d 92b2 b1bd 0e25 2bbd
000000b0: 9fab 06bd 2e3d 2cbd a1a8 513c 4d4f d8bc
000000c0: cfa9 843b 8e3c 813d 3437 af3d 816a 603d
000000d0: 8913 54bd 7a01 aa3d 65ea afbd 45d5 a33d
000000e0: d4b8 d1bc 286e 583d bf43 ad3a c927 463d
000000f0: ee4c 61bc 9c3d 5a3d fd33 85bd ecd2 34bb
00000100: 93f3 22bd 2fca be3c 18b2 393d 5a42 0c3b
00000110: 5a07 b2bd 5992 46bc ae8b eb3c 4ecc 2b3d
00000120: 7e67 b43d 4112 19bd 2fc0 f73c b4bd 92bd
00000130: 316a 233d 5b6e dabc 7eda 423d 3292 483d
00000140: 5ed3 9bbd 437c 89bc 191e 78bd 8be1 9f3d
00000150: a499 07bc 4fb6 8fbd c5ba 0cbd cf83 4c3d
00000160: bc9c 9fbd 7f24 943d 6f9b b13d 53ef aebc
00000170: 1c19 0e3d f997 243d 1598 b3bc ca0a 253d
00000180: bf76 1a3d 1db5 4b3d 012f 82ba 0171 24bd
00000190: 9830 9abd fb64 68bd 4cd2 88bd 8c17 883d
000001a0: 20f9 b03c fe61 7cbd d801 2f3c 229b c83c
000001b0: 271a f6bb 06a5 d23a f35f 693d e91e 443d
000001c0: 675d 44bd 42c5 073d 06f3 89bd fbcf 963d
000001d0: 8d0c a0bc 9488 983d 4e31 0c3d f985 8b3d
000001e0: 200a 8abd 680a 68bd d303 cebc 1ef6 00bd
000001f0: caec 6cb9 1829 6dbd efbe 2cbd e6af 493d
00000200: cd80 01bd 10d1 243b 061a 87bd 6908 b0bd
00000210: 11d2 893d 129c 70bc 2f68 213d 0d8a 9a3c
00000220: 0717 7c3d 1608 033c 139f 863d 2030 c2bc
00000230: a3b1 313c a69a 083d fdac 00bd f6ad 7c3d
00000240: 7c79 79bc 428b 93bc 2e19 59bb 7c32 96bd
00000250: 66a9 13bc 9a66 9bbd 2603 9ebd 732d 943a
00000260: f098 02bd f3b3 bfbc 7603 43bc e1e1 b03d
00000270: a2a6 a4bc 9803 943d 8c00 083d 8e3e 6e3d
00000280: e839 8f3d a1fe 603d 1ad5 64bd 686d 0abd
00000290: 4138 b1bd 1d0b 53bc bd51 e7bc e10c e83c
000002a0: 4f04 a2bd d714 4ebd 84a9 af3c f8b2 493d
000002b0: 12df 723d e171 aabb 762f e8bc baa6 97bd
000002c0: 79f4 e9bc 0e62 4e3d 9863 763d 7082 c63b
000002d0: 71ff a2bd c23a a63d b54b 88bd a046 783d
000002e0: bcd5 f23b 44b7 b23d 958a 093d cf22 96bd
000002f0: 9720 25bd a686 a53d ee8b 9eba 308d 6e3d
00000300: 4b09 ab3d 393f 8a3b 2e95 763d c4da 87bd
00000310: 982f 3cbd 9620 7e3d dcc9 a8bd 056e b33d
00000320: 2777 a03d e7f9 a5bd cfd3 7bbb a08c b53b
00000330: 157e 82bd 83d9 31bd 51c2 663d 0796 593c
00000340: 5d1c 76bd a4b0 ae3d 1b12 593d 502d 69bd
00000350: 616d 423c 7f73 7bbd ff0d a0bd 82ab 153d
00000360: 7612 85bc e716 4a3d d976 abbd b4d6 6ebd
00000370: 59c3 8d3c b05e 7a3d a958 05bd 0b0c 223d
00000380: 3875 99bc f75e 84bc 62f3 8e3c 216a 01bd
00000390: 542f 51bd 8f26 88bd 5caa b0bd 4108 83bd
000003a0: 7515 173d 89ba a8bd cf55 b33d 3cc3 f33a
000003b0: 4e8e 203c 8cce 8ebc cbfb 92bd dffe e73c
000003c0: 1c33 8f3c 0374 673c 4951 963d 11f3 6cbd
000003d0: ec08 5cbd 8a77 9f3d de5c 21bd b8cc 50bd
000003e0: bc72 a4bd 027a 9a3c 017b ab3d 2e3f 8abd
000003f0: 80b6 0f3d 3771 a63d 30fb b03d a5c6 bb3c
0.047245953 0.015664762 0.04424814 0.070293166 -0.048467707 0.039361827 0.04141542 0.0047785887
0.079995774 0.03843055 -0.0856238 -0.029868376 -0.06230499 0.0155594675 -0.0075486903 0.041254546
-0.06434671 0.029192097 0.020095386 -0.056626618 -0.080550805 -0.00067647797 0.009506991 -0.010605095
-0.0034209965 0.038603026 0.045879036 0.032109175 0.01860974 -0.061529584 -0.016402721 -0.011512443
-0.018068459 -0.068686254 0.0302409 -0.035041522 0.030765818 -0.07612386 -0.037707698 -0.02560048
0.051302504 0.042460483 -0.08676638 -0.041783385 -0.032878514 -0.042050533 0.012796552 -0.026405001
0.004048563 0.06310378 0.08555451 0.05478907 -0.051776443 0.08301063 -0.08589629 0.07999662
-0.025600828 0.05283943 0.0013219042 0.048377786 -0.013751252 0.05328141 -0.065040566 -0.002759154
-0.03978307 0.023289768 0.04533586 0.0021401853 -0.086928084 -0.012119853 0.028753128 0.041942887
0.08808802 -0.037370924 0.030243007 -0.07165089 0.039896194 -0.02666395 0.04757165 0.048967548
-0.076086745 -0.016782885 -0.06057558 0.07806691 -0.008276377 -0.070171945 -0.034357805 0.04993039
-0.077935666 0.072335236 0.08672225 -0.021354353 0.034691915 0.040183995 -0.021923104 0.040293492
0.0377109 0.04973327 -0.0009932221 -0.04014683 -0.075288 -0.056736927 -0.06680736 0.06645116
0.021603167 -0.06161689 0.010681592 0.024488036 -0.007510442 0.0016070909 0.05697627 0.04788104
-0.047940638 0.033147104 -0.06735806 0.07363888 -0.019537235 0.07447925 0.034226708 0.06812663
-0.067402124 -0.05665055 -0.025148308 -0.031484716 -0.00022594925 -0.05790052 -0.042174276 0.049240015
-0.031616975 0.0025149025 -0.065967605 -0.08595354 0.0672952 -0.014685648 0.039405998 0.018864656
0.061545398 0.007997533 0.0657331 -0.023704588 0.010845575 0.03335061 -0.031414974 0.06168934
-0.015226718 -0.01801074 -0.003312658 -0.07333848 -0.009012556 -0.07587929 -0.07715444 0.0011305049
-0.031884134 -0.023401236 -0.011902681 0.08636833 -0.020098988 0.07227248 0.033203647 0.058165126
0.069934666 0.054930333 -0.055867292 -0.033795744 -0.08653308 -0.012881068 -0.028237218 0.028326454
-0.07910978 -0.050312843 0.021443136 0.049242944 0.059294768 -0.0052015637 -0.028342944 -0.074048474
-0.028558956 0.05038648 0.060153574 0.00605803 -0.07958878 0.08116676 -0.06655065 0.06061423
0.007410733 0.087263614 0.033579428 -0.07330858 -0.040314283 0.08082323 -0.0012096146 0.058240116
0.08351382 0.0042189625 0.060200863 -0.06633523 -0.045943826 0.062042795 -0.082416266 0.08761219
0.078352265 -0.08104306 -0.0038425808 0.0055404454 -0.063717045 -0.043420326 0.05633766 0.013280398
-0.060085643 0.08529785 0.052995782 -0.05692798 0.011866898 -0.061389443 -0.078151695 0.036540516
-0.016244154 0.049338248 -0.08372278 -0.058310226 0.017305063 0.061125457 -0.032555256 0.039562266
-0.018732652 -0.016158564 0.017450038 -0.031595353 -0.051070526 -0.066479795 -0.086262435 -0.06398059
0.036885697 -0.08238704 0.08756601 0.0018597613 0.009799553 -0.017432474 -0.07176932 0.028319774
0.017480426 0.01412678 0.07339723 -0.057848994 -0.053719446 0.07786472 -0.039395206 -0.050976485
-0.08029696 0.018857006 0.083730705 -0.06750332 0.035086155 0.08127063 0.0864166 0.02292187

Q1.head.4.bias f4 [36]
00000000: 0309 91bd c369 5abc b27b 573b f7fa ee3c
00000010: ae18 e8bb 6c8f 48bc 43b0 9e3d d8bb 873b
00000020: aed5 28bd 78d0 a33d 09dc 9d3c 7b25 5cbd
00000030: 7c40 de3c 77d5 93bd 720a 413d 4d6f c2bc
00000040: e566 a23c b50b f1bc 00bd 673d 1850 7abd
00000050: 3546 19bd c780 98bb d374 95bd f7d6 adbd
00000060: e26b c9bc 0b9f 203d ee3d 9bbd c615 443d
00000070: 474a c4bb 0df3 a13d c082 4ebc d326 8abd
00000080: 464d 723d 7df7 8cbd 7c3e 58bd fd0e abbc
-0.07081797 -0.01333088 0.0032880125 0.029172404 -0.00708302 -0.012241226 0.07748463 0.0041422658
-0.041219406 0.07998747 0.01926996 -0.05374668 0.027130358 -0.072184496 0.047129102 -0.023734713
0.019824455 -0.029424528 0.05657673 -0.06111154 -0.03742047 -0.0046540233 -0.07297673 -0.08488267
-0.024587575 0.039214175 -0.075801715 0.047872327 -0.0059903 0.079076864 -0.012604415 -0.067456864
0.059155725 -0.06883142 -0.052793965 -0.02088117

Q2.head.0.weight f4 [128, 36]
00000000: 50b5 17be d6f5 a9bb d0b1 793d c3fd cabd
00000010: 8086 b93c bb7a a43d 8651 e13d a076 0abd
00000020: f3ae 213e b0ea 9d3d d6db b7bc 2b42 f7bb
00000030: 1f83 06be eb8f 0a3d 4b54 c1bd fbc1 3e3d
00000040: 568f d43d 085c b7bd 1646 25bd e6d4 ccbd
00000050: d04f 72bd 3c94 233e 3c02 20be d359 fa3d
00000060: 3e79 cebd 7b22 e93d d87f 80bd f84b 883d
00000070: bedb a43d f6fd a33d 6b19 813d ee4b e13d
00000080: 00f7 083b cb82 a7bc 60b6 94bc 6096 943d
00000090: 56c0 6f3c 8b02 ddbd ab69 6ebd b634 72bd
000000a0: b8e6 21be 5660 f0bb 6ba4 69bd fe21 dabd
000000b0: 6bc7 c53d 427d 203e 964f 6f3c 9009 dcbd
000000c0: 9e53 fd3d 3635 633d 6356 cebd 5605 d93b
000000d0: 7b54 2f3d 8650 ac3d 402c dbbd c6a4 4e3d
000000e0: 7e81 ed3d 30c9 c9bd c058 e13c ea2a 02be
000000f0: ab20 68bd 4eae dabd ce25 8d3d 4b9b 4c3d
00000100: 4ef9 ee3d 2205 033e 36aa e4bc 98c4 b1bd
00000110: 57a4 113e 4888 a6bd 26fb 84bd 7bcf cfbd
00000120: 0024 513c 4b44 86bd e0c1 4fbd 9064 5f3d
00000130: b2a2 00be ab41 ec3d dc59 25be 9eb5 cb3d
00000140: 9b5d a6bd 003d cf3b 1645 b03c 9beb 45bd
00000150: d69a 8d3c f689 bb3c 6028 04be e08c a4bd
00000160: c053 c93d 36bf 8cbd ee04 87bd 26f5 863d
00000170: eb2e aebd da9b 013e a302 a4bd eb3f 0fbd
00000180: 36d8 ffbd 438a d2bd dec4 ffbd d82c a5bd
00000190: 1b60 f8bd 887a f93d def1 14be 5224 0abe
000001a0: 1fe8 003e c042 73bd 0855 db3d abea 2638
000001b0: a6b5 f03d 04f7 23be fb6c 363d 4e47 0dbe
000001c0: 363f cd3c c691 22bd 2b8c 19be 2a89 293e
000001d0: ab0c ddbd 80df 883b 4bf3 91bc fb89 063e
000001e0: 9e2d a0bd 4202 2a3e 6eb3 d6bd 0e18 f03d
000001f0: f0cd b03d f3e5 12be 7e72 f2bd f6ca edbc
00000200: ab3d 743b f00b 953d 4b06 8bbc f60b 0cbd
00000210: 5653 e13d f69f 53bd 6b7e d9bd e60f 1a3e
00000220: 8003 50bd 308a 463d f4d6 163e 3b6e fbbd
00000230: 9694 d13d 9f62 143e 6648 d2bd e035 a5bc
00000240: ab47 f13d 0b83 0fbd 60d2 923c cb36 2cbd
00000250: 201e 183e d381 f3bd 2b79 683c 9c0a 1f3e
00000260: 93d2 1bbe 7e41 ec3d 04c7 113e 1be4 633d
00000270: 9e8d 0ebe 5e7e 853d ae17 ed3d 58f3 033e
00000280: 1426 24be 2bef 29be 137b 95bd e6ba 6dbd
00000290: 9685 fe3d a096 d4bd b2b2 263e ffcb 28be
000002a0: 2f7c 12be eb2a 8dbc 9ebf ea3d 70ee 193d
000002b0: f473 08be 2c79 053e d654 af3d d06b 8abd
000002c0: 262f 1b3d 58d9 86bd 16ac 613c d63d dbbd
000002d0: 6bfa b23c 6366 c53d 80d1 2abc 56fd 89bc
000002e0: cbc4 acbc 8802 10be f30d fe3d 8ef0 943d
000002f0: 2041 0abd 8bcb 763d 7cd4 283e cc06 063e
00000300: 54ba 17be 0bf9 d7bc 56f9 3b3a 5eb6 183e
00000310: bbbc 2dbd c2c1 0bbe 0e11 cfbd 48b8 e2bd
00000320: ab6e 02bd db1d 2f3d a0f3 a83d 6be3 58bc
00000330: 562b 3c3b 607d 073d 280a bb3d 9e6d b83d
00000340: 08b7 253e 2a6c 0fbe e889 fcbd 1f9f 0fbe
00000350: abac ca3d 635c e6bd 6465 03be b383 cdbd
00000360: 33ff cfbd f23f 173e a6bb 31bd 2042 6ebd
00000370: 0066 d33d 56c0 d83b 6bc0 3bbd 60c6 edbd
00000380: 964f d13c ab38 b23d db87 3fbd 8b8f fd3d
00000390: abb6 c8bd 903f 1dbd ab53 113c d369 17be
000003a0: 8bc2 e43c 605d f0bd 06f9 e5bd 9be7 b53d
000003b0: 8b24 d2bc 1b11 4b3d b869 8b3d 6ba8 f43d
000003c0: 78f5 f6bd 5bbc 4f3d cb97 df3d eb2b 59bd
000003d0: d652 843d 26e9 a5bd d673 2c3d f662 7b3d
000003e0: 92c5 26be c04f e23c 3fd7 243e 62f1 24be
000003f0: 127f 043e 56ea efbc eb0d 4a3c 8659 c3bd
-0.14815259 -0.0051867766 0.06096059 -0.099116825 0.022647142 0.080312215 0.110018775 -0.033804536
0.15789394 0.07710779 -0.022443693 -0.0075457296 -0.13135956 0.033828657 -0.09439906 0.046571713
0.10378902 -0.089531004 -0.040350042 -0.10001545 -0.059158146 0.15974516 -0.15625852 0.12224164
-0.10081719 0.1138353 -0.06274384 0.06655115 0.08049725 0.080074236 0.06303676 0.110008106
0.0020899177 -0.02044811 -0.01815337 0.07255244 0.014633259 -0.10791501 -0.05820624 -0.0591323
-0.15810668 -0.007335703 -0.057041567 -0.10651015 0.096571766 0.15672782 0.014606377 -0.107440114
0.12369464 0.055470668 -0.10075071 0.0066229505 0.042805176 0.08413796 -0.107017994 0.05045011
0.11596964 -0.098528266 0.02750814 -0.12711683 -0.05667178 -0.10677777 0.06891976 0.049952786
0.11668645 0.12794927 -0.027913194 -0.086800754 0.14222847 -0.08131462 -0.06493215 -0.10146996
0.012764931 -0.065559946 -0.050722003 0.054539263 -0.12562063 0.11535963 -0.1614756 0.0994675
-0.081233226 0.0063244104 0.021517318 -0.048320394 0.017285746 0.022892933 -0.12906027 -0.08034682
0.09830427 -0.06872408 -0.06592737 0.06589727 -0.08505043 0.12657109 -0.080083154 -0.034973066
-0.12492411 -0.102802776 -0.12488721 -0.08065194 -0.12127706 0.12181574 -0.1454539 -0.13490418
0.12588547 -0.05938983 0.10709578 3.9796036e-05 0.11753397 -0.16012198 0.044537526 -0.13796732
0.025054555 -0.0396898 -0.14994876 0.1655623 -0.10793432 0.004177034 -0.017816206 0.13138573
-0.07821201 0.16602424 -0.10483442 0.11723338 0.086330295 -0.14345531 -0.11838244 -0.029027443
0.0037268202 0.072776675 -0.016970774 -0.034191094 0.11002223 -0.051666223 -0.106198154 0.15045127
-0.050784588 0.04847163 0.14730436 -0.12276884 0.10233419 0.14490746 -0.10267715 -0.020167291
0.11781248 -0.03503708 0.01792258 -0.042044442 0.14855242 -0.118899964 0.014189045 0.15531391
-0.15217046 0.11535929 0.14236075 0.05563746 -0.1392121 0.06518243 0.11576782 0.12885797
-0.1603015 -0.16595142 -0.07298865 -0.05803957 0.12427823 -0.10380292 0.16279104 -0.16484068
-0.14305185 -0.017232379 0.11462329 0.037580907 -0.13325483 0.13034505 0.08561103 -0.06758845
0.03788676 -0.06584424 0.013773939 -0.10705154 0.021847924 0.09638669 -0.010425925 -0.016844433
-0.021089932 -0.14063466 0.12405004 0.07272445 -0.033753514 0.060252707 0.16487306 0.1308853
-0.14817172 -0.02636387 0.0007170638 0.14913318 -0.042416316 -0.13648131 -0.10110675 -0.11070305
-0.031843822 0.04275308 0.08249593 -0.013237814 0.0028712354 0.03307855 0.091327965 0.09005283
0.16183102 -0.14006105 -0.12330991 -0.14025544 0.09896215 -0.1124809 -0.12831646 -0.10034885
-0.10156097 0.14770487 -0.043391846 -0.05816853 0.10322189 0.006614725 -0.0458378 -0.11610103
0.025550645 0.08702215 -0.04676042 0.12380894 -0.09800466 -0.038390696 0.008870046 -0.14786462
0.027924797 -0.1173656 -0.11229138 0.08882066 -0.02565219 0.04957686 0.068072736 0.11946186
-0.12058538 0.05071674 0.10917624 -0.0530204 0.06461112 -0.0810111 0.042102657 0.061373673
-0.16286305 0.027625918 0.16097735 -0.16107705 0.12939098 -0.029286545 0.01233242 -0.095385596

Q2.head.0.bias f4 [128]
00000000: 9ee7 bfbd d3cc 273e d469 0fbe 672d 273e
00000010: 8f72 05be 3b88 29bd d632 05bc 3605 e2bd
00000020: de99 df3d ce3b 1a3e 5bbe 6dbd f8ca ab3d
00000030: be40 ce3d 6fb2 24be 50da 743d ab34 d73a
00000040: 76e2 1dbd 2b03 0dbd 1848 ddbd b0f2 02bd
00000050: 365f 1dbe d3c9 f7bd ab61 39bb 76dc d03c
00000060: 0457 0b3e e0a7 e5bd 2066 eebd e3f0 0b3e
00000070: 6801 a0bd c2bf 1d3e c067 20bc 843f 133e
00000080: 37e3 07be 431b 073e fbbf 183e ce54 debd
00000090: d682 64bd bb6e 29bd 96ac 2a3d 8032 88bc
000000a0: 2636 a7bd f6f9 be3c 00f1 f23b 5cf6 213e
000000b0: 42e8 23be 0bcd 57bd 2346 0abe 26c1 5d3d
000000c0: 8e6b 8b3d 40f4 493d 5e2f c6bd 1b07 66bd
000000d0: d655 b9bd 202e 12be 3336 813d ebda f1bc
000000e0: 9a57 243e 40e8 8f3d 28ab cbbd 4604 1cbd
000000f0: 6343 96bd 8ee3 95bd 1802 a33d b8c6 d43d
00000100: db1f 933d d2c2 03be 77a9 233e 4a18 2abe
00000110: b093 2a3e 3fc2 0dbe 087f c1bd 76e6 6dbd
00000120: 90eb 65bd 2e45 f03d 7cd5 033e 80db 1c3d
00000130: b429 17be 43dc db3d 40e7 64bc a0c4 ebbd
00000140: d60a c63b 6623 fabd cb78 363d 2065 b23d
00000150: 0b58 4e3d ab0f b63d 0b09 213d 57e3 223e
00000160: 96cf af3c f648 413d 1b00 edbd 9794 123e
00000170: b0b7 7a3d 40bb b23c 6c97 243e c0a2 813c
00000180: fc69 1ebe ec21 28be 0bad f5bc 387a cb3d
00000190: 9063 673d 435f a1bd bb8f 1abe 7e06 f0bd
000001a0: eb2c 0c3c 80e3 203d 90e6 18be fb83 623d
000001b0: c62f 433d 80a6 ebbd ecfd 133e c792 29be
000001c0: 7cb1 133e e8ae ffbd 7b22 0d3e a291 06be
000001d0: e653 31bd eecf 9bbd cbf2 54bd 432a 1f3e
000001e0: ebf6 96bd 241f 2abe 983f d93d 563e 083e
000001f0: 66e8 93bd 2b74 e4bd 200e adbc 3ba0 643d
-0.09370349 0.16386728 -0.14005214 0.16325913 -0.13031982 -0.041389685 -0.008129796 -0.1103615
0.1091802 0.15061876 -0.058042865 0.083883226 0.10070942 -0.16083692 0.05977851 0.0016418895
-0.038546048 -0.03442685 -0.108047664 -0.031969726 -0.15368351 -0.12099042 -0.0028286974 0.025495749
0.13607413 -0.1121366 -0.116405725 0.1366611 -0.07812768 0.15405181 -0.009790361 0.14379698
-0.1327027 0.13193993 0.14916985 -0.10856019 -0.055788837 -0.041365366 0.041668497 -0.016625643
-0.08164625 0.02331255 0.0074139833 0.15816635 -0.16006568 -0.05268578 -0.13503318 0.05413928
0.06807624 0.0493052 -0.09677003 -0.05615912 -0.09049575 -0.14275408 0.06309166 -0.029523334
0.16049042 0.0702672 -0.09944755 -0.038090013 -0.07337072 -0.07318793 0.07959384 0.10389465
0.0718381 -0.12867287 0.15982614 -0.16610828 0.16657901 -0.1384363 -0.094480574 -0.058081113
-0.056132853 0.11731945 0.12874407 0.03829527 -0.14762002 0.10735371 -0.01397115 -0.115121126
0.006043772 -0.12213783 0.04454879 0.08710694 0.050376933 0.08889707 0.039315265 0.15907036
0.02146129 0.04718872 -0.11572286 0.14314495 0.061210334 0.021817803 0.16073388 0.015824676
-0.15470117 -0.1641919 -0.02998974 0.09935421 0.056491435 -0.07879498 -0.15093891 -0.11719988
0.008555631 0.03927946 -0.14931703 0.055301648 0.047652982 -0.11506367 0.14452332 -0.16559897
0.14423174 -0.124845326 0.13782685 -0.13141492 -0.043292902 -0.07608019 -0.051989358 0.15543465
-0.073713146 -0.16613442 0.10607833 0.1330503 -0.07222061 -0.1115497 -0.0211249 0.05581687

Q2.head.2.weight f4 [128, 128]
00000000: ff2c 38bd cf1f d9bc dce2 ddbc 297b 3fbd
00000010: 082a 47bd f4d9 0f3d 0a94 333d 8660 c93c
00000020: d703 36bd 0eb9 d4bc 0810 f23c ea9a 17bd
00000030: fc61 963b 627c 703c 415b a1bd dc76 11bd
00000040: 0544 9f3d 702e cc3c f596 a6bc dd33 823b
00000050: c96f a8bd ba47 593d fdf0 3e3d 2029 1dbd
00000060: 67f8 05bd a0bc 47bd 5889 1abc df37 223d
00000070: 9a12 1a3d 1119 8b3d 9a5b 223c c5fd a93d
00000080: 922a 5f3d c929 a0bd 58b0 abba 5e72 8b3d
00000090: 7c93 4f3d 6bd5 343d 7906 af3d 77c5 e2b9
000000a0: 4227 2c3d 15e6 4b3d 3793 b83c e822 753d
000000b0: 29a8 973c b56f a7bd a066 a43d a799 3f3c
000000c0: 2191 8d3d b694 333d f7aa 70bc 664c 9abc
000000d0: 641e f7bc 4be3 3f3d 9be1 36bd 912f 583d
000000e0: 7468 e33b 52f8 a13c b7cd ad3d a49b 4cb9
000000f0: c9b0 bc3c ed9c 98bd 7daa 7bbd cc23 8bbb
00000100: 2557 f13c 1ddc 0c3d e325 173d 9e70 6c3d
00000110: 367b d7bc ddea 45bd 468e 113d 3b9d 37bd
00000120: e5b8 7b3d 2878 dc3c d6f5 66bc b436 d8bc
00000130: 6e2c 2ebd 99d3 833d a5c1 053a 9a98 f0bc
00000140: f0af 4c3d 97b8 003a 3e61 aebb 2fbe 6d3d
00000150: 497e 91bd 90c2 983d dce2 26bb c6af 54bd
00000160: 35a6 71bd e4c7 67bd 8b1a efbc bf36 0dbd
00000170: 569c 903d 32e8 0bbb f8d8 42bd 430f 60bb
00000180: 538e 683b f323 463c 3506 983c ea6c b4bd
00000190: af2d 9fbd c15d 163d 9557 aa3d e2e2 a73d
000001a0: 02cd 61bc 8e2b 8fbc df27 aabd 450d 813d
000001b0: ba2c 653d 7213 a8bb 3126 abbb 4288 013d
000001c0: 6c3f 7abd cfc8 a6bd 7687 273d b870 673d
000001d0: f19a 3ebd b907 a0bd bb71 be3c 1026 5dbc
000001e0: 77f5 9ebc 9428 4dbd 830d 6e3d d2ca 2a3d
000001f0: dfbb 76bd d46a b7bc 54b7 e53b 4534 d9bc
00000200: e96b af3b e8b9 ab3d 7a5b 32bb 64fb 063d
00000210: fa4e 173d 1abc 5dbd 6e01 2ebc 1668 ff3c
00000220: d8a4 903d 0607 83bd dff3 57bd a732 383b
00000230: c87b 36bd 449f aabc d28e 623d 34f6 2dbc
00000240: 40ee 203c e16e a53d 8c0a 383d 071d 783d
00000250: 34d9 48bd 453c 113d e37d 0d3d 30af 613d
00000260: 7804 b33d c639 9e3d f5e1 97bd 9dc1 b1bd
00000270: 28b0 a33d e2ee 083d 064b c53c 0c6c b2bc
00000280: 1f94 8ebd b4bf 8cbd 4d0b 70bd e381 09bd
00000290: eab6 4d3d 5394 9cbd 4215 b43d 9c1d 993d
000002a0: 1587 a63d a17e 993c f740 593d 948e d13c
000002b0: 386d 19bc a62f a3bc 5a77 64bd e618 823d
000002c0: 807d 393d 50e3 9c3d eb44 313c 1bd6 6a3d
000002d0: 471c 5abd 3314 67bd 561c a33c 7db3 c33c
000002e0: b2f3 6a3d aaf9 fabc fc1a 0abd 8641 953d
000002f0: 76ec 63bc 2880 b1bd ba66 a9bd 7d78 ae3b
00000300: b248 a73d 3d8a 4cbd 2d23 ba3c 23d9 a8bd
00000310: 605c 953d 481a 103d bae5 4d3c 87a3 703d
00000320: 443b ad3d 8182 f4ba 27d7 afbd 6d6d a23d
00000330: bab5 5f3c 87df 5ebd ccd3 7f3d ef63 63bd
00000340: aaea 563d a9e4 933d 1a7b 313d 103f 983c
00000350: 89b8 e73c 1560 acbc 53ba 2cbd 7a76 a73d
00000360: a255 e6ba 99ea 19bc cf0b ddbc 47ee 0a3c
00000370: 5227 5b3d 5642 673b f423 223d 490f 2ebd
00000380: 6042 4f3d 6caa 403d 5540 3abd 8efa 2bbd
00000390: 2cf7 a7bd 63bc 7d3d c7fe 83bb c672 933c
000003a0: 6b40 2ebd e93d 3abb 3bed 3abd e666 d83c
000003b0: 4bdc 9bbd 1b61 39bd 6688 98bd 449d 673d
000003c0: 2a08 6abd b4e4 0dbd 524f 1d3b 839a d53b
000003d0: a501 ddbc ecb5 013d 2ab1 3dbd 3a9c db3c
000003e0: ce73 a63d 8395 863b 4fd7 a9bd b886 9e3d
000003f0: 326b ab3d b372 8e3d 0716 9cbc 667f d1bb
-0.044964787 -0.026504425 -0.027085714 -0.046748314 -0.04862407 0.035119966 0.043842353 0.024582159
-0.044437256 -0.025967147 0.02954866 -0.037012972 0.0045893174 0.014678093 -0.078787334 -0.035513744
0.077766456 0.024924487 -0.020335654 0.0039734677 -0.08224446 0.05304692 0.046616543 -0.038369298
-0.032707598 -0.04876387 -0.009432159 0.039604064 0.037615396 0.067918904 0.009909535 0.08300356
0.054483958 -0.0782047 -0.0013098819 0.06808923 0.05067776 0.044148844 0.085461564 -0.00043253202
0.042029627 0.04977997 0.022531135 0.059847742 0.018512802 -0.08175603 0.08027387 0.011694348
0.06912447 0.043842994 -0.014689199 -0.018835258 -0.030165859 0.046847623 -0.044648748 0.052779738
0.006939942 0.019771729 0.084865026 -0.00019512937 0.023033516 -0.07451806 -0.061441887 -0.0042462107
0.029460499 0.034389604 0.036901366 0.057724588 -0.026303869 -0.048319686 0.035536073 -0.04482768
0.061455626 0.026912764 -0.014096698 -0.026393272 -0.04252284 0.064368434 0.00051024026 -0.029369641
0.049972475 0.00049103185 -0.0053216508 0.0580427 -0.07104165 0.07458985 -0.0025464809 -0.051925443
-0.058996398 -0.056587115 -0.029187461 -0.034476038 0.07061069 -0.0021348116 -0.0475702 -0.0034188784
0.0035485222 0.012093532 0.018557647 -0.08809836 -0.07772385 0.036710504 0.08317486 0.08197571
-0.013781788 -0.017476823 -0.08308386 0.06301359 0.055950858 -0.005129271 -0.0052230586 0.031624086
-0.06109564 -0.0814377 0.04090067 0.05650398 -0.046534482 -0.07813973 0.02324759 -0.013497844
-0.019404156 -0.050087526 0.058118355 0.04169733 -0.06023776 -0.022389807 0.00701038 -0.026514182
0.00535344 0.08385068 -0.0027215169 0.03295459 0.036940552 -0.054134466 -0.010620458 0.031177562
0.070626915 -0.06397824 -0.052722808 0.0028106363 -0.04455164 -0.020827897 0.055311985 -0.010617781
0.009822428 0.08077789 0.044931933 0.060574558 -0.049035266 0.035457868 0.034543883 0.055098712
0.08741087 0.07725863 -0.07416145 -0.08679507 0.079925835 0.03343094 0.024083626 -0.021780036
-0.069618456 -0.06872502 -0.058604527 -0.033571135 0.05022327 -0.07645478 0.08793117 0.07476351
0.081312336 0.01873714 0.05304047 0.025580682 -0.009364419 -0.019920181 -0.055777885 0.06352405
0.0452857 0.07660544 0.010819654 0.057333093 -0.053249624 -0.056415748 0.019910973 0.023889298
0.057361312 -0.030636627 -0.03371714 0.07287888 -0.013911357 -0.08667022 -0.08271547 0.005324422
0.081681624 -0.04993652 0.022721851 -0.082445405 0.0729301 0.035181314 0.012566978 0.0587497
0.0845857 -0.0018654616 -0.08585959 0.079310276 0.013654167 -0.05441239 0.062457845 -0.055515226
0.052469887 0.07221348 0.04333029 0.018584758 0.028286235 -0.02104191 -0.04216988 0.081768945
-0.0017573128 -0.009394311 -0.02698317 0.008479661 0.053504296 0.0035287342 0.03958507 -0.042495046
0.05060041 0.047037527 -0.045471508 -0.041986994 -0.08201441 0.061947238 -0.0040281746 0.017999064
-0.042541903 -0.002841825 -0.045636397 0.026416253 -0.07610377 -0.045258623 -0.07447891 0.056546465
-0.057136692 -0.034641936 0.0024003577 0.0065186634 -0.026978323 0.031667635 -0.046311535 0.026807893
0.08127557 0.0041071787 -0.0829302 0.07740539 0.08370055 0.06955471 -0.019053472 -0.006393361

Q2.head.2.bias f4 [128]
00000000: db0b c83c 373f 8cbc 9b65 1b3c 0685 b13d
00000010: 66c5 9e3d 745e af3d cf1f 283d 0c7d 243c
00000020: f027 e23c 13b1 2dbd fd36 723d a186 82bd
00000030: d597 d2bc 205f 9a3d f718 f1bb 5cf2 443d
00000040: e45b c83c 46fd 983c 1fc3 e7bb 2b18 e43a
00000050: 2764 57bd 92ca a03d 5e8b 0d3d e9ca 5e3d
00000060: 7a60 a83d 3b81 553b 476b 6c3d 396f 423d
00000070: 01a1 5c3d 5f0a 593d de67 653b a4ba ab3d
00000080: 02bc 23bd 078f 693d 07e8 25bd 8601 8d3d
00000090: 0a2c 073d 90ee 50bd 5458 733c 4376 b1bd
000000a0: 4a0c 96bd cbfb 6cbd c2e7 efba 5d92 7ebc
000000b0: 55d6 aebd 71b0 683d 782a ca3c 7258 bb3c
000000c0: ecdb aabd 1819 6f3d 4e8b 6f3c 1cae 2dbd
000000d0: d9a3 fd3b 67f7 b0bc 1de4 4b3d 8502 cabb
000000e0: 650c 31bc 6793 84bc 2120 bd3b d563 9cbc
000000f0: 9850 5e3d beda ae3d 7356 a1bd 8b4e 463d
00000100: eacf 803d 2ad6 8c3d 40fd f9bc e186 0d3d
00000110: fdee 423d db0d a13d 5706 883d f554 4d3d
00000120: 30b2 913d b535 5fbd a091 b03b c01a 263d
00000130: 11c9 8cbd 9a5e 5e3d 3fda 843c 857d 07bd
00000140: d263 1cbd 14c8 b03d 0a8d b63c 6375 99bd
00000150: c0cb a33d 43d7 aa3a 054e 143c f507 843d
00000160: 73d9 92bd 6d3f 83bd 4cee 06bc cc02 863d
00000170: 5ae6 b23d b3ed c13c 19b4 933d 70ed 1f3d
00000180: eb06 743d 4f06 0dbc e7be fbbc b075 8d3d
00000190: 6a56 a0bd 1475 753d f819 a3bc d0ee 2fbb
000001a0: cf5f 12bd 7ae3 af3c 156f 46bd 0413 673d
000001b0: 69b1 0cbc 60eb 463d 4add 4abd 0c88 7d3c
000001c0: f0ff 663d 2afc d0bc bc3d 683d ca9f c93b
000001d0: 9c7c 9e3d 7010 4fbb 6025 9bbd d580 36bd
000001e0: 6dde 6cbc 9406 edbc 4e9c 503d a97d 38bd
000001f0: 400f a73d d264 58bc fde7 45bd 6b54 ffbb
0.024419716 -0.017119987 0.009484674 0.0866795 0.077524945 0.085629374 0.04104596 0.010039579
0.027606934 -0.0424052 0.059134472 -0.06373335 -0.025707165 0.07537675 -0.0073577124 0.048082694
0.02445788 0.018675458 -0.007072821 0.0017402222 -0.052585747 0.07851137 0.03455674 0.05439273
0.082215264 0.0032578248 0.057719495 0.04746935 0.053864483 0.052988406 0.0035004537 0.08385208
-0.03997422 0.057021167 -0.04050448 0.06885056 0.033000983 -0.05100876 0.014852602 -0.08665135
-0.07326563 -0.057857316 -0.0018303322 -0.015537825 -0.08536974 0.056808893 0.024678454 0.022869322
-0.08342728 0.05837354 0.014620615 -0.04240237 0.0077404794 -0.021602346 0.049778093 -0.006164851
-0.010806178 -0.016183568 0.0057716523 -0.019090572 0.05427608 0.085378155 -0.07877817 0.04841475
0.062896565 0.06876786 -0.030516267 0.03455246 0.0475912 0.07863971 0.06641834 0.05012985
0.07114065 -0.05449458 0.0053884536 0.040552855 -0.06874288 0.054289438 0.01621735 -0.03307869
-0.038181134 0.08631912 0.02228405 -0.07493093 0.079978466 0.0013034124 0.009051804 0.0644683
-0.071703814 -0.06408582 -0.008235525 0.06543502 0.08735342 0.023672914 0.07212085 0.039044797
0.05957691 -0.008607461 -0.030730678 0.06907213 -0.07828982 0.059926108 -0.019909844 -0.0026845224
-0.0357359 0.021470774 -0.04844578 0.05641462 -0.00858722 0.048564315 -0.049527444 0.015474331
0.056396425 -0.025510866 0.0566995 0.0061530815 0.07738611 -0.003159549 -0.07575488 -0.044556458
-0.014457327 -0.0289338 0.050930314 -0.045041714 0.081572056 -0.013207631 -0.048316944 -0.007792046
