script/logs/dome/model/final/online_critic.pth (torch, 112786 bytes, 12 tensors)

Q1.head.0.weight f4 [64, 72]
0.013850621 0.021317694 -0.016560419 -0.089189366 0.040249582 -0.005495748 0.046548665 0.06520088
0.085347764 0.07755012 0.0059162513 -0.050741576 0.109611705 -0.104312494 -0.061628584 0.05929202
0.056566324 0.0683532 -0.10420366 0.04086746 -0.09805662 0.08350296 -0.10014146 0.079278044
0.019399548 -0.02513079 0.048903447 0.08124448 0.04103739 0.02471796 0.16987026 0.111328036
-0.08116196 0.106072955 0.116328344 0.00038664113 0.039326593 -0.010535218 0.006572741 0.019421281
-0.052501164 0.034973715 0.049828254 0.06898391 -0.08403064 -0.06000228 -0.020565975 0.04716009
0.015252976 -0.055709366 -0.02779801 0.040195465 0.004855591 -0.02958845 0.02993088 -0.027356919
-0.11306356 0.066611506 0.1054051 -0.0026286654 0.06154158 0.08297172 0.1010725 0.05909231
-0.011013449 -0.11305975 -0.015111944 -0.033383396 0.05748481 0.11275368 0.024637876 -0.02479443
0.107226245 0.005585076 -0.08263838 0.0051778667 0.0023027163 0.042744227 0.10890042 -0.06457355
-0.06861791 0.050573178 0.065350555 0.11738306 -0.076482184 -0.056191135 -0.007837642 -0.037013568
-0.010806691 0.08937494 0.10676738 0.08537538 -0.01915976 -0.058131535 0.09277443 0.05296251
0.0041366993 0.1088168 -0.014292387 0.08782903 -0.06773816 0.001732095 0.17230237 0.00014543472
-0.07668462 0.025005052 -0.04365941 0.06443834 0.08594657 0.043998476 0.13214129 0.09671216
0.08210066 0.073721334 -0.109974295 -0.09665221 0.094391674 0.04386526 -0.0923987 0.101118386
0.0693485 -0.10632613 -0.04732667 -0.09935191 -0.04134036 -0.011125953 -0.010068446 0.05510283
-0.011775113 0.095947035 0.08223363 -0.10974962 0.027514277 -0.060408164 -0.022269102 0.025403406
-0.059571564 -0.06363881 -0.12371451 -0.04500504 0.057127602 -0.10835791 0.113137186 0.03646742
-0.033821538 0.047365345 0.10749149 0.056426708 -0.08364102 0.08887407 -0.011950781 0.043038253
-0.0725017 0.15672542 -0.07523985 0.07401196 0.09813786 0.011482515 0.09132951 0.101172455
-0.017775742 0.0148971975 0.0024755795 -0.019002294 -0.10440928 0.06661755 -0.112637535 0.08831081
-0.042875286 0.007475207 -0.028633341 -0.0672976 -0.04423774 -0.10623227 -0.026403291 0.061164014
0.09729183 -0.111954786 -0.014033051 0.010565513 -0.06557957 0.078243814 0.036999732 0.019468626
-0.065514155 -0.09774354 -0.012298619 0.080296226 0.102508694 0.09329386 0.006235022 0.08884886
-7.893797e-06 0.0857151 0.018272767 -0.08928574 -0.038598288 0.10491278 -0.043382116 -0.06038026
0.113785565 0.036714163 0.026131706 -0.049790125 0.10664888 0.096933015 -0.09540727 0.10200354
0.10803083 -0.089467324 0.028388685 -0.050123308 0.13633013 0.08088752 0.119022526 0.01739593
0.09547909 -0.02816289 0.072193556 0.055713665 -0.09245654 -0.070667155 -0.009515101 -0.096747234
-0.030393638 0.09936752 0.1065552 -0.009321099 -0.029060038 -0.08887107 0.035772614 0.070079535
0.05029479 -0.09968085 0.0057549556 -0.052425534 -0.06650576 0.058570098 -0.09651051 -0.00850402
0.086780064 -0.07706959 0.074843965 -0.043013137 -0.080572605 -0.007611145 -0.01837959 0.030912185
0.0838648 -0.089296855 -0.07665092 -0.020469671 0.00387803 0.15137321 0.15206917 -0.06377082
00000000: b7ed 623c 72a2 ae3c b7a9 87bc eaa8 b6bd
00000010: bfdc 243d ad15 b4bb d0a9 3e3d 0a88 853d
00000020: cfca ae3d 99d2 9e3d 1ddd c13b 66d6 4fbd
00000030: 1a7c e03d caa1 d5bd 416e 7cbd 30dc 723d
00000040: 17b2 673d c3fc 8b3d ba68 d5bd a364 273d
00000050: e9d1 c8bd 9a03 ab3d f716 cdbd 875c a23d
00000060: cdeb 9e3c 16df cdbc fb4e 483d 8263 a63d
00000070: d216 283d 527d ca3c 78f2 2d3e f4ff e33d
00000080: 3e38 a6bd c73c d93d 8e3d ee3d 18b6 ca39
00000090: ec14 213d e89b 2cbc 2660 d73b 6119 9f3c
000000a0: 760b 57bd 9940 0f3d b618 4c3d 7047 8d3d
000000b0: 4218 acbd f3c4 75bd fa79 a8bc f02a 413d
000000c0: 9ee7 793c 812f 64bd a7b8 e3bc 00a4 243d
000000d0: a61b 9f3b 7a63 f2bc 9b31 f53c 9e1b e0bc
000000e0: de8d e7bd 9d6b 883d a1de d73d b045 2cbb
000000f0: 0613 7c3d 14ed a93d 19ff ce3d c70a 723d
00000100: c171 34bc df8b e7bd 1698 77bc 07bd 08bd
00000110: 3175 6b3d 67eb e63d 5fd5 c93c b01d cbbc
00000120: 6f99 db3d 0303 b73b 503e a9bd 18ab a93b
00000130: 2be9 163b 9214 2f3d 2f07 df3d 233f 84bd
00000140: 8c87 8cbd d225 4f3d 83d6 853d 8866 f03d
00000150: b1a2 9cbd ad28 66bd 7469 00bc 8a9b 17bd
00000160: 8c0e 31bc 350a b73d dba8 da3d 4ad9 ae3d
00000170: eef4 9cbc 551b 6ebd 8500 be3d 38ef 583d
00000180: 268d 873b 58db de3d 9e2a 6abc b5df b33d
00000190: 4eba 8abd 7707 e33a 0870 303e d67f 1839
000001a0: d30c 9dbd 65d7 cc3c 36d4 32bd 40f8 833d
000001b0: c104 b03d bf37 343d 0c50 073e 0611 c63d
000001c0: 6424 a83d 36fb 963d 343a e1bd 98f1 c5bd
000001d0: 6c50 c13d 0fac 333d 883b bdbd 2817 cf3d
000001e0: 9606 8e3d 84c1 d9bd 9cd9 41bd 0479 cbbd
000001f0: 8254 29bd a149 36bc 20f6 24bc 81b3 613d
00000200: 67ec 40bc e17f c43d 1b6a a83d 69c4 e0bd
00000210: 9f65 e13c 8d6e 77bd b16d b6bc ce1a d03c
00000220: 5001 74bd 1055 82bd 085e fdbd 3457 38bd
00000230: a2fe 693d c0ea ddbd 78b4 e73d dd5e 153d
00000240: 7488 0abd 2a02 423d 8024 dc3d b11f 673d
00000250: fc4b abbd 9c03 b63d 35cd 43bc e148 303d
00000260: c57b 94bd a17c 203e 5a17 9abd 9593 973d
00000270: 81fc c83d 2921 3c3c f70a bb3d 8133 cf3d
00000280: 6f9e 91bc 6013 743c 553d 223b b3aa 9bbc
00000290: 88d4 d5bd c86e 883d 82ae e6bd 4cdc b43d
000002a0: ff9d 2fbd 95f2 f43b 7890 eabc 53d3 89bd
000002b0: a232 35bd 4e90 d9bd b74b d8bc 1e87 7a3d
000002c0: f040 c73d 8d48 e5bd e2ea 65bc f91a 2d3c
000002d0: 954e 86bd 4b3e a03d 088d 173d ab7c 9f3c
000002e0: 492c 86bd c42d c8bd 2680 49bc 5972 a43d
000002f0: 14f0 d13d da10 bf3d 284f cc3b 64f6 b53d
00000300: 9a6f 04b7 668b af3d c5b0 953c 71db b6bd
00000310: 3d19 1ebd 83dc d63d 72b1 31bd 4b51 77bd
00000320: 6808 e93d 9761 163d 2912 d63c bbf0 4bbd
00000330: ba6a da3d d184 c63d e364 c3bd 3be7 d03d
00000340: 453f dd3d a53a b7bd 638f e83c 194e 4dbd
00000350: 209a 0b3e 5ba8 a53d 15c2 f33d e981 8e3c
00000360: 8b8a c33d dcb5 e6bc 37da 933d 0334 643d
00000370: db59 bdbd f1b9 90bd 3ae5 1bbc 6a23 c6bd
00000380: 14fc f8bc 3381 cb3d 9d39 da3d 86b7 18bc
00000390: 510f eebc 0902 b6bd 4e86 123d dc85 8f3d
000003a0: e901 4e3d 7925 ccbd 1194 bc3b 28bc 56bd
000003b0: 2c34 88bd 33e7 6f3d 4da7 c5bd 7254 0bbc
000003c0: bfb9 b13d a9d6 9dbd cb47 993d 8b2e 30bd
000003d0: 4003 a5bd e966 f9bb cb90 96bc 8d3b fd3c
000003e0: 4fc1 ab3d 45e1 b6bd 28fb 9cbd 03b0 a7bc
000003f0: 8c26 7e3b 9401 1b3e 05b8 1b3e 479a 82bd

Q1.head.0.bias f4 [64]
0.10763598 0.10942023 0.19149816 0.13161877 0.095924474 0.13852115 -0.06441797 0.09321719
-0.074088745 0.07397847 -0.07960637 0.11870764 -0.01911263 0.103603445 -0.021221895 0.09467574
-0.04577177 -0.016035441 0.20461339 0.15262832 0.20387447 0.09992652 0.17119855 0.10886374
0.10618362 -0.08784029 0.115048565 0.17086014 0.10098035 -0.074070044 -0.0062685055 0.19068815
-0.064178586 0.16055308 0.13019201 0.20613258 0.12740023 0.005487174 -0.033005193 -0.016280165
0.19333223 -0.008632676 0.11516117 -0.10229556 0.18950698 -0.03085822 0.1779048 0.17067493
0.14754623 0.166417 0.1603054 0.1366649 0.14739893 0.105371684 0.09813251 0.19257025
0.18772385 0.10572644 -0.12626319 0.13822852 0.12754576 0.1599004 -0.09586243 0.1304861
00000000: 4170 dc3d b717 e03d 1818 443e 12c7 063e
00000010: 0d74 c43d 7dd8 0d3e 92ed 83bd a7e8 be3d
00000020: d7bb 97bd 0682 973d aa08 a3bd fe1c f33d
00000030: 1792 9cbc 0b2e d43d 8ad9 adbc 5be5 c13d
00000040: 2e7b 3bbd c25c 83bc 2c86 513e 994a 1c3e
00000050: 78c4 503e 46a6 cc3d ac4e 2f3e f4f3 de3d
00000060: cc76 d93d 9ce5 b3bd 959e eb3d f6f5 2e3e
00000070: c9ce ce3d 09b2 97bd 0968 cdbb c143 433e
00000080: 1070 83bd 0768 243e 0e51 053e 6b14 533e
00000090: 3575 023e c0cd b33b 7430 07bd fb5d 85bc
000000a0: e2f8 453e 1170 0dbc 9fd9 eb3d 5680 d1bd
000000b0: 1e0e 423e 61ca fcbc ad2c 363e 69c5 2e3e
000000c0: 5c16 173e 3869 2a3e 1927 243e e2f1 0b3e
000000d0: bfef 163e 1ccd d73d b3f9 c83d 2331 453e
000000e0: ae3a 403e 1b87 d83d 234b 01be c78b 0d3e
000000f0: 5b9b 023e eebc 233e 8653 c4bd 269e 053e

Q1.head.2.weight f4 [64, 64]
0.2102241 0.1654172 0.02877636 0.043063775 0.1547794 0.15016158 -0.04977316 0.22050145
-0.028583415 0.09966775 0.09504564 0.027615143 0.15188827 0.09690324 0.009579951 0.032701395
0.13135862 0.11841702 0.06497241 0.12086163 0.123000056 0.0009781482 0.2006425 -0.00060915295
0.15618095 0.08479697 0.10690205 0.03134917 0.025361182 0.10329417 0.0510701 0.031391356
-0.012790206 0.11121012 0.18886793 -0.029156975 0.15165508 -0.07185761 -0.04562222 -0.018546157
0.17750482 0.050509736 0.11832292 0.07320935 0.1941213 0.07297291 0.027866354 0.12701488
0.1976136 0.038561437 0.15934813 0.068523906 0.16646753 0.07000777 0.12946267 -0.013248982
0.06076322 0.057218127 -0.08198763 0.13146941 0.21453354 0.0025632067 0.15071708 0.108861774
-0.032518502 0.08624987 0.1615081 -0.016044067 0.075048 0.2026408 -0.029933278 0.16858038
0.0038777145 0.041676138 -0.064153455 0.20493473 -0.06549475 0.012508262 -0.08740406 0.109780475
-0.058976945 0.14816144 0.13321972 0.16470306 0.092945665 0.18629956 0.014675105 0.053289328
0.19704255 0.074255936 0.013128084 0.08050326 0.15989006 0.047814682 0.17284349 0.029943742
-0.110844575 0.15463631 0.099290036 -0.021434804 0.09780573 -0.07743202 0.11148808 0.14554408
0.11390127 0.16579466 0.017074091 -0.012023801 0.17836706 0.022292856 0.18401338 0.17988567
0.055339206 0.010882223 0.11108054 0.16537338 0.10311617 0.050564744 0.12954906 -0.03844634
0.18516059 0.12056571 0.123304665 0.19499618 0.15950076 0.03859923 -0.04203552 0.09762962
0.21707653 0.11401509 0.17156336 0.0775805 0.15038165 0.015998546 0.029113904 0.20516238
-0.07709713 -0.014735263 -0.002024468 -0.0001548786 -0.055339806 0.09868986 0.02164003 0.18060057
0.014029636 0.116955526 0.1503835 0.18302561 0.052714642 0.105301976 -0.029703043 0.17156784
0.15045194 0.055314668 0.060457673 0.19742101 0.01065942 0.09018988 0.16679412 0.12512453
0.117921166 0.006946863 0.20290855 0.17105007 0.054759648 0.14118548 -0.0068296054 -0.06782768
0.19829471 0.09425928 0.16687466 0.05127286 0.16697665 0.062442027 0.12856603 -0.0015847823
0.16932945 0.13976793 0.1385252 -0.02149421 0.010174716 0.03966328 -0.0051369853 0.17447707
0.100379154 0.013788501 -0.054979973 0.059394196 0.19499312 0.03270976 0.13303104 0.1599822
-0.08988306 -0.11239202 0.03567061 0.08542313 -0.024884433 -0.10965337 0.04651177 -0.04153852
-0.059218884 0.010628238 0.09345712 -0.11240831 0.02812232 -0.0059877634 -0.085783035 0.10477571
-0.018882394 0.11956976 -0.08895333 0.0076130927 -0.03312637 0.026226997 -0.120511085 0.037179604
-0.0665998 0.07000519 -0.053719923 -0.0010452718 -0.09673439 -0.08029762 0.059473753 0.111558616
0.1041757 -0.10279946 -0.041234985 0.08584674 0.04922229 0.069849685 0.11329305 -0.034312636
-0.041988507 0.010048434 -0.1133824 -0.026953623 0.118361086 -0.010311559 -0.045854986 -0.048819467
-0.024943933 -0.000513494 -0.110025525 0.09513877 -0.12063216 -0.061351806 -0.10252109 -0.07271145
0.037318334 -0.07756737 -0.049126193 -0.087751955 -0.00564301 0.11178723 0.052847072 0.07619722
00000000: fd44 573e 2063 293e 67bc eb3c a463 303d
00000010: 7e7e 1e3e f5c3 193e f1de 4bbd 22cb 613e
00000020: c427 eabc 9b1e cc3d 4aa7 c23d 2739 e23c
00000030: 9988 1b3e 3575 c63d 3af5 1c3c e6f1 053d
00000040: e082 063e 9f84 f23d 4110 853d 4d86 f73d
00000050: 74e7 fb3d 3535 803a 3a75 4d3e 90af 1fba
00000060: e6ed 1f3e 09aa ad3d 76ef da3d fd67 003d
00000070: 41c2 cf3c e58b d33d e22e 513d 3994 003d
00000080: 038e 51bc 22c2 e33d 9866 413e 9cda eebc
00000090: 784b 1b3e 152a 93bd 5dde 3abd 1cee 97bc
000000a0: d3c3 353e 4ce3 4e3d 4953 f23d c9ee 953d
000000b0: bcc7 463e d272 953d fb47 e43c 3010 023e
000000c0: 385b 4a3e 99f2 1d3d 282c 233e 4356 8c3d
000000d0: 7776 2a3e 3c60 8f3d dd91 043e 4212 59bc
000000e0: dbe2 783d 8e5d 6a3d 21e9 a7bd eb9f 063e
000000f0: aeae 5b3e 79fb 273b 9455 1a3e ecf2 de3d
00000100: 1f32 05bd c6a3 b03d 6162 253e d96e 83bc
00000110: c4b2 993d 1281 4f3e a236 f5bc 56a0 2c3e
00000120: 4121 7e3b 99b4 2a3d e362 83bd 69da 513e
00000130: 1d22 86bd 74ef 4c3c e600 b3bd 96d4 e03d
00000140: cf91 71bd a2b7 173e c06a 083e eba7 283e
00000150: 4c5a be3d 50c5 3e3e da6f 703c e945 5a3d
00000160: 86c5 493e 7f13 983d 2d17 573c e5de a43d
00000170: 38ba 233e 54d9 433d e2fd 303e 944c f53c
00000180: 7b02 e3bd fb58 1e3e 9358 cb3d 0b98 afbc
00000190: 5f4e c83d ae94 9ebd dd53 e43d 8209 153e
000001a0: 1245 e93d 13c6 293e f7de 8b3c 7aff 44bc
000001b0: dba5 363e 829f b63c 016e 3c3e f333 383e
000001c0: 5dab 623d 5a4b 323c 327e e33d a457 293e
000001d0: 922e d33d fa1c 4f3d 82a8 043e e979 1dbd
000001e0: bd9a 3d3e 28eb f63d 2887 fc3d 14ad 473e
000001f0: 2b54 233e 3a1a 1e3d 702d 2cbd 0af2 c73d
00000200: 4f49 5e3e be80 e93d 4eae 2f3e 86e2 9e3d
00000210: a6fd 193e 620f 833c 4880 ee3c 1616 523e
00000220: 1ae5 9dbd 2c6c 71bc f0ac 04bb e866 22b9
00000230: feab 62bd e91d ca3d 6f46 b13c 5bef 383e
00000240: 8fdc 653c 6186 ef3d 22fe 193e 116b 3b3e
00000250: 4feb 573d 90a8 d73d cc53 f3bc 7baf 2f3e
00000260: 1310 1a3e a291 623d 77a2 773d bc28 4a3e
00000270: d9a4 2e3c 79b5 b83d 14cc 2a3e a520 003e
00000280: a780 f13d 83a2 e33b 42c7 4f3e c027 2f3e
00000290: a74b 603d ed92 103e e2ca dfbb 3de9 8abd
000002a0: c50d 4b3e 020b c13d 31e1 2a3e 7e03 523d
000002b0: edfb 2a3e 36c3 7f3d d0a6 033e 78b8 cfba
000002c0: b364 2d3e 531f 0f3e 8dd9 0d3e a014 b0bc
000002d0: dab3 263c f775 223d 2854 a8bb 1eaa 323e
000002e0: 9693 cd3d 2ae9 613c ae32 61bd 5447 733d
000002f0: 47ac 473e abfa 053d 4a39 083e 60d2 233e
00000300: 9c14 b8bd ca2d e6bd 581b 123d 52f2 ae3d
00000310: 70da cbbc f291 e0bd 2083 3e3d 4c24 2abd
00000320: 808f 72bd 1022 2e3c 7266 bf3d 5436 e6bd
00000330: c860 e63c 0035 c4bb 04af afbd a694 d63d
00000340: 40af 9abc fee0 f43d 2a2d b6bd 4077 f93b
00000350: 84af 07bd 00da d63c 84ce f6bd a449 183d
00000360: 7a65 88bd e25e 8f3d 6c09 5cbd 8001 89ba
00000370: ae1c c6bd 1473 a4bd c09a 733d d878 e43d
00000380: 125a d53d 8688 d2bd 04e6 28bd 6ad0 af3d
00000390: 509d 493d 5a0d 8f3d 3006 e83d 688b 0cbd
000003a0: 24fc 2bbd 30a2 243c 0835 e8bd d8cd dcbc
000003b0: 4c67 f23d d0f1 28bc 70d2 3bbd ecf6 47bd
000003c0: 3857 ccbc 009c 06ba 1055 e1bd 1ed8 c23d
000003d0: fe0d f7bd 084c 7bbd 94f6 d1bd bee9 94bd
000003e0: 1cdb 183d a4db 9ebd 8c38 49bd 4cb7 b3bd
000003f0: 00e9 b8bb b4f0 e43d 2c76 583d 4a0d 9c3d

Q1.head.2.bias f4 [64]
0.073464595 0.11482602 0.111136585 -0.116514176 -0.030160947 -0.11327954 0.18704213 0.016737243
0.08069352 -0.05631416 0.135534 -0.04993026 0.17091006 0.15532626 -0.106120676 0.019193096
0.15896523 0.16663314 0.03275522 -0.08386255 0.15109642 0.006869562 0.09788175 0.1345067
0.14331385 0.10567383 0.10030182 0.1534823 -0.07970025 -0.00016309401 0.07669046 0.08006825
-0.082446344 0.039980598 0.044734534 0.09592625 -0.10312657 0.17728905 0.07792464 0.08079805
-0.12451798 0.13096051 0.09446188 0.08677403 0.05115023 0.17591292 0.13123198 0.14847718
0.085419 0.049311124 -0.0838248 -0.086453184 0.060334124 -0.026266862 0.09487936 -0.029465497
0.11080536 0.18482685 0.079478264 -0.102377355 0.11310239 0.092962764 0.02979793 -0.105465874
00000000: 9b74 963d e829 eb3d 949b e33d fc9e eebd
00000010: 1714 f7bc 1aff e7bd f987 3f3e 8b1c 893c
00000020: a542 a53d ada9 66bd 6dc9 0a3e ac83 4cbd
00000030: 0c03 2f3e d90d 1f3e cc55 d9bd d73a 9d3c
00000040: c8c7 223e e1a1 2a3e 562a 063d 21c0 abbd
00000050: 05b9 1a3e 101a e13b 3a76 c83d 20bc 093e
00000060: dec0 123e 856b d83d 0a6b cd3d 772a 1d3e
00000070: e239 a3bd 3704 2bb9 e30f 9d3d d3fa a33d
00000080: a1d9 a8bd b2c2 233d 8f3b 373d fb74 c43d
00000090: 0634 d3bd 438b 353e f496 9f3d 7379 a53d
000000a0: 4803 ffbd 831a 063e 3b75 c13d 95b6 b13d
000000b0: e782 513d 8422 343e ad61 063e 670a 183e
000000c0: 28f0 ae3d 76fa 493d 56ac abbd 5e0e b1bd
000000d0: ea20 773d 9a2d d7bc 1c50 c23d a061 f1bc
000000e0: eced e23d 4043 3d3e 80c5 a23d 38ab d1bd
000000f0: 3aa2 e73d 4363 be3d ca1a f43c 7efe d7bd

Q1.head.4.weight f4 [72, 64]
-0.06414576 -0.1283997 -0.14989409 -0.10898258 0.047810853 0.009243235 0.052738618 -0.0049889535
-0.047733333 -0.0021595792 -0.13105297 -0.07102305 -0.09796305 -0.013398197 0.06788461 0.021692576
-0.09597885 -0.15863423 -0.18300445 -0.10989581 0.0710326 -0.006765753 -0.0045806477 -0.061876725
0.036786694 -0.045129035 -0.06625911 0.0021682729 -0.030504957 -0.118875846 -0.17637004 0.032386176
0.03297232 -0.1487749 -0.19563647 -0.023242205 -0.029226318 0.052248925 -0.088406235 -0.09672328
0.09011352 -0.10376581 -0.10229779 -0.16047558 -0.02927649 -0.08448599 -0.072163075 -0.11400615
0.033057384 -0.019924497 0.035292998 -0.0015603006 -0.03735128 -0.079872906 -0.110270046 -0.15272965
-0.08203489 -0.14699939 -0.091129705 0.045966804 0.042540263 -0.08977864 -0.09222373 0.046725035
-0.1590052 -0.15201257 0.062767945 -0.041670844 -0.08526026 0.09161393 0.0014148577 0.058376774
-0.018831147 0.102077976 0.04019765 -0.06800963 0.06945164 -0.03980662 0.06350718 -0.120895125
-0.008103901 0.022355767 -0.054512486 -0.059811696 0.0071709924 -0.16421407 -0.006823899 -0.03771055
-0.17711066 -0.07558321 -0.13056345 -0.15145491 0.046643063 -0.008026994 -0.16462955 -0.040921036
0.07637836 -0.10361833 -0.11302009 -0.01591782 0.053989574 -0.06929055 -0.1782651 -0.059827622
-0.040978283 -0.15767127 -0.1482125 -0.15825014 -0.13375174 -0.12188937 -0.12224901 -0.12969013
0.056910157 -0.013748183 0.11509563 0.068294525 -0.07317599 -0.04659653 -0.07539631 -0.16454238
-0.06739054 -0.03062054 -0.1799327 0.0035936534 -0.13274737 -0.09904047 -0.028245391 0.056193665
-0.055352155 -0.12116802 -0.008534595 -0.026883006 0.052371725 0.087958574 -0.06637345 -0.053428933
-0.020815115 -0.02870691 -0.1547853 -0.010335818 0.020959983 0.01887835 -0.11915638 -0.11998197
-0.1393571 0.012987237 -0.037396614 0.03372802 0.03962772 -0.08453525 -0.15932223 -0.09363233
-0.12523338 -0.018570533 -0.18886267 -0.083569124 -0.060025588 -0.12632352 0.02196833 0.024519384
-0.090407446 -0.06177067 -0.08884495 0.049903702 0.09022911 -0.06973664 -0.013880061 -0.05408224
0.08823745 -0.052660707 -0.09255004 0.042794578 -0.014950362 -0.1677136 -0.007198481 -0.09763749
-0.0020809316 -0.1662909 -0.09332724 -0.12444559 -0.11806801 0.038183525 -0.035543755 -0.11850014
0.030477412 -0.037248082 0.0123443855 -0.061850592 -0.020126928 -0.17681627 -0.15266122 -0.104227856
-0.027135981 -0.100781694 0.05818699 -0.12273009 -0.06793091 0.028446805 -0.059531335 0.08167595
-0.05341491 0.096501574 -0.06133444 0.09160523 -0.16109504 0.06637918 -0.056165837 -0.03314707
0.05165279 -0.16016744 -0.14046831 0.033171937 -0.11440249 -0.001039103 -0.030314134 0.023600554
-0.022596322 -0.17766982 -0.13545892 -0.052583672 -0.07192035 -0.17189734 -0.16662456 0.0037290943
-0.10003415 0.05793472 -0.04462886 -0.16354112 -0.12152888 -0.14561063 -0.064363554 -0.15370539
0.08075836 -0.11085657 -0.08520776 -0.06681015 0.07107525 -0.09936336 0.042760815 -0.10626893
-0.012257388 -0.015859907 0.12171501 0.040401265 -0.16014299 -0.09169088 0.04108801 -0.04890973
-0.1436482 -0.12961224 -0.17925227 -0.018031895 -0.14565116 0.04096615 -0.050868534 -0.03597547
00000000: da5e 83bd 367b 03be d67d 19be 4232 dfbd
00000010: 50d5 433d f070 173c 7304 583d 607a a3bb
00000020: 0784 43bd ba87 0dbb c032 06be 8874 91bd
00000030: daa0 c8bd 1c84 5bbc 1607 8b3d a1b4 b13c
00000040: 8f90 c4bd 0371 22be 8565 3bbe 0e11 e1bd
00000050: 8a79 913d 40b3 ddbb 4219 96bb 7372 7dbd
00000060: a5ad 163d 39d9 38bd dbb2 87bd 9519 0e3b
00000070: 88e5 f9bc 2e75 f3bd 599a 34be 5ea7 043d
00000080: fc0d 073d 7358 18be ed54 48be 7066 bebc
00000090: 086c efbc f802 563d 540e b5bd db16 c6bd
000000a0: 708d b83d 2b83 d4bd 8181 d1bd b653 24be
000000b0: 40d5 efbc fe06 adbd 3cca 93bd 0e7c e9bd
000000c0: 2e67 073d b338 a3bc 648f 103d 0083 ccba
000000d0: a8fd 18bd 6894 a3bd 43d5 e1bd 2965 1cbe
000000e0: e901 a8bd 0287 16be 36a2 babd b047 3c3d
000000f0: b33e 2e3d dddd b7bd ccdf bcbd c062 3f3d
00000100: 42d2 22be 2fa9 1bbe 7b8c 803d 0caf 2abd
00000110: ee9c aebd 16a0 bb3d bf72 b93a 7c1c 6f3d
00000120: c743 9abc 420e d13d 4ba6 243d a248 8bbd
00000130: a93c 8e3d 440c 23bd 0d10 823d dd97 f7bd
00000140: 39c6 04bc 7123 b73c 7c48 5fbd 1cfd 74bd
00000150: a5fa ea3b bc27 28be 049b dfbb 6176 1abd
00000160: 7f5c 35be 5fcb 9abd 6db2 05be ff16 1bbe
00000170: cc0c 3f3d a783 03bc a694 28be d19c 27bd
00000180: 426c 9c3d d935 d4bd 1477 e7bd 1766 82bc
00000190: 2c24 5d3d 34e8 8dbd 208b 36be cf0d 75bd
000001a0: d8d8 27bd 9474 21be 05c5 17be 530c 22be
000001b0: 37f6 08be 22a1 f9bd b05d fabd 7dcd 04be
000001c0: a01a 693d 0f40 61bc 42b7 eb3d 00de 8b3d
000001d0: 4bdd 95bd 01dc 3ebd 6169 9abd cc7d 28be
000001e0: 0d04 8abd edd7 fabc 4740 38be 8083 6b3b
000001f0: edee 07be bbd5 cabd e162 e7bc 542b 663d
00000200: f1b8 62bd f026 f8bd b0d4 0bbc c039 dcbc
00000210: bc83 563d a023 b43d ceee 87bd 4cd8 5abd
00000220: 7684 aabc c12a ebbc 0a80 1ebe 9057 29bc
00000230: 45b4 ab3c c5a6 9a3c 4308 f4bd 1bb9 f5bd
00000240: a1b3 0ebe 6cc8 543c 312d 19bd 6426 0a3d
00000250: ad50 223d d120 adbd 5e25 23be 4fc2 bfbd
00000260: 2e3d 00be 3b21 98bc 3765 41be 4a26 abbd
00000270: 64dd 75bd f45a 01be edf6 b33c e0dc c83c
00000280: 8a27 b9bd 3e03 7dbd 57f4 b5bd d367 4c3d
00000290: 0aca b83d 15d2 8ebd 3269 63bc 5785 5dbd
000002a0: d6b5 b43d c1b2 57bd e08a bdbd 5e49 2f3d
000002b0: 5df2 74bc 1dbd 2bbe 3ce1 ebbb 2af6 c7bd
000002c0: 3d60 08bb 2948 2abe 5a22 bfbd 54dd febd
000002d0: a4cd f1bd 5466 1c3d 5496 11bd 34b0 f2bd
000002e0: c4ab f93c 7291 18bd 1b40 4a3c 0c57 7dbd
000002f0: 3ae1 a4bc 530f 35be 3953 1cbe 6a75 d5bd
00000300: 474c debc a266 cebd 7b55 6e3d ea59 fbbd
00000310: 5c1f 8bbd 4609 e93c 21d7 73bd b845 a73d
00000320: 98c9 5abd 9ea2 c53d d239 7bbd 869b bb3d
00000330: 19f6 24be cff1 873d 260e 66bd 39c5 07bd
00000340: e091 533d ef02 24be edd6 0fbe 4cdf 073d
00000350: da4b eabd 8332 88ba 5955 f8bc f355 c13c
00000360: ec1b b9bc 14ef 35be beb5 0abe fa61 57bd
00000370: fa4a 93bd db05 30be a19f 2abe d263 743b
00000380: b4de ccbd f54c 6d3d c0cc 36bd 5377 27be
00000390: 22e4 f8bd f41a 15be 0ad1 83bd f264 1dbe
000003a0: a464 a53d c508 e3bd 6881 aebd c3d3 88bd
000003b0: e78f 913d 047f cbbd f725 2f3d 86a3 d9bd
000003c0: 36d3 48bc a3ec 81bc b845 f93d cc7b 253d
000003d0: 86fc 23be 6ec8 bbbd e74b 283d 9255 48bd
000003e0: 8418 13be 12b9 04be e88d 37be a0b7 93bc
000003f0: 9425 15be 1fcc 273d 865b 50bd 045b 13bd

Q1.head.4.bias f4 [72]
-0.13506846 0.065023705 -0.114065215 -0.10909174 -0.08116433 -0.15915161 -0.036780465 -0.03960218
-0.008664869 0.03601539 -0.10796062 0.0627693 -0.09183726 -0.13730317 0.047373813 -0.0567652
-0.12397231 -0.14808239 0.028259056 -0.011261231 0.051798582 0.03528915 -0.10638853 0.07078688
-0.029479327 0.0335717 -0.090200365 0.06192601 -0.061027538 -0.106499456 0.034460127 0.026902977
-0.022378344 0.06440751 0.0049525467 0.07037198 0.0050149877 -0.07567355 0.0364429 -0.077911295
0.067606635 0.069315806 -0.004421234 -0.09489627 -0.072977066 -0.11294038 -0.14688823 -0.10453757
0.13698226 0.008972407 -0.016505813 0.06680107 -0.08168613 0.07466755 -0.1120257 0.06003312
-0.07671157 0.023487994 0.0036805444 0.022786645 -0.0077689304 -0.14130613 0.036363587 0.06742729
0.020299308 -0.1336576 -0.15866873 0.0354209 0.1297774 -0.101565495 0.0037145938 0.08447439
00000000: 634f 0abe 262b 853d 069b e9bd 7d6b dfbd
00000010: 7c39 a6bd a4f8 22be 1da7 16bd e535 22bd
00000020: 18f7 0dbc e084 133d 751a ddbd 318d 803d
00000030: 2c15 bcbd 3499 0cbe 0b0b 423d a082 68bd
00000040: 32e5 fdbd e9a2 17be 897f e73c 0781 38bc
00000050: c02a 543d 5b8b 103d 3be2 d9bd b6f8 903d
00000060: a17e f1bc 7b82 093d f8ba b8bd 21a6 7d3d
00000070: 03f8 79bd 631c dabd 1026 0d3d a263 dc3c
00000080: ca52 b7bc 16e8 833d f948 a23b 2f1f 903d
00000090: c454 a43b bcfa 9abd 2645 153d f58f 9fbd
000000a0: 5975 8a3d 72f5 8d3d 00e0 90bb fa58 c2bd
000000b0: 0075 95bd 494d e7bd de69 16be cb17 d6bd
000000c0: 1445 0c3e 0101 133c 3337 87bc 00cf 883d
000000d0: 0f4b a7bd 4deb 983d bb6d e5bd 4ae5 753d
000000e0: f51a 9dbd e569 c03c 4a35 713b 0fab ba3c
000000f0: 8392 febb 8eb2 10be fcf1 143d 5217 8a3d
00000100: bc4a a63c 8add 08be 0e7a 22be 8115 113d
00000110: 5ee4 043e 9201 d0bd 8b70 733b e900 ad3d

Q2.head.0.weight f4 [64, 72]
-0.0200119 -0.08576023 -0.09750302 0.036749143 0.110565 0.11279259 -0.061773848 0.0955373
-0.0006101318 0.037174888 -0.09729486 -0.016917 -0.006515106 0.014320122 0.024991902 0.0015316065
-0.0033997896 0.016525652 -0.06446331 0.08470739 -0.07093905 0.02513728 -0.0887092 0.03273871
0.10269546 -0.08749121 0.06388928 0.07360267 0.0751251 0.10562949 -0.0763956 0.11509954
-0.051504195 -0.02055527 0.052725602 -0.072438195 -0.017777119 0.14100617 0.02407665 -0.06707021
-0.05044295 0.046487253 -0.029682312 -0.061581828 0.041927177 0.026889531 0.07180158 -0.004134873
0.054435726 -0.0339747 0.0711055 -0.011102351 0.10569269 -0.025306499 -0.10303029 0.0025499251
0.042527013 0.09953081 -0.10578522 0.028802605 0.07519827 -0.03759881 -0.025979092 0.02782946
0.07833141 0.09162861 0.09838926 0.008256385 0.06939874 -0.05293123 -0.061713677 0.087747745
-0.09233578 0.116562 0.01608709 0.023440082 -0.030360121 -0.048851646 -0.017942939 0.07214693
-0.08381128 0.029998157 -0.09844034 0.029579304 0.052089587 -0.008176868 0.1026491 0.06617516
-0.016423194 -0.049141917 -0.013697936 0.058284808 0.01945833 -0.11339279 -0.09355611 0.123347156
-0.03371411 -0.0931683 -0.016384302 0.058660306 -0.10309889 -0.00017061044 -0.04659411 0.01909765
0.110911444 -0.007881222 -0.08508863 0.031339567 -0.105316855 0.093383454 0.050822403 0.06749506
0.06712307 -0.03573051 0.09239797 0.020162405 0.086398065 -0.07196818 0.05700562 0.055697143
0.053665087 -0.08590892 0.10925278 0.049296852 -0.08811347 0.07060693 -0.08184713 0.07764347
-0.112979956 -0.054793503 0.02340753 -0.012833389 0.048231393 0.020586291 0.01586465 0.090216234
0.028781464 -0.11428676 0.052775487 -0.07731639 0.08538792 -0.018083077 0.056047708 0.04445652
0.10504178 -0.036905088 0.042576123 -0.031071233 -0.09251587 -0.06624708 0.06101498 -0.009152005
-0.07254397 0.10413073 0.052931763 -0.006695828 0.014858056 -0.045908343 -0.050672356 -0.048786305
-0.08733409 0.092316516 0.027859993 0.100150324 -0.02482358 -0.0049571297 0.0052224863 -0.07111293
0.10467891 0.006449002 0.09994344 -0.02664816 0.06321669 0.10887027 0.16748944 0.10978422
0.062347483 -0.0057230503 0.003994473 -0.07930556 0.06687874 0.008612213 0.1556926 -0.0917903
-0.1025487 0.011186046 -0.08370944 0.111220784 0.08695096 -0.029778488 0.025879275 0.09510886
-0.07029242 0.08974519 0.0557152 0.07690811 -0.014427671 -0.10800994 -0.09020606 0.16982408
0.023263207 0.06149484 0.062363286 -0.05377243 -0.08494431 -0.057593442 -0.08972551 0.08261973
0.041888643 -0.11616229 0.046498924 -0.07295945 0.019632027 0.069135286 0.13167857 0.16966097
0.08265584 -0.080480054 -0.0048156544 -0.084485956 -0.07187193 0.06896042 -0.010754681 0.03077886
-0.08913134 -0.042267393 -0.012371042 -0.02403528 0.049251117 -0.11276128 0.085916676 0.049931414
0.1025972 0.09623364 -0.09435991 -0.09233063 -0.099809594 -0.08690745 0.072145626 0.13405393
-0.113841265 0.084884904 0.032866243 -0.072152585 0.08270303 0.090027384 -0.014020535 0.047798473
-0.114513904 0.10393883 -0.03818407 -0.10094544 0.07460834 -0.0515242 0.11564051 -0.028642016
00000000: ffef a3bc 0fa3 afbd aaaf c7bd 4586 163d
00000010: e76f e23d cdff e63d 9306 7dbd 0fa9 c33d
00000020: 41f1 1fba b244 183d 8742 c7bd 8595 8abc
00000030: ac7c d5bb f29e 6a3c d1bb cc3c 30c0 c83a
00000040: 01cf 5ebb ce60 873c 5705 84bd 117b ad3d
00000050: 7e48 91bd b2ec cd3c 2bad b5bd 0719 063d
00000060: ff51 d23d 972e b3bd 62d8 823d ffbc 963d
00000070: 30db 993d 4654 d83d 4c75 9cbd 4fb9 eb3d
00000080: 10f6 52bd 8763 a8bc cdf6 573d 7a5a 94bd
00000090: 52a1 91bc ec63 103e 653c c53c 1b5c 89bd
000000a0: 449d 4ebd 6b69 3e3d 5228 f3bc 3a3d 7cbd
000000b0: d5bb 2b3d 6f47 dc3c b50c 933d d47d 87bb
000000c0: fff7 5e3d 0e29 0bbd c39f 913d a3e6 35bc
000000d0: 6975 d83d 934f cfbc 8b01 d3bd a51c 273b
000000e0: ce30 2e3d cfd6 cb3d eca5 d8bd 71f3 eb3c
000000f0: 8d01 9a3d 3601 1abd 1bd2 d4bc 9cfa e33c
00000100: 386c a03d c8a7 bb3d 4f80 c93d ca45 073c
00000110: ed20 8e3d 6bce 58bd 7bc7 7cbd 17b5 b33d
00000120: 8b1a bdbd 0fb8 ee3d 13c9 833c 6a05 c03c
00000130: cab5 f8bc aa18 48bd 12fd 92bc c5c1 933d
00000140: 40a5 abbd b2be f53c 179b c9bd 4c50 f23c
00000150: e45b 553d 45f8 05bc b139 d23d d886 873d
00000160: ef89 86bc 0949 49bd 4f6d 60bc 0dbc 6e3d
00000170: 1367 9f3c 7b3a e8bd 599a bfbd 6f9d fc3d
00000180: ce17 0abd 06cf bebd 5f38 86bc ca45 703d
00000190: 8325 d3bd e4e5 32b9 77d9 3ebd ad72 9c3c
000001a0: 8a25 e33d 3e20 01bc f342 aebd eb5d 003d
000001b0: 5db0 d7bd d33f bf3d 272b 503d da3a 8a3d
000001c0: d277 893d 285a 12bd 263b bd3d a12b a53c
000001d0: 78f1 b03d 0e64 93bd ba7e 693d b022 643d
000001e0: eccf 5b3d 04f1 afbd ecbf df3d 7feb 493d
000001f0: d674 b4bd 5e9a 903d 789f a7bd 8a03 9f3d
00000200: 0962 e7bd 276f 60bd 26c1 bf3c 2343 52bc
00000210: 488e 453d 95a4 a83c 95f6 813c 4ac3 b83d
00000220: 1bc7 eb3c 2d0f eabd 1c2b 583d 0e58 9ebd
00000230: dddf ae3d f622 94bc 4892 653d 0a18 363d
00000240: 2520 d73d ca29 17bd 4d64 2e3d 1989 febc
00000250: f678 bdbd 8dac 87bd d8ea 793d 4bf2 15bc
00000260: ef91 94bd 7e42 d53d face 583d ad68 dbbb
00000270: 346f 733c 630a 3cbd d18d 4fbd 26d4 47bd
00000280: 37dc b2bd 7110 bd3d a43a e43c 9d1b cd3d
00000290: d25a cbbc 6b6f a2bb 6421 ab3b a8a3 91bd
000002a0: e561 d63d 2652 d33b 25af cc3d 3e4d dabc
000002b0: c177 813d 60f7 de3d 5a82 2b3e 8dd6 e03d
000002c0: 1360 7f3d 6d88 bbbb 11e4 823b f46a a2bd
000002d0: b9f7 883d 3d1a 0d3c e26d 1f3e 8efc bbbd
000002e0: 0e05 d2bd ad45 373c db6f abbd b9c7 e33d
000002f0: 5813 b23d 04f2 f3bc c600 d43c 6fc8 c23d
00000300: 79f5 8fbd 54cc b73d 9f35 643d 0082 9d3d
00000310: 0a62 6cbc 5134 ddbd f4bd b8bd 5de6 2d3e
00000320: 7b92 be3c 03e2 7b3d a570 7f3d 7b40 5cbd
00000330: 48f7 adbd 1ae7 6bbd 02c2 b7bd 8834 a93d
00000340: 6d93 2b3d 7fe6 edbd a875 3e3d c46b 95bd
00000350: 58d3 a03c cd96 8d3d bfd6 063e 9bbb 2d3e
00000360: 7747 a93d bad2 a4bd a3cc 9dbb f906 adbd
00000370: 9731 93bd 1f3b 8d3d 6734 30bc f323 fc3c
00000380: 7e8a b6bd 9320 2dbd e9af 4abc a3e5 c4bc
00000390: 8abb 493d 63ef e6bd 15f5 af3d e284 4c3d
000003a0: 7b1e d23d 2516 c53d c53f c1bd d717 bdbd
000003b0: f968 ccbd 88fc b1bd 16c1 933d 6f45 093e
000003c0: 9c25 e9bd 23d8 ad3d c19e 063d bcc4 93bd
000003d0: 3560 a93d 4760 b83d 63b6 65bc 55c8 433d
000003e0: 4486 eabd e2dd d43d e666 1cbd 7cbc cebd
000003f0: 42cc 983d 0a0b 53bd efd4 ec3d a9a2 eabc

Q2.head.0.bias f4 [64]
-0.07614541 0.1485636 0.1038675 -0.022705607 0.22392686 0.124408394 0.15965086 -0.084413946
0.1899162 0.15240133 0.15005252 0.20311286 0.20198962 -0.040879834 -0.076676905 0.08616037
0.15679383 -0.024776932 0.18096572 -0.009699853 0.12468811 0.12315 -0.027472261 0.10980382
0.1524815 -0.059760094 -0.093680084 0.14943108 -0.07756751 0.12658651 0.16403688 0.18460396
0.15827367 0.14365782 0.21712668 0.104130454 0.21768804 -0.0059056934 -0.08032641 0.11806965
0.09563544 -0.061028387 -0.048782084 0.105758935 0.1136562 0.10617628 0.1928143 0.19881527
0.17820893 0.14842118 -0.040954135 0.12715778 0.17060983 0.20618941 0.19064018 0.17674671
0.11627207 -0.082701206 0.15027125 0.15461202 0.15721671 -0.07414962 -0.03212377 0.16197619
00000000: 20f2 9bbd 0e21 183e 7cb8 d43d 1c01 babc
00000010: 154d 653e d4c9 fe3d 847b 233e 38e1 acbd
00000020: 6479 423e 180f 1c3e 5ea7 193e d1fc 4f3e
00000030: 5ed6 4e3e 9d71 27bd c808 9dbd d974 b03d
00000040: 908e 203e fef8 cabc 144f 393e 22ec 1ebc
00000050: 7b5c ff3d 1136 fc3d 820d e1bc d3e0 e03d
00000060: 1c24 1c3e 00c7 74bd 58db bfbd 7604 193e
00000070: b7db 9ebd e59f 013e 49f9 273e d208 3d3e
00000080: 7e12 223e 091b 133e 7556 5e3e 5942 d53d
00000090: 9de9 5e3e 8c84 c1bb 2c82 a4bd 80ce f13d
000000a0: 83dc c33d e7f8 79bd b9cf 47bd 2498 d83d
000000b0: 95c4 e83d f372 d93d 1d71 453e 3b96 4b3e
000000c0: 677c 363e b9fb 173e 86bf 27bd a635 023e
000000d0: 58b4 2e3e 5123 533e 2e37 433e 17fd 343e
000000e0: 0d20 ee3d 405f a9bd b5e0 193e 9d52 1e3e
000000f0: 6bfd 203e c2db 97bd 3794 03bd 16dd 253e

Q2.head.2.weight f4 [64, 64]
-0.013105319 0.10729052 0.22240779 0.09914577 0.1873431 0.1902042 -0.0049671093 0.13932693
0.19754559 0.062678084 0.094948046 0.17098555 0.13856155 -0.04403781 -0.044134144 0.044472493
0.14798808 -0.054588173 0.11765281 -0.02033577 0.0299184 0.20969336 -0.031592418 0.108268805
0.32887724 -0.042549577 -0.022179047 0.060745556 0.12915969 0.17366803 0.15798604 0.027717028
-0.035950053 0.17150502 0.15831159 0.19568722 0.13881426 0.10950073 0.06876858 0.03395854
0.047385238 0.12724383 0.043384466 0.11311377 0.02109604 0.1964215 0.1553165 0.107286565
0.091669805 0.2437412 0.15504746 0.21284826 0.011906595 0.05589836 0.03778146 0.1535867
0.14635174 -0.0814518 -0.007899136 0.068158194 0.0843249 0.11221012 0.09674282 0.17201777
-0.06716574 0.2825511 0.2081656 0.11619915 0.093154445 0.21886195 0.081992045 0.02717068
0.07128724 0.19854951 0.14012732 0.19182047 0.17010304 0.11401468 0.061140597 0.16175458
0.1810762 0.0007081936 0.16743302 -0.0015842145 0.04543053 0.14736265 -0.019000432 0.052129548
0.2530285 0.038472213 0.10555124 0.016572887 -0.09085726 0.1422315 0.14284909 0.097217135
0.004195833 0.014554812 0.13102973 0.12866393 0.15568559 -0.013679188 0.115835756 0.09554383
0.10772363 -0.049888805 0.012585994 0.077690996 0.017662318 0.17607003 0.19148208 0.005442635
0.12093128 0.12574056 -0.09051451 0.12812027 0.06887543 0.16105554 0.08033915 0.01530532
0.060514554 0.07310599 -0.005038516 0.10573108 -0.006475721 -0.066547066 0.03526932 0.18832931
-0.05730723 -0.06991665 -0.050790653 -0.085737154 -0.0143187195 -0.10747267 0.050380528 -0.11917037
-0.11806966 -0.11581543 -0.07473822 0.029295608 0.09312576 -0.06881845 0.07543345 -0.10404655
-0.09299357 0.043170065 -0.017377108 -0.05968447 0.011813968 0.0018817335 0.096495435 0.04479687
-0.006556019 -0.102977455 -0.041496724 -0.098205686 -0.02398187 -0.029776618 -0.026574 -0.09495789
0.04931359 0.04843068 -0.014430314 -0.047550008 0.030495405 0.074697316 0.04616244 0.014821038
0.015383452 0.022158459 0.0123093575 -0.032818034 -0.08735798 0.07985902 0.07141554 -0.11808011
0.015923455 -0.08483292 0.11408734 -0.0074502826 -0.06695771 -0.069775745 0.0677015 -0.032285616
-0.014004722 0.113013566 -0.04045941 -0.07560639 0.02976437 0.023910925 -0.08472982 0.03904912
-0.090664715 -0.0781962 -0.10250924 -0.036239 -0.0071648657 -0.060357086 -0.08120499 -0.054752987
0.02049088 0.0007914238 -0.1306556 -0.11119617 0.084219575 0.006357376 0.061629966 -0.003217876
-0.12867966 -0.118171096 0.06980943 -0.035431586 -0.062772505 -0.12997532 0.0689401 0.008679716
-0.08927719 0.01966025 -0.081280544 -0.040745612 -0.07320999 -0.049457118 -0.03509356 -0.09836404
-0.092502765 -0.12428639 0.070503265 -0.0739647 0.08584796 0.08224732 -0.071324006 0.08122769
-0.0033740185 -0.018526716 0.06967276 0.07605176 -0.014041675 0.11143071 -0.08183112 0.07569134
0.060049545 0.10594736 -0.015061214 0.10364732 0.09260707 -0.089792505 0.11153778 -0.09870759
0.11555856 -0.0891467 0.00602089 -0.10248706 0.049625214 -0.07637717 -0.054872394 -0.057850145
00000000: b1b7 56bc 22bb db3d debe 633e f00c cb3d
00000010: dfd6 3f3e e4c4 423e 22c3 a2bb b8ab 0e3e
00000020: 6449 4a3e 5e5d 803d 1f74 c23d d616 2f3e
00000030: 14e3 0d3e fe60 34bd 01c6 34bd ca28 363d
00000040: 308a 173e d997 5fbd f5f3 f03d 3397 a6bc
00000050: 6f17 f53c dbb9 563e 0d67 01bd 09bc dd3d
00000060: 9962 a83e 7748 2ebd d5b0 b5bc 55d0 783d
00000070: 7042 043e 08d6 313e 18c7 213e d20e e33c
00000080: 5d40 13bd 039f 2f3e 6f1c 223e 3b62 483e
00000090: 5325 0e3e eb41 e03d 8bd6 8c3d 1c18 0b3d
000000a0: 0617 423d 354c 023e e9b3 313d 31a8 e73d
000000b0: 9ad1 ac3c b822 493e 4a0b 1f3e 0fb9 db3d
000000c0: 61bd bb3d 4b97 793e c3c4 1e3e e5f4 593e
000000d0: e113 433c aef5 643d bbc0 1a3d d545 1d3e
000000e0: 3bdd 153e 34d0 a6bd 616b 01bc 8696 8b3d
000000f0: 88b2 ac3d 6bce e53d 1a21 c63d 6d25 303e
00000100: 318e 89bd 8aaa 903e 5d29 553e d2f9 ed3d
00000110: c2c7 be3d 591d 603e 72eb a73d 0c95 de3c
00000120: 0bff 913d 9050 4b3e 897d 0f3e 966c 443e
00000130: 7e2f 2e3e 8780 e93d 906e 7a3d fea2 253e
00000140: 0a6c 393e 11a6 393a 9073 2b3e 6ba5 cfba
00000150: 5d15 3a3d 3ce6 163e cba6 9bbc cb85 553d
00000160: f48c 813e 0a95 1d3d 402b d83d ddc3 873c
00000170: 5f13 babd 22a5 113e 0847 123e c719 c73d
00000180: 337d 893b 4e77 6e3c a82c 063e 7ac0 033e
00000190: 0b6c 1f3e ac1e 60bc 4c3b ed3d 7cac c33d
000001a0: 359e dc3d 3458 4cbd 7c35 4e3c 751c 9f3d
000001b0: 91b0 903c b44b 343e e113 443e 2258 b23b
000001c0: d2aa f73d 22c2 003e ac5f b9bd f631 033e
000001d0: 900e 8d3d beeb 243e da88 a43d 2ac3 7a3c
000001e0: 1cde 773d 98b8 953d 231a a5bb 8989 d83d
000001f0: 4932 d4bb d449 88bd 9076 103d 66d9 403e
00000200: fcba 6abd 7630 8fbd dc09 50bd f696 afbd
00000210: 1099 6abc a21a dcbd d05b 4e3d 980f f4bd
00000220: 82ce f1bd a430 edbd 5a10 99bd 58fd ef3c
00000230: b8b8 be3d b0f0 8cbd da7c 9a3d 5c16 d5bd
00000240: 6a73 bebd 18d3 303d 705a 8ebc b477 74bd
00000250: 608f 413c 80a4 f63a 669f c53d ec7c 373d
00000260: e0d3 d6bb d8e5 d2bd 78f8 29bd 1020 c9bd
00000270: a075 c4bc 18ee f3bc b8b1 d9bc 4879 c2bd
00000280: 0cfd 493d 405f 463d 206d 6cbc ccc3 42bd
00000290: 80d1 f93c e8fa 983d d414 3d3d f0d3 723c
000002a0: e00a 7c3c a885 b53c 30ad 493c 346c 06bd
000002b0: bee8 b2bd 208d a33d 5042 923d fcd3 f1bd
000002c0: e871 823c e2bc adbd a0a6 e93d 8021 f4bb
000002d0: 2021 89bd 96e6 8ebd 16a7 8a3d ec3d 04bd
000002e0: 1074 65bc a873 e73d c4b8 25bd 86d7 9abd
000002f0: 68d4 f33c d8e0 c33c d486 adbd f8f1 1f3d
00000300: 6cae b9bd 5425 a0bd 5df0 d1bd 586f 14bd
00000310: 40c7 eabb fe38 77bd cd4e a6bd ab44 60bd
00000320: 7ddc a73c 8d77 4f3a 95ca 05be d1ba e3bd
00000330: 507b ac3d 8951 d03b b46f 7c3d 00e3 52bb
00000340: 9ac4 03be b003 f2bd 3ff8 8e3d b620 11bd
00000350: df8e 80bd 4018 05be 7830 8d3d 5e35 0e3c
00000360: f6d6 b6bd 880e a13c 6a76 a6bd dfe4 26bd
00000370: 1fef 95bd 8c93 4abd 44be 0fbd 1673 c9bd
00000380: 1772 bdbd dd89 febd 0464 903d ce7a 97bd
00000390: 0ed1 af3d 4871 a83d 5212 92bd b45a a63d
000003a0: a31e 5dbb 57c5 97bc 98b0 8e3d 06c1 9b3d
000003b0: 0e0f 66bc c935 e43d 1397 a7bd 1004 9b3d
000003c0: 83f6 753d eefa d83d 4fc3 76bc 0c45 d43d
000003d0: c7a8 bd3d 22e5 b7bd eb6d e43d 3427 cabd
000003e0: f7a9 ec3d 8c92 b6bd e34a c53b bce4 d1bd
000003f0: cf43 4b3d a26b 9cbd e0c1 60bd 46f4 6cbd

Q2.head.2.bias f4 [64]
0.031671446 0.10499887 -0.08715707 -0.056491558 0.07684909 -0.055862006 0.1694722 -0.0012310799
-0.11219275 -0.07672836 -0.12413892 0.08051444 0.058254972 0.1574789 0.11812154 0.13705507
0.052931864 -0.08673492 0.10137308 0.08451519 0.073652856 0.006351169 0.08362543 -0.040309723
-0.0029735842 0.07914849 0.08674579 -0.035201795 -0.10372965 0.09775639 -0.119126275 -0.08645548
0.10261743 0.18348911 0.00082189834 -0.0030167706 0.074593656 0.08995097 0.078149736 -0.09731534
-0.024899201 0.026339365 -0.12429671 0.028622596 -0.04621908 0.101155944 0.17312291 -0.094960704
-0.046369582 -0.03696052 0.012688127 -0.10725838 0.06938865 -0.07705933 0.050235514 0.07457972
-0.111935794 0.14491056 0.100426406 -0.040933844 0.06509762 0.17340003 -0.09927489 -0.032262594
00000000: ebb9 013d a609 d73d 687f b2bd b163 67bd
00000010: 0e63 9d3d 8fcf 64bd 1f8a 2d3e 305c a1ba
00000020: 50c5 e5bd c223 9dbd 8c3c febd c1e4 a43d
00000030: c49c 6e3d 2642 213e b5e9 f13d 2a58 0c3e
00000040: 15cf 583d 14a2 b1bd b09c cf3d 4d16 ad3d
00000050: 4fd7 963d 781d d03b cf43 ab3d cf1b 25bd
00000060: 77e0 42bb 9b18 a23d c7a7 b13d c22f 10bd
00000070: 3670 d4bd 8134 c83d 7af8 f3bd 920f b1bd
00000080: 1629 d23d 92e4 3b3e aa74 573a 03b5 45bb
00000090: 8fc4 983d 3738 b83d f80c a03d 444d c7bd
000000a0: 69f9 cbbc a7c5 d73c 468f febd ef79 ea3c
000000b0: 3850 3dbd d92a cf3d 2247 313e c27a c2bd
000000c0: 08ee 3dbd ea63 17bd dde1 4f3c 48aa dbbd
000000d0: a31b 8e3d 48d1 9dbd c1c3 4d3d 41bd 983d
000000e0: 983e e5bd 6f63 143e 5cac cd3d 3faa 27bd
000000f0: e751 853d c78f 313e a250 cbbd c825 04bd

Q2.head.4.weight f4 [72, 64]
-0.10552012 -0.07209969 -0.08280736 -0.06382911 0.089784324 -0.10305947 -0.09720406 0.071812734
-0.10881242 -0.03339413 0.12282786 -0.088634625 -0.14841686 -0.119093485 -0.009375875 0.024211846
-0.09887117 -0.0999814 0.022610005 -0.17208575 -0.08161245 -0.040260717 -0.11156769 0.108806945
-0.103025004 -0.20291415 -0.010643058 0.094370015 -0.038738012 -0.02120896 -0.028011858 -0.02858159
-0.16888566 -0.075976424 0.0007264764 0.01414339 0.0071721254 0.01075648 0.017536687 0.024669692
-0.12351111 -0.1974248 0.08975597 -0.20191817 -0.076504126 -0.009792686 -0.054342855 0.012630284
0.042955384 0.08889142 -0.06328417 0.03310758 -0.034041785 -0.06109515 -0.12440841 0.009492838
-0.024374649 -0.10907782 -0.103790544 0.10533437 -0.05823708 -0.03173527 -0.049102396 0.013008226
0.0057965596 -0.0760531 -0.051401496 0.112394154 0.018282665 -0.020246796 -0.12563868 -0.07941085
0.097328365 0.004147772 0.037810013 0.042172834 -0.065692894 0.030771831 0.019390242 0.046395462
-0.13754651 0.09463764 0.041588824 -0.13379388 -0.08099104 0.006613107 -0.07770158 0.07638958
-0.07553811 -0.076075025 -0.12947959 0.12364959 0.042674124 -0.098417975 -0.06765425 0.040581748
-0.023497492 -0.14308673 -0.038233783 -0.011490999 -0.06395577 -0.1441502 -0.037093204 -0.033214703
-0.10035749 -0.04975429 0.0673642 -0.04162878 0.052379936 -0.13409102 -0.1725766 -0.06324987
0.082881585 0.10935973 -0.2105571 -0.035688117 -0.19236833 -0.088823736 -0.18316588 -0.15150605
-0.11313167 0.054713458 -0.19509366 0.02815099 0.039463613 -0.055655494 0.014578283 -0.113669686
-0.011771799 0.04129083 -0.026587695 0.033218518 0.06879133 0.090751976 -0.0070156697 0.115419045
0.045164645 0.03166332 -0.0959066 -0.00010440889 -0.025506591 -0.16824132 -0.06628585 -0.051214438
-0.11745 -0.013416374 0.037239116 -0.044723682 -0.11510066 -0.07940178 -0.051204044 -0.090852365
-0.11883816 -0.0616575 -0.14590268 0.07311615 -0.030982673 -0.11773658 0.06980716 0.10297005
-0.11530534 -0.08627133 -0.17700359 -0.12645222 -0.20303495 -0.10571763 -0.10675081 0.11369908
0.0046432074 -0.06314393 0.10405165 -0.16451348 0.08665763 -0.05051342 -0.11592278 -0.072553724
0.11964637 -0.04127969 -0.026648143 -0.034622237 0.0020223665 -0.10622677 -0.010467968 -0.08901018
-0.05356656 -0.030097691 -0.042174157 0.08015938 -0.08980066 -0.054884672 -0.03050962 0.10340887
-0.17650366 -0.1296755 -0.096306294 0.076348975 -0.09711665 -0.04587254 -0.015610551 0.11993462
-0.07266848 -0.01390868 -0.08091718 -0.14100312 -0.12748383 -0.12839285 -0.056278642 -0.17237799
0.011876405 -0.12571855 -0.07459232 -0.0720303 -0.15975174 -0.040369555 0.024992762 -0.06178543
0.1036863 -0.17001803 -0.07594306 -0.12605447 0.004878551 -0.1021608 0.067087114 0.021915153
-0.08262538 -0.10136949 -0.018992592 -0.14671093 -0.19336547 -0.0057979706 -0.06369137 0.037008837
-0.14475529 -0.07567324 -0.03659457 -0.05754571 0.08231932 0.034546167 -0.04141368 0.124956846
0.11296564 0.0573657 -0.022288207 -0.056957737 -0.049190737 0.06651245 -0.073747545 -0.028312685
-0.09854396 -0.10027373 -0.13547796 0.12103766 -0.10172011 -0.10261119 -0.041298777 0.07790585
00000000: ef1a d8bd 01a9 93bd e896 a9bd d6b8 82bd
00000010: d8e0 b73d d810 d3bd ec12 c7bd 8e12 933d
00000020: 0cd9 debd 49c8 08bd 2c8d fb3d 1286 b5bd
00000030: 97fa 17be 49e7 f3bd 459d 19bc ec57 c63c
00000040: f87c cabd 0cc3 ccbd 9e38 b93c 3f37 30be
00000050: 6e24 a7bd 6ce8 24bd 9a7d e4bd 2dd6 de3d
00000060: c6fe d2bd bac8 4fbe 3960 2ebc 1145 c13d
00000070: c0ab 1ebd 6abe adbc 2079 e5bc f023 eabc
00000080: 5df0 2cbe 8799 9bbd 0271 3e3a adb9 673c
00000090: 2604 eb3b f23b 303c 19a9 8f3c 1818 ca3c
000000a0: 65f3 fcbd ba29 4abe fad1 b73d a3c3 4ebe
000000b0: 32ae 9cbd 8171 20bc 9d96 5ebd 40ef 4e3c
000000c0: fcf1 2f3d b40c b63d 229b 81bd d09b 073d
000000d0: 666f 0bbd e83e 7abd d6c9 febd d987 1b3c
000000e0: 58ad c7bc 3164 dfbd 2390 d4bd 8cb9 d73d
000000f0: 018a 6ebd d8fc 01bd 981f 49bd 7420 553c
00000100: 11f1 bd3b bac1 9bbd 608a 52bd e82e e63d
00000110: 87c5 953c 9cdc a5bc 6da7 00be 28a2 a2bd
00000120: 1854 c73d 09ea 873b acde 1a3d 6cbd 2c3d
00000130: ff89 86bd 3515 fc3c 49d8 9e3c 2b09 3e3d
00000140: fed8 0cbe 61d1 c13d 0b59 2a3d 4301 09be
00000150: a1de a5bd c3b2 d83b 0222 9fbd 2472 9c3d
00000160: bab3 9abd 39cd 9bbd 4c96 04be ff3b fd3d
00000170: 10cb 2e3d 5d8f c9bd 508e 8abd 0c39 263d
00000180: d07d c0bc 5485 12be 079b 1cbd be44 3cbc
00000190: 3efb 82bd 1c9c 13be 0bef 17bd 240c 08bd
000001a0: 3a88 cdbd 28cb 4bbd 3ef6 893d f182 2abd
000001b0: 588c 563d 284f 09be ecb7 30be 2689 81bd
000001c0: d2bd a93d fef7 df3d 489c 57be b42d 12bd
000001d0: 34fc 44be 38e9 b5bd d68f 3bbe 6724 1bbe
000001e0: 94b1 e7bd 381b 603d a2c6 47be e89c e63c
000001f0: 99a4 213d 04f7 63bd c0d9 6e3c a7cb e8bd
00000200: 81de 40bc 9320 293d 70ce d9bc 2410 083d
00000210: 78e2 8c3d 2cdc b93d b4e3 e5bb d260 ec3d
00000220: 90fe 383d 66b1 013d ae6a c4bd 19f6 dab8
00000230: 33f3 d0bc 7447 2cbe e0c0 87bd 3bc6 51bd
00000240: a089 f0bd 5ad0 5bbc 0b88 183d 2e30 37bd
00000250: e5b9 ebbd 679d a2bd 55bb 51bd ce10 babd
00000260: 6c61 f3bd 938c 7cbd 8367 15be ecbd 953d
00000270: 60cf fdbc e01f f1bd 0ef7 8e3d f6e1 d23d
00000280: 3525 ecbd 06af b0bd 6e40 35be b17c 01be
00000290: 65e8 4fbe 7c82 d8bd 2ba0 dabd 10db e83d
000002a0: 0c26 983b 9b51 81bd 0819 d53d 3976 28be
000002b0: 8e79 b13d 29e7 4ebd ec68 edbd 0c97 94bd
000002c0: 2809 f53d e414 29bd 354d dabc 0cd0 0dbd
000002d0: ae89 043b 6c8d d9bd d781 2bbc f84a b6bd
000002e0: 9c68 5bbd 6f8f f6bc cfbe 2cbd 9a2a a43d
000002f0: 69e9 b7bd c0ce 60bd 50ef f9bc 08c8 d33d
00000300: 60bd 34be a7c9 04be 3c3c c5bd da5c 9c3d
00000310: 18e5 c6bd d8e4 3bbd 66c3 7fbc 48a0 f53d
00000320: 36d3 94bd 3be1 63bc e8b7 a5bd 1f63 10be
00000330: 1f8b 02be 6a79 03be 6f84 66bd db83 30be
00000340: 4195 423c 5dbc 00be dcc3 98bd 9f84 93bd
00000350: f695 23be 8c5a 25bd 9fbd cc3c b812 7dbd
00000360: 7c59 d43d 3519 2ebe 0988 9bbd 6c14 01be
00000370: 40dc 9f3b ae39 d1bd f864 893d 6887 b33c
00000380: 7f37 a9bd cf9a cfbd 5a96 9bbc 643b 16be
00000390: 9901 46be e7fc bdbb 9f70 82bd 9496 173d
000003a0: bb3a 14be 92fa 9abd 30e4 15bd 0db5 6bbd
000003b0: 0897 a83d 4880 0d3d 64a1 29bd 60e9 ff3d
000003c0: 885a e73d 4cf8 6a3d c295 b6bc 844c 69bd
000003d0: 3a7c 49bd ae37 883d f408 97bd 01f0 e7bc
000003e0: 6ad1 c9bd 505c cdbd bcba 0abe 98e2 f73d
000003f0: a252 d0bd d125 d2bd e828 29bd 1a8d 9f3d

Q2.head.4.bias f4 [72]
-0.022854585 -0.09442423 0.058672808 0.07712328 0.06676018 -0.008923705 0.04565038 0.022928989
-0.09019409 0.09326967 -0.0048642484 0.08353157 -0.09514591 -0.09833883 -0.121962056 0.02890289
0.03293619 0.046031043 -0.033517122 -0.06888207 -0.039798014 -0.12117509 -0.031224972 0.14517425
0.05942366 -0.024344008 0.022733686 0.017401086 0.06906086 -0.16248456 0.1686643 -0.08050444
-0.15873583 -0.15060583 -0.08765469 -0.108275265 0.011201728 -0.025694763 0.053358067 -0.028376505
-0.07380076 0.033598877 -0.08479609 0.008727765 0.064646296 0.02098033 -0.12290423 -0.032443196
0.086139135 0.02735863 0.07402211 -0.16288231 -0.08406456 -0.075769834 -0.15607293 0.0794006
0.062544145 -0.07610385 -0.05987402 -0.1389336 -0.02408418 -0.014831698 -0.11595774 0.14036089
0.028046228 0.07559663 0.0701086 -0.15502414 0.030993285 0.07096956 0.08080856 -0.024606029
00000000: 8a39 bbbc 7e61 c1bd e652 703d cff2 9d3d
00000010: 90b9 883d bb34 12bc e5fb 3a3d 93d5 bb3c
00000020: aeb7 b8bd 2b04 bf3d 4664 9fbb 9a12 ab3d
00000030: dcdb c2bd de65 c9bd 3ec7 f9bd c1c5 ec3c
00000040: 19e8 063d 0c8b 3c3d 4049 09bd 0b12 8dbd
00000050: 3e03 23bd a52a f8bd 83cb ffbc 8fa8 143e
00000060: 3966 733d 166d c7bc ff3b ba3c b98c 8e3c
00000070: c86f 8d3d 5a62 26be 56b6 2c3e 83df a4bd
00000080: a58b 22be 6a38 1abe 4d84 b3bd 6cbf ddbd
00000090: 7487 373c d37d d2bc fd8d 5a3d d875 e8bc
000000a0: da24 97bd fa9e 093d 93a9 adbd e6fe 0e3c
000000b0: 4765 843d f1de ab3c 37b5 fbbd 28e3 04bd
000000c0: b769 b03d 351f e03c e798 973d 9fca 26be
000000d0: 0a2a acbd 372d 9bbd 95d1 1fbe c89c a23d
000000e0: 2517 803d 56dc 9bbd 763e 75bd 9c44 0ebe
000000f0: 304c c5bc a600 73bc 407b edbd c4ba 0f3e
00000100: 34c1 e53c 68d2 9a3d 1995 8f3d a6be 1ebe
00000110: a1e5 fd3c 7d58 913d f57e a53d 9592 c9bc
