script/logs/dome/model/final/policy.pth (torch, 56446 bytes, 6 tensors)

head.0.weight f4 [64, 72]
0	0xba674c2e	-0.00088233023
1	0x3d8179be	0.063220486
2	0xbdba64c5	-0.091012515
3	0xbdb1a027	-0.08673125
4	0xbd3d6fdc	-0.046249256
5	0x3ce62651	0.028094443
6	0xbb1906e5	-0.0023350057
7	0x3dbf5f01	0.093442924
8	0xbc2b5a7d	-0.010458586
9	0x3cb728c0	0.022358298
10	0xbd11e23e	-0.035616152
11	0xbcbdc57a	-0.023165453
12	0xbe063fa5	-0.13110216
13	0xbd9fd90b	-0.078050695
14	0xbd46fcd4	-0.04858096
15	0xbad7811f	-0.0016441679
16	0x3d3ed5e4	0.0465907
17	0x3d90d22b	0.07071336
18	0xbda3a094	-0.07989612
19	0xbd19f432	-0.0375864
20	0x3d2f54df	0.04280555
21	0x3dc86bf5	0.09786216
22	0xbcc6afdf	-0.024253784
23	0x3d914f59	0.070952125
24	0xbc9b9cbf	-0.01899564
25	0x3c4c5047	0.0124703115
26	0x3dbb377f	0.091414444
27	0xbddfe6d6	-0.109327
28	0xbd97f1d9	-0.07419176
29	0xbcf46a3b	-0.02983581
30	0xbd0ef894	-0.03490503
31	0x3dd088d3	0.10182347
32	0xbd9c71ae	-0.0763887
33	0xbd5e3609	-0.05425075
34	0xbd86c460	-0.06580424
35	0xbde20c2b	-0.11037477
36	0xbd8ce41e	-0.068794474
37	0x3da7c127	0.08191138
38	0x3d3017da	0.042991497
39	0x3d69f5d5	0.05711921
40	0x3bcb1862	0.006197975
41	0xbd909ccb	-0.07061156
42	0x3ca3564a	0.019938607
43	0xbde15b11	-0.11003698
44	0xbdae65e0	-0.08515525
45	0xbda77e0b	-0.08178338
46	0x3d98485a	0.07435675
47	0x3d8d8394	0.06909862
48	0xbd4f3423	-0.05058683
49	0xbb8b574c	-0.00425235
50	0x3d9a5d22	0.07537295
51	0x3deff16e	0.11715971
52	0x3cf955b9	0.030436384
53	0x3c826c6f	0.015920846
54	0x3da1d3f7	0.07901757
55	0xbd9c7b02	-0.076406494
56	0x3cb3e740	0.021960855
57	0xbdbb2086	-0.09137063
58	0xbda7485c	-0.08168098
59	0xbd8f0a46	-0.069843814
60	0x3d5a6ac0	0.05332446
61	0x3d422152	0.047395058
62	0xbd8ef83d	-0.069809414
63	0x3cc8f55a	0.024531055
64	0x3d847fd9	0.064696975
65	0xbc73b5ae	-0.014874859
66	0xbc2f2080	-0.010688901
67	0x3cdfb239	0.027306663
68	0x3d5594a2	0.0521437
69	0x3de7c069	0.11315996
70	0xbdb05aeb	-0.08611091
71	0xbd03aa43	-0.032144796
72	0x3d3db68a	0.04631666
73	0x3dc7fa5b	0.097645484
74	0x3daa208b	0.08306988
75	0x3dd4f700	0.10398674
76	0x3c8941ef	0.016755072
77	0xbdc8e947	-0.09810119
78	0x3c31a036	0.01084142
79	0xbd96fedd	-0.0737283
80	0xbde0ef85	-0.10983185
81	0x3dd19470	0.1023339
82	0x3db7850f	0.08960926
83	0xbdf0c331	-0.1175598
84	0x3ca423fb	0.020036688
85	0xbca2a32f	-0.019853203
86	0xbc9edf93	-0.019393718
87	0xbd67c2ef	-0.056582388
88	0x3d39a1dd	0.04532038
89	0xbd8ef536	-0.06980364
90	0x3d30f5d8	0.043203205
91	0x3d15bed4	0.03655894
92	0x3dacc83a	0.08436628
93	0x3d347e65	0.04406585
94	0xbdeee1b2	-0.11664142
95	0xbd808424	-0.06275204
96	0x3d710749	0.05884484
97	0x3cca1131	0.0246664
98	0xbdea85a5	-0.11451272
99	0xbd8afab2	-0.067860976
100	0x3de30ef4	0.110868365
101	0x3da2a1d0	0.079410195
102	0xbd2d886f	-0.04236644
103	0xbcf2fc55	-0.029661337
104	0xbde5eb11	-0.11226476
105	0xbb0ad2b7	-0.0021182725
106	0xbd85d2ae	-0.065343246
107	0xbdba2c89	-0.09090526
108	0xbbd4c7da	-0.0064935507
109	0x3beeb199	0.007284355
110	0xbd553881	-0.05205584
111	0x3d8f3793	0.06993022
112	0xbd92e060	-0.071717024
113	0x3dc34f15	0.09536568
114	0x3da56743	0.08076336
115	0xbdcb88b6	-0.09938185
116	0xbcf04831	-0.029331299
117	0xbc839dab	-0.016066393
118	0x3c8cdbb5	0.017194608
119	0x3ce4fa08	0.027951255
120	0x3c90376b	0.01760455
121	0x3be751b8	0.007059302
122	0xbd6b8838	-0.057502955
123	0x3d646abe	0.05576586
124	0xbddc6ece	-0.10763322
125	0xbd8f0e1f	-0.06985115
126	0xbcf1ad75	-0.029501656
127	0xbd880ebe	-0.06643437
128	0xbd28def6	-0.041228257
129	0xbdc5d2bb	-0.09659334
130	0xbccd5ceb	-0.02506872
131	0x3c47b3ed	0.012188894
132	0xbd9d3cb9	-0.076775976
133	0xbbc62ead	-0.0060480447
134	0x3dacc6f2	0.08436383
135	0xbb9e5c96	-0.0048328144
136	0x3b56a727	0.003275344
137	0xbc269304	-0.010166887
138	0x3bd8ef43	0.006620319
139	0x3d997735	0.0749344
140	0x3dc053ed	0.093910076
141	0x3d9946cb	0.07484206
142	0x3dc0ce06	0.09414296
143	0xbc376222	-0.01119283
144	0xbdd8d16e	-0.105868205
145	0xbd64d881	-0.055870537
146	0x3dae5483	0.08512213
147	0xba484503	-0.0007639678
148	0xbd452aaa	-0.04813639
149	0xbdc49494	-0.095986515
150	0xbde1e05d	-0.11029122
151	0xbdcbb586	-0.09946732
152	0xbcc3d374	-0.02390454
153	0x3d5bf457	0.053699818
154	0x3d827d18	0.06371516
155	0xbde8c641	-0.11365939
156	0x3d877d2a	0.0661567
157	0xbdbcdda4	-0.09221962
158	0xbccc1a6b	-0.02491494
159	0xbd948310	-0.07251561
160	0xbcb9f533	-0.022699928
161	0xbcbd8e71	-0.02313921
162	0xbdd89566	-0.105753705
163	0xbdaeefc2	-0.08541824
164	0xbc97122d	-0.018441284
165	0x3ac7c360	0.0015240721
166	0xbd5b496a	-0.05353681
167	0x3cdb4ec4	0.026770957
168	0xbdd93cbf	-0.106072895
169	0xbc024f2d	-0.007953447
170	0x3db9a907	0.090654425
171	0xbd44e59b	-0.04807053
172	0x3dd9f2b2	0.106419936
173	0x3d2ed177	0.04268023
174	0xbe158476	-0.14601311
175	0x3d98b510	0.0745641
176	0xbc5ecfe3	-0.013599369
177	0xbd577d1d	-0.05260955
178	0x3dbca024	0.09210232
179	0xbdc30a89	-0.09523494
180	0x3c4f3133	0.012646007
181	0xbce3d92d	-0.027813518
182	0x3d43ea3e	0.047830813
183	0x3d06bf87	0.0328975
184	0x3d67f2dd	0.056628097
185	0x3ceba12c	0.028763376
186	0xbce829bd	-0.028340215
187	0xbccb095b	-0.024784734
188	0xbdc6e64a	-0.09711893
189	0x3d39207b	0.04519699
190	0x3dbfa244	0.093571216
191	0x3da524d7	0.08063667
192	0xbe27f776	-0.16402993
193	0x3bac3bc3	0.0052561476
194	0xbdaa246c	-0.08307728
195	0xbd84dd48	-0.064875185
196	0xbd8ca42b	-0.0686725
197	0x3d24f770	0.040275037
198	0xbd8fd43e	-0.07022904
199	0xbc9f56f5	-0.019450644
200	0x3ba274d7	0.004957776
201	0x3d9b95ed	0.075969554
202	0xbdb672bd	-0.08908603
203	0xbdaa738b	-0.08322819
204	0xbd8c25e0	-0.068431616
205	0x3da8ef70	0.08248794
206	0xbd2d8533	-0.042363357
207	0x3d4a0736	0.049323283
208	0x3d2e8df7	0.042615857
209	0x3c747fae	0.014923019
210	0xbbaf120e	-0.0053427285
211	0xbcbed956	-0.023296993
212	0x3a9565e2	0.0011398161
213	0xbcdc73c9	-0.02691068
214	0x3b31df15	0.0027141024
215	0x39492db9	0.00019185887
216	0xbdbccad6	-0.092183754
217	0xbd7d01ff	-0.06176948
218	0x3db3c64e	0.08778058
219	0xbdc3dfcb	-0.095641695
220	0xbc8bd271	-0.01706812
221	0x3ddae12f	0.106874816
222	0x3d2e602e	0.042572193
223	0x3b5aacf0	0.003336724
224	0xbdd12a09	-0.10213096
225	0x3d8dfd48	0.06933075
226	0xbdabea5b	-0.08394309
227	0xbd0906c6	-0.033453725
228	0xbd0e0daf	-0.03468102
229	0xbc8ef80e	-0.017452266
230	0x3aa8f6aa	0.0012890894
231	0x3dc6949f	0.09696316
232	0x3c710c44	0.014712397
233	0x3dd82f02	0.10555841
234	0x3d93a473	0.072091006
235	0xbd3e5697	-0.046469297
236	0x3d588048	0.052856714
237	0xbdaa9da6	-0.0833085
238	0xbd4c968f	-0.04994827
239	0x3d3690f0	0.044571817
240	0x3d1f63c6	0.03891351
241	0x3db5130a	0.08841522
242	0xbd5fcfa5	-0.054641385
243	0x3945d3ee	0.00018866334
244	0x3d7883c4	0.060672536
245	0xbde96aa0	-0.1139729
246	0x3daa401d	0.0831301
247	0xbdc795d4	-0.09745374
248	0x3ad4e5e8	0.0016242834
249	0xbca423f0	-0.020036668
250	0xbd43e445	-0.047825117
251	0x3c7f349a	0.015576506
252	0x3dc79599	0.0974533
253	0xbd1a97fc	-0.0377426
254	0xbd956bc1	-0.07295943
255	0xbd328728	-0.043585926

head.0.bias f4 [64]
0	0x3e3bd317	0.18342243
1	0x3e3d10f8	0.18463504
2	0x3dcf15f5	0.1011161
3	0x3e4875bb	0.1957616
4	0x3e260b8b	0.16215341
5	0x3d6eade2	0.058271296
6	0x3d47a716	0.04874333
7	0x3de5f5d0	0.11228526
8	0xbd275512	-0.040852614
9	0x3d900f5d	0.0703418
10	0x3e4bf786	0.19918641
11	0x3e235e41	0.15953924
12	0x3e4823a2	0.19544843
13	0x3dcdf5fb	0.10056683
14	0x3d871d69	0.065974064
15	0x3e1a30de	0.15057704
16	0x3defdae9	0.11711676
17	0x3dbc2ce8	0.09188253
18	0x3d93edee	0.07223116
19	0x3e1e807f	0.15478705
20	0x3d9478da	0.07249613
21	0x3e3a195b	0.18173735
22	0x3e4d28ec	0.20035142
23	0x3e15e109	0.14636625
24	0x3e3c8d90	0.18413377
25	0x3e0ceb8e	0.13761732
26	0x3d9386cc	0.07203445
27	0xbdc9b829	-0.09849579
28	0x3e00b14b	0.12567632
29	0x3e305bf1	0.17222573
30	0x3dc52d33	0.09627762
31	0x3df82a9b	0.12117501
32	0x3e0dc36f	0.13844083
33	0x3e221bd4	0.15830928
34	0x3e4a9c7c	0.19786257
35	0x3df420e3	0.11920335
36	0x3df00f29	0.117216416
37	0x3dab54e9	0.08365805
38	0x3db7692d	0.089556076
39	0x3d8ffdcd	0.070308305
40	0x3e425bd6	0.18980345
41	0x3e5b2f85	0.21404846
42	0x3e1900b2	0.14941671
43	0x3d8a44f0	0.0675143
44	0x3dd4bd85	0.103877105
45	0x3cf06e61	0.029349508
46	0x3d822c8f	0.06356155
47	0x3cc7c262	0.024384681
48	0x3dce5b96	0.100760624
49	0x3db8bf18	0.09020823
50	0x3daf6555	0.085642494
51	0x3dfc584e	0.1232153
52	0x3d38c99a	0.045114137
53	0x3e33bf72	0.175535
54	0x3d691c45	0.056911726
55	0x3d662689	0.056189094
56	0x3d8c3220	0.06845498
57	0x3de42082	0.11139013
58	0x3e236e51	0.15960051
59	0x3d883f09	0.06652648
60	0x3de88344	0.11353162
61	0x3d68debc	0.05685304
62	0x3d7ac94b	0.061227124
63	0x3dc4c855	0.09608523

head.2.weight f4 [64, 64]
0	0x3ddaddb5	0.106868185
1	0xbd23cad4	-0.039988354
2	0x3b80a09f	0.0039253975
3	0x3e30d062	0.17266992
4	0x3e08c96b	0.13358085
5	0x3dc264de	0.09491895
6	0x3d99b02e	0.07504307
7	0x3dd5b2b0	0.104344726
8	0xbbab8883	-0.0052347793
9	0xbbfe37cc	-0.0077581163
10	0x3d40cff5	0.047073323
11	0xbd18e416	-0.037326895
12	0xbcabdd84	-0.02097965
13	0x3d703f00	0.05865383
14	0x3d1c9c35	0.038234908
15	0x3e35d813	0.17758207
16	0x3dbea06f	0.09307944
17	0x3d7553ef	0.0598945
18	0x3df4150f	0.11918079
19	0x3e17147b	0.14753906
20	0x3d534b96	0.051585756
21	0x3d5b19b6	0.053491317
22	0x3d5de12d	0.054169822
23	0xbcafcfd2	-0.021461401
24	0x3d8355dd	0.064128615
25	0xbd134713	-0.035956454
26	0x3d611f67	0.05496159
27	0xbe0ae05d	-0.1356215
28	0x3e2a0b37	0.1660584
29	0xbd1997c9	-0.03749827
30	0x3e4bf13d	0.19916244
31	0x3df7d4f7	0.12101167
32	0xbbb76afe	-0.0055974713
33	0x3e407ae1	0.18796875
34	0x3d73fff6	0.059570275
35	0xbcbf1bba	-0.02332865
36	0x3d628763	0.055304896
37	0x3e0d56eb	0.13802688
38	0xbd246dcd	-0.040143777
39	0x3d9529a2	0.072833315
40	0x3e05880f	0.13040183
41	0x3cf5f0cf	0.030022053
42	0x3db68574	0.08912173
43	0x3d1f9718	0.038962454
44	0x3d5789e8	0.052621752
45	0x3e31341b	0.17305033
46	0x3c814201	0.015778543
47	0x3d82f3a0	0.06394124
48	0x3e126d0e	0.14299414
49	0x3d06f254	0.032945946
50	0x3e415297	0.18879162
51	0xbcc72c7a	-0.0243132
52	0x3e251132	0.1611984
53	0x3e065acd	0.13120575
54	0x3da10402	0.078620926
55	0xbc458897	-0.012056491
56	0x3da2ff05	0.07958797
57	0x3dfd27ec	0.1236113
58	0x3b99a8d7	0.0046893167
59	0x3d93804c	0.07202205
60	0xbd4abd4d	-0.049496938
61	0xbc84fd57	-0.016234083
62	0x3d94c07f	0.07263278
63	0x3e35e317	0.17762409
64	0x3d987de1	0.074458845
65	0x3df16078	0.11785978
66	0x3d02639e	0.031833284
67	0x3d1fc073	0.039001893
68	0x3d8e0143	0.069338344
69	0x3d200c20	0.039074063
70	0x3e2156e1	0.15755798
71	0x3e2afb86	0.16697511
72	0xbe034a4f	-0.12821315
73	0x3dff3405	0.12461094
74	0x3cf99d5c	0.030470543
75	0x3c48e3db	0.012261356
76	0x3d863407	0.06552892
77	0x3d6aa370	0.057284772
78	0xbd240d4a	-0.040051736
79	0x3dcb6e9b	0.09933206
80	0x3e23ac2e	0.1598365
81	0x3d7c0b88	0.061534435
82	0x3da51183	0.08059981
83	0x3dbb6745	0.091505565
84	0x3cfb860c	0.030703567
85	0x3e17a0fa	0.14807501
86	0x3e44efd6	0.19232115
87	0x3d94d250	0.072666764
88	0x3db2a228	0.08722335
89	0x3e35bbaf	0.17747377
90	0x3e708c80	0.23491096
91	0xbe11a126	-0.1422163
92	0x3d035c4f	0.032070454
93	0xbd2c68d3	-0.042092156
94	0x3e264a6f	0.16239332
95	0x3e4068e7	0.18790017
96	0x3d03e1d0	0.032197773
97	0x3dfc65fa	0.12324138
98	0x3dde7617	0.108623676
99	0xbcbb6591	-0.02287558
100	0x3e0de5c1	0.13857175
101	0x3e1efa35	0.15525134
102	0x3dd32d9b	0.10311433
103	0x3ded3709	0.11582763
104	0x3de517ff	0.111862175
105	0x3e2dbddf	0.16966961
106	0x3e473813	0.19454984
107	0x3de0347b	0.1094751
108	0x3e4053d7	0.18781982
109	0x3d15daff	0.036585804
110	0x3e35255d	0.17690034
111	0xbb0268c1	-0.0019898864
112	0x3c0e387f	0.008680462
113	0x3e1434b5	0.14473231
114	0x3e133b3b	0.14378063
115	0x3de1c9d9	0.110248275
116	0x3da94d1b	0.0826666
117	0x3dc69b5f	0.096976034
118	0x3df2e2c4	0.11859658
119	0x3e00ef6f	0.12591337
120	0x3ce92a67	0.028462602
121	0x3da7d3b3	0.08194675
122	0x3dd6b5d8	0.10483903
123	0x3d95c4f9	0.0731296
124	0xbc578f41	-0.013156713
125	0x3db6c35c	0.089239806
126	0x3e3c2213	0.18372373
127	0x3ca3405f	0.019928155
128	0x3dd45267	0.103672795
129	0x3c066aca	0.008204171
130	0x3cf6b792	0.03011683
131	0xbd8dbe36	-0.069210455
132	0xbdfe3838	-0.124130666
133	0xbd7a6321	-0.061129693
134	0xbd1d060f	-0.038335856
135	0xbdb5cf70	-0.08877456
136	0x3da70c0b	0.08156594
137	0xbdd9fbf9	-0.10643763
138	0xbdd81b6a	-0.10552104
139	0xbd8a0fa9	-0.06741268
140	0x3dbb7d99	0.09154815
141	0xbdb1430b	-0.086553656
142	0x3d97424b	0.07385691
143	0x3d26bafd	0.04070567
144	0xbd3f73e0	-0.046741366
145	0x3d49fbce	0.049312405
146	0x3cb050c5	0.021522889
147	0xbdaee4ff	-0.08539771
148	0xbd5b1793	-0.05348928
149	0x3dcfce66	0.10146789
150	0x3d4ed0a0	0.05049193
151	0xbdac7ed8	-0.08422631
152	0xbd5e80ec	-0.05432217
153	0x3d53efc1	0.05174232
154	0x3cfe6b9b	0.03105717
155	0xbd33e9e6	-0.043924235
156	0xbdd7dc60	-0.1054008
157	0xbde868a1	-0.113480814
158	0xbd67a359	-0.056552265
159	0x3c99d0f6	0.018776398
160	0xbcfe3860	-0.031032741
161	0xbe02ba4c	-0.12766379
162	0xbd57972f	-0.052634414
163	0x3dc7b63b	0.097515546
164	0xbe078d16	-0.13237414
165	0xbdf1bf9c	-0.11804125
166	0x3d02daea	0.031947054
167	0x3d492010	0.049102843
168	0xbe115fa1	-0.14196636
169	0xbe09c32d	-0.1345336
170	0xbd7ad50a	-0.061238326
171	0x3dd5fe7a	0.10448928
172	0xbdea202b	-0.11431917
173	0xbb4a3c0b	-0.0030858542
174	0x3d78f361	0.06077898
175	0xbd6133b7	-0.05498096
176	0xbd6cf7be	-0.057853453
177	0xbde169aa	-0.11006482
178	0xbc703bc8	-0.01466269
179	0x3dbccdf4	0.0921897
180	0x39ce6072	0.0003936324
181	0x3d8a4fbd	0.0675349
182	0xbc9c49d3	-0.01907817
183	0xbd56f765	-0.052482028
184	0xbda1e3f5	-0.079048075
185	0x3d341f3b	0.043975096
186	0xbd209fb5	-0.03921481
187	0xbdfb1776	-0.12260334
188	0xbd8c22d8	-0.068425834
189	0x3cb0418f	0.021515636
190	0x3dbe1a14	0.09282318
191	0xbd4309ac	-0.047616646
192	0xbddee3d4	-0.108832985
193	0xbdbc7f54	-0.092039734
194	0xbdc96c28	-0.09835082
195	0x3d4e6394	0.050387934
196	0x3dbcb478	0.09214109
197	0x3d176a88	0.03696683
198	0x3d3088f4	0.04309936
199	0x3da6c76c	0.081435055
200	0x3daf084c	0.085465044
201	0x3d98ddaa	0.07464154
202	0x3d8f27b8	0.069899976
203	0x3d0a8ac0	0.03382373
204	0x3d842344	0.06452039
205	0xbdafa886	-0.08577065
206	0xbda5b27e	-0.08090685
207	0x3d09b2d8	0.033617824
208	0x3c9f5b68	0.019452766
209	0xbde10e24	-0.10989025
210	0xbdba7ede	-0.09106229
211	0xbdcbcb98	-0.09950942
212	0x3dcb5244	0.099278
213	0x3da75f56	0.08172481
214	0xbd86bee6	-0.0657938
215	0x3c9a8088	0.018860117
216	0xbceb8708	-0.028750911
217	0x3dde8c2a	0.10866578
218	0xbde7de3c	-0.11321685
219	0xbdbac326	-0.09119253
220	0xbdd522fe	-0.10407065
221	0x3d94fc8a	0.072747305
222	0xbd7ff144	-0.06248595
223	0x3d9879e4	0.07445124
224	0x3d2d1298	0.04225406
225	0xbd7a4304	-0.061099067
226	0xbd09ed84	-0.03367378
227	0xbd4f3290	-0.05058533
228	0x3d61e198	0.055146784
229	0xbd4d5418	-0.050129026
230	0x3d2dc1c8	0.042421132
231	0x3c124f00	0.008929968
232	0xbdcc7178	-0.0998258
233	0xbda0ecb6	-0.07857649
234	0xbdb180f2	-0.086671725
235	0x3d862486	0.06549935
236	0x3cdde1b0	0.027085155
237	0xbb4dfac0	-0.0031429976
238	0xbd986ed6	-0.07443015
239	0xbdfda58e	-0.12385093
240	0xbd353098	-0.044235796
241	0xbdc3ed7c	-0.09566781
242	0xbdfea248	-0.124332964
243	0xbdf429a2	-0.11922003
244	0xbda737c0	-0.0816493
245	0xbdf8de36	-0.121517584
246	0x3d1f9a84	0.038965717
247	0x3d3f938c	0.04677157
248	0x3d4e5ee8	0.05038348
249	0xbdfed8c0	-0.124436855
250	0x3d9e4cce	0.07729493
251	0x3cc7a488	0.024370447
252	0x3d82e712	0.063917294
253	0xbcfbace8	-0.030722097
254	0x3d75deb0	0.060026824
255	0xbdf2cb54	-0.11855188

head.2.bias f4 [64]
0	0x3dd58cd9	0.10427255
1	0x3da27794	0.07932964
2	0x3dd57330	0.10422361
3	0xbd54aa18	-0.051920027
4	0x3d2cf20d	0.042223025
5	0xbdbe3dc0	-0.09289122
6	0x3e1388c9	0.14407648
7	0xbcfb1050	-0.030647427
8	0x3e4121c4	0.18860537
9	0xbc2f245a	-0.010689819
10	0x3e203626	0.15645656
11	0xbd8a99b1	-0.067675956
12	0x3e455df2	0.19274119
13	0x3bb0654c	0.0053831693
14	0x3c375be3	0.011191341
15	0x3d13caa1	0.036081914
16	0xbcbe51dc	-0.023232393
17	0x3e4275bd	0.18990226
18	0x3df77006	0.12081914
19	0xbd811082	-0.06301977
20	0xbe02cef4	-0.12774259
21	0x3cd90823	0.026493138
22	0x3bbc1acd	0.0057404996
23	0xbd668a78	-0.056284398
24	0x3e188202	0.14893344
25	0x3cb7e472	0.022447798
26	0x3dfc3048	0.123138964
27	0x3e115150	0.14191175
28	0xbdc0c541	-0.09412623
29	0xbd981c72	-0.074273005
30	0xbd1c2a07	-0.038126018
31	0x3dc11834	0.094284445
32	0x3e378e99	0.1792549
33	0x3b021f44	0.0019855062
34	0x3c7e61f7	0.015526286
35	0x3e233fe5	0.15942343
36	0x3e4127fb	0.18862908
37	0x3e116d15	0.14201768
38	0x3de50cd9	0.11184091
39	0x3dce42ae	0.10071312
40	0x3d87f85f	0.0663917
41	0x3e48e5dc	0.19618934
42	0x3da733cb	0.081641756
43	0x3db71753	0.089399956
44	0x3d91b2c1	0.07114173
45	0x3e05f4e0	0.13081694
46	0xbdfdb524	-0.123880655
47	0xbd22d584	-0.039754406
48	0xbde51d5d	-0.11187241
49	0x3de4259c	0.11139986
50	0x3d3b7ee6	0.045775317
51	0xbc12f29f	-0.008968978
52	0xbda8ecba	-0.08248277
53	0x3e0552cb	0.13019864
54	0x3e1e0557	0.15431724
55	0x3e28771e	0.1645169
56	0x3e2da8c8	0.16958916
57	0xbdd56e0b	-0.1042138
58	0x3e09d9b7	0.13461958
59	0x3e40c7dc	0.1882624
60	0x3d9605b7	0.07325309
61	0x39543964	0.00020239275
62	0xbdd1cd42	-0.10244228
63	0xbd0a49ee	-0.03376191

head.4.weight f4 [72, 64]
0	0xbd871a1c	-0.06596777
1	0x3cc24232	0.023713205
2	0x3d7bfb94	0.06151922
3	0xbd790140	-0.060792208
4	0xbe0f9229	-0.140206
5	0x3cf227c8	0.029559985
6	0xbdf5b5b3	-0.11997547
7	0xbdc502b2	-0.09619655
8	0xbccf79d8	-0.025326654
9	0xbdfede8d	-0.12444792
10	0xbcacf549	-0.021113055
11	0xbc93f9b8	-0.018063411
12	0x3d467240	0.0484488
13	0xbe44e7aa	-0.19228998
14	0x3c6db8da	0.014509404
15	0xbb8c5925	-0.004283088
16	0xbe3e1602	-0.18563083
17	0xbd018fa7	-0.03163114
18	0xbdab2e50	-0.08358443
19	0x3d87696f	0.06611907
20	0x3e03bb92	0.12864521
21	0xbe217f83	-0.15771298
22	0xbda44f46	-0.08022933
23	0xbdba1b34	-0.0908722
24	0x3ce9317d	0.02846598
25	0xbe43b872	-0.19113329
26	0xbe1e9025	-0.15484674
27	0x3d762a8f	0.06009918
28	0x3d83e6ad	0.06440482
29	0x3d163002	0.036666878
30	0x3cb5badc	0.022183828
31	0xbe3957bd	-0.18099876
32	0xbdbcf636	-0.092266485
33	0xbd96b184	-0.07358077
34	0xbcb30b36	-0.021855932
35	0xbdd37aa5	-0.10326127
36	0xbd929572	-0.07157411
37	0x3c0b2164	0.008491848
38	0xbc074432	-0.008256005
39	0xbe249790	-0.16073442
40	0xbe33fe9a	-0.17577592
41	0xbde03676	-0.109478876
42	0xbd33cf92	-0.043899126
43	0x3d3d94b8	0.046284407
44	0xbcdcef3b	-0.026969543
45	0x3d02c44d	0.03192549
46	0x3d1d946c	0.038471624
47	0xbd0223c4	-0.03177239
48	0xbd61d76d	-0.055137087
49	0x3d0c2837	0.03421804
50	0xbd66c619	-0.056341264
51	0xbd7bb1bc	-0.061448798
52	0x3de6b197	0.11264341
53	0x3aede6a3	0.00181504
54	0xbcf2c4f8	-0.029634938
55	0xbd5bba6e	-0.05364459
56	0xbdedb56d	-0.1160687
57	0x3c671f45	0.014106576
58	0xbddd1296	-0.107945606
59	0x3d27605a	0.040863372
60	0x3cb1f7b8	0.021724567
61	0xbe2029e5	-0.15640981
62	0x3e14e4de	0.14540431
63	0xbde6b807	-0.11265569
64	0xbdde8ef7	-0.10867112
65	0xbcd26539	-0.025683032
66	0xbdbe3e22	-0.09289195
67	0xbd977524	-0.0739539
68	0xbdde9b5e	-0.10869478
69	0xbd20e97c	-0.039285168
70	0x3cc0e6f7	0.023547633
71	0xbdac4a7e	-0.08412646
72	0xbe1a2881	-0.15054514
73	0xbe3eff80	-0.18652153
74	0x3d90d349	0.070715494
75	0x3d659a03	0.05605508
76	0xbe30f768	-0.17281878
77	0xbe2dfdc5	-0.16991337
78	0xbe0e330d	-0.13886662
79	0x3d1d7819	0.038444612
80	0xbbe7bed4	-0.007072309
81	0xbb3b515e	-0.0028582434
82	0x3c9709f9	0.018437373
83	0x3daa2c69	0.08309252
84	0x3e0776ed	0.1322896
85	0xbe31168b	-0.17293756
86	0x3dd85aa6	0.10564165
87	0x3d6a0898	0.057137102
88	0xbb8116f5	-0.0039395043
89	0x3cc56503	0.024096018
90	0xbdb02d40	-0.08602381
91	0xbdc4e039	-0.096130796
92	0xbd0b50da	-0.034012653
93	0x3b8ee950	0.004361309
94	0xbda3ab94	-0.0799171
95	0x3c074f4f	0.008258655
96	0xbcb21046	-0.021736275
97	0xbd81ad51	-0.063318856
98	0xbde6ee53	-0.112759255
99	0xbe249102	-0.16070941
100	0xbe02c794	-0.12771446
101	0xbe1e6ee4	-0.15471989
102	0x3d95cb59	0.07314176
103	0xbe2b3e8f	-0.16723083
104	0xbae1c273	-0.0017224088
105	0x3d34e303	0.044161808
106	0xbdb26f33	-0.08712616
107	0xbd9b37c3	-0.07578995
108	0x3d42d66c	0.04756777
109	0xbe02135e	-0.127027
110	0xbdff5746	-0.12467818
111	0xbc962068	-0.018326
112	0xbda01c1a	-0.0781786
113	0xbdd39b43	-0.10332348
114	0xbd33e5d4	-0.043920353
115	0xbc86831b	-0.016419938
116	0x3e0bfe05	0.1367112
117	0xbca89157	-0.020577116
118	0x3d1b1f55	0.037871677
119	0xbde25678	-0.11051649
120	0xbd13f67a	-0.03612373
121	0x3dacdb62	0.084402815
122	0x3bf4977a	0.0074643465
123	0xbdb804aa	-0.089852646
124	0x3d23d904	0.040001884
125	0xbe2a2d19	-0.16618766
126	0xbc93fe74	-0.018065669
127	0xbe40f621	-0.1884389
128	0xbd95d3f6	-0.07315819
129	0xbe3a773e	-0.1820955
130	0x3d972fc5	0.07382158
131	0xbdab69dc	-0.083698004
132	0xbd2d847f	-0.042362686
133	0x3de3501e	0.110992655
134	0x3d93ed71	0.07223023
135	0xbd281eee	-0.04104512
136	0xbb9b9dc8	-0.0047490336
137	0xbd1b21e0	-0.037874103
138	0x3c3d27bd	0.011545119
139	0xbc15581b	-0.009115244
140	0xbe1a425e	-0.1506438
141	0x3c0f118a	0.008732209
142	0xbe480f9f	-0.19537209
143	0x3cac4dea	0.021033246
144	0xbd8db876	-0.06919949
145	0x3be1be58	0.006889146
146	0xbd73f6ea	-0.059561647
147	0x3d19d131	0.037553016
148	0x3dd74200	0.105106354
149	0xbe5878a9	-0.21139778
150	0x3d8048d9	0.062638946
151	0xbd2d1198	-0.042253107
152	0xbe2a9887	-0.16659747
153	0xbe3df872	-0.18551806
154	0xbd8c2884	-0.06843665
155	0x3d571cc7	0.05251768
156	0xbdf242bb	-0.11829134
157	0xbcf62247	-0.030045642
158	0x3b966e6a	0.004590799
159	0xbe3b082d	-0.18264838
160	0xbcc26355	-0.023729006
161	0xbde6dd7e	-0.11272715
162	0xbe03e751	-0.12881209
163	0xbdddea6c	-0.10835728
164	0x3d3d1fd2	0.046172924
165	0xbe2b2351	-0.16712691
166	0xbb27b63a	-0.0025590793
167	0xbe0079fb	-0.12546532
168	0xbd40e38d	-0.04709201
169	0xbd28b7c4	-0.041190878
170	0xbe495d90	-0.19664598
171	0xbdd66d95	-0.1047012
172	0xbda4c8d2	-0.08046116
173	0xbcd1fbdc	-0.025632791
174	0xbd8182a8	-0.06323749
175	0x3d925ed2	0.07146992
176	0x3da89f0b	0.0823346
177	0xbe032b0a	-0.12809387
178	0xbd0a6cdd	-0.033795226
179	0xbdee932c	-0.116491646
180	0xbca8db0e	-0.020612266
181	0xbc87e207	-0.01658727
182	0xbddce288	-0.10785395
183	0xbd0b2707	-0.033972766
184	0x3d453b2b	0.04815213
185	0x3c31bda9	0.010848441
186	0x3d8eac1b	0.0696642
187	0x3b01fd3b	0.0019834775
188	0x3c746794	0.014917273
189	0xbd35a7bc	-0.044349417
190	0x3ac26378	0.0014830669
191	0xbc1dc588	-0.009629615
192	0xbbe82c79	-0.0070853797
193	0x3c0416ff	0.008062123
194	0xbc18e3ad	-0.009331626
195	0x3cae5ac0	0.021283507
196	0xbdf1e258	-0.1181075
197	0xbb8b2a20	-0.004246965
198	0x3ca78cb0	0.020452827
199	0xbdb23e5f	-0.087033026
200	0xbdbd343f	-0.09238481
201	0xbd02e6a9	-0.031958256
202	0xbd7938ae	-0.06084507
203	0x3c28e81b	0.0103092445
204	0xbdac6f15	-0.08419625
205	0xbda5aeee	-0.08090006
206	0xbde2730f	-0.11057102
207	0x3cf89536	0.030344587
208	0xbe165707	-0.14681636
209	0xbe16c8d5	-0.14725049
210	0xbda80b65	-0.08205298
211	0x3da142db	0.0787408
212	0x3e0585ef	0.13039373
213	0xbd2e9b3c	-0.04262851
214	0xbc31ffed	-0.01086424
215	0xbdf23cca	-0.11828001
216	0xbde3eefe	-0.111295685
217	0xbd313d53	-0.043271374
218	0xbddd00f2	-0.10791196
219	0xbdf16c6e	-0.117882594
220	0x3d0120b6	0.031525336
221	0x3dab3be3	0.08361032
222	0xbd58d7d4	-0.052940205
223	0x3d070cd7	0.03297123
224	0x3d661cd2	0.05617983
225	0x398e3fb9	0.00027131828
226	0xbca8086f	-0.020511834
227	0xbc84c234	-0.016205885
228	0xbc4fe8a2	-0.012689741
229	0xbc0fc5d7	-0.008775196
230	0xbe35bf50	-0.17748761
231	0xbc982185	-0.01857067
232	0x3d2382bd	0.039919604
233	0xbcf5419e	-0.029938515
234	0xbd8504c4	-0.064950496
235	0xbd6f1436	-0.058368884
236	0xbe2e2d3c	-0.17009443
237	0xbca9bb33	-0.020719146
238	0x3d4e4bd0	0.05036527
239	0x3d4349b8	0.047677726
240	0x3cb8639b	0.022508433
241	0xbe07de76	-0.13268456
242	0x3d15f7d7	0.03661331
243	0xbdd42050	-0.103577256
244	0x3ccaf00f	0.024772672
245	0xbe101051	-0.14068724
246	0xbe0d54d4	-0.1380189
247	0xbc9675dc	-0.018366747
248	0xbda16291	-0.07880128
249	0x3d82b3e1	0.063819654
250	0xbe215597	-0.15755306
251	0xbdbb25ee	-0.09138094
252	0xbac3fbeb	-0.0014952397
253	0xbe047701	-0.12936021
254	0x3e3928ed	0.18082018
255	0xbde0cbac	-0.10976347

head.4.bias f4 [72]
0	0x3c6a7347	0.014309711
1	0xbd73d23e	-0.059526674
2	0x3d70b6da	0.05876813
3	0x3c750223	0.014954123
4	0xbe00e773	-0.12588291
5	0xbd1f3d79	-0.038876984
6	0x3d942de0	0.072353125
7	0x3d52b516	0.05144223
8	0xbda808b9	-0.08204789
9	0xbca49cb7	-0.020094259
10	0xbbb1a69a	-0.005421472
11	0x3d1d38c4	0.038384214
12	0xbd5f1c77	-0.054470506
13	0xbe16fc2f	-0.14744638
14	0x3daadaf6	0.08342545
15	0x3dec9683	0.11552145
16	0xbe313628	-0.17305815
17	0xbcfe8e1b	-0.03107362
18	0xbd4a8e74	-0.04945226
19	0x3db5cdda	0.08877154
20	0xbb632993	-0.0034662231
21	0xbab42aad	-0.0013745629
22	0xbdaa21a0	-0.08307195
23	0xbd09813a	-0.033570506
24	0xbb8e4a25	-0.004342335
25	0xb980f8ed	-0.00024599527
26	0xbd4ccaf9	-0.049998257
27	0x3db3573c	0.08756873
28	0x3d0db2e2	0.034594424
29	0xbe1d48a6	-0.15359744
30	0x3d894483	0.06702521
31	0xbd84ca96	-0.06483953
32	0xbd2b0756	-0.041755043
33	0xbc8ac59f	-0.016939936
34	0xbd2fb9fb	-0.042901974
35	0x3d37dc92	0.044888087
36	0x3d879115	0.06619469
37	0x3c6a7cad	0.014311952
38	0x3c60de2a	0.013724843
39	0xbdca545b	-0.09879371
40	0x3b9c3281	0.0047667627
41	0x3c9ad5d6	0.018900793
42	0x3d91f1c6	0.07126193
43	0xbdf44de7	-0.11928921
44	0xbe11ae2c	-0.14226598
45	0xbdef6121	-0.11688448
46	0x3c64f7e7	0.01397512
47	0x3d8c4688	0.0684939
48	0x3d2a0ffc	0.04151915
49	0xbdf85dec	-0.12127289
50	0xbc9f7b34	-0.019467928
51	0xbe0aee9b	-0.13567583
52	0x3d32eba6	0.043681763
53	0xbe015664	-0.12630612
54	0xbc899c19	-0.016798066
55	0x3d87b174	0.066256434
56	0x3d07ee5b	0.033186298
57	0xbdf3a8b9	-0.11897416
58	0x3d1780aa	0.036987938
59	0xbcd9e0be	-0.026596423
60	0xbc2107d5	-0.009828527
61	0xbe17cdb0	-0.14824557
62	0x3dbba251	0.09161819
63	0x3cdf0f3b	0.027228942
64	0xbdcfa86e	-0.10139547
65	0xbd95acfb	-0.07308384
66	0xbd76ee11	-0.06028563
67	0x3db609dd	0.088886
68	0x3e1e71af	0.15473054
69	0xbd81cb69	-0.063376255
70	0x3e4bdcc7	0.19908439
71	0x3d98bb16	0.07457559
