script/logs/dome/model/final/policy.pth (torch, 56446 bytes, 6 tensors)

head.0.weight f4 [64, 72]
00000000: 0cad 2d3f be79 813d 3d38 283e 27a0 b1bd
00000010: 6e01 cf3d f48f 2ebf 5a1d 823d 015f bf3d
00000020: 7d5a 2bbc 1eaa bebb 7f31 03bf 7ac5 bdbc
00000030: aa24 6abc f9f9 96bd d4fc 46bd d91b 0a3d
00000040: e4d5 3e3d e729 90bf 94a0 a3bd f5d5 04bd
00000050: df54 2f3d 2cae f63d dfaf c6bc 410c 1b3e
00000060: 4e67 40bf 4750 4c3c 6b16 93be d6e6 dfbd
00000070: 2131 b0be 3b6a f4bc 5dcf 95be e00b e5be
00000080: 0823 7cbf 0936 5ebd 269e 6abc 99c5 e83d
00000090: 1ee4 8cbd 3f21 d83d 987e 5b3e 7152 bb3d
000000a0: 6218 cb3b 9d41 5dbe da1f 033f 115b e1bd
000000b0: ef52 c33e cd5b 2c3e d548 1c3e 9483 8d3d
000000c0: 9f5e 513a 1b1f d8bb d2c5 983f 6ef1 ef3d
000000d0: 8257 953d c1e8 a53c f7d3 a13d 41a7 a7bd
000000e0: 40e7 b33c d762 91be 5c48 a7bd a869 3abd
000000f0: c06a 5a3d 5221 423d 3df8 8ebd 6103 95bd
00000100: 5cb3 b8bf aeb5 73bc 8c30 e93c 39b2 df3c
00000110: 853e 04be 69c0 e73d adb9 e039 229b a1bd
00000120: 92f5 44be 5bfa c73d 73a4 df3e 00f7 d43d
00000130: 91b2 e4bd f992 b4be bd19 58bf ddfe 96bd
00000140: 85ef e0bd 743c f93d 1e28 893f 31c3 f0bd
00000150: 42f6 3ebd 59d6 5ebf 93df 9ebc b9a7 983d
00000160: 54fc 99be 2a9b 2b3f f753 6ebd 08f8 313e
00000170: 3664 d3bd b24e aa3d b2e1 eebd f6c8 cdbd
00000180: d996 8d3e d835 6dbe 9ec5 ad3e b2fa 8abd
00000190: e648 b4bb b37c 8e3d 9b8d 1b3e cf4d 94bf
000001a0: 5604 2e3e 4660 c7be c645 39bd bb7a 45be
000001b0: dac7 d4bb 1521 193c 022e 4b3e 956c a93e
000001c0: cd08 d3bd 8436 673e d4b9 09bf b688 cbbd
000001d0: ee05 88be 15f4 5abe 86f7 edbe 1c43 043e
000001e0: 2f1c a6bd 6242 d03d 7f85 57bc 1b7d 24bf
000001f0: ae28 68be 96b2 8f3e 75ad f1bc 393f 6c3d
00000200: f6de 28bd 416c 30bf eb5c cdbc 2816 05bf
00000210: b93c 9dbd 533e db3e f2c6 ac3d 31a8 033e
00000220: 7cdf e1bd 0493 26bc ec90 8e3e b609 a23d
00000230: 51fb 953e cb46 993d 07ac 0d3e 0ad2 573e
00000240: d013 2ebf 81d8 64bd 7515 483d 0345 48ba
00000250: 27aa 843e abda 57bf f43e 173f 86b5 cbbd
00000260: 74d3 c3bc 0d3b febc 4425 66be 84db afbe
00000270: 7d84 893d 3ed6 babe 6b1a ccbc bb52 17be
00000280: 7c34 8c3b ff41 883e 37a6 40be 59a4 1fbc
00000290: e5b7 5bbe f856 8c3e 6a49 5bbd 706f af3e
000002a0: a2ab b8bd ff7e aabd dace 533e 9be5 44bd
000002b0: 1e7b 6a3d 77d1 2e3d 9ddd 2cbf 1154 af3e
000002c0: 0e7e bebe 1b7c f73c a809 a9bd 0c1b f1be
000002d0: 3331 4f3c d449 1c3c e84c cc3d db16 46bf
000002e0: 2cff ea3c 4527 3bbe a3dc c3bd 5b09 cbbc
000002f0: 7f01 203e 0ab3 a2bd 67d1 1c3e d724 a53d
00000300: 23f2 22bf b832 d63c 116d 183d 6080 33be
00000310: 0187 ec3c 1181 e33d 3ed4 8fbd 86f1 203e
00000320: d774 a23b fcda 5ebe bd72 b6bd 3524 93bb
00000330: e025 8cbd 3e59 423e 3385 2dbd 1040 7d3e
00000340: 1ab6 203e ae7f 743c 9677 163e 140d 7abe
00000350: de24 a3bd c973 dcbc 421a 163f c854 a9bd
00000360: 76d6 22bc f1a4 f1bc 60bd a03e 36ce 53bd
00000370: af6a 2abe 46c7 24be 7d5a 2dbf 14f0 773e
00000380: 3068 1dbd b70b 993d 034b e6bf 0e70 af3e
00000390: fb37 fabe 5152 25bf 0438 c83d a351 943e
000003a0: 712b 21be ce59 28bf 2cb0 143f 0d04 99be
000003b0: 4e90 75be ce55 503d 82aa edbd 5393 073e
000003c0: 1e5b c4be 97b2 b53d 687d ee3e ac1c 623c
000003d0: c555 17bf 4dd7 07be 4194 50be 31e0 653f
000003e0: 96fe 28bf 8806 f73d a935 a53e fe68 32bf
000003f0: 33de 443e 5f9a 28bd 8a4f 083d 008c 093f
0.67842174 0.063220486 0.16427703 -0.08673125 0.101076946 -0.68188405 0.063532546 0.093442924
-0.010458586 -0.0058186194 -0.512474 -0.023165453 -0.014290968 -0.07371897 -0.04858096 0.033717964
0.0465907 -1.1262788 -0.07989612 -0.032430608 0.04280555 0.120449394 -0.024253784 0.15141393
-0.7515763 0.0124703115 -0.2872804 -0.109327 -0.34412482 -0.02983581 -0.29259768 -0.44735622
-0.98490953 -0.05425075 -0.014319932 0.11365814 -0.068794474 0.10553216 0.2143501 0.09146584
0.006197975 -0.2160706 0.51220477 -0.11003698 0.3814921 0.16831894 0.15262158 0.06909862
0.0007986817 -0.006595505 1.193537 0.11715971 0.072920814 0.020252587 0.07901757 -0.08186198
0.021960855 -0.2839572 -0.08168098 -0.045510918 0.05332446 0.047395058 -0.069809414 -0.07276035
-1.4429736 -0.014874859 0.028465532 0.027306663 -0.12914474 0.11315996 0.0004286295 -0.07890917
-0.19234303 0.097645484 0.43680152 0.10398674 -0.11166871 -0.3526838 -0.84414274 -0.0737283
-0.10983185 0.12169734 1.0715368 -0.1175598 -0.04662157 -0.8704582 -0.019393718 0.074538656
-0.30075324 0.67033637 -0.058185544 0.17379773 -0.10321848 0.08315791 -0.11664142 -0.10048096
0.2765415 -0.23165071 0.33939832 -0.067860976 -0.0055018542 0.06957378 0.15190737 -1.1586245
0.16993842 -0.38940638 -0.045232557 -0.19285099 -0.0064935507 0.009346266 0.1984177 0.33090654
-0.10304413 0.2257939 -0.53799176 -0.09938185 -0.26567024 -0.21382172 -0.46477908 0.12916225
-0.08110844 0.101689115 -0.013154387 -0.64253396 -0.22671768 0.28065938 -0.029501656 0.05767748
-0.041228257 -0.6891518 -0.02506872 -0.5198693 -0.076775976 0.42820987 0.08436383 0.12857129
-0.110289544 -0.010166887 0.27844942 0.079120085 0.29293302 0.07484206 0.13835154 0.21076217
-0.6799898 -0.055870537 0.048848588 -0.0007639678 0.25911066 -0.84318036 0.59080434 -0.09946732
-0.02390454 -0.031034017 -0.22475153 -0.34347165 0.06714723 -0.3649158 -0.02491494 -0.14777653
0.0042787176 0.2661285 -0.18813406 -0.009743773 -0.21456869 0.27410102 -0.05353681 0.34264708
-0.09017111 -0.08325004 0.20684376 -0.04807053 0.05724632 0.04268023 -0.67525655 0.34243825
-0.37205547 0.030210545 -0.08253795 -0.47090948 0.012646007 0.009539086 0.09975606 -0.77378625
0.028686129 -0.18276699 -0.095635675 -0.024784734 0.1562557 -0.07944305 0.15314256 0.08063667
-0.6365072 0.026147231 0.03721339 -0.1752944 0.028872969 0.11108602 -0.07022904 0.15717134
0.004957776 -0.21763223 -0.08908603 -0.0044904 -0.068431616 0.18979356 -0.042363357 0.24731469
0.15694466 0.014923019 0.14694056 -0.24419051 -0.07966016 -0.02691068 0.58633816 -0.08268124
-0.009938827 -0.029497596 0.31394482 -0.05171033 -0.16642259 -0.16091642 -0.677162 0.24212676
-0.03842944 0.074729376 -1.7991642 0.34265178 -0.48870835 -0.6457873 0.09776309 0.28968534
-0.15739228 -0.6576203 0.58081317 -0.29885903 -0.23980829 0.05086308 -0.116047874 0.13239793
-0.38350767 0.08871954 0.46580052 0.013800781 -0.5911525 -0.13265724 -0.20369054 0.89795214
-0.6601347 0.120617926 0.32267502 -0.69691455 0.19225387 -0.041162845 0.03327898 0.5372925

head.0.bias f4 [64]
00000000: b047 083e 99e1 4b3e 6c42 513d 5b82 3e3e
00000010: 84aa 283e 4440 b13e 0ca9 a33c a066 5b3d
00000020: 4a5f 7f3e 47c6 6f3d eb5b c93d 761a 9c3d
00000030: b637 493e 220a 473e 675c adbd 9523 8c3e
00000040: 5e0a 073e f0ed 533e ae27 7b3d cd7b 0e3e
00000050: 08ea 343e 6155 c53d 1173 bb3d 49b8 5f3e
00000060: 3abc 9e3d 7b08 813e 9aad 92bd 616c 76bd
00000070: 5eca 9a3e c51d 563e 2ff0 bc3d 79e4 8bbd
00000080: eaf7 943d 883c 673e 9fe5 ac3e 4626 583e
00000090: 09cc 8b3d 3f86 a23d 6bfb a0bd 045a c4bd
000000a0: f1b8 c23d 8d6a b73d 9e04 413e f880 8cbc
000000b0: 64c0 a6bc ffa6 213b ce78 f53d 4694 27bd
000000c0: e3d6 a83e f637 303e 4510 9a3e 9cfa a13d
000000d0: e3a0 3f3d a820 d13d 4125 8c3e f73d 683d
000000e0: f205 9c3e 26a6 cc3c cc49 2d3e d54a 9bbd
000000f0: f982 023e 1889 743d 04f9 3c3e b496 f13d
0.13308597 0.19910277 0.051088735 0.18604414 0.16471297 0.34619343 0.019978069 0.053564668
0.24938694 0.0585387 0.09831985 0.076222345 0.19650158 0.19437459 -0.0846489 0.27370897
0.13187549 0.20696235 0.06131714 0.13914414 0.17667401 0.09635425 0.091528066 0.21847643
0.07750745 0.25201783 -0.07162018 -0.060161952 0.3023252 0.20909794 0.09225499 -0.06830687
0.07273848 0.22581685 0.33768937 0.2110835 0.06826026 0.07935762 -0.07860454 -0.095874816
0.09507931 0.0895587 0.18849418 -0.01715134 -0.02035541 0.0024666188 0.11985932 -0.04091289
0.32976446 0.17208847 0.30090538 0.07909128 0.046784293 0.10211307 0.27372172 0.05669972
0.30473286 0.02498157 0.16922683 -0.075826325 0.12745275 0.059701055 0.18454367 0.117963225

head.2.weight f4 [64, 64]
00000000: 93d8 243f a4e9 ccbe 288f 083f a0b2 093f
00000010: 4ddb 913e 22e9 113f cc50 943f 3c54 e83d
00000020: 5185 eb3d e16a 5cbf 79e4 d93d 8b33 5dbd
00000030: 9d2d 68be 43d7 8bbe 7911 d43e 2ffc 273e
00000040: deff 88be 5e60 dc3d 15f8 c43e b208 053e
00000050: 78b1 18bf d9d6 a33d 85ea 853d c72b b8be
00000060: 2344 0f3d 4056 f13e 9078 083d dcb6 5dbe
00000070: 4df7 8f3d 08bf 2dbe 9354 cabc f760 673d
00000080: 3b3b 263d ec72 35be bb8a 573e 5d59 4b3d
00000090: b5c3 353e 3e6f 5b3e 03b8 99be 8cda bfbc
000000a0: 7f74 e8bc f7d8 c73d 8b7d c13e ec47 54bc
000000b0: 6ea0 61be 900e 39bd 96d3 0cbf 46c6 9cbd
000000c0: a91d 7a3f 53c9 c33e 7d92 693e 42e5 3f3e
000000d0: af9b 573e 2665 cb3d bf3a 81bd 2a83 613e
000000e0: 03ec c03c 680d 013f 9148 9d3c f2c5 c1bd
000000f0: ddd7 4dbe 56f3 d4be 7412 1d3f 8472 0d3f
00000100: b2c8 17be 2a15 863e dfe1 c53e 9414 cd3d
00000110: 27d5 3f3e f4fb 973f 78f4 77be aa49 e73e
00000120: 9f9b 013f 7bf2 c83e b870 953e e5b6 a1bd
00000130: 4488 0a3f 954f 633e 1733 79bd 1b51 ea3e
00000140: 0f12 7bbd 6e27 ac3d d7e3 ea3e a225 a33e
00000150: 0d58 603e d295 203f 5d35 f43e d1cb 443d
00000160: 878d e63d 416f b83e 366f 5b3e 2686 77be
00000170: c31c e1bd 3660 b5be 20d0 2d3f 9a80 6dbe
00000180: 2bdc 073f a025 e63e d6f3 973e 3d7e c7be
00000190: 9aad cc3e 2ae5 dabe d25d e23a e85f 633c
000001a0: 0db1 e83d c5ae 803e 5b1f 97be f608 593d
000001b0: 54b0 f0be c7b5 7dbe 308e 653e aeea 34be
000001c0: a149 4cbe 6d04 e53e 2c63 f13e 9d95 b8bc
000001d0: de3d f13c 728c a43e 2ee3 8f3e 3bad 033f
000001e0: ac0d b83e 3c80 fd3c e2bc 033f 93ff 14be
000001f0: bc36 d93e ea4b ecbe 5f3e 0bbe 293e 9f3f
00000200: ceae 843e b374 9cbe a545 e13e 8008 be3e
00000210: 81a4 a5bd 6b55 95be d9fe ed3e f4a4 023f
00000220: 1a75 1c3f a677 bbbe 4f32 18be 22e3 b23e
00000230: fdad 3c3e 322a e4bd 5dcb 243e c37e 0e3f
00000240: e006 ee3c 32f1 ac3e 753e 9fbe b092 b6be
00000250: 854f d53c 456e 2c3f 00f8 073f 0ef7 07be
00000260: 1e03 73be 6980 e43e ca90 5d3f ba92 41bd
00000270: d7dc 1bbf f8d9 73bd 73c2 793e 92d3 a13e
00000280: 51af 1f3f b4c4 fabe bc8d 7a3d f4c6 223f
00000290: e97e 51bf b897 233e 9eda f7be 993d 013e
000002a0: 8214 4bbe d5cd 31bd 4aad 123f 7207 df3d
000002b0: 01f0 b8be a541 dfbc adb4 0f3e 92df 2dbd
000002c0: 354a 3bbf e49a e93e bf2f 56bd 2f27 c03e
000002d0: 7250 323f 46ec e13e 0edd acbe 9fed 4a3e
000002e0: 5fa0 3ebe 8383 6d3f e515 6d3d 275b 81be
000002f0: c0d8 8a3d 0589 ad3e 3f2c 3e3f 889f 7c3f
00000300: 0203 ebbd 1b57 c9bd 9d6e eebd 53b7 293d
00000310: 2df0 a73d a51f a73c 4d51 ff3c 6475 a73d
00000320: aa66 a03d 90b6 8f3d 3c38 843d 0685 b03c
00000330: 892c 6d3d 7a13 b1bd 8ec7 b4bd c60d c63c
00000340: 8c78 873b aedd f6bd a988 c6bd 21d7 e0bd
00000350: 42be b73d 565f a73d 7280 85bd 3bf4 163c
00000360: dbba f7bc 77e8 d83d 3cde e7bd c90f cebd
00000370: 04d0 d6bd f795 913d dc61 84bd 234b 9f3d
00000380: 4f62 2d3d 0443 7abd 84ed 09bd a714 7bbd
00000390: 0056 193d 0647 87bd c8c1 2d3d 004f 123c
000003a0: ff6f ccbd a1a2 a7bd f194 adbd 8624 863d
000003b0: 1b80 b73c 2e22 0ebc f92a aebd b94f 0abe
000003c0: 373a 55bd b6cf e1bd 8149 04be 46b8 f1bd
000003d0: 5fa2 c9bd 60ef 00be a9f8 ed3c 6cd4 f53c
000003e0: b43c 213d a8b1 f8bd b380 a73d 88a4 c73c
000003f0: 18c9 8f3d a8d2 2abd 8e89 363d 04a4 f2bd
0.64392966 -0.40022004 0.5334344 0.53788185 0.28487626 0.5699636 1.1587157 0.113441914
0.115000375 -0.86100584 0.10639281 -0.054004233 -0.2267365 -0.2731267 0.4141958 0.16404794
-0.2675771 0.10760568 0.38470522 0.12991598 -0.59645796 0.07999963 0.06538872 -0.359709
0.03497709 0.47136116 0.033318102 -0.21651787 0.07029591 -0.16967404 -0.024698531 0.056488957
0.04058383 -0.1771962 0.21049015 0.04964577 0.17750438 0.21429154 -0.30023202 -0.023419641
-0.028375862 0.0975818 0.37791094 -0.012956601 -0.22033855 -0.045179904 -0.55010355 -0.07655005
0.9770151 0.38239536 0.22809787 0.18739799 0.21055482 0.09931402 -0.06310033 0.22022691
0.02355004 0.5041108 0.019199641 -0.09461583 -0.20101877 -0.415919 0.6135628 0.5525286
-0.14822653 0.26188022 0.38648888 0.100136906 0.18733655 1.1873765 -0.24214351 0.4517339
0.50628084 0.39247498 0.2918756 -0.078962125 0.54114175 0.22198327 -0.06083974 0.45765004
-0.06129652 0.08405958 0.45876953 0.3186465 0.21908589 0.6272861 0.47696963 0.048045937
0.11257463 0.3602238 0.21429142 -0.24172267 -0.10991814 -0.35424966 0.678957 -0.23193589
0.53070325 0.4495058 0.2967822 -0.389635 0.39976197 -0.42752963 0.0017270392 0.013877846
0.11361895 0.2513334 -0.2951611 0.05298706 -0.47009528 -0.24776374 0.22417521 -0.17667648
-0.19949962 0.4472994 0.47145975 -0.022532279 0.029448446 0.321384 0.28103012 0.51436204
0.3594793 0.030944936 0.5146009 -0.14550619 0.42424572 -0.46151668 -0.13598011 1.2440845
0.25914615 -0.30557784 0.43998447 0.3711586 -0.08088017 -0.2916673 0.46483496 0.5103295
0.6111618 -0.36614722 -0.14862941 0.34938914 0.18425746 -0.111408606 0.16093202 0.55662173
0.029056013 0.33777767 -0.31102338 -0.3565879 0.026038894 0.6735576 0.5311279 -0.13277838
-0.23731658 0.4462922 0.86549056 -0.04725907 -0.6088385 -0.059534043 0.24390583 0.31606728
0.62376887 -0.48978198 0.061170325 0.6358483 -0.81834275 0.15975845 -0.4840898 0.12621154
-0.19832042 -0.043409187 0.5729567 0.10890092 -0.36120608 -0.027252981 0.14033766 -0.04244954
-0.73160106 0.45625985 -0.052291628 0.37529895 0.69654 0.44125575 -0.337624 0.19817208
-0.18615864 0.92778796 0.05788221 -0.25264856 0.06779623 0.338936 0.74286264 0.98680925
-0.11475183 -0.09831067 -0.116421916 0.041434597 0.08200107 0.020400831 0.031166697 0.08176687
0.078320816 0.07017243 0.06456038 0.021547806 0.0579038 -0.08646293 -0.088271245 0.02417649
0.0041342434 -0.12054001 -0.096940346 -0.109785326 0.08971836 0.08172481 -0.065186396 0.0092135025
-0.030240467 0.10591214 -0.11321685 -0.100616045 -0.104888946 0.07108682 -0.06463978 0.07778003
0.042330083 -0.061099067 -0.03367378 -0.061298992 0.03743553 -0.066053435 0.042421132 0.008929968
-0.09982299 -0.08185316 -0.08475674 0.06549935 0.022399953 -0.008675141 -0.0850429 -0.13506974
-0.05205747 -0.11025946 -0.12918665 -0.118027255 -0.09845423 -0.12591314 0.029049234 0.030008517
0.03936453 -0.1214326 0.08178844 0.024370447 0.070207775 -0.041704804 0.044564776 -0.1184769

head.2.bias f4 [64]
00000000: acab 953c bc19 e33d 4c73 623e c95b 81bd
00000010: 2714 a13d 77cd 0d3e 073d 823e 89fa dcbd
00000020: 2e89 963e 4b47 3d3c dfda 293e 9016 133e
00000030: eef5 2b3e 8bf9 fbbd 6cec 1dbc 7e71 81bd
00000040: 1976 a7bd fbc7 4d3e e754 3f3e 768d 5a3d
00000050: d0a9 80be fbde 383d aee5 893d ad58 90bd
00000060: 70d6 d33d 4c12 c5bc 4ac8 a03c e4cc da3d
00000070: dc5c 703e e7e2 613e 0616 15bd 58c6 c23c
00000080: a8ba 453e 34f5 13bd 61c0 943d bcfa 213e
00000090: 956e b13d 2a59 f73d 0bc4 ea3d 43ef cc3e
000000a0: 8633 0b3e bfe6 463e af15 193d 07eb d73d
000000b0: 795a 463c f10c 8b3e 4418 45be d0b9 8fbd
000000c0: 59e2 91bd fceb 0d3e e9fb deba f268 debd
000000d0: 35df 29be e95d 673e 8cad 993d ade3 8c3e
000000e0: 1da9 013e bafa 18bd 1f3f 0f3e d9e8 833e
000000f0: 047b aa3d 403f 32bd 2116 b13d e914 42bd
0.018270336 0.11088893 0.22114295 -0.06316335 0.07865172 0.1384791 0.25437185 -0.10789973
0.29401535 0.011552642 0.16587399 0.14364076 0.16793033 -0.12303456 -0.009638887 -0.06320475
-0.08176822 0.20095818 0.18684731 0.053357564 -0.25129557 0.045134526 0.06733261 -0.070481636
0.10343635 -0.024056576 0.019626755 0.10683611 0.23472923 0.22059213 -0.036397956 0.023776218
0.19309485 -0.036122516 0.07263256 0.15818304 0.0866367 0.120775536 0.114631735 0.40026292
0.13593873 0.1942396 0.037374195 0.10542875 0.012106531 0.2715831 -0.19247538 -0.07017863
-0.071232505 0.13859552 -0.0017012331 -0.108598605 -0.16589053 0.22594418 0.075038046 0.27517453
0.12662168 -0.037348486 0.13988923 0.25763586 0.083242446 -0.04351735 0.08646799 -0.047383223

head.4.weight f4 [72, 64]
00000000: d760 d73d 9a24 a53e 3399 e43e 4001 79bd
00000010: cc65 30be 389c b13e 02e1 8cbb fc54 2abd
00000020: 3545 c8be 5c61 4cbe 8100 acbe 372a a3bf
00000030: 22c7 f13e 7aea e5bd 130d 183c ff93 833d
00000040: c6e7 a5bf e0f3 5bbc 108b 1cbf 3222 56be
00000050: 1681 4c3f 8b05 edbd ffeb 64bf 3a1b babd
00000060: 681b 123e 4abb bb3e 0ef4 a3bd 6164 a53e
00000070: 9db6 9cbf ac61 a2be dae0 d53e 9b32 4abd
00000080: 6b5e 03bf ee60 d83e 6b85 13be 5b0c 5bbe
00000090: c7e0 ecbe d481 78bf 5ed1 093e 046a 8cbf
000000a0: 2675 a53d 94e7 133e 7d4a dcbd a715 2f3e
000000b0: b3cc b6be 8e66 c83e 6eba 073d 4a41 01bd
000000c0: 7b20 3a3f 23e2 823d f8ea f3be 6381 52bd
000000d0: 6742 21bc 7545 59be 3995 e63c a3aa f6bd
000000e0: 86df 91bf 7dfc 223f 9c55 b43e ffc1 d63d
000000f0: f777 513d fec3 1c3f bcf5 9a3d 43ab 69bf
00000100: ca44 09be d0d0 36bd a698 61be 2475 97bd
00000110: 359b 8dbd 67c6 0dbf 970d af3d 70a1 20bd
00000120: f1c1 7cbe aaa2 abbe 6e57 01bf 5eae 98bf
00000130: 3380 4abe b2ef cdbd 9ea9 87bd bd8f 003e
00000140: 193b b5be 9a40 d5bc 55aa 0e3e 5592 c6bf
00000150: 948b 2dbf fa19 0fbe 9e9e 04bd 9808 6a3d
00000160: 8f01 aabd a895 423e 5443 2cbc 2e65 e5bd
00000170: ce44 8abf b08f 4bbd 53bf ad3c f5a9 15bd
00000180: 2872 053d 4103 5abe 65fc 36bc 89cc 26be
00000190: e84e 86be 7634 6abe 8d4d 203e 62ff 29bf
000001a0: 760a acbc 731e b43c bbb5 11bd d3d9 18be
000001b0: aef9 293e 8fcd 45be 838d ffbd a161 94bc
000001c0: 30cb 54bd 6881 05be 701e 09be ae8e 2ebe
000001d0: 4b7d f2bc df52 38bf f6c6 703c 007e c5be
000001e0: 337f cebe 012b a6bf ed05 fabc 10eb 1cbe
000001f0: 6202 cabc e445 88be 4af5 c3bf 3496 07bf
00000200: 8c88 38bf 0204 5abf 96a3 adbe dc69 abbd
00000210: 902a 8cbf 02f3 453f 0650 f9be 5bc6 233c
00000220: 9b65 b3be 8bce 68be 97a3 a83e 973b 363f
00000230: 3b7b 0bbf 480f 013e 3c6a 22bf c673 d03d
00000240: bf03 c03d df4e aebd da45 a5be 01b0 71be
00000250: 18fb ccbd 4ece fcbe 8c67 78bd 9811 2dbd
00000260: d80a 25be a09f 60bf 16db 80bb b0b7 1ebe
00000270: b411 603e a96c c1bd 730b e23e 97c9 25bf
00000280: 25d4 94be 03f9 bbbe 8ecd 633d 137b 26bf
00000290: 2fc9 1b3e e45d 5ebe daaf 95bd fed6 623d
000002a0: 192a d9be 0bb7 d0be 344f d53d 3942 febe
000002b0: 6a0f 0bbf 5e03 25bf cb41 81bd bfd3 923d
000002c0: 6011 ec3d 3b35 9fbe 8a88 91bd 7091 873c
000002d0: c3bb 853d c876 0e3f 3bf2 edbe 4724 41bc
000002e0: 0f6d a13e 3be2 94be adcb e0be d783 bd3c
000002f0: 9259 9dbe ef40 913f c660 e63e 3824 9b3e
00000300: 7a5b 6f3a 2a83 8a3c 92f3 c13a c05a ae3c
00000310: 9a82 03be e6f6 0ebf 642e 2d3e faaa 28bd
00000320: ce9c 5fbe 5424 ad3e 16ed d8be d007 87bf
00000330: cdd8 e03d 7352 3bbc 4beb 1e3d f409 ad3d
00000340: 170e e5be 9f7f 023f 2f94 833e 5bc0 b4bf
00000350: f1c4 bfbe 54a1 21bf 068f f13d ca3c f2bd
00000360: d8e4 593d 17f9 053d 011e 63bd e35b a0be
00000370: 9c3b 47bf ba7c 4e3e fea4 863d 63e0 543e
00000380: 0f0e d23e 5bcf 8b3d 1616 14be 027b 06be
00000390: f725 e7bd 3600 7f3e 0fdc 423e 8b08 89be
000003a0: 4fec 283d 5a77 e9be af25 e63e 4c9b 7dbd
000003b0: c4be bbbc 819c a83e eea0 4d3d 3e1e 443d
000003c0: e5d1 9b3e 8393 c3be f61b 2f3e 9899 183e
000003d0: 9e63 bcbd 785d f0be 6a7d 3fbd 98c5 073e
000003e0: a17a 5e3c c691 77bf e7dd 40bf 6cd3 523c
000003f0: 4176 ab3e 3501 c8be 54e1 93bf 1f85 983e
0.105165176 0.32254487 0.44648132 -0.060792208 -0.17226332 0.34689498 -0.004299284 -0.041584954
-0.391153 -0.19959015 -0.33594134 -1.2747258 0.4722224 -0.112263635 0.009280461 0.064247124
-1.2961357 -0.013424844 -0.6114969 -0.20911482 0.7988447 -0.11573323 -0.894226 -0.09087224
0.14268267 0.36666328 -0.08005534 0.32303146 -1.2243229 -0.31715143 0.4177311 -0.049364667
-0.51315945 0.4226145 -0.14406364 -0.21391432 -0.46265242 -0.970731 0.13458773 -1.0969853
0.08078985 0.14443809 -0.10756395 0.17098103 -0.35703048 0.39140743 0.033136778 -0.031556405
0.7270581 0.063907884 -0.47640204 -0.051392924 -0.009842492 -0.21217902 0.028147327 -0.12044265
-1.1396339 0.63666517 0.35221565 0.104862206 0.051139798 0.6123656 0.07566401 -0.9127695
-0.13405147 -0.044632733 -0.22030887 -0.0739539 -0.06914369 -0.5538086 0.08547514 -0.03921646
-0.24683358 -0.3352254 -0.5052403 -1.1928213 -0.19775467 -0.10055484 -0.06624149 0.12554832
-0.3539665 -0.026031781 0.13932164 -1.5513407 -0.67791104 -0.13974753 -0.03237783 0.057137102
-0.083010785 0.19002402 -0.010514099 -0.11200939 -1.0802248 -0.049697578 0.021209395 -0.036539037
0.03257957 -0.21290304 -0.011168574 -0.16288961 -0.26232076 -0.22871575 0.15654583 -0.6640531
-0.021001082 0.021987176 -0.035573702 -0.14926843 0.16599151 -0.19316696 -0.12478163 -0.01811296
-0.051951587 -0.13037646 -0.13390517 -0.17046615 -0.02960076 -0.7200145 0.0146958735 -0.38572693
-0.4033142 -1.2981874 -0.030520404 -0.15324044 -0.02465934 -0.26615822 -1.5309231 -0.52963567
-0.72083354 -0.85162365 -0.3391387 -0.083698004 -1.0950489 0.77323925 -0.48693866 0.009996022
-0.35038456 -0.2273504 0.3293731 0.71184677 -0.5448491 0.12603486 -0.6344335 0.10178332
0.093757145 -0.08511137 -0.32279855 -0.23602296 -0.1000883 -0.49376148 -0.060645625 -0.042253107
-0.16117418 -0.8774357 -0.003932367 -0.15499759 0.21881753 -0.094445534 0.4414936 -0.64760727
-0.29068103 -0.36713418 0.055615954 -0.65031546 0.15213464 -0.21715504 -0.07308932 0.055380814
-0.4241493 -0.4076465 0.104154974 -0.496599 -0.54320395 -0.6445826 -0.06311377 0.071692936
0.115267515 -0.310953 -0.07106121 0.016548842 0.06529953 0.55649996 -0.4647387 -0.011788434
0.31528518 -0.2907885 -0.43905392 0.023134155 -0.307324 1.1347941 0.44995707 0.3030107
0.00091307575 0.016908247 0.0014797321 0.021283507 -0.1284279 -0.5584549 0.16912228 -0.04117868
-0.2183716 0.3381678 -0.42368382 -1.0549259 0.109788515 -0.011433232 0.03879861 0.08449164
-0.44737312 0.50975984 0.25698993 -1.4121202 -0.37454942 -0.6313679 0.11794858 -0.11828001
0.053196758 0.032708254 -0.055448536 -0.31320104 -0.7782533 0.20164767 0.065744385 0.20788722
0.4102635 0.06826659 -0.1446155 -0.13132861 -0.11286538 0.24902424 0.19029258 -0.2676433
0.041240986 -0.4559887 0.44950625 -0.06191568 -0.022918113 0.32931903 0.050202303 0.047880404
0.30433574 -0.3819848 0.1710051 0.14902341 -0.09198688 -0.4694631 -0.046750464 0.1325897
0.013579042 -0.9670681 -0.75338596 0.01286779 0.33488658 -0.3906342 -1.155314 0.29789063

head.4.bias f4 [72]
00000000: 71dd 09be ae0b 1cbe d9b9 023d eb98 473d
00000010: 4f35 2bbe d072 01be f89e a33c 583a 003d
00000020: 5ed6 8ebe b6aa 733d 3c81 31be 7646 a4bd
00000030: f951 24be 09a1 89be d138 d73c c000 5f3e
00000040: 20e4 46be 3cc4 72be d250 48bd 9276 1f3e
00000050: c71b 08bd 9f13 87bd 86f4 ef3b b75b fa3d
00000060: 4f4c dabd ff36 53bd 674f 08be e832 5bbc
00000070: a72a e6bc 2b22 30be b5dd 543e 122f 48be
00000080: 27c7 15be 1d73 82bd 7fc0 1bbe aa28 80be
00000090: 459f 8bbe daf2 a33d f1b2 563d a75b 0abc
000000a0: 2f05 9b3d 32f2 18bd 59a2 04be 2af6 7ebe
000000b0: 7cbf f7bd 0560 03bd 7ce4 12bd 4cb9 22be
000000c0: 0643 1e3e 90ce aabe 8b0a bfbd f0a0 2dbe
000000d0: 1513 94bc 4669 8cbe bb1d 81be db80 3a3d
000000e0: 8bab a8bd 8d35 55be e331 44bd 833a b6bc
000000f0: fe8c ffbc e4fb 00be c338 ac3b 5818 213e
00000100: 4ba4 93be 2e3e efbd 3719 a0bd 95fd 233d
00000110: 2609 a63e ef26 56bd a357 503e b79a c13d
-0.1346338 -0.1523883 0.03191552 0.04872982 -0.16719554 -0.12641454 0.019973263 0.03130564
-0.27897924 0.059488975 -0.17334455 -0.08021252 -0.16046895 -0.26880673 0.02627221 0.2177763
-0.1942296 -0.2370767 -0.0489052 0.15572575 -0.033229616 -0.06595539 0.0073228506 0.122245245
-0.10659086 -0.05156612 -0.1331154 -0.013378836 -0.02809651 -0.17200534 0.207877 -0.19549206
-0.14626752 -0.06369612 -0.1521015 -0.25031024 -0.2726995 0.08005305 0.052416746 -0.008444703
0.07569348 -0.03734035 -0.12952556 -0.24898592 -0.120970696 -0.032073993 -0.03586243 -0.15890998
0.15455255 -0.3336072 -0.09328183 -0.16955924 -0.018075505 -0.27424067 -0.25217995 0.045533042
-0.08235844 -0.20821209 -0.04789914 -0.022244697 -0.03119516 -0.12596089 0.00525579 0.15731943
-0.28836283 -0.11681782 -0.07817309 0.040036757 0.32428855 -0.052283224 0.20345931 0.09453338
