script/logs/dome_held/model/final/online_critic.pth (torch, 187154 bytes, 12 tensors)

Q1.head.0.weight f4 [64, 144]
-0.10784451 0.21947667 -1.1760175 -0.4957801 -0.17922875 -0.6694001 0.17604867 0.07648021
0.6859382 -1.0734421 0.24305522 -0.28378212 -0.47106007 -0.7100968 -0.122863814 -0.08039364
-0.6855303 -0.27022776 0.3119657 0.16808917 1.4738965 -0.34536225 -0.046931654 -0.6996907
-0.6627883 0.22899245 0.5156966 -0.32262337 -0.5942176 0.5654199 -1.6921344 -0.016177133
0.17302455 -0.53639925 -0.85201895 -0.50388926 0.2539884 -1.568964 -0.4700556 -0.9541238
1.2770985 -0.9392142 -0.52140313 0.37594604 -0.80188787 -0.6625499 0.27722728 -0.5848403
-0.11496931 -0.16943067 -0.92398226 -0.27997935 0.64844894 -0.6266455 0.38043073 0.1083817
-0.37105426 -0.37274167 0.31204438 -0.25983855 0.29825777 -0.0037951756 -0.600691 -0.14766684
-0.8190171 -0.32391977 -1.1274244 -0.19146904 -0.74289346 -0.22295891 -0.20800178 -0.5199791
0.6699902 0.32637134 0.58286554 -0.013618786 -1.1670202 0.6211676 -0.15412399 -0.04664537
0.6053957 -1.469286 0.68798393 -0.2948263 -0.14300625 -0.6613206 -0.038768608 -1.7240072
-0.11627484 0.1765171 0.3317418 1.4528888 1.3930044 -0.4566099 -0.15565501 -1.9814117
0.26260674 0.17753008 1.7217094 -0.6599848 -0.45733503 0.44855726 0.31416282 0.5602193
0.80703044 -0.48825535 -0.09103827 -0.4835527 0.20744671 -0.9372358 -1.3904151 -0.41324028
1.2652569 0.29673594 -0.34780025 0.265508 -0.41495392 0.86456156 0.25975937 -0.44357002
-1.5089186 0.48733836 0.11351692 -0.09823626 0.5690791 -0.6438351 0.31569165 -1.179057
-0.30260864 0.30399227 0.55179113 0.29259002 0.22735502 0.046406243 -0.4643841 -1.542707
-0.010202981 0.07502355 0.9818015 0.36829308 -1.5689582 -0.06862034 -1.721186 -0.1114009
-2.223017 -0.7153501 -0.5577469 -0.9149975 1.8852091 0.082242675 -0.6473904 -0.062103245
-0.11959196 -0.36141536 -0.80279964 -0.87823206 0.1215254 -0.39911073 -0.5318817 -0.62322176
-1.0572338 -0.13080096 -0.58871007 -0.63711905 -0.45643485 -0.46170714 -0.69074625 -3.2676103
-1.3140346 0.31893778 0.27566046 -0.12239918 -0.51155907 0.017187702 0.18874061 -0.1271008
-0.6435923 -0.18892516 -0.6081793 -0.6905154 -0.513173 -0.21074226 0.3838784 -1.3720639
0.15516293 -1.6041753 -0.7345048 -0.79739267 -1.3690311 0.8507562 -0.9438057 -0.74085575
0.16609381 -0.14542906 -0.86672014 -0.6541929 0.20587231 -0.15916818 -0.005153869 0.37383586
-0.48674375 -1.4998335 0.74025685 0.35532972 -0.63640916 -0.76818365 -0.60968626 0.06706238
-0.6551349 -0.54059345 -3.8671124 -0.10034508 0.30953914 -0.39354578 -0.017708858 -0.09831314
-0.81071866 -0.64707386 -1.8276019 -0.9448928 -1.0829037 -1.7286886 -0.7283498 -0.0022986506
-0.09667517 -1.2243813 -0.47564873 -0.7988591 -1.8352461 -0.42952737 -0.40136984 -0.6342065
-1.0391693 -0.10817611 -0.6649779 0.3983843 -0.39895117 -0.61203647 -0.75931895 0.052095838
-0.5114566 0.24268472 -0.45384422 -0.27672514 -0.52383137 -0.08160709 -0.31666973 -0.12961085
-0.0152482055 -0.27479655 -1.9438506 -0.82751983 -0.53889817 -1.2810086 -1.6829414 -1.3543812
00000000: 95dd dcbd 7ebe 603e be87 96bf e4d6 fdbe
00000010: be87 37be ce5d 2bbf 1a46 343e a8a1 9c3d
00000020: a599 2f3f 8d66 89bf 78e3 783e e44b 91be
00000030: c92e f1be e7c8 35bf 06a0 fbbd 6ca5 a4bd
00000040: ea7e 2fbf 4b5b 8abe f8b9 9f3e 911f 2c3e
00000050: a4a8 bc3f 52d3 b0be 683b 40bd ee1e 33bf
00000060: 7eac 29bf ff7c 6a3e b104 043f e42e a5be
00000070: a51e 18bf 5cbf 103f dc97 d8bf e885 84bc
00000080: 592d 313e 7651 09bf ea1d 5abf e3fe 00bf
00000090: c40a 823e d0d3 c8bf 21ab f0be 7541 74bf
000000a0: f777 a33f 5870 70bf ad7a 05bf 007c c03e
000000b0: 8648 4dbf df9c 29bf bcf0 8d3e 18b8 15bf
000000c0: 0875 ebbd 3c7f 2dbe 1a8a 6cbf 7459 8fbe
000000d0: c000 263f d76b 20bf d1c7 c23e 3af7 dd3d
000000e0: d3fa bdbe ffd7 bebe 48c4 9f3e 8f09 85be
000000f0: 3eb5 983e 7bb8 78bb e3c6 19bf fa35 17be
00000100: 1bab 51bf d0d8 a5be 714f 90bf 7610 44be
00000110: 442e 3ebf 574f 64be 6bfe 54be 5a1d 05bf
00000120: 7a84 2b3f 251a a73e ad36 153f 5421 5fbc
00000130: eb60 95bf d704 1f3f aed2 1dbe 370f 3fbd
00000140: 36fb 1a3f 9011 bcbf b71f 303f 79f3 96be
00000150: 3b70 12be 4f4c 29bf d5cb 1ebd 45ac dcbf
00000160: 8121 eebd e6c0 343e 10da a93e 43f8 b93f
00000170: f84d b23f c6c8 e9be 0764 1fbe e69e fdbf
00000180: 6474 863e 72ca 353e f960 dc3f c4f4 28bf
00000190: d127 eabe 4ca9 e53e f3d9 a03e 886a 0f3f
000001a0: 8c99 4e3f 9bfc f9be 4672 babd 3894 f7be
000001b0: e96c 543e afee 6fbf 1ff9 b1bf 3b94 d3be
000001c0: f0f3 a13f c6ed 973e e012 b2be aaf0 873e
000001d0: d774 d4be e853 5d3f 2eff 843e 9c1b e3be
000001e0: 3f24 c1bf 6a84 f93e 8f7b e83d 1830 c9bd
000001f0: 2baf 113f 61d2 24bf 56a2 a13e 57eb 96bf
00000200: 85ef 9abe e0a4 9b3e 2f42 0d3f 5cce 953e
00000210: c1cf 683e 7914 3e3d c1c3 edbe 6c77 c5bf
00000220: 672a 27bc f2a5 993d 5857 7b3f e990 bc3e
00000230: 9fd3 c8bf d288 8cbd d34f dcbf 2826 e4bd
00000240: e945 0ec0 2f21 37bf 80c8 0ebf 473d 6abf
00000250: 884e f13f d96e a83d 61bb 25bf f95f 7ebd
00000260: a1ec f4bd 6f0b b9be 4784 4dbf d1d3 60bf
00000270: 4fe2 f83d 3e58 ccbe 6629 08bf 768b 1fbf
00000280: 7053 87bf b0f0 05be b4b5 16bf 3c1a 23bf
00000290: d4b1 e9be e164 ecbe bfd4 30bf 8720 51c0
000002a0: 4932 a8bf d04b a33e 5e23 8d3e 6cac fabd
000002b0: 89f5 02bf 39cd 8c3c 3845 413e b626 02be
000002c0: 77c2 24bf 9975 41be a3b1 1bbf 9ec5 30bf
000002d0: 4e5f 03bf d2cc 57be b68b c43e ca9f afbf
000002e0: 08e3 1e3e 9e55 cdbf 8208 3cbf ed21 4cbf
000002f0: 693c afbf 29cb 593f 409d 71bf b9a8 3dbf
00000300: 7f14 2a3e 5beb 14be 5fe1 5dbf 3079 27bf
00000310: 31d0 523e fcfc 22be c9e1 a8bb 6a67 bf3e
00000320: 7a36 f9be 8bfa bfbf 7981 3d3f c7ed b53e
00000330: b6eb 22bf afa7 44bf 6614 1cbf 0058 893d
00000340: ecb6 27bf 5564 0abf c57e 77c0 b981 cdbd
00000350: ea7b 9e3e d57e c9be 2b12 91bc 6658 c9bd
00000360: 428b 4fbf a2a6 25bf dcee e9bf 7fe4 71bf
00000370: 979c 8abf ab45 ddbf 2275 3abf f5a4 16bb
00000380: a2fd c5bd 87b8 9cbf 3b88 f3be 0882 4cbf
00000390: 58e9 eabf 03eb dbbe 5980 cdbe 5b5b 22bf
000003a0: 8003 85bf 708b ddbd fe3b 2abf 07f9 cb3e
000003b0: 5443 ccbe 6cae 1cbf ba62 42bf 7262 553d
000003c0: d2ee 02bf 5882 783e 455e e8be ebae 8dbe
000003d0: d019 06bf 9e21 a7bd 8922 a2be b5b8 04be
000003e0: 9cd3 79bc 22b2 8cbe 19d0 f8bf 57d8 53bf
000003f0: 3bf5 09bf 17f8 a3bf a06a d7bf 5d5c adbf

Q1.head.0.bias f4 [64]
1.3310148 -0.18172254 -0.4248789 0.6191477 -0.08204082 -0.0022387465 0.008725179 -0.4780509
-0.24401091 -0.37329817 0.1658064 1.1348332 -0.66254115 0.04251191 -0.397472 -0.8043255
-0.66814965 -0.41551453 -0.14656307 0.07605083 -0.009386266 0.048674442 -0.9314805 -0.12823196
0.16234973 0.1303215 -1.3959496 -0.07620383 -0.43394795 -0.29489627 -0.03151999 -1.180579
0.04632352 -0.6131885 0.016187588 -0.15987872 -0.5815359 -0.9489144 -0.82372314 0.25736532
0.64241654 -1.091742 -0.05782939 -0.012180338 -0.2788762 -0.38866878 -0.29908043 -0.28442392
-0.0013329026 0.9861468 -0.46775913 -0.4048939 -0.17801727 -0.028349737 0.14778136 -0.6123098
-0.33739015 0.04047456 -0.17650019 -0.44326115 0.021879371 0.06463775 -0.98284364 -0.27561453
00000000: b15e aa3f 7915 3abe ba89 d9be 7780 1e3f
00000010: 0405 a8bd efb7 12bb 0ef4 0e3c 16c3 f4be
00000020: ffdd 79be f020 bfbe 27c9 293e 3742 913f
00000030: 4c9c 29bf f820 2e3d 7381 cbbe 47e8 4dbf
00000040: db0b 2bbf 52be d4be a114 16be 8ac0 9b3d
00000050: dac8 19bc da5e 473d 8275 6ebf 3d4f 03be
00000060: 023f 263e 0073 053e 7aae b2bf c110 9cbd
00000070: 6d2e debe a5fc 96be 1b1b 01bd 361d 97bf
00000080: bbbd 3d3d ecf9 1cbf d59b 843c 3fb7 23be
00000090: 89df 14bf 0eec 72bf 85df 52bf 63c5 833e
000000a0: 6975 243f 34be 8bbf 83de 6cbd 0a90 47bc
000000b0: dcc8 8ebe 98ff c6be 1221 99be 03a0 91be
000000c0: cab4 aeba 1e74 7c3f 207e efbe 414e cfbe
000000d0: 294a 36be b53d e8bc ff53 173e 56c0 1cbf
000000e0: 67be acbe a7c8 253d 77bc 34be 20f3 e2be
000000f0: 5e3c b33c cc60 843d a49b 7bbf 591d 8dbe

Q1.head.2.weight f4 [64, 64]
0.42595544 0.71945554 -0.29407346 2.7023122 0.0045335637 -0.56716186 1.1552016 0.093189165
0.13733186 -1.020971 0.004280881 -2.1399531 -0.34145898 -2.4050648 0.046446614 -0.24237408
-1.8658413 -1.1044029 -0.65173316 1.1833502 -0.70111567 2.1158175 -0.071951486 0.9773186
-2.7608695 -0.7816619 -2.1406734 -1.8529046 -0.8277596 -2.4833724 -3.5184746 -1.1002399
0.01285843 -0.08090007 -1.1815418 0.5005012 -0.56922185 -1.215279 0.45740348 -3.3956034
0.09389814 -1.6043866 0.027008437 0.59060353 -0.03961271 -0.026095942 0.7598269 -0.0015245099
-0.035168342 -1.1857659 0.047874566 -0.11437359 -0.020901522 -1.7416131 -1.8785785 0.2645435
-0.3097294 -0.5592844 -2.0516741 0.0052094897 -4.347381 -2.216311 -1.6692706 -1.4006991
-0.84364426 0.68199193 0.010217996 -0.22412145 -0.2942657 1.0170164 0.31210688 0.15337257
0.28976586 -1.2898481 -0.31162465 0.056452174 0.1418741 0.0284105 -1.1131603 -1.8846952
-0.2897898 -0.3165445 0.39059523 0.42024532 0.3679544 -0.5125326 -0.40723056 -1.5013304
-0.82104164 -0.45372775 0.036279637 -0.26446164 -2.3503213 -1.3052033 -0.2278781 -0.97186106
-0.83853096 -0.14311849 -1.2439083 -0.30372974 0.73994136 -0.19711515 0.4355156 -0.70698994
0.0026950077 -1.9075055 -0.96888757 -0.71864295 -1.4121985 -0.86886984 -0.3758024 -0.13973378
-0.18799055 0.32508793 -0.37646514 -0.031166533 -0.35395488 -0.5595393 -0.57096994 -0.08034455
-0.49056944 -1.3286624 -0.8311531 -1.3517863 0.44622314 -1.4099162 -0.86828 0.23388754
0.6573995 0.9251873 -1.3625085 0.03438753 -0.4978573 -0.60865617 -1.480103 -0.6803268
0.59085894 -0.7170088 0.18377358 -0.99766356 0.3657669 -0.53371227 0.15692167 0.1772265
-0.09294215 -0.953533 -0.19224037 -0.03917892 0.059004053 -0.7768012 -0.7185269 -0.14933845
-1.9726671 -0.5849737 0.04836931 -1.148905 0.123304985 -0.5236593 -0.30464768 0.7832719
-0.97008175 0.34337202 -0.76520157 -0.19927451 0.11151333 0.3401016 0.049613297 0.82236195
0.92868716 0.77625096 -1.0371966 -0.55331445 -0.94402194 -0.34967163 -1.7369539 0.38253894
-0.06563446 -2.1894767 -0.7531354 -1.0554868 -0.9707899 -2.198095 -1.611319 -0.17604968
-2.4077613 0.41929355 -1.5270145 -0.30091366 -0.013021839 0.82143056 -0.37557995 -1.5565155
-0.050966457 0.25032127 -0.4436834 1.3618634 -0.3516995 -0.20540738 -0.5559307 -1.1733012
-0.12166301 -0.23052433 -0.30924746 -0.44524434 -0.42228192 -0.8673007 0.7412551 -1.9686979
0.35913765 -0.106250204 -0.7035293 0.37955964 -0.38597316 0.027145116 -1.1370364 -0.4922866
0.20452489 -0.52495545 0.85775274 -0.7844945 -1.2728875 -1.0191244 -0.7575711 -0.5553679
0.15133615 -1.2531776 0.015242434 -0.9584963 -0.3232315 -0.12269736 0.45558888 -0.40711474
-0.33702537 -0.37750575 -0.6194878 -1.2133721 -1.2837683 -2.1316485 -0.92534745 0.48677275
-0.30152962 -1.1710689 -1.3609961 0.59771156 -0.15625201 -1.4405842 0.016538488 -0.5928655
-0.4369051 0.28496787 -0.13880467 -0.4437776 -0.20838222 -0.2372052 -0.450726 0.52398705
00000000: d516 da3e 3d2e 383f cc90 96be aff2 2c40
00000010: 4a8e 943b 8531 11bf a5dd 933f f6d9 be3d
00000020: b9a0 0c3e 2daf 82bf a246 8c3b fef4 08c0
00000030: b6d3 aebe 95ec 19c0 ce3e 3e3d e930 78be
00000040: e3d3 eebf 135d 8dbf fcd7 26bf 0578 973f
00000050: 517c 33bf 8e69 0740 4d5b 93bd 8d31 7a3f
00000060: 16b2 30c0 ff1a 48bf cb00 09c0 fa2b edbf
00000070: 0ee8 53bf 93ef 1ec0 b02e 61c0 a9d4 8cbf
00000080: 2aac 523c f0ae a5bd c33c 97bf d920 003f
00000090: 86b8 11bf 438e 9bbf ca30 ea3e 9151 59c0
000000a0: ab4d c03d 8a5c cdbf cc40 dd3c cb31 173f
000000b0: f040 22bd 28c7 d5bc 0484 423f 10d2 c7ba
000000c0: ae0c 10bd 2dc7 97bf 1f18 443d b33c eabd
000000d0: ab39 abbc 2eed debf 4375 f0bf 3f72 873e
000000e0: da94 9ebe 432d 0fbf a14e 03c0 5eb4 aa3b
000000f0: bf1d 8bc0 0ad8 0dc0 a9aa d5bf 1c4a b3bf
00000100: 12f9 57bf 0697 2e3f 6269 273c 1880 65be
00000110: fea9 96be 982d 823f 79cc 9f3e b30d 1d3e
00000120: 315c 943e be19 a5bf 448d 9fbe 653a 673d
00000130: 7247 113e 23bd e83c 097c 8ebf b13d f1bf
00000140: 545f 94be 1f12 a2be 19fc c73e 652a d73e
00000150: 8564 bc3e 5635 03bf 8680 d0be 982b c0bf
00000160: c92f 52bf 014f e8be f599 143d 8467 87be
00000170: aa6b 16c0 e710 a7bf e058 69be e3cb 78bf
00000180: f7a9 56bf a78d 12be 6338 9fbf 7782 9bbe
00000190: cc6c 3d3f 8ed8 49be e7fb de3e 4bfd 34bf
000001a0: ba9e 303b 2429 f4bf 0409 78bf fcf8 37bf
000001b0: ecc2 b4bf 416e 5ebf 2c69 c0be 5f16 0fbe
000001c0: 9880 40be ed71 a63e 0ac0 c0be f550 ffbc
000001d0: 9339 b5be f83d 0fbf 162b 12bf af8b a4bd
000001e0: eb2b fbbe 9c11 aabf 73c6 54bf 5507 adbf
000001f0: 5c77 e43e 2278 b4bf 9947 5ebf 3780 6f3e
00000200: 554b 283f 13d9 6c3f ae66 aebf f0d9 0c3d
00000210: 27e7 febe e4d0 1bbf 0474 bdbf e629 2ebf
00000220: 8842 173f e48d 37bf 242f 3c3e e166 7fbf
00000230: cd45 bb3e 5ea1 08bf 13b0 203e dd7a 353e
00000240: 7458 bebd bd1a 74bf a9da 44be 137a 20bd
00000250: 3cae 713d 72dc 46bf 61f1 37bf 2eec 18be
00000260: 5b80 fcbf d6c0 15bf e61e 463d 520f 93bf
00000270: 5387 fc3d 890e 06bf c8fa 9bbe 8284 483f
00000280: 4757 78bf 75ce af3e 40e4 43bf 9e0e 4cbe
00000290: 1a61 e43d cc21 ae3e 5037 4b3d 5086 523f
000002a0: 71be 6d3f 62b8 463f dcc2 84bf 04a6 0dbf
000002b0: 6cab 71bf 2908 b3be 8154 debf 25dc c33e
000002c0: 5c6b 86bd 6320 0cc0 7bcd 40bf 311a 87bf
000002d0: b085 78bf 97ad 0cc0 b33f cebf 5e46 34be
000002e0: c318 1ac0 a5ad d63e 3675 c3bf 5b11 9abe
000002f0: 8d59 55bc 4649 523f 044c c0be e63b c7bf
00000300: 34c2 50bd 1c2a 803e 782a e3be 8a51 ae3f
00000310: f511 b4be 5056 52be 7951 0ebf bc2e 96bf
00000320: 752a f9bd 920e 6cbe af55 9ebe 11f7 e3be
00000330: 5635 d8be 6b07 5ebf e5c2 3d3f 4bfe fbbf
00000340: e4e0 b73e b599 d9bd 7f1a 34bf a455 c23e
00000350: 469e c5be 6f5f de3c 698a 91bf fd0c fcbe
00000360: f96e 513e 7b63 06bf af95 5b3f a2d4 48bf
00000370: faed a2bf ab72 82bf 2ef0 41bf 972c 0ebf
00000380: ddf7 1a3e 2068 a0bf 67bb 793c 0360 75bf
00000390: 997e a5be c148 fbbd f242 e93e 5871 d0be
000003a0: 978e acbe 6f48 c1be c196 1ebf c74f 9bbf
000003b0: 8552 a4bf ee6c 08c0 92e3 6cbf 473a f93e
000003c0: 1762 9abe 96e5 95bf 1f35 aebf a003 193f
000003d0: 8700 20be 1065 b8bf b97b 873c 09c6 17bf
000003e0: 06b2 dfbe 4fe7 913e d022 0ebe d136 e3be
000003f0: 2662 55be ece5 72be 8fc5 e6be 0424 063f

Q1.head.2.bias f4 [64]
-0.14937022 -0.27668464 -1.4543918 -0.526008 -0.23232946 -0.9628278 -0.94663864 -0.98386544
-0.4834591 -0.7202311 -0.43162888 -0.43302605 -0.5632447 -0.24973878 -0.24454063 -0.8053681
-0.36866242 -0.6297686 -0.27555576 -1.1134292 -0.51732296 -0.67334515 -0.37575105 -0.9633846
-0.57183087 -0.5717399 -0.8025631 -0.2824554 -0.28905603 -0.6132912 -0.31646854 -0.9501288
-1.3772776 -0.40851572 -0.67505634 -0.84562707 -0.71566767 -0.398038 -1.1176387 -1.2920303
-0.61579204 -0.8945427 -1.2497231 -0.6425268 -0.6652606 -0.5681039 -0.5569671 0.030807773
-0.83858496 -0.23944445 -0.46666086 -0.67114013 -0.43790472 -1.8017157 -0.28163514 -0.17920674
-0.6887712 -0.86472946 -0.8334923 -1.0056616 -1.0866708 -0.19018129 -1.7997317 -0.54264563
00000000: 82f4 18be 9ca9 8dbe 8329 babf 76a8 06bf
00000010: c6e7 6dbe e27b 76bf e956 72bf 9bde 7bbf
00000020: f387 f7be 1161 38bf 76fe dcbe 97b5 ddbe
00000030: ce30 10bf 86bb 7fbe dc68 7abe 9b2c 4ebf
00000040: 52c1 bcbe 8438 21bf a515 8dbe d984 8ebf
00000050: 476f 04bf 5960 2cbf 7162 c0be 60a0 76bf
00000060: 8263 12bf 8c5d 12bf c674 4dbf ff9d 90be
00000070: 27ff 93be a700 1dbf 2a08 a2be a43b 73bf
00000080: a24a b0bf f928 d1be 7ed0 2cbf 047b 58bf
00000090: ff35 37bf a3cb cbbe c90e 8fbf 4061 a5bf
000000a0: 8ca4 1dbf c000 65bf edf6 9fbf a37c 24bf
000000b0: 854e 2abf 426f 11bf 6595 0ebf 9560 fc3c
000000c0: 81ad 56bf ed30 75be 2cee eebe d7cf 2bbf
000000d0: 0c35 e0be 9f9e e6bf 7b32 90be f981 37be
000000e0: 4f53 30bf e95e 5dbf c05f 55bf 85b9 80bf
000000f0: 0718 8bbf e2be 42be 9c5d e6bf d3ea 0abf

Q1.head.4.weight f4 [144, 64]
-0.28319448 0.13836616 0.46471894 0.1493571 -0.47606063 -0.07149505 -0.0018202589 -0.7526242
0.034800608 0.0009276954 0.00618007 -1.2571206 -0.37013614 0.0056182593 0.06152463 0.0039939852
-0.020003911 0.21593323 -0.4908857 0.0042526834 -0.054317143 0.0072554606 0.10908051 -0.0060339314
-0.03488317 0.021323597 -0.6728828 -0.15070628 -0.104703836 -0.0048785843 0.037453305 -1.132167
-2.526317 -0.17282261 -0.04185056 0.06608034 -0.3120721 -0.040179398 0.0654088 -0.06310744
-0.89030325 -0.0053304746 0.1270319 -0.02131761 0.43905607 0.08493551 -0.0588728 -0.58484685
0.01618906 -0.06626593 -0.060877435 -0.11588488 0.014501183 -3.6162043 -0.15862551 -0.11604865
0.018735444 -0.11777724 0.024907794 -0.13612519 0.056498796 -0.6143016 -0.042795416 -0.013033808
-1.2120355 -0.005340827 0.09363813 0.558063 -0.12639102 0.16767839 -0.011173536 -0.8565585
0.00886925 -0.099056974 0.17466503 0.046228237 -0.064332604 0.10625915 -0.12719467 0.48476282
0.24473998 0.0041055684 -0.44698584 0.0058069527 -0.049946394 0.13896792 0.045386925 -0.011894836
0.37428075 0.33809754 0.11573026 0.3970573 0.14767891 -0.53426915 0.06409338 0.42042497
0.25832427 -0.012945649 0.017335407 0.035348568 0.18820062 -0.063563995 0.07129813 0.53883564
-0.8420843 0.120753035 0.008760261 0.08975674 0.22509421 0.07097058 -0.01599944 0.27861398
-0.13698946 -0.42440328 -0.0059004882 -1.5717189 -0.015583271 -3.3078153 0.23333807 -0.9803239
0.67201674 -0.42702234 0.028388802 0.20419323 -0.07273611 0.23528706 0.3755321 0.022405216
-0.2745144 -0.71318495 -0.11082535 -0.7069767 0.0018560473 -0.03148955 -0.7064453 0.067467
0.09962351 0.005878192 -0.12329374 0.028078225 0.006952716 0.0927064 0.109925516 -0.34411356
0.0017838235 -0.07950201 -0.00021824306 -0.018082034 0.023149703 -0.029534252 0.026762743 -0.031366758
0.0025317369 0.00035414405 -0.006004716 0.0012050224 0.004498755 0.02834971 0.04970277 0.016866587
-0.016780717 0.087056816 0.096034735 0.02655367 -1.2940412 0.002965284 0.043510243 0.05089915
-0.7855729 -0.042070094 0.08978595 -0.5702029 0.052726172 -0.043982062 0.56323856 -0.0010644962
0.04237543 0.011238408 0.047302198 0.033318505 -0.007823011 -3.6666725 -0.00071131875 -0.07589571
-0.04847231 -0.20974286 -0.11387338 -2.460149 0.053080667 -0.04643163 0.44936678 0.010732063
-0.12718093 -0.20421618 0.16206978 0.3695683 -0.03084797 -0.03633131 -0.18810163 0.028473593
-0.019471345 0.28665602 -0.030047262 -0.04962104 -0.076193586 -0.045920104 -0.064327426 -0.67865
-0.053579453 0.04520233 -0.8036094 0.016716639 0.035318144 0.07448152 -0.04820178 0.042380195
-0.15730752 -0.021439537 0.03046422 0.31362507 0.1363995 -0.01941402 0.03857758 0.48938408
0.7385059 0.114414155 -0.021307765 0.082655385 0.042917587 -0.39403927 -0.792038 -0.042115606
-0.1898933 -0.10885811 0.3780609 -0.19758058 0.10690251 0.045118827 0.06924246 0.22801588
0.059671737 -0.11197985 0.081721224 -0.21909884 -0.07684322 -3.2208161 0.2627272 -0.018803323
0.09200883 -0.3691523 0.79348207 -0.30692294 0.84774196 -0.2904393 -0.13794021 0.023567416
00000000: defe 90be dcaf 0d3e a4ef ed3e 11f1 183e
00000010: 38be f3be ff6b 92bd c195 eeba fbab 40bf
00000020: 158b 0e3d 9630 733a 2f82 ca3b 54e9 a0bf
00000030: 7c82 bdbe 6019 b83b 4001 7c3d fadf 823b
00000040: 3edf a3bc 9a1d 5d3e 5f55 fbbe 185a 8b3b
00000050: a77b 5ebd 37bf ed3b 9a65 df3d 49b8 c5bb
00000060: a8e1 0ebd d3ae ae3c 0c42 2cbf bf52 1abe
00000070: f76e d6bd 88dc 9fbb a368 193d d9ea 90bf
00000080: 2daf 21c0 69f8 30be 7e6b 2bbd 2155 873d
00000090: eac7 9fbe 2793 24bd 0df5 853d 793e 81bd
000000a0: eaea 63bf 43ab aebb a714 023e 45a2 aebc
000000b0: f5cb e03e abf2 ad3d 9b24 71bd 86b8 15bf
000000c0: eb9e 843c 6fb6 87bd 9e5a 79bd 0d55 edbd
000000d0: 5f96 6d3c e46f 67c0 ba6e 22be eaaa edbd
000000e0: 137b 993c 3235 f1bd 6e0b cc3c 6764 0bbe
000000f0: 486b 673d df42 1dbf 3f4a 2fbd c18b 55bc
00000100: fb23 9bbf 1b02 afbb 59c5 bf3d 37dd 0e3f
00000110: a66c 01be e2b3 2b3e 3511 37bc 6b47 5bbf
00000120: 5550 113c 62de cabd 64db 323e d259 3d3d
00000130: d0c0 83bd 669e d93d 523f 02be d532 f83e
00000140: 1e9d 7a3e 0188 863b 54db e4be 4048 be3b
00000150: 9794 4cbd 9b4d 0e3e a4e7 393d 8fe2 42bc
00000160: baa1 bf3e 1f1b ad3e fd03 ed3d 184b cb3e
00000170: 2439 173e ddc5 08bf 6443 833d f141 d73e
00000180: 1443 843e fd19 54bc fc02 8e3c a9c9 103d
00000190: aab7 403e d72d 82bd c104 923d 22f1 093f
000001a0: d692 57bf 5e4d f73d 3387 0f3c 62d2 b73d
000001b0: 197f 663e 0659 913d 4211 83bc 7ea6 8e3e
000001c0: f746 0cbe 634b d9be e258 c1bb 162e c9bf
000001d0: fa50 7fbc 3fb3 53c0 2df0 6e3e 82f6 7abf
000001e0: 4a09 2c3f aca2 dabe a28f e83c 0818 513e
000001f0: abf6 94bd 17ef 703e be45 c03e 258b b73c
00000200: 278d 8cbe 4a93 36bf 67f8 e2bd 6dfc 34bf
00000210: 9d46 f33a 30fb 00bd 99d9 34bf 232c 8a3d
00000220: 6907 cc3d d99d c03b 6e81 fcbd 4e04 e63c
00000230: 9cd3 e33b dadc bd3d a120 e13d a72f b0be
00000240: 2fcf e93a f3d1 a2bd 2dd8 64b9 c620 94bc
00000250: 72a4 bd3c d1f1 f1bc 8a3d db3c 6e7a 00bd
00000260: 7feb 253b 69ac b939 35c3 c4bb d8f1 9d3a
00000270: 4b6a 933b a73d e83c 2295 4b3d cc2b 8a3c
00000280: b777 89bc d84a b23d dcad c43d 1587 d93c
00000290: 24a3 a5bf 3655 423b cc37 323d a17b 503d
000002a0: 4e1b 49bf b151 2cbd b2e1 b73d d1f8 11bf
000002b0: 66f7 573d 8926 34bd 6730 103f 9186 8bba
000002c0: dc91 2d3d 4d21 383c f3bf 413d fc78 083d
000002d0: 162c 00bc c3aa 6ac0 cb77 3aba 366f 9bbd
000002e0: e78a 46bd d5c6 56be 7236 e9bd 1573 1dc0
000002f0: 1d6b 593d 182f 3ebd 6713 e63e 89d5 2f3c
00000300: b83b 02be 0c1e 51be 9ff5 253e 0e38 bd3e
00000310: e2b4 fcbc 24d0 14bd b79d 40be 7441 e93c
00000320: 5f82 9fbc 94c4 923e ad25 f6bc 6e3f 4bbd
00000330: 620b 9cbd b816 3cbd 19be 83bd 02bc 2dbf
00000340: 2176 5bbd 1426 393d 58b9 4dbf 55f1 883c
00000350: c2a9 103d c489 983d 3b6f 45bd db96 2d3d
00000360: 3915 21be f8a1 afbc 1a90 f93c 7793 a03e
00000370: 4fac 0b3e 270a 9fbc 8603 1e3d 8d90 fa3e
00000380: b90e 3d3f f851 ea3d 9f8d aebc 3a47 a93d
00000390: 5aca 2f3d 84bf c9be 01c3 4abf 6a81 2cbd
000003a0: 6473 42be 00f1 debd 3391 c13e 9052 4abe
000003b0: b4ef da3d 85ce 383d fece 8d3d ff7c 693e
000003c0: 5a6a 743d b155 e5bd 755d a73d 725b 60be
000003d0: fa5f 9dbd da21 4ec0 2e84 863e 6d09 9abc
000003e0: 206f bc3d 8801 bdbe a421 4b3f 0125 9dbe
000003f0: 9e05 593f 76b4 94be 3340 0dbe 7410 c13c

Q1.head.4.bias f4 [144]
-0.025529098 -0.296238 -0.014973054 -0.096084215 -0.013639658 -0.014504911 -0.01671681 -0.45747146
-0.71501476 -0.021477936 -0.01969321 -0.010277661 -0.022144811 -0.014738851 -0.016503073 -0.015483611
-0.023134729 -0.022773802 -0.027332587 -0.020183317 -0.043663852 0.12651864 -0.014863753 -0.020378284
-0.015831372 -0.13833614 -0.014645249 -0.016621295 -0.011926779 -0.9648558 -0.018048234 -0.026369331
-0.020411957 -0.012974712 -0.0150363 -0.10266994 0.13527323 -0.019884586 -0.014249136 -0.020260978
-0.014663253 -0.014773907 -0.056571893 -0.73943436 -0.025528165 -0.022772225 -0.056071293 -0.020431688
-0.013850885 -0.022009145 -0.016815854 -0.047018513 -0.012362698 -0.07818275 -0.25739342 -0.011564538
-0.014936184 -0.016084718 -0.07206638 -0.024743067 -0.043325197 -0.015115333 -0.01807716 -0.012618675
-0.013048931 -0.03328991 -0.015698634 -0.073639415 -0.015634095 -0.015877688 -0.0126434835 -0.014237532
-0.021212922 -3.2619078 -0.0131112 -0.2248661 -0.020984072 -0.030896453 -3.4672077 -3.3613496
-3.2062433 -0.011421968 -0.018787397 -3.3470519 -0.01736066 -3.3196251 -3.6277454 -0.011982629
-0.093970165 -0.018725801 -3.4461129 -0.014695386 -2.568318 -2.0357785 -3.3157637 -0.0122941155
-0.018872984 -3.2955813 -0.013581503 -3.351872 -3.8028872 -3.1923468 -0.011696789 -0.031290065
-0.018340861 -3.1728022 -0.014676728 -0.9145133 -3.3858933 -0.016732717 -0.013587273 -0.02197086
-3.116866 -0.013676527 -0.5658064 -3.2531035 -0.010135078 -0.014013862 -1.0307566 -2.2207906
-0.011452303 -0.015116885 -0.017333763 -1.457167 -0.013141252 -0.45834816 -0.71445554 -0.010820743
-3.2728043 -0.018965695 -0.28007123 -0.015618674 -3.139257 -0.21531928 -3.310735 -0.017335245
-0.0157851 -0.11745578 -0.013911211 -0.07702881 -0.011395471 -3.2835758 -0.014246172 -0.011316871
00000000: 6622 d1bc 82ac 97be 8a51 75bc cdc7 c4bd
00000010: df78 5fbc 02a6 6dbc b1f1 88bc b339 eabe
00000020: 350b 37bf 7ff2 afbc a853 a1bc a263 28bc
00000030: 0969 b5bc 397b 71bc 7431 87bc f9ae 7dbc
00000040: 0b85 bdbc 2090 babc 97e8 dfbc 7c57 a5bc
00000050: ded8 32bd 1a8e 013e 1987 73bc 5cf0 a6bc
00000060: cbb0 81bc fda7 0dbe a0f2 6fbc 6229 88bc
00000070: 8968 43bc ca00 77bf e4d9 93bc 7f04 d8bc
00000080: fa36 a7bc e393 54bc d05a 76bc 9e44 d2bd
00000090: 1185 0a3e 00e5 a2bc 3575 69bc 5afa a5bc
000000a0: 243e 70bc 420e 72bc eeb7 67bd 924b 3dbf
000000b0: 7120 d1bc d18c babc 03ab 65bd 5b60 a7bc
000000c0: d3ee 62bc 864c b4bc 67c1 89bc 7c96 40bd
000000d0: ea8c 4abc 471e a0bd 12c9 83be 3079 3dbc
000000e0: e5b6 74bc 19c4 83bc 8a97 93bd f9b1 cabc
000000f0: c375 31bd 4da6 77bc 8d16 94bc 8fbe 4ebc
00000100: 2fcb 55bc 005b 08bd 6c9a 80bc 43d0 96bd
00000110: 1313 80bc ed11 82bc 9d26 4fbc 8a44 69bc
00000120: b9c6 adbc 19c3 50c0 5cd0 56bc 4d43 66be
00000130: cae6 abbc 8f1a fdbc bbe6 5dc0 5a20 57c0
00000140: 1733 4dc0 3523 3bbc 07e8 99bc 1936 56c0
00000150: f137 8ebc bd74 54c0 fb2c 68c0 ca52 44bc
00000160: 6e73 c0bd da66 99bc 1d8d 5cc0 ebc4 70bc
00000170: 525f 24c0 324a 02c0 7935 54c0 426d 49bc
00000180: 849b 9abc ceea 52c0 f484 5ebc 1285 56c0
00000190: 8162 73c0 694f 4cc0 e4a3 3fbc 032a 00bd
000001a0: 933f 96bc 310f 4bc0 a976 70bc 8b1d 6abf
000001b0: 7ab2 58c0 0d13 89bc 279d 5ebc 3cfc b3bc
000001c0: bc7a 47c0 8313 60bc b0d8 10bf d932 50c0
000001d0: 990d 26bc 669a 65bc d5ef 83bf 6f21 0ec0
000001e0: 71a2 3bbc d0ac 77bc 89ff 8dbc 7384 babf
000001f0: 684e 57bc 9cac eabe 8fe6 36bf 7c49 31bc
00000200: a075 51c0 f25d 9bbc 7f65 8fbe 78e5 7fbc
00000210: 96e9 48c0 a87c 5cbe 15e3 53c0 a502 8ebc
00000220: c14f 81bc a88c f0bd d9eb 63bc 48c1 9dbd
00000230: 12b4 3abc 1b26 52c0 c768 69bc 666a 39bc

Q2.head.0.weight f4 [64, 144]
0.06034535 -0.08200671 -0.12709695 1.0176216 -0.032850727 -0.45270786 0.5202042 0.20950323
-0.08527047 -0.5183869 0.40221262 -0.026235731 1.1405355 0.69085795 0.23726787 -0.2860455
-1.0948386 -0.13440101 0.020060431 0.4181679 0.078793496 0.43545124 0.552371 -0.56008565
-0.07843758 0.17380604 0.2096602 0.22168915 0.36312184 0.38359758 -0.22799836 0.58878154
0.5051428 0.07309358 0.9271866 -0.121489346 0.078775115 -0.033818215 -0.19366616 0.60147727
0.43016827 0.53849375 -0.4924763 0.09647344 0.72408247 0.52670556 -1.3217715 -0.5156912
-0.3417179 -0.31270424 0.3225145 -0.700414 0.09742012 0.051747564 -0.94182307 -0.327793
-0.3065783 0.3003179 0.024864018 0.29024154 0.5428726 0.24177977 0.10436198 -0.6557727
0.11981946 -0.9798693 0.06926399 0.15560676 -0.23714364 0.47782442 -0.68786407 -0.50411916
-0.81095845 -0.27144712 0.6435108 -0.5885731 1.0118346 0.32715976 -0.08313637 0.23987836
-0.14067736 -0.51644236 -0.5261419 0.047441397 -0.598983 0.75624895 0.21612437 -0.42373493
0.11117319 0.077470556 -0.076641455 0.045012396 0.090570614 0.38876808 0.4960506 -0.32848155
0.15297766 0.16986722 0.39232436 0.10197096 0.39363807 0.3803057 -0.55259746 0.09599271
-0.22209418 0.17003706 -0.15479723 1.2066061 0.10624041 -0.69436216 -0.3973766 -0.6488014
-0.004616943 0.56376225 -1.5453262 0.20377292 0.50202847 -0.42972845 1.0598968 -0.30193597
-0.55990016 1.0685729 -0.08161094 -0.19687618 -0.53706 0.21845533 1.3057148 -0.7850614
-0.31685236 0.5160221 0.4899425 -0.83151203 0.48466158 -0.00332474 0.08924794 -0.2952245
-0.646449 0.12038188 -0.28559718 0.012580883 -0.5450857 0.4820862 -0.5631224 -0.25206226
-0.42509833 0.087435976 -0.19293003 -0.21837705 -0.7952258 -0.26416773 1.1281713 0.43719742
0.68331385 -2.4950352 -0.5119819 0.63057363 0.33413684 0.1562913 1.2395186 -2.510083
-0.5351394 -0.15005177 0.9449298 -0.41655588 -0.16474153 0.43308935 1.1849327 -2.2447734
-0.4547765 0.11317409 -0.49665952 1.1332161 -0.3615189 0.5034411 -2.396792 0.10266403
-0.940018 -0.17797184 0.1971068 -0.24811202 0.69325376 -1.838865 -1.1284611 -0.29399985
0.7785457 0.5071217 -0.2053965 0.7468553 -0.6149287 -0.09686243 0.610624 0.7667658
-2.3288376 -0.08535232 -0.9300374 0.048269123 -0.86182636 0.081461586 0.42497012 -1.4175036
-0.24164204 -0.59380955 0.21843624 -0.28210047 0.764426 0.13430934 -0.2308117 -3.121167
-0.2870561 -0.26725855 -0.53403646 0.30160478 -2.683043 0.48392043 -2.6875143 -1.7673244
1.443188 0.050280914 0.88971907 0.6739835 0.2390124 0.84210944 0.96545464 0.35461906
0.7048383 -1.3021853 -0.0413718 0.6790948 1.1230209 0.16181621 1.1978374 -0.6733204
-0.1019764 0.5431479 0.8862215 0.4440096 -0.17468373 0.556905 1.1154119 -0.15443432
0.7426598 0.19822562 0.06725459 -0.31903234 -0.32964492 0.5414739 -1.2017845 0.38937712
-0.02914247 -0.1736449 1.3177496 -0.32414943 0.733579 -1.0772189 -0.04746554 -0.06074313
00000000: b02c 773d 22f3 a7bd b425 02be 6d41 823f
00000010: 7c8e 06bd 53c9 e7be 1a2c 053f 0488 563e
00000020: 49a2 aebd 01b5 04bf d0ee cd3e 51ec d6bc
00000030: 11fd 913f 11dc 303f 59f6 723e 8e74 92be
00000040: ac23 8cbf 6ba0 09be c655 a43c 1a1a d63e
00000050: 7c5e a13d 77f3 de3e 3068 0d3f c661 0fbf
00000060: e2a3 a0bd 36fa 313e 2ab1 563e 7b02 633e
00000070: 1beb b93e e766 c43e 6778 69be 63ba 163f
00000080: 0a51 013f 16b2 953d 1a5c 6d3f 68cf f8bd
00000090: d954 a13d f884 0abd 6c50 46be 6afa 193f
000000a0: 043f dc3e bada 093f db25 fcbe de93 c53d
000000b0: 785d 393f 2dd6 063f cf2f a9bf 5704 04bf
000000c0: a6f5 aebe c51a a0be 9f20 a53e 554e 33bf
000000d0: 3384 c73d 41f5 533d 511b 71bf 7cd4 a7be
000000e0: d5f7 9cbe 45c3 993e a0af cb3c 8a9a 943e
000000f0: b3f9 0a3f 1e95 773e bcbb d53d b8e0 27bf
00000100: e863 f53d b7d8 7abf 47da 8d3d 6157 1f3e
00000110: c8d5 72be 67a5 f43e dc17 30bf f40d 01bf
00000120: f99a 4fbf 1efb 8abe 20bd 243f baac 16bf
00000130: cc83 813f 7c81 a73e 6743 aabd aca2 753e
00000140: ba0d 10be 9135 04bf 3cb1 06bf e951 423d
00000150: f356 19bf 8899 413f b54f 5d3e c9f3 d8be
00000160: c5ae e33d e2a8 9e3d 32f6 9cbd eb5e 383d
00000170: 167d b93d 9c0c c73e 58fa fd3e bc2e a8be
00000180: 2da6 1c3e acf1 2d3e bdde c83e 27d6 d03d
00000190: ee8a c93e 6eb7 c23e 0777 0dbf d397 c43d
000001a0: a86c 63be 321e 2e3e 2a83 1ebe 1272 9a3f
000001b0: 9294 d93d b8c1 31bf f274 cbbe d917 26bf
000001c0: ba49 97bb b952 103f 40cd c5bf d9a9 503e
000001d0: f084 003f 5e05 dcbe b3aa 873f 5a97 9abe
000001e0: 9e55 0fbf ffc6 883f a323 a7bd e999 49be
000001f0: c47c 09bf c1b2 5f3e aa21 a73f c9f9 48bf
00000200: 793a a2be 061a 043f bed9 fa3e f9dd 54bf
00000210: 9025 f83e e2e3 59bb a0c7 b63d aa27 97be
00000220: af7d 25bf c68a f63d cb39 92be 0c20 4e3c
00000230: bd8a 0bbf 01d4 f63e ca28 10bf 4e0e 81be
00000240: 7da6 d9be a211 b33d 738f 45be 3c9e 5fbe
00000250: eb93 4bbf fe40 87be eb67 903f 57d8 df3e
00000260: a8ed 2e3f a8ae 1fc0 3f11 03bf 466d 213f
00000270: fc13 ab3e d40a 203e 8ca8 9e3f 33a5 20c0
00000280: e5fe 08bf 2ca7 19be ebe6 713f d046 d5be
00000290: 01b2 28be e3bd dd3e e0ab 973f 5eaa 0fc0
000002a0: 77d8 e8be d1c7 e73d 284a febe 3a0d 913f
000002b0: 0119 b9be 84e1 003f 0a65 19c0 8541 d23d
000002c0: 05a5 70bf 403e 36be 5dd6 493e 1411 7ebe
000002d0: 1479 313f ee5f ebbf 6a71 90bf 2687 96be
000002e0: c54e 473f bad2 013f 7653 52be e931 3f3f
000002f0: f86b 1dbf cf5f c6bd db51 1c3f c34a 443f
00000300: ad0b 15c0 32cd aebd ee16 6ebf d8b5 453d
00000310: a7a0 5cbf 55d5 a63d af95 d93e c270 b5bf
00000320: 0371 77be e703 18bf c0ad 5f3e 796f 90be
00000330: 6cb1 433f 6388 093e e759 6cbe 33c1 47c0
00000340: 04f9 92be 1dd6 88be 9db6 08bf f16b 9a3e
00000350: fab6 2bc0 6bc4 f73e 3c00 2cc0 b037 e2bf
00000360: 62ba b83f 5cf3 4d3d a1c4 633f 2f8a 2c3f
00000370: abbf 743e 7c94 573f 0928 773f a190 b53e
00000380: 4870 343f 02ae a6bf 7a75 29bd 28d9 2d3f
00000390: 26bf 8f3f 26b3 253e bc52 993f ba5e 2cbf
000003a0: 01d9 d0bd be0b 0b3f 6adf 623f 3a55 e33e
000003b0: 4be0 32be 5391 0e3f d1c5 8e3f 0824 1ebe
000003c0: f41e 3e3f a8fb 4a3e c6bc 893d 3558 a3be
000003d0: 38c7 a8be 099e 0a3f 13d4 99bf 705c c73e
000003e0: 30bc eebc f8cf 31be 05ac a83f eaf6 a5be
000003f0: d5cb 3b3f 4fe2 89bf 3a6b 42bd cacd 78bd

Q2.head.0.bias f4 [64]
0.22732727 0.6870945 -0.038370293 -0.9604279 -0.14786592 -0.123885214 0.64040476 0.11574879
-0.03477296 -0.63550603 0.00035539528 -0.011198596 1.2974564 -0.41562915 0.5704103 -0.016707418
-1.1392543 0.06881079 -0.72250533 0.034911983 -0.71921915 -1.3205369 -0.9159525 -0.3299363
-0.07238819 -0.06261918 -0.18828689 -0.21740417 -0.8690818 -0.020887388 -0.64758706 -0.25146842
-1.5712632 -0.2960829 -0.33204383 0.15948023 0.540882 -1.4558929 0.1577075 -0.8129027
-1.3276621 -0.34682697 0.11538583 0.23585154 0.92158663 0.89636755 0.000462402 -0.18406828
-0.12488092 -0.29704666 -0.62678516 0.039194327 0.06379987 -0.7447184 0.11990668 -0.5595659
-0.4170547 -0.28744602 0.075740434 -0.17230229 -0.5228839 -0.03301292 0.17344151 -0.032825634
00000000: 7bc8 683e 6de5 2f3f 2b2a 1dbd 9ade 75bf
00000010: 2a6a 17be 88b7 fdbd 91f1 233f b40d ed3d
00000020: 176e 0ebd 86b0 22bf 5954 ba39 517a 37bc
00000030: 0d13 a63f 58cd d4be 6906 123f ffdd 88bc
00000040: 16d3 91bf acec 8c3d 1cf6 38bf deff 0e3d
00000050: bf1e 38bf 5a07 a9bf dd7b 6abf 69ed a8be
00000060: 4240 94bd 7c3e 80bd 47ce 40be 339f 5ebe
00000070: 257c 5ebf 071c abbc 44c8 25bf 78c0 80be
00000080: 271f c9bf 2e98 97be a601 aabe c94e 233e
00000090: 3e77 0a3f b35a babf 137e 213e 641a 50bf
000000a0: d5f0 a9bf 4e93 b1be 684f ec3d 1183 713e
000000b0: 1aed 6b3f 5878 653f 8c6e f239 657c 3cbe
000000c0: 91c1 ffbd 8016 98be fe74 20bf 3b8a 203d
000000d0: 82a9 823d dda5 3ebf a291 f53d b63f 0fbf
000000e0: 3288 d5be 202c 93be cd1d 9b3d 0370 30be
000000f0: b8db 05bf 8e38 07bd a79a 313e 2c74 06bd

Q2.head.2.weight f4 [64, 64]
-0.075583905 0.10176472 -0.3527027 -0.28889441 -1.1474271 -0.9929674 -2.1687386 -0.61206424
-1.0998116 -1.7118582 -1.3801187 -0.44035652 -1.5692406 -0.6256459 -0.17287375 -0.6972356
-1.0792464 0.5664193 -0.1327697 -2.0789037 -1.9483399 -0.1714405 -0.7079827 -0.27518916
-0.92310923 -2.1585164 -3.68103 -0.078659795 -1.0016879 -0.39186934 -0.026411215 0.002228636
-0.52817 -0.99726015 -1.7393997 -0.1642542 -2.3660672 0.11179569 -1.3218789 -1.9629638
-0.88812196 -0.4155276 0.057352014 -1.4553006 0.6310829 -1.6741107 -1.0173651 -0.7899324
-0.62010705 -0.9773404 0.6224137 -1.0646317 -0.3067836 0.95617574 -2.6956975 -0.80191165
-0.39660126 0.31537992 -1.3087151 -1.4153075 -1.3308002 0.15676787 -0.29901809 -0.51730365
-0.41813493 -0.3618758 -0.8102888 -1.1036336 -0.740626 -1.9308583 0.06713473 -1.7332932
-0.6499303 -1.6684116 -1.0807554 -0.10006239 -0.6942208 -1.5804124 0.046629123 -0.881646
-0.31034794 -2.0554678 -1.4127009 1.479157 -2.1110294 -1.6285176 -2.198227 -3.54536
-2.1362448 -3.145551 -2.8518288 -1.6554984 -3.133761 0.22763717 -0.722231 -0.50318545
-1.3921367 -0.627192 0.5296652 -1.6565955 -1.4167943 -1.2464069 -1.0561283 0.25193754
0.0070245992 -0.7663185 -1.9376533 -2.2192516 -0.5983509 -0.085768685 -0.31189185 -3.9098177
0.48298404 -1.5296131 -1.672352 -1.2619498 -0.19054063 -0.12421459 -3.1618047 -0.41053057
-3.0918503 -1.4997828 -2.4925928 -0.6747184 -1.2816752 -0.7390337 -0.21446621 -0.68038005
-1.5617685 -0.20689645 -2.567986 0.3949634 -0.5450472 -1.1556468 0.6928936 -0.7555548
-2.329273 -0.8246911 -0.73077434 -0.6835322 -2.317693 0.14309853 0.3099647 -1.9049189
-1.6968263 -1.9081712 0.0459419 -0.8769234 -0.94709295 -2.753385 -1.452357 0.38604435
-2.1252222 0.08178612 -0.17237 0.078378394 -1.8502536 0.6639263 -1.6023077 -0.70860773
-1.280206 -0.6446447 -0.012682588 -1.9884084 -0.79920965 -2.7732847 -0.20933717 -2.4808285
-0.26017606 -0.75842184 -0.9654558 -0.05654258 -1.2936603 -0.63148075 0.5200466 0.9807365
-0.15034205 -0.4461458 -2.5821729 -3.33418 -1.5112133 -1.1781933 -0.9616917 -3.441271
-2.4746835 -2.254137 -0.8498769 -2.2440953 -1.3991776 0.019928144 -1.4815488 -1.7136207
-0.28646109 -0.70319295 -2.417092 0.7720774 -4.067135 -3.1210425 -2.024207 -2.927237
-3.2084906 -3.1857853 -1.0703706 -3.2294164 0.9499932 -0.38346553 -1.888592 -1.1543103
1.3420607 -3.0234506 -1.1341913 0.18236646 -3.0885015 -2.2295647 -0.5524969 -1.3044275
-4.049372 -3.7454188 -1.1272491 0.1934098 -2.953942 -0.5603979 -0.5505188 -0.7681698
-1.0976514 -1.5725524 -1.0857916 -2.0947084 -3.4708652 -1.95477 -0.70887744 -1.6079893
-1.2920722 -1.7175928 -4.3446593 -0.06120547 -2.6902053 -3.9734266 -3.772544 1.2622993
-0.27430385 -2.0782475 -4.6500187 -3.2089982 -0.63785523 -0.31406525 -2.435752 -2.7677295
-3.1294663 -1.2431107 -0.22414945 -1.637925 -0.8793039 -2.7393696 -1.0739398 -2.0284588
00000000: bccb 9abd 066a d03d 7395 b4be f8e9 93be
00000010: e4de 92bf 1d33 7ebf 9dcc 0ac0 3eb0 1cbf
00000020: a0c6 8cbf 2b1e dbbf bba7 b0bf 6976 e1be
00000030: e0dc c8bf 542a 20bf d105 31be 087e 32bf
00000040: bf24 8abf db00 113f c8f4 07be c20c 05c0
00000050: 3463 f9bf 198e 2fbe 5b3e 35bf 98e5 8cbe
00000060: e350 6cbf 2225 0ac0 ff95 6bc0 6318 a1bd
00000070: 4f37 80bf 19a3 c8be 555c d8bc 4f0e 123b
00000080: 2636 07bf 714c 7fbf a6a4 debf 4132 28be
00000090: a56d 17c0 24f5 e43d 5433 a9bf 6642 fbbf
000000a0: f65b 63bf 09c0 d4be f2e9 6a3d 4a47 babf
000000b0: a68e 213f 4249 d6bf 0539 82bf 0339 4abf
000000c0: 56bf 1ebf fb32 7abf 8156 1f3f da45 88bf
000000d0: bd12 9dbe efc7 743f 4f86 2cc0 154a 4dbf
000000e0: 520f cbbe 7a79 a13e fa83 a7bf cc28 b5bf
000000f0: a957 aabf c287 203e e618 99be 036e 04bf
00000100: c815 d6be c947 b9be 166f 4fbf de43 8dbf
00000110: aa99 3dbf 5d26 f7bf ef7d 893d 8ddc ddbf
00000120: d561 26bf 838e d5bf 3156 8abf 83ed ccbd
00000130: 74b8 31bf f44a cabf 2efe 3e3d 8db3 61bf
00000140: ede5 9ebe c98c 03c0 62d3 b4bf 0455 bd3f
00000150: 1b1b 07c0 4473 d0bf c0af 0cc0 2ee7 62c0
00000160: 3cb8 08c0 b550 49c0 5d84 36c0 5fe7 d3bf
00000170: 8a8f 48c0 b819 693e 21e4 38bf c3d0 00bf
00000180: 8931 b2bf a88f 20bf 2398 073f 520b d4bf
00000190: 8459 b5bf 438a 9fbf 362f 87bf f5fd 803e
000001a0: 9c2e e63b 732d 44bf 0605 f8bf 3808 0ec0
000001b0: 862d 19bf 7ea7 afbd 4ab0 9fbe 743a 7ac0
000001c0: af49 f73e 5dca c3bf a10f d6bf 9287 a1bf
000001d0: 151d 43be 3864 febd 025b 4ac0 1031 d2be
000001e0: e0e0 45c0 e2f8 bfbf a486 1fc0 58ba 2cbf
000001f0: ef0d a4bf 5031 3dbf 089d 5bbe 632d 2ebf
00000200: 08e8 c7bf aadc 53be e259 24c0 a538 ca3e
00000210: 3788 0bbf 3cec 93bf 7a61 313f 0a6c 41bf
00000220: cf12 15c0 f51e 53bf 0714 3bbf f7fb 2ebf
00000230: 1555 14c0 6c88 123e b1b3 9e3e 62d4 f3bf
00000240: 9b31 d9bf f43e f4bf 932d 3c3d 0d7e 60bf
00000250: af74 72bf 7637 30c0 d6e6 b9bf 9ba7 c53e
00000260: a403 08c0 7b7f a73d c381 30be da84 a03d
00000270: 1cd5 ecbf 13f7 293f 6b18 cdbf 5167 35bf
00000280: cadd a3bf 6f07 25bf a1ca 4fbc 2b84 febf
00000290: 0199 4cbf 7f7d 31c0 7c5c 56be e5c5 1ec0
000002a0: cc35 85be ef27 42bf 1c28 77bf 3199 67bd
000002b0: a996 a5bf b9a8 21bf c621 053f 8c11 7b3f
000002c0: 44f3 19be 396d e4be 5242 25c0 3563 55c0
000002d0: 706f c1bf 0acf 96bf 6d31 76bf c93d 5cc0
000002e0: 3761 1ec0 c843 10c0 8891 59bf 429f 0fc0
000002f0: 4018 b3bf 5940 a33c 64a3 bdbf ec57 dbbf
00000300: 07ab 92be 7404 34bf a3b1 1ac0 dda6 453f
00000310: f825 82c0 29bf 47c0 9c8c 01c0 da57 3bc0
00000320: e957 4dc0 e8e3 4bc0 e701 89bf c2ae 4ec0
00000330: c132 733f 9855 c4be 62bd f1bf 71c0 93bf
00000340: a5c8 ab3f 3780 41c0 2e2d 91bf 46be 3a3e
00000350: 02aa 45c0 30b1 0ec0 7070 0dbf 7bf7 a6bf
00000360: 7594 81c0 f1b4 6fc0 b349 90bf 380d 463e
00000370: 630d 3dc0 3d76 0fbf cdee 0cbf c7a6 44bf
00000380: d77f 8cbf 6649 c9bf 38fb 8abf b40f 06c0
00000390: a822 5ec0 e735 fabf fe78 35bf 98d2 cdbf
000003a0: 9f62 a5bf 15da dbbf 7307 8bc0 96b2 7abd
000003b0: 532c 2cc0 9f4c 7ec0 5c71 71c0 0693 a13f
000003c0: 8e71 8cbe 0202 05c0 f4cc 94c0 3a60 4dc0
000003d0: 7b4a 23bf 29cd a0be 5ce3 1bc0 7b22 31c0
000003e0: 2d49 48c0 401e 9fbf 6f87 65be 87a7 d1bf
000003f0: 0f1a 61bf d551 2fc0 dc76 89bf 45d2 01c0

Q2.head.2.bias f4 [64]
-1.2695773 0.039888375 0.01601869 -0.7077847 0.026515976 -1.1946646 -0.41902545 -0.41271827
-0.1507623 -0.63073426 -0.5859708 -1.9973938 -1.1584982 0.26596004 -0.34910452 -0.22482368
-0.8083406 -0.16259359 -0.27779138 -1.2156491 -0.20638017 -0.7428228 -0.41472095 -0.6925775
-1.0131754 -0.7385764 -0.2690633 -0.550445 -1.1900486 -0.19151913 -1.0606852 -0.8263784
-0.8292937 -0.3380471 -0.7450394 -0.21439974 -0.7071919 -1.6103662 -0.80670494 0.14049686
-0.9695548 -0.53268737 0.183511 -0.55748135 -0.24876884 -0.7787024 -0.6653483 -0.216307
-0.32050455 -0.13536644 -1.0702145 -0.9263417 -0.7121528 -1.2948049 -0.8585886 -1.1987445
-0.82624507 -1.5345968 -0.4021284 -0.9239743 -0.29680955 -0.77644867 -0.45877165 -1.1905373
00000000: 8281 a2bf fe61 233d a139 833c 6131 35bf
00000010: 0838 d93c c5ea 98bf 818a d6be cf4f d3be
00000020: 6f61 1abe cd77 21bf 2f02 16bf 9aaa ffbf
00000030: ab49 94bf ea2b 883e d4bd b2be 2e38 66be
00000040: 69ef 4ebf ef7e 26be ac3a 8ebe 649a 9bbf
00000050: 5355 53be a329 3ebf 4e56 d4be c24c 31bf
00000060: bbaf 81bf 5813 3dbf aac2 89be f7e9 0cbf
00000070: 8353 98bf 971d 44be 88c4 87bf 898d 53bf
00000080: 984c 54bf 8214 adbe e7ba 3ebf 9b8b 5bbe
00000090: 870a 35bf 7b20 cebf 3784 4ebf 69de 0f3e
000000a0: be34 78bf 335e 08bf 4fea 3b3e 19b7 0ebf
000000b0: 42bd 7ebe 0a59 47bf 4454 2abf 957f 5dbe
000000c0: 2c19 a4be 809d 0abe cafc 88bf bb24 6dbf
000000d0: a54f 36bf 2bbc a5bf 76cc 5bbf 7670 99bf
000000e0: cc84 53bf ab6d c4bf c6e3 cdbe 9489 6cbf
000000f0: 6cf7 97be 57c5 46bf 1ee4 eabe 8763 98bf

Q2.head.4.weight f4 [144, 64]
0.1728194 -0.19021964 0.010434887 -0.011000661 -0.0016240891 0.07757048 -0.1212533 -0.030166341
-0.14964536 0.06676279 -0.4100664 -0.12593812 -0.06556399 -0.01637867 0.18048884 -0.12290383
-0.3440671 0.12695226 -0.090576366 0.0018385758 -0.7095914 -0.05877697 0.12385675 -0.67017734
-2.3106115 0.29382363 0.08317236 -0.029102692 -0.3938918 -0.021469988 -0.009690794 -0.011162144
0.02854919 0.03241569 0.06988703 -0.11060459 -0.20597829 0.03086386 -0.7487999 0.012037095
-0.0026557853 -0.042141102 -0.0006124739 -0.003393976 -0.08609638 -3.817638e-06 -0.79039174 -0.04904197
0.027562276 -0.004560855 0.19371848 -0.17577147 0.14494486 0.0411685 0.078445256 0.37202933
-0.68386227 0.022487665 -0.41342708 -0.12822977 0.0060096662 0.019183608 -0.18190357 -0.007798779
-0.96570784 -0.5972157 -0.37654427 -0.21490091 0.004947566 0.00702959 -1.3991253 0.5329056
-0.94068235 0.65577954 0.116173476 0.01693315 0.10647042 0.001379525 0.68615204 -0.08424524
0.57278013 0.17469554 -0.08131313 -0.027315972 0.72172296 0.24270202 0.65788305 -0.009468624
0.573599 -0.07028142 -0.11875087 0.22045763 -0.22565894 -0.0723818 0.8766137 -0.8946619
0.12780116 -0.18934447 -0.012028722 -0.1779618 -0.61970305 0.11603999 0.08565787 -1.4973453
0.1775824 -0.4077016 -1.1400318 0.23408929 -0.15619013 -0.06686319 0.59228206 0.10652013
0.10939197 -1.7330817 -0.0055864747 -0.2169273 -0.1394419 -0.18606836 -0.08606639 -0.13139145
0.24054828 -0.047154844 0.08246175 0.18951212 -0.27937502 0.060021464 0.28348967 -0.09630926
0.071309954 0.02937913 0.0024734885 0.014256901 -0.0059187016 -7.98894e-05 0.016735518 0.115743734
-0.07501153 0.013442444 0.0009288007 -2.6188157 -0.0002865391 -2.1908224 -0.11422899 0.041334737
0.061685234 0.00231774 0.0375316 -1.4414837 0.048471633 -0.2317792 -0.01743508 0.037724387
-0.025764272 0.5204344 0.0058621764 0.0037744064 0.009460473 -1.893739 0.02231127 -0.0018942397
0.4145024 0.42844084 0.43098572 -0.13174425 0.011412482 -0.09627484 -0.012476302 0.00282839
-0.040796895 -0.0063123456 -0.004726565 -0.0066502215 -3.695488e-06 0.019066647 0.0017681485 0.089989424
-0.042544182 0.004907602 -0.015460374 -0.017933603 -3.0033975 0.0142965745 0.004278576 -0.04586895
-0.018686205 -0.013008294 0.0037139142 0.042895123 0.009813334 0.011821584 0.029533697 -0.00930922
-0.8069736 0.518688 -0.018405134 0.29053476 0.078038774 0.07131424 -1.9696167 1.2429407
-0.082109146 0.86872566 0.2977443 -0.45081273 0.060475208 -0.034377992 -0.0022229727 0.14791667
0.17878869 0.012133615 -0.036373466 0.030501679 0.4410688 -0.02527617 0.94699734 -0.1755945
0.5400008 -0.0028281892 -0.10175513 0.68111885 -0.06268764 -0.2138894 -0.34712386 0.013522289
0.003330367 -0.035021555 0.042198192 -0.013583318 -0.0196207 0.276586 0.033360824 -1.3414344
-0.0233796 -0.8747184 -0.036525637 -0.0048839953 0.011208545 -0.0023685992 0.985129 -0.019958109
-0.0035511404 -2.1050103 0.08811521 0.77199507 -1.1098578 0.41449028 -2.2031143 0.5004792
-0.37422755 0.022436276 1.0994989 0.028615925 -0.13309608 0.051034395 0.2218196 -0.06151322
00000000: 92f7 303e f0c8 42be 17f7 2a3c 1e3c 34bc
00000010: 63df d4ba 46dd 9e3d a653 f8bd 671f f7bc
00000020: a23c 19be eeba 883d 39f4 d1be ecf5 00be
00000030: 6a46 86bd 902c 86bc 11d2 383e 01b5 fbbd
00000040: 9029 b0be c6ff 013e 1a80 b9bd 5efc f03a
00000050: c8a7 35bf 1fc0 70bd 9ca8 fd3d be90 2bbf
00000060: 0fe1 13c0 0d70 963e 4556 aa3d c568 eebc
00000070: 30ac c9be d4e1 afbc 23c6 1ebc 6de1 36bc
00000080: fedf e93c 51c6 043d ee20 8f3d a984 e2bd
00000090: f9eb 52be 35d6 fc3c 5ab1 3fbf 3c37 453c
000000a0: af0c 2ebb 269c 2cbd 6d8e 20ba 786d 5ebb
000000b0: 4d53 b0bd 4319 80b6 1d57 4abf 3ce0 48bd
000000c0: 48ca e13c 3a73 95bb 235e 463e 70fd 33be
000000d0: 6d6c 143e 4da0 283d e8a7 a03d a17a be3e
000000e0: 9911 2fbf 0d38 b83c b7ac d3be aa4e 03be
000000f0: bcec c43b f126 9d3c ee44 3abe e68c ffbb
00000100: a138 77bf 21e3 18bf 69ca c0be fc0e 5cbe
00000110: 311f a23b 7a58 e63b 8a16 b3bf 806c 083f
00000120: 8fd0 70bf 2be1 273f 5cec ed3d 64b7 8a3c
00000130: 2a0d da3d 2ed1 b43a a9a7 2f3f c588 acbd
00000140: b8a1 123f 63e3 323e 8087 a6bd bfc5 dfbc
00000150: d6c2 383f e186 783e 066b 283f 4a22 1bbc
00000160: 62d7 123f b5ef 8fbd a833 f3bd a5bf 613e
00000170: 2313 67be e93c 94bd c169 603f 9008 65bf
00000180: 4fde 023e 84e3 41be 1e14 45bc 9e3b 36be
00000190: dca4 1ebf 60a6 ed3d 656d af3d 03a9 bfbf
000001a0: 29d8 353e 44be d0be 90ec 91bf 1ab5 6f3e
000001b0: 4ef0 1fbe 91ef 88bd cc9f 173f 3a27 da3d
000001c0: e608 e03d 9fd5 ddbf bf0e b7bb 3122 5ebe
000001d0: dcc9 0ebe b488 3ebe 9343 b0bd 7b8b 06be
000001e0: 4a52 763e 7025 41bd b5e1 a83d 770f 423e
000001f0: 3e0a 8fbe 11d9 753d 8f25 913e ca3d c5bd
00000200: f40a 923d 80ac f03c 401a 223b c795 693c
00000210: abf1 c1bb 4c8a a7b8 ed18 893c 0d0b ed3d
00000220: a59f 99bd b23d 5c3c c37a 733a ad9a 27c0
00000230: a13a 96b9 6f36 0cc0 e4f0 e9bd 9d4e 293d
00000240: a8a9 7c3d 3ae5 173b bcba 193d 8a82 b8bf
00000250: 318a 463d 8757 6dbe 03d4 8ebc e384 1a3d
00000260: 980f d3bc 303b 053f 8017 c03b 085c 773b
00000270: 1a00 1b3c 0a66 f2bf 20c6 b63c 2348 f8ba
00000280: a939 d43e 995c db3e 29aa dc3e f7e7 06be
00000290: 6bfb 3a3c be2b c5bd 6769 4cbc 835c 393b
000002a0: a51a 27bd cbd7 cebb 4de1 9abb 1aea d9bb
000002b0: 0000 78b6 a831 9c3c 38c1 e73a 604c b83d
000002c0: cf42 2ebd f3cf a03b 824d 7dbc 7ee9 92bc
000002d0: aa37 40c0 2e3c 6a3c 4c33 8c3b 15e1 3bbd
000002e0: d013 99bc bd20 55bc 2465 733b ccb2 2f3d
000002f0: 1bc8 203c 51af 413c a7f0 f13c b385 18bc
00000300: d295 4ebf bdc8 043f 5dc6 96bc f9c0 943e
00000310: cbd2 9f3d 330d 923d 661c fcbf ae18 9f3f
00000320: d728 a8bd ce64 5e3f f171 983e edd0 e6be
00000330: dab4 773d f0cf 0cbd 4baf 11bb 7877 173e
00000340: 6214 373e 12cc 463c 58fc 14bd a8de f93c
00000350: c5d3 e13e f80f cfbc 6b6e 723f 0bcf 33be
00000360: 7e3d 0a3f 2459 39bb fe64 d0bd ce5d 2e3f
00000370: 6162 80bd d305 5bbe 38ba b1be 978c 5d3c
00000380: 4942 5a3b c372 0fbd 03d8 2c3d 918c 5ebc
00000390: 97bb a0bc ae9c 8d3e 5ca5 083d 1fb4 abbf
000003a0: 9386 bfbc 8ced 5fbf e89b 15bd ec09 a0bb
000003b0: 0ca4 373c 803a 1bbb 6a31 7c3f 307f a3bc
000003c0: 40ba 68bb 7db8 06c0 bf75 b43d 78a1 453f
000003d0: d20f 8ebf 1238 d43e d3ff 0cc0 681f 003f
000003e0: c19a bfbe 48cc b73c 61bc 8c3f f26b ea3c
000003f0: 574a 08be 7109 513d ad24 633e 49f5 7bbd

Q2.head.4.bias f4 [144]
-0.026449116 -0.10447713 -0.015896235 -0.100491226 -0.012873297 -0.014485777 -0.42599186 -0.6101898
-0.79245377 -0.021560645 -0.022403786 -0.025071608 -0.021597857 -0.12221092 -0.1225228 -0.015612887
-0.020809604 -0.024423292 -0.0139204655 -0.018029245 -0.14930676 -0.16437247 -0.05921214 -0.020551754
-0.017894575 -0.06477482 -0.0142219495 0.0033512227 -0.2335345 -0.9687941 -0.01887554 -0.027485
-0.02252628 -0.014712491 -0.014899866 -0.3510116 -0.023431716 -0.022438612 -0.013904965 -0.020433195
-0.36251152 -0.015626878 -0.13662308 -0.42711544 -0.025375428 -0.021995826 -0.13081782 -0.035611715
-0.01391545 -0.025250329 -0.018880412 -0.090948366 -0.011876653 -0.082230136 -0.7855122 -0.0122498525
-0.5734262 -0.015358209 -0.07643876 -0.023992395 -0.042931765 -0.0626575 -0.017895248 -0.014036917
-0.013246709 -0.08501214 -0.015741106 -0.05262315 -0.01576681 -0.046856806 -0.013467542 -0.014026043
-0.02573821 -3.0248723 -0.014136097 -0.09296562 -0.020601822 -0.029852618 -3.666553 -3.2558475
-3.184957 -0.011571768 -0.020970097 -3.2950864 -0.016915003 -3.226099 -3.6689467 -0.0120472545
-0.070086524 -0.021922518 -3.2868874 -0.014057587 -1.0242676 -1.3860941 -3.4380813 -0.01228547
-0.014379125 -3.0840182 -0.0137335695 -3.3572445 -3.8727562 -3.2919052 -0.012035529 -0.030668918
-0.014649041 -3.1238818 -0.016082875 -0.9186618 -3.3471177 -0.016971566 -0.013078241 -0.025291532
-3.6208642 -0.013214533 -0.2639563 -3.2067564 -0.0124968905 -0.0128249 -1.7972986 -2.973688
-0.011436756 -0.014998465 -0.018808343 -1.3651769 -0.011970134 -0.16312975 -1.6295084 -0.010818538
-2.6919692 -0.016412353 -0.21006949 -0.0154117765 -3.2002203 -0.04377064 -3.1892214 -0.017317219
-0.015833443 -0.09999378 -0.013520867 -0.08029335 -0.011355609 -3.2280848 -0.01424547 -0.011339243
00000000: d1ab d8bc 1bf8 d5bd d238 82bc 58ce cdbd
00000010: 85ea 52bc c155 6dbc 9b1b dabe 6635 1cbf
00000020: 40de 4abf f39f b0bc 2588 b7bc f962 cdbc
00000030: fded b0bc b849 fabd 3ced fabd 32cd 7fbc
00000040: e778 aabc 5b13 c8bc aa12 64bc 11b2 93bc
00000050: dfe3 18be 4251 28be 6e88 72bd 275c a8bc
00000060: a597 92bc a9a8 84bd 2e03 69bc 30a0 5b3b
00000070: ab23 6fbe e402 78bf e0a0 9abc 3928 e1bc
00000080: 0889 b8bc a90c 71bc 911e 74bc cbb7 b3be
00000090: dff3 bfbc 2ed1 b7bc a6d1 63bc 8463 a7bc
000000a0: 1c9b b9be f003 80bc ece6 0bbe e0ae dabe
000000b0: 21e0 cfbc 9730 b4bc 1bf5 05be 97dd 11bd
000000c0: a1fd 63bc c7d9 cebc 18ab 9abc 2343 babd
000000d0: 4b96 42bc 4668 a8bd 5417 49bf 9bb3 48bc
000000e0: 0fcc 12bf ffa0 7bbc ed8b 9cbd b38b c4bc
000000f0: 38d9 2fbd 9352 80bd 0e99 92bc 19fb 65bc
00000100: b908 59bc d81a aebd 7ef3 80bc 5f8b 57bd
00000110: 6629 81bc ecec 3fbd f7a6 5cbc 7dcd 65bc
00000120: f0d8 d2bc 8297 41c0 179b 67bc c264 bebd
00000130: 27c5 a8bc 7a8d f4bc cea8 6ac0 ce5f 50c0
00000140: 56d6 4bc0 8397 3dbc 7bc9 abbc b2e2 52c0
00000150: 5591 8abc 6878 4ec0 06d0 6ac0 d961 45bc
00000160: 8689 8fbd da96 b3bc 5d5c 52c0 cb51 66bc
00000170: 331b 83bf 886b b1bf 8609 5cc0 ff48 49bc
00000180: 6c96 6bbc 8e60 45c0 c402 61bc 18dd 56c0
00000190: 3ddb 77c0 93ae 52c0 ab30 45bc 623d fbbc
000001a0: 8802 70bc aeed 47c0 3cc0 83bc 6b2d 6bbf
000001b0: 2d37 56c0 f407 8bbc 1e46 56bc 3030 cfbc
000001c0: 3dbc 67c0 c581 58bc 4825 87be 7f3b 4dc0
000001d0: c2bf 4cbc 881f 52bc e10d e6bf e750 3ec0
000001e0: 3b61 3bbc 1fbc 75bc f413 9abc 1ebe aebf
000001f0: 621e 44bc 7c0b 27be bb93 d0bf 3d40 31bc
00000200: 3949 2cc0 3373 86bc 751c 57be ad81 7cbc
00000210: 69d0 4cc0 d848 33bd 341c 4cc0 d7dc 8dbc
00000220: 23b5 81bc 8ac9 ccbd a086 5dbc d770 a4bd
00000230: e00c 3abc f198 4ec0 d565 69bc 3bc8 39bc
