script/logs/dome_held/model/final/online_critic.pth (torch, 187154 bytes, 12 tensors)

Q1.head.0.weight f4 [64, 144]
0	0xbe058e50	-0.13042569
1	0x3e60be7e	0.21947667
2	0xbf9630c4	-1.1733632
3	0xbefdd6e4	-0.4957801
4	0xbd346771	-0.044043962
5	0xbf49e5e0	-0.78866386
6	0x3e85265c	0.26005828
7	0x3d9ca1a8	0.07648021
8	0x3f2f99a5	0.6859382
9	0xbf7407a4	-0.9532416
10	0x3e78e378	0.24305522
11	0xbe8bc9d7	-0.2730243
12	0xbf15385f	-0.5828914
13	0xbf36376e	-0.7117833
14	0xbe8c0a65	-0.2735168
15	0xbd57bb10	-0.05266863
16	0xbf2726af	-0.652934
17	0xbe8a5b4b	-0.27022776
18	0x3e9fb9f8	0.3119657
19	0x3dafe04e	0.085877046
20	0x3fbe2487	1.4854897
21	0xbeb0d352	-0.34536225
22	0xbe4c4424	-0.19947869
23	0xbf5be2ec	-0.8589313
24	0xbf2c27b0	-0.6724806
25	0x3e6a7cff	0.22899245
26	0x3f3889ed	0.7208546
27	0xbea52ee4	-0.32262337
28	0xbf23d932	-0.6400329
29	0x3f10bf5c	0.5654199
30	0xbfd04edf	-1.627407
31	0xbc8485e8	-0.016177133
32	0x3e312d59	0.17302455
33	0xbf095176	-0.53639925
34	0xbf57fae8	-0.8436723
35	0xbf00fee3	-0.50388926
36	0x3e820ac4	0.2539884
37	0xbfdb9148	-1.7153711
38	0xbf06eba3	-0.52703303
39	0xbf744efa	-0.9543301
40	0x3f9a7ba0	1.2068977
41	0xbf8388a3	-1.0276073
42	0xbf058020	-0.5214863
43	0x3ec07c00	0.37594604
44	0xbf624fc2	-0.8840295
45	0xbe8a307b	-0.26990113
46	0x3e8df0bc	0.27722728
47	0xbf15b818	-0.5848403
48	0xbd951648	-0.072796404
49	0xbe2d7f3c	-0.16943067
50	0xbf6c8bca	-0.924008
51	0xbe9f9896	-0.311711
52	0x3f2f6bcd	0.68523866
53	0xbf28b069	-0.6589418
54	0x3ec2c7d1	0.38043073
55	0x3cbd2904	0.023090847
56	0xbee88c4b	-0.45419535
57	0xbeb5aaf2	-0.35481983
58	0x3e9fc448	0.31204438
59	0xbe883fb9	-0.26611117
60	0x3e98b53e	0.29825777
61	0xbdb3227b	-0.08746811
62	0xbf19c6e3	-0.600691
63	0xbe6d0492	-0.23146275
64	0xbf51ab1b	-0.8190171
65	0xbea84ec8	-0.32872605
66	0xbf8b4f1f	-1.0883521
67	0xbe441076	-0.19146904
68	0xbf19034f	-0.59770674
69	0xbe8a6487	-0.2702982
70	0xbe2c5b3c	-0.16831678
71	0xbf6fcc67	-0.9367127
72	0x3f25bd49	0.6474195
73	0x3ea71a25	0.32637134
74	0x3f15e4ac	0.5855205
75	0xbc5f2154	-0.013618786
76	0xbf841297	-1.0318173
77	0x3ed5de16	0.41771
78	0xbd8fbb23	-0.07018115
79	0xbd3f0f37	-0.04664537
80	0x3f1afb36	0.6053957
81	0xbfbc1190	-1.469286
82	0x3f301fb7	0.68798393
83	0xbe91716c	-0.28406847
84	0xbe827aa1	-0.25484183
85	0xbf29bad6	-0.66300714
86	0xbe41f7fc	-0.18942255
87	0xbfdbff02	-1.7187197
88	0xbdab5e75	-0.083676256
89	0x3e34c0e6	0.1765171
90	0x3ea9da10	0.3317418
91	0x3f936f4a	1.1518338
92	0x3fb3c9db	1.4045976
93	0xbee9c8c6	-0.4566099
94	0xbe9dcc96	-0.3082015
95	0xbffd9ee6	-1.9814117
96	0x3e817df6	0.25291413
97	0x3e35ca72	0.17753008
98	0x3ff69b94	1.9266229
99	0xbf28f4c4	-0.6599848
100	0xbf00ce89	-0.5031515
101	0x3ee5a94c	0.44855726
102	0x3ea96fbe	0.33093065
103	0x3f0f6a88	0.5602193
104	0x3f4e998c	0.80703044
105	0xbef9fc9b	-0.48825535
106	0xbda95983	-0.08269026
107	0xbef79438	-0.4835527
108	0x3e546ce9	0.20744671
109	0xbf6feeaf	-0.9372358
110	0xbfb5712a	-1.417516
111	0xbed3af43	-0.41344652
112	0x3f98f799	1.1950561
113	0x3e5555bb	0.20833485
114	0xbeb21dcb	-0.34788355
115	0x3e87f0aa	0.265508
116	0xbefe8376	-0.49709672
117	0x3f9ec14a	1.2402737
118	0x3e84ff2e	0.25975937
119	0xbee31b9c	-0.44357002
120	0xbfc53495	-1.5406672
121	0x3ef9846a	0.48733836
122	0x3de86ed7	0.11349266
123	0xbe051655	-0.129968
124	0x3ede1ff7	0.43383762
125	0xbf2d16f3	-0.6761314
126	0x3ea1a256	0.31569165
127	0xbf9cd201	-1.2251588
128	0xbec580fd	-0.38574973
129	0x3ea4d1ed	0.3219141
130	0x3f0d422f	0.55179113
131	0x3ec9fa5c	0.39448822
132	0x3e68cfc1	0.22735502
133	0xbd18a517	-0.037266817
134	0xbeedc3c1	-0.4643841
135	0xbfc5776c	-1.542707
136	0xbc272a67	-0.010202981
137	0x3d8fce2c	0.07021746
138	0x3f82abed	1.0208718
139	0x3ebc90e9	0.36829308
140	0xbfced542	-1.6158831
141	0xbded7ca0	-0.11596036
142	0xbfde4069	-1.7363406
143	0xbe719fc4	-0.23596102
144	0xc00e45e9	-2.223017
145	0xbf37212f	-0.7153501
146	0xbf121f8e	-0.570794
147	0xbf6a3d47	-0.9149975
148	0x3ffcf546	1.9762352
149	0xbe094c7c	-0.13408083
150	0xbf25bb61	-0.6473904
151	0xbd7e5ff9	-0.062103245
152	0xbdf4eca1	-0.11959196
153	0xbee37b34	-0.44429934
154	0xbf4d8447	-0.80279964
155	0xbf60d3d1	-0.87823206
156	0xbdf13b87	-0.11778932
157	0xbecc583e	-0.39911073
158	0xbf044bf6	-0.5167841
159	0xbf0dc723	-0.55381984
160	0xbf875370	-1.0572338
161	0xbe05f0b0	-0.13080096
162	0xbf16b5b4	-0.58871007
163	0xbf3528ab	-0.7076518
164	0xbee9b1d4	-0.45643485
165	0xbeec64e1	-0.46170714
166	0xbf30d4bf	-0.69074625
167	0xc04a39f1	-3.1597865
168	0xbfa83249	-1.3140346
169	0x3ea34bd0	0.31893778
170	0x3f03087c	0.5118482
171	0xbdfaac6c	-0.12239918
172	0xbf02e280	-0.5112686
173	0x3c8ccd39	0.017187702
174	0x3e496493	0.19667272
175	0xbe0226b6	-0.1271008
176	0xbf24c277	-0.6435923
177	0xbe417599	-0.18892516
178	0xbf1bb1a3	-0.6081793
179	0xbf30c59e	-0.6905154
180	0xbf035f4e	-0.513173
181	0xbe212bda	-0.15739384
182	0x3e8b9a45	0.27266136
183	0xbfaf9fca	-1.3720639
184	0x3e37f93d	0.1796617
185	0xbfcd559e	-1.6041753
186	0xbf3c0882	-0.7345048
187	0xbf4c21ed	-0.79739267
188	0xbfaf3c69	-1.3690311
189	0x3f1d9b73	0.6156532
190	0xbf719d40	-0.9438057
191	0xbf3da8b9	-0.74085575
192	0x3e617f4f	0.2202122
193	0xbe6e38ba	-0.23263827
194	0xbf5de15f	-0.86672014
195	0xbf277930	-0.6541929
196	0x3de76226	0.11298017
197	0xbe198c11	-0.14994837
198	0xbba8e1c9	-0.005153869
199	0x3e9b5ea2	0.30345637
200	0xbef9367a	-0.48674375
201	0xbfbffa8b	-1.4998335
202	0x3f3d8179	0.74025685
203	0x3ecf3f49	0.4047797
204	0xbf22ebb6	-0.63640916
205	0xbf44a7af	-0.76818365
206	0xbf1c1466	-0.60968626
207	0x3c9dc6ea	0.019259889
208	0xbf208e7f	-0.6271743
209	0xbf0a6455	-0.54059345
210	0xc0777ec5	-3.8671124
211	0xbdcd81b9	-0.10034508
212	0x3e7a166a	0.24422613
213	0xbec97ed5	-0.39354578
214	0x3d377969	0.04479352
215	0xbe361f39	-0.17785348
216	0xbf4f8b42	-0.81071866
217	0xbf25a6a2	-0.64707386
218	0xbfe9eedc	-1.8276019
219	0xbf71e47f	-0.9448928
220	0xbf86617b	-1.0498499
221	0xbfdd45ab	-1.7286886
222	0xbf3a7522	-0.7283498
223	0xbb16a4f5	-0.0022986506
224	0xbdc5fda2	-0.09667517
225	0xbf9caf6b	-1.2241033
226	0xbef3883b	-0.47564873
227	0xbf4c8208	-0.7988591
228	0xbff20432	-1.890753
229	0xbedbeb03	-0.42952737
230	0xbec5c598	-0.38627315
231	0xbf2625f2	-0.6490165
232	0xbf850380	-1.0391693
233	0xbddd8b70	-0.10817611
234	0xbf2a3bfe	-0.6649779
235	0x3ea8e6ec	0.3298868
236	0xbecc4354	-0.39895117
237	0xbf1cae6c	-0.61203647
238	0xbf4262ba	-0.75931895
239	0x3d556272	0.052095838
240	0xbf02eed2	-0.5114566
241	0x3e788258	0.24268472
242	0xbe857c61	-0.26071456
243	0xbe8daeeb	-0.27672514
244	0xbf0606c7	-0.5235409
245	0xbda7219e	-0.08160709
246	0xbea22289	-0.31666973
247	0xbe04b8b5	-0.12961085
248	0xbc79d39c	-0.0152482055
249	0xbe8cb222	-0.27479655
250	0xbff8d019	-1.9438506
251	0xbf53d857	-0.82751983
252	0xbf09f53b	-0.53889817
253	0xbfa3f817	-1.2810086
254	0xbfd80cea	-1.6878941
255	0xbfad5c5d	-1.3543812

Q1.head.0.bias f4 [64]
0	0x3fae6256	1.362376
1	0xbe2553e6	-0.16145286
2	0xbeeaed72	-0.4588428
3	0x3f19a777	0.60021156
4	0xbd9c3f0a	-0.07629211
5	0xbca8bd2e	-0.02059802
6	0xbc509b4a	-0.012732336
7	0xbeed450a	-0.46341735
8	0xbe73532b	-0.23762195
9	0xbec652f6	-0.3873517
10	0x3ddcca9d	0.10780833
11	0x3f95697f	1.167282
12	0xbf22b3a1	-0.6355534
13	0xba88bc8e	-0.001043217
14	0xbedbb818	-0.4291389
15	0xbf570cf1	-0.8400412
16	0xbf52233b	-0.8208501
17	0xbe55e1e1	-0.20886947
18	0xbe3e4521	-0.18581058
19	0x3df5f13b	0.12008902
20	0xbd5430cd	-0.051804353
21	0x3d54b8d3	0.051934075
22	0xbf6e35d7	-0.93050903
23	0xbd8d6c5b	-0.06905433
24	0x3d837cea	0.0642031
25	0x3e0f02c3	0.13965897
26	0xbfbf114f	-1.4927157
27	0xbd171c74	-0.03689237
28	0xbf0a59a8	-0.54043055
29	0xbe821134	-0.2540375
30	0xbcd58e18	-0.026068732
31	0xbfa4fe5f	-1.2890128
32	0xbc907cde	-0.017637666
33	0xbf1fb20b	-0.62381047
34	0x3cf7d162	0.030251209
35	0xbed4e218	-0.41578746
36	0xbf14df89	-0.5815359
37	0xbf87fbf1	-1.0623761
38	0xbf74b118	-0.95582724
39	0x3ec72290	0.38893557
40	0x3f305a85	0.6888812
41	0xbfa62a8c	-1.2981734
42	0xbdbd6f96	-0.09249799
43	0x3dc5ae3c	0.09652373
44	0xbe8d787a	-0.2763098
45	0xbec8c75c	-0.392146
46	0xbf049600	-0.5179138
47	0xbeab2272	-0.33424717
48	0x3db8df97	0.090270214
49	0x3f5f058e	0.8711785
50	0xbed8d91a	-0.42353135
51	0xbed25b29	-0.41085175
52	0xbe45565a	-0.19271222
53	0xbce8f859	-0.028438734
54	0x3d65e214	0.056123808
55	0xbf16d3b6	-0.58916795
56	0xbe8b5505	-0.27213302
57	0x3c8c15cb	0.017100235
58	0xbe72c366	-0.23707351
59	0xbef733bd	-0.4828166
60	0xbd08b3c0	-0.033374548
61	0x3b491b59	0.0030686466
62	0xbf923362	-1.1421931
63	0xbeb107d5	-0.34576288

Q1.head.2.weight f4 [64, 64]
0	0x3e2647b0	0.16238284
1	0x3f20c5fa	0.6280209
2	0xbe753d2c	-0.23949116
3	0x4034fb48	2.827837
4	0xbe140187	-0.14453708
5	0xbf113185	-0.56716186
6	0x3f8dfd83	1.1092991
7	0x3dbd541a	0.09244557
8	0x3e198d06	0.14995202
9	0xbf62d18a	-0.8860098
10	0x3cfb8723	0.030704087
11	0xc009eb2c	-2.1549788
12	0xbeb8f87c	-0.3612708
13	0xc0217b42	-2.523148
14	0x3d8cfc0b	0.06884011
15	0xbe04884b	-0.12942617
16	0xbff0b299	-1.8804504
17	0xbf8c82db	-1.0977434
18	0xbf50f62d	-0.81625634
19	0x3f9f2f25	1.2436262
20	0xbf5fe758	-0.8746238
21	0x3ff3be9e	1.9042547
22	0xbdb56f68	-0.0885914
23	0x3f55b02a	0.8347193
24	0xc0389192	-2.883885
25	0xbf4643e9	-0.7744737
26	0xc00d730d	-2.2101471
27	0xbff8726b	-1.9409918
28	0xbf5ca2c6	-0.8618587
29	0xc026bff7	-2.6054666
30	0xc06a5d7e	-3.6619563
31	0xbf8b8eff	-1.0903014
32	0x3c8069cf	0.015675453
33	0xbe18cc89	-0.14921774
34	0xbf9a808b	-1.2070478
35	0x3f1599ad	0.58437616
36	0xbf11b886	-0.56922185
37	0xbf902cc3	-1.126366
38	0x3ee32ccf	0.44370124
39	0xc065f288	-3.592928
40	0x3d46dae4	0.048548594
41	0xbfd22015	-1.6416041
42	0x3d5a94d4	0.05336459
43	0x3f32099b	0.69545907
44	0xbd78a3a6	-0.060702942
45	0xbc1fae4d	-0.009746146
46	0x3f38a514	0.7212689
47	0x3c914907	0.017735017
48	0xbe24a9ab	-0.16080348
49	0xbfbc88d3	-1.4729255
50	0x3d5a31cb	0.053270143
51	0xbd109ce2	-0.035305865
52	0xbc8c9523	-0.017160958
53	0xbfdeed2e	-1.7416131
54	0xc0002069	-2.0019782
55	0x3e824022	0.25439554
56	0xbee312d0	-0.4435029
57	0xbf0f2d43	-0.5592844
58	0xc017aa5d	-2.3697731
59	0xbbc238e8	-0.005927194
60	0xc08b1dbf	-4.347381
61	0xc01af95c	-2.4214697
62	0xbfce4c30	-1.6117
63	0xbfb3a050	-1.4033298
64	0xbf57f912	-0.84364426
65	0x3f2e9706	0.68199193
66	0xbb312818	-0.0027031954
67	0xbe658018	-0.22412145
68	0xbebc7ef5	-0.3681561
69	0x3f822d98	1.0170164
70	0x3e9fcc79	0.31210688
71	0x3de9d623	0.114177965
72	0x3e88b7a5	0.2670261
73	0xbfa519be	-1.2898481
74	0xbea9dd5f	-0.33176705
75	0x3d673a65	0.056452174
76	0x3e03760a	0.12837997
77	0x3ce8bd23	0.0284105
78	0xbf8e7c09	-1.1131603
79	0xbff13db1	-1.8846952
80	0xbe945f54	-0.2897898
81	0xbea87052	-0.32898194
82	0x3ec0efb7	0.37682888
83	0x3ed72a65	0.42024532
84	0x3ebea31b	0.37233815
85	0xbf033556	-0.5125326
86	0xbed1ba05	-0.40962234
87	0xbfc02b98	-1.5013304
88	0xbf522fc9	-0.82104164
89	0xbee84f01	-0.45372775
90	0x3d1499f5	0.036279637
91	0xbe876784	-0.26446164
92	0xc0166baa	-2.3503213
93	0xbfa710e7	-1.3052033
94	0xbe6958e0	-0.2278781
95	0xbf78cbe3	-0.97186106
96	0xbf561112	-0.836198
97	0xbe128da7	-0.14311849
98	0xbf9f2458	-1.2432966
99	0xbe9b8277	-0.30372974
100	0x3f3d6ccc	0.73994136
101	0xbe49d88e	-0.19711515
102	0x3ec7918e	0.38978237
103	0xbf34fd4b	-0.70698994
104	0x3b309eba	0.0026950077
105	0xbff42924	-1.9075055
106	0xbf780904	-0.96888757
107	0xbf37f8fc	-0.71864295
108	0xbfb65857	-1.4245709
109	0xbf5e6e41	-0.86886984
110	0xbec0692c	-0.3758024
111	0xbe0f165f	-0.13973378
112	0xbe4a33dd	-0.19746347
113	0x3e935661	0.2877684
114	0xbed37f26	-0.41307944
115	0xbcff50f5	-0.031166533
116	0xbec079b0	-0.3759284
117	0xbf0f3df8	-0.5595393
118	0xbf122b16	-0.57096994
119	0xbda48baf	-0.08034455
120	0xbefb2beb	-0.49056944
121	0xbfaa119c	-1.3286624
122	0xbf54c673	-0.8311531
123	0xbfad18f8	-1.3523245
124	0x3ee4775c	0.44622314
125	0xbfb47822	-1.4099162
126	0xbf5e4799	-0.86828
127	0x3e6f8037	0.23388754
128	0x3f284b55	0.6573995
129	0x3f6cd913	0.9251873
130	0xbfb0b9ba	-1.3806679
131	0x3b34c247	0.0027581619
132	0xbf0fb903	-0.5614168
133	0xbf1bd0e4	-0.60865617
134	0xbfbd7404	-1.480103
135	0xbf3e66b5	-0.7437547
136	0x3f16cc5f	0.58905596
137	0xbf394842	-0.7237588
138	0x3e2500e8	0.16113627
139	0xbf7f66e1	-0.99766356
140	0x3ebb45cd	0.3657669
141	0xbf08a15e	-0.53371227
142	0x3e20b013	0.15692167
143	0x3e14f569	0.14546742
144	0xbdff640b	-0.124702536
145	0xbf741abd	-0.953533
146	0xbe44daa9	-0.19224037
147	0xbd207a13	-0.03917892
148	0x3d71ae3c	0.059004053
149	0xbf46dc72	-0.7768012
150	0xbf3b7f60	-0.73241234
151	0xbe18ec2e	-0.14933845
152	0xbffc805b	-1.9726671
153	0xbf15c0d6	-0.5849737
154	0x3d461ee6	0.04836931
155	0xbf930f52	-1.148905
156	0x3dfc8753	0.123304985
157	0xbf0926a5	-0.5357459
158	0xbe9bfac8	-0.30464768
159	0x3f488482	0.7832719
160	0xbf7862f2	-0.9702598
161	0x3eafce75	0.34337202
162	0xbf469084	-0.77564263
163	0xbe4c0e9e	-0.19927451
164	0x3de4611a	0.11151333
165	0x3e8d925e	0.27650732
166	0x3d4b3750	0.049613297
167	0x3f4a649c	0.7905977
168	0x3f6dbe71	0.92868716
169	0x3f32e182	0.6987535
170	0xbf84c2dc	-1.0371966
171	0xbf15e4bb	-0.5855214
172	0xbf731bee	-0.9496449
173	0xbeb30829	-0.34967163
174	0xbfde5481	-1.7369539
175	0x3ec3dc25	0.38253894
176	0xbd866b5c	-0.06563446
177	0xc00c2063	-2.1894767
178	0xbf514498	-0.8174529
179	0xbf871a31	-1.0554868
180	0xbf8464fa	-1.0343316
181	0xc00cad97	-2.198095
182	0xbfce3fb3	-1.611319
183	0xbe3aef07	-0.18255244
184	0xc01a18c3	-2.4077613
185	0x3ed6ada5	0.41929355
186	0xbfc37536	-1.5270145
187	0xbeb15754	-0.3463694
188	0xbc55598d	-0.013021839
189	0x3f4e9bc8	0.80706453
190	0xbee3ada5	-0.44468418
191	0xbfc73be6	-1.5565155
192	0xbd50c234	-0.050966457
193	0x3e802a1c	0.25032127
194	0xbe82d4b5	-0.25552908
195	0x3fc8d11c	1.5688815
196	0xbec9a4c6	-0.39383525
197	0xbe525650	-0.20540738
198	0xbf11c295	-0.56937534
199	0xbf9b0bc6	-1.2112968
200	0xbdaac351	-0.08338035
201	0xbe7ab641	-0.24483587
202	0xbeec43a9	-0.4614537
203	0xbee3f711	-0.44524434
204	0xbef48d02	-0.4776383
205	0xbf5e076b	-0.8673007
206	0x3f2df44d	0.679509
207	0xbffbfe4b	-1.9686979
208	0x3e9b21f4	0.30299342
209	0xbe4b3dd6	-0.19847807
210	0xbf32b937	-0.69813865
211	0x3ea2222b	0.31666693
212	0xbec59e46	-0.38597316
213	0x3cde5f6f	0.027145116
214	0xbf938dc4	-1.1527638
215	0xbefc0cfd	-0.4922866
216	0x3dba3e42	0.09093906
217	0xbf127d86	-0.57222784
218	0x3f4cd3e4	0.8001082
219	0xbf48d4a2	-0.7844945
220	0xbfa2edfa	-1.2728875
221	0xbf8da196	-1.1064937
222	0xbf4a23c1	-0.78960806
223	0xbf18c772	-0.5967933
224	0x3dba800a	0.09106453
225	0xbfa06820	-1.2531776
226	0xbd548ac2	-0.051890142
227	0xbf7658b8	-0.96229124
228	0xbea57e99	-0.3232315
229	0xbe836860	-0.2566557
230	0x3ee942f2	0.45558888
231	0xbed07158	-0.40711474
232	0xbeaf9e68	-0.34300542
233	0xbec1486f	-0.37750575
234	0xbf34cdf9	-0.7062679
235	0xbf9b4fc7	-1.2133721
236	0xbfabeaae	-1.3430994
237	0xc006d0f0	-2.1065025
238	0xbf7c783d	-0.9862097
239	0x3f07d93b	0.5306584
240	0xbeac62c2	-0.33669096
241	0xbf95e596	-1.1710689
242	0xbfb312a2	-1.3990061
243	0x3f13b057	0.5769095
244	0xbe067996	-0.13132319
245	0xbfb86510	-1.4405842
246	0xbd1f57d6	-0.038902126
247	0xbf2acda1	-0.66720015
248	0xbf03dfea	-0.5151354
249	0x3e91e74f	0.28496787
250	0xbe70afee	-0.23504612
251	0xbed8cd65	-0.42344204
252	0xbe556226	-0.20838222
253	0xbe993b76	-0.29928178
254	0xbec9404f	-0.39306876
255	0x3edfe60a	0.43730193

Q1.head.2.bias f4 [64]
0	0xbe18000f	-0.14843772
1	0xbeac2afe	-0.3362655
2	0xbfc26051	-1.5185643
3	0xbf2360e8	-0.6381974
4	0xbe8381ad	-0.25684872
5	0xbf76432a	-0.96196234
6	0xbf7badd3	-0.9831211
7	0xbf85d864	-1.0456662
8	0xbf0012f4	-0.5002892
9	0xbf40fb69	-0.7538362
10	0xbee9e886	-0.45685214
11	0xbed8fac7	-0.42378828
12	0xbf21d32b	-0.6321284
13	0xbe7fbb86	-0.24973878
14	0xbe7a68dc	-0.24454063
15	0xbf67d427	-0.90558094
16	0xbebc8924	-0.3682338
17	0xbf213884	-0.6297686
18	0xbe8ff471	-0.28116181
19	0xbf995c19	-1.1981231
20	0xbf046d5b	-0.51729363
21	0xbf3a1aa0	-0.72696877
22	0xbee02af1	-0.43782762
23	0xbf7eac6a	-0.99481833
24	0xbf06ea05	-0.52700835
25	0xbf204b78	-0.62615156
26	0xbf4499d7	-0.7679724
27	0xbed8bef0	-0.42333174
28	0xbe93ff27	-0.28905603
29	0xbf22b52e	-0.6355771
30	0xbebc0585	-0.3672296
31	0xbf801693	-1.0006889
32	0xbfb455b4	-1.4088655
33	0xbecc55d2	-0.39909226
34	0xbf3afe7a	-0.7304455
35	0xbf5dc384	-0.8662646
36	0xbf11b5e6	-0.5691818
37	0xbeb96fcb	-0.36218104
38	0xbf9d59c9	-1.2293025
39	0xbfa7866c	-1.3087897
40	0xbf4b73c3	-0.79473513
41	0xbf6b4b98	-0.9191222
42	0xbfa3fa00	-1.2810669
43	0xbf2d70f0	-0.67750454
44	0xbf2a4e85	-0.6652606
45	0xbf199088	-0.5998616
46	0xbf3edcd3	-0.745557
47	0x3d06d6b0	0.032919586
48	0xbf5334bc	-0.8250234
49	0xbea01850	-0.3126855
50	0xbeeeee2c	-0.46666086
51	0xbf2ef5ce	-0.6834382
52	0xbeb5feed	-0.35546055
53	0xbff198a3	-1.8874706
54	0xbe9e58f8	-0.30927253
55	0xbe47d2e7	-0.19514047
56	0xbf3d097b	-0.7384259
57	0xbf68fb2b	-0.9100825
58	0xbf56706d	-0.837653
59	0xbf8cea50	-1.1009007
60	0xbf925a09	-1.1433727
61	0xbd93097e	-0.07179545
62	0xbfe34aad	-1.7757164
63	0xbef75264	-0.48305047

Q1.head.4.weight f4 [144, 64]
0	0xbe609062	-0.21930078
1	0x3e0dafdc	0.13836616
2	0x3eedefa4	0.46471894
3	0x3e18f111	0.1493571
4	0xbef3be38	-0.47606063
5	0x3db15356	0.08658473
6	0xbaee95c1	-0.0018202589
7	0xbf40abfb	-0.7526242
8	0x3d0e8b15	0.034800608
9	0x3a733096	0.0009276954
10	0xbd866934	-0.06563035
11	0xbfa0e954	-1.2571206
12	0xbebd827c	-0.37013614
13	0x3bb81960	0.0056182593
14	0x3d7c0140	0.06152463
15	0x3c473004	0.012157444
16	0x3b47dd3e	0.003049686
17	0x3e5d1d9a	0.21593323
18	0xbefff8eb	-0.49994597
19	0x3b8b5a18	0.0042526834
20	0xbd5e7ba7	-0.054317143
21	0x3c312d7e	0.010814069
22	0x3ddf659a	0.10908051
23	0xbbc5b849	-0.0060339314
24	0xbd0ee1a8	-0.03488317
25	0x3caeaed3	0.021323597
26	0xbf2c420c	-0.6728828
27	0xbe1a52bf	-0.15070628
28	0xbdd66ef7	-0.104703836
29	0xbd096fea	-0.033553995
30	0x3d1968a3	0.037453305
31	0xbf90ead9	-1.132167
32	0xc021af2d	-2.526317
33	0xbe30f869	-0.17282261
34	0xbd2b6b7e	-0.04185056
35	0x3d875521	0.06608034
36	0xbe9fc7ea	-0.3120721
37	0xbd249327	-0.040179398
38	0x3d85f50d	0.0654088
39	0xbd813e79	-0.06310744
40	0xbf63eaea	-0.89030325
41	0xbcb13c85	-0.021635303
42	0x3e0214a7	0.1270319
43	0xbcaea245	-0.02131761
44	0x3ee0cbf5	0.43905607
45	0x3dadf2ab	0.08493551
46	0xbd71249b	-0.0588728
47	0xbf0aece2	-0.54267704
48	0x3d81eb07	0.06343656
49	0xbd6f5213	-0.05842788
50	0xbd795a9e	-0.060877435
51	0xbcf99dcc	-0.030470751
52	0x3b5f5b32	0.0034081456
53	0xc0676fe4	-3.6162043
54	0xbe5e09e6	-0.21683463
55	0xbdef8844	-0.116959125
56	0x3c755f53	0.01497634
57	0xbdf13532	-0.11777724
58	0x3ccc0b6e	0.024907794
59	0xbe1d9f3a	-0.15392771
60	0x3d676b48	0.056498796
61	0xbf1d42df	-0.6143016
62	0xbe099ad5	-0.1343797
63	0x3c30e201	0.010796071
64	0xbf758b44	-0.9591563
65	0xbbaf021b	-0.005340827
66	0x3dbfc559	0.09363813
67	0x3f0edd37	0.558063
68	0xbe016ca6	-0.12639102
69	0x3e2bb3e2	0.16767839
70	0xbc371135	-0.011173536
71	0xbf5b476b	-0.8565585
72	0x3c115055	0.00886925
73	0xbdcade62	-0.099056974
74	0x3e32db64	0.17466503
75	0x3d3d59d2	0.046228237
76	0xbd83c0d0	-0.064332604
77	0x3dd99e66	0.10625915
78	0xbe023f52	-0.12719467
79	0x3ef832d5	0.48476282
80	0x3e7a9d1e	0.24473998
81	0x3b868801	0.0041055684
82	0xbee4db54	-0.44698584
83	0x3bbe4840	0.0058069527
84	0xbd4c9497	-0.049946394
85	0x3e0e4d9b	0.13896792
86	0x3d39e7a4	0.045386925
87	0xbc42e28f	-0.011894836
88	0x3ebfa1ba	0.37428075
89	0x3ead1b1f	0.33809754
90	0x3ded03fd	0.11573026
91	0x3ecb4b18	0.3970573
92	0x3e173924	0.14767891
93	0xbf08c5dd	-0.53426915
94	0x3d834364	0.06409338
95	0x3ed741f1	0.42042497
96	0x3e844314	0.25832427
97	0xbc5419fd	-0.012945649
98	0x3c8e02fc	0.017335407
99	0x3d10c9a9	0.035348568
100	0x3e40b7aa	0.18820062
101	0xbd822dd7	-0.063563995
102	0x3d9204c1	0.07129813
103	0x3f09f122	0.53883564
104	0xbf5792d6	-0.8420843
105	0x3df74d5e	0.120753035
106	0x3c0f8733	0.008760261
107	0x3db7d262	0.08975674
108	0x3e667f19	0.22509421
109	0x3d915906	0.07097058
110	0xbc831142	-0.01599944
111	0x3e8ea67e	0.27861398
112	0xbe0c46f7	-0.13698946
113	0xbe364792	-0.1780074
114	0xbbc158e2	-0.0059004882
115	0xbfc92e16	-1.5717189
116	0xbc7f50fa	-0.015583271
117	0xc053b33f	-3.3078153
118	0x3e6ef02d	0.23333807
119	0xbf7af682	-0.9803239
120	0x3f2c094a	0.67201674
121	0xbedaa2ac	-0.42702234
122	0x3ce88fa2	0.028388802
123	0x3e511808	0.20419323
124	0xbd94f6ab	-0.07273611
125	0x3e70ef17	0.23528706
126	0x3ec045be	0.3755321
127	0x3cb78b25	0.022405216
128	0xbe7c34b6	-0.24629483
129	0xbf36934a	-0.71318495
130	0xbde2f867	-0.11082535
131	0xbf278144	-0.6543162
132	0xbc8ad43f	-0.01694691
133	0x3b8dc438	0.0043263696
134	0xbf34d999	-0.7064453
135	0x3d8a2c23	0.067467
136	0x3dcc0769	0.09962351
137	0x3bc09dd9	0.005878192
138	0xbd437f0c	-0.047728583
139	0x3ce6044e	0.028078225
140	0x3be3d39c	0.006952716
141	0x3dbddcda	0.0927064
142	0x3de120a1	0.109925516
143	0xbf007263	-0.5017454
144	0xba083889	-0.00051964127
145	0xbda2d1f3	-0.07950201
146	0xbc1246bb	-0.008927996
147	0xbca8d6be	-0.02061021
148	0x3cbda472	0.023149703
149	0xbceeb011	-0.02913669
150	0x3cdb3d8a	0.026762743
151	0xbd007a6e	-0.031366758
152	0x3b25eb7f	0.0025317369
153	0x39b9ac69	0.00035414405
154	0xbbc4c335	-0.006004716
155	0x3a381033	0.0007021457
156	0x3b936a4b	0.004498755
157	0x3ce83da7	0.02834971
158	0x3d4b9522	0.04970277
159	0x3d3bc231	0.045839492
160	0xbc8977b7	-0.016780717
161	0x3d697dbc	0.057004675
162	0x3dc4addc	0.096034735
163	0x3cd98715	0.02655367
164	0xbfa5a324	-1.2940412
165	0x3b425536	0.002965284
166	0x3d3237cc	0.043510243
167	0x3c77b994	0.015119929
168	0xbf40fbd1	-0.7538424
169	0xbc90c8f6	-0.01767395
170	0x3db7e1b2	0.08978595
171	0xbf11f8d1	-0.5702029
172	0x3d57f766	0.052726172
173	0xbd342689	-0.043982062
174	0x3f103067	0.56323856
175	0xbbb85279	-0.005625066
176	0xbbf9fce5	-0.0076290243
177	0xbcbf8e15	-0.02338318
178	0x3d41bff3	0.047302198
179	0x3d0878fc	0.033318505
180	0xbc0ac64d	-0.00847013
181	0xc06aaac3	-3.6666725
182	0xbaf5f0c3	-0.0018763769
183	0xbd876e48	-0.06612831
184	0xbd468ae7	-0.04847231
185	0xbe56c6d5	-0.20974286
186	0xbde93672	-0.11387338
187	0xc01d7315	-2.460149
188	0x3d596b1d	0.053080667
189	0x3c20b280	0.009808183
190	0x3ee61367	0.44936678
191	0x3c3f59ac	0.011679094
192	0xbd9a517a	-0.07535072
193	0xbe511e0c	-0.20421618
194	0x3e25f59f	0.16206978
195	0x3ebd380e	0.3695683
196	0xbcfcb4e2	-0.03084797
197	0xbb573fec	-0.0032844497
198	0xbe409db7	-0.18810163
199	0x3ce94174	0.028473593
200	0xbc9f825f	-0.019471345
201	0x3e92c494	0.28665602
202	0xbcb7a1a1	-0.022415938
203	0xbd4b3f6e	-0.04962104
204	0xbd9c0b62	-0.076193586
205	0xbd3c16b8	-0.045920104
206	0xbd83be19	-0.064327426
207	0xbf2dbc02	-0.67865
208	0xbd5b7621	-0.053579453
209	0x3d392614	0.04520233
210	0xbf4db958	-0.8036094
211	0x3c88f155	0.016716639
212	0x3d10a9c2	0.035318144
213	0x3d9889c4	0.07448152
214	0xbd456f3b	-0.04820178
215	0x3d2d96db	0.042380195
216	0xbe211539	-0.15730752
217	0xbcafa1f8	-0.021439537
218	0x3cf9901a	0.03046422
219	0x3ea09377	0.31362507
220	0x3e0bac4f	0.1363995
221	0xbd2657d4	-0.040611103
222	0x3d1e0386	0.03857758
223	0x3efa908d	0.48938408
224	0x3f3d0eb9	0.7385059
225	0x3dea51f8	0.114414155
226	0xbcae8d9f	-0.021307765
227	0x3da9473a	0.082655385
228	0x3d2fca5a	0.042917587
229	0xbec9bf84	-0.39403927
230	0xbf4ac301	-0.792038
231	0xbd2c816a	-0.042115606
232	0xbe427364	-0.1898933
233	0xbdf3d040	-0.11904955
234	0x3ec19133	0.3780609
235	0xbe4a5290	-0.19758058
236	0x3ddaefb4	0.10690251
237	0x3d38ce85	0.045118827
238	0x3d8dcefe	0.06924246
239	0x3e697cff	0.22801588
240	0x3cf09450	0.029367596
241	0xbdd38c0e	-0.10329448
242	0x3da75d75	0.081721224
243	0xbe70a8f6	-0.23501953
244	0xbdb1a64d	-0.086742975
245	0xc04e21da	-3.2208161
246	0x3e86842e	0.2627272
247	0x3d0a7dc8	0.03381136
248	0x3dbc6f20	0.09200883
249	0xbebd0188	-0.3691523
250	0x3f4b21a4	0.79348207
251	0xbe812d92	-0.2523008
252	0x3f59059e	0.84774196
253	0xbe94b476	-0.2904393
254	0xbe934bf0	-0.28768873
255	0x3cc11074	0.023567416

Q1.head.4.bias f4 [144]
0	0xbca6914c	-0.020332955
1	0xbd3be444	-0.045871988
2	0xbc9a4a7a	-0.018834341
3	0xbde666e5	-0.11250094
4	0xbcac99ae	-0.021069374
5	0xbcd8fd57	-0.02648799
6	0xbc40b778	-0.011762492
7	0xbf2f572e	-0.684924
8	0xbf40f97b	-0.75380677
9	0xbc7a944c	-0.015294146
10	0xbca32414	-0.019914664
11	0x3aa59273	0.0012632146
12	0xbcbddfc1	-0.023177983
13	0xbc3e7daf	-0.011626645
14	0xbcb11084	-0.02161432
15	0xbc6ded8e	-0.0145219695
16	0xbcb79760	-0.022411048
17	0xbcb9ac87	-0.022665275
18	0xbcdfe897	-0.027332587
19	0xbc9b0669	-0.018923955
20	0xbd23c5b4	-0.039983466
21	0x3dc6eb08	0.097127974
22	0xbc6919e3	-0.014227363
23	0xbca4bda8	-0.020109966
24	0xbc8f8200	-0.017518044
25	0xbe35dec4	-0.1776076
26	0xbcf800cc	-0.030273817
27	0xbc882962	-0.016621295
28	0xbd1bb60d	-0.038015414
29	0xbf85c6b8	-1.0451269
30	0xbc7cee9d	-0.015437749
31	0xbca7b53c	-0.020472161
32	0xbcaefcc3	-0.02136076
33	0x3a961e29	0.001145308
34	0xbcc747dc	-0.024326257
35	0xbdae2e1a	-0.08504887
36	0x3e0ddca5	0.138537
37	0xbc8e5c51	-0.017378004
38	0xbc81bf22	-0.01583821
39	0xbc9c8fac	-0.019111477
40	0xbcb69e1f	-0.022292195
41	0xbcccb787	-0.024989856
42	0xbd347e37	-0.04406568
43	0xbf4269bf	-0.75942606
44	0xbcb22772	-0.021747325
45	0xbcbfae88	-0.023398653
46	0xbc51e6e3	-0.012811395
47	0x3903738f	0.00012536182
48	0xbc74e502	-0.014947178
49	0xbca410ab	-0.02002748
50	0xbca544a5	-0.020174334
51	0xbdaee990	-0.08540642
52	0xbc9312e8	-0.017953351
53	0xbd9cfbe9	-0.076652355
54	0xbe6c17d9	-0.23055972
55	0xbc5f041e	-0.013611821
56	0xbc45ab76	-0.012064805
57	0xbca1e889	-0.019764202
58	0xbd6f69c9	-0.058450494
59	0xbca1b956	-0.019741695
60	0xbd3175c3	-0.043325197
61	0xbbf2a5b1	-0.007405006
62	0xbc94168d	-0.01807716
63	0xbc7707ff	-0.01507759
64	0xbca41a26	-0.020032
65	0xbd34e441	-0.044162992
66	0xbcafc4da	-0.02145617
67	0xbd8caf27	-0.06869345
68	0xbc9508b6	-0.01819263
69	0xbc1647de	-0.009172408
70	0xbc9787fa	-0.018497456
71	0xbc7585a8	-0.014985479
72	0xbca2b082	-0.019859556
73	0xc04a70af	-3.1631277
74	0xbc8efd43	-0.017454749
75	0xbe449dfc	-0.19200891
76	0xbca0cdbd	-0.019629354
77	0xbca8d650	-0.020610005
78	0xc05de6c5	-3.46721
79	0xc0572124	-3.3613977
80	0xc04d3831	-3.2065547
81	0xbc77e6b1	-0.015130685
82	0xbc9fcca9	-0.01950677
83	0xc05666d0	-3.3500252
84	0xbc858777	-0.016299946
85	0xc0517966	-3.2730346
86	0xc0687a24	-3.6324549
87	0xbc65d1b8	-0.014027052
88	0xbdb082bf	-0.08618688
89	0xbc983205	-0.018578539
90	0xc05c8d1d	-3.4461129
91	0xbc873159	-0.016503023
92	0xc02813a5	-2.626199
93	0xc004cf8a	-2.0751672
94	0xc0598a2a	-3.3990579
95	0xbc69454e	-0.014237715
96	0xbcbeb94d	-0.023281718
97	0xc052eceb	-3.2957103
98	0xbcb6bfd0	-0.02230826
99	0xc0568512	-3.351872
100	0xc075e0ef	-3.8418539
101	0xc04c4f96	-3.1923575
102	0xbc7f434d	-0.015580011
103	0xbce1c5e3	-0.02756018
104	0xbcd39226	-0.025826525
105	0xc04b1088	-3.172884
106	0xbca93191	-0.020653518
107	0xbf3a781d	-0.7283953
108	0xc058b3e4	-3.3859797
109	0xbc668aa8	-0.014071144
110	0xbc845cb7	-0.016157491
111	0xbd083a60	-0.033258796
112	0xc049033e	-3.140823
113	0xbd07e5eb	-0.03317825
114	0xbef0d086	-0.4703409
115	0xc0505d5b	-3.255698
116	0xbc8acc92	-0.01694325
117	0xbce362c5	-0.027757058
118	0xbf724134	-0.9463074
119	0xc00a96a7	-2.165445
120	0xbc742a5b	-0.014902676
121	0xbc9e3824	-0.01931388
122	0xbca13be7	-0.019681884
123	0xbfafe3bd	-1.3741375
124	0xbc729af4	-0.0148074515
125	0xbed4c2f8	-0.41555
126	0xbf23d2a9	-0.63993317
127	0xbc81cf4d	-0.015845919
128	0xc0519a92	-3.2750592
129	0xbc9095b3	-0.017649507
130	0xbe6d6806	-0.23184213
131	0xbca66507	-0.020311845
132	0xc048e996	-3.139257
133	0xbe47d68b	-0.19515435
134	0xc053e315	-3.310735
135	0xbc510e52	-0.012759762
136	0xbcf75120	-0.03019005
137	0xbde44dbd	-0.1114764
138	0xbc87c038	-0.01657115
139	0xbd99e712	-0.07514776
140	0xbcae3d87	-0.021269573
141	0xc052261b	-3.2835758
142	0xbc63cb98	-0.013903521
143	0xbc749dae	-0.014930172

Q2.head.0.weight f4 [64, 144]
0	0x3ddda675	0.10822765
1	0xbda7f322	-0.08200671
2	0xbe1350f8	-0.14386356
3	0x3f8f40d5	1.119166
4	0xbb52e629	-0.0032180643
5	0xbeda1a16	-0.42598027
6	0x3f021428	0.50812006
7	0x3eebe4a1	0.46072868
8	0xbe00f6d0	-0.12594151
9	0xbf0547d5	-0.5206273
10	0x3eae94ec	0.34097993
11	0x3ded9f2f	0.116026275
12	0x3f91a187	1.1377419
13	0x3f4fcd70	0.8117285
14	0x3e4a092e	0.19730064
15	0xbe932a8e	-0.28743404
16	0xbf8eeeb9	-1.1166602
17	0xbe4f1d50	-0.20226026
18	0x3ca455c6	0.020060431
19	0x3edf30bf	0.43591878
20	0x3dfdacf0	0.12386501
21	0x3f24bd3c	0.6435125
22	0x3f38697f	0.72035974
23	0xbf0fd6c6	-0.56187093
24	0xbe013dc7	-0.12621222
25	0x3e31fa36	0.17380604
26	0x3e54ee30	0.20793986
27	0x3e63027b	0.22168915
28	0x3eb35a72	0.35029942
29	0x3ed40a47	0.4141409
30	0xbe6a3d0b	-0.22874849
31	0x3f086975	0.53285915
32	0x3ee28766	0.44243926
33	0x3dbf1c5b	0.0933158
34	0x3f6924f7	0.9107203
35	0xbe1df1c4	-0.15424258
36	0x3da154d9	0.078775115
37	0xbd0364a6	-0.032078408
38	0xbe4d3b8b	-0.20042245
39	0x3f140c98	0.57831717
40	0x3f00edb5	0.5036271
41	0x3f0e5865	0.5560363
42	0xbed0ec5e	-0.40805334
43	0xbee0ec41	-0.43930247
44	0x3f3ef977	0.74599403
45	0x3f239dc7	0.63912624
46	0xbf9b9dca	-1.2157528
47	0xbe9ae424	-0.30252182
48	0xbeb0cf6e	-0.34533256
49	0xbea4b7f4	-0.32171595
50	0x3ea07c91	0.31345037
51	0xbf2c0e7e	-0.67209613
52	0x3dde7b6f	0.10863387
53	0x3dc73e75	0.097287096
54	0xbf827af5	-1.0193774
55	0xbea7117d	-0.3263053
56	0xbeccc0a9	-0.39990738
57	0x3e664d93	0.2249053
58	0x3d8081f6	0.06274788
59	0x3e92a4aa	0.28641254
60	0x3f0af9b3	0.5428726
61	0x3ee0ad60	0.43882275
62	0x3dd5bbbc	0.10436198
63	0xbf1f1b4e	-0.6215104
64	0x3db6aed7	0.08920067
65	0xbf6a00a0	-0.91407204
66	0x3d8be87e	0.06831454
67	0x3e304e38	0.17217338
68	0xbe748efa	-0.23882666
69	0x3f0251da	0.50906146
70	0xbf307f14	-0.68943906
71	0xbf01685f	-0.5054988
72	0xbf3fec27	-0.74969715
73	0xbe8afb1e	-0.27144712
74	0x3f3a967b	0.72885865
75	0xbefdc5a6	-0.49564856
76	0x3f94c1d0	1.1621647
77	0x3dd9e0fe	0.10638617
78	0xbdf7a574	-0.120921046
79	0x3efb71f1	0.49110368
80	0xbe39b2ca	-0.18134609
81	0xbf043591	-0.51644236
82	0xbf1a11c9	-0.6018339
83	0x3e424172	0.18970278
84	0xbf5d26f0	-0.8638754
85	0x3f608ae7	0.8771195
86	0x3e34628a	0.17615715
87	0xbed8e1e1	-0.42359832
88	0x3e1850d3	0.14874582
89	0xbc88f5d5	-0.016718784
90	0xbd9cf632	-0.076641455
91	0x3edff802	0.43743902
92	0x3e0ac190	0.135504
93	0x3f18c9d5	0.5968297
94	0x3f29fe8f	0.6640405
95	0xbea82ebc	-0.32848155
96	0x3eaf9c48	0.3429892
97	0x3e2df1ac	0.16986722
98	0x3ebb5b65	0.36593166
99	0x3dd0d627	0.10197096
100	0x3ec2fa45	0.38081565
101	0x3ed25ace	0.41084903
102	0xbf0d7707	-0.55259746
103	0x3d4ee90e	0.050515227
104	0xbe4b2f32	-0.19842222
105	0x3e42d346	0.19025907
106	0xbe833e6d	-0.25633565
107	0x3faa3c14	1.3299584
108	0x3dd99492	0.10624041
109	0xbf3cf0d8	-0.73805
110	0xbec023b9	-0.37527254
111	0xbf49f83f	-0.7889442
112	0x3d6e6db9	0.05821011
113	0x3e7c8699	0.2466072
114	0xbfc32850	-1.5246677
115	0xbea9fc46	-0.33200282
116	0x3ef13b7e	0.471157
117	0xbe983c41	-0.2973347
118	0x3f85d100	1.0454407
119	0xbc71d0e0	-0.014759272
120	0xbf0f5220	-0.5598469
121	0x3f99fa05	1.2029425
122	0xbe85fb02	-0.26168066
123	0xbe0e4377	-0.13892923
124	0xbf0b0de5	-0.54318076
125	0x3e8c0393	0.27346477
126	0x3fc041e2	1.5020106
127	0xbf48f9c9	-0.7850614
128	0xbed2034d	-0.41018143
129	0x3efdb0f2	0.4954906
130	0x3f142988	0.5787587
131	0xbf71d5c4	-0.94466805
132	0x3ef82590	0.48466158
133	0x3ef9989d	0.48749247
134	0x3db6c7a0	0.08924794
135	0xbe9727aa	-0.2952245
136	0xbf776577	-0.966392
137	0x3e1ccb67	0.15311967
138	0xbea29a02	-0.31758124
139	0xbe034e97	-0.12822948
140	0xbf0c8eee	-0.54905593
141	0x3f03693a	0.5133244
142	0xbf1028ca	-0.5631224
143	0xbe81330b	-0.25234255
144	0xbf01e0ba	-0.5073353
145	0x3db311a2	0.087435976
146	0xbe458f73	-0.19293003
147	0xbe5f9e3c	-0.21837705
148	0xbf5d0862	-0.86340916
149	0xbe3c6de0	-0.18401289
150	0x3f9516c5	1.1647574
151	0x3edfd857	0.43719742
152	0x3f2eeda8	0.68331385
153	0xc01f0854	-2.4848833
154	0xbf02eaa7	-0.511393
155	0x3f158eb0	0.5842085
156	0x3dc960e5	0.09832934
157	0x3d421d01	0.04739094
158	0x3f9dfd2b	1.2342886
159	0xc02086e8	-2.508234
160	0xbf08fee5	-0.5351394
161	0xbe19a72c	-0.15005177
162	0x3f71e6eb	0.9449298
163	0xbefc95a8	-0.4933293
164	0xbdf85994	-0.12126461
165	0x3eddbde3	0.43308935
166	0x3f60a624	0.8775351
167	0xc011f43c	-2.280532
168	0xbf16e459	-0.5894218
169	0x3de7c7d1	0.11317409
170	0xbf13c96b	-0.57729214
171	0x3f910d3a	1.1332161
172	0xbec7b3da	-0.39004403
173	0x3f00e184	0.5034411
174	0xc0196f67	-2.3974245
175	0x3dd24185	0.10266403
176	0xbf70a505	-0.940018
177	0xbe7a55d2	-0.244468
178	0x3e49d65d	0.1971068
179	0xbe7fdfd7	-0.24987732
180	0x3f317914	0.69325376
181	0xbfe41672	-1.781935
182	0xbf9f343d	-1.2437817
183	0xbe968726	-0.29399985
184	0x3f3be47e	0.73395526
185	0x3ec76d07	0.3895037
186	0xbe7d9b5c	-0.24766296
187	0x3f3f31e9	0.7468553
188	0xbf19c106	-0.60060155
189	0xbd19452f	-0.037419494
190	0x3f1c51db	0.610624
191	0x3f444ac3	0.7667658
192	0xc014f8fb	-2.3276966
193	0xbdaecd32	-0.08535232
194	0xbf6e16ee	-0.9300374
195	0x3d45b5d8	0.048269123
196	0xbf5a5f3f	-0.85301584
197	0x3ddc2954	0.1075007
198	0x3ed995af	0.42497012
199	0xbfb33ce0	-1.4002953
200	0xbe7714f2	-0.24129084
201	0xbf21a838	-0.63147306
202	0x3e5fadc0	0.21843624
203	0xbe4ff41f	-0.20307969
204	0x3f43b16c	0.764426
205	0x3e24bcab	0.16087596
206	0xbe6c59e7	-0.2308117
207	0xc047c133	-3.121167
208	0xbeaad65d	-0.3336667
209	0xbe8c7b34	-0.27437747
210	0xbf355dd1	-0.7084628
211	0x3e9a6bf1	0.30160478
212	0xc02bb6fa	-2.683043
213	0x3f1ca844	0.6119425
214	0xc02c003c	-2.6875143
215	0xbfe6c764	-1.8029599
216	0x3fae3404	1.3609624
217	0x3d4df35c	0.050280914
218	0x3f63c4a1	0.88971907
219	0x3f2c8a2f	0.6739835
220	0x3e2eee80	0.17083168
221	0x3f6c1972	0.92226326
222	0x3f777334	0.9666016
223	0x3eb590a1	0.35461906
224	0x3f347048	0.7048383
225	0xbfa6ae02	-1.3021853
226	0xbd270be4	-0.040782824
227	0x3f21fa92	0.63272965
228	0x3f6321cb	0.8872344
229	0x3d58be79	0.052916024
230	0x3f98a75b	1.1926073
231	0xbf2c5eba	-0.6733204
232	0xbdd0d901	-0.1019764
233	0x3f0b0bbe	0.5431479
234	0x3f62df6a	0.8862215
235	0x3ebc0662	0.3672362
236	0xbe065b1c	-0.13120693
237	0x3f0e9153	0.556905
238	0x3f4ed9fb	0.8080136
239	0xbe1e2408	-0.15443432
240	0x3f1ba6ba	0.6080128
241	0x3e4afba8	0.19822562
242	0xbc5b4441	-0.013382972
243	0xbea35835	-0.31903234
244	0xbeb76211	-0.35817006
245	0x3f0a9e09	0.5414739
246	0xbf99d413	-1.2017845
247	0x3ec75c70	0.38937712
248	0xbceebc30	-0.02914247
249	0xbe75e78a	-0.24014106
250	0x3fa8ac05	1.3177496
251	0xbea6de45	-0.32591453
252	0x3f3bcbd5	0.733579
253	0xbf89e24f	-1.0772189
254	0xbc209378	-0.009800784
255	0xbd78cdca	-0.06074313

Q2.head.0.bias f4 [64]
0	0x3e81c622	0.25346476
1	0x3f361b05	0.7113498
2	0xbce006d3	-0.027347004
3	0xbf7869d2	-0.9703647
4	0xbd0e43f2	-0.034732766
5	0xbe3b95b4	-0.18318826
6	0x3f1c66bb	0.61094254
7	0x3d99081c	0.0747225
8	0xbe013af5	-0.12620147
9	0xbf2b496e	-0.6690892
10	0xbb7d1edd	-0.0038623132
11	0xbd4bd414	-0.0497628
12	0x3fabde33	1.3427185
13	0xbedfaa26	-0.436845
14	0x3f1a0a5c	0.6017206
15	0xbb6c7ed2	-0.0036086333
16	0xbf646a92	-0.89225113
17	0x3d388064	0.045044318
18	0xbf396c84	-0.72431207
19	0xbce9a3e6	-0.028520536
20	0xbf3f4518	-0.74714804
21	0xbfab4526	-1.3380477
22	0xbf757974	-0.9588845
23	0xbeac8bee	-0.33700508
24	0x3ded2fd8	0.11581391
25	0xbd5f8dda	-0.05457864
26	0xbe30fe3e	-0.17284486
27	0xbe804782	-0.25054556
28	0xbf4d28ac	-0.80140185
29	0xbc4c197a	-0.012457246
30	0xbf215721	-0.63023573
31	0xbe84e9e7	-0.25959703
32	0xbfd3a287	-1.6533974
33	0xbe9d89ff	-0.30769345
34	0xbee26494	-0.4421736
35	0x3dbe8940	0.09303522
36	0x3e39169e	0.18075034
37	0xbfc2337c	-1.5171962
38	0x3e72eaf2	0.23722437
39	0xbf5b0b27	-0.8556389
40	0xbfcbc342	-1.5918963
41	0xbebb413e	-0.36573213
42	0x3dea8bfd	0.11452482
43	0x3e87006b	0.26367506
44	0x3f61b60e	0.8816842
45	0x3f907bba	1.1287758
46	0xbc4c9025	-0.012485539
47	0xbe29ae42	-0.1657038
48	0xbe089934	-0.13339692
49	0xbe83e782	-0.25762564
50	0xbf30205b	-0.6879937
51	0xbdb4d61c	-0.088299006
52	0xbc682502	-0.01416898
53	0xbf5a1c29	-0.8519922
54	0x3dd8130a	0.105505064
55	0xbee937e6	-0.4555046
56	0xbed9df36	-0.4255311
57	0xbeacbdcc	-0.33738554
58	0x3db6b07b	0.0892038
59	0xbe3c83b8	-0.18409622
60	0xbf17d23a	-0.59305155
61	0xbd0e7803	-0.03478242
62	0x3d86ce5e	0.0658233
63	0xbd52c546	-0.051457666

Q2.head.2.weight f4 [64, 64]
0	0xbd9acbbc	-0.075583905
1	0x3dd06a06	0.10176472
2	0xbeb49573	-0.3527027
3	0xbe93e9f8	-0.28889441
4	0xbf92dee4	-1.1474271
5	0xbf7e331d	-0.9929674
6	0xc00acc9d	-2.1687386
7	0xbf1cb03e	-0.61206424
8	0xbf8cc6a0	-1.0998116
9	0xbfdb1e2b	-1.7118582
10	0xbfb0a7bb	-1.3801187
11	0xbee17669	-0.44035652
12	0xbfc8dce0	-1.5692406
13	0xbf202a54	-0.6256459
14	0xbe3105d1	-0.17287375
15	0xbf327e08	-0.6972356
16	0xbf8a24bf	-1.0792464
17	0x3f1100db	0.5664193
18	0xbe07f4c8	-0.1327697
19	0xc0050cc2	-2.0789037
20	0xbff96334	-1.9483399
21	0xbe2f8e19	-0.1714405
22	0xbf353e5b	-0.7079827
23	0xbe8ce598	-0.27518916
24	0xbf6c50e3	-0.92310923
25	0xc00a2522	-2.1585164
26	0xc06b95ff	-3.68103
27	0xbda11863	-0.078659795
28	0xbf80374f	-1.0016879
29	0xbec8a319	-0.39186934
30	0xbcd85c55	-0.026411215
31	0x3b120e4f	0.002228636
32	0xbf073626	-0.52817
33	0xbf7f4c71	-0.99726015
34	0xbfdea4a6	-1.7393997
35	0xbe283241	-0.1642542
36	0xc0176da5	-2.3660672
37	0x3de4f524	0.11179569
38	0xbfa93354	-1.3218789
39	0xbffb4266	-1.9629638
40	0xbf635bf6	-0.88812196
41	0xbed4c009	-0.4155276
42	0x3d6ae9f2	0.057352014
43	0xbfba474a	-1.4553006
44	0x3f218ea6	0.6310829
45	0xbfd64942	-1.6741107
46	0xbf823905	-1.0173651
47	0xbf4a3903	-0.7899324
48	0xbf1ebf56	-0.62010705
49	0xbf7a32fb	-0.9773404
50	0x3f1f5681	0.6224137
51	0xbf8845da	-1.0646317
52	0xbe9d12bd	-0.3067836
53	0x3f74c7ef	0.95617574
54	0xc02c864f	-2.6956975
55	0xbf4d4a15	-0.80191165
56	0xbecb0f52	-0.39660126
57	0x3ea1797a	0.31537992
58	0xbfa783fa	-1.3087151
59	0xbfb528cc	-1.4153075
60	0xbfaa57a9	-1.3308002
61	0x3e2087c2	0.15676787
62	0xbe9918e6	-0.29901809
63	0xbf046e03	-0.51730365
64	0xbefaedfc	-0.49009693
65	0xbeb947c9	-0.3618758
66	0xbf4f6f16	-0.8102888
67	0xbf8f3e2a	-1.1190846
68	0xbf3d99aa	-0.740626
69	0xbff7265d	-1.9308583
70	0x3d241dcf	0.04006749
71	0xbfe897ee	-1.8171365
72	0xbf2610a6	-0.64869153
73	0xbfdc59b0	-1.721487
74	0xbfa312bb	-1.2740091
75	0xbdcced83	-0.10006239
76	0xbf31b874	-0.6942208
77	0xbfc9c581	-1.5763398
78	0xbb0e73ef	-0.0021736582
79	0xbf61b38d	-0.881646
80	0xbe9ca067	-0.30591127
81	0xc00dd2e1	-2.215996
82	0xbfd8fab7	-1.6951512
83	0x3fbf08b8	1.4924536
84	0xc00bb250	-2.1827583
85	0xbfde2aac	-1.7356772
86	0xc00d222c	-2.2052107
87	0xc06a6d9b	-3.6629398
88	0xc007ecfd	-2.1238396
89	0xc04f7912	-3.2417645
90	0xc037dc87	-2.872835
91	0xbfdd74cf	-1.7301272
92	0xc04975bc	-3.147811
93	0x3e8997f0	0.26873732
94	0xbf67b2c0	-0.90507126
95	0xbf00d0c3	-0.50318545
96	0xbfbd2287	-1.4776162
97	0xbf240b55	-0.6407979
98	0x3f079823	0.5296652
99	0xbfd20d30	-1.6410275
100	0xbfb55984	-1.4167943
101	0xbfc6d428	-1.5533495
102	0xbf913b27	-1.1346177
103	0x3e80991a	0.25116807
104	0x3be62e9c	0.0070245992
105	0xbf52185c	-0.8206842
106	0xbff7d4a2	-1.9361765
107	0xc00e0838	-2.2192516
108	0xbf192d86	-0.5983509
109	0xbe0b8ab3	-0.13627128
110	0xbe9fb04a	-0.31189185
111	0xc07fe730	-3.9984856
112	0x3ee34ab3	0.44392928
113	0xbfc3ca5d	-1.5296131
114	0xbfe2eb05	-1.7727972
115	0xbfa18792	-1.2619498
116	0xbe46bfb4	-0.19409066
117	0xbdfe6438	-0.12421459
118	0xc04f45e1	-3.23864
119	0xbef824aa	-0.48465472
120	0xc0456cd4	-3.0847673
121	0xbfd8d474	-1.6939836
122	0xc01e19a7	-2.4703157
123	0xbf7fc783	-0.99913806
124	0xbfa2c0ca	-1.2715085
125	0xbf3d3150	-0.7390337
126	0xbe58e335	-0.21180423
127	0xbf2e2d63	-0.68038005
128	0xbfd5287c	-1.665298
129	0xbe53dcaa	-0.20689645
130	0xc02532e3	-2.5812309
131	0x3eaddc40	0.339571
132	0xbf0b8837	-0.5450472
133	0xbf88ec4f	-1.0697116
134	0x3ea5f3e2	0.3241263
135	0xbf382f02	-0.7194673
136	0xc016e594	-2.3577623
137	0xbf82b7ba	-1.0212319
138	0xbf6448e4	-0.8917372
139	0xbf602c1b	-0.875673
140	0xc02699bd	-2.6031334
141	0x3e4d7bee	0.20066807
142	0x3ee9458f	0.45560881
143	0xbff3d462	-1.9049189
144	0xbfd66c5b	-1.6751817
145	0xc00293d6	-2.0402732
146	0x3d6988af	0.057015117
147	0xbf472100	-0.7778473
148	0xbf677e88	-0.90427446
149	0xc0388302	-2.882996
150	0xbfc32004	-1.5244145
151	0x3ee033a8	0.4378941
152	0xc007c72e	-2.121532
153	0x3df24687	0.11829858
154	0xbe28fdc2	-0.16503051
155	0x3e193192	0.14960316
156	0xc0003ab6	-2.0035834
157	0x3f430fc0	0.7619591
158	0xbfd0b4f9	-1.6305228
159	0xbf43d190	-0.7649164
160	0xbf5df883	-0.86707324
161	0xbf41f2dc	-0.757612
162	0xbdb09de7	-0.086238675
163	0xbffef59f	-1.9918708
164	0xbf5a6e46	-0.85324514
165	0xc02cf57c	-2.7024832
166	0xbec4a42f	-0.38406512
167	0xc01ed7d8	-2.481924
168	0xbe85004b	-0.25976786
169	0xbf3ad3d3	-0.7297947
170	0xbf7bf248	-0.98416567
171	0xbd62ae51	-0.055342022
172	0xbfa596a9	-1.2936603
173	0xbf13e654	-0.5777333
174	0x3f0521c6	0.5200466
175	0x3f800469	1.0001346
176	0xbdae7186	-0.085177466
177	0xbeb258fb	-0.34833512
178	0xc027ace6	-2.619928
179	0xc0556488	-3.334261
180	0xbfc30ecd	-1.5238892
181	0xbf9e4f1b	-1.2367891
182	0xbf89a382	-1.0753024
183	0xc0601e9e	-3.5018687
184	0xc03177b2	-2.7729306
185	0xc00da952	-2.2134595
186	0xbf8ed654	-1.1159158
187	0xc01b27cc	-2.424304
188	0xbfc1a585	-1.5128638
189	0x3ca34059	0.019928144
190	0xbfbcc444	-1.4747396
191	0xbfdb57ec	-1.7136207
192	0xbe92ab07	-0.28646109
193	0xbf340474	-0.70319295
194	0xc01ab1a3	-2.417092
195	0x3f45a6dd	0.7720774
196	0xc08225f8	-4.067135
197	0xc047bf29	-3.1210425
198	0xc0018c9c	-2.024207
199	0xc03dc4a8	-2.965128
200	0xc04dacd0	-3.2136726
201	0xc04be3e8	-3.1857853
202	0xbf9abc1f	-1.208866
203	0xc04eaec2	-3.2294164
204	0x3f6965ba	0.9117085
205	0xbeab7593	-0.3348814
206	0xbff1bd62	-1.888592
207	0xbf93c071	-1.1543103
208	0x3fab9b63	1.3406795
209	0xc04184bd	-3.0237267
210	0xbf912d25	-1.1341902
211	0x3e768562	0.24074319
212	0xc045aa02	-3.0885015
213	0xc00ff691	-2.2494242
214	0xbf3048f0	-0.68861294
215	0xbfa0e68d	-1.2570359
216	0xc0819475	-4.049372
217	0xc06fb4f1	-3.7454188
218	0xbf9049b3	-1.1272491
219	0x3e61c09c	0.22046131
220	0xc03b3221	-2.9249346
221	0xbf1a8e34	-0.60373235
222	0xbef82c77	-0.48471424
223	0xbf44a6c7	-0.7681698
224	0xbf8c7fd7	-1.0976514
225	0xbfc9bc33	-1.5760559
226	0xbf8afb38	-1.0857916
227	0xc0060fb4	-2.0947084
228	0xc05e22a8	-3.4708652
229	0xbffce413	-1.9757103
230	0xbf6adb3b	-0.9174077
231	0xbfcdd298	-1.6079893
232	0xbfa5629f	-1.2920722
233	0xbfdf5ba4	-1.7449841
234	0xc08b0773	-4.3446593
235	0xbd7ab296	-0.06120547
236	0xc02c2c53	-2.6902053
237	0xc07e4c9f	-3.9734266
238	0xc071715c	-3.772544
239	0x3fa5c95e	1.2952077
240	0xbe75bc41	-0.23997594
241	0xc0050202	-2.0782475
242	0xc094ccf4	-4.6500187
243	0xc04d603a	-3.2089982
244	0xbf234a7b	-0.63785523
245	0xbea33b32	-0.318811
246	0xc01be35c	-2.435752
247	0xc031227b	-2.7677295
248	0xc048492d	-3.1294663
249	0xbfa4481f	-1.283451
250	0xbe8a2234	-0.2697922
251	0xbfd1a787	-1.637925
252	0xbf630031	-0.8867217
253	0xc02f51d5	-2.7393696
254	0xbf8976dc	-1.0739398
255	0xc001d245	-2.0284588

Q2.head.2.bias f4 [64]
0	0xbfa28182	-1.2695773
1	0x3c9b115a	0.018929172
2	0x3dab522f	0.08365285
3	0xbf2cdf55	-0.6752828
4	0x3dc3fa59	0.095692344
5	0xbf9f7b2d	-1.2459465
6	0xbeeddb77	-0.464565
7	0xbebd8c29	-0.37020996
8	0xbe3cc9f6	-0.18436417
9	0xbf2f6829	-0.6851831
10	0xbef32e86	-0.47496432
11	0xbfff72df	-1.9956931
12	0xbf95b699	-1.1696349
13	0x3ea1c208	0.31593347
14	0xbe946f13	-0.28990993
15	0xbea0efed	-0.3143305
16	0xbf4f5c2d	-0.81000024
17	0xbe6d79e7	-0.23191033
18	0xbe9836ad	-0.29729214
19	0xbf9fab38	-1.2474127
20	0xbe2dcd5a	-0.16972867
21	0xbf3e29a3	-0.7428228
22	0xbed4564e	-0.41472095
23	0xbf314cc2	-0.6925775
24	0xbf85bd04	-1.0448308
25	0xbf3d1358	-0.7385764
26	0xbea36426	-0.31912345
27	0xbf04df76	-0.51903474
28	0xbfa43e3f	-1.2831496
29	0xbe781d45	-0.24229915
30	0xbf8b8db8	-1.0902624
31	0xbf53c5d9	-0.82723767
32	0xbf544c98	-0.8292937
33	0xbeb96e38	-0.36216903
34	0xbf4527db	-0.7701394
35	0xbe85c622	-0.26127726
36	0xbf3ffc29	-0.7499414
37	0xbfce636f	-1.6124095
38	0xbf4fc855	-0.8116506
39	0x3e2ae283	0.1668797
40	0xbf8f7f46	-1.1210716
41	0xbf0d8434	-0.5527985
42	0x3e32e3d6	0.17469725
43	0xbf02f6b7	-0.51157707
44	0xbe7ebd42	-0.24876884
45	0xbf47590a	-0.7787024
46	0xbf205aa1	-0.6263829
47	0xbe5d7f95	-0.216307
48	0xbea4192c	-0.32050455
49	0xbe0ee8a0	-0.13955927
50	0xbf8ba424	-1.0909467
51	0xbf6ccf53	-0.9250385
52	0xbf56629e	-0.8374423
53	0xbfa16026	-1.2607467
54	0xbf60b4b8	-0.87775755
55	0xbf9ab969	-1.2087833
56	0xbf59e23a	-0.8511082
57	0xbfc755e6	-1.5573089
58	0xbeae7fea	-0.34081966
59	0xbf6c8994	-0.9239743
60	0xbe83e9aa	-0.2576421
61	0xbf47a71c	-0.77989364
62	0xbf218b7e	-0.63103473
63	0xbf986387	-1.1905373
