script/logs/dome_held/model/final/policy.pth (torch, 216958 bytes, 6 tensors)

head.0.weight f4 [128, 144]
0	0x3e1468de	0.14493129
1	0x3c8b0bcc	0.016973399
2	0xbebe758a	-0.3719905
3	0x3f457a7d	0.7714003
4	0x3ea428f9	0.3206251
5	0xbdfdaa82	-0.123860374
6	0xbe46801d	-0.19384809
7	0x3dbcf5f6	0.09226601
8	0xbf561d87	-0.83638805
9	0x3e8ea836	0.2786271
10	0xbedff67a	-0.43742734
11	0x3ec4251e	0.38309568
12	0xbdd404e9	-0.10352499
13	0xbf8b0051	-1.0859472
14	0xbeb54a9d	-0.35408488
15	0x3e44e53f	0.19228075
16	0x3f246213	0.6421215
17	0xbe012c4d	-0.12614556
18	0xbe6e36d5	-0.23263104
19	0xbeaacca5	-0.33359256
20	0xbf7ac058	-0.97949743
21	0xbeee0114	-0.46485198
22	0xbe86563c	-0.26237667
23	0x3db20d93	0.08693995
24	0x3f171fa6	0.59032667
25	0xbea1adcd	-0.31577912
26	0xbf287d4d	-0.65816194
27	0xbef9910d	-0.48743477
28	0xbfa05486	-1.2525795
29	0xbf3599db	-0.7093789
30	0xc092bc19	-4.585461
31	0x3e30ccc5	0.17265613
32	0x3e825c24	0.25460923
33	0x3ee66ede	0.4500646
34	0x3d98ce17	0.074611835
35	0x3f522313	0.8208477
36	0xbfa9a3a1	-1.325306
37	0x3e6a8213	0.22901182
38	0x3e81d324	0.253564
39	0xbd50eb0f	-0.05100542
40	0xbfa38944	-1.2776265
41	0xbe9f21b7	-0.3108041
42	0x3f63d8d2	0.89002717
43	0xbef454ce	-0.4772095
44	0x3f14822e	0.5801114
45	0xbea9af7c	-0.33141696
46	0xbe0bbfd5	-0.13647397
47	0xbf52ade6	-0.822966
48	0x3d1f945c	0.038959846
49	0xbef29cc5	-0.4738523
50	0x3e1b6383	0.1517468
51	0xbf2a0836	-0.6641878
52	0x3eadd01d	0.3394784
53	0x3d9464eb	0.07245811
54	0x3db903c7	0.090339236
55	0x3e928c71	0.28622773
56	0xbf342245	-0.7036479
57	0x3e65d29b	0.22443621
58	0x3eefbeba	0.468252
59	0x3db05aec	0.08611092
60	0xbf3a60e2	-0.7280408
61	0x3e83e423	0.25759992
62	0xbe27d7d9	-0.16390933
63	0xbee942cd	-0.45558777
64	0xbba7e149	-0.0051232916
65	0x3f4f8cc8	0.8107419
66	0x3ed9c503	0.4253312
67	0x3feb1888	1.8366861
68	0x3e506a41	0.20353033
69	0xbf9dcc5e	-1.2327993
70	0xbc564577	-0.013078085
71	0x3ecb67a5	0.39727512
72	0xbccb7618	-0.024836585
73	0xbd4b3e4e	-0.049619965
74	0xbf2bf53c	-0.6717107
75	0xbe8273ae	-0.25478882
76	0xbdeddc01	-0.11614228
77	0x3dfb6b20	0.12276292
78	0x3e41db90	0.18931413
79	0xbcd491d5	-0.025948444
80	0xbf681a94	-0.90665555
81	0xbfea8141	-1.8320695
82	0xbf064329	-0.5244623
83	0x3e996dc9	0.29966572
84	0xbe60253c	-0.21889204
85	0xbf85bb1d	-1.0447727
86	0xbeaab944	-0.3334447
87	0xbfdc4ea2	-1.7211497
88	0xbd6fb6cb	-0.058523934
89	0x3e7ddfd7	0.2479242
90	0xbe151566	-0.14558944
91	0xbf100c09	-0.56268364
92	0xbf7a5173	-0.9778053
93	0xbefe5246	-0.49672145
94	0xbea7c778	-0.3276937
95	0xbfbd5b40	-1.4793472
96	0x3f4f3a1d	0.8094805
97	0xbe9d4383	-0.3071557
98	0x3f0392e6	0.51396024
99	0xbebd801c	-0.37011802
100	0xbf8f9440	-1.1217117
101	0xbf21dfa5	-0.6323188
102	0xbf17a124	-0.59230256
103	0xbf6f8445	-0.935612
104	0x3fd58f27	1.6684312
105	0x3ef94e08	0.48692346
106	0x3f5cdd6d	0.8627537
107	0x3e8a470b	0.27007326
108	0xbfa40018	-1.2812529
109	0xbfa8ea7f	-1.3196563
110	0xbfc6ec74	-1.554091
111	0xbe8f420e	-0.27980083
112	0xbfa9a5ba	-1.3253701
113	0xbe1424b0	-0.1446712
114	0x3e69ff0e	0.22851202
115	0xbef0794b	-0.4696754
116	0x3ed8d445	0.4234945
117	0xbfced075	-1.6157366
118	0xbf862066	-1.0478637
119	0xbfb8d5d4	-1.4440255
120	0xbfb07c52	-1.378794
121	0x3e2b6f22	0.16741613
122	0x3d9b55bd	0.07584713
123	0xbfa5fb3f	-1.2967299
124	0xbfac2804	-1.3449712
125	0xbf365714	-0.7122662
126	0xbf2e27de	-0.6802958
127	0xbfe73af8	-1.8064871
128	0xbf284962	-0.65736973
129	0x3eac02be	0.33595842
130	0x3f90731d	1.128513
131	0xbf2142dd	-0.6299265
132	0xbf51ed9c	-0.8200319
133	0x3ead7004	0.33874524
134	0xbd76ed56	-0.060284935
135	0xbf8669f4	-1.0501084
136	0x3eb0197a	0.34394437
137	0x3f8c7949	1.0974513
138	0xbf8bf9c4	-1.0935597
139	0x3ed0814f	0.40723655
140	0xc00eedfa	-2.233275
141	0xbfa14441	-1.2598954
142	0xc0017551	-2.0227854
143	0xc0033cfa	-2.0505967
144	0xbe93ba0b	-0.28852877
145	0xbf15ad76	-0.58467805
146	0x3dc663b8	0.096869886
147	0xbf59a747	-0.8502087
148	0xbbaa41ca	-0.005195831
149	0xc0a29cda	-5.081647
150	0x3ed75ec5	0.4206449
151	0xbf2edd0e	-0.6830605
152	0xbedd27d4	-0.4319445
153	0x3e95c6fd	0.2925338
154	0x3ec24dde	0.37950033
155	0x3f1216cc	0.57066035
156	0xbb251b3b	-0.0025193233
157	0x3eb7b703	0.35881814
158	0xbdc7cd88	-0.09755999
159	0x3e3fd288	0.18732655
160	0x3d1f6566	0.03891506
161	0x3f305b15	0.6888898
162	0xbf0273ef	-0.5095815
163	0x3da83a44	0.08214238
164	0x3e466d4b	0.1937763
165	0xbe0edfdb	-0.13952582
166	0x3eb9f7a6	0.36321753
167	0x3e9de4d9	0.3083866
168	0xbe7a1780	-0.24423027
169	0xbf46643a	-0.77496684
170	0x3ec6d299	0.38832548
171	0x3f0610f3	0.5236961
172	0xbe9c924e	-0.30580372
173	0x3f20732b	0.6267573
174	0x3ec51603	0.38493356
175	0x3e63c8d1	0.22244574
176	0xbdd5b72d	-0.10435329
177	0xbdf81ffe	-0.12115477
178	0x3d721278	0.059099644
179	0xbec01879	-0.3751867
180	0x3f301c88	0.68793535
181	0xbec6ed02	-0.38852698
182	0x3da89e20	0.08233285
183	0x3ec1dc97	0.3786361
184	0x3e9a123a	0.3009203
185	0x3e570bce	0.21000597
186	0xbf91ef01	-1.1401063
187	0xbf028bb2	-0.5099441
188	0x3f0fda09	0.5619207
189	0x3d91fc2c	0.07128176
190	0x3f2d5a20	0.67715645
191	0xbe3420cf	-0.1759064
192	0x3e617319	0.22016563
193	0x3dbe1904	0.09282115
194	0x3e5f064c	0.21779746
195	0x3dd4e8f1	0.103959925
196	0xbda4ffe1	-0.080566175
197	0x3f1bf9b1	0.60927874
198	0xbefbd4bf	-0.4918575
199	0xbcc63fbf	-0.024200318
200	0x3e4bfc83	0.19920544
201	0x3eb0a10d	0.34497872
202	0xbf330212	-0.69925034
203	0x3efadc9a	0.4899643
204	0xbf656020	-0.895998
205	0xbf242163	-0.64113444
206	0x3dbe72f6	0.09299271
207	0x3e26d85f	0.16293477
208	0x3ed4e4b1	0.41580728
209	0x3f9f4242	1.2442095
210	0xbce630e7	-0.02809949
211	0xbf5c685a	-0.8609673
212	0xbf222f48	-0.63353395
213	0x3ef182a7	0.47169992
214	0xbfa24cbc	-1.2679667
215	0x3eea9244	0.45814717
216	0x3f66064b	0.8985335
217	0xbf16bef3	-0.58885115
218	0xbe1f55aa	-0.15560022
219	0xbf54837d	-0.83013135
220	0xbeb79db8	-0.35862517
221	0xbe65e03d	-0.22448821
222	0x3f075e12	0.52877915
223	0xbf1c4145	-0.61037093
224	0xbef979da	-0.48725778
225	0xbfe10afa	-1.7581475
226	0x3e10fb1b	0.14158289
227	0x3f209b53	0.62737006
228	0xbf44cc8f	-0.7687463
229	0x3ed2c818	0.41168284
230	0xbda1dc5f	-0.079033606
231	0xbfb430d4	-1.4077401
232	0x3d3081b4	0.043092445
233	0x3f626a95	0.8844388
234	0xbec4858a	-0.38383132
235	0xbf7c8e54	-0.98654675
236	0x3e7a08f3	0.24417476
237	0xbe6e3339	-0.23261727
238	0x3ebaf1d6	0.3651263
239	0xbfcebc7b	-1.615127
240	0x3c4989bb	0.012300904
241	0xbf34f26e	-0.7068242
242	0xbee62723	-0.44951734
243	0x3f0f862b	0.560641
244	0xbead2244	-0.33815205
245	0x3f02da25	0.5111411
246	0xbfcb8e2d	-1.5902764
247	0x3c69796e	0.0142501425
248	0x3eb69634	0.3566147
249	0xbdc8f206	-0.09811787
250	0xbf543943	-0.82899874
251	0xbe988059	-0.29785421
252	0x3f3f7683	0.7479021
253	0xbfbbf7d5	-1.4685007
254	0xbf84286b	-1.0324835
255	0x3f3f9d6f	0.748496

head.0.bias f4 [128]
0	0xbf2774e8	-0.6541276
1	0xbe2825b7	-0.16420637
2	0xbf5c2ea4	-0.8600867
3	0xbf2719ab	-0.6527354
4	0xbf3c9d41	-0.7367745
5	0x3e989fdf	0.29809472
6	0xbe2a270a	-0.16616455
7	0xbe8aaef0	-0.27086592
8	0xbead4043	-0.3383809
9	0xbeee8ea0	-0.4659319
10	0xbe9c768d	-0.30559197
11	0xbf93ada7	-1.153737
12	0x3e597030	0.21234202
13	0xbf154d33	-0.5832092
14	0xbf69897f	-0.9122543
15	0xbfa76962	-1.3079035
16	0x3da59f71	0.08087052
17	0xbf609dc8	-0.87740755
18	0xbef84153	-0.48487338
19	0xbf1cbf80	-0.61229706
20	0xbf81d8d8	-1.01443
21	0xbf55bc09	-0.83490044
22	0xbd5ffc8b	-0.054684203
23	0xbf6db8f5	-0.9286035
24	0xbea40dca	-0.3204177
25	0xbf5e64e3	-0.8687269
26	0xbf5c5d4b	-0.86079854
27	0xbf3a3d97	-0.7275023
28	0xbe500b1d	-0.2031674
29	0xbf84d048	-1.0376062
30	0xbf59f8ff	-0.8514556
31	0xbf87130b	-1.0552686
32	0xbf142afc	-0.5787809
33	0xbf81ad21	-1.013096
34	0x3ec6a878	0.38800406
35	0x3ee5dec8	0.4489653
36	0xbf3a95a6	-0.72884595
37	0xbde7fc2b	-0.11327394
38	0xbf9a3b62	-1.2049372
39	0xbf873cb5	-1.0565401
40	0xbf2a6fc2	-0.6657678
41	0xbed41d0c	-0.4142841
42	0xbe9c96c9	-0.3058379
43	0xbf3c5aac	-0.73575854
44	0xbfc91850	-1.5710545
45	0xbf5418f6	-0.8285059
46	0xbf58bbaf	-0.8466138
47	0xbf305a57	-0.6888785
48	0xbf84f315	-1.0386683
49	0xbedc0ef8	-0.4298017
50	0xbef82593	-0.48466167
51	0xbe270483	-0.16310315
52	0xbdb8c8fb	-0.09022709
53	0xbf95e39f	-1.171009
54	0xbf468222	-0.77542317
55	0xbf6eece9	-0.93330246
56	0xbf24c65b	-0.64365166
57	0xbf7d583f	-0.9896278
58	0xbfa8db70	-1.3191967
59	0xbe56c415	-0.20973237
60	0xbdd930f0	-0.10605037
61	0xbf01aef2	-0.5065757
62	0xbf3f2888	-0.7467122
63	0xbeef98a8	-0.46796155
64	0xbf4a1188	-0.78933
65	0xbf64f332	-0.89433587
66	0xbf4ba005	-0.79541045
67	0xbf1b69b2	-0.60708153
68	0xbf5ba15f	-0.8579311
69	0xbf20d9b9	-0.6283222
70	0xbea48efa	-0.32140332
71	0xbf0310e0	-0.51197624
72	0xbf8303b1	-1.0235502
73	0xbe991e9e	-0.29906172
74	0xbf2ed4a5	-0.6829322
75	0x3e4fe6d7	0.20302902
76	0xbeaa4344	-0.33254445
77	0xbf36faa4	-0.714762
78	0xbfb6f9c6	-1.4294975
79	0xbde40bb3	-0.11135044
80	0xbf245427	-0.64190906
81	0xbee2ea00	-0.44319153
82	0xbf36adb9	-0.7135883
83	0xbee86254	-0.45387518
84	0xbec5d5aa	-0.38639575
85	0xbebda040	-0.37036324
86	0xbce5202d	-0.027969444
87	0x3aeeb6b1	0.0018212405
88	0xbf67f38f	-0.90606016
89	0xbf716a9a	-0.94303286
90	0xbf26f981	-0.6522446
91	0xbf540c59	-0.8283134
92	0xbea2e3f9	-0.31814554
93	0xbf7c223a	-0.98489726
94	0xbeeca69d	-0.46220866
95	0xbd8caddf	-0.06869101
96	0xbf17f299	-0.5935455
97	0xbf284918	-0.6573653
98	0xbfaf0553	-1.36735
99	0xbf6e74ed	-0.93147165
100	0xbf8df65b	-1.1090807
101	0xbfa20994	-1.2659173
102	0xbf20c006	-0.62793005
103	0xbf831d2a	-1.0243275
104	0xbe20be7f	-0.15697668
105	0xbeb31760	-0.3497877
106	0xbecc39d0	-0.39887857
107	0xbfa3f803	-1.2810062
108	0xbf1f0083	-0.62110156
109	0xbf6e424f	-0.9306993
110	0xbf890d8f	-1.0707263
111	0xbf6ebabf	-0.932537
112	0xbe6cf5f6	-0.23140702
113	0xbebf9655	-0.37419382
114	0xbf984e16	-1.189883
115	0xbf1ce061	-0.61279875
116	0xbf55f281	-0.83573157
117	0xbd355a25	-0.04427542
118	0xbf7c06c4	-0.98447824
119	0xbf808e3e	-1.0043409
120	0xbe9ad954	-0.30243933
121	0xbf1c12e9	-0.60966355
122	0xbf34fcb2	-0.7069808
123	0xbf21e50a	-0.6324011
124	0xbf52133a	-0.8206059
125	0xbead72d5	-0.33876672
126	0xbfaf330f	-1.3687457
127	0xbf673cea	-0.9032732

head.2.weight f4 [128, 128]
0	0xbf240a22	-0.6407796
1	0x3ce85abc	0.028363578
2	0xbea0f261	-0.3143492
3	0x3dc67f4a	0.09692247
4	0x3ed8a5bb	0.42313942
5	0xbed08abe	-0.40730852
6	0xbe44bd3d	-0.19212814
7	0x3d555946	0.05208709
8	0xbec3bb43	-0.38228807
9	0x3ed17cbe	0.40915483
10	0x3f2fb98a	0.68642485
11	0x3fa22f5c	1.2670703
12	0x3e348eb2	0.17632559
13	0xbf28af26	-0.65892255
14	0xbe34a88a	-0.17642418
15	0xbc6b0633	-0.01434474
16	0x3f4a750f	0.7908487
17	0xbeab3b57	-0.3344371
18	0xbc05a1c5	-0.008156245
19	0xbf61cb67	-0.8820099
20	0xbf32015d	-0.6953333
21	0x3f413eec	0.75486636
22	0x3f8e7171	1.112837
23	0x3f69b6e1	0.91294676
24	0x3d669a3b	0.05629943
25	0xbfc7ca91	-1.5608693
26	0xbf4beb4b	-0.79655904
27	0xbf01b815	-0.5067151
28	0xbe79711e	-0.24359557
29	0xbfff33c6	-1.9937675
30	0xbe8ffad3	-0.2812105
31	0xbd4e1164	-0.050309554
32	0x3ed63bbd	0.41842452
33	0x3e2ac8e2	0.16678193
34	0x3d48ffbb	0.04907201
35	0xbf0fe8a5	-0.5621436
36	0xbed12be9	-0.40853813
37	0x3c18bf67	0.009322978
38	0xbf1a91b6	-0.6037859
39	0xbd8861b5	-0.06659261
40	0xbf10e54a	-0.5659987
41	0xbc2fd871	-0.010732756
42	0x3f17c6a4	0.59287477
43	0xbf858418	-1.0430937
44	0xbf3687c0	-0.7130089
45	0xbd37d67f	-0.044882294
46	0xbf621084	-0.8830645
47	0xbecaf459	-0.39639547
48	0xbf3bcb2c	-0.7335689
49	0x3f1f406c	0.62207675
50	0xbec698ed	-0.38788548
51	0x3e3539e9	0.17697872
52	0x3e90d2e3	0.28285894
53	0xbea5e915	-0.3240439
54	0xbe68d314	-0.2273677
55	0x3e894b82	0.2681542
56	0xbf5ff861	-0.8748837
57	0x3e3b46f1	0.18288781
58	0xbf8bcc5f	-1.0921744
59	0xbe03dbc4	-0.12876803
60	0x3ea55063	0.32287893
61	0xbe72c4d7	-0.23707901
62	0xbf946912	-1.1594565
63	0x3f072cc9	0.5280271
64	0xbfd69fb0	-1.6767483
65	0x3f5c945c	0.8616388
66	0x3f06c168	0.52638865
67	0xbf828d83	-1.0199436
68	0xbf21b15e	-0.63161266
69	0x3f577b20	0.8417225
70	0x401927d9	2.393057
71	0xbdecede0	-0.115688086
72	0xbf85f480	-1.046524
73	0x3daa2892	0.083085194
74	0xbf3e1618	-0.7425246
75	0x4043b857	3.0581262
76	0xbede5126	-0.43421286
77	0x3fd97987	1.6990212
78	0xbf903393	-1.1265739
79	0xbe6b392d	-0.2297103
80	0xbea5cdf5	-0.32383695
81	0x3e776bab	0.24162166
82	0xbf79c6d4	-0.9756901
83	0xbf07d09b	-0.5305268
84	0xbee55317	-0.44789955
85	0x3fe32452	1.7745459
86	0xbed23d98	-0.41062617
87	0x3e507b1a	0.2035946
88	0xbf9a8984	-1.2073216
89	0xc017a9ff	-2.3697507
90	0xbf8aff38	-1.0859137
91	0xbf285bcf	-0.6576509
92	0x3d22f51c	0.039784536
93	0x3dcd715f	0.100313894
94	0xbec71215	-0.38880983
95	0xbf4afc04	-0.79290795
96	0xbfdf5414	-1.7447534
97	0x3f3337d1	0.70007044
98	0xbe2c5f2d	-0.16833182
99	0xbf5e706b	-0.86890286
100	0xbf6da416	-0.928285
101	0x3d3b66cf	0.045752343
102	0xbef0fc71	-0.47067598
103	0xbfa2a545	-1.2706686
104	0xbf20834b	-0.6270034
105	0x3e6e7ebe	0.23290536
106	0xbe8ba00c	-0.27270544
107	0xbf6346c8	-0.8877988
108	0xbf84ae74	-1.0365739
109	0x3ed8266c	0.42216814
110	0xbe0623cf	-0.13099597
111	0x3db20a31	0.0869335
112	0x3dfacff2	0.12246694
113	0xbf462220	-0.7739582
114	0xbf7a7a31	-0.978427
115	0x3f5e98c0	0.8695183
116	0x3e229869	0.15878452
117	0xbedda1ce	-0.4328751
118	0xbfe18fe4	-1.7622037
119	0x3c877476	0.016535025
120	0xbeac4293	-0.33644542
121	0xbee1acc6	-0.44077128
122	0x3f17c589	0.5928579
123	0x3fa3901e	1.2778356
124	0xbe85317e	-0.26014322
125	0xbf05efe4	-0.5231917
126	0xbfeab464	-1.8336301
127	0xbe4aadc2	-0.19792846
128	0x3d739c0f	0.059475
129	0xbf0bf3fb	-0.5466916
130	0xbe05808d	-0.1303732
131	0xbe3fa9a7	-0.18717061
132	0xbf37c3e2	-0.7178327
133	0xbdd8890f	-0.10573017
134	0x3e6e41e3	0.23267321
135	0x3d9f130c	0.07767305
136	0xbee81c84	-0.45334256
137	0xbd495433	-0.049152564
138	0xbe087df5	-0.13329299
139	0xc0092225	-2.142709
140	0x3df2901b	0.11843892
141	0xbef2fd12	-0.47458702
142	0xbe9f29c1	-0.31086543
143	0xbf438fde	-0.763914
144	0x3f28fae4	0.6600783
145	0x3ec611ff	0.38685605
146	0xbca00528	-0.019533709
147	0x3eb0fea8	0.34569287
148	0xbe11546b	-0.14192359
149	0xbf17c4d2	-0.592847
150	0xbf5afa1a	-0.85537875
151	0xbf8b6edf	-1.089321
152	0x3dd57fba	0.104247525
153	0x3f122d00	0.57099915
154	0xbf087c96	-0.53315103
155	0xbe9e02b0	-0.30861425
156	0x3ddc70bc	0.1076369
157	0xbe841ab6	-0.2580163
158	0xbf070eb8	-0.52756834
159	0xbed9a6de	-0.42510122
160	0x3f60f11c	0.87867904
161	0x3e82fb01	0.25582126
162	0xbe8fb1bc	-0.28065288
163	0xbf504267	-0.8135132
164	0xc0029df0	-2.0408897
165	0xbf16c9b8	-0.5890155
166	0xbc845c59	-0.016157316
167	0xbdef33d9	-0.11679811
168	0x3ecae9a9	0.39631394
169	0x3d0636c9	0.03276709
170	0xbfb7b88c	-1.4353194
171	0xbded498a	-0.11586292
172	0xbfaee9bf	-1.3665084
173	0xbd842b53	-0.06453576
174	0x3ee5e9cf	0.44904944
175	0x3f73823a	0.95120585
176	0xbe279b66	-0.16367874
177	0xbf2dd869	-0.6790834
178	0xbf7c560d	-0.98568803
179	0xbdd6dbab	-0.10491117
180	0xbe4390cd	-0.19098206
181	0xbf16fbad	-0.58977777
182	0xbf02707e	-0.509529
183	0xbd1871ba	-0.037217833
184	0xbe5c43c4	-0.21510226
185	0x3e1bf5d3	0.15230493
186	0x3ec9abf7	0.3938901
187	0xbdbaab68	-0.091147244
188	0xbdbab8ee	-0.09117304
189	0x3e058e32	0.13042524
190	0x3f4e9c8d	0.8070763
191	0x3e979eca	0.29613334
192	0xbf6d762f	-0.9275846
193	0x3eb44a33	0.3521286
194	0x3ec805ac	0.39066827
195	0xbf97aed6	-1.1850231
196	0x3ea610ea	0.3243478
197	0x3f098f38	0.5373416
198	0xbde83539	-0.113382764
199	0xbfa54bf7	-1.2913808
200	0xbfdf8d6f	-1.7465037
201	0x3d769ee1	0.060210112
202	0x3e85fc9d	0.2616929
203	0xbfa9f814	-1.3278832
204	0xbf807e34	-1.0038514
205	0xc013e135	-2.3106205
206	0xbdd4c8e2	-0.10389878
207	0x3c8ac74e	0.016940739
208	0xbe8d9810	-0.27655077
209	0xbc18177f	-0.009282946
210	0xbf1c6024	-0.610842
211	0x3e51f05b	0.20501845
212	0xbe8b217c	-0.27173984
213	0xbe208c94	-0.15678626
214	0x3e2e9794	0.1705001
215	0xbe2780d2	-0.16357735
216	0xbf04e374	-0.51909566
217	0xbe307f84	-0.17236143
218	0x3f2fce8f	0.6867456
219	0x3e882f59	0.26598623
220	0xbf8e7f8c	-1.1132674
221	0x3e4291ab	0.1900088
222	0xbebc9830	-0.3683486
223	0xbf41f852	-0.7576953
224	0xbdc02a2b	-0.09383043
225	0xbe1519e8	-0.14560664
226	0xbeaabc89	-0.33346966
227	0xbd3e8879	-0.04651687
228	0xbf1aab67	-0.6041779
229	0xbf600c65	-0.8751891
230	0x3da211f3	0.0791358
231	0xbf3492b3	-0.70536345
232	0xbfb25089	-1.3930827
233	0x3efd5637	0.4947984
234	0x3e12b13b	0.1432542
235	0x3eb7bd89	0.3588679
236	0xbf3b3bdd	-0.7313822
237	0x3e376bf7	0.17912279
238	0x3f1e59ee	0.6185597
239	0x3f498270	0.78714657
240	0xbebc5a55	-0.36787668
241	0x3f538c2c	0.8263576
242	0x3f8d10e9	1.1020786
243	0xbd7b52fb	-0.061358433
244	0x3da9cbdf	0.082908385
245	0xc01ba803	-2.4321296
246	0xbe3cb0c5	-0.18426807
247	0x3edbb96d	0.42914906
248	0x3f194682	0.5987321
249	0xbe66826e	-0.22510692
250	0x3e7cf560	0.24702978
251	0xbfb18c0f	-1.3870867
252	0xbd188172	-0.037232824
253	0xbdda6283	-0.10663321
254	0xc017e37f	-2.3732603
255	0x3e2508b9	0.16116609

head.2.bias f4 [128]
0	0xbe8cddd1	-0.27512982
1	0xbc0f63bc	-0.008751806
2	0xbff292ee	-1.8951089
3	0xc0071130	-2.110424
4	0xbd27776e	-0.04088538
5	0xbf94910f	-1.1606768
6	0xbf877b49	-1.0584499
7	0x3dac2833	0.08406105
8	0xbf8b8c75	-1.0902239
9	0xbf8aff52	-1.0859168
10	0xbf867e4e	-1.0507295
11	0xbf89da86	-1.0769813
12	0xbf6bcbe4	-0.9210799
13	0x3e76ca1f	0.2410054
14	0xbf9544e7	-1.1661652
15	0xbecfcf40	-0.40587807
16	0xbeb22ada	-0.34798318
17	0xbf3740fc	-0.71583533
18	0xbefe542a	-0.49673587
19	0xbfa76726	-1.3078353
20	0x3ee92b75	0.45540968
21	0xbfa29325	-1.2701155
22	0xbf042ad0	-0.51627827
23	0xbfaf4084	-1.3691564
24	0xbfcd021c	-1.6016269
25	0xbfa5118e	-1.2895982
26	0xbe02d7fe	-0.12777707
27	0xbf8430f8	-1.0327444
28	0xbf8df48d	-1.1090256
29	0xbfa0708a	-1.2534344
30	0xbf494867	-0.786261
31	0xbf793a7b	-0.9735486
32	0xbf8918cf	-1.0710696
33	0xbf57f150	-0.8435259
34	0xbfabd088	-1.3423014
35	0xbfa87b6f	-1.3162669
36	0xbf650b4c	-0.8947036
37	0xc0025a37	-2.0367563
38	0xbd487110	-0.04893595
39	0xbf61b133	-0.8816101
40	0x3f83f9df	1.031063
41	0x3d750b00	0.059824944
42	0xbea6294e	-0.32453388
43	0xbfa7985f	-1.3093375
44	0xbf99c11a	-1.2012055
45	0x3f2f4e31	0.68478686
46	0x3eadfbf5	0.3398129
47	0xbf7a97ed	-0.9788807
48	0xbf459a1e	-0.7718829
49	0xbff45a53	-1.9090065
50	0xbf93b951	-1.1540929
51	0xbf82fe2a	-1.0233815
52	0xc0009562	-2.0091176
53	0xbfd021ae	-1.6260278
54	0xbfa3d5db	-1.2799639
55	0xbf651630	-0.8948698
56	0xbfb96659	-1.4484359
57	0xbeb37afd	-0.3505477
58	0xbd44e5e5	-0.048070807
59	0xbf134ee7	-0.5754227
60	0xbfb5760c	-1.417665
61	0x3dc5e794	0.09663311
62	0xbf523cea	-0.821242
63	0xbfd74abe	-1.6819685
64	0xbdc909ed	-0.09816346
65	0xbf2059b4	-0.62636876
66	0xbf625d5c	-0.88423705
67	0xbf340cb3	-0.7033188
68	0xbf79b7f5	-0.9754632
69	0xbf1a6a02	-0.60318005
70	0xbf3e0da7	-0.7423958
71	0xbfae4488	-1.3614664
72	0xc01068ff	-2.2564085
73	0xbfd0af30	-1.6303463
74	0xbf8e6ecd	-1.1127564
75	0xbf77834e	-0.9668473
76	0xbec49379	-0.38393763
77	0xbfaa9427	-1.3326463
78	0xbf7c14ff	-0.9846954
79	0xbf048922	-0.5177175
80	0xbfa526c5	-1.2902457
81	0xbf5ef6bd	-0.8709524
82	0xbf6e5e38	-0.93112516
83	0xbfde2280	-1.7354279
84	0xbf8c37f5	-1.0954577
85	0xbfaff370	-1.3746166
86	0xbfbd8ea5	-1.4809157
87	0xbf1243c0	-0.5713463
88	0xbf8d786e	-1.1052377
89	0xbe2ee819	-0.17080726
90	0xbefd5503	-0.4947892
91	0xbf8c6607	-1.0968636
92	0xbfa85d64	-1.31535
93	0xc002d49e	-2.0442271
94	0xbfbdb17c	-1.4819789
95	0xbf973253	-1.1812233
96	0xbf7ae104	-0.97999597
97	0x3f12212d	0.5708187
98	0xbf8b8c05	-1.0902106
99	0xbf9391db	-1.1528887
100	0xbfa8a242	-1.3174517
101	0xbf668933	-0.900531
102	0xbdc9086a	-0.09816058
103	0xbf8dc228	-1.1074877
104	0xbdaa284d	-0.08308468
105	0xbfa177b8	-1.261466
106	0xbf3e5a47	-0.743565
107	0xbf9fece1	-1.2494165
108	0xbf8d6572	-1.1046584
109	0xbfb9e1d9	-1.4522048
110	0xbf50a40f	-0.81500334
111	0xbe7c7b7c	-0.2465648
112	0xbf97b6d4	-1.185267
113	0xbffeb9ef	-1.9900492
114	0xbf85985b	-1.043712
115	0xbf50570a	-0.8138281
116	0x3e8496bd	0.25896254
117	0x3dd69756	0.10478084
118	0xbf93bb6f	-1.1541575
119	0xbf1edf85	-0.62059814
120	0x3f2c5194	0.6731198
121	0xbd20f73f	-0.039298292
122	0xbf9cbb23	-1.224461
123	0xbf680430	-0.9063139
124	0xbf819568	-1.012372
125	0xbfba31c2	-1.4546435
126	0xbfa83572	-1.314131
127	0xbf523772	-0.8211585

head.4.weight f4 [144, 128]
0	0xbf70bee4	-0.94041276
1	0x3fc735b6	1.5563266
2	0x3f4bb0a5	0.79566413
3	0x3ff112f7	1.8833913
4	0x3f9e5ed9	1.2372695
5	0xbf9bb5d9	-1.216487
6	0x3fd8986e	1.6921518
7	0xbf2662b1	-0.6499434
8	0x40180bb5	2.3757145
9	0x3fc9ec86	1.5775306
10	0x3fec0198	1.8437986
11	0x404457f0	3.0678673
12	0xbf11f669	-0.5701662
13	0x3ff278a0	1.8943062
14	0x40306699	2.756262
15	0x3fd771be	1.6831586
16	0x3fac960b	1.348329
17	0x3f897dc0	1.0741501
18	0x3f341b80	0.7035446
19	0x3fa8ec09	1.3197032
20	0x402b5fb9	2.6777174
21	0x3f6b6feb	0.9196765
22	0x403af795	2.9213612
23	0x3f512319	0.8169418
24	0x3fe30eea	1.7738926
25	0x4015e63a	2.342177
26	0x40a492c1	5.1429143
27	0x3fe94446	1.822396
28	0xbd89d99e	-0.0673096
29	0x3fc4728c	1.5347457
30	0x3f9b4aba	1.213218
31	0x3fc40b88	1.5316019
32	0x406e6bd1	3.7253306
33	0xbee1645a	-0.44021875
34	0x3fd97598	1.6989012
35	0x3df656aa	0.120282486
36	0x4031c3fa	2.7775865
37	0x3ff2d546	1.8971336
38	0x40289141	2.6338656
39	0x3fa2e022	1.272465
40	0x405ac66a	3.4183602
41	0x40252333	2.5802734
42	0x406c60e5	3.693414
43	0x4085403a	4.16409
44	0x3f73239e	0.9497622
45	0x406d3898	3.7065792
46	0x40032bd1	2.0495493
47	0x3fbc5b7f	1.4715422
48	0x3f2e12a6	0.67997205
49	0x3f0b39b1	0.54384905
50	0x40087300	2.132019
51	0x3fadbc5f	1.3573111
52	0x3f3e11b6	0.74245775
53	0x3fd7662d	1.6828057
54	0x3f7f3a50	0.9969835
55	0x3fe7eb93	1.8118767
56	0x3f565a6c	0.8373172
57	0x3ff7ed4b	1.9369291
58	0x3fef2020	1.8681679
59	0x400af39a	2.1711183
60	0x3f2e32b4	0.68046117
61	0xc092a24b	-4.582311
62	0x3fd5eb5a	1.6712449
63	0x402c42ca	2.6915765
64	0x4011ebec	2.2800245
65	0x3fa77ac7	1.3084344
66	0x4089bc18	4.3042107
67	0x3f2f5000	0.68481445
68	0x3fa6fce1	1.3045923
69	0x4026cd3e	2.606277
70	0x3fe497b9	1.7858802
71	0x3f78437b	0.9697797
72	0x3ec55340	0.38540077
73	0x3fc6e335	1.5538088
74	0x4020b971	2.5113184
75	0x3f2d52fc	0.6770475
76	0xbd8724df	-0.065988295
77	0x3ff40365	1.9063536
78	0x3f900f30	1.1254635
79	0xbf0d1666	-0.551123
80	0x3f954b8a	1.1663678
81	0x3fbd9994	1.4812493
82	0x3f5771f8	0.8415828
83	0x4065e07c	3.5918264
84	0x405850f7	3.3799417
85	0x3fb420c1	1.4072496
86	0x40f43c78	7.6323814
87	0x400f7903	2.241761
88	0x3f634909	0.8878332
89	0xbd853653	-0.06504502
90	0x3fd79d3b	1.6844858
91	0x3fb42956	1.4075115
92	0xbe1bfe03	-0.15233617
93	0x3f77c98b	0.96791905
94	0x3eeb1be4	0.45919716
95	0x402fafa6	2.7450957
96	0x3fc33a6a	1.5252202
97	0x3f98d633	1.1940368
98	0x3f382751	0.7193499
99	0xbfed3393	-1.8531364
100	0x3f3129f2	0.6920463
101	0x4050a0df	3.2598188
102	0x3fe70a9a	1.805011
103	0x3f99d52c	1.201818
104	0x402a7c52	2.663838
105	0x3f5f16ae	0.8714398
106	0x3fb3e43a	1.4054024
107	0x400989f1	2.1490443
108	0xbeed69b9	-0.46369722
109	0x4004dba0	2.0759048
110	0x3ebe572f	0.3717589
111	0x40716c8e	3.7722507
112	0x3f81c79e	1.0139043
113	0x40474f6a	3.114222
114	0x4069a0ce	3.6504397
115	0x3f7b1bdf	0.980894
116	0x403ab451	2.9172556
117	0x3f28a7d1	0.6588107
118	0x3f8e4ee0	1.1117821
119	0x3f587927	0.84559864
120	0xbec49ca5	-0.3840076
121	0xbe74a427	-0.23890744
122	0xbefef6fc	-0.4979781
123	0xbd96887d	-0.07350252
124	0xc002d49f	-2.0442274
125	0x3fa1dfe9	1.2646457
126	0xbf0fc6db	-0.56162804
127	0x403846ac	2.8793135
128	0x3e4e0bf2	0.20121744
129	0xbfd12484	-1.6339269
130	0x3f365322	0.712206
131	0x3ead33ac	0.33828485
132	0xbf6b89bc	-0.9200704
133	0x3f333226	0.69998395
134	0x3fb61ada	1.4226944
135	0x3f40e2ec	0.75346255
136	0x3da5ccbc	0.080956906
137	0x3d53327c	0.051561818
138	0xbf08260f	-0.5318307
139	0xbfa8c604	-1.318543
140	0x3fb41c88	1.4071207
141	0xbf31e188	-0.6948476
142	0xbf145b83	-0.57952136
143	0xbfe23001	-1.76709
144	0x3dbe4988	0.09291369
145	0x3f9e29ac	1.2356467
146	0x3ea1fceb	0.31638274
147	0xbf8cc723	-1.0998272
148	0xbfa4d634	-1.287787
149	0x3facf7c7	1.3513116
150	0x3f6276d5	0.88462573
151	0x3f48896f	0.7833471
152	0x3e8ba69b	0.27275547
153	0xbeca005c	-0.394534
154	0xbe0e2946	-0.13882932
155	0xbf662ffb	-0.8991696
156	0xbf2bda0b	-0.6712958
157	0xbf02c9ee	-0.5108937
158	0xbe7d69ce	-0.24747393
159	0x3df53f22	0.11974932
160	0xbef4a040	-0.4777851
161	0xbd922e9b	-0.071377955
162	0xbf0aa66b	-0.54160184
163	0x3fd9db01	1.701996
164	0xbff81363	-1.9380916
165	0xbfa6de0f	-1.3036517
166	0x3fbacb9a	1.4593384
167	0xbda20a4f	-0.079121225
168	0xc027541c	-2.6145086
169	0xbf80cd69	-1.0062686
170	0x3f0d34f8	0.5515895
171	0xbefeb59f	-0.4974794
172	0x3ee788eb	0.45221648
173	0xc016b878	-2.355009
174	0x3d39e85b	0.045387607
175	0xbf56f237	-0.8396334
176	0xbfc93a66	-1.5720947
177	0x3f9ec44e	1.2403657
178	0xbf242183	-0.64113635
179	0xbf4b19aa	-0.79336035
180	0x3eb340fa	0.3501051
181	0xbf6c226c	-0.92240024
182	0x3f1f7c27	0.62298816
183	0xbfa9d854	-1.3269143
184	0x3f692ed7	0.91087097
185	0xbf98c035	-1.1933657
186	0x3f65986c	0.896857
187	0x3d31b2ee	0.04338353
188	0xbf674fc1	-0.9035607
189	0xbf14b811	-0.58093363
190	0x3f9386f3	1.1525558
191	0xbf033ce1	-0.5126477
192	0xbcb098d5	-0.021557251
193	0xbef2b7a9	-0.47405747
194	0xc0211401	-2.516846
195	0xbf7b662b	-0.9820277
196	0xbc5e41c6	-0.013565486
197	0xbf374622	-0.7159139
198	0x3dd27c87	0.10277658
199	0xbf14d5a9	-0.5813852
200	0x3f2ba387	0.670464
201	0xbe5c9132	-0.21539763
202	0xbf7886ce	-0.97080696
203	0x3f2b75ba	0.6697651
204	0xbfb40374	-1.4063554
205	0xbe1e4252	-0.15454987
206	0x3f416539	0.7554508
207	0x3eeab1dd	0.45838824
208	0xbf8ca4bb	-1.0987772
209	0x3f68f247	0.90994686
210	0xbeaa5593	-0.33268413
211	0xbf63f044	-0.8903849
212	0xc029dbf9	-2.654051
213	0xbe6cc1e4	-0.23120838
214	0xbfd87233	-1.6909851
215	0x3f00008c	0.50000834
216	0x3f9fcb06	1.2483833
217	0x3de9b6fe	0.11411856
218	0xbfb55be8	-1.4168673
219	0xbf95926d	-1.1685311
220	0xbf1641fe	-0.58694446
221	0x3fe46e83	1.7846226
222	0x3f2b4a37	0.6691012
223	0xbea17e2b	-0.3154157
224	0x3f530760	0.8243313
225	0xbfc69f30	-1.551733
226	0xbe667c06	-0.22508249
227	0x3ee728b1	0.45148233
228	0x3f774b02	0.9659883
229	0x3fe497fd	1.7858883
230	0xbf7fd159	-0.99928814
231	0x3efe168c	0.49626577
232	0xbe89675e	-0.26836675
233	0xbec13179	-0.37733057
234	0xbfd872a7	-1.6909989
235	0x3f1ca67d	0.6119154
236	0x3f58be90	0.84665775
237	0xbf96c208	-1.1777964
238	0x3eb52db7	0.3538644
239	0xbe70a26d	-0.2349946
240	0xbe97b39c	-0.2962922
241	0x400cd067	2.2002199
242	0xbf3f3909	-0.74696404
243	0xbf602c6c	-0.8756778
244	0xc0144a7f	-2.3170469
245	0xbf436544	-0.76326394
246	0xc007b518	-2.120428
247	0x3eb1501e	0.34631437
248	0xbef71b6f	-0.48263118
249	0xbffbff0d	-1.968721
250	0x3fa34f39	1.2758552
251	0xbfcfca63	-1.6233639
252	0x3dffc15d	0.12488053
253	0x3f8a319b	1.0796388
254	0x3f425243	0.7590677
255	0x3e0bad9c	0.13640445

head.4.bias f4 [144]
0	0x4081a9a3	4.0519576
1	0xc088a89c	-4.270582
2	0x40939648	4.612095
3	0x3be44132	0.0069657797
4	0x40e8f3dc	7.279768
5	0x40d71bd3	6.7221465
6	0x3d9928d5	0.07478491
7	0xc086c1f7	-4.2111773
8	0xc0858398	-4.1723137
9	0x41050cc1	8.315614
10	0x406dc495	3.7151234
11	0x400df0ab	2.2178142
12	0x40edd773	7.43255
13	0x3d90a54a	0.070627764
14	0x3f2fc240	0.68655777
15	0x411443cf	9.266555
16	0x3ef7b21c	0.48378074
17	0x3fdddfa8	1.733388
18	0xbff43fd5	-1.908198
19	0x40a11b74	5.034601
20	0x4020b68a	2.5111413
21	0xbfc17bce	-1.5115907
22	0x407fd146	3.997148
23	0x41100b99	9.002831
24	0x40b2804e	5.578162
25	0xc0a613d3	-5.18992
26	0x40e13501	7.03772
27	0x3ebba90c	0.3665241
28	0xbf85bfa0	-1.0449104
29	0xc048b01d	-3.135749
30	0x41101e9d	9.007474
31	0x3fd8032c	1.6875968
32	0x401026fc	2.2523794
33	0x3f8230b8	1.0171118
34	0x40c4b119	6.1466184
35	0xbf2ce403	-0.6753542
36	0xbfc953ec	-1.5728736
37	0x41057607	8.341315
38	0x40f64c3e	7.696807
39	0x40409a0c	3.0094023
40	0x406c0502	3.6878057
41	0x40ceb10e	6.459113
42	0x4008811d	2.1328804
43	0xc00aac60	-2.166771
44	0x4009f70f	2.1557043
45	0x40cbf51e	6.3736715
46	0xbff6a7bb	-1.9269937
47	0xbf916068	-1.1357546
48	0x411009f5	9.002431
49	0x4035e846	2.8423018
50	0x408af5ac	4.3424892
51	0xbfbbc4b7	-1.4669408
52	0x4103b1ca	8.230906
53	0x3fbf22ec	1.4932532
54	0xbfc7b328	-1.5601549
55	0x411dda3d	9.865781
56	0xbe91a84f	-0.28448722
57	0x40a9824c	5.2971554
58	0xbfa11fa5	-1.2587782
59	0x40cca50a	6.3951464
60	0xc00f5991	-2.2398417
61	0x4002ecae	2.0456958
62	0xbe7b30a5	-0.24530275
63	0x412ec7fa	10.923822
64	0x40cebdcf	6.46067
65	0xbf581c3e	-0.84418094
66	0x40cebb5c	6.460371
67	0xc02a807e	-2.6640925
68	0x41024409	8.14161
69	0xbf7647eb	-0.9620349
70	0x410f16e5	8.9430895
71	0x410d4320	8.828888
72	0x405556f6	3.3334327
73	0xbfea10a4	-1.8286328
74	0x409da5a9	4.926472
75	0xbfcc9cef	-1.5985392
76	0x409e82c0	4.9534607
77	0x40b29306	5.580447
78	0xc0694741	-3.644974
79	0xc042234d	-3.0334046
80	0xc0062900	-2.0962524
81	0x40cca599	6.3952146
82	0x404acbd6	3.1686912
83	0xc02ae133	-2.669995
84	0x408c3d4b	4.382482
85	0xc0313eeb	-2.7694652
86	0xc04ec20e	-3.2305942
87	0x40d51194	6.658396
88	0xc034a636	-2.8226447
89	0x408187e6	4.047839
90	0xbfd9327b	-1.696853
91	0x409e71f5	4.951411
92	0xc03d829b	-2.9610965
93	0xbffa6e36	-1.9564884
94	0xc03fe89a	-2.9985719
95	0x40e6bf34	7.21084
96	0x409bf675	4.873835
97	0xbf0ea689	-0.5572286
98	0x40b375f3	5.608148
99	0xbffc2e8e	-1.9701707
100	0xc026ea90	-2.6080666
101	0xc03620c8	-2.8457508
102	0x40e56448	7.1684914
103	0x3fcb1c71	1.5868055
104	0x3f8e7e75	1.1132342
105	0xc03578d8	-2.8355007
106	0x40c0b264	6.021776
107	0xc031a6b4	-2.7757998
108	0xbfe96796	-1.8234737
109	0x40bfb7a7	5.9911685
110	0x40d0bc44	6.5229816
111	0x40414c8c	3.020297
112	0xc04bd169	-3.1846564
113	0x40b199c0	5.5500183
114	0xc0033264	-2.0499506
115	0xc02d1ba5	-2.7048123
116	0x403715a2	2.8606954
117	0x40b49732	5.6434565
118	0xc00cc5a4	-2.199563
119	0xbfea4f6d	-1.8305489
120	0x40e4e8cd	7.153418
121	0x40730f4f	3.7978094
122	0x406dee99	3.7176878
123	0xbfec73fa	-1.8472893
124	0x4095b53a	4.6783724
125	0xbffd757f	-1.9801482
126	0xc0048824	-2.0708094
127	0x40f7f01c	7.74806
128	0xc04435a7	-3.0657747
129	0x408d459f	4.4147487
130	0xbf3ae2f3	-0.7300255
131	0x40be826e	5.9534216
132	0xbf7f46b2	-0.9971725
133	0xc00a284b	-2.1587093
134	0xc01db62d	-2.4642441
135	0x410ad609	8.677255
136	0x4069d33d	3.653518
137	0xc040ae73	-3.0106475
138	0x40ab3514	5.3502293
139	0xbf922c60	-1.1419792
140	0x40ea8c27	7.3296084
141	0xc020a4a3	-2.5100486
142	0x40e5f471	7.186089
143	0x40e8e79e	7.2782736
