script/logs/dome_held/model/final/target_critic.pth (torch, 187154 bytes, 12 tensors)

Q1.head.0.weight f4 [64, 144]
00000000: 3094 20be 7ebe 603e c430 96bf e4d6 fdbe
00000010: de68 33bd dfeb 45bf b709 883e a8a1 9c3d
00000020: a599 2f3f 8fe8 77bf 78e3 783e cfd3 8bbe
00000030: c032 15bf 6e37 36bf 1c8e 83be 6eb0 90bd
00000040: 5ca1 26bf 4b5b 8abe f8b9 9f3e 3504 b13d
00000050: c221 be3f 52d3 b0be 6638 47be dab4 5ebf
00000060: b027 2cbf ff7c 6a3e 5149 323f e42e a5be
00000070: cfd9 23bf 5cbf 103f ff4d d4bf e885 84bc
00000080: 592d 313e 7651 09bf 1a4a 62bf e3fe 00bf
00000090: c40a 823e e362 dbbf 5a39 07bf fa4e 74bf
000000a0: 4fb9 9a3f 3235 84bf 2080 05bf 007c c03e
000000b0: c24f 62bf 5a93 97be bcf0 8d3e 18b8 15bf
000000c0: 342f a4bd 3c7f 2dbe 6c85 69bf 9698 9fbe
000000d0: 6efe 2e3f 86b4 29bf d1c7 c23e 120e 1b3c
000000e0: 9690 e8be f2aa b5be 48c4 9f3e 5291 90be
000000f0: 3eb5 983e 6ad5 81bd e3c6 19bf 5531 80be
00000100: 1bab 51bf aa52 a8be e1c6 8cbf 7610 44be
00000110: 8488 1bbf 092c 8abe a180 40be a937 6fbf
00000120: d2fb 1e3f 251a a73e ace4 153f 5421 5fbc
00000130: c00a 84bf 9773 df3e e12d 84bd 370f 3fbd
00000140: 36fb 1a3f 9011 bcbf b71f 303f 647b 91be
00000150: 5d6f 82be d6ba 29bf 60ff 30be 02ff dbbf
00000160: 3634 a7bd e6c0 343e 10da a93e e491 933f
00000170: 16c7 b33f c6c8 e9be b246 9bbe e69e fdbf
00000180: f67d 813e 72ca 353e 527b f33f c4f4 28bf
00000190: 26cf 00bf 4ca9 e53e 9a89 a73e 886a 0f3f
000001a0: 8c99 4e3f 9bfc f9be 37d3 fbbd 3894 f7be
000001b0: e96c 543e afee 6fbf 2a71 b5bf 43af d3be
000001c0: 4835 993f 6ff1 4f3e cb1d b2be aaf0 873e
000001d0: 7683 febe 2f68 9b3f 2eff 843e 9c1b e3be
000001e0: 9534 c5bf 6a84 f93e dd50 003e 5516 05be
000001f0: 9cd3 e03e 101b 2ebf 56a2 a13e 01d2 9cbf
00000200: 4885 c5be edd1 a43e 2f42 0d3f d991 be3e
00000210: c1cf 683e ea2b 58bc c1c3 edbe 6c77 c5bf
00000220: 672a 27bc 9bbe 8f3d 2b34 813f e990 bc3e
00000230: 42d5 cebf 979a ecbd 2440 debf c49f 71be
00000240: e945 0ec0 2f21 37bf 8e1f 12bf 473d 6abf
00000250: e923 fc3f 8d9b 09be 61bb 25bf f95f 7ebd
00000260: a1ec f4bd 3e38 f0be 4784 4dbf d1d3 60bf
00000270: 0fe7 a6bd 3e58 ccbe 40ae 0abf adbd 10bf
00000280: 7053 87bf b0f0 05be b4b5 16bf 3229 35bf
00000290: d4b1 e9be e164 ecbe bfd4 30bf f139 4ac0
000002a0: 4932 a8bf d04b a33e c201 013f 6cac fabd
000002b0: 80e2 02bf 39cd 8c3c f9c9 423e b626 02be
000002c0: 77c2 24bf 9975 41be a3b1 1bbf 9ec5 30bf
000002d0: 4e5f 03bf 8429 2ebe e864 873e ca9f afbf
000002e0: b6db 383e 9e55 cdbf 8208 3cbf ed21 4cbf
000002f0: 693c afbf d434 193f 409d 71bf b9a8 3dbf
00000300: a5d2 573e ba38 6ebe 5fe1 5dbf 3079 27bf
00000310: f116 e13d a88c 19be c9e1 a8bb a6ed 9d3e
00000320: 7a36 f9be 8bfa bfbf 7981 3d3f 5b7b c93e
00000330: b6eb 22bf afa7 44bf 6614 1cbf 41fc 723c
00000340: 7f8e 20bf 5564 0abf c57e 77c0 b981 cdbd
00000350: 0b29 783e d57e c9be 13eb f93c 7e63 36be
00000360: 428b 4fbf a2a6 25bf dcee e9bf 7fe4 71bf
00000370: e407 86bf ab45 ddbf 2275 3abf f5a4 16bb
00000380: a2fd c5bd 6baf 9cbf 3b88 f3be 0882 4cbf
00000390: 3204 f2bf 03eb dbbe 2d8a d2be f225 26bf
000003a0: 8003 85bf 708b ddbd fe3b 2abf dae5 a83e
000003b0: 5443 ccbe 6cae 1cbf ba62 42bf 7262 553d
000003c0: d2ee 02bf 5882 783e af89 89be ebae 8dbe
000003d0: c706 06bf 9e21 a7bd 8922 a2be b5b8 04be
000003e0: 9cd3 79bc 22b2 8cbe 19d0 f8bf 57d8 53bf
000003f0: 3bf5 09bf 17f8 a3bf ea0c d8bf 5d5c adbf
-0.15681529 0.21947667 -1.1733632 -0.4957801 -0.04380118 -0.77313036 0.26569912 0.07648021
0.6859382 -0.9683923 0.24305522 -0.27310035 -0.58280563 -0.7117833 -0.25694358 -0.07064901
-0.65089965 -0.27022776 0.3119657 0.086433806 1.4854052 -0.34536225 -0.19455108 -0.8699471
-0.6724806 0.22899245 0.6964312 -0.32262337 -0.64004225 0.5654199 -1.6586303 -0.016177133
0.17302455 -0.53639925 -0.8839432 -0.50388926 0.2539884 -1.7139553 -0.52821887 -0.9543301
1.2087802 -1.0328734 -0.5214863 0.37594604 -0.8840295 -0.29604608 0.27722728 -0.5848403
-0.08016816 -0.16943067 -0.9121921 -0.311711 0.6835698 -0.6629108 0.38043073 0.009463804
-0.4542281 -0.35481983 0.31204438 -0.2823587 0.29825777 -0.063395336 -0.600691 -0.25037637
-0.8190171 -0.32875568 -1.0998193 -0.19146904 -0.6075518 -0.2698672 -0.18799068 -0.93444306
0.62103 0.32637134 0.5855205 -0.013618786 -1.0315781 0.43642876 -0.06454063 -0.04664537
0.6053957 -1.469286 0.68798393 -0.28414452 -0.25475588 -0.66300714 -0.17284918 -1.7187197
-0.08164255 0.1765171 0.3317418 1.1528897 1.4045131 -0.4566099 -0.30327374 -1.9814117
0.25291413 0.17753008 1.9022009 -0.6599848 -0.50316083 0.44855726 0.3272217 0.5602193
0.80703044 -0.48825535 -0.122961454 -0.4835527 0.20744671 -0.9372358 -1.417516 -0.41344652
1.1969385 0.20306943 -0.34788355 0.265508 -0.49709672 1.2141169 0.25975937 -0.44357002
-1.5406672 0.48733836 0.12530847 -0.129968 0.43911445 -0.68010044 0.31569165 -1.2251588
-0.38578248 0.3219141 0.55179113 0.37220648 0.22735502 -0.013194064 -0.4643841 -1.542707
-0.010202981 0.07018777 1.0094045 0.36829308 -1.6158831 -0.11552923 -1.7363324 -0.23596102
-2.223017 -0.7153501 -0.570794 -0.9149975 1.9698459 -0.13438244 -0.6473904 -0.062103245
-0.11959196 -0.4691791 -0.80279964 -0.87823206 -0.0814954 -0.39911073 -0.54172134 -0.5653942
-1.0572338 -0.13080096 -0.58871007 -0.70765984 -0.45643485 -0.46170714 -0.69074625 -3.1597865
-1.3140346 0.31893778 0.5039331 -0.12239918 -0.5112686 0.017187702 0.19022359 -0.1271008
-0.6435923 -0.18892516 -0.6081793 -0.6905154 -0.513173 -0.17008024 0.26444173 -1.3720639
0.18052563 -1.6041753 -0.7345048 -0.79739267 -1.3690311 0.59846234 -0.9438057 -0.74085575
0.21076448 -0.23263827 -0.86672014 -0.6541929 0.10990704 -0.14995062 -0.005153869 0.30845374
-0.48674375 -1.4998335 0.74025685 0.39351925 -0.63640916 -0.76818365 -0.60968626 0.01483065
-0.6271743 -0.54059345 -3.8671124 -0.10034508 0.24234407 -0.39354578 0.0305076 -0.17811391
-0.81071866 -0.64707386 -1.8276019 -0.9448928 -1.0471158 -1.7286886 -0.7283498 -0.0022986506
-0.09667517 -1.2241033 -0.47564873 -0.7988591 -1.890753 -0.42952737 -0.41121045 -0.6490165
-1.0391693 -0.10817611 -0.6649779 0.32987863 -0.39895117 -0.61203647 -0.75931895 0.052095838
-0.5114566 0.24268472 -0.26862857 -0.27672514 -0.5235409 -0.08160709 -0.31666973 -0.12961085
-0.0152482055 -0.27479655 -1.9438506 -0.82751983 -0.53889817 -1.2810086 -1.6878941 -1.3543812

Q1.head.0.bias f4 [64]
00000000: 7169 ab3f f407 25be 48fb debe 44a4 193f
00000010: 0a78 99bd a2f3 f5bc 9cba 0cbd c44b e6be
00000020: 4b48 74be 1f68 cdbe be51 ef3d 3f8a 963f
00000030: 9c3d 22bf 1ed7 05bd 446a ddbe 0091 57bf
00000040: 98c6 4dbf 0845 48be fa6f 26be 6c8c ef3d
00000050: 6a8d c0bd 972a af3d d65f 6cbf 0829 6abd
00000060: 768e a13d b073 143e 01dc bfbf c78e 17bd
00000070: afb5 08bf 4c37 81be bcd3 e6bc ffd6 a5bf
00000080: 7e1d 66bc a457 21bf a272 e93c d4b2 cdbe
00000090: 89df 14bf 9e4d 87bf 148c 71bf 333f c63e
000000a0: d428 323f f586 a4bf 8e5e c8bd e5b5 c43d
000000b0: f047 8cbe 9122 d3be 3415 05bf 5586 acbe
000000c0: e28a 9a3d b14e 643f 94dd debe 648c d2be
000000d0: 3bd0 4dbe 0810 2ebd 641d 613d 2c12 16bf
000000e0: 1c29 83be 9d92 cebb 8e02 67be 8783 f7be
000000f0: fd71 13bd cbf7 973b 3e25 8ebf b667 b5be
1.3391553 -0.16116315 -0.43551087 0.60016274 -0.07493599 -0.0300234 -0.034357652 -0.4497968
-0.23855703 -0.401185 0.11685513 1.1760939 -0.6337526 -0.032675855 -0.43245137 -0.8420563
-0.80381155 -0.19557583 -0.16253653 0.11696705 -0.094019726 0.08553045 -0.92333734 -0.057168037
0.078885004 0.14497256 -1.4989015 -0.037001397 -0.5340223 -0.252375 -0.028177135 -1.2956237
-0.014045117 -0.63024354 0.028497044 -0.40175498 -0.5815359 -1.0570562 -0.9435437 0.38720092
0.6959355 -1.2853686 -0.0978366 0.09605006 -0.27398634 -0.4123731 -0.5198548 -0.33696237
0.07546021 0.89182574 -0.43528426 -0.41122735 -0.20098965 -0.042495757 0.05495967 -0.5862148
-0.256173 -0.0063040988 -0.22559568 -0.48342535 -0.03599738 0.0046376935 -1.1105115 -0.35430688

Q1.head.2.weight f4 [64, 64]
00000000: d5aa 263e 1fc6 203f be34 69be 3868 3540
00000010: decb 0abe 8531 11bf 19e4 8c3f 6a41 b93d
00000020: dbc6 1b3e e214 5ebf 4089 d43c 3ee4 09c0
00000030: 3322 bebe 427b 21c0 9efb 813d e834 09be
00000040: 99b2 f0bf f975 8cbf 7c36 50bf 4b30 9f3f
00000050: 34b5 5fbf 8acd f33f 5887 bbbd 98cc 553f
00000060: 9291 38c0 cd42 46bf 0d73 0dc0 6b72 f8bf
00000070: 997f 5cbf b063 26c0 7e5d 6ac0 bb8f 8bbf
00000080: cc13 263b 02f1 0fbe 9293 99bf 78a0 153f
00000090: 86b8 11bf fdee 90bf babb e33e 88f2 65c0
000000a0: 0e5e 803d 1520 d2bf b87b 763d 5424 323f
000000b0: 0b7b 7abd e049 c1bb 07aa 383f 2dc6 c53c
000000c0: 785b 24be ff7a bcbf a5e8 393d 4e24 47bd
000000d0: 8f82 89bc 2eed debf 6920 00c0 5c73 853e
000000e0: 8897 e2be 432d 0fbf 918b 17c0 18fc 91bb
000000f0: bf1d 8bc0 d6f9 1ac0 304c cebf 50a0 b3bf
00000100: 12f9 57bf 0697 2e3f 1828 31bb 1880 65be
00000110: f57e bcbe 982d 823f 79cc 9f3e 23d6 e93d
00000120: a5b7 883e be19 a5bf 5fdd a9be 653a 673d
00000130: 0a76 033e 23bd e83c 097c 8ebf b13d f1bf
00000140: 545f 94be 5270 a8be b7ef c03e 652a d73e
00000150: 1ba3 be3e 5635 03bf 05ba d1be 982b c0bf
00000160: c92f 52bf 014f e8be f599 143d 8467 87be
00000170: aa6b 16c0 e710 a7bf e058 69be e3cb 78bf
00000180: 1211 56bf a78d 12be 5824 9fbf 7782 9bbe
00000190: cc6c 3d3f 8ed8 49be 8e91 c73e 4bfd 34bf
000001a0: ba9e 303b 2429 f4bf 0409 78bf fcf8 37bf
000001b0: 5758 b6bf 416e 5ebf 2c69 c0be 5f16 0fbe
000001c0: dd33 4abe 6156 933e 267f d3be f550 ffbc
000001d0: b079 c0be f83d 0fbf 162b 12bf af8b a4bd
000001e0: eb2b fbbe 9c11 aabf 73c6 54bf f818 adbf
000001f0: 5c77 e43e 2278 b4bf 9947 5ebf 3780 6f3e
00000200: 554b 283f 13d9 6c3f bab9 b0bf 47c2 343b
00000210: 03b9 0fbf e4d0 1bbf 0474 bdbf b566 3ebf
00000220: 5fcc 163f 4248 39bf e800 253e e166 7fbf
00000230: cd45 bb3e 5ea1 08bf 13b0 203e 69f5 143e
00000240: 0b64 ffbd bd1a 74bf a9da 44be 137a 20bd
00000250: 3cae 713d 72dc 46bf 607f 3bbf 2eec 18be
00000260: 5b80 fcbf d6c0 15bf e61e 463d 520f 93bf
00000270: 5387 fc3d a526 09bf c8fa 9bbe 8284 483f
00000280: f262 78bf 75ce af3e 8490 46bf 9e0e 4cbe
00000290: 1a61 e43d 5e92 8d3e 5037 4b3d 9c64 4a3f
000002a0: 71be 6d3f 82e1 323f dcc2 84bf bbe4 15bf
000002b0: ee1b 73bf 2908 b3be 8154 debf 25dc c33e
000002c0: 5c6b 86bd 6320 0cc0 9844 51bf 311a 87bf
000002d0: fa64 84bf 97ad 0cc0 b33f cebf 07ef 3abe
000002e0: c318 1ac0 a5ad d63e 3675 c3bf 5457 b1be
000002f0: 8d59 55bc c89b 4e3f a5ad e3be e63b c7bf
00000300: 34c2 50bd 1c2a 803e 4a35 82be 10ea c83f
00000310: c6a4 c9be 5056 52be 95c2 11bf c60b 9bbf
00000320: 51c3 aabd 4725 7abe a943 ecbe 11f7 e3be
00000330: 028d f4be 6b07 5ebf 3503 2e3f 4bfe fbbf
00000340: f421 9b3e d63d 4bbe 37b9 32bf 2b22 a23e
00000350: 469e c5be 6f5f de3c c78a 93bf fd0c fcbe
00000360: 423e ba3d 867d 12bf e4d3 4c3f a2d4 48bf
00000370: faed a2bf 6838 8ebf c123 4abf 72c7 18bf
00000380: 0a80 ba3d 2068 a0bf e6f0 54bd b858 76bf
00000390: 997e a5be 6068 83be f242 e93e 5871 d0be
000003a0: 689e afbe 6f48 c1be ede7 34bf c74f 9bbf
000003b0: 46d2 abbf 4d04 07c0 3d78 7cbf 2d30 073f
000003c0: c262 acbe 96e5 95bf 8916 b3bf 57b0 133f
000003d0: c179 06be 1065 b8bf d657 1fbd 3cca 28bf
000003e0: eadf 03bf 4fe7 913e 834c 71be c78c d8be
000003f0: 2662 55be 763b 99be 4f40 c9be 0ae6 df3e
0.16276105 0.6280231 -0.22774026 2.834486 -0.13554332 -0.56716186 1.100711 0.0904568
0.15212576 -0.86750615 0.025944352 -2.1545558 -0.37135467 -2.523148 0.0634682 -0.13399088
-1.8804504 -1.0973502 -0.81333137 1.2436613 -0.8738587 1.90471 -0.09156674 0.8351531
-2.883885 -0.7744568 -2.2101471 -1.9409918 -0.861322 -2.5998344 -3.6619563 -1.0903238
0.002534139 -0.14056781 -1.199816 0.5844798 -0.56922185 -1.1322933 0.44479162 -3.592928
0.062679395 -1.6416041 0.06017658 0.6958668 -0.0611525 -0.005898699 0.7213444 0.02414235
-0.16050518 -1.4725035 0.045387883 -0.048618607 -0.016785888 -1.7416131 -2.0019782 0.26064575
-0.44256234 -0.5592844 -2.3678935 -0.0044551007 -4.347381 -2.4214988 -1.6117 -1.4033298
-0.84364426 0.68199193 -0.0027031954 -0.22412145 -0.3681561 1.0170164 0.31210688 0.114177965
0.2670261 -1.2898481 -0.33176705 0.056452174 0.12837997 0.0284105 -1.1131603 -1.8846952
-0.2897898 -0.32898194 0.37682888 0.42024532 0.37233815 -0.5125326 -0.40962234 -1.5013304
-0.82104164 -0.45372775 0.036279637 -0.26446164 -2.3503213 -1.3052033 -0.2278781 -0.97186106
-0.836198 -0.14311849 -1.2432966 -0.30372974 0.73994136 -0.19711515 0.38978237 -0.70698994
0.0026950077 -1.9075055 -0.96888757 -0.71864295 -1.4245709 -0.86886984 -0.3758024 -0.13973378
-0.19746347 0.2877684 -0.41307944 -0.031166533 -0.3759284 -0.5595393 -0.57096994 -0.08034455
-0.49056944 -1.3286624 -0.8311531 -1.3523245 0.44622314 -1.4099162 -0.86828 0.23388754
0.6573995 0.9251873 -1.3806679 0.0027581619 -0.5614168 -0.60865617 -1.480103 -0.7437547
0.58905596 -0.7237588 0.16113627 -0.99766356 0.3657669 -0.53371227 0.15692167 0.14546742
-0.124702536 -0.953533 -0.19224037 -0.03917892 0.059004053 -0.7768012 -0.73241234 -0.14933845
-1.9726671 -0.5849737 0.04836931 -1.148905 0.123304985 -0.5357459 -0.30464768 0.7832719
-0.9702598 0.34337202 -0.77564263 -0.19927451 0.11151333 0.27650732 0.049613297 0.7905977
0.92868716 0.6987535 -1.0371966 -0.5855214 -0.9496449 -0.34967163 -1.7369539 0.38253894
-0.06563446 -2.1894767 -0.8174529 -1.0554868 -1.0343316 -2.198095 -1.611319 -0.18255244
-2.4077613 0.41929355 -1.5270145 -0.3463694 -0.013021839 0.80706453 -0.44468418 -1.5565155
-0.050966457 0.25032127 -0.2543128 1.569643 -0.39383525 -0.20540738 -0.56937534 -1.2112968
-0.08338035 -0.24428283 -0.4614537 -0.44524434 -0.4776383 -0.8673007 0.67973644 -1.9686979
0.30299342 -0.19847807 -0.69813865 0.31666693 -0.38597316 0.027145116 -1.1526726 -0.4922866
0.09093906 -0.57222784 0.8001082 -0.7844945 -1.2728875 -1.1110964 -0.78960806 -0.5967933
0.09106453 -1.2531776 -0.05198755 -0.96229124 -0.3232315 -0.2566557 0.45558888 -0.40711474
-0.34300542 -0.37750575 -0.7066639 -1.2133721 -1.3423545 -2.1096375 -0.9862097 0.52807885
-0.33669096 -1.1710689 -1.3991252 0.5769095 -0.13132383 -1.4405842 -0.038902126 -0.65933585
-0.5151354 0.28496787 -0.23564343 -0.42294905 -0.20838222 -0.29928178 -0.39306876 0.43730193

Q1.head.2.bias f4 [64]
00000000: 2257 1dbe fe2a acbe 5160 c2bf f13a 23bf
00000010: 2b46 83be 47ee 7cbf d3ad 7bbf 64d8 85bf
00000020: f412 00bf 69fb 40bf 7d79 e8be c7fa d8be
00000030: 2bd3 21bf 86bb 7fbe dc68 7abe 78b6 67bf
00000040: c2a6 bbbe 8438 21bf 77c9 91be 195c 99bf
00000050: 5b6d 04bf 4ef5 3cbf f12a e0be 6aac 7ebf
00000060: 05ea 06bf 784b 20bf 7160 44bf 276b d5be
00000070: 27ff 93be 4d88 21bf 8505 bcbe 9316 80bf
00000080: b455 b4bf e4df d6be 7afe 3abf 84c3 5dbf
00000090: 700a 11bf 0007 c6be f4c4 9abf ab4e a5bf
000000a0: a1d1 4abf 115f 69bf 61fa a3bf f070 2dbf
000000b0: 854e 2abf 426f 11bf d3dc 3ebf 2b4f 073d
000000c0: 9517 57bf f44f a0be 2cee eebe 8007 2fbf
000000d0: e4b0 b8be d9ef f0bf 832b a4be 6959 40be
000000e0: 49c5 43bf 2bfb 68bf 6d70 56bf 4e85 8cbf
000000f0: 095a 92bf 1eab 92bd 6f4d e3bf aff0 f9be
-0.1536527 -0.3362655 -1.5185643 -0.6376181 -0.2563947 -0.9880108 -0.9831211 -1.0456662
-0.5002892 -0.7538362 -0.45405188 -0.42378828 -0.6321284 -0.24973878 -0.24454063 -0.905128
-0.36650664 -0.6297686 -0.28474018 -1.1981231 -0.51729363 -0.73811805 -0.43782762 -0.99481833
-0.52700835 -0.62615156 -0.7670966 -0.41683313 -0.28905603 -0.63098603 -0.3672296 -1.0006889
-1.4088655 -0.4196769 -0.7304455 -0.8662646 -0.5665655 -0.38677216 -1.2091355 -1.2914633
-0.7922612 -0.91160685 -1.2810785 -0.67750454 -0.6652606 -0.5681039 -0.745557 0.033034485
-0.8402036 -0.31311 -0.46666086 -0.6837082 -0.36072457 -1.8823196 -0.32064447 -0.18784107
-0.7647291 -0.9100825 -0.837653 -1.0978181 -1.1433727 -0.07161544 -1.7758006 -0.4881644

Q1.head.4.weight f4 [144, 64]
00000000: 2c26 50be dcaf 0d3e a4ef ed3e 11f1 183e
00000010: 38be f3be 2255 8f3d c195 eeba fbab 40bf
00000020: 158b 0e3d 9630 733a 44be aabd 54e9 a0bf
00000030: 7c82 bdbe 6019 b83b 4001 7c3d f469 58bb
00000040: 75af f339 9a1d 5d3e 1a05 f5be 185a 8b3b
00000050: a77b 5ebd 7e2d 313c 9a65 df3d 49b8 c5bb
00000060: a8e1 0ebd d3ae ae3c 0c42 2cbf bf52 1abe
00000070: f76e d6bd bc1f 50bd a368 193d d9ea 90bf
00000080: 2daf 21c0 69f8 30be 7e6b 2bbd 2155 873d
00000090: eac7 9fbe 2793 24bd 0df5 853d 793e 81bd
000000a0: eaea 63bf 532c 11bd a714 023e 45a2 aebc
000000b0: f5cb e03e abf2 ad3d 9b24 71bd e2ec 0abf
000000c0: 13b8 303d bf7a 94bd 9e5a 79bd 4e36 20bd
000000d0: 6be1 723c e46f 67c0 e609 5ebe f75e 0ebe
000000e0: 535f 753c 3235 f1bd 6e0b cc3c 3bdc 22be
000000f0: 486b 673d df42 1dbf d59a 09be 5aa2 273c
00000100: 448b 75bf 1b02 afbb 59c5 bf3d 37dd 0e3f
00000110: a66c 01be e2b3 2b3e 3511 37bc 6b47 5bbf
00000120: 5550 113c 62de cabd 64db 323e d259 3d3d
00000130: d0c0 83bd 669e d93d 523f 02be d532 f83e
00000140: 1e9d 7a3e 0188 863b 54db e4be 4048 be3b
00000150: 9794 4cbd 9b4d 0e3e a4e7 393d 8fe2 42bc
00000160: baa1 bf3e 1f1b ad3e fd03 ed3d 184b cb3e
00000170: 2439 173e ddc5 08bf 6443 833d f141 d73e
00000180: 1443 843e fd19 54bc fc02 8e3c a9c9 103d
00000190: aab7 403e d72d 82bd c104 923d 22f1 093f
000001a0: d692 57bf 5e4d f73d 3387 0f3c 62d2 b73d
000001b0: 197f 663e 0659 913d 4211 83bc 7ea6 8e3e
000001c0: f746 0cbe 9247 36be e258 c1bb 162e c9bf
000001d0: fa50 7fbc 3fb3 53c0 2df0 6e3e 82f6 7abf
000001e0: 4a09 2c3f aca2 dabe a28f e83c 0818 513e
000001f0: abf6 94bd 17ef 703e be45 c03e 258b b73c
00000200: b634 7cbe 4a93 36bf 67f8 e2bd 4481 27bf
00000210: 3fd4 8abc 38c4 8d3b 99d9 34bf 232c 8a3d
00000220: 6907 cc3d d99d c03b 0c7f 43bd 4e04 e63c
00000230: 9cd3 e33b dadc bd3d a120 e13d 6372 00bf
00000240: ea85 11b9 f3d1 a2bd e17b 07bc bed6 a8bc
00000250: 72a4 bd3c 11b0 eebc 8a3d db3c 6e7a 00bd
00000260: 7feb 253b 69ac b939 35c3 c4bb 3310 383a
00000270: 4b6a 933b a73d e83c 2295 4b3d 31c2 3b3d
00000280: b777 89bc bc7d 693d dcad c43d 1587 d93c
00000290: 24a3 a5bf 3655 423b cc37 323d 94b9 773c
000002a0: d1fb 40bf 922e 75bb b2e1 b73d d1f8 11bf
000002b0: 66f7 573d 8926 34bd 6730 103f a8f4 00bc
000002c0: fb61 03bc 6a3e fbbc f3bf 413d fc78 083d
000002d0: aab6 93bc c3aa 6ac0 f41f 58bb f64a 38bd
000002e0: e78a 46bd d5c6 56be 7236 e9bd 1573 1dc0
000002f0: 1d6b 593d 5789 b0bc 6713 e63e 6bcd 023c
00000300: 4e0f 90bd 0c1e 51be 9ff5 253e 0e38 bd3e
00000310: e2b4 fcbc 4be6 19bc b79d 40be 7441 e93c
00000320: 5f82 9fbc 94c4 923e 614e 72bc 6e3f 4bbd
00000330: 620b 9cbd b816 3cbd 19be 83bd 02bc 2dbf
00000340: 2176 5bbd 1426 393d 58b9 4dbf 55f1 883c
00000350: c2a9 103d c489 983d 3b6f 45bd db96 2d3d
00000360: 3915 21be f8a1 afbc 1a90 f93c 7793 a03e
00000370: 4fac 0b3e 7d98 9ebc 8603 1e3d 8d90 fa3e
00000380: b90e 3d3f f851 ea3d 9f8d aebc 3a47 a93d
00000390: 5aca 2f3d 84bf c9be 01c3 4abf 6a81 2cbd
000003a0: 6473 42be 754e ebbd 3391 c13e 9052 4abe
000003b0: b4ef da3d 85ce 383d fece 8d3d ff7c 693e
000003c0: ccf2 1c3d 806c c4bd 755d a73d 8677 6bbe
000003d0: d842 a5bd da21 4ec0 2e84 863e fcfb 903c
000003e0: 206f bc3d 8801 bdbe a421 4b3f e72d 7ebe
000003f0: 9e05 593f 76b4 94be bf2f 91be 7410 c13c
-0.20327061 0.13836616 0.46471894 0.1493571 -0.47606063 0.0699866 -0.0018202589 -0.7526242
0.034800608 0.0009276954 -0.083370715 -1.2571206 -0.37013614 0.0056182593 0.06152463 -0.0033022137
0.00046479297 0.21593323 -0.47855455 0.0042526834 -0.054317143 0.010814069 0.10908051 -0.0060339314
-0.03488317 0.021323597 -0.6728828 -0.15070628 -0.104703836 -0.050811514 0.037453305 -1.132167
-2.526317 -0.17282261 -0.04185056 0.06608034 -0.3120721 -0.040179398 0.0654088 -0.06310744
-0.89030325 -0.03544266 0.1270319 -0.02131761 0.43905607 0.08493551 -0.0588728 -0.54267704
0.043144297 -0.072499745 -0.060877435 -0.03911429 0.014824252 -3.6162043 -0.21683463 -0.13903414
0.01497634 -0.11777724 0.024907794 -0.15904324 0.056498796 -0.6143016 -0.1343797 0.010231579
-0.9591563 -0.005340827 0.09363813 0.558063 -0.12639102 0.16767839 -0.011173536 -0.8565585
0.00886925 -0.099056974 0.17466503 0.046228237 -0.064332604 0.10625915 -0.12719467 0.48476282
0.24473998 0.0041055684 -0.44698584 0.0058069527 -0.049946394 0.13896792 0.045386925 -0.011894836
0.37428075 0.33809754 0.11573026 0.3970573 0.14767891 -0.53426915 0.06409338 0.42042497
0.25832427 -0.012945649 0.017335407 0.035348568 0.18820062 -0.063563995 0.07129813 0.53883564
-0.8420843 0.120753035 0.008760261 0.08975674 0.22509421 0.07097058 -0.01599944 0.27861398
-0.13698946 -0.1780074 -0.0059004882 -1.5717189 -0.015583271 -3.3078153 0.23333807 -0.9803239
0.67201674 -0.42702234 0.028388802 0.20419323 -0.07273611 0.23528706 0.3755321 0.022405216
-0.24629483 -0.71318495 -0.11082535 -0.6543162 -0.01694691 0.0043263696 -0.7064453 0.067467
0.09962351 0.005878192 -0.047728583 0.028078225 0.006952716 0.0927064 0.109925516 -0.5017454
-0.00013878164 -0.07950201 -0.008269281 -0.02061021 0.023149703 -0.02913669 0.026762743 -0.031366758
0.0025317369 0.00035414405 -0.006004716 0.0007021457 0.004498755 0.02834971 0.04970277 0.045839492
-0.016780717 0.057004675 0.096034735 0.02655367 -1.2940412 0.002965284 0.043510243 0.015119929
-0.7538424 -0.0037411791 0.08978595 -0.5702029 0.052726172 -0.043982062 0.56323856 -0.007870831
-0.008018966 -0.03066941 0.047302198 0.033318505 -0.018031437 -3.6666725 -0.003297803 -0.044993363
-0.04847231 -0.20974286 -0.11387338 -2.460149 0.053080667 -0.021549864 0.44936678 0.007983546
-0.07034169 -0.20421618 0.16206978 0.3695683 -0.03084797 -0.009393285 -0.18810163 0.028473593
-0.019471345 0.28665602 -0.014789195 -0.04962104 -0.076193586 -0.045920104 -0.064327426 -0.67865
-0.053579453 0.04520233 -0.8036094 0.016716639 0.035318144 0.07448152 -0.04820178 0.042380195
-0.15730752 -0.021439537 0.03046422 0.31362507 0.1363995 -0.019359821 0.03857758 0.48938408
0.7385059 0.114414155 -0.021307765 0.082655385 0.042917587 -0.39403927 -0.792038 -0.042115606
-0.1898933 -0.11489574 0.3780609 -0.19758058 0.10690251 0.045118827 0.06924246 0.22801588
0.038317487 -0.09591007 0.081721224 -0.22994813 -0.0806939 -3.2208161 0.2627272 0.01769828
0.09200883 -0.3691523 0.79348207 -0.24822198 0.84774196 -0.2904393 -0.2835674 0.023567416

Q1.head.4.bias f4 [144]
00000000: f85f 97bc 44e4 3bbd de72 90bc 1324 eabd
00000010: 22f7 87bc 3bea 74bc 6f9c 2bbc 0375 37bf
00000020: f457 45bf 1d65 67bc e004 9fbc c87f 26bc
00000030: 5533 66bc 8b82 36bc 0819 7abc 7bae a2bc
00000040: 7376 c8bc a70f b7bc 97e8 dfbc 3a4e a5bc
00000050: 42d2 2cbd c830 003e 63d7 39bc 964e 92bc
00000060: 1de4 e2bc a58b 56be 5542 93bc 6229 88bc
00000070: 4823 51bd ec5b 86bf 2aa8 96bc a95d a5bc
00000080: 4c4a e0bc 291e 963a 556a a1bc 0ad0 a9bd
00000090: a5dc 0d3e 47ff b7bc 8ac6 57bc 1627 90bc
000000a0: 70d4 2dbc e762 a2bc 6cda 3ebd 1bd5 41bf
000000b0: 4e0a a0bc 4303 81bc 10ca b9bb 09a7 323b
000000c0: caac 8bbc 9c54 e1bc 436b 9ebc f7d0 a0bd
000000d0: d63a d7bc 5d82 94bd 85aa 6fbe 3883 45bc
000000e0: ab9e 98bc adc7 87bc 85df 73bd c84a 8bbc
000000f0: c375 31bd 8a5f 88bc 8d16 94bc 91f4 d3bc
00000100: 246f 9dbc 7b49 27bd 5683 b6bc ce39 8bbd
00000110: edfd 55bc f9dd b5bc 841e aebc 970b 69bc
00000120: e220 a1bc af70 4ac0 90c5 a3bc ad51 49be
00000130: 4dc3 c7bc 25fc d3bc c5e6 5dc0 2421 57c0
00000140: 3138 4dc0 7642 8bbc fcae c2bc 8766 56c0
00000150: 632a c8bc 6679 51c0 247a 68c0 2e71 80bc
00000160: e19e cdbd 801f a7bc 1d8d 5cc0 a4b8 adbc
00000170: 1689 27c0 00cb 04c0 1782 59c0 353d 82bc
00000180: b853 8dbc f0ea 52c0 4b09 ccbc 1285 56c0
00000190: dce0 75c0 964f 4cc0 f4cd 77bc a1da d5bc
000001a0: 983d a5bc 8810 4bc0 ee2a b4bc e978 39bf
000001b0: e4b3 58c0 3e55 b5bc e35b 93bc 8feb c4bc
000001c0: 54e8 48c0 4de4 8ebc b4d8 efbe 795c 50c0
000001d0: 68da 7cbc 63cd febc fae1 70bf 93db 0ac0
000001e0: 77fb 80bc 7865 8ebc bcf4 a6bc 5b2d b1bf
000001f0: b790 99bc 128c d8be b761 24bf b2c7 6dbc
00000200: 8d9a 51c0 eb13 a2bc d3ce 6bbe 9dfb babc
00000210: 96e9 48c0 e007 47be 15e3 53c0 8836 78bc
00000220: d19b a5bc ad78 f0bd dcbf a0bc d66f aebd
00000230: 7b56 72bc 1b26 52c0 bfb3 bfbc 4954 85bc
-0.018478379 -0.045871988 -0.017632898 -0.11432662 -0.016597334 -0.014948423 -0.010474308 -0.7166292
-0.7708733 -0.014123228 -0.019411504 -0.010162301 -0.014050324 -0.011139522 -0.015264757 -0.01985859
-0.024470543 -0.02234633 -0.027332587 -0.020178903 -0.042192705 0.12518609 -0.011342856 -0.017859738
-0.027696664 -0.20951708 -0.017975966 -0.016621295 -0.051059037 -1.0496802 -0.018390734 -0.020186262
-0.027379178 0.001145308 -0.019704023 -0.082916334 0.138537 -0.022460593 -0.013169894 -0.017596763
-0.010609731 -0.019822551 -0.046595022 -0.757158 -0.019536164 -0.015748626 -0.0056698397 0.0027260205
-0.017050166 -0.027506165 -0.019338256 -0.07852357 -0.026273172 -0.07251427 -0.23404892 -0.012055211
-0.018630346 -0.016574705 -0.059539337 -0.017003432 -0.043325197 -0.01664712 -0.01807716 -0.025873454
-0.019218035 -0.04084156 -0.022279423 -0.06798135 -0.013061029 -0.022200571 -0.021254785 -0.014223955
-0.019669 -3.1631277 -0.019991666 -0.19660063 -0.024385119 -0.025877068 -3.46721 -3.3613977
-3.2065547 -0.016999464 -0.02376508 -3.3500078 -0.024434274 -3.2730346 -3.6324549 -0.015678968
-0.10040069 -0.020400763 -3.4461129 -0.021206208 -2.617742 -2.0748901 -3.398565 -0.015898326
-0.017251834 -3.2955894 -0.024906775 -3.351872 -3.8418493 -3.1923575 -0.015124787 -0.026105227
-0.020170972 -3.172884 -0.021993127 -0.7245012 -3.3859797 -0.022135373 -0.017988151 -0.024038104
-3.1391802 -0.017442847 -0.4684502 -3.255644 -0.0154329315 -0.031103795 -0.9409481 -2.1696517
-0.015744908 -0.017382368 -0.02038037 -1.3841966 -0.018745763 -0.42294365 -0.642116 -0.014512943
-3.275058 -0.019784888 -0.23028116 -0.022825057 -3.139257 -0.19436598 -3.310735 -0.01514972
-0.0202159 -0.11741767 -0.019622736 -0.08517425 -0.014791126 -3.2835758 -0.02340114 -0.016275542

Q2.head.0.weight f4 [64, 144]
00000000: d2cb f73d 22f3 a7bd c68c 11be b16c 8f3f
00000010: b409 853a 63ef d7be 12c1 063f 542b f03e
00000020: 3e06 00be 1615 04bf cea8 b63e 5d66 ba3d
00000030: c18c 933f a735 513f f780 463e edd1 90be
00000040: 7176 8dbf b56f 41be c655 a43c 2d6a e13e
00000050: d28c 103e 5f63 243f 9f48 363f 61a4 0ebf
00000060: 44f1 f5bd 36fa 313e 2a42 583e 7b02 633e
00000070: 1a8a b43e 470a d43e d25c 66be f0c6 0c3f
00000080: a59b ea3e e7ce b43d 9b24 6b3f 43a6 38be
00000090: d954 a13d c976 e2bc 030e 49be dedb 163f
000000a0: fad6 f83e a887 0f3f 4af7 c6be 4492 e0be
000000b0: c7b7 403f 4c5d 243f 702d 9dbf d447 9dbe
000000c0: 5377 aebe ee33 9cbe 85a7 a03e 2c10 28bf
000000d0: 4814 e93d b59c f23d 37f8 81bf 0301 a5be
000000e0: 0a25 c6be ec88 693e 3e03 a03d 4112 953e
000000f0: b3f9 0a3f 456d eb3e bcbb d53d 2b37 1ebf
00000100: fad5 cc3d d3a8 66bf 0d96 943d d78e 403e
00000110: df06 71be 9043 033f b042 2fbf 5b3c 00bf
00000120: 33b2 3bbf 1efb 8abe 4bf4 3d3f fd40 fbbe
00000130: 1c08 943f 19be 343e d428 bdbd a6b8 ff3e
00000140: 3ac2 38be 9135 04bf 5a13 19bf 08a5 283e
00000150: bf40 5cbf 1ef3 613f 53da 303e e1e1 d8be
00000160: 2f5b 153e 7c66 b4bc 32f6 9cbd ed93 c73e
00000170: 4159 1c3e f86f 183f afdd 273f bc2e a8be
00000180: a5f4 b03e acf1 2d3e fb12 b93e 27d6 d03d
00000190: ed29 c43e ce5a d23e 0777 0dbf 9530 4f3d
000001a0: ae8a 52be 8eac 3d3e 5af1 70be 0066 aa3f
000001b0: 9294 d93d aff0 3cbf f92a c0be 366b 47bf
000001c0: f547 263d ff7e 7c3e 5028 c3bf 49a2 a9be
000001d0: a28a ec3e 46c0 b5be 09ac 8a3f bca4 9dbc
000001e0: 2154 0fbf 6cac 9a3f 7bba 87be a457 12be
000001f0: 0c62 08bf 3af8 a53e f7b3 bc3f c9f9 48bf
00000200: ae67 cbbe be20 003f 0304 123f c4d5 71bf
00000210: 9025 f83e 528a ff3e a0c7 b63d aa27 97be
00000220: beb8 6bbf 86f0 1b3e 7de6 9fbe 7ecd efbd
00000230: ee8e 0cbf f05a 043f ca28 10bf 0b33 81be
00000240: 4e42 0abf a211 b33d 738f 45be 3c9e 5fbe
00000250: 458c 5dbf 8a74 3cbe bbe8 943f 57d8 df3e
00000260: a8ed 2e3f 5408 1fc0 a7ea 02bf 339c 153f
00000270: 5fdd dc3d c81f 883d a903 9e3f e886 20c0
00000280: e5fe 08bf 2ca7 19be ebe6 713f 1526 f5be
00000290: 9459 f8bd e3bd dd3e 24a6 603f 3cf4 11c0
000002a0: c03a 14bf d1c7 e73d 0dc9 13bf 3a0d 913f
000002b0: dab3 c7be 84e1 003f 676f 19c0 8541 d23d
000002c0: 05a5 70bf d255 7abe 5dd6 493e d7df 7fbe
000002d0: 1479 313f c23d e4bf 3d34 9fbf 2687 96be
000002e0: e412 3f3f 0a5d c53e 5c9b 7dbe e931 3f3f
000002f0: 87f2 17bf 2f45 19bd db51 1c3f c34a 443f
00000300: fbf8 14c0 32cd aebd ee16 6ebf d8b5 453d
00000310: 3f5f 5abf 7ac9 da3d af95 d93e 05c5 b5bf
00000320: d314 77be 38a8 21bf c0ad 5f3e 8793 6cbe
00000330: 6cb1 433f fbf4 243e e759 6cbe 33c1 47c0
00000340: 5dd6 aabe 347b 8cbe 1389 33bf f16b 9a3e
00000350: fab6 2bc0 13ad 1c3f 3c00 2cc0 64c7 e6bf
00000360: 4303 aa3f 5cf3 4d3d a1c4 633f 2f8a 2c3f
00000370: f9de 2c3e cb17 6c3f b751 733f a190 b53e
00000380: 4870 343f 02ae a6bf e40b 27bd 1508 223f
00000390: 5691 653f 8370 933d d9ad 983f ba5e 2cbf
000003a0: 01d9 d0bd be0b 0b3f 6adf 623f f575 c33e
000003b0: 1c5b 06be 5391 0e3f fbd9 4e3f 0824 1ebe
000003c0: 5350 1e3f a8fb 4a3e 462c 5bbc 3558 a3be
000003d0: 1162 b7be 099e 0a3f 13d4 99bf 705c c73e
000003e0: 30bc eebc 8ae7 75be 05ac a83f 45de a6be
000003f0: d5cb 3b3f 4fe2 89bf 7893 20bc cacd 78bd
0.120994225 -0.08200671 -0.14213857 1.1205045 0.0010149986 -0.42174825 0.5263835 0.46908057
-0.12502381 -0.51594675 0.35675663 0.091015555 1.152733 0.8172249 0.19385134 -0.2828516
-1.105177 -0.18890269 0.020060431 0.44026318 0.14116219 0.6421413 0.7120456 -0.5571957
-0.120089084 0.17380604 0.2111899 0.22168915 0.35261613 0.4141409 -0.22496346 0.54991055
0.45821872 0.08828526 0.9185273 -0.18032174 0.078775115 -0.027644532 -0.19634251 0.5892924
0.48601514 0.5606637 -0.38860542 -0.43861592 0.7528042 0.6420486 -1.2279491 -0.30718863
-0.34075412 -0.3050837 0.31377807 -0.65649676 0.113808215 0.11846296 -1.0153874 -0.32227334
-0.38700134 0.22806138 0.078131184 0.2911549 0.5428726 0.45981804 0.10436198 -0.6180293
0.1000175 -0.90101355 0.072551824 0.18804489 -0.23537777 0.5127497 -0.6846113 -0.50092095
-0.73318785 -0.27144712 0.74200886 -0.4907302 1.1564975 0.17650642 -0.09236303 0.49945563
-0.18042842 -0.51644236 -0.59795153 0.16469204 -0.86036295 0.8826159 0.17270784 -0.42359832
0.14585565 -0.022021525 -0.076641455 0.38980046 0.15268423 0.5954585 0.6557264 -0.32848155
0.3456165 0.16986722 0.36147293 0.10197096 0.38313237 0.41084903 -0.55259746 0.05058344
-0.20560715 0.18522856 -0.23529568 1.3312378 0.10624041 -0.73804754 -0.37532786 -0.77897966
0.040595967 0.2465782 -1.5246677 -0.33131626 0.46199518 -0.35498255 1.0833751 -0.01924359
-0.55987746 1.2083869 -0.2650946 -0.14291245 -0.5327461 0.32415944 1.4742421 -0.7850614
-0.3972754 0.5004996 0.5703737 -0.94466805 0.48466158 0.49910218 0.08924794 -0.2952245
-0.9207877 0.15228471 -0.31230536 -0.117091164 -0.54905593 0.5170126 -0.5631224 -0.25234255
-0.5400742 0.087435976 -0.19293003 -0.21837705 -0.8654216 -0.18403831 1.1633524 0.43719742
0.68331385 -2.4848833 -0.511393 0.58441466 0.10784411 0.06646687 1.2344867 -2.508234
-0.5351394 -0.15005177 0.9449298 -0.47880617 -0.12126461 0.43308935 0.8775351 -2.280532
-0.57902145 0.11317409 -0.57728654 1.1332161 -0.39004403 0.5034411 -2.3974245 0.10266403
-0.940018 -0.244468 0.1971068 -0.24987732 0.69325376 -1.7831347 -1.2437817 -0.29399985
0.746382 0.38547546 -0.24766296 0.7468553 -0.5935444 -0.037419494 0.610624 0.7667658
-2.3276966 -0.08535232 -0.9300374 0.048269123 -0.85301584 0.1068296 0.42497012 -1.420075
-0.24129038 -0.63147306 0.21843624 -0.23103152 0.764426 0.16109078 -0.2308117 -3.121167
-0.3336667 -0.27437747 -0.70131034 0.30160478 -2.683043 0.6120159 -2.6875143 -1.8029599
1.3282245 0.050280914 0.88971907 0.6739835 0.16881932 0.92223805 0.9504656 0.35461906
0.7048383 -1.3021853 -0.040782824 0.6329358 0.8967489 0.07199194 1.1928054 -0.6733204
-0.1019764 0.5431479 0.8862215 0.38175932 -0.13120693 0.556905 0.8080136 -0.15443432
0.61841315 0.19822562 -0.013377255 -0.31903234 -0.35817006 0.5414739 -1.2017845 0.38937712
-0.02914247 -0.24014106 1.3177496 -0.32591453 0.733579 -1.0772189 -0.009800784 -0.06074313

Q2.head.0.bias f4 [64]
00000000: 5558 853e 5a00 313f 52ee 95bb ee90 74bf
00000010: 1f2c b9bc 9531 40be 8249 1d3f 052d a73d
00000020: 1282 92bd 4c25 2cbf 170f 4e3c ff8d 2dbd
00000030: 1d91 ab3f 3750 dfbe 7181 133f 0319 15bc
00000040: 79d0 64bf 92cc 383d 5ccf 37bf 7775 23b9
00000050: 1fa8 3ebf 7499 aabf 0fd9 69bf 0900 adbe
00000060: ba19 993d 8c4b 76bd 4dd8 39be b780 82be
00000070: 7d20 4ebf 6d41 0cbd e61a 21bf c4f0 84be
00000080: 35ca d4bf eee8 98be 3a8d e4be bf7b dd3d
00000090: 0f70 583e 60d2 c2bf 6013 743e 5694 62bf
000000a0: 156b c6bf 6b8e bebe ed92 b43d d1c1 963e
000000b0: 391c 613f 31fc 8b3f 77d2 2fbd 6ca2 33be
000000c0: e5fc 00be 3621 8fbe 85c4 38bf 64c4 b9bd
000000d0: 9692 83bd 8253 65bf 000c d63d e99c 00bf
000000e0: 818c e4be 45eb a5be 04e3 c63d b7fb 2ebe
000000f0: c975 13bf d54e 0ebd 8916 e63d 38a1 4bbd
0.26043954 0.6914116 -0.004575529 -0.95533645 -0.022604046 -0.18768914 0.6144029 0.08162884
-0.07153715 -0.6724441 0.01257684 -0.042371746 1.340366 -0.43615887 0.57619387 -0.009100202
-0.89380604 0.04511697 -0.7180078 -0.0001558865 -0.7447528 -1.332808 -0.9134683 -0.3378909
0.0747561 -0.06013064 -0.18148918 -0.25488827 -0.80518323 -0.034242082 -0.6293167 -0.2596494
-1.6624209 -0.2986521 -0.44638997 0.10814618 0.21136497 -1.5220451 0.23835516 -0.8850759
-1.5501429 -0.3721803 0.08817086 0.29444745 0.8793369 1.0936338 -0.042925324 -0.17542428
-0.12596472 -0.27955025 -0.72174865 -0.09070662 -0.064244434 -0.8958055 0.104515076 -0.50239426
-0.44638446 -0.3240606 0.097112685 -0.17088209 -0.576016 -0.03474315 0.11234767 -0.049714297

Q2.head.2.weight f4 [64, 64]
00000000: bccb 9abd 066a d03d 7395 b4be f8e9 93be
00000010: e4de 92bf 1d33 7ebf 9dcc 0ac0 3eb0 1cbf
00000020: a0c6 8cbf 2b1e dbbf bba7 b0bf 6976 e1be
00000030: e0dc c8bf 542a 20bf d105 31be 087e 32bf
00000040: bf24 8abf db00 113f c8f4 07be c20c 05c0
00000050: 3463 f9bf 198e 2fbe 5b3e 35bf 98e5 8cbe
00000060: e350 6cbf 2225 0ac0 ff95 6bc0 6318 a1bd
00000070: 4f37 80bf 19a3 c8be 555c d8bc 4f0e 123b
00000080: 2636 07bf 714c 7fbf a6a4 debf 4132 28be
00000090: a56d 17c0 24f5 e43d 5433 a9bf 6642 fbbf
000000a0: f65b 63bf 09c0 d4be f2e9 6a3d 4a47 babf
000000b0: a68e 213f 4249 d6bf 0539 82bf 0339 4abf
000000c0: 56bf 1ebf fb32 7abf 8156 1f3f da45 88bf
000000d0: bd12 9dbe efc7 743f 4f86 2cc0 154a 4dbf
000000e0: 520f cbbe 7a79 a13e fa83 a7bf cc28 b5bf
000000f0: a957 aabf c287 203e e618 99be 036e 04bf
00000100: ff55 fabe c947 b9be 166f 4fbf 2a3e 8fbf
00000110: aa99 3dbf 5d26 f7bf 73e0 763d ae96 e8bf
00000120: a610 26bf b059 dcbf a46e a0bf 83ed ccbd
00000130: 74b8 31bf 4534 c9bf ef73 0ebb 8db3 61bf
00000140: 67a0 9cbe 8309 0ec0 b67b d3bf 5a44 c03f
00000150: 50b2 0bc0 2e1d debf 06ee 0cc0 9b41 6ac0
00000160: 08ef 07c0 f4fd 4ec0 30dc 37c0 415f debf
00000170: bc75 49c0 b847 8a3e 4092 67bf c3d0 00bf
00000180: 8722 bdbf 4f3a 24bf 2398 073f 300d d2bf
00000190: 8459 b5bf daf9 c4bf 273b 91bf 1a99 803e
000001a0: 9c2e e63b cdd8 51bf a2d4 f7bf 3808 0ec0
000001b0: 862d 19bf b38a 0bbe 4ab0 9fbe 4f76 7ec0
000001c0: 0c39 e33e 5dca c3bf 05eb e2bf 9287 a1bf
000001d0: b4bf 46be 3864 febd 663e 4fc0 f524 f8be
000001e0: d46c 45c0 8514 d9bf 3ac7 1ec0 e2c5 7ebf
000001f0: cac0 a2bf 5031 3dbf 35e3 58be 632d 2ebf
00000200: 6bed d0bf aadc 53be e332 25c0 41ba ac3e
00000210: 3788 0bbf f0f2 88bf caeb a63e 5499 40bf
00000220: 94e5 16c0 fbfb 81bf 199f 64bf 1b2c 60bf
00000230: 3914 27c0 0d51 2e3e 8f45 e93e 62d4 f3bf
00000240: bd16 d5bf 2379 02c0 23ca 8c3d 47ed 46bf
00000250: 8df5 6abf 6b19 38c0 f04a c8bf ca2f e23e
00000260: 73c9 07c0 4ce2 d53d c8f2 2ebe 51ad 243e
00000270: f1fa ffbf eb63 3b3f 0eb4 cebf 294f 43bf
00000280: 6922 65bf 0f58 40bf e79d b0bd 9ff5 febf
00000290: 3b60 5abf 797e 2bc0 30d9 c7be d8d7 1ec0
000002a0: 4b00 85be ac95 38bf 48f2 7bbf 51ae 62bd
000002b0: a996 a5bf 4a85 0cbf c621 053f 42b9 803f
000002c0: 59f9 e2bd b0e1 b3be e6ac 27c0 8864 55c0
000002d0: cd0e c3bf 1b4f 9ebf d95d 8abf 9e1e 60c0
000002e0: c9b9 2fc0 0bcd 0ec0 10e0 8ebf 8ca3 1ac0
000002f0: 85a5 c1bf 5940 a33c 44c4 bcbf ec57 dbbf
00000300: 07ab 92be 7404 34bf a3b1 1ac0 dda6 453f
00000310: f825 82c0 29bf 47c0 9c8c 01c0 7ca1 3dc0
00000320: d0ac 4dc0 e8e3 4bc0 0cb9 9abf c2ae 4ec0
00000330: be00 693f 6125 abbe 62bd f1bf 71c0 93bf
00000340: 639b ab3f 937d 41c0 252d 91bf ea24 773e
00000350: 02aa 45c0 91f6 0fc0 44f1 32bf 94b6 a0bf
00000360: 7594 81c0 f1b4 6fc0 b349 90bf 938f 623e
00000370: 2132 3bc0 3e00 18bf 597d f7be c7a6 44bf
00000380: d77f 8cbf 75f7 ccbf 38fb 8abf b40f 06c0
00000390: a822 5ec0 13e4 fcbf b3a1 67bf 98d2 cdbf
000003a0: 9f62 a5bf a45b dfbf 7307 8bc0 96b2 7abd
000003b0: 532c 2cc0 9f4c 7ec0 5c71 71c0 8cd3 a53f
000003c0: 7319 75be 0202 05c0 f4cc 94c0 3a60 4dc0
000003d0: 7b4a 23bf 323b a3be 5ce3 1bc0 7b22 31c0
000003e0: 2d49 48c0 1f48 a4bf 3422 8abe 87a7 d1bf
000003f0: 3100 63bf d551 2fc0 dc76 89bf 45d2 01c0
-0.075583905 0.10176472 -0.3527027 -0.28889441 -1.1474271 -0.9929674 -2.1687386 -0.61206424
-1.0998116 -1.7118582 -1.3801187 -0.44035652 -1.5692406 -0.6256459 -0.17287375 -0.6972356
-1.0792464 0.5664193 -0.1327697 -2.0789037 -1.9483399 -0.1714405 -0.7079827 -0.27518916
-0.92310923 -2.1585164 -3.68103 -0.078659795 -1.0016879 -0.39186934 -0.026411215 0.002228636
-0.52817 -0.99726015 -1.7393997 -0.1642542 -2.3660672 0.11179569 -1.3218789 -1.9629638
-0.88812196 -0.4155276 0.057352014 -1.4553006 0.6310829 -1.6741107 -1.0173651 -0.7899324
-0.62010705 -0.9773404 0.6224137 -1.0646317 -0.3067836 0.95617574 -2.6956975 -0.80191165
-0.39660126 0.31537992 -1.3087151 -1.4153075 -1.3308002 0.15676787 -0.29901809 -0.51730365
-0.48893735 -0.3618758 -0.8102888 -1.1190846 -0.740626 -1.9308583 0.060272645 -1.8170984
-0.64869153 -1.721487 -1.2533765 -0.10006239 -0.6942208 -1.5719076 -0.0021736582 -0.881646
-0.30591127 -2.2193305 -1.6522129 1.5020859 -2.1827583 -1.7352655 -2.2020278 -3.6602542
-2.1239643 -3.23425 -2.8728142 -1.7372819 -3.147811 0.27007842 -0.90457535 -0.50318545
-1.4776162 -0.6415147 0.5296652 -1.6410275 -1.4167943 -1.5388749 -1.1346177 0.25116807
0.0070245992 -0.81971437 -1.9361765 -2.2192516 -0.5983509 -0.13627128 -0.31189185 -3.975971
0.4437946 -1.5296131 -1.7727972 -1.2619498 -0.19409066 -0.12421459 -3.2381835 -0.48465696
-3.0847673 -1.6959387 -2.4809098 -0.99520695 -1.2715085 -0.7390337 -0.21180423 -0.68038005
-1.6322454 -0.20689645 -2.5812309 0.3373585 -0.5450472 -1.0699139 0.32601768 -0.7523396
-2.3577623 -1.0155023 -0.89305264 -0.875673 -2.6106093 0.17023106 0.45560881 -1.9049189
-1.6647564 -2.0386436 0.06874492 -0.77705806 -0.9178093 -2.8765514 -1.5647869 0.44177085
-2.1216705 0.10443553 -0.17084801 0.1608174 -1.9998456 0.7319934 -1.6148698 -0.76292664
-0.8950563 -0.75134367 -0.086238675 -1.9918708 -0.85303086 -2.6795943 -0.39032888 -2.481924
-0.25976786 -0.7210338 -0.98416567 -0.055342022 -1.2936603 -0.5489088 0.5200466 1.0056536
-0.110827155 -0.35133123 -2.619928 -3.334261 -1.5238892 -1.2367891 -1.080989 -3.5018687
-2.7457144 -2.2312648 -1.1162128 -2.416232 -1.5128638 0.019928144 -1.4747396 -1.7136207
-0.28646109 -0.70319295 -2.417092 0.7720774 -4.067135 -3.1210425 -2.024207 -2.9629812
-3.2136726 -3.1857853 -1.2087722 -3.2294164 0.9101676 -0.33426955 -1.888592 -1.1543103
1.3406795 -3.0232894 -1.1341902 0.24135175 -3.0885015 -2.2494242 -0.6989939 -1.2555718
-4.049372 -3.7454188 -1.1272491 0.22125082 -2.9249346 -0.5937537 -0.4833782 -0.7681698
-1.0976514 -1.6013018 -1.0857916 -2.0947084 -3.4708652 -1.9757103 -0.9048111 -1.6079893
-1.2920722 -1.7449841 -4.3446593 -0.06120547 -2.6902053 -3.9734266 -3.772544 1.2955184
-0.2393549 -2.0782475 -4.6500187 -3.2089982 -0.63785523 -0.318811 -2.435752 -2.7677295
-3.1294663 -1.283451 -0.2697922 -1.637925 -0.8867217 -2.7393696 -1.0739398 -2.0284588

Q2.head.2.bias f4 [64]
00000000: 8281 a2bf 6b1d 9c3c 6c3c 7c3d 1cbb 2cbf
00000010: f2df b53d 2d7b 9fbf 77db edbe 15a0 bdbe
00000020: 1063 3ebe ba4b 31bf aedf f2be edba ffbf
00000030: e79b 95bf f636 aa3e cb0e 92be edef a0be
00000040: 2d5c 4fbf f79e 6cbe ad36 98be 38ab 9fbf
00000050: 5acd 2dbe a329 3ebf 4e56 d4be c24c 31bf
00000060: 04bd 85bf 5813 3dbf 2664 a3be b558 02bf
00000070: 394f a3bf 87a7 76be cc6a 8dbf 8939 54bf
00000080: 984c 54bf 386e b9be db27 45bf 0a97 80be
00000090: 3106 41bf 4212 cebf bf05 4fbf 1a2c 2c3e
000000a0: b041 8ebf cd5f 0fbf 78f3 2e3e 4185 07bf
000000b0: 42bd 7ebe 0a59 47bf f045 20bf 957f 5dbe
000000c0: 2c19 a4be ec1e 18be 24a4 8bbf 53cf 6cbf
000000d0: 2797 55bf d064 a1bf 2fba 5ebf 69b9 9abf
000000e0: 3ae2 59bf e655 c7bf ceaf aabe 9489 6cbf
000000f0: c9d2 83be 4930 46bf 6087 1abf 8763 98bf
-1.2695773 0.019056996 0.06158106 -0.67473006 0.08880605 -1.2459465 -0.464565 -0.37036195
-0.18592477 -0.69256175 -0.4743628 -1.997892 -1.1688203 0.33245057 -0.2852691 -0.3143305
-0.81000024 -0.23107515 -0.29729214 -1.2474127 -0.16972867 -0.7428228 -0.41472095 -0.6925775
-1.0448308 -0.7385764 -0.31912345 -0.50916606 -1.2758552 -0.24087344 -1.1048217 -0.8290029
-0.8292937 -0.36216903 -0.7701394 -0.25115234 -0.7540007 -1.6099322 -0.8086814 0.16813698
-1.1113796 -0.56005555 0.17085063 -0.52937704 -0.24876884 -0.7787024 -0.62606716 -0.216307
-0.32050455 -0.14855546 -1.0909467 -0.9250385 -0.83433765 -1.260889 -0.87002844 -1.2087833
-0.8511082 -1.5573089 -0.33337253 -0.9239743 -0.25746754 -0.7741743 -0.60362816 -1.1905373

Q2.head.4.weight f4 [144, 64]
00000000: 92f7 303e ed92 18be 66c6 b43c 1e3c 34bc
00000010: c2dc cc3c 46dd 9e3d a653 f8bd 671f f7bc
00000020: eaf9 80be eeba 883d 39f4 d1be 521d 0fbd
00000030: 6a46 86bd 902c 86bc 11d2 383e 01b5 fbbd
00000040: 9029 b0be d819 a93d 1a80 b9bd 5efc f03a
00000050: c8a7 35bf 1fc0 70bd 9ca8 fd3d be90 2bbf
00000060: 0fe1 13c0 0d70 963e 4556 aa3d 7ce5 4abd
00000070: fb44 ebbe d4e1 afbc 40bc 993b 6de1 36bc
00000080: fedf e93c 51c6 043d ee20 8f3d b0e5 b5bd
00000090: 6fe5 72be 0c3a a0bd 5ab1 3fbf e3e2 ca3c
000000a0: 7ccf 1abe c9b0 5abd 235e 743a 786d 5ebb
000000b0: 4d53 b0bd 4319 80b6 5b9e 59bf 3ce0 48bd
000000c0: 48ca e13c 63cc adbc 235e 463e 70fd 33be
000000d0: 6d6c 143e 4da0 283d e8a7 a03d a17a be3e
000000e0: 9911 2fbf 0d38 b83c 08ba e7be aa4e 03be
000000f0: bcec c43b 7ae7 f93b fad1 60be e68c ffbb
00000100: a138 77bf 21e3 18bf 69ca c0be fc0e 5cbe
00000110: 311f a23b 7a58 e63b 8a16 b3bf 806c 083f
00000120: 60d3 60bf 2be1 273f 5cec ed3d 64b7 8a3c
00000130: 2a0d da3d 2ed1 b43a a9a7 2f3f c588 acbd
00000140: b8a1 123f 63e3 323e 8087 a6bd bfc5 dfbc
00000150: d6c2 383f e186 783e 066b 283f 4a22 1bbc
00000160: 62d7 123f b5ef 8fbd a833 f3bd a5bf 613e
00000170: 2313 67be e93c 94bd c169 603f 9008 65bf
00000180: 4fde 023e 84e3 41be 1e14 45bc 9e3b 36be
00000190: 8c8d 0ebf 60a6 ed3d acbc 173e 03a9 bfbf
000001a0: 29d8 353e 44be d0be 90ec 91bf 1ab5 6f3e
000001b0: 4ef0 1fbe 91ef 88bd cc9f 173f 3a27 da3d
000001c0: e608 e03d 9fd5 ddbf bf0e b7bb 3122 5ebe
000001d0: dcc9 0ebe b488 3ebe 9343 b0bd 7b8b 06be
000001e0: 4a52 763e 7025 41bd b5e1 a83d 770f 423e
000001f0: 3e0a 8fbe 11d9 753d 8f25 913e ca3d c5bd
00000200: f40a 923d 24e5 84bc eeac 4bba cec6 cd3c
00000210: 38a0 1cbc 4c8a a7b8 ed18 893c 0d0b ed3d
00000220: 32ae 2dbd 228a 933d 1d60 c5bc ad9a 27c0
00000230: 1d67 c739 6f36 0cc0 913d 1fbd 70d0 dd3c
00000240: a8a9 7c3d 3337 123b bcba 193d 8a82 b8bf
00000250: 318a 463d 8757 6dbe 03d4 8ebc e384 1a3d
00000260: 980f d3bc 303b 053f 8017 c03b 9f79 8f39
00000270: 3e81 513b fcd5 e6bf 22f3 303c 2348 f8ba
00000280: a939 d43e 995c db3e 29aa dc3e ee78 c9bd
00000290: b99a 253d 454e 18bc 2b3a f1bc b416 41bb
000002a0: 57b8 54bd e774 293a 5d3e df38 1aea d9bb
000002b0: 0000 78b6 a831 9c3c 4e56 09bc 604c b83d
000002c0: cf42 2ebd 2e80 8b3b 824d 7dbc 7ee9 92bc
000002d0: b82f 3ec0 db03 fbbb 4c33 8c3b 15e1 3bbd
000002e0: d013 99bc 0d47 943c 0cbd afbb ccb2 2f3d
000002f0: 1bc8 203c 12b9 0abb f44f b7bb b385 18bc
00000300: d295 4ebf bdc8 043f 5dc6 96bc f9c0 943e
00000310: cbd2 9f3d 330d 923d 661c fcbf ae18 9f3f
00000320: 5efb a9bd ce64 5e3f f171 983e d54b d9be
00000330: dab4 773d f0cf 0cbd 4baf 11bb 7877 173e
00000340: 6214 373e 3af5 6dbd 58fc 14bd a8de f93c
00000350: c5d3 e13e f80f cfbc 6b6e 723f 0bcf 33be
00000360: 7e3d 0a3f 2459 39bb fe64 d0bd ce5d 2e3f
00000370: b5a6 57bd d305 5bbe fe94 d2be 978c 5d3c
00000380: 4942 5a3b c372 0fbd 03d8 2c3d e1c6 af3c
00000390: 5b4f 05bd 30f0 453e 98fb 3bbc 1fb4 abbf
000003a0: 1d19 553d 8ced 5fbf e89b 15bd ec09 a0bb
000003b0: 0ca4 373c 803a 1bbb 6a31 7c3f 307f a3bc
000003c0: 40ba 68bb 7db8 06c0 bf75 b43d 78a1 453f
000003d0: d20f 8ebf 1238 d43e ac5b 09c0 681f 003f
000003e0: c19a bfbe 48cc b73c 61bc 8c3f f26b ea3c
000003f0: 574a 08be 7109 513d ad24 633e 49f5 7bbd
0.1728194 -0.14899798 0.02206726 -0.011000661 0.02500761 0.07757048 -0.1212533 -0.030166341
-0.2519067 0.06676279 -0.4100664 -0.03494007 -0.06556399 -0.01637867 0.18048884 -0.12290383
-0.3440671 0.082568824 -0.090576366 0.0018385758 -0.7095914 -0.05877697 0.12385675 -0.67017734
-2.3106115 0.29382363 0.08317236 -0.04953526 -0.45951065 -0.021469988 0.0046916306 -0.011162144
0.02854919 0.03241569 0.06988703 -0.088817 -0.23720334 -0.078235716 -0.7487999 0.024766391
-0.15118212 -0.05339125 0.0009321889 -0.003393976 -0.08609638 -3.817638e-06 -0.85007256 -0.04904197
0.027562276 -0.021215623 0.19371848 -0.17577147 0.14494486 0.0411685 0.078445256 0.37202933
-0.68386227 0.022487665 -0.45259118 -0.12822977 0.0060096662 0.007626471 -0.219551 -0.007798779
-0.96570784 -0.5972157 -0.37654427 -0.21490091 0.004947566 0.00702959 -1.3991253 0.5329056
-0.8782253 0.65577954 0.116173476 0.01693315 0.10647042 0.001379525 0.68615204 -0.08424524
0.57278013 0.17469554 -0.08131313 -0.027315972 0.72172296 0.24270202 0.65788305 -0.009468624
0.573599 -0.07028142 -0.11875087 0.22045763 -0.22565894 -0.0723818 0.8766137 -0.8946619
0.12780116 -0.18934447 -0.012028722 -0.1779618 -0.55684733 0.11603999 0.14818066 -1.4973453
0.1775824 -0.4077016 -1.1400318 0.23408929 -0.15619013 -0.06686319 0.59228206 0.10652013
0.10939197 -1.7330817 -0.0055864747 -0.2169273 -0.1394419 -0.18606836 -0.08606639 -0.13139145
0.24054828 -0.047154844 0.08246175 0.18951212 -0.27937502 0.060021464 0.28348967 -0.09630926
0.071309954 -0.016222544 -0.0007769604 0.025119212 -0.0095596835 -7.98894e-05 0.016735518 0.115743734
-0.042402454 0.07204081 -0.024093682 -2.6188157 0.00038033063 -2.1908224 -0.038877074 0.02707693
0.061685234 0.0022310733 0.0375316 -1.4414837 0.048471633 -0.2317792 -0.01743508 0.037724387
-0.025764272 0.5204344 0.0058621764 0.000273657 0.0031967903 -1.8034053 0.010800155 -0.0018942397
0.4145024 0.42844084 0.43098572 -0.09837519 0.04043076 -0.009296005 -0.029446682 -0.0029462995
-0.051933613 0.0006464258 0.00010645085 -0.0066502215 -3.695488e-06 0.019066647 -0.008382393 0.089989424
-0.042544182 0.0042572236 -0.015460374 -0.017933603 -2.9716625 -0.0076603717 0.004278576 -0.04586895
-0.018686205 0.018100286 -0.0053631123 0.042895123 0.009813334 -0.002116744 -0.005594248 -0.00930922
-0.8069736 0.518688 -0.018405134 0.29053476 0.078038774 0.07131424 -1.9696167 1.2429407
-0.082998976 0.86872566 0.2977443 -0.42440668 0.060475208 -0.034377992 -0.0022229727 0.14791667
0.17878869 -0.058095194 -0.036373466 0.030501679 0.4410688 -0.02527617 0.94699734 -0.1755945
0.5400008 -0.0028281892 -0.10175513 0.68111885 -0.05264922 -0.2138894 -0.41129297 0.013522289
0.003330367 -0.035021555 0.042198192 0.021457138 -0.032546382 0.19329906 -0.011473559 -1.3414344
0.052025903 -0.8747184 -0.036525637 -0.0048839953 0.011208545 -0.0023685992 0.985129 -0.019958109
-0.0035511404 -2.1050103 0.08811521 0.77199507 -1.1098578 0.41449028 -2.1462202 0.5004792
-0.37422755 0.022436276 1.0994989 0.028615925 -0.13309608 0.051034395 0.2218196 -0.06151322

Q2.head.4.bias f4 [144]
00000000: 38fe a2bc 46e3 2cbd 56cb 8dbc 63af c8bd
00000010: ffbb 8ebc f289 85bc 9094 fabe 8e90 5abf
00000020: 58c3 5bbf e381 6bbc a009 b9bc 0bd3 30bd
00000030: fa83 75bc f747 85be e14c 04be e91a adbc
00000040: cd4e f7bc 70c3 dfbc aa12 64bc 3b01 aabc
00000050: 70a6 1dbe f8c4 9dbe bbce 65bc b58a 91bc
00000060: 55b3 f1bc b896 23be 30f8 94bc 30a0 5b3b
00000070: 1454 34be 4629 82bf aa36 90bc 1413 cfbc
00000080: 3831 04bd 3e43 56bc 68f1 aabc e006 acbe
00000090: d6e0 6fbd e870 b9bc d98b 67bc 30c6 c7bc
000000a0: 3b1c 40bc 0653 99bc 5615 04be 9d78 e7be
000000b0: 7777 c4bc 6ef8 97bc 7219 3bbe bb82 1dbe
000000c0: 87c3 a0bc 381c 02bd 6ed5 a8bc dd73 ddbd
000000d0: 14a9 e4bc 5cca 02be 62df 44bf 22d0 47bc
000000e0: 63e0 40bf c9cf 88bc bb53 bdbd a729 93bc
000000f0: 38d9 2fbd d451 52bd 0e99 92bc 6cfd d7bc
00000100: 79f3 98bc bcdd abbd 1a6e a9bc e067 4fbd
00000110: 2013 57bc 9762 22bd dbe3 acbc 7414 6cbc
00000120: 453f aebc f1b2 39c0 d214 9fbc ea87 bbbd
00000130: 40db babc 052f d3bc 99d2 6cc0 ce5f 50c0
00000140: 77e0 4bc0 4601 8bbc 95ad bdbc 9e96 71c0
00000150: fd33 c9bc 6b0b 44c0 2333 6bc0 b271 82bc
00000160: d905 a7bd 739d e0bc 5d5c 52c0 9cca b2bc
00000170: e597 80bf f837 b2bf dea5 5ec0 0ac5 82bc
00000180: 3b7d 91bc 6962 45c0 3434 d9bc 18dd 56c0
00000190: fa81 7ac0 aaae 52c0 efb1 85bc 8ad9 f7bc
000001a0: 40ab a0bc aeed 47c0 79a0 7bbc 0bd7 4bbf
000001b0: 2d37 56c0 7ab2 b7bc 2d22 96bc 6bd9 edbc
000001c0: 3eed 80c0 458a b5bc d9ef 32be 613d 4dc0
000001d0: 4147 a6bc c141 c8bc 1439 d4bf 96ad 3ec0
000001e0: 1cd4 80bc e2c1 b3bc e332 b9bc 3e32 a5bf
000001f0: dbb0 9abc 4a7a 14be 35a8 cdbf 6598 6dbc
00000200: f101 2dc0 a968 9cbc 1107 52be 7f12 a3bc
00000210: 69d0 4cc0 3c81 f4bb 341c 4cc0 934c 7cbc
00000220: 360b 8fbc f15d d6bd 423b 9dbc 58b1 a4bd
00000230: 0ed7 72bc f198 4ec0 52ef bbbc b3a7 85bc
-0.019896612 -0.042208932 -0.017308872 -0.09799077 -0.017423628 -0.016301129 -0.4894147 -0.8537682
-0.85844946 -0.014374229 -0.022587597 -0.043170016 -0.014985079 -0.26031467 -0.12919952 -0.021130996
-0.030188942 -0.027314872 -0.0139204655 -0.02075254 -0.15395522 -0.30814338 -0.014026339 -0.017766336
-0.029504457 -0.15975463 -0.018184751 0.0033512227 -0.17610198 -1.0168846 -0.01760419 -0.025277652
-0.0322735 -0.013077555 -0.020867065 -0.33598995 -0.05856403 -0.022636846 -0.014132463 -0.024386495
-0.011725481 -0.018716346 -0.12898764 -0.45209208 -0.023982747 -0.018551078 -0.18271425 -0.15381901
-0.019624485 -0.031765193 -0.020609584 -0.10813115 -0.027912654 -0.12772506 -0.76903355 -0.012195619
-0.75342387 -0.016700642 -0.09244486 -0.017964197 -0.042931765 -0.05134757 -0.017895248 -0.026365958
-0.018670784 -0.08391902 -0.020682383 -0.050636172 -0.013127118 -0.039644804 -0.021104744 -0.014409173
-0.021270404 -2.9015467 -0.019419108 -0.09156783 -0.022809625 -0.025779257 -3.7003539 -3.2558475
-3.1855752 -0.01696838 -0.02315406 -3.774818 -0.024560923 -3.063197 -3.6749961 -0.015923355
-0.08155412 -0.027418828 -3.2868874 -0.021825127 -1.0046355 -1.392333 -3.4788737 -0.015963096
-0.01775991 -3.0841315 -0.02651415 -3.3572445 -3.9141831 -3.2919106 -0.016320197 -0.030255098
-0.019612908 -3.1238818 -0.015358084 -0.79625005 -3.3471177 -0.022423971 -0.018326843 -0.029034337
-4.02896 -0.022160659 -0.17474307 -3.2068713 -0.020297648 -0.024445416 -1.6579919 -2.9793448
-0.015726142 -0.021943036 -0.022607272 -1.2905958 -0.01888316 -0.14499775 -1.6066958 -0.014501666
-2.7032435 -0.019092875 -0.20510508 -0.01990628 -3.2002203 -0.007461695 -3.1892214 -0.015399116
-0.0174614 -0.10467137 -0.019193295 -0.08041638 -0.014821781 -3.2280848 -0.022941265 -0.016315317
