script/logs/toy/model/final/online_critic.pth (torch, 46738 bytes, 12 tensors)

Q1.head.0.weight f4 [64, 8]
0	0xbd23c816	-0.03998574
1	0xbc9ea0ff	-0.019363878
2	0xbe2f7b16	-0.17136797
3	0x3e014402	0.12623599
4	0x3e352e4a	0.17693439
5	0xbe48c724	-0.19607216
6	0x3ec0da8c	0.37666738
7	0x3eae851e	0.34085935
8	0xbe097bac	-0.13426083
9	0x3ccffb75	0.025388459
10	0xbd45c0b6	-0.048279487
11	0xbc21e286	-0.009880668
12	0xbe71aa30	-0.23600078
13	0x3eaafe1d	0.33396998
14	0x3e22d3af	0.15901063
15	0xbeafa168	-0.3430283
16	0xbeb2bbe2	-0.34908968
17	0x3e9f2fc9	0.31091145
18	0x3b0510be	0.0020304169
19	0xbdbc4839	-0.09193463
20	0x3e7736f1	0.24142052
21	0x3dc88147	0.09790283
22	0x3d58447e	0.052799694
23	0x3e725e0f	0.23668693
24	0xbdb12fac	-0.08651671
25	0x3e9659ff	0.29365537
26	0xbeb01588	-0.34391427
27	0xbe7a7720	-0.24459505
28	0x3dd58c5f	0.10427164
29	0xb882de1d	-6.240255e-05
30	0x3e1e2846	0.1544505
31	0xbe0b81ee	-0.13623783
32	0x3dec0473	0.11524286
33	0xbdcaeaea	-0.099080876
34	0x3e7cb7b0	0.24679446
35	0x3d41df5f	0.047332164
36	0x3d9fa6dc	0.07795498
37	0x3e9eff28	0.31054044
38	0x3ee77266	0.45204467
39	0x3edbe44a	0.42947608
40	0xbead0fe9	-0.338012
41	0xbe439d76	-0.19103035
42	0xbdd3f5be	-0.10349606
43	0xbe24a7fb	-0.16079704
44	0x3e8b0eaf	0.2715964
45	0x3e25af0b	0.16180055
46	0xbda1f100	-0.07907295
47	0xbd396b92	-0.045268603
48	0x3d7c83a3	0.061648976
49	0x3e9bb7dd	0.30413714
50	0x3e3dcbd5	0.18534787
51	0xbe3f3a46	-0.18674573
52	0xbe394bf0	-0.18095374
53	0x3de3a9fe	0.11116408
54	0xbd151f0c	-0.03640656
55	0xbe684337	-0.2268189
56	0xbe8fcf16	-0.28087682
57	0x3e042dda	0.12908116
58	0xbd9c5a20	-0.076343775
59	0xbdfd87ea	-0.12379439
60	0x3e0c363e	0.13692567
61	0x3ec64b83	0.38729486
62	0x3ed4463a	0.4145983
63	0x3e9c3a6d	0.30513325
64	0xbe8f2363	-0.27956685
65	0x3ea1ba82	0.31587607
66	0x3e4b2443	0.19838051
67	0x3e0ea748	0.13931
68	0xbd7439db	-0.059625488
69	0x3c82b716	0.015956443
70	0xbe2a1b88	-0.16612065
71	0xbbdf8e9a	-0.0068224194
72	0xbd6e6329	-0.058200035
73	0xbd4d241d	-0.05008327
74	0xbeb42600	-0.35185242
75	0x3dff7208	0.124729216
76	0xbe941bc0	-0.28927422
77	0xbe875f55	-0.2643992
78	0x3e131f2b	0.14367358
79	0xbe942dbe	-0.2894115
80	0x3e9aa3a0	0.3020296
81	0x3e9a7659	0.30168417
82	0xbe804ef6	-0.25060242
83	0xbdce38e2	-0.10069443
84	0xbe948781	-0.2900963
85	0x3d519e2d	0.05117624
86	0x3daa546a	0.08316882
87	0xbe6e523c	-0.23273557
88	0x3dd65607	0.10465627
89	0xbb082048	-0.0020771194
90	0xbddcca78	-0.10780805
91	0x3cdb59d9	0.026776241
92	0xbeace835	-0.3377091
93	0xbe83c525	-0.25736347
94	0x3dbd394c	0.09239444
95	0x3eb93630	0.36174154
96	0xbe2ae626	-0.16689357
97	0x3e5089af	0.20365022
98	0xbb98698e	-0.004651255
99	0xbe0157bc	-0.12631124
100	0x3d91f236	0.07126276
101	0x3e6e6537	0.23280798
102	0x3e062772	0.13100985
103	0x3ec0ac99	0.37631682
104	0x3cdb6144	0.026779778
105	0xbe288843	-0.1645823
106	0x3ee23a4b	0.441851
107	0x3b537ac2	0.0032269214
108	0x3e9aaea4	0.30211365
109	0x3e9d9bb6	0.3078286
110	0x3e1a416c	0.15064019
111	0xbe4de12b	-0.20105426
112	0xbed65706	-0.4186327
113	0x3e5d0f86	0.21587953
114	0x3d9b6f35	0.075895704
115	0x3e2be245	0.16785534
116	0xbec0dcf7	-0.37668583
117	0xbda18a87	-0.0788775
118	0x3e773db4	0.24144632
119	0x3e0c63de	0.13709971
120	0x3e80b36c	0.25136888
121	0x3e73759b	0.23775332
122	0xbe0305c9	-0.12795176
123	0xbe940d6c	-0.2891649
124	0xbe88df50	-0.26732874
125	0x3ddf7e0f	0.10912716
126	0xbe3c1798	-0.18368375
127	0xbd6f49ff	-0.058420178
128	0xbc24e46c	-0.010064226
129	0x3e3a095b	0.18167631
130	0x3e19c70b	0.15017335
131	0x3ea40431	0.32034448
132	0x3d7dac87	0.061932113
133	0x3e7dadc4	0.24773318
134	0xbe59b91e	-0.21262023
135	0xbe40d815	-0.18832429
136	0xbe3a0471	-0.18165757
137	0xbe8e5370	-0.27798033
138	0x3ea8e005	0.32983413
139	0xbe0544b8	-0.13014495
140	0x3de075a6	0.1095994
141	0xbd01b7be	-0.03166937
142	0xbd9d7504	-0.076883346
143	0xbdc8f90d	-0.09813128
144	0x3dbda2d5	0.09259573
145	0xbea98a04	-0.3311311
146	0xbe52cc10	-0.20585656
147	0x3e9fd2ae	0.31215423
148	0xbeb1a19c	-0.3469361
149	0x3db79987	0.0896483
150	0xbcb98942	-0.022648457
151	0xbe94f789	-0.29095104
152	0x3e09675e	0.13418338
153	0x3e695e55	0.22789891
154	0x3e9c3e7d	0.30516425
155	0x3e057c80	0.13035774
156	0x3ea92298	0.33034205
157	0x3d7003b0	0.058597267
158	0x3e2e2539	0.17006387
159	0x3e016c00	0.12638855
160	0xbe80d996	-0.25166005
161	0xbd4a4298	-0.049379915
162	0xbe9e52bc	-0.30922496
163	0x3ecb8dbb	0.3975657
164	0x3e89d8b9	0.2692316
165	0xbd610ec1	-0.05494571
166	0xbd864c54	-0.06557527
167	0x3cbb71a7	0.022881342
168	0xbea2c293	-0.31789073
169	0x3d03af68	0.032149702
170	0x3e7c532f	0.24641107
171	0x3e05e46a	0.13075414
172	0x3c901153	0.017586386
173	0x3e9145e6	0.2837364
174	0x3e59e973	0.2128046
175	0xbe740ec5	-0.23833759
176	0x3e15e935	0.14639743
177	0xbea30324	-0.31838334
178	0x3e35a8ad	0.17740126
179	0x3e8592e0	0.2608862
180	0x3d97a020	0.07403588
181	0xbde9b804	-0.11412051
182	0xbe8befab	-0.2733129
183	0xbe574954	-0.21024066
184	0xbe13a1ce	-0.14417192
185	0xbe3b7f7e	-0.18310353
186	0x3eac571a	0.33660203
187	0xbe60d12d	-0.21954794
188	0x3e4c3429	0.19941773
189	0xbebc6d70	-0.36802244
190	0x3df34153	0.11877694
191	0x3ea7ce41	0.32774547
192	0xbe81c451	-0.2534509
193	0xbddc071e	-0.10743545
194	0x3d8c9605	0.068645515
195	0xbebe143d	-0.37124816
196	0xbe3c8bf9	-0.1841277
197	0x3e222d36	0.15837559
198	0x3ebc96bf	0.3683376
199	0xbdd85051	-0.10562194
200	0xbc8ead9a	-0.017416764
201	0xbec13a20	-0.37739658
202	0xbebc36e4	-0.36760628
203	0x3ead56aa	0.33855182
204	0x3ebf5703	0.37371072
205	0xbd821174	-0.06350985
206	0xbe52bf49	-0.20580782
207	0xbd96115a	-0.07327528
208	0x3e92249d	0.2854356
209	0xbea88033	-0.32910308
210	0xbe916321	-0.28395942
211	0xbdb98c9f	-0.090600245
212	0xbe0c33d0	-0.1369164
213	0x3b9496a7	0.0045345607
214	0x3e94c564	0.29056847
215	0x3d21da3b	0.03951476
216	0xbebc23e7	-0.3674614
217	0x3e8d7acb	0.27632746
218	0x3e619d86	0.22032747
219	0x3e111365	0.14167555
220	0x3e53a69c	0.20669025
221	0x3e164b11	0.14677073
222	0x3e536116	0.20642504
223	0xbec99d06	-0.39377612
224	0xbe615fcb	-0.22009198
225	0xbd37e7f7	-0.044898953
226	0xbd8ac539	-0.067758985
227	0xbe70f579	-0.2353114
228	0xbead98e2	-0.33905703
229	0xbe8a3fba	-0.27001745
230	0xbd62fdd8	-0.055417866
231	0x3e99673f	0.29961583
232	0x3e6bfeb5	0.23046382
233	0x3dc8a6ce	0.097974405
234	0xbe62633e	-0.2210817
235	0xbe15ad19	-0.14616813
236	0x3cf6c773	0.030124402
237	0xbea7c9b1	-0.32771066
238	0xbca473f0	-0.020074815
239	0x3d8b2edf	0.06796049
240	0x3e86fac6	0.263632
241	0xbe12f0c3	-0.14349656
242	0x3e874774	0.26421702
243	0x3bac5223	0.005258815
244	0xbe799ad5	-0.2437547
245	0x3ea45353	0.3209482
246	0x3e86e889	0.26349285
247	0xbea9cf24	-0.33165848
248	0xbe8a4549	-0.27005985
249	0x3e8235c8	0.25431657
250	0xbe20d71d	-0.15707059
251	0x3e7fc962	0.24979165
252	0xbe2734fd	-0.16328807
253	0xbdb6a29f	-0.08917736
254	0xbe234f13	-0.15948133
255	0x3ea44fa5	0.32092014

Q1.head.0.bias f4 [64]
0	0xbda57425	-0.080787934
1	0x3daca6bd	0.0843024
2	0x3e45d2fc	0.19318765
3	0x3e876293	0.26442394
4	0xbe158cdb	-0.14604513
5	0x3ead6a44	0.33870137
6	0xbe2be445	-0.16786297
7	0xbe854ec0	-0.26036644
8	0xbe02bdcc	-0.12767714
9	0xbea042b0	-0.3130088
10	0x3e518efc	0.204647
11	0x3de0b404	0.10971835
12	0x3d4c6a81	0.049906258
13	0xbe3541ad	-0.17700835
14	0x3e7ec7c3	0.2488089
15	0x3e10404b	0.14087026
16	0x3b05bec6	0.00204079
17	0x3e05283a	0.13003626
18	0x3e4fbeb8	0.20287597
19	0xbe2023b0	-0.15638614
20	0x3ba88078	0.005142268
21	0xbdb1aec8	-0.08675915
22	0x3ec609fc	0.38679492
23	0x3e2e1bdd	0.17002816
24	0xbe6cf610	-0.2314074
25	0x3eabbeef	0.33544108
26	0xbcc0258c	-0.023455404
27	0x3dc0ef66	0.09420662
28	0x3e105f92	0.14098957
29	0xbd394008	-0.04522708
30	0x3ecae8d0	0.39630747
31	0x3e37bfec	0.17944306
32	0x3e3266c0	0.17422009
33	0xbdad39f5	-0.0845832
34	0x3e1e2ce9	0.1544682
35	0xbe42ba8f	-0.19016479
36	0xbdbfa5ab	-0.093577705
37	0x3e7cf83a	0.24704066
38	0xbeb228e4	-0.34796822
39	0x3d4812fc	0.04884623
40	0xbdd715d7	-0.105022125
41	0x3e81fdb8	0.25388885
42	0xbe1d060a	-0.15334335
43	0x3d4a5047	0.049392965
44	0xbdd0bf21	-0.10192705
45	0x3eb67e63	0.356433
46	0x3cb91a01	0.022595407
47	0xbe6eed80	-0.23332787
48	0xbd55a322	-0.05215753
49	0x3ea7f106	0.32801074
50	0x3e76a50b	0.24086396
51	0x3e1b28c9	0.15152277
52	0x3ea61da6	0.32444495
53	0x3e5c7cbd	0.21531959
54	0xbaf96b07	-0.0019029089
55	0xbe16ac78	-0.14714229
56	0xbead3a55	-0.33833566
57	0x3e814c75	0.25253645
58	0x3eb4da1c	0.35322654
59	0xbd8bf565	-0.06833915
60	0xbd6525fb	-0.055944424
61	0x3dbf0e19	0.09328861
62	0x3c938cda	0.0180115
63	0x3eb3778b	0.35052142

Q1.head.2.weight f4 [64, 64]
0	0xbb98265e	-0.0046432456
1	0xbb76c040	-0.003765121
2	0xbdf3141e	-0.118690714
3	0x3d121e30	0.03567332
4	0xbb05dcef	-0.0020425876
5	0x3cdd5763	0.027019208
6	0x3d9c8372	0.07642259
7	0x3d4faddb	0.05070291
8	0x3979a800	0.00023809075
9	0xbc1dcae0	-0.009630889
10	0xbd865824	-0.0655978
11	0x3de72d56	0.11287944
12	0x3dd00600	0.101573944
13	0xbb40de31	-0.0029429311
14	0x3dfa9ff1	0.12237538
15	0x3de0ccca	0.109765604
16	0x3d8e1a9e	0.069386706
17	0x3d839844	0.06425527
18	0x3d4ab354	0.049487427
19	0xbcc7f176	-0.02440713
20	0x3c22e9df	0.0099434545
21	0x3dcb3376	0.09921925
22	0xbcc0c040	-0.023529172
23	0x3d15acf9	0.036541913
24	0xbd253ca0	-0.04034102
25	0x3c93bef7	0.018035395
26	0x3d94ae5e	0.072598204
27	0x3d9a2276	0.07526104
28	0x3d7a8810	0.061164916
29	0x3d73a100	0.059479713
30	0xbd050e27	-0.0324842
31	0x3de40da0	0.11135411
32	0x3db3dd64	0.08782461
33	0x3ded452d	0.1158546
34	0xbdd400c2	-0.10351707
35	0xbd722b60	-0.059123397
36	0xbdd491f6	-0.10379402
37	0x3c0cdcf5	0.008597602
38	0x3dc39b9c	0.095511645
39	0xbdb3efa2	-0.08785941
40	0x3cf7ad05	0.03023387
41	0xbba30fc3	-0.004976244
42	0xbdee5968	-0.11638147
43	0xbba0d860	-0.0049086064
44	0xbc707590	-0.014676467
45	0xbd813d59	-0.06310529
46	0xbda4d201	-0.080478676
47	0x3d97583c	0.07389876
48	0xbc522ac0	-0.012827575
49	0xbccaf360	-0.024774253
50	0xbd0e5918	-0.034752935
51	0xbc82edd8	-0.015982553
52	0xbd0d38d8	-0.03447804
53	0xbd9e7160	-0.07736468
54	0x3d5a732c	0.053332493
55	0xbb8d9ba4	-0.0043215323
56	0xbde4ee08	-0.11178213
57	0xbd808d74	-0.0627698
58	0xbcd0e9f8	-0.02550219
59	0xbd434930	-0.04767722
60	0x3cf19068	0.029487804
61	0x3def7e9e	0.11694072
62	0xbdbdad91	-0.09261621
63	0xbb8d6499	-0.0043149707
64	0x3db1b362	0.08676793
65	0xbde01d8b	-0.10943135
66	0xbdfe9f4c	-0.12432727
67	0xbbc4eeaa	-0.0060098963
68	0x3d433f68	0.04766789
69	0xbcfe65bf	-0.031054376
70	0x3d79b85d	0.06096684
71	0xbdc683d0	-0.0969311
72	0xbd437033	-0.047714423
73	0x3db1acf4	0.08675566
74	0xbe104a55	-0.14090855
75	0xbd02b3c7	-0.03190973
76	0x3dae01a4	0.08496407
77	0xbbaa3e74	-0.0051954333
78	0xbdf6edfc	-0.12057111
79	0xbdb78687	-0.08961206
80	0xbdb14b1b	-0.08656903
81	0xbdbdd886	-0.09269814
82	0xbd42970f	-0.047507342
83	0xbd9b6060	-0.075867414
84	0xbe2a9490	-0.16658235
85	0xbc51ca0d	-0.01280452
86	0x3ded82d9	0.11597223
87	0x3e0b9ff4	0.13635236
88	0x3db9f3ae	0.09079681
89	0xbc856bcf	-0.016286759
90	0xbd123fa3	-0.03570522
91	0xbd5ee761	-0.05441988
92	0xbdbdef49	-0.09274156
93	0x3d761ae6	0.060084246
94	0x3d633448	0.05546978
95	0x3cd7cf0e	0.026343849
96	0x3d213494	0.039356783
97	0xbdc02a6a	-0.0938309
98	0x3d47d05a	0.048782684
99	0x3ddb7d26	0.107172295
100	0x3cc2926b	0.023751458
101	0x3d61bfcc	0.055114552
102	0x3d3883cc	0.045047566
103	0x3d327f6d	0.043578554
104	0x3cc93f26	0.024566244
105	0x3dcde951	0.10054267
106	0x3dfd287c	0.123612374
107	0x3d0247ea	0.031806864
108	0x3dbad1c6	0.09122042
109	0xbcc6e322	-0.024278227
110	0x3e0eb473	0.13936023
111	0xbdbdb399	-0.09262771
112	0x3c5c8cb9	0.013461285
113	0x3bb15c50	0.005412616
114	0x3b541dda	0.0032366426
115	0xbdedf967	-0.11619835
116	0x3dd3aba1	0.1033547
117	0xbdc014ff	-0.09379005
118	0x3dfb29c0	0.122638226
119	0x3c658d1a	0.014010692
120	0x3d4b9474	0.049702123
121	0xbdc92307	-0.09821134
122	0xbda6e7ab	-0.08149656
123	0x3dfdd6ca	0.123944834
124	0x3db06315	0.086126484
125	0xbca1c9c5	-0.019749532
126	0x3dce4bbc	0.10073039
127	0xbde17150	-0.11007941
128	0x3dc838d8	0.09776467
129	0xbb311335	-0.0027019505
130	0xbc1d574b	-0.009603332
131	0x3d3a044c	0.045414254
132	0xbc29b489	-0.010357984
133	0xbd934d63	-0.07192495
134	0xbd8f065e	-0.06983636
135	0x3dd4fe18	0.10400027
136	0x3e2d1ce4	0.16905552
137	0x3de76b00	0.112997055
138	0x3dfab6e7	0.12241917
139	0x38bbf59e	8.9626046e-05
140	0x3e135084	0.14386183
141	0x3d459d50	0.048245728
142	0x3daddc82	0.08489324
143	0xbd5745ec	-0.052556917
144	0xbd9c52f9	-0.07633013
145	0xbd345ddd	-0.044034828
146	0x3d953d72	0.072871104
147	0xbcda25f0	-0.026629418
148	0xbd84191e	-0.06450103
149	0x3e08479b	0.13308565
150	0x3d2cba00	0.04216957
151	0x3d003aa0	0.03130591
152	0xbc9d8dbd	-0.019232625
153	0x3da596a2	0.080853716
154	0xbe2a83fd	-0.16651912
155	0x3c125d60	0.008933395
156	0x3eabd6b9	0.33562258
157	0xbc9ef3c8	-0.019403353
158	0xbdb4ddb7	-0.08831351
159	0xbd802647	-0.06257301
160	0x3dae56e1	0.085126646
161	0x3d92c1ef	0.07165896
162	0x3e07f4c7	0.13276969
163	0xbc9a8ede	-0.018866953
164	0xbde45e7e	-0.111508355
165	0xbddecb05	-0.10878567
166	0x3c0d4c50	0.008624151
167	0xbd3ace84	-0.045607105
168	0x3e114dfe	0.14189908
169	0xbdd9ef45	-0.1064134
170	0xbd128f0b	-0.035780948
171	0x3da0c003	0.07849123
172	0xbd3aceb4	-0.045607284
173	0x3c83b205	0.016076097
174	0x3e33f71f	0.17574738
175	0x3d8c9036	0.068634436
176	0xbd29600f	-0.041351374
177	0x3d0ce75a	0.03440032
178	0x3c8a4a02	0.016880993
179	0x3dd99704	0.10624507
180	0xbd10c86e	-0.035347395
181	0x3dab231d	0.08356307
182	0xbd060442	-0.032718904
183	0xbcaef9eb	-0.021359405
184	0xbd833a60	-0.064076185
185	0xbe362ff6	-0.17791733
186	0x3d691771	0.05690712
187	0x3e54068a	0.2070562
188	0xbde11106	-0.10989575
189	0xbe237f71	-0.15966584
190	0x3d2a6f0c	0.04160981
191	0xbd90d097	-0.07071035
192	0x3ddd752d	0.10813365
193	0x3b6cb4a7	0.003611842
194	0x3dd87d2e	0.10570751
195	0x3d8c21c0	0.06842375
196	0x3db57419	0.088600345
197	0x3c828c8c	0.015936159
198	0x3dd112eb	0.102086864
199	0xbd31095f	-0.043221828
200	0x3d46346f	0.04838985
201	0x3dc4e18a	0.09613331
202	0x3c66146f	0.014042958
203	0x3e0a4e36	0.13506398
204	0x3cda39c8	0.02663888
205	0x3da397fa	0.079879716
206	0x3d9f31ca	0.077731684
207	0x3d95149b	0.07279321
208	0x3d89126d	0.066929676
209	0xbe41c106	-0.18921289
210	0x3d23bd22	0.039975293
211	0xbd39c57c	-0.04535435
212	0xbc1989e0	-0.009371251
213	0x3d76d68d	0.060263205
214	0xbd4fc217	-0.050722208
215	0x3de40ad5	0.111348785
216	0x3dc5a0f1	0.09649838
217	0x3cb933b0	0.022607654
218	0xbdd80ee3	-0.105497144
219	0xbbc7d11d	-0.0060979263
220	0x3e263ded	0.1623456
221	0x3cce26eb	0.025165042
222	0x3dee654d	0.11640415
223	0x3cce8cae	0.025213566
224	0xbd1ba3cd	-0.03799801
225	0x3dd3b74b	0.10337695
226	0x3d7563c7	0.05990961
227	0x3dfbb426	0.1229022
228	0xb99926cc	-0.0002921134
229	0xbddf54f8	-0.109048784
230	0x3dab763c	0.08372161
231	0x3d863f29	0.065550156
232	0x3dec36a3	0.115338586
233	0xbdbd603d	-0.092468716
234	0xbcaebb27	-0.021329476
235	0xbce92b37	-0.02846299
236	0xbd84f6a2	-0.06492354
237	0x3db99cda	0.0906312
238	0x3e03d198	0.12872922
239	0x3db4e880	0.08833408
240	0xbcbdcb4f	-0.023168234
241	0xbe156707	-0.14590083
242	0xbcf7b6df	-0.030238567
243	0xbd098440	-0.03357339
244	0xbc43d8da	-0.011953557
245	0x3d1f5393	0.038898062
246	0x3c817041	0.015800597
247	0x3e25f15b	0.16205351
248	0x3dddc100	0.108278275
249	0x3dc62c48	0.09676415
250	0x3d75b42c	0.05998628
251	0x3d053adf	0.032526847
252	0xbd918702	-0.07105829
253	0xbde6ac57	-0.1126334
254	0x3e0427fe	0.12905881
255	0xbca29208	-0.019845024

Q1.head.2.bias f4 [64]
0	0xbdea13e1	-0.11429573
1	0x3cfe56d0	0.031047255
2	0x3d28486f	0.041084703
3	0x3d171223	0.03688253
4	0xbbeff8e0	-0.0073233694
5	0x3cc89f76	0.0244901
6	0x3ab23da6	0.0013598695
7	0x3d862e41	0.06551791
8	0x3e04e05b	0.1297621
9	0xbdc810fc	-0.097688645
10	0x3db8ce11	0.09023679
11	0xbd5fa083	-0.054596435
12	0x3da441e4	0.0802038
13	0xbd029e6d	-0.031889368
14	0x3d88741b	0.0666277
15	0xbdc315e9	-0.095256634
16	0x3e14ab59	0.14518489
17	0x3d87f55d	0.06638596
18	0xbdc6c0b6	-0.097047254
19	0xbdb4ad18	-0.088220775
20	0x3de85fea	0.11346419
21	0xbd782080	-0.06057787
22	0x3dc99173	0.09842195
23	0xbabf32fb	-0.0014587337
24	0xbd807a50	-0.06273329
25	0x3db2d5ed	0.08732209
26	0xbb5a119f	-0.0033274663
27	0xbdc65112	-0.09683432
28	0x3d0fac66	0.03507652
29	0x3de97ee9	0.11401159
30	0x3e143ea6	0.14477023
31	0x3de89692	0.11356844
32	0x3d8f17db	0.06986972
33	0x3ca4946b	0.020090302
34	0xbce6d0d4	-0.028175749
35	0x3e28ce68	0.16484988
36	0xbd4b8317	-0.049685564
37	0x3e12ecaa	0.14348093
38	0x3db5312d	0.0884727
39	0x3dbad194	0.09122005
40	0x3dc57c41	0.0964284
41	0xbccc7e45	-0.024962554
42	0x3dc5258d	0.09626303
43	0xbc67a226	-0.01413778
44	0x3d2fa076	0.042877637
45	0xbc5ce574	-0.01348244
46	0x3d9a0cbf	0.075219624
47	0x3cb6f335	0.022332767
48	0x3d2cf0b8	0.042221755
49	0xbd64bf56	-0.055846535
50	0x3e0a595b	0.13510649
51	0xbdec4dc2	-0.115382686
52	0x3dfe0312	0.12402929
53	0x3dd9f571	0.10642517
54	0x3d8b8e2a	0.06814225
55	0xbd960b83	-0.073264144
56	0x3c1e1420	0.009648353
57	0xbb270058	-0.0025482383
58	0xbda797b7	-0.08183234
59	0x3b806c31	0.0039191474
60	0xbd20a765	-0.03922214
61	0xbd1fe124	-0.03903307
62	0x3e001354	0.12507373
63	0x3dd84baf	0.105613105

Q1.head.4.weight f4 [8, 64]
0	0xbd654820	-0.055976987
1	0x3d18a26c	0.037264273
2	0x3e15b6d4	0.14620525
3	0x3de18c8f	0.110131375
4	0xbe5080fd	-0.20361705
5	0xbd755de5	-0.059903998
6	0x3dbc2f2a	0.09188683
7	0x3d9dada8	0.07699138
8	0x3d4e6ec4	0.050398603
9	0xbde723b2	-0.11286105
10	0xbe135c2d	-0.14390631
11	0xbdbab2a9	-0.09116108
12	0xbd620504	-0.055180565
13	0x3d8fb120	0.07016206
14	0xbd1409b9	-0.036142085
15	0x3d046f10	0.03233248
16	0xbdec70be	-0.11544941
17	0x3deade3d	0.1146817
18	0xbd9c1195	-0.07620541
19	0xbd8fc164	-0.07019308
20	0xbd147ddb	-0.036252838
21	0x3de5de69	0.11224062
22	0x3c209b7f	0.009802698
23	0x3e58ef3a	0.21185008
24	0xbdfc5e5b	-0.123226844
25	0x3d21b874	0.03948255
26	0xbd0ce4e7	-0.034397986
27	0x3dca9680	0.09891987
28	0x3d7ea965	0.062173266
29	0xbdd988fd	-0.106218316
30	0xbd4408a6	-0.04785981
31	0xbd24404e	-0.04010039
32	0xbdf9698c	-0.121783346
33	0xbdf679d2	-0.12034954
34	0x3dc1e52c	0.09467539
35	0xbd9c1d26	-0.07622747
36	0xbd4342e3	-0.04767121
37	0xbd8c1f5e	-0.0684192
38	0xbd1065e8	-0.035253435
39	0xbe198e6a	-0.14995733
40	0xbdd95656	-0.106121704
41	0xbe03fe48	-0.1288997
42	0xbdd690bf	-0.10476827
43	0xbc086a8f	-0.008326187
44	0xbdb72b54	-0.08943811
45	0x3dfc962c	0.123333305
46	0xbd95e2e5	-0.07318667
47	0xbdd22e6c	-0.102627605
48	0xbde49b5b	-0.11162444
49	0xbdb00fd8	-0.08596772
50	0xbe3259e0	-0.17417097
51	0x3dd0a91a	0.101885036
52	0xbe1d231c	-0.15345424
53	0x3bc3c4bf	0.0059743817
54	0xbe43d4ad	-0.19124098
55	0x3de97140	0.11398554
56	0xbde1e5ad	-0.11030135
57	0xbe4499bb	-0.19199269
58	0x3dc66b2c	0.0968841
59	0xbe30bd0d	-0.17259617
60	0x3d16c475	0.03680845
61	0x3da032f4	0.078222185
62	0x3d839f8a	0.06426914
63	0x3bff0cc1	0.007783503
64	0xbd8021aa	-0.06256421
65	0x3e283299	0.16425551
66	0xbc03ef45	-0.008052652
67	0x3e2ce0e3	0.16882662
68	0xbdc5a015	-0.09649674
69	0x3cd45f70	0.025924414
70	0x3e41c760	0.18923712
71	0xbe10b9e3	-0.1413341
72	0xbde33187	-0.11093431
73	0xbbec3a08	-0.0072090663
74	0xbe3795ee	-0.17928287
75	0x3e4634be	0.19356057
76	0xbd8a1256	-0.067417786
77	0xbd66db1b	-0.0563613
78	0x3d2ae7ad	0.04172485
79	0xbde2f17e	-0.11081217
80	0xbcd60020	-0.026123106
81	0x3e03754d	0.12837715
82	0x3def12c7	0.11673503
83	0xbdef5eee	-0.11688028
84	0x3cdb38fc	0.02676057
85	0x3c36fa03	0.011168006
86	0xbab89389	-0.0014082055
87	0x3e3aa7a0	0.18228006
88	0xbe3a34b2	-0.18184164
89	0xbe2185f3	-0.15773754
90	0xbe4010a0	-0.18756342
91	0xbc92124d	-0.017830992
92	0x3e112aa5	0.14176424
93	0xbe2db97c	-0.16965288
94	0xbd6594d3	-0.056050133
95	0xbd9df8ac	-0.07713446
96	0x3e0ebba7	0.13938771
97	0xbe3625ae	-0.17787811
98	0xbd810de7	-0.0630148
99	0xbdc70115	-0.09717003
100	0xbe3506b2	-0.17678335
101	0x3c8aef3b	0.016959777
102	0xbe04ad5e	-0.1295676
103	0xbdc32aa6	-0.09529619
104	0xbdc9e88f	-0.0985881
105	0xbdb26fdf	-0.08712744
106	0xbdbf0acb	-0.093282305
107	0x3e3eb716	0.18624529
108	0xbe34500b	-0.17608659
109	0x3d445738	0.04793474
110	0xbd8f9908	-0.0701161
111	0xbdb364dd	-0.087594725
112	0xbe4084ff	-0.18800734
113	0xbc83b7bc	-0.016078822
114	0x3d54260d	0.0517941
115	0xbc9c8f30	-0.019111246
116	0xbdfc761e	-0.123272166
117	0x3cb7544b	0.022379061
118	0x3d99daba	0.07512422
119	0xbc1a1af8	-0.009405844
120	0xbe24d310	-0.16096139
121	0x3c648a47	0.0139489835
122	0x3e1b3320	0.15156221
123	0xbe30de2b	-0.1727225
124	0xbbbc6392	-0.0057491744
125	0xbdc1dc02	-0.09465791
126	0x3c52e1ec	0.012871247
127	0xbda217fe	-0.079147324
128	0x3dfe167a	0.12406631
129	0xbdc03381	-0.093848236
130	0x3e5eaec8	0.21746361
131	0xbdba98da	-0.09111185
132	0xbdc01380	-0.09378719
133	0x3de783ca	0.11304434
134	0x3d14232b	0.03616635
135	0xbdbf4e3f	-0.09341096
136	0xbdd83036	-0.105560705
137	0xbdff5b6c	-0.12468609
138	0xbcd2e680	-0.025744677
139	0xbd204bf4	-0.039134935
140	0xbe1845b6	-0.14870343
141	0x3e3102ff	0.17286299
142	0x3e0853a2	0.13313153
143	0xbd803ee7	-0.06261998
144	0xbd8fbe59	-0.07018728
145	0xbc812290	-0.015763551
146	0x3e0e4733	0.13894348
147	0xbde5d5ea	-0.112224415
148	0xbe1cd242	-0.15314582
149	0x3e17508d	0.14776821
150	0xbd398b73	-0.045299005
151	0x3d87e48a	0.06635387
152	0x39afe6dd	0.00033550608
153	0xbcf5e01b	-0.030014088
154	0xbe2d5ba6	-0.16929492
155	0x3d847d78	0.06469244
156	0x3e0a5c98	0.13511884
157	0xbdd488db	-0.103776656
158	0xbe3bf9b4	-0.18356973
159	0x3cfcda8e	0.030865934
160	0x3da9eac5	0.08296732
161	0xbe5abd94	-0.21361381
162	0xbde84f3d	-0.113432385
163	0xbdf67d76	-0.120356485
164	0xbe3f1bc6	-0.18662938
165	0xbe17e263	-0.14832453
166	0x3d5db76c	0.054130003
167	0xbd1b08c0	-0.03785014
168	0x3b095e93	0.0020960912
169	0xbd8568d1	-0.06514133
170	0x3d9bdfce	0.07611047
171	0x3df26ba9	0.11836941
172	0xbd3e3b93	-0.046443533
173	0x3e474d32	0.19463041
174	0xbd1b32dc	-0.0378903
175	0x3d916d37	0.07100909
176	0xbd88875b	-0.06666442
177	0x3d01183a	0.031517245
178	0xbe2117ab	-0.15731685
179	0xbdade5f8	-0.08491129
180	0x3cd7f2a3	0.026360815
181	0xbdf5f39e	-0.12009357
182	0x3b2ba9cf	0.0026193743
183	0x3e627021	0.22113086
184	0xbd8f97b7	-0.07011359
185	0xbe25f7b5	-0.16207774
186	0x3cf1d8fa	0.029522408
187	0xbe091dd3	-0.13390283
188	0xbdb90487	-0.09034067
189	0x3d894f3a	0.067045644
190	0x3dbd17a8	0.09233028
191	0xbc53120a	-0.012882719
192	0x3d0e9664	0.034811392
193	0x3daa79c4	0.08324006
194	0xbd80e013	-0.06292739
195	0x3d19d519	0.03755674
196	0xbc0d1806	-0.008611685
197	0x3d45c56c	0.04828398
198	0x3de40665	0.11134032
199	0xbd3264fa	-0.04355333
200	0x3dc10ab5	0.0942587
201	0x3d450bbc	0.048106894
202	0x3e09e522	0.13466313
203	0x3daae460	0.0834434
204	0x3b002e7e	0.0019558962
205	0x3dec38c7	0.11534267
206	0xbe0ad808	-0.13558972
207	0x3c5ba990	0.013407126
208	0xbdf3eb16	-0.119100735
209	0x3a80fc07	0.0009840735
210	0xbd155e38	-0.036466807
211	0x3d9fd03e	0.07803391
212	0xbd4b30cb	-0.04960708
213	0xbdd61819	-0.10453815
214	0x3dbcc7c8	0.09217793
215	0xbde19b3c	-0.11015937
216	0x3c361cd6	0.011115273
217	0xbc528010	-0.012847915
218	0xbd8e17b7	-0.06938117
219	0x3d66fc6e	0.05639308
220	0x3d3ed38a	0.046588458
221	0xbdde9687	-0.108685546
222	0xbd46147f	-0.04835939
223	0x3da7efbf	0.08200025
224	0xbe1550f8	-0.14581668
225	0xbddc7819	-0.10765094
226	0xbd90cda2	-0.07070471
227	0xbdb83808	-0.08995062
228	0xbd77346a	-0.06035272
229	0x3dd79df7	0.10528176
230	0xbdb4e551	-0.08832801
231	0x3dac761e	0.084209666
232	0xbdf26e79	-0.11837477
233	0xbd9d6dbf	-0.07686948
234	0xbc94184f	-0.018077997
235	0x3d9addaf	0.07561814
236	0xbdbf5a6b	-0.09343418
237	0xbd5e369b	-0.054251295
238	0xbdd1cbde	-0.10243963
239	0xbdc7b78f	-0.09751808
240	0x3e05cc1c	0.13066143
241	0x3e80a3c1	0.25124934
242	0x3e309ef5	0.17248137
243	0xbd082ec0	-0.03324771
244	0xbdd4c639	-0.103893705
245	0x3cedc1be	0.029023048
246	0x3cb33631	0.021876426
247	0x3e32a422	0.17445424
248	0x3dc430e8	0.095796406
249	0xbdc4bc8b	-0.09606274
250	0xbe21beda	-0.1579546
251	0xbda49404	-0.08036044
252	0x3d9241d9	0.07141466
253	0xbdd9ed9a	-0.10641022
254	0xbde3c86c	-0.11122212
255	0xbd18ef3a	-0.03733752

Q1.head.4.bias f4 [8]
0	0xbd773e96	-0.06036242
1	0xbe0b49b0	-0.13602328
2	0xbe058cb3	-0.13041954
3	0xbb4096b9	-0.0029386713
4	0xbcbe8fba	-0.023261894
5	0x3dc3dcc3	0.09563591
6	0x3d884eda	0.06655665
7	0xbdeaa2a8	-0.114568055

Q2.head.0.weight f4 [64, 8]
0	0xbe45ebf8	-0.19328296
1	0xbe8e3f35	-0.27782598
2	0x3ddbff5d	0.10742066
3	0x3e94e8eb	0.29083952
4	0xbe0f730d	-0.14008732
5	0xbc995412	-0.018716846
6	0xbd1aa3cc	-0.037753865
7	0xbea22756	-0.31670636
8	0x3ed5f01f	0.4178476
9	0x3e674cb1	0.22587849
10	0x3eddc761	0.43316177
11	0xbe7aae89	-0.24480642
12	0xbd494849	-0.049141202
13	0xbd570b1f	-0.05250084
14	0x3e2b60a1	0.1673608
15	0xbc6182a2	-0.013764055
16	0xbe6e79f8	-0.23288715
17	0x3ea0c8bb	0.31403145
18	0x3ea6fbae	0.3261389
19	0x3ea3e66c	0.32011735
20	0x3e5ea585	0.21742828
21	0x3e5fd7e4	0.218597
22	0xbe988204	-0.29786694
23	0xbd83ad1a	-0.06429501
24	0xbde3095f	-0.11085772
25	0xbd0174ae	-0.031605415
26	0x3cebdbac	0.028791271
27	0x3dadd4fe	0.08487891
28	0xbe560209	-0.20899214
29	0xbd6b5afa	-0.05745981
30	0xbe2724fa	-0.16322699
31	0xbdba5315	-0.09097878
32	0xbe691f31	-0.22765805
33	0xbe3d1e9e	-0.18468711
34	0xbe7cef86	-0.24700746
35	0xbe7e2fe6	-0.2482296
36	0xbcbec9cf	-0.02328959
37	0xbe99e5f8	-0.30058265
38	0xbeac9870	-0.3371005
39	0x3e7dfaa8	0.24802649
40	0xbe3a81de	-0.18213603
41	0x3eab71f9	0.33485392
42	0x3d44c49a	0.048039056
43	0xbb9ba34a	-0.00474969
44	0x3eb05b6b	0.34444746
45	0xbe31ad99	-0.17351379
46	0x3e771ad3	0.24131326
47	0x3ea1623a	0.31520253
48	0x3e8ab593	0.27091655
49	0xbec9f770	-0.39446592
50	0xbcbca127	-0.023026062
51	0xbd2a344c	-0.04155378
52	0xbe900149	-0.2812598
53	0x3e75b1ad	0.23993559
54	0xbdcdee0f	-0.10055172
55	0x3e30adcc	0.17253798
56	0xbe8a2ff0	-0.26989698
57	0xbe63f77e	-0.2226238
58	0x3d337534	0.043812945
59	0x3c5fb88b	0.013654838
60	0x3e74daa4	0.2391153
61	0x3e283b6a	0.16428915
62	0x3e6eedc5	0.2333289
63	0xbeaccaea	-0.3374856
64	0x3da39c58	0.079888046
65	0x3e738fed	0.23785372
66	0xbe240d4e	-0.160207
67	0xbe902753	-0.28155002
68	0x3ede4678	0.43413138
69	0xbea9a374	-0.33132517
70	0xbe90251f	-0.2815332
71	0xbe9929d7	-0.29914734
72	0x3d32f9e5	0.04369535
73	0x3d5cc41b	0.05389796
74	0xbec42b70	-0.3831439
75	0x3e8edacc	0.27901304
76	0x3e475dce	0.19469377
77	0x3e2e3aa7	0.17014562
78	0xbec04c10	-0.3755803
79	0xbec41dbb	-0.38303933
80	0xbe622316	-0.22083697
81	0xbde91d89	-0.113825865
82	0xbebcc381	-0.36867908
83	0x3e8a1f54	0.26977026
84	0xbb1dfcd6	-0.0024107
85	0xbda1abde	-0.07894109
86	0x3eb67dc2	0.3564282
87	0x3cf51b76	0.029920321
88	0x3d3b0e8d	0.045668174
89	0xbe4b4d0c	-0.1985361
90	0xbdd52987	-0.10408311
91	0xbe98c6c7	-0.29839155
92	0xbe65bc42	-0.22435096
93	0x3eea61e0	0.45777798
94	0xbe6c1f39	-0.23058785
95	0x3e468be0	0.19389296
96	0x3e4f0472	0.2021654
97	0x3e72802c	0.23681706
98	0x3e9dab01	0.30794528
99	0x3ea847cd	0.3286728
100	0x3e3caec3	0.18426041
101	0xbcd62ed2	-0.026145373
102	0xbe235fe0	-0.15954542
103	0xbec197dd	-0.37811175
104	0x3ea02f85	0.31286255
105	0xbb0003e1	-0.0019533562
106	0x3e0988a7	0.13431035
107	0xbd5a729e	-0.053331964
108	0x3e80ddfd	0.25169364
109	0x3baa3ca7	0.0051952186
110	0x3ea3db4a	0.32003242
111	0x3ebad9ae	0.364942
112	0x3e3f4451	0.18678404
113	0xbc3059c5	-0.01076359
114	0x3e3e33c3	0.18574433
115	0xbe1e7126	-0.1547285
116	0x3e861b05	0.2619249
117	0x3e9c6a2c	0.30549753
118	0x3de9ad3a	0.114099935
119	0x3d239053	0.03993256
120	0x3d13aa5b	0.036051136
121	0x3e89c4c6	0.2690794
122	0x3c9ddb1e	0.019269522
123	0xbe5d42e3	-0.21607547
124	0xbd7d8563	-0.061894786
125	0xbec60ecb	-0.3868316
126	0xbc069e5e	-0.008216469
127	0xbea5d534	-0.32389224
128	0x3c1def1e	0.0096395295
129	0x3d5de27d	0.054171074
130	0x3e9cf664	0.3065673
131	0xbdcdf41e	-0.10056327
132	0x3d14fe9e	0.036375634
133	0x3cdb890b	0.026798746
134	0xbe461994	-0.19345695
135	0xbe5d3e76	-0.21605858
136	0xbd89d8b7	-0.06730788
137	0xbd8ac315	-0.0677549
138	0x3d8a2e78	0.067471445
139	0x3e22a2a7	0.1588236
140	0x3da90121	0.082521684
141	0x3e99517a	0.29944974
142	0x3b6dbdf4	0.003627655
143	0x3e3087dd	0.17239328
144	0xbeb9fa8d	-0.36323968
145	0x3e6d3312	0.23164013
146	0x3e83ca13	0.25740108
147	0x3e56a9a8	0.20963156
148	0xbe45b634	-0.19307786
149	0x3d700279	0.058596108
150	0xbe896bf0	-0.26840162
151	0xbec04494	-0.3755232
152	0x3eaa07b7	0.3320901
153	0x3e6ddcb5	0.23228724
154	0x3eb33735	0.35003057
155	0x3e996a16	0.2996375
156	0x3c82cee0	0.015967786
157	0x3e531de8	0.20616877
158	0xbe0ec831	-0.13943554
159	0xbe5a13e1	-0.21296646
160	0x3d584369	0.052798662
161	0xbd919213	-0.071079396
162	0x3ed0c660	0.40776348
163	0xbe557068	-0.20843661
164	0x3ec4fb9f	0.38473222
165	0x3d0a2f90	0.033736765
166	0x3e0deac1	0.13859083
167	0x3ec45adf	0.3835058
168	0xbe421258	-0.1895231
169	0xbe28e79b	-0.164946
170	0x3de0c775	0.109755434
171	0xbddfa7b5	-0.109206595
172	0x3d4fbeab	0.050718945
173	0x3e7a466c	0.24440926
174	0xbc3097f5	-0.010778417
175	0x3e31f6e9	0.17379345
176	0xbe1e9cc4	-0.15489489
177	0x3de43663	0.11143186
178	0x3b1ea225	0.0024205532
179	0xbe9a5e8a	-0.30150253
180	0x3bd4b266	0.0064909933
181	0x3e629103	0.2212563
182	0xbe7ff64f	-0.24996303
183	0x3e8dac77	0.27670643
184	0xbe80d57c	-0.25162876
185	0x3e4a3482	0.19746593
186	0xbccbc625	-0.024874756
187	0xbe795cf6	-0.24351868
188	0x3e8bbe64	0.27293694
189	0xbdcbc5aa	-0.09949811
190	0xbdef8523	-0.11695316
191	0xbe29cb01	-0.16581346
192	0xbeaa6202	-0.332779
193	0x3e77758f	0.24165939
194	0xbe5e40e6	-0.21704444
195	0x3e898ce2	0.26865298
196	0x3e838562	0.256877
197	0x3e6d774f	0.23190044
198	0x3e1670b8	0.14691436
199	0x3e1e67ff	0.15469359
200	0xbe970966	-0.29499358
201	0x3c7c3cd7	0.015395365
202	0xbdf90fe6	-0.121612355
203	0x3ec2a65a	0.3801754
204	0x3e4e37b6	0.2013844
205	0x3d5a2907	0.053261783
206	0xbe98c479	-0.29837397
207	0xbea6629f	-0.32497117
208	0xbeb4e86c	-0.35333574
209	0x3e82047d	0.2539405
210	0x3e36945b	0.1783003
211	0xbea7ef77	-0.32799885
212	0xbec6aaef	-0.38802287
213	0x3e8d1d4d	0.27561417
214	0x3e13fa64	0.14450985
215	0xbea0c4d0	-0.31400156
216	0xbdbf478d	-0.09339819
217	0x3e48b4ac	0.19600171
218	0x3e194aa4	0.1496988
219	0xbba1542a	-0.004923363
220	0xbe3cacf2	-0.18425348
221	0xbe1184e2	-0.14210847
222	0xbdfb5520	-0.12272096
223	0xbe65f156	-0.22455344
224	0xbe178574	-0.14797002
225	0x3ea6ef39	0.32604387
226	0x3e153ccd	0.14573975
227	0x3e350e5e	0.17681262
228	0xbe36b323	-0.17841773
229	0x3e1832f9	0.14863195
230	0x3ec04443	0.3755208
231	0x3e8e4ea2	0.27794367
232	0xbdee84bf	-0.11646413
233	0xbe36b1c1	-0.17841245
234	0x3ea23b43	0.31685838
235	0xbe3f9e8a	-0.18712822
236	0xbd4ecec7	-0.050490167
237	0x3d349c7a	0.04409454
238	0xbdfb9c18	-0.12285632
239	0xbd5cfb7d	-0.053950775
240	0xbdef13f6	-0.11673729
241	0xbe6b8e45	-0.2300349
242	0xbd670d86	-0.05640938
243	0x3e1cf57d	0.15328021
244	0xbead044d	-0.33792344
245	0x3e1ea4d7	0.15492569
246	0x3cf0beea	0.02938791
247	0xbe75a1bf	-0.23987482
248	0x3eb1545d	0.34634677
249	0x3eacc6be	0.33745378
250	0x3e6a0d82	0.22856715
251	0xbdacd9ab	-0.08439954
252	0x3e237a0b	0.15964524
253	0x3e4d8737	0.20071112
254	0x3c9a7c1e	0.018858012
255	0xbd7bae2a	-0.061445393

Q2.head.0.bias f4 [64]
0	0xbc3316fa	-0.010930771
1	0xbdd1a7a3	-0.10237052
2	0x3ec5c25f	0.38624856
3	0xbe7fd312	-0.2498286
4	0xba52bec8	-0.0008039293
5	0xbe2244be	-0.15846536
6	0x3e9dcbb2	0.3081947
7	0x3e95bdf8	0.29246497
8	0xbdd0c59c	-0.10193941
9	0x3d539dcb	0.051664155
10	0x3da09d55	0.07842509
11	0xbe64a909	-0.22330107
12	0x3ebba933	0.36652526
13	0x3e3e7aca	0.18601528
14	0x38ad5f4f	8.2670354e-05
15	0x3ebc137e	0.3673362
16	0x3e70200a	0.23449722
17	0x3e40d0a6	0.18829593
18	0x3e5e80cf	0.21728824
19	0xbd485eff	-0.04891872
20	0xbe6d61c6	-0.23181829
21	0x3e4aa0c8	0.19787896
22	0x3b98e590	0.004666038
23	0x3e70e494	0.23524696
24	0xbe37a854	-0.17935306
25	0x3d8d7af5	0.06908218
26	0x3ea7a65e	0.32744116
27	0x3dda4642	0.10657932
28	0xbe401659	-0.18758525
29	0x3e369852	0.17831543
30	0x3ed7e66d	0.42167988
31	0xbd94d7ec	-0.07267746
32	0x3d8074ee	0.062723026
33	0x3e81ca14	0.25349486
34	0x3e8f1f04	0.2795335
35	0x3e3db47b	0.18525879
36	0x3d902d0b	0.07039841
37	0x3eab199f	0.33417985
38	0x3ecae6f7	0.39629337
39	0xbea13a00	-0.31489563
40	0x3e87ac88	0.26498818
41	0x3ea83f5b	0.32860836
42	0x3e83719c	0.25672615
43	0x3e68df15	0.22741349
44	0x3e3ae7e3	0.1825252
45	0x3e9ca498	0.30594325
46	0x3dccd0e2	0.10000779
47	0x3ebc4a06	0.36775225
48	0x398352b8	0.00025047897
49	0x3e799dc9	0.24376597
50	0x3ea2a1bc	0.3176402
51	0x3da4dbc3	0.08049729
52	0x3e9ae0e7	0.30249712
53	0x3e8da21f	0.2766275
54	0x3e5dfbb9	0.21678056
55	0xbd410d1d	-0.047131646
56	0xbe424716	-0.1897243
57	0x3e5bc507	0.21461879
58	0x3e854afe	0.26033777
59	0xbe7dd1c6	-0.24787053
60	0x3d8e70a4	0.06955078
61	0x3d1e06b8	0.038580626
62	0xbc60bc40	-0.013716757
63	0x3e619f31	0.22033383

Q2.head.2.weight f4 [64, 64]
0	0x3e2e8daf	0.17046236
1	0xbce9daeb	-0.028546771
2	0x3d9b6f5b	0.07589599
3	0x3dbe52bc	0.09293124
4	0xbc11e277	-0.008904091
5	0x3d536159	0.05160651
6	0x3df0b27d	0.11752794
7	0x3c2d5cf4	0.010581244
8	0xbd9f3506	-0.07773785
9	0xbde4e36d	-0.111761905
10	0x3d4620a4	0.048370972
11	0xbdcf3ec8	-0.101193964
12	0x3e0af97b	0.13571732
13	0xbbd29c35	-0.0064273127
14	0xbe06b818	-0.13156164
15	0x3e3431e3	0.17597155
16	0x3e2ef9ef	0.1708753
17	0xbd388572	-0.04504914
18	0x3d9a6e2e	0.07540546
19	0xbdbde127	-0.0927146
20	0xbdd9eb81	-0.10640622
21	0x3d6bec6e	0.057598524
22	0xbc37a7c9	-0.011209437
23	0xbd0447cb	-0.03229503
24	0xbdaeb3f6	-0.085304186
25	0x3daeb13e	0.085299
26	0x3dc98ec3	0.09841683
27	0x3da7abd7	0.08187073
28	0xbdeaeb9d	-0.11470721
29	0x3d025cd5	0.031826813
30	0x3d9d0df7	0.07668679
31	0x3d55c860	0.052193046
32	0x3da841b8	0.0821566
33	0xbcd371c1	-0.025811078
34	0x3cfbb7bf	0.030727265
35	0xbcd8ca47	-0.02646364
36	0xbda19776	-0.07890217
37	0x3e048043	0.12939553
38	0x3df56699	0.119824596
39	0xbcaa90d8	-0.02082102
40	0x3dbd8d86	0.09255509
41	0xbc0ad010	-0.0084724575
42	0x3cb8c1d2	0.022553358
43	0xbd813ee3	-0.06310823
44	0xbd701c85	-0.05862095
45	0x3cb857e1	0.022502841
46	0x3d8e58ad	0.06950507
47	0x3d8818d8	0.066453636
48	0x3d51565e	0.051107757
49	0xbb90cf6f	-0.0044192593
50	0x3e08b61c	0.13350719
51	0x3dcbc497	0.09949606
52	0xbdce4ed9	-0.10073633
53	0x3b6f7aae	0.0036541629
54	0x3db92120	0.09039521
55	0x3d3c50be	0.04597544
56	0xbe1713b4	-0.1475361
57	0x3e2ca3c9	0.16859354
58	0x3e0e3f0a	0.13891235
59	0xbcabaf7e	-0.020957705
60	0x3d109162	0.035294898
61	0xbd92acb1	-0.071618445
62	0xbd870d9d	-0.065943934
63	0x3cb0f65f	0.021601854
64	0xbdd2880c	-0.10279855
65	0xbd9dc663	-0.07703855
66	0x3c834241	0.016022803
67	0x3d185bf4	0.03719707
68	0xbdf39c5a	-0.11895056
69	0xbbdc64c9	-0.0067258817
70	0x3dd69321	0.10477281
71	0xbd5dd6f6	-0.05416008
72	0x3e08ae83	0.13347821
73	0x3d04cb9a	0.032420732
74	0x3d2b1deb	0.04177658
75	0x3d695db4	0.056974128
76	0x3cdc73d7	0.026910705
77	0x3d8a5a9c	0.067555636
78	0xbdf95e9c	-0.121762484
79	0x3e137804	0.14401251
80	0x3cf90e11	0.030402215
81	0x3c72a20c	0.014809143
82	0x39c56e1c	0.00037656806
83	0xbdf4dde7	-0.11956387
84	0xbdb368c9	-0.087602206
85	0x3db71ce9	0.08941061
86	0xbd2c3ef8	-0.04205224
87	0x3e27482a	0.16336122
88	0xbdaff427	-0.0859149
89	0xbe122830	-0.14273143
90	0xbc46ef9a	-0.012142086
91	0x3d457cef	0.04821485
92	0xbdb49255	-0.08816973
93	0xbc22f6bb	-0.00994652
94	0x3dc67bfd	0.09691618
95	0x3cbf0979	0.023319947
96	0xbd1021b7	-0.035188403
97	0xbd655be6	-0.055995844
98	0xbdab4fca	-0.08364828
99	0x3d2e950e	0.04262262
100	0xbcd7266e	-0.026263442
101	0x3db4872e	0.08814846
102	0x3d32e597	0.043675985
103	0x3cae5c30	0.021284193
104	0x3cf8a84f	0.030353693
105	0x3dd516e2	0.10404755
106	0xbd0104d6	-0.031498753
107	0xbd3608a7	-0.044441845
108	0xbc9fbd82	-0.019499544
109	0x3dc6949f	0.09696316
110	0xbd64a93a	-0.05582545
111	0x3d02f574	0.031972364
112	0x3d90223a	0.07037778
113	0x3e0dbcc6	0.13841543
114	0x3dca4272	0.09875955
115	0xbd7f66b9	-0.062353823
116	0x3d17fe54	0.03710778
117	0x3d17fe47	0.037107732
118	0x3dddcf6d	0.10830579
119	0x3d4d121d	0.050066102
120	0xbc506270	-0.012718782
121	0x3dcab5dd	0.09897969
122	0x3dc9b066	0.098480985
123	0xbc032239	-0.008003765
124	0xbcf349c0	-0.029698253
125	0xbdf0de5a	-0.1176116
126	0x3c804f49	0.015662806
127	0x3cc10429	0.023561554
128	0x3e42480e	0.18972799
129	0xbda01e25	-0.078182496
130	0xbd89d6bf	-0.06730413
131	0xbc821e00	-0.015883446
132	0xbdd14d88	-0.10219866
133	0x3da5e1b5	0.08099691
134	0x3c58827f	0.013214706
135	0xbd4b74ea	-0.049672045
136	0x3e570ad2	0.21000221
137	0x3e41ed03	0.18938069
138	0x3d36c58f	0.044622
139	0xbbc1ba14	-0.005912075
140	0x3cda6810	0.026660949
141	0xbd4931cf	-0.049119767
142	0xbc0de327	-0.008660114
143	0x3d3ec059	0.046570156
144	0xbc725e3e	-0.014792977
145	0x3d47c0bb	0.048767786
146	0x3d85c032	0.06530799
147	0x3ceb6fcc	0.028739832
148	0x3d2fc5eb	0.04291336
149	0xbd499ac2	-0.049219854
150	0xbab80ebf	-0.0014042481
151	0x3dcf6833	0.10127296
152	0x3d5b5601	0.053548817
153	0x3def3dab	0.11681684
154	0x3cde19e1	0.02711195
155	0x3d97768f	0.0739566
156	0xbe3d7033	-0.18499832
157	0x3d686e35	0.056745727
158	0xbd8afe94	-0.06786838
159	0xbded2a18	-0.11580294
160	0x3e2a8cb7	0.16655241
161	0x3c1b96d0	0.009496406
162	0xba8402d8	-0.0010071648
163	0x3e2c5a81	0.168314
164	0x3e2b1dfa	0.16710654
165	0x3cdb64ed	0.026781524
166	0x3daf8ee0	0.08572173
167	0xbd6e8968	-0.05823651
168	0x3db63240	0.08896303
169	0x3e3789cc	0.17923659
170	0x3d3e74b1	0.046498004
171	0x3e21e2a8	0.15809119
172	0x3e1adb9f	0.15122841
173	0x3cfb6d75	0.030691842
174	0x3d01de86	0.031706356
175	0x3db89440	0.090126514
176	0x3d3b3cb4	0.045712188
177	0x3e020c52	0.12700012
178	0xbd027a86	-0.03185513
179	0x3e00da66	0.12583312
180	0xbb6857a7	-0.0035452635
181	0xbdc8cb43	-0.09804394
182	0x3c1a4049	0.009414741
183	0x3e17f9f1	0.14841439
184	0xbc550cba	-0.0130035225
185	0xbd64b8be	-0.055840246
186	0x3e48df46	0.19616422
187	0xbe563b4e	-0.2092106
188	0x3e5cc05e	0.21557757
189	0xbca7be6b	-0.02047654
190	0xbd8b0bf0	-0.06789386
191	0xbdb0b2cc	-0.08627853
192	0x3dec43e8	0.115363896
193	0xbc1a0789	-0.009401211
194	0xbd337cfd	-0.04382037
195	0xbc918ee0	-0.017768323
196	0xbdaa2114	-0.083070904
197	0xbcd3a474	-0.025835253
198	0x3bf74b09	0.0075467867
199	0x3e216fee	0.15765354
200	0x3ddc0555	0.107432045
201	0x3e2a5bd6	0.16636595
202	0xbdfbc356	-0.12293117
203	0x3ddbb603	0.10728075
204	0x3d3c6926	0.045998715
205	0xbd74e5f8	-0.059789628
206	0xbaafa87e	-0.0013401655
207	0x3d42fb3a	0.04760287
208	0x3e180fcd	0.14849778
209	0x3be4b0ac	0.0069790687
210	0x3d848aa7	0.06471758
211	0x3cbd9bbf	0.023145555
212	0xbdad77e0	-0.0847013
213	0x3e02e8e7	0.12784158
214	0x3e194c2a	0.1497046
215	0xba39d24b	-0.0007088526
216	0x3bd08c1a	0.0063643577
217	0x3cc33130	0.023827165
218	0x3e27a8f3	0.16373043
219	0x3c8957f7	0.016765578
220	0xbd4f89a2	-0.050668366
221	0x3e1ee5d0	0.15517354
222	0x3d7d6fac	0.061874077
223	0x3d4956ce	0.04915505
224	0x3c05cc3d	0.00816637
225	0xbd195bbf	-0.03744101
226	0x3c9d6126	0.019211363
227	0x3e388d5b	0.18022673
228	0x3e59eb87	0.21281253
229	0xbb14d94d	-0.002271253
230	0x3e1a0bb2	0.15043524
231	0xbd9f0c92	-0.077660695
232	0x3e23e4ef	0.160053
233	0x3d3ee2af	0.0466029
234	0xbd169285	-0.036760826
235	0x3daad71d	0.08341811
236	0x3e0e208b	0.13879602
237	0x3e06f835	0.13180621
238	0xbcea41de	-0.028595861
239	0x3d7fa111	0.062409464
240	0x3d91a789	0.07112033
241	0x3d326d08	0.04356101
242	0x3d69e04f	0.057098683
243	0x3e292854	0.1651929
244	0xbce15e64	-0.02751083
245	0x3de37e94	0.11108127
246	0xbe2aa540	-0.166646
247	0x3b1fec59	0.0024402349
248	0x3d533050	0.051559746
249	0x3c7bd76c	0.015371185
250	0xbc27a12c	-0.010231297
251	0xbd432eb1	-0.04765195
252	0xbcfaae73	-0.030600762
253	0x3c7e98ce	0.015539361
254	0x3daf858c	0.08570394
255	0xbdbfe80a	-0.0937043

Q2.head.2.bias f4 [64]
0	0x3d604f20	0.05476296
1	0x3dcfbdb6	0.10143606
2	0x3dc0a29e	0.09406017
3	0xbd385610	-0.04500395
4	0x3dbb57d4	0.09147611
5	0xbc46d18a	-0.012134919
6	0x3ce49192	0.027901445
7	0x3cb6f729	0.022334652
8	0x3c69c1c0	0.014267385
9	0xbc3aa4f6	-0.011391869
10	0x3db3cacc	0.08778915
11	0x3962d35e	0.0002163178
12	0xbd1ca0a8	-0.03823915
13	0x3d10b14c	0.035325333
14	0x3d9f0171	0.07763947
15	0x3d812fad	0.063079216
16	0x3d9adb31	0.07561339
17	0xbb4cfbf8	-0.0031278115
18	0x3bed1780	0.0072354674
19	0x3da84a59	0.08217306
20	0xbdbcf623	-0.09226634
21	0x3dd454a7	0.10367709
22	0x3dcf0e92	0.10110201
23	0x3d86424e	0.06555615
24	0x3de56e4a	0.112026766
25	0x3dc7e7a2	0.09760977
26	0x3c0a371f	0.008435993
27	0xbcb4d691	-0.02207497
28	0xbda44d76	-0.08022587
29	0x3db0a7b7	0.08625739
30	0xbd5eb066	-0.054367445
31	0x3d0e728f	0.03477722
32	0x3c8f125e	0.017464813
33	0xbdbaba83	-0.091176055
34	0x3d9b6a84	0.075886756
35	0xbccd91cc	-0.025093935
36	0x3d417f17	0.047240343
37	0x3d7f495f	0.06232583
38	0xbd30ec34	-0.04319401
39	0xbd243bd8	-0.040096134
40	0xbd0862a5	-0.0332972
41	0xbbdd9407	-0.006762031
42	0x3d8b8cc5	0.06813959
43	0x3dfe2027	0.12408476
44	0xbda6b5cb	-0.08140143
45	0x3e139693	0.14412908
46	0x3e1e1df7	0.15441118
47	0xbd8c29c2	-0.06843902
48	0x3dd1c2e1	0.10242248
49	0x3d89da05	0.06731037
50	0xbd46a201	-0.048494343
51	0x3d7fb142	0.062424906
52	0x3c8c6257	0.017136736
53	0x3db9bbcd	0.09069023
54	0xbd584011	-0.052795473
55	0xbd19f90f	-0.037591036
56	0x3dcfbb94	0.101431996
57	0xbd9867af	-0.07441651
58	0xbdfd21f8	-0.12359995
59	0x3e07ce5a	0.1326231
60	0x3d120c84	0.035656467
61	0x3da689e8	0.08131772
62	0x3cb2603c	0.021774404
63	0xbd6cbac1	-0.05779529

Q2.head.4.weight f4 [8, 64]
0	0xbc7ac97c	-0.015306827
1	0x3b806adc	0.0039189886
2	0xbd88c6ba	-0.06678529
3	0xbbf3c2cf	-0.0074389945
4	0xbe0aec95	-0.13566811
5	0x3d15d68e	0.03658157
6	0x3e3f2c92	0.18669346
7	0xbdced93c	-0.10100028
8	0x3deea6ee	0.11652933
9	0xbd9ddd85	-0.07708267
10	0xbdd5ab25	-0.10433034
11	0xbd625e10	-0.055265486
12	0x3da3af10	0.07992375
13	0xbb553a3e	-0.0032535936
14	0xbe17b83b	-0.14816372
15	0x3dc4b6a1	0.09605146
16	0xbc43b7bc	-0.011945661
17	0xbe21eecf	-0.15813754
18	0x3d8faacb	0.07014998
19	0xbce9ab69	-0.028524118
20	0x3d5aa384	0.053378597
21	0xbd750958	-0.059823364
22	0x3e198c93	0.14995031
23	0xbe0d5e81	-0.13805582
24	0xbd6b76c0	-0.057486296
25	0x3ba74659	0.0051048216
26	0xbdfb15f8	-0.122600496
27	0x3d939bae	0.07207428
28	0xbdf6d9ba	-0.12053247
29	0xbd8557b1	-0.065108664
30	0xbca6990d	-0.020336652
31	0x3d928801	0.07154847
32	0xbe374ce1	-0.1790042
33	0x3d9834d5	0.07431952
34	0xbdeb0d9e	-0.11477207
35	0x3e2d69b9	0.16934861
36	0x3e32e60e	0.17470571
37	0x3e165ff8	0.14685047
38	0x3dc337fd	0.09532163
39	0x3db8e04f	0.090271585
40	0xba81c13d	-0.0009899508
41	0x3d9c2228	0.07623702
42	0xbdc16993	-0.09443965
43	0xbd66d7b7	-0.056358065
44	0xbd3b8ac2	-0.045786627
45	0xbdb397b7	-0.08769172
46	0xbd1ba2c2	-0.037997015
47	0xbca36d88	-0.01994969
48	0xbe2c6a81	-0.16837503
49	0xbce578d3	-0.028011715
50	0xbdaf68d1	-0.08564914
51	0xbda7d706	-0.08195309
52	0xbdf3c763	-0.119032644
53	0xbd74ff2c	-0.059813663
54	0x3dc88219	0.09790439
55	0x3d204024	0.03912367
56	0xbd44be28	-0.04803291
57	0xbd3e0cfa	-0.046399094
58	0x3a8d8400	0.0010796785
59	0xbe034b28	-0.12821639
60	0x3e636727	0.22207318
61	0xbe311423	-0.17292838
62	0x3d605dae	0.05477684
63	0xbdde6152	-0.10858406
64	0xbe133f5a	-0.14379635
65	0xbe31682b	-0.17324893
66	0xbe10f24c	-0.14154929
67	0xbe38b182	-0.18036464
68	0xbdd8cc13	-0.10585799
69	0xbd45acd6	-0.048260532
70	0x3e0af3da	0.13569584
71	0xbe34a141	-0.17639638
72	0x3d97afe2	0.07406594
73	0xbe315179	-0.17316236
74	0xbe1aeacd	-0.15128632
75	0xbe234143	-0.15942864
76	0xbdd32eae	-0.10311638
77	0x3d539cb7	0.051663127
78	0x3d4d6185	0.05014183
79	0x3dc6c0a0	0.09704709
80	0xbd134d7c	-0.035962567
81	0x3cc13d21	0.023588719
82	0x3d80b8c5	0.06285242
83	0x3cf88b74	0.030339934
84	0xbbf36933	-0.007428312
85	0xbca7be34	-0.020476438
86	0x3db70233	0.08935966
87	0x3d8a82db	0.0676324
88	0xbdf48986	-0.11940293
89	0x3d8081e7	0.06274777
90	0xbd625ecf	-0.055266198
91	0x3ca2f647	0.019892825
92	0xbd5a4df4	-0.053297
93	0xbe3f989b	-0.18710558
94	0x3d836995	0.064166225
95	0x3e1d1a94	0.1534217
96	0xbe2463a7	-0.1605364
97	0xbcf763f1	-0.030199023
98	0x3d12b846	0.035820268
99	0x3e321f59	0.1739477
100	0x3e36d936	0.17856297
101	0x3e296251	0.16541411
102	0xbd117747	-0.035514142
103	0x3ddff8fb	0.10936161
104	0xbde5db90	-0.11223519
105	0x3c095266	0.008381462
106	0xbc5bef5d	-0.013423768
107	0xb927041c	-0.00015927892
108	0x3da0b7cc	0.078475565
109	0xbe17a428	-0.14808714
110	0x3c0392c3	0.008030596
111	0x3d8930b2	0.06698741
112	0x3bb8994b	0.0056335083
113	0xbd3edcd6	-0.046597324
114	0xbcbdb025	-0.023155281
115	0xbe46b3c3	-0.19404511
116	0xbe4f3094	-0.20233375
117	0xbde61cfa	-0.112359956
118	0x3e4baffb	0.1989135
119	0x3a2831f1	0.0006416133
120	0x3c55d7bf	0.013051926
121	0x3d8ec05c	0.069702834
122	0xbd9fb836	-0.07798807
123	0xbce988c9	-0.028507607
124	0x3e581272	0.21100786
125	0xbd2eb2ba	-0.042650916
126	0x3dccae1c	0.09994146
127	0x3d72b8c0	0.059258223
128	0xbdffb6c8	-0.12486035
129	0xbe1bf385	-0.15229614
130	0xbdb795e5	-0.08964137
131	0xbe3babff	-0.1832733
132	0x3c997424	0.018732138
133	0x3e160dcc	0.146537
134	0x3e3b81ba	0.18311206
135	0x3c4b08cc	0.012392234
136	0xbd4fc144	-0.05072142
137	0x3caf214f	0.021378187
138	0xbe193ab1	-0.14963795
139	0xbdd7c95c	-0.10536453
140	0x3bdb83a0	0.0066990405
141	0x3d9c6ec5	0.07638315
142	0xbe064c2a	-0.13114992
143	0xbdb29cf3	-0.08721342
144	0xbe24c068	-0.16089022
145	0xbda10f6a	-0.07864268
146	0x3e00868a	0.12551323
147	0x3d9d5f0b	0.07684144
148	0x3e08c2eb	0.13355605
149	0x3db99036	0.09060709
150	0x3e0e275b	0.138822
151	0xbe22aa90	-0.15885377
152	0xbe43edfd	-0.19133754
153	0x3d139ece	0.03604012
154	0xbdfd6b76	-0.12374012
155	0x3dd51481	0.104043014
156	0x3dd8cf0a	0.105863646
157	0xbd30fbbc	-0.043208823
158	0xbd636d37	-0.055524077
159	0x3d291be3	0.04128636
160	0xbdf17b31	-0.11791075
161	0x3e10e824	0.14151055
162	0xbda82aa1	-0.08211256
163	0x3e327f2f	0.17431329
164	0x3dd36b41	0.103231914
165	0x3d4035cb	0.0469263
166	0x3dae7f81	0.08520413
167	0xbd24a66d	-0.04019778
168	0x3d28b23a	0.041185595
169	0x3d80e86a	0.062943295
170	0xbe38854a	-0.18019596
171	0xbe058d79	-0.13042249
172	0x3e43ed50	0.19133496
173	0xbd823bce	-0.06359063
174	0xbdb45f07	-0.088071875
175	0xbdba6a36	-0.091022894
176	0xbd1843ad	-0.037173916
177	0xbe0c04ae	-0.1367366
178	0xbdd0aeec	-0.10189614
179	0x3d5a9a00	0.053369522
180	0x3d5fbf2d	0.05462568
181	0x3dc216b1	0.09476984
182	0x3d457e43	0.048216116
183	0xbdc6efb8	-0.097136915
184	0x3d28e2ea	0.041232027
185	0xbd018b6b	-0.0316271
186	0xbdb13b30	-0.08653867
187	0x3b5443b4	0.0032388987
188	0x3d6de12e	0.058076076
189	0x3d3a8e89	0.04554609
190	0x3cda838d	0.026674056
191	0x3d52ef5c	0.051497802
192	0x3c8e5d44	0.017378457
193	0x3d50a6c7	0.0509403
194	0xbe16f986	-0.14743623
195	0xbca719c2	-0.020398024
196	0x3c836c07	0.016042722
197	0xbe08bf2a	-0.13354173
198	0x3e0a279a	0.1349167
199	0x3e179195	0.14801629
200	0x3c6a38e0	0.014295787
201	0x3d39b72e	0.04534071
202	0xbd840c9e	-0.06447719
203	0x3d75e9e9	0.060037527
204	0x3d6c35dc	0.05766855
205	0xbbaa17e4	-0.0051908363
206	0xbddbeba7	-0.107383065
207	0xbdbc0e44	-0.091824085
208	0x3d26cba3	0.040721547
209	0x3d86fb9f	0.06590962
210	0xbdc74d69	-0.09731562
211	0x3d97268a	0.073803976
212	0x3d157684	0.03648998
213	0xbd442638	-0.04788801
214	0x3dd553b6	0.10416357
215	0x3d26b014	0.040695265
216	0x3d86e4b3	0.0658659
217	0x3c98e3e0	0.018663347
218	0x3c7a5152	0.015278177
219	0xbdcb9681	-0.09940816
220	0xbd3efbbc	-0.04662679
221	0xbd1b2bd0	-0.03788358
222	0xbd157014	-0.03648384
223	0xbe609ac9	-0.21934046
224	0xbc431fc5	-0.01190943
225	0x3c323e29	0.010879078
226	0x3d8e2732	0.0694107
227	0x3dd3a50d	0.10334215
228	0xbde3b629	-0.11118729
229	0xbd148a52	-0.036264725
230	0x3d2811af	0.04103249
231	0x3d7ff48b	0.062489074
232	0x3de1897c	0.11012551
233	0xbe3e0a4f	-0.1855862
234	0xbd86a081	-0.065735824
235	0x3c0e597b	0.008688326
236	0xbdb452f1	-0.08804882
237	0x3e00f944	0.12595087
238	0xbe022ca3	-0.1271234
239	0xbdaeef94	-0.0854179
240	0xbd9b5b4b	-0.07585772
241	0x3cf653d8	0.030069277
242	0xbdb50aee	-0.08839975
243	0xbc818adf	-0.01581329
244	0x3c3b8127	0.011444367
245	0x3cc79d35	0.024366954
246	0x3cb6f059	0.022331404
247	0xbb0ba7eb	-0.0021309804
248	0x3e16a5d8	0.14711702
249	0x3ca566fa	0.020190705
250	0x3d6a88cb	0.057259362
251	0xbdee30db	-0.11630412
252	0xbd4efbe6	-0.050533198
253	0xbde5333c	-0.11191413
254	0xbdb284d4	-0.08716741
255	0xbd9734d2	-0.073831216

Q2.head.4.bias f4 [8]
0	0x3dac4520	0.08411622
1	0xbe0eec0d	-0.13957234
2	0xbd892591	-0.06696618
3	0x3de4a018	0.11163348
4	0xbdc99556	-0.09842937
5	0x3cd1f8d5	0.025631348
6	0xbe1224c8	-0.14271843
7	0xbd8c778c	-0.06858739
