logs/arch/model/best/online_critic.pth (torch, 42938 bytes, 68 tensors)

Q1.head.module_0.att_src f4 [1, 1, 16]
000000 64 7c 20 3d 1c 84 ff 3c e0 f8 35 3e 9b 41 a1 3e
       0.03918113 0.031190924 0.1777072 0.31495366
000010 f6 11 ab 3d 28 a7 09 bf 3c 30 11 bf ee fc 11 bf
       0.08353035 -0.53770685 -0.56714225 -0.57026565
000020 86 c0 0d bf 3c b5 e7 3e c7 85 07 bd dd 44 c6 be
       -0.5537189 0.45255458 -0.033086564 -0.38724414
000030 52 d3 44 bd 69 d1 62 3c fc 2b dd be 9f fc 0d bf
       -0.048053093 0.013843873 -0.4319762 -0.55463594

Q1.head.module_0.att_dst f4 [1, 1, 16]
000000 5c 86 2d 3e 0c 4d 28 3d af 2b 5f be 96 a1 b7 be
       0.16945785 0.041089103 -0.21794008 -0.35865468
000010 bb b8 1f be f5 25 01 3f e2 d0 fc be 50 5e 41 be
       -0.15597813 0.5044854 -0.49378115 -0.18883634
000020 c2 c0 1b be 00 27 09 3f 3e 2b 17 3d 7b 01 d2 3e
       -0.1521025 0.53575134 0.036906473 0.41016755
000030 e3 2d 9d bc dc 00 b8 bd 6e a5 b9 3e b2 2e 6c be
       -0.01918692 -0.08984539 0.36259025 -0.23064688

Q1.head.module_0.bias f4 [16]
000000 d8 81 55 3e 1b cc 63 3e 70 30 f0 3d 10 10 79 bd
       0.20850313 0.22245829 0.11727989 -0.060806334
000010 d0 01 2b bc ae 25 4a 3c 66 9a c3 bb 76 17 22 3e
       -0.010437444 0.012338085 -0.0059693335 0.15829262
000020 c0 bb bb bd 54 f7 7c ba ac 9a 85 bc 75 9a 0d 3e
       -0.0916667 -0.0009649892 -0.016309105 0.13828452
000030 ea 7d 9e 3d 49 90 b8 3e 39 f2 34 3e 77 82 fc 3c
       0.0773886 0.3604758 0.17670526 0.03082393

Q1.head.module_0.lin.weight f4 [16, 2]
000000 66 d0 eb 3e ef 6d 16 bf 78 c8 85 3e d5 d1 c2 be
       0.46057433 -0.58761495 0.26129508 -0.38050714
000010 49 71 e4 3e aa 36 f8 3e 15 4c 56 3a d3 37 81 3e
       0.4461768 0.48479205 0.0008174789 0.25237903
000020 a4 71 87 3e 47 ef c7 3e 4f 80 4c 3f 6f b2 a0 3e
       0.26453888 0.39049742 0.79883283 0.31386134
000030 85 68 3a be b2 e2 48 3b 75 17 bd 3d f9 5f 01 bf
       -0.18203934 0.00306527 0.0923299 -0.5053707
000040 44 22 62 3e 19 ed c8 be 4c 26 dd 3e a0 ce 13 3f
       0.22083384 -0.3924339 0.4319328 0.5773716
000050 23 c2 ed 3d fd ed 03 3f 19 bb a9 3c 38 dc b4 3e
       0.11609294 0.51535016 0.020719098 0.35324264
000060 b9 bc ba 3e 1d 08 34 bf df d5 03 bf bf d6 fa be
       0.3647211 -0.7032488 -0.51498216 -0.48991963
000070 64 52 4c 3e ae 43 2e be 6f 0e 87 3e 49 45 0d 3f
       0.19953305 -0.17018005 0.263782 0.55183846

Q1.head.module_2.att_src f4 [1, 1, 16]
000000 6b 8f 6b be 30 cd 70 3e b9 43 cb 3d 75 24 a6 be
       -0.23003928 0.23515773 0.099250264 -0.3244969
000010 8b 70 b5 3e c4 66 ba 3e 99 41 43 3e 72 f0 c3 3e
       0.35437426 0.3640653 0.19067992 0.38269383
000020 7f 36 f8 be 19 16 d3 bd b3 da 34 3e 14 b2 91 3e
       -0.48479077 -0.10306949 0.17661552 0.28456175
000030 ad d2 d0 3e f6 30 5a 3d 6e 9d 45 be 23 84 3a 3f
       0.40785733 0.05326935 -0.19298336 0.72857875

Q1.head.module_2.att_dst f4 [1, 1, 16]
000000 ee 78 f8 3e 3a c6 00 bf 5b be 0a 3f d0 e6 25 3f
       0.48529762 -0.5030247 0.5419671 0.64805317
000010 99 e9 f0 3c a5 40 13 bf 3e 67 8a 3d 8e e4 30 be
       0.029408263 -0.57520515 0.06757973 -0.17274687
000020 ad 7a b5 3e 2c 64 11 bf 75 2c cd bd e2 68 ec 3c
       0.35445157 -0.56793475 -0.10018245 0.028858606
000030 4e 6f 92 bd a5 18 ae 3e 47 af ad 3d f8 0e 0a bf
       -0.07150136 0.34003177 0.08480697 -0.5392909

Q1.head.module_2.bias f4 [16]
000000 78 11 9c bd 9f de a6 bd c8 be 48 3e a3 ef 5c 3e
       -0.076205194 -0.0814793 0.19604027 0.21575789
000010 7d 6f 33 bd 9b 83 9b bd 7d 9d 20 bd f9 85 20 3e
       -0.043807495 -0.07593461 -0.039212693 0.15676107
000020 67 16 27 bd 29 b0 2f bd 0c 72 e0 bd e8 d9 25 3e
       -0.04079285 -0.04289261 -0.10959253 0.16196406
000030 aa 47 d6 bd 31 ce 16 3e a9 45 47 3e 6b 88 d3 3d
       -0.104628876 0.14727093 0.19460167 0.10328754

Q1.head.module_2.lin.weight f4 [16, 16]
000000 27 58 11 bf 36 46 c2 be d5 f7 80 be ef 96 30 3e
       -0.56775135 -0.37944192 -0.2518908 0.17245077
000010 aa 86 c1 3d df 98 ba be 30 4b cd 3e c4 b7 0a bd
       0.09449513 -0.36444756 0.40096426 -0.03386666
000020 1e a3 87 bc 3a fa 5b 3d 73 16 08 be e8 f9 21 3e
       -0.016557273 0.05370543 -0.13289814 0.15817988
000030 2b 91 c1 3e 22 eb 77 be d1 1f 96 bd 25 e6 9b 3e
       0.37806067 -0.2421079 -0.07330287 0.30449024
000040 6c aa 9a be 4b 08 08 be 01 dc 87 bc 82 d4 60 be
       -0.30208147 -0.13284414 -0.016584398 -0.21956065
000050 36 1f d8 3d 17 1d 9a 3d 74 02 eb be 3f e1 d6 be
       0.10552828 0.0752508 -0.4590031 -0.41968724
000060 e8 56 37 3f 3b d2 94 3e 3b 3a 37 be 38 1e da 3e
       0.71616983 0.29066643 -0.17893307 0.4260118
000070 fb 02 19 bf c6 e1 5f bf d2 25 31 3e c4 ac c8 3e
       -0.5977017 -0.8745388 0.17299584 0.3919431
000080 86 34 23 3f 35 8f 13 3f ee ce 42 be f6 3a ad bb
       0.6375202 0.5764039 -0.1902425 -0.0052865697
000090 4b c3 9e be 65 03 4f 3d e1 9e db 3e bc aa ec 3e
       -0.31008372 0.050540347 0.42894652 0.4622401
0000a0 ab cd 1e bf 6e 47 3c be ad 8b d1 be 4d 7f 7f 3e
       -0.62032574 -0.18386623 -0.40926877 0.24950905
0000b0 fb d9 f3 3e 89 05 26 3d e3 dd 02 3d 04 b7 4c 3e
       0.47627243 0.040532622 0.03194989 0.1999169
0000c0 64 bd ac 3e d4 2a 2b 3f 32 30 c4 3d d6 f2 6a 3d
       0.33738244 0.66862226 0.09579505 0.057360493
0000d0 61 06 5c be cb 04 1d 3e a9 d5 86 3c 5b cd 40 3f
       -0.21486808 0.1533386 0.016459303 0.7531335
0000e0 73 14 9a 3d bb 62 92 be 7e 36 ec be 48 fd c7 be
       0.07523432 -0.2859095 -0.46135324 -0.39060426
0000f0 ab f6 35 3f 67 5f 10 3f e9 82 21 3f ee de c4 3c
       0.7107951 0.5639557 0.6309038 0.024032082
000100 e8 7f 24 3e 5c 90 95 3e 68 5d 36 be 8e b6 52 be
       0.16064417 0.292117 -0.17809069 -0.20577452
000110 5a 52 b0 3e 76 ed b9 3e 4e ed c3 be 38 6d 09 be
       0.3443783 0.3631398 -0.38266987 -0.1342057
000120 bc ad 3e bf c7 c0 32 3e ab d6 8d 3e a8 d5 11 3e
       -0.7448385 0.17456351 0.2770284 0.1424166
000130 89 4e 29 bf 57 85 3a bc 90 8c 42 bd ed 96 e9 3e
       -0.6613546 -0.01138433 -0.047497332 0.4562296
000140 3f 22 fd be 66 a7 7b be f5 35 74 be 0e 7e 94 be
       -0.4944019 -0.24575576 -0.23848708 -0.29002422
000150 9e ae e6 3e a1 9b f5 3c ff 4d e2 be b8 2f 51 be
       0.45055097 0.029981436 -0.4420013 -0.2042836
000160 e3 5b ce be 77 51 1c 3e cd 53 ab 3e e5 ce d0 3b
       -0.4030448 0.15265451 0.33462372 0.00637232
000170 7d d8 bd 3e 72 2f 91 be 5e 25 9d be a0 83 54 3e
       0.3707923 -0.2835651 -0.3069257 0.20753336
000180 3f a6 b6 3e 3d 97 c3 bc f3 c6 24 3e b0 98 11 3e
       0.3567371 -0.023875827 0.16091518 0.14218402
000190 8d 7f 35 3e 0d 99 84 3e e1 75 1c bf fc b5 97 bd
       0.17724438 0.25898018 -0.6111737 -0.07407758
0001a0 05 da 1e 3e 3e 57 3e 3e 18 1b 4c 3e f2 4a 8b be
       0.15512855 0.18587968 0.1993221 -0.27205616
0001b0 8e 99 4d be 10 d2 da be 55 77 2d 3e c3 df 01 be
       -0.20078108 -0.4273839 0.16940053 -0.12683015
0001c0 67 3a b5 3e 1d 99 f3 3d cb 28 b6 3e c6 6f fd be
       0.3539612 0.118944384 0.35577998 -0.4949934
0001d0 28 df 3e 3d d9 b2 b2 3e 15 d9 9c be 13 7e 43 3d
       0.046599537 0.34902075 -0.3063437 0.047727656
0001e0 64 08 be be cd 25 44 3e 17 d7 a3 3c 88 41 65 3e
       -0.37115777 0.19155045 0.020000024 0.2238828
0001f0 7a 36 95 bf c8 38 d4 3e 37 59 47 3e 16 86 a3 3e
       -1.165725 0.4144957 0.19467627 0.31938237
000200 b0 1f ad 3d 68 70 7b bd 98 73 89 3e ed db 08 3f
       0.084533095 -0.061386496 0.26846004 0.5346058
000210 9f 88 0a 3f 8f 0d 8e be 5d 11 d0 bd bd 39 da be
       0.5411472 -0.2774472 -0.10159562 -0.42622176
000220 c7 0c c9 3e 12 6e d1 3e 0e 45 4e be 4c 52 59 3d
       0.3926756 0.4090429 -0.2014353 0.053057
000230 35 a9 6a 3d 95 21 98 3e 35 18 a3 be d5 c1 bf 3e
       0.057290275 0.2971312 -0.31854406 0.3745257
000240 6a a7 9c be 64 03 f2 be df 83 81 3e 91 3b ed 3e
       -0.30596477 -0.47268212 0.25295922 0.46334508
000250 83 b7 e7 3e bd 85 26 be 7c 91 dd be 46 40 c1 be
       0.45257196 -0.16261955 -0.43275058 -0.3774435
000260 40 dc a5 3e e1 00 46 be c3 74 55 3e b6 4e d3 3d
       0.323946 -0.19336273 0.20845322 0.10317747
000270 40 93 b3 be 6e 01 08 3e a5 ed 70 be 18 6d 90 3e
       -0.3507328 0.13281795 -0.23528154 0.28208232
000280 fb ed 4d 3f d6 88 b7 3e 7d e7 03 be 79 57 75 bd
       0.80441254 0.35846585 -0.12881275 -0.059897874
000290 be f0 9a be 95 9a 0e be e8 d7 88 be f8 31 01 bf
       -0.30261797 -0.13926156 -0.26727223 -0.5046687
0002a0 26 3d 89 3f 61 cb 35 3e 76 f8 b5 3e 78 e8 96 bd
       1.0721786 0.17753364 0.35541123 -0.07368559
0002b0 c3 3a 80 bd 00 d5 91 be 52 57 13 3d 34 eb 90 bd
       -0.06261208 -0.2848282 0.035971947 -0.070761114
0002c0 99 2b 90 be 99 b5 df 3e b8 87 d0 3e 0e 78 e4 be
       -0.28158262 0.43693236 0.40728545 -0.44622844
0002d0 d3 2d 2e be fd c0 a6 be 62 e1 f0 bd 2a ac ef 3e
       -0.17009668 -0.32569113 -0.11761738 0.46811038
0002e0 c4 0d 80 3d e9 94 36 bd d0 0b 41 3e 65 59 21 3e
       0.062526256 -0.044575606 0.18852162 0.15756758
0002f0 0d d9 de 3e 84 35 fd bd 29 15 6a 3e f4 81 ce be
       0.43524972 -0.12363723 0.22859634 -0.4033352
000300 d6 e1 4a 3e 57 a8 3f 3e e7 5f 03 3d 9d 93 de be
       0.19812712 0.1871656 0.03207388 -0.43471995
000310 36 e4 c1 3d c0 9e 38 3e 03 19 a1 be fe c9 c6 bd
       0.09467356 0.18029308 -0.31464395 -0.09706496
000320 f2 cb 84 3e 41 5e 3e 3c 87 dd 48 be c8 ce b1 be
       0.25936848 0.011619152 -0.19615756 -0.34728074
000330 d4 ba 63 bf 71 a4 0b bf ab a6 22 be 5e 20 bf bd
       -0.8895695 -0.5454779 -0.15883891 -0.093323454
000340 80 75 12 3f b6 74 c3 3e 5e 73 f5 3e c0 2f be 3e
       0.5721054 0.3817498 0.4793958 0.37145805
000350 bb 0f b6 bd 9c 82 35 bd c3 47 1e 3d 8e f3 cf be
       -0.08889719 -0.044314012 0.038642656 -0.40615505
000360 58 02 5c be 69 91 b6 ba 45 36 aa be 5f 3a 7e be
       -0.21485269 -0.0013928834 -0.3324453 -0.24826954
000370 1a 28 3d bf 4f eb 33 3d ce 2d 06 3f 6d ea e2 3e
       -0.73889315 0.04392558 0.5241364 0.44319478
000380 ea 12 94 3d c6 5a 85 bd 8b bb fc bd c5 09 a3 be
       0.0723017 -0.06511454 -0.123404585 -0.3184339
000390 ef ec c5 bd 44 af a6 be 5f b9 8a 3e fa 57 2d be
       -0.09664332 -0.32555592 0.27094552 -0.16928092
0003a0 af f4 d8 be b5 cc a4 3e 8e c4 96 be af 93 28 3e
       -0.4237418 0.3218743 -0.29446834 0.16462587
0003b0 b3 9b 75 3f 27 9f 2f 3f a3 5e c2 3e e2 f3 53 bd
       0.95940703 0.6860222 0.37962827 -0.051746257
0003c0 61 ce ce 3e f3 96 3c 3e 48 87 c0 3d d9 30 09 3e
       0.4039183 0.18416958 0.09400803 0.1339754
0003d0 53 de ac 3e 1b bf 0b 3f c9 4c ef bc 3d d7 8a be
       0.3376337 0.5458848 -0.029211419 -0.2711734
0003e0 03 9a 23 bf 0c 05 5b 3e a5 72 c6 3e 82 96 98 3e
       -0.6390688 0.21388644 0.38759342 0.29802328
0003f0 05 56 c1 bf 9a 35 ba be 39 b3 6f b9 a1 58 e1 b8
       -1.5104376 -0.3636902 -0.00022859582 -0.000107453445

Q1.head.module_4.att_src f4 [1, 1, 16]
000000 26 2d 38 bf c1 dd c0 3d 7f c9 9d be 4b e3 46 bf
       -0.7194389 0.09417296 -0.30817792 -0.7769057
000010 1f a6 5f bd ea e9 59 be 32 2b 82 3f e0 c5 21 bf
       -0.054601785 -0.21280637 1.0169432 -0.6319256
000020 00 8d 80 be 2f 04 29 bf 88 98 2b bf 34 60 02 3f
       -0.25107574 -0.6602201 -0.6702962 0.50928044
000030 77 6a ee bd 96 fa 49 be d2 98 f2 3e 41 1e cc 3e
       -0.116414 -0.19724497 0.47382218 0.39866832

Q1.head.module_4.att_dst f4 [1, 1, 16]
000000 ef dd a2 be 21 3a 1a 3f 3e 15 eb bc 5f b4 d6 be
       -0.31809947 0.6024495 -0.028696653 -0.41934487
000010 dc 7b 24 3f e6 27 60 be 94 45 91 be 62 80 82 bf
       0.64251494 -0.2189022 -0.28373396 -1.0195429
000020 8f 1a 5a 3e d9 cb 27 bf 92 00 0c 3e 73 2d fc 3d
       0.21299194 -0.6554542 0.13672093 0.12313356
000030 6b 75 e9 3d 79 78 90 3d 90 89 4d 3e 39 04 28 bf
       0.11399349 0.07054228 0.20072007 -0.65631443

Q1.head.module_4.bias f4 [16]
000000 63 de ee 3d 1b 8c 3e 3d 2e 4f 17 3e 78 95 a2 3d
       0.11663511 0.046520334 0.14776298 0.07938665
000010 cc cf a2 3d e6 4c e9 bd df a5 ea bd 7f 2f b6 bd
       0.0794979 -0.1139162 -0.11457419 -0.08895778
000020 e6 c5 a2 bd d5 97 0e 3e 80 d7 65 bd 35 6a 8d bd
       -0.079479024 0.13925107 -0.05611372 -0.06905023
000030 04 e6 4f 3c 50 f4 ad 3d ce 32 f2 bd 9e 58 35 be
       0.012689117 0.084938645 -0.118260965 -0.17709586

Q1.head.module_4.lin.weight f4 [16, 16]
000000 9c 9e 70 be d5 fb 7e be 13 6a 64 3e 5e e3 0b 3d
       -0.23498005 -0.24900754 0.22306089 0.03415238
000010 a1 49 b3 3d 0f 4b 30 3d e3 09 e3 be eb ab 1f 3e
       0.08754278 0.04304033 -0.4434348 0.15592925
000020 15 57 92 be 05 45 e1 be d1 1d 97 be 11 5e ae 3c
       -0.28582063 -0.4399797 -0.29514936 0.021285089
000030 6b 15 a0 be 2a 3b fe 3d 68 a0 09 3f 24 0c 68 bd
       -0.3126634 0.124136284 0.53760386 -0.056652203
000040 c8 f8 2e be f3 ca 2c 3e 4e 44 91 be 97 a0 b7 3d
       -0.1708709 0.16874294 -0.28372425 0.08966177
000050 3c c5 27 3f 11 17 00 bd 18 6c 63 3e 33 80 08 3f
       0.6553533 -0.031271998 0.22209203 0.53320616
000060 69 2e 0b 3f 7a 8a 1d bf 1a f6 bf be 4f 22 c4 be
       0.5436769 -0.61539423 -0.37492448 -0.38307425
000070 3d f1 67 3e fe c9 f5 3e 05 d6 a5 be 86 b0 b6 3e
       0.22650619 0.4800567 -0.32389846 0.35681552
000080 64 d0 74 bd 9d c7 ed be 68 d0 fe 3e 5f 6f 00 3f
       -0.05976905 -0.46441355 0.49768376 0.5016994
000090 7b 75 0e 3c 81 b7 9b be b1 53 07 3e d9 65 dd 3e
       0.008695002 -0.3041344 0.1321552 0.43241766
0000a0 8f 62 c2 3e 78 62 b5 be 07 6a 0a bd 91 ac 95 3d
       0.3796582 -0.35426688 -0.03379252 0.07308305
0000b0 02 22 2d 3e ea 5a ae bb b1 0b c7 bd 90 d5 b0 3e
       0.16907504 -0.0053208964 -0.09719027 0.34537935
0000c0 9b 92 fc 3d c4 ef 4b bd e3 bc ed 3e 29 19 ad 3e
       0.1233265 -0.049789205 0.46433172 0.33808258
0000d0 61 c1 8f 3c 0a dd f7 bd eb 34 9f be 60 16 65 bd
       0.017548265 -0.12102707 -0.3109506 -0.05592954
0000e0 15 66 81 bd 16 15 27 be f5 b6 fa be b0 2e f4 3d
       -0.06318299 -0.16316637 -0.4896771 0.119229674
0000f0 06 47 66 3e a4 85 21 be 8b dc 31 3f 87 d4 86 3d
       0.22488031 -0.15773636 0.69477147 0.06583505
000100 7f 1c 23 3d 31 c8 78 be 2b c3 31 be 8e 1d 27 3c
       0.039822098 -0.24295117 -0.17359607 0.0101999175
000110 65 b6 62 bc 87 42 05 bf 3b db d3 3e e8 7b 44 be
       -0.013837432 -0.5205464 0.41378197 -0.19187891
000120 56 b1 ae be 7e 21 03 bf 65 f8 94 3e 43 74 87 be
       -0.34119672 -0.5122298 0.2909576 -0.26455888
000130 fc c5 db 3e 5d 80 ac 3e a0 ab 26 bd c6 86 ae 3e
       0.42924488 0.33691683 -0.040691018 0.340872
000140 c0 db 6f 3e fe 3b 84 be df 4d 53 be 66 44 9e 3e
       0.23423672 -0.2582702 -0.20635174 0.3091156
000150 ed 46 a7 3e 98 ff f9 bd ce 18 be bd 04 a7 55 3e
       0.326713 -0.12206954 -0.09282075 0.20864493
000160 80 24 76 3e 4e 63 b9 bd 72 f4 36 3d b5 ac f4 be
       0.24037361 -0.09052144 0.044666715 -0.47788015
000170 d0 45 38 bd 67 02 d2 3d 3a e7 0f be 18 d8 cc be
       -0.044988453 0.102543645 -0.1405305 -0.40008616
000180 5c 76 05 be 96 23 34 3f 0c 80 4f bf 7a 92 3f bf
       -0.13033432 0.703668 -0.8105476 -0.7483288
000190 ad 76 0c 3f 91 00 68 3f 36 a2 29 be 95 a4 63 be
       0.54868585 0.90625864 -0.16565785 -0.22230752
0001a0 57 86 db 3d 83 ad 12 3f 8f 09 af be 49 77 93 be
       0.10718983 0.5729601 -0.3418698 -0.28801945
0001b0 03 09 be 3e 97 c7 09 be 97 28 22 bf 55 3c c0 bd
       0.3711625 -0.13455044 -0.63343185 -0.093865074
0001c0 23 43 34 3d ee 5f 3c bd 2d 9e 00 3f 53 f6 26 3f
       0.04400934 -0.045989923 0.5024136 0.6521961
0001d0 2c b0 c4 be 84 ce be be 4c b1 dd be bc 0d 31 3d
       -0.38415658 -0.37266934 -0.4329933 0.04322599
0001e0 fe 07 da be f5 36 bd be ca 71 a5 be af ba 9c 3e
       -0.42584223 -0.3695599 -0.32313377 0.30611178
0001f0 e1 d9 a9 3e 51 b8 49 be 4c 64 89 bc e9 3c 24 bf
       0.3317404 -0.19699217 -0.016771458 -0.6415544
000200 d0 14 a3 be d0 1e 39 bd 1c 95 ec 3e e6 df 9a 3e
       -0.31851816 -0.0451954 0.4620751 0.30248946
000210 ad 66 d8 3c 36 dd 44 3e bd 89 84 3e bd a4 0c 3e
       0.026416147 0.1922501 0.25886336 0.13734718
000220 7c 5e ba 3d 18 cb f7 bd 50 66 1f 3f a5 0b e7 be
       0.09100053 -0.12099284 0.6226549 -0.45126072
000230 40 17 6e be fa 7e 17 3d c1 b2 30 3e fb 74 05 bf
       -0.23251057 0.03698633 0.17255689 -0.52131623
000240 26 18 d6 be 9f 70 e3 be 1d 6c 21 3f 8a 60 13 3f
       -0.418153 -0.4442186 0.6305559 0.5756918
000250 b0 83 cd be 51 06 6c be 77 47 3c be c1 5f d5 3e
       -0.40139532 -0.23049285 -0.18386637 0.41674617
000260 b1 82 fb be c9 d2 e2 be af f7 13 bf 7b dc e4 3e
       -0.49123147 -0.4430144 -0.5779981 0.44699463
000270 20 77 b9 be bb 18 b3 3e 9b e3 f9 3e 2a 9f 38 be
       -0.36223698 0.34979805 0.48806462 -0.18029466
000280 99 60 d8 3d 5e 04 cf be 3b 3e c6 3e 3d 21 c5 bc
       0.105652995 -0.4043302 0.38719353 -0.0240637
000290 c1 16 85 bd 98 9c be be 3e 80 20 bf 54 12 f8 be
       -0.064984806 -0.37228847 -0.6269568 -0.48451483
0002a0 d4 04 ee be 03 7d a5 3e e7 fc 86 3e e4 e2 99 3e
       -0.4648806 0.3232194 0.26364824 0.30055916
0002b0 7b e1 48 be 1d 0e 25 bf bb 9d 50 3e 24 f4 13 bf
       -0.19617264 -0.6447466 0.2037267 -0.57794404
0002c0 07 17 92 be 99 68 00 be 24 73 52 bf fc 1f 78 bf
       -0.28533193 -0.12539901 -0.8220694 -0.96923804
0002d0 1a 10 be 3e 7a 16 27 3f a0 5f b7 3e de 38 c1 be
       0.3712166 0.6526867 0.35815144 -0.377387
0002e0 2b fc 03 3f 98 03 9b 3e 77 09 d3 3d ff bb c4 be
       0.5155665 0.3027618 0.1030454 -0.3842468
0002f0 40 bc ec 3d 60 33 eb be 3b 12 c7 be 5a 62 d5 3e
       0.11559343 -0.45937634 -0.38881096 0.416766
000300 ae 87 00 3e 25 17 9e be 10 b2 be bd 3c 5a 4b bd
       0.12551758 -0.30877033 -0.093113065 -0.0496466
000310 2f 75 a8 3e 21 e6 c4 bd 1e 0c 0d 3e 7c a7 bf bd
       0.32901904 -0.09614206 0.13774154 -0.09358117
000320 ef eb 39 3d 6c ca 76 bd e9 f9 d6 be a0 08 55 be
       0.04539102 -0.06025164 -0.4198754 -0.20804071
000330 dd 98 93 3e e5 5a d3 3e e0 88 19 3d 48 ad d8 3e
       0.28827563 0.41280285 0.03748405 0.42319703
000340 09 01 20 3e f4 f6 4f be e9 e4 b9 bd 78 1e 76 be
       0.15625395 -0.20309049 -0.09076864 -0.2403506
000350 79 3a 8a 3e 42 4e 88 3c a7 35 d6 3d 7b 67 f8 3e
       0.26997736 0.016638879 0.10459452 0.4851645
000360 d3 d8 50 bd 6d f2 03 bf 8d 36 fe be 8e b2 1d be
       -0.05098803 -0.5154179 -0.49650994 -0.15400144
000370 90 e7 a9 3e 5a c9 1d bd 8f ef b6 bd 68 d8 bd 3e
       0.3318448 -0.038522102 -0.08932411 0.37079167
000380 6e 1c 45 be 0e d4 32 be 47 98 98 bd b0 62 25 bf
       -0.19249126 -0.17463705 -0.074509196 -0.6460371
000390 55 e4 96 be 14 6b eb 3e f7 5a 3a bd 5a 55 07 3d
       -0.2947108 0.45980132 -0.045496907 0.033040382
0003a0 6b ac 2b 3e 6d 02 23 be 0d 1b 06 3f d8 cc 67 bf
       0.16764991 -0.15918894 0.52385026 -0.9054694
0003b0 7b bb bd 3e 41 14 a0 be 81 ce 5a bf 23 5e b6 3e
       0.370571 -0.31265453 -0.8547135 0.35618696
0003c0 00 4c 4b bf 98 8d 80 3d d7 d2 ba 3e 9b bf 03 3f
       -0.7941284 0.06277007 0.36488983 0.5146424
0003d0 3e bb 4c be 35 46 a9 3c 33 36 24 3f ef 7f a9 be
       -0.19993302 0.02066336 0.641452 -0.33105418
0003e0 17 d3 25 3e 2c 1e da be d6 91 8f 3e 6a 25 8a be
       0.16193806 -0.42601144 0.28040951 -0.2698167
0003f0 51 33 91 3d 9a 52 9a 3c 32 44 90 3e 2e f2 41 3d
       0.07089866 0.018838216 0.2817703 0.0473501

Q1.head.module_6.att_src f4 [1, 1, 16]
000000 f8 74 49 3f 51 db fc 3e 0c 40 22 bf 92 53 5d 3e
       0.78694105 0.49386075 -0.6337898 0.21613911
000010 0c fc 3c 3f 72 b1 cb 3e 7f a4 4f bd 46 c2 12 bf
       0.73822093 0.39783818 -0.050693985 -0.5732769
000020 40 fb 54 3f e9 ea 35 3b 08 e0 6f bf ba 45 9e 3e
       0.8319588 0.0027758426 -0.9370122 0.30912572
000030 f4 21 8c 3f d7 c5 42 bf 5f 05 46 3e c0 b4 41 bf
       1.0947862 -0.7608313 0.19337986 -0.7566643

Q1.head.module_6.att_dst f4 [1, 1, 16]
000000 0a d8 c7 be 5c 1a 60 3c df ac e3 3e b0 7c 89 bd
       -0.39032012 0.01367816 0.44467828 -0.067132354
000010 78 37 d9 bd 35 79 5a 3e a8 87 0e bf 4c ce 40 be
       -0.10606283 0.213353 -0.55675745 -0.18828696
000020 17 40 73 3e fa 40 a1 be f3 f1 d6 3a a3 40 76 3f
       0.23754917 -0.31494886 0.0016399011 0.9619238
000030 6f 29 dc 3e a6 27 c1 be 8d ea d9 3e c3 28 97 bd
       0.4300036 -0.37725562 0.4256176 -0.073808216

Q1.head.module_6.bias f4 [16]
000000 b9 d8 35 be 75 f8 73 bd c7 70 60 3d bb cb e5 bd
       -0.17758454 -0.05956312 0.054795053 -0.11220499
000010 d0 12 eb 3c 30 da 09 3e c2 89 49 3c 05 14 0a 3e
       0.028695494 0.13462138 0.01230091 0.134842
000020 09 71 9d 3d 2f 9e e1 3d df f2 93 bd ae bd cd 3d
       0.07687575 0.11016499 -0.07224058 0.10045944
000030 72 e4 84 bd f8 2a ee bd b4 80 15 bd a9 9a fb bd
       -0.06488885 -0.116292894 -0.036499694 -0.122853585

Q1.head.module_6.lin.weight f4 [16, 16]
000000 5f 39 20 bf db 88 72 be 70 f9 fb 3c 9e 98 2c bf
       -0.6258754 -0.23685019 0.03075859 -0.67420375
000010 a1 4d 88 3d de 6d a1 3c c4 5e 65 be d2 ef 13 bf
       0.066554315 0.01970571 -0.22399431 -0.5778781
000020 40 3a 2f 3e fd 00 07 bf 7c f2 b7 3c 6e 9a 6d 3e
       0.17112064 -0.52735883 0.022454493 0.23203442
000030 a5 6b 0d 3f 5c 2a e7 3e 0f fa 17 bf e4 b7 86 be
       0.5524238 0.45149505 -0.59365934 -0.26312172
000040 c7 21 be be e6 4c 06 b8 0e a8 89 3e 4a 80 81 be
       -0.37135145 -3.2019707e-05 0.26886028 -0.2529319
000050 c0 88 57 be a7 84 5b bd 20 c1 58 3f cd 86 e2 be
       -0.2104826 -0.053593304 0.84669685 -0.4424347
000060 3b 69 d5 3d 9b 46 11 bf a0 2c 90 be bb 50 80 3f
       0.10420462 -0.5674836 -0.28159046 1.0024637
000070 91 d3 fa 3d 04 bb 2f be 51 07 1d 3e f5 8a b6 be
       0.12247384 -0.17161185 0.15334822 -0.3565289
000080 c8 0c 9f bd 62 34 5d be 11 ff 0e 3e 43 da 14 3f
       -0.0776611 -0.21602014 0.13964488 0.5814554
000090 09 d4 10 3f 76 8f a4 3e 11 58 78 be a1 fb 2d 3f
       0.5657354 0.32140702 -0.24252345 0.6796208
0000a0 14 5c b4 3e 2c a9 62 3e 58 ad 34 be 42 fa 2d 3e
       0.352265 0.22134846 -0.1764425 0.16989997
0000b0 c6 e6 75 be 3d b4 dc bd 66 7e ac bd d1 51 d2 3e
       -0.24013814 -0.10776565 -0.08422546 0.41078046
0000c0 25 3f 34 bf 7c 18 49 3e 18 27 b5 be 18 66 2d bf
       -0.7040885 0.19638246 -0.3538139 -0.6773391
0000d0 f3 9e 1f ba c5 80 8d be b7 b9 33 3f 72 36 8a be
       -0.0006089054 -0.27637306 0.70205253 -0.26994663
0000e0 c3 d3 51 be cd dd 9d be 63 29 ba be bd 49 8d 3e
       -0.20490937 -0.30833283 -0.363597 0.2759532
0000f0 8a 90 81 3e 04 b0 27 be 82 b4 19 bd d4 d2 72 be
       0.25305587 -0.16375738 -0.03752566 -0.23713237
000100 2b 39 8e be e8 03 40 3e 9d fb 8e be 88 f0 16 bf
       -0.2777799 0.1875149 -0.2792634 -0.5896077
000110 25 8d cf 3c 99 15 08 3f df 8b 63 be 2e cb cf be
       0.025335858 0.53157955 -0.22221325 -0.405847
000120 7b 76 ce 3d 2c 13 c1 be 51 c8 29 be 65 c0 28 3e
       0.10081192 -0.3770994 -0.16580321 0.16479643
000130 26 81 8d 3e 97 79 15 3f 1d 62 b1 bd d0 d2 3d bf
       0.27637595 0.58388656 -0.08661292 -0.741498
000140 54 92 15 3f bc 3f 0a bd 15 69 c4 3e 60 04 12 3f
       0.58426404 -0.033752188 0.3836142 0.57037926
000150 71 e9 7b 3e 8d 60 81 be 31 09 48 3d c4 99 72 3e
       0.2460077 -0.25268975 0.04883689 0.2369147
000160 22 1e 98 3e 3f 7a fd 3e 9e e9 f3 be 74 66 7e 3e
       0.2971049 0.4950733 -0.47639173 0.2484377
000170 3e 81 da 3e f3 25 a5 3e a9 dd 16 3f 07 44 8d 3e
       0.4267673 0.32255515 0.58931977 0.27590963
000180 2b c6 14 bd 6e 54 00 bf 54 f3 90 be 2e ce 9a 3e
       -0.0363218 -0.5012883 -0.28310645 0.30235428
000190 b8 43 08 be 76 63 04 3e f5 e3 e0 bb e1 3b 3f 3f
       -0.13307083 0.12928566 -0.006863112 0.7470074
0001a0 43 ff b9 3e 54 78 b3 3e 78 9b 20 3e 20 c3 22 3e
       0.36327562 0.3505274 0.15684307 0.15894747
0001b0 f7 e9 13 bf 2b 2e f6 be 14 f8 28 be d0 9c 9a 3e
       -0.5777888 -0.48082098 -0.16500884 0.30197763
0001c0 6d 18 04 3f 3f 37 b2 bc d2 dc 72 3e ff 97 66 3e
       0.5159977 -0.021754859 0.23717049 0.2251892
0001d0 56 44 38 3e 01 37 4a be 93 e3 82 3e d1 c2 4d 3e
       0.17994818 -0.19747545 0.2556425 0.20093848
0001e0 ab fd 30 bd 3c f6 02 3f 23 36 f7 be a3 1f c8 bd
       -0.043210667 0.51156974 -0.4828349 -0.09771659
0001f0 94 0d d9 b9 9c 6e c2 be b6 56 e9 bd 26 32 20 3f
       -0.00041399582 -0.37975013 -0.11393492 0.6257652
000200 0b 3a b1 3e 05 be 2f 3e bd 8a dd 3e e8 a3 8e 3d
       0.34614596 0.1716233 0.4326991 0.069648564
000210 54 0c 89 3e 57 56 82 3e 9f fc b7 bd a8 b9 02 bf
       0.26767218 0.25456497 -0.089837305 -0.5106454
000220 1e 20 36 be a3 4d c8 3e 10 47 ec 3d c9 92 0b be
       -0.17785689 0.39121732 0.115369916 -0.13630213
000230 eb 9e d9 bd cd 0b 56 3e 8c 5f a0 3c 1d 14 bf be
       -0.10626014 0.20902939 0.01957681 -0.37320033
000240 16 ff 82 3e cf dc 02 3e a0 ef 51 3d 4c 34 de 3e
       0.2558524 0.12779544 0.051253915 0.43399274
000250 4a ea aa 3e bd 65 a2 be ff 44 1f 3f 05 3a 00 bf
       0.33381873 -0.31718245 0.62214655 -0.5008853
000260 63 57 c5 3e 93 b9 fb 3e ce 34 1a bd 23 dc 9a bb
       0.38543233 0.4916502 -0.037648015 -0.0047259494
000270 1f 83 85 be 4a e2 00 be 36 60 28 3e f5 ea b7 be
       -0.260766 -0.12586322 0.16442952 -0.35921445
000280 61 70 fd 3e d0 67 19 bf fb 89 bf be 5e 3d a6 be
       0.494998 -0.5992403 -0.37409958 -0.32468694
000290 4b 18 c4 be 9f e4 c1 3d 06 29 c0 3e 08 a5 2a 3f
       -0.38299784 0.09467434 0.37531298 0.6665807
0002a0 3b 35 b1 be a6 e7 dd be 1d 89 f8 3d 79 4d 1b 3f
       -0.34610924 -0.43340796 0.12135527 0.6066509
0002b0 8e 9c 28 bc 30 21 0a bf 58 f7 01 be 12 de 09 be
       -0.010291232 -0.5395689 -0.1269201 -0.1346362
0002c0 b8 81 74 be ff e5 05 3f 01 ff 02 3f 84 53 ba bd
       -0.23877609 0.5230407 0.51170355 -0.090979606
0002d0 1e ad 0e be 92 a2 52 bd 35 e6 06 be e9 c6 1f bf
       -0.13933226 -0.05142457 -0.13173755 -0.6241289
0002e0 66 b6 0e be e4 09 87 bc 9f b2 a3 be e3 b3 bc be
       -0.13936767 -0.016484208 -0.31972215 -0.36855993
0002f0 bd 70 cf 3e d9 fb 74 3e 7f 82 22 bf f5 a0 5a be
       0.405157 0.23924197 -0.6348037 -0.21350463
000300 b8 69 3f 3e af b1 d2 3e b0 77 ca 3e 55 f2 a5 3d
       0.18692672 0.41151187 0.3954444 0.08102862
000310 47 12 3c 3f 8c 76 7c be 23 03 45 bf 90 2f 51 bf
       0.7346539 -0.24654597 -0.7695791 -0.817132
000320 fa 38 e3 bb 51 5f bc be 73 52 29 bf b1 19 56 bf
       -0.0069342824 -0.3679147 -0.6614143 -0.8363295
000330 8c a5 c2 3e 86 8d 2b 3f 1a 60 5e 3d 87 99 74 bd
       0.38016927 0.6701282 0.05429087 -0.059716728
000340 9c a2 97 be 09 67 23 bf 04 d8 e9 be c5 e5 cf be
       -0.2961625 -0.63829094 -0.4567262 -0.40604988
000350 09 2d 19 bf 7a cf 6c be 4d 5f 92 3f fe 05 63 3f
       -0.59834343 -0.23126021 1.1435333 0.8868102
000360 11 e5 c1 3c e3 2a 81 bd 82 78 06 3e 61 0d 7a 3f
       0.023668798 -0.06307008 0.13131908 0.97676665
000370 98 bd cb bd cd 46 50 bf 8e d1 a5 be a9 01 1e 3f
       -0.099482715 -0.81358033 -0.3238644 0.61721283
000380 30 e7 d7 be 61 1f c0 3e 01 7a 05 be 66 42 cf be
       -0.4216857 0.3752394 -0.13034822 -0.40480345
000390 17 ba ec bd 7f 5b eb 3e 8c 59 6d bf 39 96 a5 be
       -0.11558931 0.45968243 -0.9271476 -0.32341173
0003a0 e1 90 8e 3e 0f 6c 19 bf 08 1b 9b bd ce f4 15 bf
       0.2784491 -0.5993051 -0.07573515 -0.5857667
0003b0 f2 78 8f be 80 65 97 bc 4d 9c 47 be 39 df 10 3f
       -0.2802196 -0.018481016 -0.19493218 0.5659061
0003c0 1b f7 c5 be 49 6a 0f bf 87 b4 13 bf 4f 03 36 3e
       -0.3866509 -0.56021553 -0.5769734 0.177747
0003d0 77 5a e1 be d6 a8 24 bf 84 b4 ef 3e c6 09 29 3f
       -0.44014332 -0.64320123 0.4681741 0.6603054
0003e0 89 e2 49 bf 6c ea 26 3e 55 d0 c1 3c 69 c1 2f 3f
       -0.7886129 0.16300362 0.02365891 0.68654495
0003f0 a1 3f 99 be 10 e1 08 bf 9c 62 d3 bb 74 6a 0c 3f
       -0.29931358 -0.5346842 -0.006450964 0.54849935

Q1.head.module_8.att_src f4 [1, 1, 16]
000000 4d ec 96 3e 2d 79 1b 3e ba 05 d9 be 2f 7a 59 be
       0.29477158 0.15182944 -0.42387182 -0.21238016
000010 ce 52 ec 3e 8f 88 3f be 99 f9 3e 3f 21 68 35 3e
       0.46156925 -0.18704437 0.74599606 0.17715503
000020 bd c6 06 bf 12 9d 34 3d 49 8c 64 be 0c cd 0c 3f
       -0.52647 0.044095106 -0.2231914 0.55000377
000030 f5 55 59 bc 92 b7 26 3e 92 19 18 3f 20 5d 18 3f
       -0.013265123 0.16280964 0.5941402 0.595171

Q1.head.module_8.att_dst f4 [1, 1, 16]
000000 c7 e6 80 be 26 1f f2 3e 80 17 a9 bf 23 57 e3 3e
       -0.2517607 0.4728939 -1.3210297 0.44402418
000010 09 06 3f be ed cf 34 3f 74 76 f0 3e c0 0c 2d 3d
       -0.18654646 0.7062977 0.46965373 0.042248487
000020 20 25 66 bd 7f f9 30 3f 34 b3 29 bf 2e c9 43 3e
       -0.05618775 0.691307 -0.6628907 0.19119713
000030 14 55 f8 3e c9 94 1b 3f e9 d8 a3 3e 5b 95 b6 3f
       0.4850241 0.60773903 0.32001427 1.426433

Q1.head.module_8.bias f4 [16]
000000 2d d5 9e bd 0a 83 d0 3d ec 38 97 bc a1 af b8 3d
       -0.07755504 0.10181244 -0.01845976 0.090178736
000010 c3 7a df 3d b4 d9 9f bd af c5 44 3d 87 77 82 bd
       0.10912087 -0.078051955 0.04804009 -0.06370454
000020 6a 9b e9 bd 5a 3c 23 be 54 00 b5 3d 3a aa ce 3d
       -0.11406596 -0.15940991 0.08837953 0.10091062
000030 f9 61 0c 3d 51 d9 b1 bc 0b 76 43 bd ee ae 52 3d
       0.03427312 -0.02171007 -0.047719996 0.051436357

Q1.head.module_8.lin.weight f4 [16, 16]
000000 06 4c 9c 3e 27 c6 78 bd a1 50 2b be 30 2d f5 3e
       0.3052675 -0.060735848 -0.16729976 0.47886038
000010 37 64 59 bc 34 f5 8e 3e 3b b9 6d 3e 3f 2b 1b be
       -0.013268522 0.2792145 0.23215191 -0.15153216
000020 15 57 fb be dd 74 46 3d 2e 7c c5 3d da b5 03 3e
       -0.49089876 0.048451293 0.09642826 0.1286234
000030 30 36 76 3e cb ed 85 3e 64 fb 4a be 17 49 19 bd
       0.24044108 0.26157984 -0.1982246 -0.03742322
000040 94 ce b3 be 90 e5 ad 3e 35 f2 0f 3f 5a 87 c1 bd
       -0.35118544 0.33964205 0.56228954 -0.094496444
000050 e8 d4 f3 3e c0 dc f0 3e 54 2b 37 3f b7 88 83 3e
       0.47623372 0.4704342 0.7155049 0.25690243
000060 4c 99 71 3e 78 c2 9d bb 02 cb 96 bd 7f 89 8f 3e
       0.23593634 -0.0048144422 -0.073629394 0.2803459
000070 a6 3e 28 bc 6d 5b 3e 3d 8d 21 02 be 31 20 ba 3a
       -0.010268843 0.04647391 -0.12708111 0.0014200268
000080 c0 83 0d 3f 9c 14 1b 3f 47 50 b9 3e f9 d8 b5 3d
       0.5527916 0.6057832 0.3619406 0.08879275
000090 16 04 8a be 1b c5 a8 3e cf 34 10 3f 59 5d f9 3e
       -0.26956242 0.3296288 0.5633058 0.4870403
0000a0 32 c7 f6 be 36 9f 82 be 94 c7 10 be b2 73 2b bf
       -0.4819885 -0.25512093 -0.14138633 -0.6697341
0000b0 64 2b 40 be 8e 03 e6 bb c8 1f e6 3e 6f ab f0 3e
       -0.18766552 -0.0070194667 0.44946122 0.47005793
0000c0 c0 6b 0d bf e3 20 f8 bc ae 84 08 be 63 f9 b4 be
       -0.5524254 -0.03028912 -0.13331863 -0.35346517
0000d0 2a 33 82 be 3c 07 a7 3e 1f 96 81 be 9c 64 12 be
       -0.2542966 0.32622707 -0.25309846 -0.14296192
0000e0 40 25 2a bd aa 90 03 bd 65 bb 7c be b3 9b 99 be
       -0.04153943 -0.032120384 -0.2468086 -0.30001602
0000f0 19 e3 9d 3e 36 d9 11 be d4 a3 1a bf 98 bc c4 be
       0.30837324 -0.14243016 -0.6040623 -0.38425136
000100 b1 e0 a3 be 9e 27 b7 be ca 67 25 3e 84 bb b1 39
       -0.32007363 -0.35772413 0.16152874 0.0003389978
000110 b8 86 89 be bb a6 21 3e 73 46 27 3f f8 11 69 be
       -0.26860595 0.15786259 0.6534187 -0.22760761
000120 e3 b2 41 be f7 2f 65 3e 60 87 57 be 57 f4 2e bd
       -0.18915896 0.22381578 -0.21047735 -0.04271349
000130 00 12 d1 3e 65 2e 0e bf fa 87 16 bf 72 6a d9 3d
       0.40834045 -0.5553954 -0.58801234 0.10616006
000140 c0 04 75 be 62 6d 21 bf 82 e1 d6 bc c2 ed 65 bf
       -0.23927593 -0.6305753 -0.026230577 -0.89815915
000150 49 c2 d3 be 8b 38 ba be 63 88 27 bf d7 4b 1e bf
       -0.41359165 -0.36371264 -0.65442485 -0.6183447
000160 b1 d1 19 be 59 1c 1c bf 42 3b 89 be 14 b9 a3 3e
       -0.15021397 -0.60980755 -0.26803023 0.3197714
000170 bd 0b 0d 3f 83 25 c7 3e 50 6e 48 3f dd 6b 0d be
       0.55096036 0.38895807 0.78293324 -0.13810678
000180 ec c3 63 bd 2f 7a 17 bf 0a c9 89 be dc 3c 80 be
       -0.055606768 -0.5917081 -0.26911193 -0.25046432
000190 36 5c 93 3d e4 66 94 3e 22 e5 21 3e c6 da 4d bd
       0.07195322 0.2898475 0.15810063 -0.050257467
0001a0 88 58 e4 3e 36 45 b6 3e 8a 8e c5 be bd 30 ce 3e
       0.44598794 0.3559968 -0.3858531 0.4027156
0001b0 e8 10 b5 3e 9b bb 3f be 8b 12 0e bf b4 fc 04 3e
       0.3536446 -0.1872391 -0.55497044 0.12987024
0001c0 a0 7c 95 3e 84 82 84 3e 95 4a 9a 3e 49 90 0c 3f
       0.29196644 0.25880826 0.30135027 0.5490766
0001d0 d9 9c 04 3f a2 c2 91 be 78 6c 28 3d 9d 72 68 bf
       0.5180183 -0.28468806 0.04111907 -0.90799886
0001e0 8a 18 1d 3a 3b 3e 06 bf f0 0e e0 3e 95 ab ab bd
       0.00059927313 -0.52438706 0.43761396 -0.08382336
0001f0 d9 91 cc 3e a1 b1 5c be 54 9b 92 3e 52 d7 a4 be
       0.39955023 -0.21552135 0.2863413 -0.32195526
000200 55 9a 10 be 3d 61 9a 3e c0 ff cd 3e b7 19 fe bd
       -0.14121373 0.30152312 0.40234184 -0.124072485
000210 02 a4 d5 bd 57 0d d0 be 2e 49 ba 3e ac 6a 59 3d
       -0.10431673 -0.40635177 0.36383957 0.053080246
000220 ec e0 8a be cb ab 35 3e b4 cf 13 3e d9 50 44 bf
       -0.27124727 0.17741315 0.14434701 -0.76685864
000230 87 b2 02 bf 98 9d 09 3f 7e 7c 02 3f cf d8 73 3f
       -0.5105366 0.53756094 0.5097121 0.952527
000240 27 8c fd 3e ca d9 0b be b3 b0 fd 3d d1 c4 27 3f
       0.4952099 -0.13657299 0.12387218 0.65534693
000250 28 e0 2a 3e 8e 92 c1 be 7c 3b f8 be 76 2d ff be
       0.16687071 -0.37807125 -0.48482883 -0.4983937
000260 dd 3d 1b be 1c 2b a1 be e3 d1 53 be a8 e2 e2 3e
       -0.15160318 -0.31478202 -0.20685534 0.4431355
000270 7f 8d c5 3d e2 19 21 3e 00 07 36 3e 88 e9 9c 3e
       0.09646129 0.1573253 0.17776108 0.3064692
000280 41 ca 19 be 9e d6 62 3e c1 29 14 3f 1c 72 63 be
       -0.1501856 0.22152182 0.5787621 -0.22211498
000290 8f b4 3a bf 1e 9b 24 be 4b f3 2f 3f b6 0a b3 3e
       -0.7293176 -0.16074798 0.6873061 0.3496911
0002a0 f8 15 c1 3e 82 3d 4c bd 5c 00 96 be 8a 82 09 bf
       0.37712073 -0.049863346 -0.2929715 -0.5371481
0002b0 b6 86 85 3d 0f 84 25 be f2 5f 08 3f f8 37 7d be
       0.06519835 -0.16163658 0.532714 -0.24728382
0002c0 57 12 e5 be 96 6b 27 3e 21 f5 ab bd e3 fa 31 bd
       -0.44740555 0.16349635 -0.08396364 -0.043452155
0002d0 6f 1d 0c 3f f4 e4 b9 3e e8 50 11 bf 28 5b 2f 3e
       0.5473241 0.3630749 -0.5676408 0.17124617
0002e0 72 52 b4 3d 02 cc 10 3f 00 e4 ed be 22 10 46 3e
       0.08804788 0.5656129 -0.46463013 0.19342092
0002f0 e5 b2 bb be 33 2d 01 bf b1 f9 fc be 2f 0b 00 bf
       -0.36659923 -0.50459594 -0.4940925 -0.50017065
000300 bc fc 56 be 3b 52 81 3e 66 e6 c0 be c1 40 b8 be
       -0.20994848 0.2525805 -0.3767578 -0.35986903
000310 c7 9d 84 3d ad 4c b7 be 1f 6c 86 be 64 08 6e bd
       0.06475406 -0.35800686 -0.26254365 -0.05811347
000320 73 df e1 3e 3f e3 22 3e 3f 09 04 3e 36 fd a0 3e
       0.4411579 0.15907 0.12894152 0.31443185
000330 2b 62 11 3f 9e d7 b6 be 0b e4 c4 be 9e 76 65 3e
       0.5679042 -0.35711378 -0.38455233 0.2240853
000340 bd 83 b0 3e e2 40 00 3f 7c 9f dc 3d cc 1a 0b 3f
       0.34475508 0.50099003 0.10772607 0.54337764
000350 8f f5 cc 3e 9e 14 81 3e 5b 69 b9 3e 81 3e e6 be
       0.40031096 0.25211042 0.36213192 -0.44969562
000360 6d 9b b1 3d 1a 09 c2 be 43 0f ae 3d ad b1 7c 3e
       0.08672223 -0.3789757 0.08499005 0.24677153
000370 0b 71 0a be 5b 0d cc 3e 25 82 05 3f a3 ce fa 3d
       -0.13519685 0.3985394 0.5215171 0.12246444
000380 8c cf 08 bf 18 dc 28 be 48 e7 01 3f b3 05 0a bd
       -0.5344169 -0.16490209 0.5074353 -0.03369684
000390 00 92 b9 3e 59 5e da 3d 9a a4 c7 3e 37 a0 a3 3e
       0.36244202 0.10662527 0.3899277 0.31958172
0003a0 05 7c 21 3e d7 d8 90 3e cd 11 a9 be 59 54 d3 be
       0.15769966 0.28290436 -0.33021393 -0.4127529
0003b0 69 6a 8b 3e a6 31 12 3e 93 4c de 3d 50 18 d1 be
       0.27229622 0.14276752 0.10854449 -0.4083886
0003c0 a0 c3 fe bd cb cf c4 3c f1 fc 90 be 62 e2 9e 3e
       -0.12439656 0.024024865 -0.2831798 0.3103209
0003d0 9b b3 13 3f f0 4f e8 3e c5 e8 7f be 17 e7 a1 be
       0.5769593 0.45373487 -0.24991138 -0.3162162
0003e0 78 a9 5a bd 06 e8 43 3e 6b 52 23 be 05 b6 af 3e
       -0.053384274 0.19131479 -0.15949409 0.34318557
0003f0 1d 24 8a 3c 1a af 83 3e 75 a7 01 3f 34 77 9e 3e
       0.016862923 0.2571953 0.50646144 0.3095032

Q1.head.module_10.att_src f4 [1, 1, 16]
000000 10 28 be be e1 5c b2 bd a6 d4 e3 3e 56 4c bc be
       -0.3713994 -0.087091215 0.44498175 -0.3677699
000010 52 dd 87 be ac a8 80 3f db b9 08 3f 63 eb c8 bd
       -0.26536041 1.0051475 0.5340859 -0.098105215
000020 3c 64 a4 ba f0 65 36 bd 39 3c 2e be 22 4c 2c 3e
       -0.0012542079 -0.04453081 -0.1701516 0.16825917
000030 c0 60 9b 3d f8 47 91 3f e9 64 21 bf b6 11 1a 3f
       0.07586813 1.1350088 -0.630446 0.60183275

Q1.head.module_10.att_dst f4 [1, 1, 16]
000000 91 9f 25 be 96 ea 13 3e 6a 84 04 3f 42 d5 8c be
       -0.16174151 0.14444956 0.5176455 -0.27506453
000010 e8 8c 8b 3e 13 ba 97 bd e8 b2 af be 8c 3f 24 bd
       0.2725594 -0.07408538 -0.34316182 -0.040099666
000020 f7 e7 02 3f b6 88 a9 3e c8 17 a1 be 1d aa 0b 3f
       0.511352 0.33112115 -0.31463456 0.5455645
000030 c3 29 e8 3d 02 7f 03 3f ff ca 0e 3f 7f 02 20 be
       0.113360904 0.51365674 0.557785 -0.15625952

Q1.head.module_10.bias f4 [16]
000000 e2 4f 43 bd 69 26 9c 3d ba 07 1d 3d c2 9e dd bd
       -0.047683604 0.07624514 0.038337447 -0.10821296
000010 41 28 97 bb 4d 7c a0 3d 23 4f e5 bc f2 e3 02 bd
       -0.004612953 0.078362085 -0.027991837 -0.031955667
000020 ce cd 92 3d 5b 90 9a 3c cd fe 97 3b 46 36 3c 3d
       0.071681604 0.018867662 0.004638529 0.045950197
000030 ba f2 b8 3b 21 33 ea 3d 5b 3f aa bd af c1 81 bd
       0.0056441696 0.11435533 -0.08312865 -0.0633577

Q1.head.module_10.lin.weight f4 [16, 16]
000000 c9 2a 96 3e 24 d2 12 be cb 54 01 3d e2 cd bc be
       0.29329517 -0.14337975 0.031575006 -0.36875826
000010 f6 5d bc 3d fd 0b b1 bd d6 ef f0 be 8b 9a 38 3e
       0.09197609 -0.08644865 -0.4705798 0.18027703
000020 63 8b e1 be c8 d9 ca 3e 05 f2 83 be 7a 74 b2 3e
       -0.44051656 0.3961928 -0.25770584 0.3485449
000030 ea fa 8a be 65 da da 3d 64 66 b7 bd 1d 1d da be
       -0.27144557 0.10686187 -0.08955076 -0.42600337
000040 4f 6c 8b 3d 33 ba bf 3d e8 d9 74 bf f0 f4 d3 3e
       0.068077676 0.093616866 -0.95645 0.4139781
000050 c8 f2 ce 3d a5 83 76 bf 2c 69 ea bc f1 98 6b be
       0.101049006 -0.96294624 -0.028614603 -0.23007561
000060 8c b9 6b be 5c 12 06 bf 9e 6e d3 3e 76 16 09 3f
       -0.2302 -0.52371764 0.41295332 0.535499
000070 e9 e8 d3 be 9b 9a 9d 3e 0e 8f ab 3e 2a 39 9d be
       -0.41388634 0.30782017 0.3350758 -0.30707675
000080 c8 7d 41 be dd 1b 16 3e 2d da 8d 3d e9 ec f7 3e
       -0.18895638 0.14659066 0.06926379 0.48422936
000090 e5 a1 25 3f 64 ca 1f be 75 ca 02 3f ca a1 01 bf
       0.64700156 -0.1560455 0.51090175 -0.50637496
0000a0 9d ae 1b 3e c2 dd 1e bf 5e 76 be 3e ba e8 f7 3d
       0.15203328 -0.62057126 0.37199682 0.12104936
0000b0 eb dd 05 be bd cd e4 be e8 ed 63 bd c3 2b 81 be
       -0.13072936 -0.44688216 -0.055646807 -0.252287
0000c0 e1 2f 52 be 70 ba f8 be 3c 8c 86 be 9b 6d 81 3e
       -0.20526077 -0.4857974 -0.26278865 0.25278935
0000d0 f8 7e f3 be b6 9d 10 be 3f b3 b4 bd b5 c8 26 bc
       -0.47557807 -0.14122662 -0.08823251 -0.010179688
0000e0 b3 45 8b be 4c 28 ba 3e 76 85 29 3e c5 e6 3f bd
       -0.27201614 0.3635887 0.16554818 -0.04685094
0000f0 d9 ff 86 3e 4f 0c 2d bd 08 69 84 3d 27 d6 ae 3e
       0.2636707 -0.042248067 0.064653456 0.3414776
000100 32 97 09 be 8b 0d a9 3e 46 31 5a be 90 d1 d5 bd
       -0.13436583 0.33018145 -0.21307859 -0.104403615
000110 78 b9 04 bf ee 42 03 bd ea 5b 10 bf fa 58 05 3d
       -0.518455 -0.03204625 -0.5639025 0.032555558
000120 05 16 04 bf ff cd ba bd 65 52 2a bd 1f 05 07 3f
       -0.515961 -0.09121322 -0.041582484 0.5274219
000130 db d0 2e bf 3a 39 f5 be ee 5a 5b be 7e be 88 3e
       -0.6828744 -0.47895223 -0.21421406 0.26707834
000140 a0 b2 a7 3c dd 44 62 be cb 78 1c bf e3 42 f2 3e
       0.020470917 -0.22096582 -0.61121815 0.47316656
000150 3c e6 2c 3f 46 24 1f bf 89 cc 51 3e be 09 72 be
       0.6753881 -0.62164724 0.2048818 -0.23636529
000160 05 71 e6 3e f3 d4 9d be a0 54 94 3e d3 04 05 3f
       0.45008102 -0.3082653 0.28970814 0.51960486
000170 1b c3 b7 3e b8 0e 8d bd 5c ae f6 3d df 82 05 3e
       0.3589104 -0.06887573 0.12044975 0.13038205
000180 36 0b 6f be 28 01 a1 be 1b 8f d6 be cb 61 29 3e
       -0.2334412 -0.31446195 -0.41906056 0.16541211
000190 57 08 53 be 6d 3f 58 3f 2a 91 a6 3c aa 8f 21 be
       -0.2060865 0.8447178 0.020332891 -0.1577746
0001a0 92 94 54 3f 95 6f b5 3d 3c 45 d3 be 28 bb 60 be
       0.830392 0.08859173 -0.4126376 -0.21946394
0001b0 cd c4 99 bd 9f a1 56 bd bb 16 16 bf 8a 5e c8 3e
       -0.0750824 -0.052400228 -0.58628434 0.39134628
0001c0 4c c2 17 3e 1f dc 2a be 58 9c 80 3e dc de 44 be
       0.14820212 -0.16685532 0.2511928 -0.19225639
0001d0 91 9f 10 bf c0 3a 27 be 62 9e 8d be 54 82 43 3d
       -0.5649348 -0.16331005 -0.276599 0.047731712
0001e0 9d 46 87 bd 6e 24 1e 3f c0 e4 f6 be d8 5d ea 3e
       -0.06605265 0.6177434 -0.48221397 0.45774722
0001f0 bb 8b 6a 3e 8f 7a a7 be 13 d0 a7 be a6 d4 bd be
       0.22904865 -0.32710692 -0.32775936 -0.370763
000200 b3 90 d4 bd 95 0b 88 3d f7 09 d4 be 7f 2d 3c 3d
       -0.10379162 0.06642834 -0.41413853 0.045941826
000210 7e 2e 84 bd c3 63 ec be ca 51 e1 3e 1a 13 e8 3e
       -0.0645418 -0.46169862 0.44007713 0.45327073
000220 dc 68 37 be be c8 b8 3e f4 de 0c bf a2 3c 06 3e
       -0.17911094 0.36090654 -0.550277 0.13109067
000230 3b ae 92 be 28 53 1a 3f fd 5f 9f be e9 62 ee 3e
       -0.28648552 0.60283136 -0.3112792 0.46559837
000240 69 af fa 3e 50 47 52 be ae 1b b7 be d5 4f 39 3e
       0.48961952 -0.20535016 -0.35763305 0.1809686
000250 8f ea 22 bf 7a 14 2d bf 8f ed a8 be 8f f1 8c 3e
       -0.6363916 -0.6760937 -0.32993743 0.27528045
000260 7e 99 95 3e da cd 86 bb a9 02 47 be 26 f7 ae 3e
       0.29218668 -0.004113895 -0.19434609 0.34172934
000270 be c5 d0 3d 27 6b d9 3e fa b7 74 bd 1a fc 50 be
       0.10193966 0.42464563 -0.059745766 -0.20408669
000280 7f 8b 2e 3d 44 4e 52 3e 1f 06 1c 3f 50 c0 c7 be
       0.042613503 0.20537668 0.6094684 -0.3901391
000290 d1 b5 80 bd 83 0a 97 be b1 4c 20 3d 56 39 2f 3d
       -0.06284679 -0.29500207 0.03913564 0.04277929
0002a0 6f f4 eb 3e da 09 87 3e c2 86 b1 3e 60 d0 7a be
       0.46084926 0.26374704 0.34673125 -0.24493551
0002b0 ae 73 30 bf 45 db 57 bc 7c 9a 86 3d 1a c8 b1 be
       -0.68926513 -0.0131748365 0.06572434 -0.34722978
0002c0 a3 1a 1e be 1c 59 2e 3e 70 e8 66 3e 22 1d a6 3e
       -0.15439849 0.1702618 0.22549605 0.32444102
0002d0 cf 31 9f be 0b 7a 2e bf d8 a2 7e be 72 fa 5a be
       -0.31092688 -0.6815497 -0.24866807 -0.213846
0002e0 a8 40 d7 3e 79 1d e3 bc 4f 45 bc be dc 57 cb 3e
       0.42041516 -0.027724015 -0.36771628 0.3971547
0002f0 3f 63 b6 3e 24 a0 5d be 07 4c b2 bd b6 f5 68 3e
       0.35622594 -0.2164312 -0.08705907 0.22749981
000300 79 68 5c 3e 62 1e 17 be 29 74 f3 be 76 ba df be
       0.21524228 -0.14757684 -0.4754956 -0.43696946
000310 e4 d2 38 3d d2 3a 20 3e 93 3d 98 be ae 6b fa 3e
       0.045122996 0.15647438 -0.29734477 0.48910278
000320 52 e0 31 3f 3f 89 9f 3d 1f 69 80 bd 3f 71 03 be
       0.6948291 0.077898495 -0.0627005 -0.12836169
000330 b0 e4 3e be 5c 3e 11 be 9f ee 17 3e 7f 69 1f be
       -0.18641925 -0.14183944 0.1483712 -0.15567587
000340 bc 29 24 bf 17 b0 db 3e ac 7c 09 bf 14 bb 88 3a
       -0.6412618 0.42907783 -0.5370586 0.001043173
000350 86 a4 85 3e cb 00 cc be 08 65 8d be 91 12 13 bf
       0.26102084 -0.39844355 -0.27616143 -0.57450205
000360 fc 77 c2 3e 3c ed a7 be 0d 51 b1 3e d7 5c ae 3e
       0.37982166 -0.32798183 0.3463215 0.34055206
000370 dc f7 05 3f af 36 ac be 59 52 46 be 87 8d 95 3e
       0.5233133 -0.3363547 -0.1936735 0.2920954
000380 07 97 8d 3e 1c 21 8f be c8 ed a4 3e 75 dc 93 be
       0.27654287 -0.27954948 0.32212663 -0.28879133
000390 8c 87 20 3e 2c 8a 2d bf d3 01 ac bd e1 71 af 3d
       0.15676707 -0.6778896 -0.083987854 0.085666426
0003a0 e7 13 81 bf 61 95 8c 3e 7f 0d 7a be d9 bc 44 3d
       -1.0084199 0.27457717 -0.24419211 0.04803166
0003b0 30 45 ec be 3a 25 b7 be c6 47 9a bb 68 ae 3e 3d
       -0.46146536 -0.3577059 -0.004708263 0.046553046
0003c0 b9 f0 fa bb 3f e1 d0 3e b0 a8 4d 3f 0d e7 5f bd
       -0.007658091 0.4079685 0.8033552 -0.054663707
0003d0 a2 5d 91 3e 22 98 be 3e f5 cf ba be 94 0d 8b be
       0.2839175 0.37225443 -0.36486784 -0.27158797
0003e0 c0 9a 8a 3e 69 88 f1 bd 17 ac d5 3e fb 68 28 be
       0.2707119 -0.11793596 0.41732857 -0.16446297
0003f0 86 31 ef be 81 7f da 3e ef 62 c2 3e e1 39 22 3e
       -0.4671747 0.42675403 0.37966105 0.15842392

Q1.head.module_12.att_src f4 [1, 1, 16]
000000 5d 82 d0 3e a4 e0 12 bf 82 37 b9 3f 00 f0 aa 3d
       0.4072446 -0.57374024 1.4470065 0.083465576
000010 1d d7 84 be 7a 9e 58 3f 7b a9 ea 3e bc 1a 30 3f
       -0.25945368 0.84616816 0.45832428 0.68790793
000020 30 64 62 bd d6 62 9e bd 8c 33 ac bf 0c c3 50 bf
       -0.055271327 -0.07733695 -1.3453231 -0.8154762
000030 3d ee 7c bf 73 ef 57 3f 48 84 09 bf 90 8a 29 bf
       -0.9880102 0.84349746 -0.5371747 -0.66227055

Q1.head.module_12.att_dst f4 [1, 1, 16]
000000 9e b3 1b 3e d4 41 d5 be f6 59 1d be 00 97 1f 3f
       0.15205237 -0.41651785 -0.15366349 0.6233978
000010 86 08 ce 3e 7d e9 db bd 7d 98 ff 3e 48 d7 cd be
       0.40240878 -0.10737894 0.49921027 -0.4020331
000020 ac 11 6b 3e aa a1 be 3e 55 56 d2 be 67 eb ec 3e
       0.2295596 0.37232715 -0.4108149 0.46273348
000030 4b d1 32 3f a5 d5 8e be 03 81 2f 3f 56 77 41 3d
       0.69850606 -0.27897373 0.6855623 0.04723295

Q1.head.module_12.bias f4 [16]
000000 d4 9f e5 3d c9 8c e8 bc 63 27 5e 3d e4 90 14 bd
       0.112121254 -0.028387444 0.05423678 -0.03627099
000010 bb c5 86 bc f4 d5 8d 3d 58 ab a0 3d 78 08 01 be
       -0.016451707 0.06925574 0.07845181 -0.12600887
000020 1d e6 6a 3d 3d ce 50 3d b6 09 9a bc 5f e2 71 bd
       0.05734836 0.050977934 -0.018803459 -0.059053775
000030 72 54 c8 bd ce 81 f1 3c 23 75 b6 3d 07 3d 81 3c
       -0.09781732 0.029480841 0.08909061 0.01577617
