logs/arch/model/best/policy.pth (torch, 18954 bytes, 34 tensors)

head.module_0.att_src f4 [1, 1, 16]
-0.36582765 -0.24396928 0.3486966 0.5013341 -0.027983982 -0.48125547 -0.64634144 -0.19672653
0.25679627 -0.33079416 0.19537814 -0.27335665 0.41726372 -0.21689528 0.019223226 -0.6028623
00000000: c34d bbbe 15d3 79be 5c88 b23e 6e57 003f
00000010: aa3e e5bc 1e67 f6be a276 25bf ae72 49be
00000020: cd7a 833e da5d a9be 3511 483e 67f5 8bbe
00000030: 97a3 d53e cc19 5ebe 077a 9d3c 2f55 1abf

head.module_0.att_dst f4 [1, 1, 16]
-0.5057233 0.06677611 0.11775637 0.34658656 -0.5404895 0.12930633 -0.1120416 0.37070954
-0.29422453 0.1756403 0.26256737 0.27277 -0.23013137 0.16594487 -0.13939553 0.13503213
00000000: 1577 01bf eac1 883d 402a f13d cb73 b13e
00000010: 855d 0abf e168 043e 1176 e5bd a4cd bd3e
00000020: 99a4 96be 0ddb 333e 3b6f 863e 82a8 8b3e
00000030: 8fa7 6bbe 74ed 293e b4bd 0ebe dd45 0a3e

head.module_0.bias f4 [16]
0.19237895 -0.25976184 0.28006375 0.340003 0.19654404 0.21416369 -0.11347988 0.007840497
-0.047828328 -0.16706254 -0.22407435 0.10055446 0.07015413 0.09717788 0.087753735 -0.10567755
00000000: fdfe 443e 81ff 84be 8464 8f3e e014 ae3e
00000010: d742 493e ba4d 5b3e 2468 e8bd 6e75 003c
00000020: a3e7 43bd 7112 2bbe bf73 65be 7fef cd3d
00000030: f8ac 8f3d 3205 c73d 3bb8 b33d 796d d8bd

head.module_0.lin.weight f4 [16, 2]
-0.57949495 -0.123292476 -0.45854202 0.4906145 -0.14104854 -0.074440196 -0.32887247 -0.4232403
-0.059770465 0.54199237 -0.21577865 0.10256334 0.6248839 0.591409 -0.10166509 0.6159293
0.2321963 0.5858392 0.0796547 -0.43588647 -0.23885089 0.105776146 0.44246423 -0.61647826
0.6710912 -0.4879984 0.399808 0.7357593 0.26675996 -0.23950112 0.53026295 0.0029163733
00000000: c859 14bf c480 fcbd 05c6 eabe d331 fb3e
00000010: 076f 10be 1a74 98bd f961 a8be f4b2 d8be
00000020: e0d1 74bd 03c0 0a3f 14f5 5cbe ba0c d23d
00000030: 64f8 1f3f 9566 173f c935 d0bd 8bad 1d3f
00000040: dec4 6d3e 8ff9 153f 0122 a33d 832c dfbe
00000050: 5495 74be 2aa1 d83d ac8a e23e 85d1 1dbf
00000060: a2cc 2b3f edda f9be a2b3 cc3e b95a 3c3f
00000070: c394 883e c83f 75be 50bf 073f a020 3f3b

head.module_2.att_src f4 [1, 1, 16]
0.2593048 0.0931405 0.1723535 0.52803326 0.050232243 0.020175228 0.18332517 -0.40364826
0.3007593 0.18525133 0.5520716 -0.021683507 -0.5117329 0.003105029 0.9245098 0.28061512
00000000: 99c3 843e 72c0 be3d 707d 303e 302d 073f
00000010: 53c0 4d3d 8546 a53c 98b9 3b3e fcaa cebe
00000020: 1ffd 993e 86b2 3d3e 9054 0d3f 9ca1 b1bc
00000030: ed00 03bf be7d 4b3b adac 6c3f c9ac 8f3e

head.module_2.att_dst f4 [1, 1, 16]
-0.3686261 -0.49427974 0.5650066 0.42331487 -0.6494128 -0.722223 -0.38308358 -0.0518043
-0.6339247 -0.59578055 -0.21724509 -0.0829541 -0.1175032 0.06411783 -0.5812736 -0.8981699
00000000: 8fbc bcbe 3c12 fdbe 46a4 103f babc d83e
00000010: eb3f 26bf 9be3 38bf 8823 c4be bf30 54bd
00000020: e448 22bf 1385 18bf 7f75 5ebe d7e3 a9bd
00000030: 85a5 f0bd 3550 833d 59ce 14bf 76ee 65bf

head.module_2.bias f4 [16]
0.09607384 -0.080767035 0.28285262 -0.048236873 -0.005872124 0.18206532 0.35861874 0.05716338
-0.08843161 -0.18259886 -0.11117068 0.02508221 0.3101783 -0.004815828 -0.2563655 -0.22123472
00000000: 5dc2 c43d 3069 a5bd 0fd2 903e 0794 45bd
00000010: f26a c0bb 556f 3a3e e09c b73e 2624 6a3d
00000020: a21b b5bd 32fb 3abe 74ad e3bd 3579 cd3c
00000030: b1cf 9e3e 18ce 9dbb 5742 83be 5b8b 62be

head.module_2.lin.weight f4 [16, 16]
-1.1905676 0.32681978 -0.057826 -0.49187705 -0.17686953 0.17614897 0.20776351 0.46049678
0.21314706 -0.20212471 -0.11715214 -0.653752 -0.12680249 0.14225984 -1.0510267 -0.36267865
-0.6916222 0.37702334 -0.37828374 -0.49388406 0.34731668 -0.48389217 -0.058581166 0.16418408
0.021842621 -0.22430915 -0.09420129 -0.32049638 -1.0625107 0.31210664 -1.3258853 -0.0155409295
0.028734285 -0.22913404 0.137807 0.5228446 0.16702351 0.18485902 -0.2248476 -0.27185327
0.23890911 -0.3874242 -0.05423113 0.123516746 -0.060764287 0.041023616 0.23097394 -0.0311278
-0.22074603 -0.37153557 -0.14393342 -0.12910153 0.32010153 -0.11892729 -0.124628924 0.1129843
0.34620023 -0.2768023 0.10264187 -0.067469895 -0.5472345 0.19252412 -0.3523784 0.2095003
0.0030977877 -0.012758083 -0.3615318 -0.018839188 0.42520696 0.38085446 0.458166 0.1861972
0.3652092 -0.312669 -0.45641106 -0.4437906 0.37810147 0.43364152 -0.6509707 0.37440556
0.23812035 0.3186531 0.7072185 0.6542669 -0.10293442 -0.085676886 0.2400478 0.20279835
-0.3255738 0.36545724 0.13879229 0.5798973 -0.03828465 0.08395953 0.359249 0.23333426
-0.1620848 -0.11676631 0.47111228 0.53625154 -0.03523757 0.319482 -0.38019335 0.18036938
-0.28620818 -0.58105254 -0.6492325 0.6090482 0.2705272 0.43222663 0.6603429 -0.47149393
0.45759284 -0.060386457 0.0044279047 0.3467035 -0.56906796 -0.3688562 -0.6269102 -0.52971077
0.11762114 0.5515893 0.3833617 0.6116092 0.6037766 -0.34179834 0.38799465 0.2569073
-0.06871327 0.2840825 0.030175544 0.0319305 -0.089265145 -0.022616006 0.27917555 -0.040792592
-0.0984292 -0.27467847 -0.41732284 0.6503031 0.9543592 0.10930553 0.29784313 0.64086586
0.2212836 0.10340975 -0.4810577 0.23615687 0.1620595 -0.7920562 0.49792573 0.30700517
-0.12636107 0.2979415 -0.19959167 -0.16874366 0.47545767 0.045454193 -0.49040973 -0.010827887
-1.0038925 0.111927494 -0.1405738 0.28029954 -0.020424834 -0.23943827 -0.013768105 0.19250949
0.18879367 -0.31465074 0.13321795 -0.698184 -0.81537706 0.10507077 -0.85782385 0.059568524
-0.015900414 -0.011125303 -0.26603344 -0.24261868 0.1910387 -0.43435386 0.40843362 -0.25795743
-0.24282132 -0.49105206 -0.16771385 0.30031708 -0.49069628 0.49672925 -0.40081698 0.30229205
0.008339051 -0.57241976 0.7910432 0.53513324 0.5129954 0.3818098 -0.33580446 0.4253859
0.036151957 0.093963295 -0.5630027 0.11721719 -0.45167035 -0.14009495 0.6321964 -0.41064832
0.12504938 0.23857169 0.038748354 -0.26924667 -0.26933756 -0.10660957 0.31376866 0.50278354
0.34329316 -0.08772999 0.12248125 -0.5770302 -0.65451074 0.2826027 -0.7549516 0.29973948
-1.1057742 -0.16921748 -1.229576 -0.07954225 -0.014205509 0.086626865 0.37706912 0.25824547
0.08704506 -0.09825081 -0.046146777 -0.3487902 0.30690467 -0.24317777 -0.06661988 0.10063369
-0.8557706 -0.13052607 0.03416943 0.2311329 -0.5074675 0.035188314 0.19735245 0.14737535
0.32139602 -0.0902141 0.27214837 -0.034307864 0.19504067 0.07792413 -0.12593947 0.272109
00000000: 8564 98bf ec54 a73e f5da 6cbd 4fd7 fbbe
00000010: 491d 35be 6560 343e f5bf 543e 3cc6 eb3e
00000020: 3943 5a3e c8f9 4ebe 76ed efbd 4b5c 27bf
00000030: 83d8 01be 90ac 113e 0b88 86bf 04b1 b9be
00000040: 270e 31bf 3409 c13e 68ae c1be 5fde fcbe
00000050: 7ed3 b13e b7c0 f7be cef2 6fbd df1f 283e
00000060: 4cef b23c 4cb1 65be 9bec c0bd 1a18 a4be
00000070: 5a00 88bf 71cc 9f3e 9cb6 a9bf 629f 7ebc
00000080: 2a64 eb3c 1da2 6abe 471d 0d3e 25d9 053f
00000090: 3608 2b3e af4b 3d3e 733e 66be 5a30 8bbe
000000a0: 97a4 743e 775c c6be 7621 5ebd 59f6 fc3d
000000b0: f9e3 78bd 6108 283d 6f84 6c3e baff febc
000000c0: 3f0b 62be e939 bebe 4863 13be 3133 04be
000000d0: 59e4 a33e 2790 f3bd 733d ffbd 5064 e73d
000000e0: 2841 b13e 08b9 8dbe e735 d23d a82d 8abd
000000f0: 8f17 0cbf 0b25 453e f16a b4be 3f87 563e
00000100: 4104 4b3b 4707 51bc b21a b9be a454 9abc
00000110: bab4 d93e 5bff c23e bc94 ea3e 7baa 3e3e
00000120: b3fc ba3e 2716 a0be b6ae e9be 8638 e3be
00000130: 8496 c13e 4306 de3e 04a6 26bf 16b2 bf3e
00000140: d2d5 733e 8026 a33e 460c 353f 097e 273f
00000150: 48cf d2bd 5d77 afbd 17cf 753e 5faa 4f3e
00000160: 9cb1 a6be 361d bb3e 911f 0e3e 2674 143f
00000170: 5dd0 1cbd f9f2 ab3d 7cef b73e 2def 6e3e
00000180: 8ff9 25be 2d23 efbd a135 f13e c847 093f
00000190: 4555 10bd 2593 a33e b4a8 c2be c0b2 383e
000001a0: e189 92be dcbf 14bf 1a34 26bf 95ea 1b3f
000001b0: 8b82 8a3e cf4c dd3e 3b0c 293f a767 f1be
000001c0: 9c49 ea3e ca57 77bd f517 913b 1f83 b13e
000001d0: 70ae 11bf b8da bcbe 307d 20bf 209b 07bf
000001e0: 5ae3 f03d f534 0d3f fc47 c43e 6c92 1c3f
000001f0: 1a91 1a3f 3100 afbe 3ca7 c63e 5b89 833e
00000200: 8bb9 8cbd 4373 913e b432 f73c 8ec9 023d
00000210: a5d0 b6bd 3445 b9bc 19f0 8e3e 2216 27bd
00000220: 4095 c9bd a8a2 8cbe 57ab d5be 447a 263f
00000230: e250 743f 94db df3d e57e 983e c90f 243f
00000240: 2b98 623e 7ec8 d33d 324d f6be 1bd3 713e
00000250: edf2 253e 32c4 4abf 1ff0 fe3e c82f 9d3e
00000260: cc64 01be ca8b 983e c261 4cbe 23cb 2cbe
00000270: 306f f33e 2d2e 3a3d fc16 fbbe 7367 31bc
00000280: 8d7f 80bf 3e3a e53d 94f2 0fbe 6c83 8f3e
00000290: fb51 a7bc 4e2f 75be 9e93 61bc 3521 453e
000002a0: 2153 413e e719 a1be 496a 083e 30bc 32bf
000002b0: 8dbc 50bf 582f d73d 589a 5bbf 20fe 733d
000002c0: 9641 82bc e746 36bc 8935 88be 0871 78be
000002d0: a69f 433e a163 debe 361e d13e ff12 84be
000002e0: 27a6 78be 2d6b fbbe 2ebd 2bbe 29c3 993e
000002f0: 8b3c fbbe 4c53 fe3e e237 cdbe 06c6 9a3e
00000300: 84a0 083c 1a8a 12bf cf81 4a3f 7efe 083f
00000310: ab53 033f 937c c33e 90ee abbe 2ecc d93e
00000320: 1314 143d d46f c03d f220 10bf 910f f03d
00000330: 5641 e7be 0d75 0fbe a0d7 213f 7f40 d2be
00000340: f20c 003e 234c 743e 98b6 1e3d b3da 89be
00000350: 9de6 89be 1e56 dabd 49a6 a03e 6cb6 003f
00000360: 1fc4 af3e c8ab b3bd 73d7 fa3d 40b8 13bf
00000370: 048e 27bf 4db1 903e 8244 41bf 7477 993e
00000380: 028a 8dbf 5947 2dbe bf62 9dbf 0ce7 a2bd
00000390: 39be 68bc 6d69 b13d 340f c13e c038 843e
000003a0: ae44 b23d b837 c9bd 6704 3dbd a194 b2be
000003b0: 9c22 9d3e 9803 79be 0170 88bd 0919 ce3d
000003c0: c813 5bbf a0a8 05be 3ff5 0b3d 1aae 6c3e
000003d0: 64e9 01bf 9f21 103d c316 4a3e 90e9 163e
000003e0: 058e a43e 2cc2 b8bd 0857 8b3e 6786 0cbd
000003f0: beb8 473e b096 9f3d 47f6 00be df51 8b3e

head.module_4.att_src f4 [1, 1, 16]
0.60388666 0.029616872 0.96292096 -0.46291876 -0.32806468 0.386806 0.4133317 0.6431006
-0.10843701 -0.44230154 0.025153715 -0.73503244 -0.051024158 0.66156304 0.41588417 -0.5596564
00000000: 5198 1a3f 159f f23c fd81 763f b003 edbe
00000010: 18f8 a7be 700b c63e 36a0 d33e 3ea2 243f
00000020: 3914 debd 5975 e2be 2a0f ce3c 162b 3cbf
00000030: b5fe 50bd 325c 293f c5ee d43e a445 0fbf

head.module_4.att_dst f4 [1, 1, 16]
0.19626935 -0.45410728 0.7079463 -0.7278181 -0.75421894 -0.328346 0.23867124 -0.008539013
0.033876322 -0.3026088 0.07325275 0.11279478 0.22530642 0.52923673 0.36100015 -0.237541
00000000: d5fa 483e c080 e8be f83b 353f 4952 3abf
00000010: 7e14 41bf f81c a8be 3c66 743e 37e7 0bbc
00000020: e6c1 0a3d 8aef 9abe 8a05 963d f300 e73d
00000030: bab6 663e 0f7c 073f 03d5 b83e f33d 73be

head.module_4.bias f4 [16]
0.3032754 0.25514138 0.038178936 0.12590574 0.2163214 0.050653804 0.045835696 0.39714095
0.0654307 0.098714255 0.18559512 -0.17818037 -0.10623685 0.07734263 -0.08357675 0.07298783
00000000: ea46 9b3e e4a1 823e 8461 1c3d 6fed 003e
00000010: 5b83 5d3e 5d7a 4f3d 36be 3b3d 0f56 cb3e
00000020: 8800 863d b32a ca3d a60c 3e3e ea74 36be
00000030: b592 d9bd d065 9e3d 492a abbd a57a 953d

head.module_4.lin.weight f4 [16, 16]
0.17857388 -0.19589551 0.551592 -0.049371064 -0.079536214 0.5752264 0.727806 -0.40964407
0.27057302 0.031146664 -0.14891529 -0.06646663 0.3730882 -0.3426715 -0.18897198 0.30437905
0.14869507 0.6705857 0.15163672 0.75563604 0.7161227 -0.07642542 0.48199907 -0.7670981
-0.6065775 0.07912274 0.13900521 0.2820688 0.36347398 0.38510215 0.32985854 -0.24771598
-0.1384282 -0.5529614 -0.45075446 -0.13606715 -0.37195542 -0.3048401 0.0023303996 0.18301676
0.07501361 -0.0070635467 -0.25107223 -0.32968527 0.22163747 -0.62746614 0.45148414 0.18240291
0.24656446 0.2888555 0.15974994 0.39733574 0.05550084 -0.08865798 0.13631563 -0.5285756
-0.30751827 0.005730232 0.43199334 -0.18854137 0.31395197 0.6676729 0.24061011 0.04934983
0.4244919 -0.16256376 0.14093034 -0.01881461 -0.13419525 0.20521137 0.5306027 -0.14628285
-0.6157912 -0.1313287 -0.004117664 0.06060904 0.76361555 0.41100082 -0.865608 -0.06835247
0.0656729 -0.21587773 -0.22643065 0.6373092 0.52067655 0.29048613 0.11706789 -0.56046975
-0.087503605 0.6234761 -0.11959049 0.6762807 0.056162022 0.5337672 0.27579492 0.27852252
-0.4082459 -0.14444844 0.105432935 -0.004977004 0.28574508 0.36443716 0.2998739 0.26148167
0.5345871 -0.21818982 -0.53702426 -0.20527278 -0.16444333 -0.40435436 0.5242845 0.17129938
0.15767054 0.22182961 0.72545993 0.2867651 -0.42490155 0.0017087251 0.5522898 -0.16465828
0.16076933 -0.52296627 -0.17433892 0.15071847 0.68923 -0.37646964 -0.3776194 -0.11797358
0.16610295 0.09512185 0.441756 -0.50973266 -0.6236603 0.3023826 0.5468596 0.23737563
-0.0809491 -0.4840942 0.34152317 -0.68049914 0.23833808 -0.41371518 -0.51405174 -0.009128026
-0.13908464 0.029005554 -0.3650104 -0.14660183 0.27817184 -0.12130436 -0.13768867 -0.23729093
-0.75733244 -0.2621304 0.3654352 0.26997116 0.20938355 -0.10230692 -0.07240096 0.06287878
-0.32259223 0.12023298 0.49165756 -0.2924679 -0.47614494 0.13497384 0.6290319 -0.38904566
0.14124331 0.36420453 0.14726095 0.08070622 0.70454335 0.26955572 -0.6476101 0.010507868
0.27353382 0.52604306 -0.62847793 0.35212383 0.057684015 -0.5979227 -0.40286884 -0.18896325
-0.063107826 0.05429558 -0.24148448 0.09661253 -0.5070724 0.42752543 0.38810858 0.40765673
0.23290195 -0.021166066 0.23234232 0.06847182 0.26453504 -0.20018902 -0.30621848 -0.13150573
-0.06335493 -0.055250764 0.07286626 -0.1889451 -0.28966087 0.40741664 0.2601677 -0.18141802
0.12810406 0.009164827 0.061215278 0.049462277 0.37464032 -0.2977488 -0.047454704 0.10780022
1.0257479 0.06298153 -0.47110972 0.3337678 0.055065323 -0.21005782 0.14129288 0.3990709
-0.06559055 -0.6657249 -0.36646253 -0.10623783 -0.37734574 0.14977285 0.24947073 0.16989818
0.14664769 -0.4255881 -0.3551696 -0.15566252 -0.46914735 -0.43843487 -0.07998783 0.14188349
-0.2069988 0.4612851 -0.06565309 -0.24452548 0.26406386 0.0966687 0.33811495 0.30070257
-0.67838305 0.32692617 -0.022810426 -0.16116941 0.33258042 0.4002948 -0.31495005 0.04024045
00000000: 12dc 363e d598 48be 2235 0d3f 5039 4abd
00000010: e2e3 a2bd 0a42 133f 7e51 3a3f debc d1be
00000020: 8c88 8a3e 4a27 ff3c 407d 18be a81f 88bd
00000030: 6b05 bf3e a472 afbe df81 41be 92d7 9b3e
00000040: 8543 183e 81ab 2b3f a846 1b3e 5d71 413f
00000050: d153 373f ee84 9cbd 95c8 f63e 8b60 44bf
00000060: aa48 1bbf 1a0b a23d 6257 0e3e 526b 903e
00000070: 4319 ba3e 1c2c c53e 38e3 a83e 42a9 7dbe
00000080: 1fc0 0dbe e18e 0dbf 4ac9 e6be 3055 0bbe
00000090: f170 bebe 0014 9cbe 9eb9 183b bf68 3b3e
000000a0: bca0 993d 5375 e7bb 8a8c 80be 82cc a8be
000000b0: eff4 623e 9fa1 20bf ee28 e73e d4c7 3a3e
000000c0: 657b 7c3e dee4 933e 7d95 233e 976f cb3e
000000d0: d954 633d 5192 b5bd 5396 0b3e bb50 07bf
000000e0: 0973 9dbe acc4 bb3b 3b2e dd3e fd10 41be
000000f0: 50be a03e 9cec 2a3f 7f62 763e 0c23 4a3d
00000100: 0157 d93e 1d77 26be 0b50 103e 1921 9abc
00000110: 7b6a 09be ee22 523e 94d5 073f 2ccb 15be
00000120: 7ea4 1dbf 087b 06be 78ed 86bb 2f41 783d
00000130: 4f7c 433f b36e d23e 7c98 5dbf 61fc 8bbd
00000140: 837f 863d 0d0f 5dbe 70dd 67be b226 233f
00000150: 0f4b 053f 99ba 943e 4ac1 ef3d f27a 0fbf
00000160: 1735 b3bd 219c 1f3f dceb f4bd bb20 2d3f
00000170: 260a 663d f8a4 083f fe34 8d3e 819a 8e3e
00000180: 9b05 d1be 4bea 13be 39ed d73d 2316 a3bb
00000190: 2e4d 923e 8297 ba3e 1289 993e ede0 853e
000001a0: b3da 083f 276d 5fbe 6c7a 09bf 0733 52be
000001b0: d563 28be 8907 cfbe 8237 063f 1b69 2f3e
000001c0: 6374 213e 4d27 633e beb7 393f e0d2 923e
000001d0: b28c d9be 4df7 df3a dd62 0d3f 2e9c 28be
000001e0: b7a0 243e 1ee1 05bf e785 32be f155 1a3e
000001f0: 6171 303f a1c0 c0be 5457 c1be 229c f1bd
00000200: e416 2a3e 3fcf c23d d82d e23e d77d 02bf
00000210: 34a8 1fbf e4d1 9a3e fefe 0b3f 9912 733e
00000220: a4c8 a5bd 32db f7be 20dc ae3e 3135 2ebf
00000230: e60e 743e 7ad2 d3be e598 03bf b78d 15bc
00000240: 346c 0ebe 0e9d ed3c a5e2 babe ca1e 16be
00000250: 8a6c 8e3e 6c6e f8bd 42fe 0cbe 65fc 72be
00000260: 8ae0 41bf f535 86be 531a bb3e a939 8a3e
00000270: a468 563e 4a86 d1bd f446 94bd 97c6 803d
00000280: cf2a a5be b53c f63d 8aba fb3e 5abe 95be
00000290: 45c9 f3be 9536 0a3e 3c08 213f fe30 c7be
000002a0: 16a2 103e 0479 ba3e 93cb 163e 4d49 a53d
000002b0: f45c 343f 3503 8a3e c7c9 25bf 3129 2c3c
000002c0: a00c 8c3e c2aa 063f eee3 20bf 9349 b43e
000002d0: 1346 6c3d 7611 19bf d344 cebe 957f 41be
000002e0: ad3e 81bd 0b65 5e3d b547 77be cadc c53d
000002f0: 7fcf 01bf 9de4 da3e 2bb6 c63e 62b8 d03e
00000300: d97d 6e3e 7564 adbc 25eb 6d3e f43a 8c3d
00000310: 2371 873e 5afe 4cbe abc8 9cbe 70a9 06be
00000320: 3bc0 81bd a04e 62bd e83a 953d d37a 41be
00000330: 6e4e 94be ea98 d03e b334 853e a5c5 39be
00000340: b62d 033e 1228 163c dfbc 7a3d f598 4a3d
00000350: dbd0 bf3e 8872 98be dd5f 42bd 5dc6 dc3d
00000360: b54b 833f 76fc 803d 4b35 f1be 9de3 aa3e
00000370: 2d8c 613d 6619 57be 15af 103e 0553 cc3e
00000380: 5754 86bd f26c 2abf faa0 bbbe 3893 d9bd
00000390: 7633 c1be 0e5e 193e 4175 7f3e caf9 2d3e
000003a0: d02a 163e afe6 d9be cad8 b5be ff65 1fbe
000003b0: 1534 f0be 897a e0be a9d0 a3bd e849 113e
000003c0: 7ef7 53be 902d ec3e 2175 86bd e364 7abe
000003d0: 6133 873e 3dfa c53d 671d ad3e b0f5 993e
000003e0: 83aa 2dbf de62 a73e eedc babc 9809 25be
000003f0: fb47 aa3e 71f3 cc3e 2241 a1be 2cd3 243d

head.module_6.att_src f4 [1, 1, 16]
-0.7471943 0.64152914 0.012340916 -0.15304627 0.08268785 -0.17482495 0.15862185 0.3739063
-0.8925158 -0.29451102 0.144505 -0.3189389 -0.7816297 0.110613845 -0.95798135 -0.280515
00000000: 2048 3fbf 413b 243f 8e31 4a3c 29b8 1cbe
00000010: 3f58 a93d 5005 33be c46d 223e a670 bf3e
00000020: ea7b 64bf 26ca 96be 1ef9 133e f64b a3be
00000030: e218 48bf 8389 e23d 443e 75bf a99f 8fbe

head.module_6.att_dst f4 [1, 1, 16]
0.22317745 0.023743697 -0.53312 0.054319702 0.08647084 -0.48302987 -0.32607824 0.65566725
0.30887368 0.24456869 0.387539 0.13580026 0.23145428 0.43323112 -0.19623122 -0.17449407
00000000: a188 643e 2482 c23c 8d7a 08bf 567e 5e3d
00000010: a017 b13d b14f f7be baf3 a6be cfd9 273f
00000020: b124 9e3e 3770 7a3e 836b c63e 390f 0b3e
00000030: 5a02 6d3e 78d0 dd3e d6f0 48be 93ae 32be

head.module_6.bias f4 [16]
0.22348668 0.12225488 0.1321859 -0.142288 -0.10044544 0.036246892 0.0609768 -0.052727554
0.18736856 0.12359919 0.22442134 0.08580828 0.25908446 0.014501951 0.22184952 0.19485733
00000000: b1d9 643e c460 fa3d be5b 073e f2b3 11be
00000010: 57b6 cdbd 9f77 143d cfc2 793d d9f8 57bd
00000020: 8bdd 3f3e 9221 fd3d b5ce 653e 40bc af3d
00000030: b8a6 843e 9799 6d3c 852c 633e ae88 473e

head.module_6.lin.weight f4 [16, 16]
0.15412351 -0.016030615 0.33561137 -0.23287557 0.30279833 0.41784638 -0.16719823 0.8191415
0.64235693 0.5623483 0.16090232 0.15202601 -0.16385452 0.60691845 0.10209182 0.20506477
0.12135734 0.6301804 -0.494993 0.43291688 0.21450515 0.5326598 -0.11697839 -0.23007506
-0.4604986 0.2300251 -0.36934182 0.5298734 -0.17011729 -0.1549614 -0.25983906 0.24981476
0.34240103 0.18342671 0.024149545 0.14272077 0.5224985 -0.33934405 0.047746867 0.10607474
0.41491708 0.24046421 0.15804993 -0.52931017 -0.4526724 0.7471378 -0.052166376 0.41484094
0.1662888 0.36024445 0.24970147 -0.29519853 0.2503979 -0.29666418 0.057802834 -0.105819866
0.078763574 -0.26703155 -0.35148022 -0.11998439 0.11933037 -0.37739727 0.30248988 -0.18992743
0.044496708 -0.42036772 0.12257063 -0.23370545 0.2133735 0.1684566 0.30781525 -0.12440952
0.19851592 -0.32875133 -0.30948675 -0.1461977 -0.10854791 -0.28616393 -0.06145471 -0.3318376
-0.18238689 0.04560397 0.40576425 0.19161625 -0.11276271 -0.5397832 -0.2072596 0.21264757
0.41848776 -0.13810478 -0.06826888 -0.4256466 -0.26897296 -0.5028997 -0.36439246 0.45231524
-0.9336406 0.0602874 -0.23238486 -0.32122594 -0.3832474 0.33552015 -0.33553404 -0.70804065
-0.16698657 -0.6240458 -0.19676843 1.0556538 0.53318244 -0.040619228 -0.003032178 -0.37724516
-0.5555318 0.03866143 -0.1390601 0.25751755 -0.42799947 0.16197498 -0.22741066 -0.8775081
-0.3314992 -0.50624037 -0.09468111 0.5746723 0.6164642 -0.40626416 -0.17649741 0.16342896
0.7357294 0.48354092 -0.18888286 -0.2638739 -0.2079827 -0.2185361 0.4792209 0.48691356
0.72635597 0.4339767 0.28264934 -0.6230495 0.38682732 0.517443 0.1516535 -0.11643582
0.5350599 0.12858267 0.3856686 0.2954374 0.52794236 -0.3333021 -0.2730254 0.5446593
0.048770178 -0.29572618 0.58599377 0.115901016 0.41174495 -0.5599985 0.13380463 0.054553743
-0.20200004 0.18071401 -0.4349851 0.49350893 0.065509565 0.735763 0.15687717 -0.10201969
-0.19212101 -0.5140864 -0.0878936 0.018243527 0.24529348 0.24451376 -0.39407307 0.041908782
0.63889503 0.15868889 -0.12571006 -0.20516916 0.42315513 0.2276429 -0.37795228 0.26082096
0.21473321 -0.08994282 0.61059886 -0.621345 0.22425418 0.37424293 0.05255879 -0.2920912
0.2195325 0.2668941 0.2451507 0.1475378 0.7224195 -0.190854 0.27249068 0.86855537
0.21180975 0.53462523 0.29550254 -0.12365008 -0.14902091 0.730646 -0.2961282 0.2558729
0.051735528 0.2979452 0.09615097 0.22114542 -0.30670252 -0.15778288 -0.51780605 -0.7185141
-0.04538902 0.10180715 -0.28655705 0.0029569208 0.34662628 -0.92826 -0.21578167 -0.22272526
0.13262138 0.3768587 -0.27002192 -0.053209443 0.66407347 -0.10575596 -0.4961972 0.25699615
0.4344094 -0.4317446 0.30221212 0.12166164 0.05597906 -0.16991808 -0.41552982 0.35947254
0.5006133 0.03065453 -0.29699028 0.27326855 0.5081193 -0.12212033 -0.05114501 0.5245991
0.012417329 0.0031530983 0.68860936 -0.8691234 -0.5132421 0.1526253 0.18364201 -0.04882809
00000000: 8ed2 1d3e a352 83bc 41d5 ab3e ef76 6ebe
00000010: 6208 9b3e f6ef d53e 0336 2bbe 42b3 513f
00000020: 8171 243f 0ff6 0f3f 94c3 243e b5ac 1b3e
00000030: 7bc9 27be 025f 1b3f 8415 d13d 80fc 513e
00000040: 328a f83d 8153 213f b96f fdbe 48a7 dd3e
00000050: 3da7 5b3e 655c 083f 5e92 efbd cc98 6bbe
00000060: 79c6 ebbe b38b 6b3e 5f1a bdbe c8a5 073f
00000070: 3a33 2ebe 34ae 1ebe a009 85be 71cf 7f3e
00000080: 304f af3e 36d4 3b3e 44d5 c53c 6525 123e
00000090: 76c2 053f 81be adbe 3892 433d b73d d93d
000000a0: 0370 d43e 403c 763e d7d7 213e df80 07bf
000000b0: adc4 e7be 6c44 3f3f 69ac 55bd 0866 d43e
000000c0: 9c47 2a3e f671 b83e beb1 7f3e 4324 97be
000000d0: 2734 803e 5ee4 97be aac2 6c3d 16b8 d8bd
000000e0: cc4e a13d 5cb8 88be 37f5 b3be 60ba f5bd
000000f0: 7b63 f43d 373a c1be f4df 9a3e 567c 42be
00000100: 2e42 363d 703a d7be 4f06 fb3d 7b50 6fbe
00000110: 957e 5a3e e37f 2c3e f699 9d3e 6bca febd
00000120: c247 4b3e 1852 a8be 0c75 9ebe dab4 15be
00000130: 5e4e debd 1484 92be efb7 7bbd 9ee6 a9be
00000140: a1c3 3abe 3acb 3a3d 55c0 cf3e 0d37 443e
00000150: 23f0 e6bd 3b2f 0abf dc3b 54be 49c0 593e
00000160: 0744 d63e 576b 0dbe 8ed0 8bbd 5aee d9be
00000170: d3b6 89be 09be 00bf a691 babe dd95 e73e
00000180: 1203 6fbf ecef 763d 4cf6 6dbe ba77 a4be
00000190: 0139 c4be 4cc9 ab3e 1ecb abbe 2742 35bf
000001a0: 87fe 2abe 77c1 1fbf aa7d 49be aa1f 873f
000001b0: a57e 083f 5960 26bd 81b7 46bb 4726 c1be
000001c0: 5537 0ebf 735b 1e3d c565 0ebe 57d9 833e
000001d0: bf22 dbbe c5dc 253e 57de 68be 5fa4 60bf
000001e0: 43ba a9be f898 01bf 2be8 c1bd b91d 133f
000001f0: 99d0 1d3f db01 d0be bdbb 34be ec59 273e
00000200: c358 3c3f ad92 f73e 826a 41be 7b1a 87be
00000210: 6bf9 54be edc7 5fbe 715c f53e bc4c f93e
00000220: 77f2 393f 3232 de3e 6ab7 903e 2c80 1fbf
00000230: 3b0e c63e 2577 043f 0e4b 1b3e e775 eebd
00000240: b0f9 083f 2dab 033e 5b76 c53e 9243 973e
00000250: 3b27 073f 93a6 aabe fcc9 8bbe cb6e 0b3f
00000260: 3dc3 473d 6c69 97be b003 163f 835d ed3d
00000270: 3cd0 d23e 105c 0fbf 1504 093e bf73 5f3d
00000280: 19d9 4ebe 180d 393e 5eb6 debe 34ad fc3e
00000290: e129 863d f75a 3c3f 69a4 203e b3ef d0bd
000002a0: 5fbb 44be 2b9b 03bf 8f01 b4bd 7373 953c
000002b0: 372e 7b3e d161 7a3e f2c3 c9be 8ba8 2b3d
000002c0: a08e 233f 577f 223e 23ba 00be dd17 52be
000002d0: caa7 d83e 381b 693e f682 c1be 538a 853e
000002e0: 06e3 5b3e f133 b8bd 3550 1c3f 7710 1fbf
000002f0: e3a2 653e c59c bf3e e347 573d fa8c 95be
00000300: 21cd 603e 58a6 883e c908 7b3e 2614 173e
00000310: 7cf0 383f 3b6f 43be e683 8b3e a559 5e3f
00000320: a8e4 583e 33dd 083f 1c4c 973e 413c fdbd
00000330: f098 18be 9e0b 3b3f 1e9e 97be c601 833e
00000340: a2e8 533d 468c 983e cdea c43d f273 623e
00000350: 1d08 9dbe d691 21be f08e 04bf 8af0 37bf
00000360: d6e9 39bd 4480 d03d 9bb7 92be e6c8 413b
00000370: 0079 b13e 73a2 6dbf dff5 5cbe 1712 64be
00000380: e6cd 073e a0f3 c03e 5040 8abe 25f2 59bd
00000390: b800 2a3f 9596 d8bd 8f0d febe 0095 833e
000003a0: e96a de3e a10d ddbe 8cbb 9a3e bd29 f93d
000003b0: 4c4a 653d 01ff 2dbe 53c0 d4be c90c b83e
000003c0: 3128 003f 351f fb3c 1c0f 98be dbe9 8b3e
000003d0: 1b14 023f 391a fabd 6e7d 51bd 204c 063f
000003e0: 0d72 4b3c 36a4 4e3b b448 303f df7e 5ebf
000003f0: d663 03bf cf49 1c3e a70c 3c3e f7ff 47bd

head.module_8.att_src f4 [1, 1, 16]
0.17970671 0.092424914 0.20802155 -0.1412102 -0.55344546 -0.18519385 0.5958725 0.4224889
-0.028189376 0.16443677 0.121966965 -0.6393854 0.32736135 -0.6057541 -0.53205067 -0.26470414
00000000: 0905 383e 4649 bd3d 9a03 553e 6899 10be
00000010: 9aae 0dbf 75a3 3dbe 1a8b 183f 7750 d83e
00000020: 68ed e6bc 1d62 283e d1c9 f93d c3ae 23bf
00000030: e89b a73e b312 1bbf 7934 08bf 4d87 87be

head.module_8.att_dst f4 [1, 1, 16]
0.6270466 -0.11198002 -0.059988495 -0.12197153 -0.078277536 0.29181293 -0.060770717 -0.33925584
-0.21716335 0.12592307 -0.339701 -0.5177503 0.89598906 0.3686167 -0.45040545 0.7491107
00000000: 2086 203f c855 e5bd 7fb6 75bd 36cc f9bd
00000010: f94f a0bd 8168 953e b7ea 78bd f1b2 adbe
00000020: 1260 5ebe faf1 003e 4aed adbe 498b 04bf
00000030: 8a5f 653f 54bb bc3e 8b9b e6be b8c5 3f3f

head.module_8.bias f4 [16]
0.010654019 0.16153161 -0.06455913 0.21930622 -0.14427301 -0.11909966 0.17034855 0.020494526
0.073637135 0.11620055 -0.042883556 0.066375315 -0.15893564 0.14444162 0.12966257 -0.071665406
00000000: 328e 2e3c 8b68 253e 9437 84bd cf91 603e
00000010: 4ebc 13be 86ea f3bd da6f 2e3e 23e4 a73c
00000020: 11cf 963d 8efa ed3d aba6 2fbd c8ef 873d
00000030: 06c0 22be 81e8 133e 44c6 043e 50c5 92bd

head.module_8.lin.weight f4 [16, 16]
-0.32256576 -0.42520058 -0.07256787 0.43957657 0.58600736 -0.091866866 -0.5544197 -0.56207085
-0.104640946 -0.08274463 -0.007862299 0.15341999 0.09622582 -0.07400914 -0.38329443 -0.054136157
0.37139523 -0.30360392 0.20886108 -0.006899667 -0.4616519 0.271782 -0.4660269 -1.0696006
0.7248789 0.1316161 0.007956541 0.70693165 0.3160456 -0.581321 0.35568285 0.63810444
0.08827882 -0.7779062 0.10213593 0.21200301 0.07055849 0.5070008 -0.22719969 0.37138465
0.27089083 0.43981662 -1.0552768 -0.09951251 0.19725832 -0.034996454 0.4446498 0.23841773
0.46061277 0.25282356 -0.30967763 -0.36145785 -0.29502085 -0.021566404 -1.0129852 -0.525274
0.12963468 0.4786106 0.08675166 0.67341924 0.69749284 -0.71926206 0.12864104 0.2886024
0.0074877967 0.0118741505 -0.18048516 -0.15548415 0.2858136 -0.20650283 0.4337503 0.37203297
0.3697917 -0.2895991 -0.0858536 0.26974308 -0.50067115 0.23028326 -0.50521874 -0.23870899
-1.0317491 -0.053758286 -0.5197036 -0.027869724 0.24698451 -0.4138072 0.7504038 0.15638182
-0.051602613 -0.31986678 0.2475336 -0.62861764 -1.0003586 0.27656785 -0.3624104 -0.2017221
0.507639 -0.12694694 0.4203626 -0.34702337 0.05933228 0.45788482 -1.0236259 -1.0727545
0.5686184 0.26858523 -0.41532817 0.48138005 0.2861472 -0.52857214 0.047764957 0.5836758
0.11281211 0.23262824 -0.015286112 0.03010917 0.18115246 -0.052596807 0.21517748 0.59175
-0.43970615 0.23581184 -0.006656015 0.083753936 -0.45077607 0.022199498 0.17358328 -0.10102805
-0.13611478 0.66275334 -0.32828012 -0.5070828 -0.6388192 -0.29591697 0.47539937 0.11923077
-0.09247584 -0.16572204 0.76046014 -0.19450647 -0.1345037 0.52380073 -0.02563542 0.40451282
-0.012061604 0.015504432 -0.08989315 0.2251565 0.038049325 -0.16794915 -0.8588533 -0.46527472
-0.05619538 0.2699512 0.2254009 0.5154363 0.43702507 -0.4759532 0.46001998 -0.0710159
-0.1618656 -0.35618582 -0.115285076 0.06830894 -0.12631519 0.15833102 -0.22664668 0.17308967
0.41463852 0.50560695 -0.5905951 0.23064147 0.23520601 0.028353471 0.16621447 0.1828078
-0.03294476 0.6204226 -0.37732565 -0.2240685 -0.25652424 -0.27561942 0.24879533 0.7793189
-0.50897163 0.10015537 0.6776438 -0.34287772 -0.08042178 -0.19482028 0.13182828 -0.4043752
-0.37644392 -0.51497257 -0.5881972 0.40703854 0.14561036 0.054569058 -0.5308911 0.05112727
-0.51110405 -0.43268347 -0.6090769 -0.6387779 0.19774356 -0.6054961 -0.15559766 -0.38948795
-0.15544069 0.46168783 -1.0654956 0.3993714 -0.5958984 -0.099915 -0.6093821 0.26468363
-0.64129263 0.12156474 0.4596863 -0.61654294 0.09153085 -0.023170967 -0.13326874 -0.90624326
-0.041767832 0.794926 0.082047835 -0.08625795 -0.5965172 -0.13605471 0.55165476 0.4003983
-0.2665662 -0.022004088 0.31164598 -0.038878568 -0.15992168 0.35437778 0.39843452 0.16358034
-0.22353095 -0.2699036 -0.466131 0.20468175 -0.27289042 0.013106634 0.386696 0.30780005
0.10770576 -1.195525 0.51032656 -0.24774323 -1.0006322 0.74195653 -0.93625444 -0.77397406
00000000: 5727 a5be e4b3 d9be 779e 94bd 2e10 e13e
00000010: 9404 163f b224 bcbd 73ee 0dbf e0e3 0fbf
00000020: fe4d d6bd 0476 a9bd dfd0 00bc 211a 1d3e
00000030: 0b12 c53d 1b92 97bd 2b3f c4be e0bd 5dbd
00000040: 8427 be3e f971 9bbe aedf 553e 9a16 e2bb
00000050: a35d ecbe 0327 8b3e 149b eebe ace8 88bf
00000060: aa91 393f 5fc6 063e 275c 023c 79f9 343f
00000070: bbd0 a13e 74d1 14bf 101c b63e d05a 233f
00000080: 87cb b43d dc24 47bf a42c d13d 5117 593e
00000090: f880 903d ceca 013f 09a7 68be 2126 be3e
000000a0: 34b2 8a3e a52f e13e 4f13 87bf 37cd cbbd
000000b0: 16fe 493e 7158 0fbd 23a9 e33e c723 743e
000000c0: 70d5 eb3e 1772 813e 118e 9ebe 0111 b9be
000000d0: f90c 97be 07ac b0bc 80a9 81bf 5b78 06bf
000000e0: f4be 043e 730c f53e dbaa b13d 3465 2c3f
000000f0: e48e 323f 8f21 38bf 7aba 033e b2c3 933e
00000100: 315c f53b cc8b 423c 1ad1 38be 3d37 1fbe
00000110: 2956 923e 7a75 53be 8514 de3e 1b7b be3e
00000120: 5655 bd3e 5546 94be 03d4 afbd c41b 8a3e
00000130: fc2b 00bf 60cf 6b3e 0456 01bf 2170 74be
00000140: 5b10 84bf a631 5cbd 4c0b 05bf 0c4f e4bc
00000150: 82e9 7c3e 8ade d3be 771a 403f 8e22 203e
00000160: 435d 53bd 94c5 a3be 7379 7d3e 16ed 20bf
00000170: c00b 80bf 4d9a 8d3e db8d b9be 3d90 4ebe
00000180: a1f4 013f 61fe 01be c439 d73e 0cad b1be
00000190: 6806 733d e16f ea3e 2c06 83bf 0550 89bf
000001a0: fa90 113f 0184 893e e5a5 d4be 7277 f63e
000001b0: e381 923e 8150 07bf 30a5 433d c76b 153f
000001c0: 090a e73d 1936 6e3e 9a72 7abc 82a7 f63c
000001d0: 0880 393e c06f 57bd 7c57 5c3e ee7c 173f
000001e0: 2a21 e1be a978 713e b31a dabb 2f87 ab3d
000001f0: 1fcc e6be b9db b53c d1bf 313e cbe7 cebd
00000200: ac61 0bbe 34aa 293f 5514 a8be 2ed0 01bf
00000210: a889 23bf 6e82 97be 8c67 f33e 432f f43d
00000220: f963 bdbd 0ab3 29be 84ad 423f b42c 47be
00000230: 57bb 09be ce17 063f 5f01 d2bc 4e1c cf3e
00000240: 099e 45bc 4d06 7e3c e619 b8bd 6d8f 663e
00000250: 9cd9 1b3d ddfa 2bbe cfdd 5bbf 7d38 eebe
00000260: 202d 66bd 0b37 8a3e 7ecf 663e a2f3 033f
00000270: c0c1 df3e 23b0 f3be bd87 eb3e c970 91bd
00000280: 19c0 25be fd5d b6be 951a ecbd 8fe5 8b3d
00000290: c558 01be 8721 223e 1116 68be 6b3e 313e
000002a0: 804b d43e 756f 013f 3e31 17bf 472d 6c3e
000002b0: d8d9 703e 8a45 e83c 2034 2a3e f831 3b3e
000002c0: 16f1 06bd 04d4 1e3f d430 c1be 3672 65be
000002d0: 2557 83be fd1d 8dbe 34c4 7e3e 7281 473f
000002e0: f74b 02bf 421e cd3d 107a 2d3f ab8d afbe
000002f0: 2db4 a4bd f87e 47be fefd 063e 440a cfbe
00000300: 42bd c0be 3ed5 03bf 1794 16bf 5b67 d03e
00000310: e21a 153e ce83 5f3d 7be8 07bf d46a 513d
00000320: b7d7 02bf b088 ddbe 77ec 1bbf f386 23bf
00000330: 4a7d 4a3e cb01 1bbf fe54 1fbe f76a c7be
00000340: d82b 1fbe 5962 ec3e 2962 88bf 687a cc3e
00000350: cc8c 18bf 3ca0 ccbd 7700 1cbf 9d84 873e
00000360: c12b 24bf eff6 f83d 015c eb3e c2d5 1dbf
00000370: 8774 bb3d 0ad1 bdbc 9a77 08be 8fff 67bf
00000380: bf14 2bbd 4580 4b3f b208 a83d 02a8 b0bd
00000390: 5ab5 18bf ed51 0bbe 3f39 0d3f 0201 cd3e
000003a0: 5d7b 88be eb41 b4bc 1090 9f3e 223f 1fbd
000003b0: 82c2 23be 0171 b53e 9cff cb3e 9b81 273e
000003c0: 4ce5 64be ce30 8abe b9a8 eebe 1898 513e
000003d0: 4bb8 8bbe 35bd 563c 05fd c53e f897 9d3e
000003e0: d694 dc3d f706 99bf c3a4 023f 67b0 7dbe
000003f0: b714 80bf ddf0 3d3f 5fae 6fbf 2a23 46bf

head.module_10.att_src f4 [1, 1, 16]
0.30994478 -0.10426477 0.6148717 0.11202867 -0.37212026 -0.021240817 0.33416924 -0.034296874
0.59489936 -0.26677075 0.047867253 0.2791164 0.24664055 0.45462683 0.23219925 -0.62956214
00000000: 15b1 9e3e c588 d5bd 3b68 1d3f 4a6f e53d
00000010: 8c86 bebe 3901 aebc 3b18 ab3e e17a 0cbd
00000020: 534b 183f 2d96 88be 7410 443d 58e8 8e3e
00000030: 578f 7c3e d9c4 e83e a4c5 6d3e fc2a 21bf

head.module_10.att_dst f4 [1, 1, 16]
-0.81016016 -0.19596492 -0.07044085 0.6750951 0.5215914 0.085262194 -0.28285 -0.32352135
-0.45536926 0.2854327 -0.92871016 -0.5910459 -0.018276948 -0.59187025 -0.6453819 -0.3327308
00000000: a866 4fbf 07ab 48be 4b43 90bd 08d3 2c3f
00000010: 0487 053f f29d ae3d b7d1 90be 97a4 a5be
00000020: 2926 e9be 3c24 923e f3bf 6dbf c94e 17bf
00000030: 8ab9 95bc cf84 17bf c037 25bf b15b aabe

head.module_10.bias f4 [16]
0.12835772 0.08632746 0.20676728 0.062223405 -0.009002976 0.38490573 0.19991864 0.080414295
0.07173013 0.10824989 0.13918903 -0.015282512 -0.20281874 -0.1536711 0.1512167 0.1816504
00000000: 3570 033e 74cc b03d cdba 533e f8dd 7e3d
00000010: 3881 13bc 5d12 c53e 79b7 4c3e 40b0 a43d
00000020: 3fe7 923d 1eb2 dd3d 9287 0e3e 8063 7abc
00000030: b7af 4fbe f55b 1dbe 8dd8 1a3e 9002 3a3e

head.module_10.lin.weight f4 [16, 16]
0.10009255 0.42172074 0.62546694 0.6938923 0.1561471 -0.56194425 0.07428625 0.055895463
0.22512558 0.61137956 0.21879476 -0.07400341 -0.4266108 0.86684304 -0.15298289 -0.55478
-0.20064916 -0.15524104 0.3372881 0.47823694 -0.37838516 -0.51001096 0.46217895 -0.13836506
-0.28430954 0.404572 0.8041224 0.300695 0.07988373 0.31075582 0.24229889 -0.630655
0.3243956 0.35278827 0.047737118 0.35615146 -0.043479145 0.48599488 0.4606192 -0.1648964
-0.18886098 0.12184709 0.40236267 -0.059004005 0.1180047 -0.007883614 -0.221078 0.40905663
-0.17903683 0.06443361 -0.14345624 0.03367761 -0.22252424 -0.3696507 0.30997422 -0.46064666
-0.3485578 -0.0015575197 -0.29064026 -0.071945064 0.22767457 0.4425939 -0.7553199 0.22065395
0.1900267 0.08133977 -0.58321655 -0.16573423 0.47096425 0.7015349 -0.5522826 0.35536164
0.12597223 -0.73207396 -0.25680947 0.5319598 -0.22638813 0.20137143 0.04387841 0.6903629
0.35941797 0.22882235 -0.58997536 0.22906002 0.04612511 -0.46471426 0.11035673 -0.16868126
0.619026 0.39322612 -0.52870154 -0.34367287 -0.2143947 -1.2959224 0.68693936 -0.3267883
0.08568965 0.43176046 0.59919935 0.043263562 0.27144992 0.27560335 0.7294956 -0.09719893
-0.14262962 0.27444932 0.42018855 -0.29655993 -0.6525441 0.1185395 -0.17653082 -0.088548936
-0.47490993 -0.82210153 -0.116727635 0.015973767 -0.9358436 -0.5545927 -0.3622503 0.30109796
-0.11257073 -0.24852653 0.21186577 0.57760876 -0.41135234 0.1576054 0.14563005 -0.32263848
-0.22584225 -0.3274223 0.41775334 -0.084733866 0.34727833 0.11014509 -0.25846764 0.32722238
0.448884 -0.042205423 0.3412766 0.36876586 0.07649949 0.7733923 0.3609489 0.08739877
-0.42639005 -0.047698718 -0.22165994 -0.31278554 -0.2966232 0.3629765 -0.28965572 0.2847206
0.41163906 0.123397976 0.009261316 0.54317886 -0.2165247 0.5163591 0.5287544 0.517451
-0.45885348 -0.25386852 -0.8296785 0.37735787 0.6897601 0.7222791 -0.04592967 0.29335076
0.7817984 -0.25697333 -0.5045328 -0.45002195 -0.31971502 -0.3346398 0.5367978 -0.2631528
0.17915508 -0.052812003 -0.029171368 0.17747971 0.016655615 0.41316673 -0.13895462 -0.00010556171
0.024674958 -0.3256519 0.62848353 0.558813 -0.3807873 0.15642251 0.3248767 0.36180276
0.077844 -0.22626957 0.68093365 -0.27074292 0.06561722 0.0717111 0.03523875 -0.27052987
-0.9436963 0.17687212 0.31607926 0.46056288 -0.08198155 0.42979217 -0.34558848 -0.23427291
-0.150823 -0.16440417 -0.15944895 -0.19179787 0.49602628 0.8122891 -0.13049163 0.045422565
0.41673234 -0.123244315 -0.0047838893 0.29111528 0.40034047 -0.5063569 0.16809702 0.35281715
-0.0020551754 0.03160864 0.3024261 0.7413259 -0.5180254 -0.1462827 0.4769258 0.13750423
0.18777677 0.7145552 0.13452108 -0.15213409 -0.18449056 0.32183546 0.10681955 -0.3465236
0.2424428 0.37272587 -0.37115362 0.42281213 0.04523593 -0.34134147 0.1769451 0.3053167
-0.14372884 -0.022782864 -0.12870842 0.0101302145 -0.8354116 -0.27723354 -0.42210054 -0.5227304
00000000: 53fd cc3d c8eb d73e 9a1e 203f eda2 313f
00000010: 06e5 1f3e 94db 0fbf 6423 983d a4f2 643d
00000020: 5287 663e 5f83 1c3f bc0b 603e 1a8f 97bd
00000030: bb6c dabe 6de9 5d3f 8ca7 1cbe 1006 0ebf
00000040: f976 4dbe 82f7 1ebe 07b1 ac3e 79db f43e
00000050: b3bb c1be 1490 02bf b8a2 ec3e 92af 0dbe
00000060: 0591 91be 1024 cf3e f7da 4d3f b2f4 993e
00000070: 159a a33d 631b 9f3e 331d 783e 9b72 21bf
00000080: 2e17 a63e aaa0 b43e ff87 433d 7c59 b63e
00000090: 3017 32bd 52d4 f83e 48d6 eb3e 9ada 28be
000000a0: c664 41be f88a f93d 7b02 ce3e 2fae 71bd
000000b0: 73ac f13d 462a 01bc 4562 62be df6f d13e
000000c0: 6e55 37be c5f5 833d 31e6 12be 89f1 093d
000000d0: 65dd 63be db42 bdbe f1b4 9e3e e1d9 ebbe
000000e0: 2b76 b2be b025 ccba cdce 94be ef57 93bd
000000f0: 8623 693e ab9b e23e a55c 41bf 1cf3 613e
00000100: 5c96 423e 7795 a63d ae4d 15bf 3cb6 29be
00000110: 3a22 f13e cb97 333f 6462 0dbf f6f1 b53e
00000120: ddfe 003e 3369 3bbf 887c 83be 842e 083f
00000130: 4ad2 67be 5034 4e3e d9b9 333d 9fbb 303f
00000140: a205 b83e 6850 6a3e a008 17bf b68e 6a3e
00000150: afed 3c3d 07ef edbe b602 e23d c8ba 2cbe
00000160: 7d78 1e3f ef54 c93e fc58 07bf e4f5 afbe
00000170: 498a 5bbe c9e0 a5bf 42db 2f3f cc50 a7be
00000180: 0e7e af3d b50f dd3e 2165 193f 2235 313d
00000190: 7cfb 8a3e e21b 8d3e 39c0 3a3f 3c10 c7bd
000001a0: 800d 12be 9f84 8c3e f422 d73e b4d6 97be
000001b0: 210d 27bf d6c4 f23d 7fc4 34be 2559 b5bd
000001c0: 6527 f3be 3f75 52bf e60e efbd 6bdb 823c
000001d0: 7293 6fbf caf9 0dbf df78 b9be 8329 9a3e
000001e0: 7c8b e6bd bd7d 7ebe 57f3 583e 2bde 133f
000001f0: c69c d2be 4f63 213e 0b20 153e df30 a5be
00000200: 3143 67be e5a3 a7be c4e3 d53e f388 adbd
00000210: 77ce b13e c093 e13d df55 84be b189 a73e
00000220: 20d4 e53e 98df 2cbd cebb ae3e e1ce bc3e
00000230: c4ab 9c3d 0afd 453f 4bce b83e 20fe b23d
00000240: cc4f dabe bb5f 43bd d3fa 62be 6d25 a0be
00000250: ffde 97be 0ed8 b93e c14d 94be e6c6 913e
00000260: 5bc2 d23e 14b8 fc3d c6bc 173c c50d 0b3f
00000270: a7b8 5dbe 1c30 043f 735c 073f ab77 043f
00000280: d8ee eabe 0efb 81be cf65 54bf 0d35 c13e
00000290: 1e94 303f 48e7 383f c020 3cbd 1232 963e
000002a0: f123 483f 0292 83be 1029 01bf 4769 e6be
000002b0: b0b1 a3be e855 abbe 956b 093f f7bb 86be
000002c0: 6e74 373e 6651 58bd cbf8 eebc 3ebd 353e
000002d0: 5b71 883c 978a d33e 1f4a 0ebe 0361 ddb8
000002e0: 2323 ca3c d9bb a6be 4ce4 203f 5e0e 0f3f
000002f0: 8ef6 c2be 392d 203e 3d56 a63e 363e b93e
00000300: ad6c 9f3d 36b3 67be ab51 2e3f d19e 8abe
00000310: 5262 863d 45dd 923d 8256 103d e482 8abe
00000320: 1596 71bf f71d 353e 24d5 a13e e6ce eb3e
00000330: f1e5 a7bd b80d dc3e f9f0 b0be 3de5 6fbe
00000340: 5871 1abe 9159 28be 9646 23be a966 44be
00000350: 28f7 fd3e 2ef2 4f3f 999f 05be 030d 3a3d
00000360: f15d d53e 8467 fcbd 2cc2 9cbb 100d 953e
00000370: 6df9 cc3e 9ba0 01bf a021 2c3e 73a4 b43e
00000380: 1fb0 06bb 1078 013d 98d7 9a3e 89c7 3d3f
00000390: 509d 04bf 22cb 15be 9e2f f43e e9cd 0c3e
000003a0: 8e48 403e 17ed 363f e5bf 093e 0ac9 1bbe
000003b0: 18eb 3cbe 9ec7 a43e 35c4 da3d 8b6b b1be
000003c0: ed42 783e edd5 be3e d907 bebe d57a d83e
000003d0: 4f49 393d 4fc4 aebe 1931 353e 7852 9c3e
000003e0: a72d 13be 21a3 babc 24cc 03be 33f9 253c
000003f0: 89dd 55bf 8ef1 8dbe 901d d8be a9d1 05bf

head.module_12.att_src f4 [1, 1, 16]
0.33545882 -0.6762174 0.18236667 -0.22702079 -0.026966 0.27854607 0.44223216 -0.1678844
-0.31091568 -0.37323216 0.3007998 0.28095216 0.26886934 -0.8223043 -0.6747217 0.4122419
00000000: 42c1 ab3e 951c 2dbf 54be 3a3e 2378 68be
00000010: cde7 dcbc 979d 8e3e 416c e23e e3e9 2bbe
00000020: 5730 9fbe 4918 bfbe 6e02 9a3e f6d8 8f3e
00000030: 3ea9 893e 8982 52bf 90ba 2cbf 5f11 d33e

head.module_12.att_dst f4 [1, 1, 16]
-0.02219193 0.32549238 0.12926206 -0.5991151 -0.2965522 -0.86045367 0.116249256 0.5681201
-0.26755953 -1.0289159 -0.39745668 0.29781076 0.47030237 -0.42490745 0.13200107 -0.3892743
00000000: dacb b5bc f0a6 a63e 465d 043e 9b5f 19bf
00000010: b1d5 97be b146 5cbf 1714 ee3d 5270 113f
00000020: 90fd 88be 84b3 83bf 717f cbbe a77a 983e
00000030: 79cb f03e 788d d9be 4a2b 073e f64e c7be

head.module_12.bias f4 [16]
0.02002364 0.26365894 0.10631322 -0.023102038 0.09231255 0.052286707 -0.3165799 -0.016885199
0.13288462 0.065811515 0.052627027 0.18136272 -0.06605874 0.20355333 -0.104524456 0.035952277
00000000: 9e08 a43c 4efe 863e bfba d93d 7c40 bdbc
00000010: 5d0e bd3d 962a 563d c316 a2be d452 8abc
00000020: e812 083e 30c8 863d 708f 573d 26b7 393e
00000030: ce49 87bd 4970 503e eb10 d6bd b242 133d

head.module_12.lin.weight f4 [16, 16]
0.18213744 -0.13796358 -0.008834375 0.21712315 -0.18874085 0.274129 -0.10858834 -0.8982945
-1.1237538 -0.64688367 0.33992922 -0.91445786 -0.167434 0.03358617 0.18296012 -0.047338314
-0.028498914 -0.4485783 -0.020443 -0.14349967 0.5958893 0.32406604 -0.379558 -0.61271197
-0.21549822 -0.21288784 1.1732635 0.4425929 -0.00046992232 0.07858542 -0.021709483 0.08445685
0.76849604 0.30716628 0.43847534 0.17186701 -0.5424176 0.17359225 -0.25883198 0.27699474
0.38544774 -0.3113365 -0.030581467 0.19804823 0.010538825 -0.13242407 0.40156457 0.005987639
0.6203205 0.28972286 0.84154177 -0.035791624 -0.08258731 -0.2415181 0.6084227 0.037561037
0.45593446 -0.03139273 -0.9090038 0.097284324 0.40444237 -0.45829323 0.5454235 -0.17081825
-0.13313681 -0.033838686 0.12537134 -0.056708828 -0.39093596 -0.008329554 0.39017242 -0.53462225
-0.6225935 -1.0129967 0.3337803 -0.16726603 -0.6089835 0.26484352 0.409693 0.25112122
0.53514737 0.7521788 0.049953878 0.1640106 0.14103569 -0.2516584 0.24295615 -0.13034903
-0.3062018 0.16548626 0.020880632 -0.30870634 0.34274474 -0.08147668 0.49674383 0.4401732
0.23836288 0.26618296 -0.2963398 -0.45840797 0.45612234 -1.1990185 0.07036035 0.20760015
0.3208681 0.36921176 -0.748173 0.30606556 0.32888663 0.33849397 -0.10678071 -0.43314713
-0.6035755 0.03280547 -0.42310408 0.39615354 0.4955701 -0.30684286 -0.8853939 0.124253266
0.010382249 0.27116892 0.4360985 0.4154776 0.1796794 0.07217152 -0.19495256 -0.6452955
0.37978142 -0.12000432 -0.45474967 0.3957526 0.030890878 0.78875756 -0.3611552 -0.58368546
-0.23795106 -0.12377488 0.65132344 -0.29765838 -0.46010736 0.21087669 0.4733835 -0.25411326
0.9214096 0.39558992 0.24231337 -0.08068619 0.08731168 -0.32231548 0.47385976 -0.24005343
0.47042263 -0.020306757 -0.5254687 -0.061549425 0.19467942 -0.6426658 0.49392566 0.5622114
0.10325408 0.0359807 0.0007037877 0.15154673 -0.50503635 0.33305648 0.4690437 -0.1857116
-0.7112627 -1.201412 -0.16880713 -0.006427567 -0.9579953 -0.6842378 -0.038781498 0.30843806
-0.54650956 -0.9357415 -0.31825483 -0.26076895 0.60168904 0.2838633 -0.7905303 -0.30150995
0.36077133 0.103301406 0.19797176 0.3097288 -0.49932188 0.46271822 -0.02986241 -0.20012718
-0.66114706 0.310353 -0.33051237 -0.008961596 0.15927519 -0.7286146 0.3307677 -0.10931178
0.23082179 0.12833585 -0.63416165 -0.43176374 0.6119528 0.07091467 -0.60921854 0.054526117
0.34311154 0.61457473 -0.017877098 0.123975016 -0.50183636 0.3129649 0.15638262 -0.8767457
0.112645574 0.06245327 0.77901256 0.11174352 -0.37092045 -0.08689203 0.41513178 -0.21072893
-0.32122216 -0.45200625 -0.28845555 -0.105524905 -0.61044973 0.21853636 -0.2602562 -1.0345938
-0.16805898 -0.057026215 1.1269758 0.030564656 -0.5785925 -0.06763481 -0.31087136 0.1065786
0.048545226 0.07275854 0.25489643 0.25345072 -0.7645117 0.23254605 0.31792855 -0.39975375
-0.9753773 -1.0738549 0.2959388 -0.531356 -0.18131556 -0.2063306 0.11286697 0.04800099
00000000: 3d82 3a3e 5346 0dbe 0ebe 10bc 8855 5e3e
00000010: 4845 41be a35a 8c3e 9063 debd a1f6 65bf
00000020: 2ad7 8fbf 2b9a 25bf 340b ae3e e919 6abf
00000030: d273 2bbe a791 093d e659 3b3e d2e5 41bd
00000040: 8e76 e9bc 0eac e5be 1478 a7bc 94f1 12be
00000050: 338c 183f fceb a53e 6d55 c2be b1da 1cbf
00000060: 91ab 5cbe 45ff 59be 802d 963f 899b e23e
00000070: e85f f6b9 65f1 a03d 16d8 b1bc b7f7 ac3d
00000080: 28bc 443f e644 9d3e d77f e03e e8fd 2f3e
00000090: e1db 0abf 2bc2 313e a085 84be 41d2 8d3e
000000a0: 6859 c53e 7f67 9fbe fc85 fabc 28cd 4a3e
000000b0: 09ab 2c3c 2d9a 07be df99 cd3e f533 c43b
000000c0: 53cd 1e3f 8e56 943e 486f 573f 3d9a 12bd
000000d0: 8923 a9bd 8550 77be 97c1 1b3f 9ad9 193d
000000e0: 3e70 e93e aa95 00bd 79b4 68bf 013d c73d
000000f0: 1213 cf3e 69a5 eabe e0a0 0b3f fbea 2ebe
00000100: 0455 08be 6f9a 0abd 5861 003e 8447 68bd
00000110: c228 c8be af78 08bc aec4 c73e 01dd 08bf
00000120: 4a62 1fbf e0a9 81bf 40e5 aa3e c947 2bbe
00000130: 58e6 1bbf 9299 873e 48c3 d13e f692 803e
00000140: 6bff 083f ca8e 403f 709c 4c3d 65f2 273e
00000150: a96b 103e 5fd9 80be 7fc9 783e 377a 05be
00000160: 7bc6 9cbe 3b75 293e dc0d ab3c c20e 9ebe
00000170: 3d7c af3e 3fdd a6bd 3555 fe3e 625e e13e
00000180: 6615 743e 2249 883e dab9 97be 73b4 eabe
00000190: de88 e93e 7079 99bf 1619 903d 2295 543e
000001a0: d348 a43e 5309 bd3e 4488 3fbf a0b4 9c3e
000001b0: d463 a83e 154f ad3e d8af dabd 76c5 ddbe
000001c0: ed83 1abf 075f 063d 19a1 d8be a3d4 ca3e
000001d0: 5dbb fd3e 821a 9dbe 2da9 62bf 7f78 fe3d
000001e0: 4f1a 2a3c a7d6 8a3e 4d48 df3e 7bb9 d43e
000001f0: e0fd 373e a9ce 933d a5a1 47be 1632 25bf
00000200: b672 c23e d3c4 f5bd f3d4 e8be 16a0 ca3e
00000210: de0e fd3c 04ec 493f 56e9 b8be 696c 15bf
00000220: 71a9 73be af7d fdbd 22bd 263f ae66 98be
00000230: 3193 ebbe 0ff0 573e 525f f23e 221b 82be
00000240: 80e1 6b3f c38a ca3e ff20 783e cd3e a5bd
00000250: 77d0 b23d 8906 a5be bf9d f23e 91d0 75be
00000260: 3cdb f03e 5b5a a6bc 1e85 06bf 401b 7cbd
00000270: 0b5a 473e bf85 24bf d3e3 fc3e 16ed 0f3f
00000280: e076 d33d 8060 133d 657e 383a 112f 1b3e
00000290: 104a 01bf 6186 aa3e 7f26 f03e 2f2b 3ebe
000002a0: 5015 36bf dec7 99bf c7db 2cbe 579e d2bb
000002b0: 2e3f 75bf 352a 2fbf 59d9 1ebd 98eb 9d3e
000002c0: 0de8 0bbf c18c 6fbf 4cf2 a2be 8283 85be
000002d0: 4b08 1a3f 8856 913e 3260 4abf 835f 9abe
000002e0: 05b7 b83e b08f d33d 1cb9 4a3e c694 9e3e
000002f0: 1ea7 ffbe 67e9 ec3e 03a2 f4bc 24ee 4cbe
00000300: ef40 29bf 97e6 9e3e eb38 a9be a8d3 12bc
00000310: 0919 233e 7d86 3abf 625a a93e dbde dfbd
00000320: 8c5c 6c3e 796a 033e 6b58 22bf 2310 ddbe
00000330: f0a8 1c3f b63b 913d bff5 1bbf c756 5f3d
00000340: 51ac af3e c554 1d3f fe72 92bc 9de6 fd3d
00000350: 5978 00bf ef3c a03e c422 203e 6872 60bf
00000360: b9b2 e63d 00cf 7f3d 5e6d 473f c9d9 e43d
00000370: 49e9 bdbe 73f4 b1bd 278c d43e 53c9 57be
00000380: 3b77 a4be 5d6d e7be 72b0 93be 711d d8bd
00000390: 6f46 1cbf ffc7 5f3e 4d40 85be 926d 84bf
000003a0: a717 2cbe 5294 69bd be40 903f bb62 fa3c
000003b0: a31e 14bf 1f84 8abd 882a 9fbe e245 da3d
000003c0: 5cd7 463d 6e02 953d c981 823e 4bc4 813e
000003d0: 0ab7 43bf 8d20 6e3e 88c7 a23e 86ac ccbe
000003e0: 54b2 79bf 1474 89bf 4a85 973e f206 08bf
000003f0: c9aa 39be 5448 53be cc26 e73d b09c 443d

head.module_14.att_src f4 [1, 1, 16]
0.77908856 0.2953776 -0.17455328 -0.28099877 0.6831754 -0.45001054 0.21540484 -0.17223045
-0.39557508 0.061014056 0.38043782 0.17845166 -0.9839643 0.15201363 -0.90897727 0.0025507153
00000000: 5972 473f bc3b 973e 18be 32be 12df 8fbe
00000010: 95e4 2e3f c867 e6be 1693 5c3e 2e5d 30be
00000020: d188 cabe e0e9 793d bfc8 c23e 08bc 363e
00000030: 16e5 7bbf 76a9 1b3e bcb2 68bf e729 273b

head.module_14.att_dst f4 [1, 1, 16]
0.5904207 0.47006992 -0.14343603 0.070582926 0.079506755 0.10903761 -0.09797859 0.006779528
-0.026823314 -0.012421341 -0.62205625 -0.34152806 0.57776606 -0.0053337743 0.527601 0.6338559
00000000: d025 173f 01ad f03e e5e0 12be c88d 903d
00000010: 70d4 a23d 1c4f df3d 00a9 c8bd ce26 de3b
00000020: 91bc dbbc e182 4bbc 143f 1fbf c4dc aebe
00000030: 7ae8 133f f1c6 aebb dc10 073f 6144 223f

head.module_14.bias f4 [16]
0.10415165 0.03680529 0.14304398 -0.16495737 -0.05322013 0.121237434 -0.057814676 0.13194387
0.11409864 -0.118524835 -0.114341654 0.10837255 -0.101359874 -0.11003444 -0.1097418 0.10941697
00000000: 764d d53d 25c1 163d 1f7a 123e 96ea 28be
00000010: 5afd 59bd 554b f83d 15cf 6cbd 4b1c 073e
00000020: 8cac e93d 26bd f2bd f52b eabd 6df2 dd3d
00000030: c495 cfbd bd59 e1bd 4fc0 e0bd 0116 e03d
