logs/dome_gnn/model/final/target_critic.pth (torch, 42938 bytes, 68 tensors)

Q1.head.module_0.att_src f4 [1, 1, 16]
00000000: f1b5 cc3e 9ff3 7f3e e845 573e d568 b03e
00000010: 709e e93d 4426 fabe 08c7 18bf ed2c 17bf
00000020: c8e7 11bf e09c f73e f2cb b6bb 9633 5bbe
00000030: 9997 5ebe e172 a0bc 7bcd 5abe 94b9 02bf
0.3998256 0.24995278 0.21022761 0.3445498 0.11407173 -0.4885732 -0.596787 -0.59052926
-0.56994295 0.48361874 -0.0055785114 -0.21406397 -0.21737517 -0.019586029 -0.21367447 -0.5106442

Q1.head.module_0.att_dst f4 [1, 1, 16]
00000000: 6bff 133e 7144 603c 3dab 4cbe 09ba a8be
00000010: 47a6 1bbe 16a9 053f fe23 f6be 3ef1 70be
00000020: fecb 3ebe 0db3 0d3f e94a 193d dae2 cd3e
00000030: 00fe 51bd 6bcf d2bd f911 af3e 1f6e 66be
0.14452903 0.013688193 -0.19987197 -0.32954434 -0.15200149 0.5221113 -0.48074335 -0.23529527
-0.18632504 0.55351335 0.037424956 0.40212137 -0.051267624 -0.10293468 0.341934 -0.22502945

Q1.head.module_0.bias f4 [16]
00000000: e4e2 1e3e 4767 133e 1578 17bb f5a1 2fbd
00000010: 5720 f43c 75ca b03d 5356 223e a897 5d3e
00000020: 31a7 a13c abb2 7f38 eabb 0abd 3e43 893d
00000030: fb0c 05bd 7484 a43e 8f36 6bbd 458a b63d
0.1551624 0.14394866 -0.0023112346 -0.042879064 0.029800577 0.086323656 0.15853243 0.21639884
0.019733043 6.0963135e-05 -0.033870615 0.067022786 -0.032483082 0.32132304 -0.057425078 0.089130916

Q1.head.module_0.lin.weight f4 [16, 2]
00000000: 5eff a53e 1aef 4dbf 6dc3 783e 5f50 02bf
00000010: 304a 133f 4bfc 2b3f bd60 933d 8d27 ae3e
00000020: d7c0 793e 9e25 e23e 9e1f 8d3e 8034 703d
00000030: e840 acbe f7cf 1fbe 4cdb 5abd a131 20bf
00000040: f39b 603e aab3 d4be 379a e33e 1bd7 223f
00000050: f22f 593d 0ec1 e53e 2068 7cbe 56af 9e3e
00000060: 78a6 0b3f 8c0d cdbe 2bff 21bf cd89 b7be
00000070: 8c98 913e f005 8abe 0f0e 1b3e b1a6 3c3f
0.32421392 -0.80442965 0.24293299 -0.50903887 0.57535076 0.67181844 0.07196186 0.3401455
0.24389969 0.44169325 0.27563184 0.058643818 -0.3364327 -0.15606676 -0.053431794 -0.6257573
0.2193449 -0.41543323 0.44453594 0.63609475 0.05302424 0.44873852 -0.24649096 0.30993146
0.54550886 -0.40049398 -0.6327998 -0.3584732 0.28436697 -0.26957655 0.15142082 0.7369185

Q1.head.module_2.att_src f4 [1, 1, 16]
00000000: 09ae 8a3e 33ae c53e d777 eebd 0068 ffbe
00000010: 0666 ad3e d6d5 ca3e 24e8 813e 40fb e33e
00000020: b03d a3be 28b2 e83e f02f 5c3e cee9 0e3f
00000030: ec93 fb3d b7ea 18bd a2ff 87be 5fee e23e
0.27085903 0.38609466 -0.116439514 -0.49884033 0.338669 0.3961627 0.25372422 0.44527626
-0.31883 0.45448422 0.21502662 0.5582551 0.12284073 -0.037333217 -0.2656222 0.44322488

Q1.head.module_2.att_dst f4 [1, 1, 16]
00000000: 9ba7 a3be 6d78 f1be 1283 473f 790a a73f
00000010: 4a88 483f ae93 263f 44cd aebe 569f f33e
00000020: 2382 89bc 7acc 7cbf f809 673f 743a d4be
00000030: 79dd 3c3f 101d 573f 6b88 013e 53a5 af3f
-0.3196381 -0.4716219 0.7793437 1.3050071 0.7833296 0.6506909 -0.3414098 0.475825
-0.016785687 -0.98749506 0.90249586 -0.41450846 0.7377544 0.8402872 0.12649696 1.3722328

Q1.head.module_2.bias f4 [16]
00000000: 42cf 60be 5115 413c 46ff de3d 1033 583e
00000010: 6a61 6a3d f0ef 743d 957e 1abe 4099 4c3d
00000020: 8293 003c 65c2 163d a438 b73c 1a6d cfbd
00000030: 2d7e 243e a60b 20bc 223e ea3d 6fa3 083e
-0.21954063 0.011784867 0.10888533 0.21113229 0.057221808 0.059799135 -0.1508735 0.049950838
0.007847669 0.036806483 0.022365876 -0.10128231 0.16063757 -0.009768402 0.11437632 0.13343595

Q1.head.module_2.lin.weight f4 [16, 16]
00000000: 6f11 02bf 2a32 a7be 0f68 02be 1d17 703e
00000010: b4a5 203e fbcf a6be daea 243e b3ad 94be
00000020: 8c7b 803e 7d99 233e 863c 98bd 05f2 3e3e
00000030: 6604 2e3f 4ace 9cbe 2f90 be3f eeed 8a3e
00000040: 0a6b 1ebf c4c7 42be f4e7 eb3c 3839 2ebe
00000050: 4fb5 fb3d 61ac db3d dbd9 81bf 651b 20bf
00000060: 9cd3 103f 0e67 a63e 26f2 0ebe f59f 043f
00000070: 58d5 afbe 886b 35bf 3e76 68bd a3a5 e23e
00000080: 7e48 873f 77fd 1f3f 87fb e2be 3d9d 59be
00000090: 9e7e cdbe 6f41 87bb 6c12 893f cb78 6f3f
000000a0: 81b6 dbbe 3c37 c5be 9b2c f8be 2c0b 5d3e
000000b0: bf37 76bf 5644 e33e 11f7 74be 4d22 273d
000000c0: 830e 983e 7b9e 283f b234 c4be f410 a4bd
000000d0: 4acc 05bf d523 9ebe f32d 973e 50ae 243f
000000e0: 00b5 403d e21f 1fbf 355a 3abf 92c4 78bf
000000f0: edc1 8cbe c8bd ef3e f229 08bf 2e49 01bf
00000100: 36d9 813e 38cb 783e 3211 55be d9b2 a5be
00000110: 25f8 973e 572f 8f3e e741 3ebe 91bf f73d
00000120: 06e1 b3bd e5ba 053e 2062 5b3e 2a6b 943e
00000130: 2f53 a9be bbe4 513e 48c9 af3e 596c 033f
00000140: a365 0b3d 923d 03bd bf40 b5be a6b5 13bf
00000150: ec1b ae3e 933f 95bd 0171 aebd 2f8c de3e
00000160: a414 f9bc 9d52 c73c 1bbb a83d 9c04 17be
00000170: 1969 6c3f d872 a33e 030c 03be 094d de3d
00000180: a639 103e da10 c3be 4b04 5b3e c5b9 a13e
00000190: 45bd 393e 1247 433e a819 57bf 3f9f a0be
000001a0: 1744 013e a3bd 673e e813 803e b62d 83be
000001b0: bde9 743c 5881 b4be 71ee 743e 2eb1 d7bd
000001c0: 9eb1 4e3e 322d 45be 5537 fc3e 149d a6be
000001d0: 8c6b 793e a999 d23e 587b 1bbe 7d0b b93d
000001e0: 07ca 193f fb1c b53e 3d4a 5e3e a2ee 033f
000001f0: 7b47 1dbf 136b d63e e911 253f f7df 0c3f
00000200: b2b8 e7bd 0ebf b6bd dce8 ac3e cbc7 1b3f
00000210: 1224 0d3f b1f9 76be a3b9 00be 82ae 08bf
00000220: 23aa 4d3d e9f2 ed3e dca0 eabd 2460 003e
00000230: 4bb5 1a3e 3ded 8c3e f280 29bf fe22 cf3e
00000240: 1b43 abbe b5b4 01bf 238a 933e ab08 db3e
00000250: 110a e53e 73c3 1fbe cfe5 85bf e9b3 8cbf
00000260: b682 5f3e f276 15be 52d2 533e ff3f af3c
00000270: 2631 bc3d c910 f7be f1fe dbbe 6c80 473e
00000280: 4097 c73f 70ad 4b3f 47ce b1bd 26ac 2f3c
00000290: 698e 9dbe c724 bebd 8da0 13be 7fab 90bb
000002a0: 16d1 8e3f c5b4 3b3e 6a2a 6d3e a0b6 b2be
000002b0: e60e aa3f 64d7 963d abb6 1740 cecc 5bbe
000002c0: 6ac3 39bf 5ddf ca3d 6397 103f fe85 8dbe
000002d0: c0e0 4e3c 426f 4fbe 4b32 15bf 0dda 1cbe
000002e0: cae2 fd3e ae37 0f3e 8b43 aa3e 3bfa 9c3e
000002f0: a984 e03e 47f4 71bf bb72 443f 4be8 71be
00000300: 41a3 213e a6f9 b63d 0b9c 83bc 0247 d6be
00000310: 66c4 7f3d af80 083e f85b 4d3e 023e 2c3f
00000320: c3f4 b73e 339e 34bd 57bd 5abe cda9 b3be
00000330: d679 cdbe 7934 043e 5887 8c3d d3d4 ffbd
00000340: 3b67 993e 62cb 6d3e 241c ef3e 0f12 1a3f
00000350: c7f3 bbbd ed42 a4bd 825b 1b3e 96a6 b6be
00000360: a8d0 8fbc d668 36bb 814d 9ebe c681 80be
00000370: e734 3fbe cf12 9b3e be80 4a3f 8651 ce3e
00000380: 225d 973e e527 d43d c753 11bf 776f 10bf
00000390: 4322 f5be 0eac f5be a2d0 343f d29a 213d
000003a0: 2083 b9be 2b57 aabd 0147 10bf 14b8 f8bb
000003b0: 16bf 563e 47dd 6f3f ad75 cbbe 6400 02bf
000003c0: 4212 243f 6b12 373e e519 37be ed4d 3bbe
000003d0: f8a8 b23d 95a4 9d3e 6473 1b3f 59d5 2b3f
000003e0: 2739 163e 9dae 93bd 67ce fe3d 59eb 0a3e
000003f0: a108 debe e3dd da3e 702f 6d3e 497d 48be
-0.5080785 -0.3265546 -0.12735008 0.23446317 0.1568821 -0.32580552 0.16105214 -0.29038772
0.2509426 0.1597652 -0.07433419 0.1864701 0.6797546 -0.30626136 1.4887751 0.2713465
-0.6188208 -0.19021517 0.028797127 -0.17014015 0.12290441 0.10726238 -1.0144609 -0.625418
0.5657289 0.325005 -0.1395956 0.51806575 -0.34342456 -0.70867205 -0.05675339 0.44266996
1.0568998 0.6249613 -0.44332525 -0.21251388 -0.40135664 -0.0041276733 1.0708747 0.9354369
-0.42912677 -0.38518703 -0.4847153 0.21586293 -0.9617881 0.44388074 -0.23922373 0.040804196
0.29698572 0.6586682 -0.38321453 -0.08011046 -0.52264845 -0.30886713 0.29527244 0.6432848
0.047047615 -0.62158024 -0.72793895 -0.9717494 -0.27491704 0.4682448 -0.53189003 -0.5050229
0.2536103 0.24296272 -0.2080734 -0.32363012 0.29681507 0.27965805 -0.18579827 0.12097085
-0.08783154 0.13059576 0.2142415 0.2898801 -0.33071277 0.2049741 0.34333253 0.513372
0.034032475 -0.03204114 -0.3540096 -0.5769905 0.34005678 -0.072875164 -0.085176475 0.43466327
-0.03040535 0.024331385 0.082388125 -0.14747852 0.92347866 0.31923556 -0.12797551 0.10854537
0.14084491 -0.38098794 0.21388356 0.31587043 0.18138607 0.1907008 -0.84023523 -0.31371495
0.1262363 0.22630934 0.25015187 -0.25620812 0.014948306 -0.3525493 0.23919083 -0.10531841
0.20184943 -0.19255522 0.49260965 -0.32541716 0.24357432 0.41132858 -0.1518377 0.09035394
0.60073894 0.35373673 0.21708007 0.51536 -0.61437196 0.41878566 0.64480454 0.55029243
-0.11314525 -0.089231595 0.33771408 0.60851735 0.55133164 -0.24118687 -0.12570815 -0.5339128
0.050211083 0.46474388 -0.11456463 0.12536675 0.1510822 0.27524748 -0.6621238 0.40456384
-0.33449635 -0.5066636 0.28816327 0.4278005 0.44734243 -0.15601902 -1.0460757 -1.0992404
0.21827206 -0.14596155 0.206857 0.02139282 0.09189062 -0.48254994 -0.42967942 0.19482583
1.5593033 0.7956152 -0.086819224 0.010722196 -0.30772713 -0.092843585 -0.14416714 -0.004414975
1.1157558 0.18330677 0.23160711 -0.34904957 1.3285797 0.07365301 2.3705242 -0.21464846
-0.72563803 0.099058844 0.56481 -0.2764129 0.012626827 -0.20257285 -0.58279866 -0.15317555
0.4958709 0.13986084 0.33254656 0.3065966 0.43851212 -0.9451336 0.76737565 -0.23623769
0.15784933 0.089343354 -0.016065618 -0.4185105 0.06244316 0.13330339 0.20054615 0.67282116
0.35928926 -0.044096183 -0.2136129 -0.35090485 -0.40132016 0.12910642 0.06861752 -0.12491765
0.2996157 0.23222116 0.46701157 0.60183805 -0.09177356 -0.080205776 0.15171626 -0.3567397
-0.01755555 -0.0027833483 -0.30918506 -0.2509901 -0.18672524 0.30287787 0.79102695 0.40296572
0.29563242 0.10359172 -0.5676846 -0.5642008 -0.47877702 -0.4798283 0.7063085 0.03945429
-0.36232853 -0.08317407 -0.56358343 -0.007590303 0.20971331 0.9369702 -0.39738217 -0.50781846
0.6409036 0.1787812 -0.17880972 -0.18291445 0.087236345 0.3078963 0.6072295 0.6712242
0.1467024 -0.07211039 0.12441712 0.1356634 -0.43365958 0.4274741 0.23162627 -0.19579042

Q1.head.module_4.att_src f4 [1, 1, 16]
00000000: 3310 29be f244 8d3d cce8 8c3c 9da5 e5be
00000010: 7d41 5ebe 267e c2be 16bb 013f 2377 f4be
00000020: f98f a33c 7291 5dbe 9e79 3abf 150a eabe
00000030: 741b f6be 5a1c 8fbe 60ac f13b fff1 163e
-0.16510086 0.06897916 0.01720085 -0.44852915 -0.2170467 -0.3798687 0.50676095 -0.47747144
0.019966112 -0.21637514 -0.72841823 -0.45710817 -0.4806782 -0.27951318 0.007375285 0.14740752

Q1.head.module_4.att_dst f4 [1, 1, 16]
00000000: 3d98 063f 663e 143f dc43 eb3e 1c23 803d
00000010: 1db6 473f b39d 3fbf 1091 74bf 503e 983e
00000020: 1022 943e e293 4a3e ab65 9d3d f0d7 14bf
00000030: 9a2a cd3e 7e72 463d 049f f63e ca5b 88bf
0.5257605 0.5790771 0.4595021 0.062566966 0.7801226 -0.74850005 -0.9553385 0.2973504
0.28932238 0.19782975 0.07685407 -0.58141994 0.40071565 0.048449032 0.48168194 -1.0653012

Q1.head.module_4.bias f4 [16]
00000000: f6f8 333e 3312 9a3d 53fe d53d 7e87 0d3e
00000010: ce9a 84be 12f8 6c3d d1b8 0cbe dcbf 84be
00000020: 1286 f8bd dd56 f83d a8f3 383e 1dae f0bd
00000030: 9f0b 203e 2bc1 433e 65d7 083e 8fc3 c53e
0.1757544 0.075230025 0.10448899 0.13821217 -0.25899357 0.057853766 -0.13742377 -0.25927627
-0.12134947 0.12125943 0.18061697 -0.117519595 0.15629433 0.19116656 0.13363416 0.38625762

Q1.head.module_4.lin.weight f4 [16, 16]
00000000: fcb6 2abf acda e0be b30c d23d a514 af3d
00000010: 722d b63e 35a0 9b3e 60c7 13bf 9c8e 603e
00000020: a22c aabe eb2f 1abf f390 59bd 2817 b4be
00000030: 96b3 96bd 4800 adbb 119d ff3e d035 f93d
00000040: 2152 c43b a2b2 4a3e 9b00 3e3d f1cc 51be
00000050: 6fa0 063f 2c9f b3bd 195b db3e 1c35 033f
00000060: 7a43 143f 8a73 7abe fa5f 99be c97e ebbc
00000070: f70e 1d3e 4004 ce3e 8fe4 17bf f16b 4b3e
00000080: f00a d13e ccb6 68bf 2209 433f b058 57be
00000090: 1281 903d 772f b63e d2a6 593e c175 9b3e
000000a0: 73bc e43d 9baf a9be 547e d13e e571 3f3e
000000b0: 5b70 013f eb65 8bbe de28 65bf 96e4 d53e
000000c0: 8b8f 2bbf b2ec 37be 5b07 663e aed8 733e
000000d0: c2ca 743e 8715 183d 2a9b 49bf 130c 8f3d
000000e0: 30e0 76bd da72 a0be 8f71 57bf 17ad ddbe
000000f0: 0e17 693e e2fb 8abe cc60 e73e 9b2b 433e
00000100: c517 41bf 6ab5 2dbf 51b5 cabe cfe2 81bd
00000110: 145d d73d 3930 50be 9902 5b3d 91f2 71be
00000120: 372f f6be be95 4fbf db7d 723e 5208 4ebe
00000130: d316 a33e 5fad 00bd 643b 86bd 6cfb 883e
00000140: 5a6e 60bf 2ef7 dd3e f957 8ebf 0fb3 bd3e
00000150: d14d b73e 487c f9be 47f3 fdbe 76ed da3e
00000160: 82c2 013f dff2 a13e e88b 49bf 1bd5 26bf
00000170: 5ab3 c0be 1382 2d3e f7cd acbd 812d dbbe
00000180: eb30 fabd 2742 493f 4d0b 3fbf 88bf 6cbf
00000190: fcd5 823e 6119 323e bd1a 4f3b 9901 a7be
000001a0: d661 223e 78e4 413f f528 76bd 1e7d 7a3f
000001b0: fc43 a33b 852c 963c d61f 3bbf 76d4 2dbf
000001c0: 225e 89bf e686 5b3e 24d7 be3e c39c 673f
000001d0: 3bb5 d5be dd63 cd3d 7ca5 27bf 9e11 7fbd
000001e0: f66c 89be 7aea 0bbf 6096 ecbd 4c78 00bf
000001f0: e097 f53e 590b 59be f03c 693e 0833 d5be
00000200: 5457 3e3e f61e e33e 50fe fb3e 074a 97be
00000210: 341d 903e 73b5 c03d 8fed 343f 6db1 e23e
00000220: 2ad1 a53e 4cce d93e 8caa 403f 24d9 283e
00000230: 9ad6 05bf 7ee0 9b3e 6454 c4be be1d f1be
00000240: 4db7 10bf 1ebd 3fbf 3f0c 243f bee0 d53e
00000250: 250b e5bd a32a 1e3e a07c 9ebe 8d7c f33e
00000260: 9a2e fabe 4e4f 26bf f4e6 29be 4b45 0dbe
00000270: 7999 28be 82d6 873e 204f 533e 3e45 96bc
00000280: fa93 b3bf 0e84 b4be cd87 833e 81c2 d93e
00000290: 0d12 103d 8f6c 0c3e cb7b 6dbf a7ac d6be
000002a0: 0aa2 8ebe 62da ae3d ecca 05bf f97b 57bf
000002b0: d535 33be a11a 00bf a578 033f d2f3 bebe
000002c0: 9c70 bcbf 6e3b 08bf 0ca0 2cbf 39e9 08be
000002d0: b549 3ebe c89c 8cbe 9671 03bf 350c 2ebf
000002e0: 35b8 a63e 2285 423d ba4f 6abf 2860 8dbf
000002f0: be2b 68be 5255 d6be 55e1 ba3e b286 50be
00000300: cf45 d3bd 301d 46bf 4687 2b3f 771c c33e
00000310: 6012 9d3e 2648 023f 4967 c0bd 65e2 1fbe
00000320: e5e0 11be f83f 83be 79b0 edbd 31d3 62bf
00000330: fccc 493f f597 ca3e f832 d83e bfbd 423f
00000340: 117f fbbe be0c 63be 070b acbb d241 13bf
00000350: 0fee 8e3e cc01 a0bd ce1c 5fbd 671d ec3e
00000360: 348c 41be c60f a3be ab90 69bf ad78 eebe
00000370: 8721 fd3e 2658 1cbe 117a 08bf 468b b33e
00000380: 508f 33bf d79d 2abf 91e0 193f a7de 9bbd
00000390: cb94 18be 1d89 f3bc 2ff2 86be ae13 083e
000003a0: 8b00 b5bc 1c1d 31bf 2e1d 983e c730 5cbf
000003b0: e857 c13e 50fd 3bbe e4c4 fcbd 0fba 193f
000003c0: f028 8bbf 871e 093f 7b7b d3bf e8a9 ed3e
000003d0: cf17 9abd bb8c e2bd 2b51 e23e fd3a a6bd
000003e0: b42b bc3e 0be8 84bc 18ab f5be 2510 13bd
000003f0: dcae b33d 2a6f 193e baca 373e f0c0 1bbe
-0.6668546 -0.43916833 0.102563284 0.085488595 0.35581547 0.30395666 -0.577261 0.21929401
-0.33237177 -0.60229367 -0.05311675 -0.35173917 -0.07358472 -0.0052795745 0.4992452 0.12168467
0.005991236 0.19794706 0.046387296 -0.20488335 0.5258855 -0.08770594 0.4284294 0.51252913
0.5791546 -0.24458137 -0.29956037 -0.02874698 0.1533774 0.40237617 -0.5933313 0.19865395
0.40828657 -0.90903926 0.7618581 -0.21029925 0.07055868 0.35583088 0.21255043 0.30363277
0.11168756 -0.3314179 0.40916693 0.18695791 0.50562066 -0.27226195 -0.89515483 0.4177596
-0.67015904 -0.17961386 0.22463743 0.23813125 0.23905471 0.037129905 -0.78752387 0.06984725
-0.060272396 -0.31337625 -0.8415765 -0.4329612 0.22762701 -0.27145296 0.45191038 0.19059603
-0.75426894 -0.6785494 -0.39591458 -0.063420884 0.105158 -0.20330895 0.053469274 -0.23627688
-0.48082897 -0.81087863 0.23680823 -0.20120361 0.3185335 -0.03141534 -0.065542966 0.2675432
-0.87668383 0.43352646 -1.1120597 0.37050673 0.35801557 -0.48727632 -0.49599668 0.42759293
0.5068742 0.31630608 -0.78729105 -0.65168923 -0.37636834 0.1694415 -0.08437722 -0.42808154
-0.122163616 0.78616565 -0.7462662 -0.92479753 0.25553882 0.17392494 0.003160163 -0.32618406
0.15857634 0.7573924 -0.060097653 0.97847164 0.0049824696 0.018331775 -0.7309545 -0.67902315
-1.0731852 0.21438178 0.37273514 0.90473574 -0.4173983 0.10028813 -0.65486884 -0.06227266
-0.26840943 -0.5465466 -0.11552119 -0.5018356 0.47967434 -0.21195735 0.22777152 -0.41640496
0.18588 0.4435956 0.49217463 -0.29548666 0.2814728 0.09409609 0.70674986 0.4427599
0.32386142 0.42540205 0.75260234 0.16489083 -0.5228058 0.3044471 -0.38345635 -0.47093004
-0.56529695 -0.74897945 0.64081186 0.41773027 -0.11183766 0.15445952 -0.30954456 0.47555962
-0.4886368 -0.6496476 -0.16592008 -0.13795964 -0.16464795 0.26530844 0.20635653 -0.018343564
-1.4029534 -0.35257 0.25689545 0.42531207 0.035173465 0.13713287 -0.9276702 -0.41928598
-0.27858 0.08537747 -0.5226276 -0.8417354 -0.17501004 -0.5004063 0.51355964 -0.37295395
-1.4721866 -0.5321568 -0.6743171 -0.13370217 -0.18582805 -0.27463365 -0.51345193 -0.67987376
0.32562414 0.047490247 -0.91527903 -1.104497 -0.22672936 -0.4186197 0.3650004 -0.20363882
-0.10316049 -0.77388287 0.67003286 0.38107654 0.30678082 0.5089134 -0.093947 -0.15613706
-0.14245947 -0.25634742 -0.11605925 -0.886035 0.78828406 0.3956906 0.42226386 0.7607078
-0.4912038 -0.2217283 -0.005250338 -0.5752231 0.27916 -0.07812843 -0.05447083 0.46116182
-0.1890114 -0.31847972 -0.9123637 -0.46576443 0.49439642 -0.15268001 -0.5331126 0.35067195
-0.7014055 -0.66647094 0.60108286 -0.07610827 -0.1490051 -0.029728467 -0.26356646 0.13288757
-0.022094985 -0.6918504 0.29709762 -0.8601193 0.3776238 -0.1835835 -0.123422414 0.6004953
-1.0871868 0.53562206 -1.6522058 0.4641869 -0.075240724 -0.110619985 0.4420255 -0.0811672
0.36752093 -0.016223928 -0.47982097 -0.03590407 0.08773586 0.14983812 0.17948428 -0.15210319

Q1.head.module_6.att_src f4 [1, 1, 16]
00000000: 317d 1a3f e50c f23e 3d07 21bf 1e4b 573e
00000010: 349b b93e efc2 4a3e eddd ec3e 25bc 13bf
00000020: a874 023f 1292 df3e 9e90 f7bf 6c21 893e
00000030: d809 823f de7e 62bf 552a 93bd 9957 85bf
0.60347277 0.47275463 -0.6290167 0.21024749 0.36251223 0.19800924 0.46263066 -0.5770896
0.50959253 0.4366613 -1.9341009 0.2678331 1.0159254 -0.88474834 -0.071858086 -1.0417358

Q1.head.module_6.att_dst f4 [1, 1, 16]
00000000: f3b1 1abf 33d4 93be 5b34 123f 85a0 c1bc
00000010: 8313 16bf 9d25 403e eebf f7be eb17 a6be
00000020: 3749 56be fe31 933d 4256 ab3e d9f0 803e
00000030: c571 21bd f64f b93b d49c 93be 599d 553d
-0.6042778 -0.28872833 0.5711114 -0.023636112 -0.5862352 0.18764348 -0.48388618 -0.32440123
-0.20926367 0.0718727 0.33464247 0.25183752 -0.03941514 0.005655284 -0.28830588 0.05215201

Q1.head.module_6.bias f4 [16]
00000000: d219 3bbe 7621 81bd 395b 5a3d 9322 afbd
00000010: f572 f5bd d457 653d 59f1 9bbe 761f 98bd
00000020: 71eb f63d f1ca 753d f423 aebd f0e2 9b3c
00000030: 386b 443e f4d3 efbd 4c6c 9c3c f6be b6bd
-0.18271568 -0.0630521 0.053309653 -0.085515164 -0.11984817 0.055991963 -0.3045757 -0.07427876
0.12056626 0.060007993 -0.08502951 0.01902911 0.19181526 -0.11710349 0.019094609 -0.08923142

Q1.head.module_6.lin.weight f4 [16, 16]
00000000: c2f9 21bf 3c67 08be 4a76 053e 5b82 55bf
00000010: b2c4 693e 2960 323e 66b0 033f 74d1 d3be
00000020: 246c 163f da00 553d eede 9ebe 14ca 973d
00000030: 4c63 5f3e 379a 2a3d 6b74 e3be 98a9 92be
00000040: 3386 d9be 8685 e63c e403 a63e ef08 b33d
00000050: ed66 90be 9621 603e 6b00 a6be fcc4 1d3e
00000060: 76eb d03e c2bd 0abf 940f f8be ac92 e03c
00000070: f1f9 c4be b7a3 fbbe 2433 31bf be32 0dbe
00000080: 6289 cbbd 67f9 71be 46a7 4f3d 9424 c43e
00000090: 148a 0b3f 53b6 633f ce4e afbe 3647 5e3e
000000a0: db7e 793e 18c5 313d 6ea1 30be 8466 adbd
000000b0: 22d5 7fbe 8224 8b3c 435a 0fbe 8a66 893f
000000c0: 040a 62bf d42a c03e f150 6fbe dac9 97bf
000000d0: db0c 033e 6173 b23d dcb1 2e3f d30a c03d
000000e0: 75f7 1c3e 40c6 dabe fe8d 24bf 3f8d 4cbe
000000f0: 8355 87be 2486 aabe d6e5 3ebe 6f6a e73d
00000100: a759 f8be cc80 773d 4c06 06bf 504f 05be
00000110: c730 c6be 5a85 223f 1ebb 3abf 0524 cf3d
00000120: 0572 103d c1a0 abbe ea0c 30be f6e5 933e
00000130: 4be1 2bbe 2419 263f e606 f0be da53 bdbe
00000140: 57dc 013f 7b90 03be 3d85 bc3e 7318 0f3f
00000150: 9eee 7a3e c268 4abf b959 52bf dcdf 633e
00000160: 8c86 a63d 3d42 ec3e 16a6 dabe dda1 64bd
00000170: 9419 393f b96b cc3e 84cc 143f 3165 2fbe
00000180: ad00 28bf ca92 99be 33f3 d6bd 6698 bbbc
00000190: dd2d b63d eebc 0a3e 8316 4d3e 77f5 8fbd
000001a0: 2184 f73e b8d1 f23d 3ea5 b7be 3b3c d43c
000001b0: be42 0dbf 52cb f9be f748 cbbd 6363 3ebf
000001c0: b2d6 183f 9ff8 10bf 83fc d53c 9341 2f3e
000001d0: f548 263e 6554 31bf c4f6 5c3c cf89 b0bc
000001e0: a836 79bf 322b 0b3f bf4f 4ebe 4ba8 b33e
000001f0: cc1e d93e 2c66 10bf eee3 913e c388 173e
00000200: 5663 4f3e 7138 4a3e 0fab c43e cdaa b3bc
00000210: 566d 2f3e 8f05 923d 872e 14bf a976 a0bf
00000220: 1fcd 10be 776a 453e 0733 c3be 23c2 a5be
00000230: 6ba9 9bbe 5590 b23e 0ab1 eabe 6c5d af3a
00000240: 38b5 673e 8a9d d43d e857 943b ac57 dd3e
00000250: 5718 253e 3600 85bf 604b ec3d 9a6c 14bf
00000260: be45 983e adff e63e 895f 24be df74 16be
00000270: 2a40 b5bd cc50 0ebd 9bb0 a03c 58ca 61bf
00000280: cfae 073f 16a9 10bf 22dc 45bf 73f2 08bf
00000290: 73a4 c33d e846 513f fb94 6b3f 0756 fd3e
000002a0: 1d01 12bf 9576 0ebf c096 243f 6931 923f
000002b0: 00c4 013f f3fe 92be 7b58 2bbe 8da2 fa3e
000002c0: aa95 cfbe 6873 c03e 4c88 d33e 342d 2bbd
000002d0: 75d5 16be f84c 67be cb2a efbe a09b 35bf
000002e0: b3be aabe 78fc 17be 9af7 06bf 553c 5e3d
000002f0: d121 a93e c419 773e bb02 96be 3e88 923e
00000300: 4319 7b3e 57ce d33e 088d c13e 788c b73e
00000310: 667b 933e 8620 9bbe 3204 a8bf a9c9 6bbf
00000320: 98b6 8c3e 92a1 d1be b747 b3bf 7a73 1dbf
00000330: c9f9 1fbe ec33 403f b4c8 5e3e f2f1 bd3d
00000340: deee 67be 5d1e 4abf d410 85bf b2d9 0ebf
00000350: 5a12 debd f656 dc3e 7377 f73f da3f 373f
00000360: 9876 c4be 99ee 0dbe c1a6 533f bbc9 9b3f
00000370: 508d cd3e c09a 00bf 656e eabe 54ae 8b3f
00000380: ed96 d7be b98a e73e cb85 82be 3dd5 02bf
00000390: 4551 debe c76f 3f3f 7590 1dbf 0bc3 d5bd
000003a0: 50d0 bb3e 2562 3cbf e8f3 71be 194f acbe
000003b0: b81f 51bf 7fa7 30bd b5a9 d1be f63f 2b3f
000003c0: adab b6be 0657 16bf 339b d8be 624f b73d
000003d0: fd2b dc3d 6d33 1f3d ee51 293f fe35 b63e
000003e0: 8740 85bf c89c 0a3e 8d19 2c3e 8620 933f
000003f0: f636 3c3e 532f a8be afe6 503d 5e94 8a3f
-0.63271725 -0.13320631 0.13033405 -0.8340203 0.2282894 0.17419495 0.5144104 -0.41370738
0.5875876 0.052002765 -0.31029457 0.0741159 0.21815223 0.041650977 -0.44424757 -0.28645015
-0.42485198 0.02813984 0.32424843 0.08741938 -0.28203526 0.21887812 -0.32422194 0.15407175
0.40804642 -0.541958 -0.48449385 0.027413689 -0.3847194 -0.49148342 -0.6921866 -0.13788888
-0.09938313 -0.23630296 0.050696634 0.38309157 0.54507565 0.8895008 -0.3423981 0.21706852
0.24364798 0.043400854 -0.1724908 -0.08466819 -0.24983647 0.016985182 -0.13999276 1.0734417
-0.8829653 0.37532675 -0.2337072 -1.1858475 0.12797873 0.08713413 0.6824014 0.093770646
0.15328772 -0.42729378 -0.6427916 -0.19975756 -0.26432428 -0.33305466 -0.18642363 0.112995975
-0.485059 0.060425565 -0.5235336 -0.13018537 -0.3870909 0.6348473 -0.7294177 0.10114292
0.035264987 -0.33521083 -0.17192426 0.28886384 -0.16785161 0.6488211 -0.46880263 -0.36978036
0.50726837 -0.12848084 0.36820403 0.5589668 0.24505088 -0.790661 -0.82168156 0.22253364
0.081311315 0.46144286 -0.4270484 -0.055818427 0.72304654 0.39925936 0.58124566 -0.17128445
-0.6562603 -0.29994804 -0.10495605 -0.022899818 0.088954665 0.13548633 0.20028119 -0.070292406
0.48342994 0.11856407 -0.35868257 0.025907626 -0.55179965 -0.48787934 -0.09926026 -0.743704
0.597026 -0.56629366 0.026121384 0.17114858 0.16238768 -0.692694 0.013486568 -0.021550087
-0.97349024 0.54362786 -0.20147608 0.35089335 0.4240631 -0.564059 0.2849421 0.14798264
0.20252737 0.19748093 0.38411757 -0.02193203 0.17131552 0.071299665 -0.57883495 -1.2536212
-0.14140747 0.19278894 -0.38124868 -0.32374677 -0.30402693 0.34875742 -0.45838195 0.0013379282
0.22627723 0.10381611 0.004527081 0.4323095 0.16122566 -1.0390689 0.11537814 -0.5797821
0.2974071 0.4511694 -0.16052069 -0.1469302 -0.08850129 -0.034745023 0.019615462 -0.8819938
0.5300111 -0.56508005 -0.7728902 -0.5349495 0.095528506 0.8174882 0.920242 0.49479696
-0.5703295 -0.5564969 0.64292526 1.1421329 0.506897 -0.28710136 -0.16732971 0.4895214
-0.40543872 0.37588048 0.41314924 -0.041791156 -0.14729865 -0.22587955 -0.46712336 -0.7094059
-0.33348617 -0.14842403 -0.5272156 0.054256756 0.33033612 0.24130923 -0.29298958 0.2861957
0.24521355 0.41368362 0.3780291 0.35849357 0.28805083 -0.3029825 -1.312628 -0.92104584
0.27483058 -0.4094358 -1.4006261 -0.6150433 -0.15622629 0.75079226 0.2175625 0.09274663
-0.22649714 -0.7895258 -1.039576 -0.55800927 -0.10843344 0.43035096 1.9333328 0.71581805
-0.3837173 -0.13860549 0.8267632 1.2170938 0.40146875 -0.5023613 -0.4578735 1.0912576
-0.42107335 0.45223024 -0.254927 -0.51106626 -0.4342138 0.74779934 -0.6154855 -0.10437592
0.36682367 -0.73587257 -0.23628199 -0.33654097 -0.81689024 -0.043128487 -0.4094979 0.6689447
-0.35677853 -0.5872654 -0.42305908 0.08950688 0.107505776 0.038867403 0.6614064 0.35588068
-1.0410317 0.1353637 0.16806622 1.14943 0.18380341 -0.32848606 0.051001247 1.0826528

Q1.head.module_8.att_src f4 [1, 1, 16]
00000000: d34c 0d3f d0d4 c6bf 7e16 26bf 2fde 15bf
00000010: b11a 3cbd db24 57be ddff 5a3f 91f7 083f
00000020: 21a2 5c3e 75b7 983e 79d5 93bf cc0c 97be
00000030: 62eb 2c3e f767 a13f cfce c53f 7cbe 0640
0.5519535 -1.5533695 -0.6487807 -0.5854215 -0.045923892 -0.21010153 0.85546666 0.53502756
0.21546222 0.29827467 -1.1549522 -0.2950195 0.16886666 1.2609853 1.5453738 2.1053762

Q1.head.module_8.att_dst f4 [1, 1, 16]
00000000: 3f8a 9f3e 7c37 2f3f 4503 8c3e d5c8 903f
00000010: 8632 0a3f 5452 b93d 4e41 8f3f 3439 f5be
00000020: 453d eebd 42e0 173e 3cd4 e1be 0556 033f
00000030: b076 833f ac0a a2be 850b 913f baf9 c23f
0.3116016 0.6844404 0.27346244 1.1311289 0.5398334 0.09048906 1.1191804 -0.47895205
-0.1163278 0.14831641 -0.44107234 0.5130313 1.0270596 -0.31648767 1.133164 1.523246

Q1.head.module_8.bias f4 [16]
00000000: 4a46 453d bc48 a3bd 7ccc 32bd 8c0a 4c3e
00000010: 3c14 fa3d 36be b3bd 2fd6 7e3d 3deb 5ebe
00000020: 040a 02be 9c0e 1c3d aa07 033e 6844 d9bc
00000030: 8c70 103e b97e 88be e660 773c 4fee 10bd
0.048162736 -0.07972857 -0.043652043 0.19925898 0.12210891 -0.08776514 0.06221598 -0.21769424
-0.12699133 0.03809987 0.12795892 -0.026521876 0.14105433 -0.26659182 0.015098786 -0.03538352

Q1.head.module_8.lin.weight f4 [16, 16]
00000000: 3a7c 3e3e 77e3 3bbf 6cbc 9bbe 8fd7 813e
00000010: 44fe 1dbf 9ef6 963e 90d0 163d ffce 8c3e
00000020: 420b d0be d458 433e 2a57 35bd c9da c73d
00000030: 4b0d 993e 180f db3e 2948 833e 4ff2 3ebd
00000040: fa51 69bf cd3d a4bf dbcb 213f fca0 2abf
00000050: 46fb 07bc 0e46 a03e 9e26 953e 7af7 3c3f
00000060: 3c9a 2dbe ef1d e1be b7f0 343f 650b 7cbf
00000070: f77a 3dbf a6df 5dbe ea04 89bf 7f53 6a3f
00000080: e731 783e 7fa8 cdbd 2b6c 183f c0ac 07bf
00000090: 3471 33bf 8f97 f33e 96b9 403f 3ca3 813f
000000a0: ec19 77be ed91 1bbe c2ff 7fbe 3251 babe
000000b0: 58af c33e bdef 34bf b095 63bf 792c db3e
000000c0: 39d4 0bbf 3b60 b5bd 5dbe 8f3e bc3c bebe
000000d0: 996b 493f 703d de3e b012 92be bd53 10bf
000000e0: 4b57 603e a9b5 133e e007 c7be 9b1c a4bd
000000f0: 3c52 013f a260 d5be 2d69 b2be 2a68 04bf
00000100: e284 febe fa2f ddbe 76c8 e03d ce37 563e
00000110: 1b19 31bf ad61 053e 24a9 683e b9bc 36be
00000120: 693c 4bbe 02b1 4e3e 5fc1 24be 20f7 8e3c
00000130: baa0 d53e a24b 9fbe 2c19 54be 8fa1 8a3e
00000140: 1783 babe fb58 1b3e 7e4a a33d f41d 1abf
00000150: c589 123f 8fcc b9be e9f5 0abf e643 f9be
00000160: c2eb 34bd 8aa2 cabe 73cd d6be 2a28 bf3d
00000170: 5bd2 a93e e006 b83f 3d7f bd3e 01b1 e1bb
00000180: 0f94 19bc 9795 25be f83e 21be 53b2 8bbb
00000190: 688b 0d3f ba9e b33e 3cd2 c2be 6442 c8be
000001a0: a9bc f83e c842 cf3e 32b3 a2be 482a ac3e
000001b0: 929e b03e 8e10 8c3e 58e9 d4be 6c84 763e
000001c0: eb01 d63d 722c 1b3f 4e6c 543d 50a7 ba3e
000001d0: aaac cd3f 99c0 0bbf 8b52 223e 5f25 9ebe
000001e0: 5b1d 21be 5f46 cebe 5bcc e73e e7ac bebe
000001f0: 8def 0f3e 569b 3d3f 5744 b83e 23e5 9fbe
00000200: 80fe 4fbf 69aa be3e a9d3 293e c12b e7be
00000210: 06d3 a03f 66a1 95be bb64 5d3d b374 12be
00000220: 9960 19be f323 a13e 3304 24be 9470 afbe
00000230: 2e07 51be b408 843f be7e f93e f35f b33e
00000240: f453 b23e 987f 853d 592f 0b3f cc5a 513e
00000250: eae1 fc3e ab90 b2be f419 503e 801d 6bbe
00000260: 7e9f 883d 3a91 aebe 0297 e9be 80e5 153f
00000270: 2934 1a3e e759 363f 0472 0a3e 3ea2 ad3d
00000280: 7d02 1abf 8d79 2dbf d59f 1a3f 14b2 afbe
00000290: 82a5 69bf 80c7 9cbe ad1e 05be a6dd e73e
000002a0: 3665 c63e 2cff 8bbe 223c 08be adc1 e5be
000002b0: 498b ca3d 6bc9 47bf 8005 1a3f 4d41 64be
000002c0: 1aeb abbf 3251 bdbf e52c 13bf 7863 53bf
000002d0: d0e2 633e 6af4 ce3e 1659 16bf d1fb 18bf
000002e0: 649b a93d 435e 0d3f b21f d8be d355 fc3d
000002f0: 7971 b7be a21a 0bbf 7848 94bf 8c98 0cbf
00000300: 2234 77be d16b 963e 23e0 6abd a742 56bf
00000310: 0d57 86be bfe3 a0be aa70 f13e 6290 18bf
00000320: de0d 033f 88bf 813e baf3 18bd 8fdd d53e
00000330: 2a6e 173f 2641 11be a7ab 45be 472f 8fbd
00000340: be3a fb3e 8c3c 693f 29a5 debd e9dc 273f
00000350: 55fd 523f 7db2 653e 5a14 603f e076 13bf
00000360: 9668 5cbd 2e6a b8be cee1 2abe 0012 063e
00000370: 36b8 9bbe 04c5 803f ad44 143f 7899 c43d
00000380: 4a15 82be 783c 813d 8e27 f63d 2db6 b13d
00000390: 11ea 87bd 6025 a23d eb77 98bd 8109 1d3f
000003a0: 5394 9c3d 9158 df3e 8e25 bdbe 1aaf bfbe
000003b0: 849a 983e 2e7a 2d3b 6806 5c3f 03b1 a3be
000003c0: f7ac b6be 1d2a e33e 078b 9abe 041d 1cbe
000003d0: f061 be3f 2dda e83e e46b a4be 022f 5ebf
000003e0: bd31 e9bd f8f8 383e 046a cfbd b318 513e
000003f0: 0930 b0bd ecb5 553f 5f1b 923e 9132 d03e
0.18602076 -0.7339396 -0.30417192 0.2535977 -0.61716104 0.2948503 0.036819994 0.27501675
-0.4063359 0.19076854 -0.04427258 0.09758527 0.29892954 0.42784953 0.2564099 -0.046617802
-0.9114071 -1.283136 0.63201684 -0.6665189 -0.008299654 0.31303447 0.29131025 0.7381512
-0.16953367 -0.4396815 0.706798 -0.98454887 -0.74015754 -0.21667346 -1.0704625 0.91533655
0.24237786 -0.10041904 0.5954005 -0.5299797 -0.7009461 0.47576568 0.7528318 1.012794
-0.24130982 -0.15192385 -0.24999908 -0.36390072 0.38219714 -0.7067831 -0.8890028 0.42807367
-0.546207 -0.08856245 0.28074923 -0.37155712 0.78679806 0.43406248 -0.28529882 -0.56377774
0.219083 0.14424767 -0.38873196 -0.080132686 0.50516105 -0.41675287 -0.34845868 -0.5172144
-0.49710757 -0.43200666 0.10975735 0.20919725 -0.6917893 0.13025542 0.22720772 -0.1784543
-0.19847263 0.2018471 -0.1608939 0.017451823 0.41724187 -0.3111239 -0.20712727 0.27076384
-0.3642814 0.15170662 0.07973193 -0.60201955 0.5724147 -0.36288878 -0.5428148 -0.48684615
-0.04417015 -0.39577132 -0.4195362 0.093338326 0.331683 1.4377098 0.37011138 -0.0068875556
-0.009373679 -0.16170345 -0.15746677 -0.0042632013 0.5529084 0.35082036 -0.3805102 -0.39113152
0.48581436 0.40480638 -0.3177734 0.33626008 0.3449598 0.2735638 -0.41584277 0.24073952
0.104495846 0.60614693 0.0518611 0.36455774 1.6068318 -0.54590756 0.158518 -0.30887887
-0.15733854 -0.40288064 0.45273098 -0.3724129 0.14056225 0.7406515 0.3598964 -0.31229505
-0.8124771 0.37239388 0.16584648 -0.4515057 1.2564399 -0.292247 0.054051142 -0.1430233
-0.14978255 0.3147274 -0.16017227 -0.34265578 -0.20412895 1.0315156 0.4872951 0.3503414
0.34829676 0.06518477 0.5436912 0.20444793 0.4939111 -0.34875998 0.203224 -0.22960472
0.06671046 -0.34095174 -0.45623022 0.58553314 0.1505896 0.7123093 0.13520056 0.08478211
-0.60160047 -0.67763597 0.60400134 -0.3431555 -0.9126817 -0.30620956 -0.12999983 0.45286292
0.38749093 -0.27343118 -0.13304189 -0.44874325 0.09889848 -0.78041714 0.6016464 -0.22290535
-1.3431122 -1.4790404 -0.5749038 -0.8257365 0.22254491 0.40420848 -0.58729684 -0.5975924
0.082815915 0.55221957 -0.42211682 0.12321057 -0.3582876 -0.54337513 -1.1584616 -0.5492027
-0.24140981 0.29379132 -0.05734266 -0.83695453 -0.2623829 -0.31423756 0.47156268 -0.5959531
0.51193035 0.2534144 -0.03734181 0.41770598 0.5915247 -0.14185008 -0.19303761 -0.06991439
0.49068254 0.9110801 -0.108713455 0.6557146 0.82417804 0.22431369 0.87531054 -0.57603264
-0.05381068 -0.3601851 -0.166877 0.13092804 -0.3041398 1.0060124 0.5791729 0.09599584
-0.25406867 0.063103616 0.12019263 0.086773254 -0.066364415 0.07917285 -0.074447475 0.61342627
0.07645478 0.43622258 -0.36942714 -0.3743828 0.29805386 0.002647053 0.85947275 -0.31970987
-0.35678837 0.44368067 -0.30184194 -0.15245444 1.4873638 0.45478955 -0.32113564 -0.8679048
-0.1138644 0.18063724 -0.10127643 0.20419578 -0.08602912 0.83480716 0.28536507 0.4066358

Q1.head.module_10.att_src f4 [1, 1, 16]
00000000: a3ff 9ebe e8e3 8a3e 23b5 113f 1a77 07bf
00000010: 2580 03bd 87cb 483f c961 103f cb33 52be
00000020: 5e50 923d c93d f63d 0782 abbd 0f82 9f3e
00000030: e75b be3e 6586 403f 9e0c 26bf 5941 203f
-0.3105441 0.27127004 0.5691702 -0.5291611 -0.03210463 0.7843556 0.5639921 -0.2052757
0.07144235 0.12023503 -0.0837441 0.31153914 0.3717949 0.7520507 -0.64863 0.6259971

Q1.head.module_10.att_dst f4 [1, 1, 16]
00000000: 3893 ffbd 9540 cdbd 77fb 123f b2d1 16be
00000010: 6c49 cb3e fe1b 883d 3bc7 023f 634a 103e
00000020: 4f9c f73e 37d6 d93e 5dee ccbe 0c5a 423f
00000030: 0cd6 943e d31d 663f 2d3a 4a3f 355b ebbe
-0.124792516 -0.10022084 0.57414955 -0.1472843 0.39704454 0.06645964 0.5108525 0.14090876
0.48361441 0.42546245 -0.40025607 0.7591865 0.29069555 0.8988926 0.7899502 -0.45968023

Q1.head.module_10.bias f4 [16]
00000000: 4072 3fbe 8dc8 2b3c 6ca6 593c 498b 25be
00000010: b2be 41be 4d82 d13d 9bcb f03d 740a 81be
00000020: e0eb f63b 9dc9 28bd 5291 c2bd a6a8 453d
00000030: fa41 13be 22fd 223e 484b 3bbd 426c c2bd
-0.18695927 0.010484827 0.013284307 -0.16166414 -0.189204 0.10229931 0.11757585 -0.25203288
0.0075354427 -0.0412079 -0.09500374 0.04825654 -0.14380637 0.15916875 -0.04572609 -0.09493305

Q1.head.module_10.lin.weight f4 [16, 16]
00000000: c12e dcbc 8b95 8fbe 4f6f cbbe 64ed 00bf
00000010: 5eeb ad3e 6755 5a3e 8e66 3ebe f169 b23d
00000020: 2a00 f53e 23bb a33e 9ef9 3abf 1f76 dcbe
00000030: 3a48 e93d 3768 d23e 4e33 d7be 0287 59bd
00000040: ee9a 9f3e 6a92 48be ace6 83be edbe d73e
00000050: b97e 893d edbd f9be 11e7 ce3d c0f8 00c0
00000060: 7079 dfbf 88da 0fc0 a18b 2bbe 4a73 023f
00000070: aee6 c4be 62a4 7dbd 39ed 783e fd7e f1bd
00000080: 7010 27be 0733 963e 4c6c 87bd d691 da3e
00000090: 6bfd e33e 16c6 1a3d 4292 013f 52fc 29be
000000a0: 4006 293e 795b 2abf 4513 00be c82c 053f
000000b0: 90ef 94be cdbd bebe fc59 3abe cdf9 633e
000000c0: 7795 89be 1069 eabe 5963 013f 9955 1f3e
000000d0: a980 c5be 7c4f e63e 5f48 ebbd 339a 433e
000000e0: 08f3 bd3e d9a8 123f 5d5e 933b 5399 b0be
000000f0: f2d1 a83e c851 163d fe59 15bd f824 7a3e
00000100: 3a62 09bf 8ab6 1f3e a875 1ebe 924d 183d
00000110: f558 50be e0ba fcbd eb00 edbe cd81 49be
00000120: 31e5 933e 52a1 293d d673 0dbf 7927 483e
00000130: 5b2c d4be 4a67 9abe 6d4f 19bf e01b c33e
00000140: d517 7e3e c6c0 38bd 0cee d8be 07da 053f
00000150: 8b8b 103f 5be7 05be edb6 433e 9407 05bf
00000160: 73c7 f33d d8c7 ccbe c479 ff3e 8441 733f
00000170: 599a 863e 4d66 cabe a6da e33d 6a97 823e
00000180: e570 29be fd8b 4cbe 314c 0cbb 66f0 cf3e
00000190: 0de6 01be 6668 103f 9ecf 813d a9be 54bd
000001a0: 9aba be3e 2e3f 063e be1f 9dbe 5c9e 583e
000001b0: 4067 50bd c761 0abe 186f 39be b3e6 a33e
000001c0: 7c2a 0dbe 6b98 a3be c555 e53e c84e 63bd
000001d0: 033f 8bbe 04f0 efbe a80e bcbe d065 b93d
000001e0: 195f f43e c5ef ea3e 362b 67bf 233e e33d
000001f0: a4d1 4b3e 9814 a7be e42f 32bf 3364 17bf
00000200: e8b8 b1bc c60e 51be b11a e13e 9118 6b3e
00000210: c967 493e 3381 99be 6e60 f63e a349 0d3f
00000220: 5a47 183f 4397 87bc 6320 b5be 8e51 1d3d
00000230: 33a7 64be 8476 b23e 1bc5 97be e215 ad3e
00000240: 1a5b a13e 4acd 29be 46c7 4fbf 1aff 9f3e
00000250: 87ad bebe 4445 133f eb58 98be d264 e13e
00000260: 7c99 82be 2899 f2bd d93f 7dbf f0d2 1a3f
00000270: b18a f3bd 1661 6d3e 65c3 5cbe 3079 a7be
00000280: f87b 98bd 93f4 a53e 0462 c63e b85d 41bf
00000290: 8cfa 17bf d3bd 103f 9b9b 36be 5894 013f
000002a0: e0bb b73e 5fb3 e53e 110f 563e dfd3 25bf
000002b0: 1c09 bcbe dac8 c73d 0e00 18be 6763 53be
000002c0: 05aa b2be 74db 7c3e 0c57 fb3c ecbc be3e
000002d0: 4ae0 63be b9e4 d3be a9b3 86be f755 93bf
000002e0: 3508 53bc 244e 95bf b35c 7ebf e8cb a63e
000002f0: 4e88 e33e 694b b2bf 9d12 72be 74a0 833e
00000300: 7a4f 0b3d fe3e a6be d535 3dbf 9753 dbbd
00000310: 0a72 0f3e 87d1 d13e 5350 91be dd84 f23e
00000320: 68ef fe3e 2aa9 9bbe e341 8b3e fd0d c33e
00000330: ad26 91be ec92 21bf b2dc 8d3e 656f 893e
00000340: 7f6b 4fbe db72 d23e 42dc 15bf 9362 29bd
00000350: efa6 543d 1f0a 283c fc59 57be bd24 e6be
00000360: 92cc dcbd d261 eebe 1d19 2b3e b1f4 263f
00000370: 727b e63e afa9 02bf faf3 17be 8f6c 473f
00000380: 06cc 93be f4b2 00bf 5e8d cf3e 0139 84be
00000390: f9ab e03e 5501 3abf 4507 34be a120 9ebd
000003a0: 4e9b b7be fe58 283f 7e43 67bf e11a 34bf
000003b0: e8eb 57be 5ac8 01be b08a 20bf eb64 eebe
000003c0: 5773 283d b2fc 363f b56f 053f 3ee0 eebd
000003d0: c958 28bd 9e49 ea3d 7c38 e1be bc0c d8be
000003e0: 65bf b5be 3fcc 38bf 5525 363e 7525 053e
000003f0: f01e 9cbf ed9c d7bb ad13 ac3e 40a9 6f3e
-0.026877763 -0.2804378 -0.3973336 -0.5036223 0.33968633 0.21321641 -0.18593809 0.08711613
0.47851688 0.3197871 -0.73037136 -0.4305887 0.11390729 0.41095135 -0.4203133 -0.05310727
0.3117289 -0.19587103 -0.25761926 0.42137852 0.067136236 -0.48777714 0.10102666 -2.0151825
-1.7458935 -2.247713 -0.16752483 0.5095717 -0.38457245 -0.061924346 0.24309243 -0.11791799
-0.16314864 0.29335806 -0.06612453 0.4268939 0.4452928 0.037786566 0.50613797 -0.16600159
0.1650629 -0.66545826 -0.1250735 0.52021456 -0.29089022 -0.37254182 -0.18198389 0.2226326
-0.26871845 -0.4578328 0.5054222 0.15559997 -0.38574722 0.44982517 -0.11488413 0.19101791
0.3709948 0.5728889 0.004497333 -0.34491977 0.32972676 0.036699086 -0.036462776 0.24428165
-0.53665507 0.15596977 -0.1547457 0.03718335 -0.20346434 -0.12340331 -0.46289763 -0.19678421
0.28885797 0.041413613 -0.55254877 0.19546308 -0.4144009 -0.30156928 -0.5988682 0.38107204
0.24813779 -0.045105718 -0.42369115 0.5228581 0.56462926 -0.13076536 0.1911275 -0.5196469
0.11903276 -0.3999622 0.49897587 0.95021844 0.26289633 -0.39531174 0.11125688 0.25506145
-0.16546972 -0.19975276 -0.0021407718 0.40613097 -0.12685414 0.564093 0.06338428 -0.05193964
0.3725174 0.13110039 -0.3068828 0.2115416 -0.050879717 -0.13513862 -0.18108785 0.32011947
-0.13785738 -0.31952223 0.44792 -0.055495054 -0.27196512 -0.46862805 -0.36729932 0.09052622
0.47728804 0.45886055 -0.9030031 0.11095836 0.1990419 -0.326329 -0.69604325 -0.59137267
-0.021694615 -0.20415792 0.43965676 0.2295859 0.19668497 -0.29981384 0.48120445 0.55190486
0.59483874 -0.01655162 -0.35376272 0.038407855 -0.22329406 0.34856045 -0.29642567 0.33805758
0.31514817 -0.16582218 -0.8116344 0.31249315 -0.37241766 0.57527566 -0.2975534 0.44022232
-0.25507724 -0.118456185 -0.9892555 0.60478115 -0.11891688 0.23181567 -0.21558912 -0.32709646
-0.0744552 0.32413158 0.38746655 -0.7553363 -0.5936668 0.5653965 -0.17832796 0.5061698
0.35885525 0.44863412 0.20904185 -0.64776415 -0.367257 0.09755106 -0.14843771 -0.20643388
-0.3489534 0.2469309 0.030681156 0.3725351 -0.22253528 -0.4138544 -0.26308945 -1.1510609
-0.012880375 -1.1664472 -0.993602 0.32577443 0.4443993 -1.3929263 -0.23639913 0.25708354
0.03401134 -0.32469934 -0.73910266 -0.10709303 0.14008346 0.4098017 -0.28381595 0.47366992
0.49792027 -0.304025 0.27198705 0.3809661 -0.2834982 -0.6311481 0.2770744 0.268428
-0.2025585 0.41103253 -0.5853921 -0.041353773 0.051917013 0.010256319 -0.2103042 -0.44949904
-0.10781206 -0.46559006 0.16708799 0.6521712 0.45016056 -0.51040167 -0.14839163 0.7790002
-0.28866595 -0.5027306 0.40537542 -0.2582474 0.43881205 -0.7265828 -0.17580898 -0.07721067
-0.35860676 0.6576079 -0.9033736 -0.70353514 -0.21086085 -0.12674084 -0.6271162 -0.4656137
0.04112562 0.7147933 0.52123576 -0.116638646 -0.041100297 0.114398226 -0.43988407 -0.42197216
-0.35497585 -0.72186655 0.17787679 0.1300257 -1.2196941 -0.0065799863 0.3360876 0.23404408

Q1.head.module_12.att_src f4 [1, 1, 16]
00000000: 5cf7 a13e e35b 803f 3c30 9d3e 08ec 15be
00000010: 0de0 593c 9da9 4d3f 1fd4 5fbe 5544 003f
00000020: 3d18 4ebf f3eb 913d 2c6d 1cbf e528 523f
00000030: 6460 8fbe a89f 723f d1df 20bf 9b41 96bf
0.31634033 1.0028042 0.30700862 -0.1464082 0.013298047 0.80336934 -0.21858262 0.50104266
-0.80505735 0.07125082 -0.61104083 0.8209365 -0.28003228 0.94774866 -0.62841517 -1.1738771

Q1.head.module_12.att_dst f4 [1, 1, 16]
00000000: b0f0 983d 0486 0cbe be25 2dbf 59d7 663e
00000010: 1ace e83e 86d5 983e 3c82 ccbd b4a6 7fbd
00000020: b0d4 a3be bdea 3c3f bfa8 c7be 5e6d 1a3f
00000030: 9130 4f3f 6e3a 47be dc2c 0a3f 6f8e 063e
0.074677825 -0.13722998 -0.67635715 0.22543086 0.45469743 0.29850405 -0.09985778 -0.06241484
-0.31998205 0.7379568 -0.3899593 0.6032313 0.8093348 -0.19455883 0.539747 0.13140272

Q1.head.module_12.bias f4 [16]
00000000: 2645 b33e 74ef 0a3b 3f4d 6fbe fb05 02be
00000010: 7752 85bd 3b55 0d3e 24c2 34be 228c 863c
00000020: 6353 3e3d 6614 a73e 78d4 c5bd 5edc 35bd
00000030: d9d4 6e3d d99d 9ebc b25d 24bd e5bb a8be
0.35013694 0.0021199854 -0.23369311 -0.12697594 -0.065098695 0.13802044 -0.17652184 0.016424242
0.046466243 0.3263275 -0.09659666 -0.04439961 0.058308456 -0.019362377 -0.040128417 -0.32955852

Q1.head.module_12.lin.weight f4 [16, 16]
00000000: 84e2 11bf 5215 e83c 7df4 1b3f 4f97 32be
00000010: 4c8d 1ebf 393a 573f 2249 263f d32f ccbe
00000020: a3aa 1fbe ab50 f13e 7316 4bbf 736d bebd
00000030: d4c5 debe 420a 93bd 17a0 c83d e4ff 2fbe
00000040: a761 0abf 82ef 7cbe 5cbb febc bd7d 9f3e
00000050: 2936 b5be c4cf d4bd a2cd 6c3e 5577 d8bd
00000060: 6254 afbf eca0 953c 265c b4be f458 833f
00000070: 9656 363e 26f7 2bbe 48ec d5bd 90e0 91be
00000080: 3215 8ebe cf84 853d 6241 103f 14c0 00bf
00000090: 5e84 3bbd 12ba 7f3e 3c7b 60be 9977 9f3e
000000a0: 4071 cc3e 5dec 06be 50ab eb3d af75 1c3f
000000b0: e021 45bd 7fc3 06bf 8201 ff3e cb15 033e
000000c0: 19e7 4c3e 9a88 d5bd 0616 f33e bd17 e6bd
000000d0: cd46 99be 7bc7 bf3e 4989 eebd 80d1 d43e
000000e0: 2b2a 0d3f 6f27 eebe 983a 653c 009a 66be
000000f0: f8c8 28be 9074 bb3e 6455 6a3e 2ce5 0dbf
00000100: 4ddc 6e3e 774c f23e 5c95 75be 0b14 433e
00000110: 6361 e93d 5ecd 5c3e 1dc2 6a3e b26e 4f3e
00000120: 6887 e33d c3ff 553e 9459 12be 7e85 7b3f
00000130: 3c86 8c3e 0554 483d d2a8 4abc 064c 42bf
00000140: a000 cfbe b9a5 253f 5478 aebd 6069 753e
00000150: b920 cabd 17f3 ab3e 433e 80be 20ca 8cbe
00000160: 26ae 9bbe 69c9 29be 5ca2 c1bc a699 ef3d
00000170: b218 733e 6106 763e a35e ecbd 5774 0abf
00000180: f623 e9be 444e 073f 7a1b 9c3e 43c9 9ebe
00000190: c9fb 283e eae5 fe3d f934 47bd ad97 933e
000001a0: 43b9 ec3e 02bc 8abf a5b9 0b3e 5730 f83e
000001b0: c629 9a3d 42fe 06be 6fa8 8eba 6144 e0bd
000001c0: c2e4 bfbc 781b 413f 2d0e 583e 3d96 c0bf
000001d0: acc3 59be 3f3a 763e 50ac 97bf d8e4 e33d
000001e0: 5a0c 72bf 9d4e 9b3e 8ff5 203f a4a3 403f
000001f0: cc65 483c 80c7 cebe d5b6 983e 1c32 083f
00000200: c4c0 953d 3bba 083e 9e01 af3e 8012 86be
00000210: 40b1 563e bd0c 263e 1f0c 87bd 989e d0be
00000220: b77f 973e 31fb e2be 4467 8d3d 7e84 2fbf
00000230: 8517 0ebe ba5c 9abd be09 63be 9558 7d3e
00000240: 5336 103f 6054 c53e f65e 433d 6a4b 3ebe
00000250: 431c 21bf 8249 ee3e c496 15be 0742 4bbf
00000260: 54b0 fcbd e029 33bf fd17 f0be fd23 54bd
00000270: e040 5bbe 8ff2 043f 1668 4abf 925c b4be
00000280: cc8a 97bd 6189 a7be 6a5b 31be acb2 36be
00000290: 8444 58be bbd1 9fbe 57d4 5bbe 05e6 283d
000002a0: 8f6c 18be 8213 973e 521e 023e 8969 7cbf
000002b0: f83a bcbd 954f 90be 788d a3bd 047c 1d3f
000002c0: 59a9 21bd c5fb ad3e 6854 86be 089b d03d
000002d0: 77ce b23c a944 39bd 5b39 7fbe e122 65be
000002e0: 71de acbf a83e 15bf c747 0dbe 9469 af3f
000002f0: 51fd babd 702e c03e 3ce3 cbbe 92e5 5abf
00000300: 852d afbe 8d8e 0c3e 28d8 d2bc 3b81 96bb
00000310: 2b78 6dbd 3385 0e3d 7384 b43e 26bf debd
00000320: e1c5 a13e 2cb2 9cbe 29cf 4e3e cb5e 903d
00000330: 8824 51bd 08b7 0fbf f5e5 4639 1f01 52bf
00000340: 750f a6bd ee82 123f 98b0 de3e bf15 a23c
00000350: 2e31 7abe 95c7 033f 08cb a23e 7ea4 94be
00000360: 6d69 21bf a4ad 843f 029f c3bc f232 263f
00000370: 302c b43d 786e b53e a9c5 21bf ee0f 9ebe
00000380: 6497 06be 7996 633e ac09 b2bd e4c2 a93d
00000390: a6f4 a33e f667 cd3d 5e55 c83e 34e4 efbd
000003a0: ea65 af3e ff70 5fbe d97e e1bd 4a5c cc3e
000003b0: 361f 0e3f f4ec 85bd 926f 45bd d326 03bf
000003c0: f820 a3be b5f5 1d3f 0a6c d6bc 6641 76bc
000003d0: ea52 a53e bf97 18be 6641 953b 9420 393f
000003e0: 47c7 f23e 5674 693d c37d 65bf aeb1 15bf
000003f0: 4453 c03e 2005 3c3e 7b18 95bc 1bdd 09bf
-0.5698626 0.028330479 0.60919935 -0.17440532 -0.6193435 0.84073216 0.6495534 -0.39880237
-0.15592436 0.47131857 -0.7933113 -0.092982195 -0.43510306 -0.07179691 0.0979616 -0.17187458
-0.54055256 -0.2470074 -0.0310952 0.31150618 -0.35392883 -0.10391191 0.23125318 -0.10569636
-1.3697627 0.01826521 -0.35226554 1.0261521 0.17806467 -0.16793498 -0.10445458 -0.2849164
-0.27750546 0.06519472 0.56349766 -0.5029309 -0.045780532 0.24973324 -0.2192201 0.31145933
0.39930153 -0.13176103 0.11507285 0.6111707 -0.04812801 -0.52642053 0.49805838 0.12801282
0.20010032 -0.10426445 0.4747774 -0.112349965 -0.2993683 0.3745688 -0.11647279 0.41566086
0.5514247 -0.4651446 0.013991021 -0.22519684 -0.16482913 0.36612368 0.22884136 -0.55427814
0.23326226 0.47323963 -0.23982757 0.19050615 0.11395528 0.21562716 0.22925611 0.2025707
0.11109811 0.20898347 -0.14291984 0.9825057 0.27446163 0.048908252 -0.012369351 -0.7589725
-0.40430164 0.64706 -0.085190445 0.23965979 -0.098695226 0.335839 -0.25047502 -0.2749796
-0.30406302 -0.16580738 -0.02363699 0.11699228 0.2373989 0.24025871 -0.11541488 -0.5408377
-0.4553525 0.528538 0.30489713 -0.31012926 0.16502298 0.124461964 -0.048634503 0.28826657
0.46235093 -1.0838625 0.13645037 0.4847438 0.07527499 -0.13182929 -0.0010883937 -0.10950542
-0.02342451 0.7543254 0.21099158 -1.5045849 -0.21266049 0.24045657 -1.1849461 0.11127633
-0.94550097 0.30333415 0.6287469 0.75249696 0.0122313015 -0.4038658 0.2982699 0.5320146
0.07312158 0.13352291 0.3418092 -0.2618599 0.20966053 0.16215797 -0.06594109 -0.40745997
0.29589626 -0.4433227 0.06904462 -0.6856154 -0.1387616 -0.075372174 -0.22171685 0.24740823
0.5633289 0.38540936 0.047697984 -0.18583456 -0.6293375 0.46540457 -0.14608294 -0.79397625
-0.123383194 -0.6998577 -0.46893302 -0.051792134 -0.21411467 0.51932615 -0.7906507 -0.35226876
-0.0739952 -0.32722 -0.17320028 -0.17841595 -0.21119887 -0.312147 -0.2146772 0.04123499
-0.14885162 0.2950707 0.12706879 -0.98598534 -0.09190935 -0.28185716 -0.079859674 0.6151736
-0.039468143 0.33981147 -0.26236272 0.1018582 0.021826966 -0.045231495 -0.24924223 -0.22376586
-1.3505384 -0.5829873 -0.13796912 1.3704095 -0.091303475 0.3753543 -0.39821804 -0.85506546
-0.34214416 0.13726254 -0.025737837 -0.004593042 -0.05797593 0.034794997 0.352573 -0.108763024
0.31596282 -0.30604684 0.20196213 0.0704933 -0.05106023 -0.5613866 0.00018968417 -0.8203296
-0.08108417 0.5723103 0.43494105 0.01978576 -0.24432823 0.51476413 0.31795526 -0.29031748
-0.6305149 1.0365491 -0.023879532 0.64921486 0.087974906 0.35435843 -0.6319223 -0.30871528
-0.13143688 0.2222537 -0.08693251 0.082891256 0.3202259 0.100295946 0.3912763 -0.11713448
0.34257442 -0.21820448 -0.110105224 0.3991416 0.55516374 -0.06539336 -0.048202105 -0.51231116
-0.3186109 0.61703044 -0.026174564 -0.015030241 0.3228982 -0.14901637 0.0045549152 0.72315335
0.47417662 0.056995712 -0.8964502 -0.5847424 0.37563527 0.1836133 -0.01820015 -0.53853005

Q1.head.module_14.att_src f4 [1, 1, 16]
00000000: c479 3040 430f 91be e44d 1e3f 1269 b23e
00000010: 001d c63f 2fe7 1f3e 08b5 153f 9701 94c0
00000020: 62e2 d2bf 8dd3 26bf c314 edbf 8c2b fb3e
00000030: 1230 f1be 782c c9be 7468 0540 3331 9abf
2.757432 -0.28331956 0.618376 0.34845787 1.54776 0.15615533 0.58479357 -4.625194
-1.6475337 -0.6516655 -1.8521961 0.4905666 -0.47106987 -0.3929174 2.0845003 -1.2046264

Q1.head.module_14.att_dst f4 [1, 1, 16]
00000000: 9c15 3f3f 0930 bb3f a0dc 163f c9e3 a43d
00000010: 0de4 30bf d537 32bf 1cf9 063f c2f2 4b3f
00000020: 940c 22bf df36 533e 39e0 053f 7cd3 253c
00000030: 0189 273f 068f 753e 6c90 0dbf 7d97 4b3f
0.7464235 1.4624034 0.589304 0.08051259 -0.6909798 -0.6961644 0.5272386 0.79667294
-0.6330044 0.206264 0.5229526 0.010121223 0.65443426 0.2398034 -0.55298495 0.7952803

Q1.head.module_14.bias f4 [16]
00000000: 1f2a f8bd d22e f4bd 7196 a4bd d35b 9abd
00000010: 04f7 b33d d333 073e 33ff 893b de13 c3bc
00000020: fd9f e5bd 9c6e 3ebd 7ba6 23bd 22a6 fd3d
00000030: 6e26 a9bd c2ee 5ebd c83a 113e 4a03 ecbd
-0.12117409 -0.11922993 -0.08036507 -0.07537045 0.08787349 0.13203363 0.0042113303 -0.023813184
-0.11212156 -0.046492204 -0.03995369 0.12385203 -0.08259283 -0.054426916 0.1418258 -0.11524065
