script/logs/stack/model/best/online_critic.pth (torch, 46610 bytes, 12 tensors)

Q1.head.0.weight f4 [64, 8]
000000 29 f0 de bd cb ea 17 bd 12 1b 46 be 03 27 92 3d
       -0.10885651 -0.03708915 -0.19346264 0.07136347
000010 67 10 fe 3d f6 ce 7e be a9 f5 8a 3e 00 02 80 3e
       0.12405472 -0.24883637 0.2714055 0.25001526
000020 54 70 da bd c0 5c 4b 3d 73 4d 14 3d a8 b1 06 bd
       -0.10665956 0.049649 0.036206674 -0.03288427
000030 9d c7 66 be 22 74 9b 3e ba b9 41 3e 6e 06 94 be
       -0.22537084 0.3036204 0.18918505 -0.28911155
000040 58 f0 8e be bc fe a8 3e 63 3c 38 3d 51 75 85 bd
       -0.27917743 0.33006847 0.044979464 -0.06516517
000050 9a 19 78 3e 9d bc e4 3d be 88 e5 3d 68 bd 89 3e
       0.24228516 0.11168788 0.11207722 0.26902318
000060 29 c4 0c bd ac da ad 3e 63 44 82 be d6 bc 58 be
       -0.03436676 0.33955896 -0.254428 -0.21165785
000070 8e 34 81 3d f3 f2 1c bd 5f 8d 48 3e ee fd cd bd
       0.06308852 -0.038317632 0.19585179 -0.10058199
000080 72 4f 55 3d 43 a2 ab bd dc ba 7c 3e 0c 94 ea bb
       0.052077718 -0.08380558 0.24680656 -0.007158762
000090 88 20 cd 3c 88 d2 85 3e 44 da b3 3e e6 a3 ad 3e
       0.025039926 0.26137185 0.3512746 0.33914107
0000a0 35 0e ae be b5 1a 4f be fd 3a 88 bd fe dc bc bd
       -0.33995214 -0.20225032 -0.06651876 -0.092218384
0000b0 2d 4a 67 3e 42 25 29 3e 7e 56 a4 bc cf d2 5a 3c
       0.2258689 0.16518119 -0.020060774 0.013355925
0000c0 c2 5b 82 3d a6 7b 99 3e 28 0b 35 3e ca 8f 3f be
       0.06365158 0.2997715 0.17680037 -0.18707195
0000d0 ce 07 3f be d7 86 da 3d 6b 00 27 bd 6e 50 6d be
       -0.18655321 0.1067025 -0.040771883 -0.23175213
0000e0 aa f6 ab be 14 ee 83 3d 05 9b c6 bd 88 4a 43 be
       -0.33586627 0.06441894 -0.096975364 -0.190714
0000f0 e1 46 95 3d 7c 5a a7 3e a7 23 9c 3e 20 0c 57 3e
       0.0728891 0.32686222 0.3049595 0.21000719
000100 76 86 88 be 86 73 4d 3e f7 13 3a 3e be 3b ef 3d
       -0.26665086 0.200636 0.18171678 0.11681317
000110 8a 1a a9 bd 69 9b 48 bb 53 8b 45 be 8b 1a a3 bd
       -0.08257015 -0.003061021 -0.19291429 -0.07964047
000120 29 63 6e bd 1d 24 4d bd 00 26 b4 be 08 72 ff 3d
       -0.058200035 -0.05008327 -0.35185242 0.124729216
000130 c0 1b 94 be 55 5f 87 be 2b 1f 13 3e be 2d 94 be
       -0.28927422 -0.2643992 0.14367358 -0.2894115
000140 8b ef ad 3e 20 6d b0 3e ee 45 de bd d4 94 8b bd
       0.3397182 0.34458256 -0.10853182 -0.06815496
000150 7d c7 87 be 86 49 ea 3c f4 d1 90 3d 80 20 42 be
       -0.26519385 0.028599512 0.070712954 -0.1895771
000160 7d 61 f0 3d e8 aa dd bb 27 75 cd bd da ed be 3c
       0.117373444 -0.0067647584 -0.10032111 0.023306776
000170 0e 68 ac be fb ce 7e be 73 45 7e 3d de df b1 3e
       -0.33673137 -0.24883644 0.06207795 0.3474111
000180 98 4e 52 be b7 74 76 3e 34 4a 14 3d 0d 41 20 be
       -0.20537794 0.2406796 0.036203578 -0.15649815
000190 8a 41 1e 3c 16 7b 27 3e 2b cb 62 3d b3 a3 a3 3e
       0.00965918 0.16355547 0.055369537 0.3196083
0001a0 51 f7 5a bd 36 da 75 be 51 22 a3 3e ac c1 bb bd
       -0.053458516 -0.24009022 0.3186212 -0.09167799
0001b0 54 76 73 3e 00 d0 76 3e 74 dc 83 3d 18 85 90 be
       0.23775607 0.24102783 0.064385325 -0.28226542
0001c0 72 8a b7 be 54 3c 21 3e 45 9d a6 3d 76 22 60 3e
       -0.35847813 0.1574567 0.081354655 0.21888146
0001d0 a7 f5 9a be 97 88 10 bd e7 f0 97 3e d4 7f 3a 3e
       -0.30265543 -0.035286512 0.2967598 0.18212825
0001e0 58 5d 96 3e 67 c0 88 3e 08 17 c1 bd 61 24 7a be
       0.2936809 0.2670929 -0.09428221 -0.2442794
0001f0 c3 71 62 be 55 bd 08 3e f6 78 16 be 43 82 0f 3b
       -0.22113709 0.13353474 -0.1469458 0.002189771
000200 a6 33 4f 3d e8 62 57 3e 05 1d 3b 3e 1c 7d 67 3e
       0.050586365 0.21033823 0.18272789 0.22606319
000210 34 cb 04 3d a8 b8 4e 3e 1b f4 29 be 6a 11 16 be
       0.032420352 0.20187628 -0.16597025 -0.1465508
000220 3e a3 2f bd e5 c7 48 be 38 bc a6 3e 5b 08 90 bd
       -0.04288029 -0.19607504 0.32565475 -0.07032844
000230 fc f6 d2 3d a2 81 4d bc 83 01 a4 3b e8 ef 37 be
       0.10301015 -0.012543114 0.005005063 -0.1796261
000240 27 4f 10 bd d7 29 a0 be b8 27 33 be b3 27 98 3e
       -0.035231736 -0.3128192 -0.1749562 0.29717788
000250 22 9f a5 be 32 80 ab 3d 19 fd 63 3d 98 41 ad be
       -0.3234797 0.08374061 0.055661295 -0.33839107
000260 30 9f 96 3d 2e af 2d 3e fe 5a 75 3e 0e e4 b0 3d
       0.07354581 0.16961357 0.23960492 0.08637248
000270 c6 97 98 3e ac c2 b8 3c ab 17 0d 3e 02 91 cf 3d
       0.29803294 0.022553764 0.1377856 0.1013508
000280 b3 78 85 be 62 20 a3 bd af 3d 84 be 99 77 9a 3e
       -0.2606865 -0.07965161 -0.2582831 0.3016937
000290 6e 1e 44 3e ab 53 02 be 0c be 57 bd bf 4d ba 3d
       0.19152233 -0.1272723 -0.052671477 0.0909686
0002a0 d4 d7 9b be 69 97 b7 3b 12 12 30 3e 82 8a 81 3d
       -0.304381 0.0056027663 0.17194393 0.063252464
0002b0 48 be ba bc 03 32 78 3e 70 96 22 3e b9 ff a4 be
       -0.022795811 0.24237828 0.158777 -0.3222635
0002c0 9e 8c 52 3e df e9 8b be 97 e2 49 3e df 97 97 3e
       0.20561454 -0.27326867 0.19715343 0.29608056
0002d0 11 ad 51 3d 99 a3 d4 bd 6a 7d 47 be da 7c 1e be
       0.05119044 -0.10382766 -0.19481435 -0.15477315
0002e0 fc 95 87 bd 78 b6 14 be 9a 2a b8 3e 0f 33 25 be
       -0.06620404 -0.14522731 0.35970002 -0.16132759
0002f0 48 b8 17 3e 8b fb ad be db 2d 2c 3e 19 ff 98 3e
       0.14816391 -0.33980975 0.16814367 0.29882124
000300 51 c4 81 be 4e be b8 bd c0 8b a9 3d d2 46 ad be
       -0.2534509 -0.09020673 0.08278608 -0.33843094
000310 89 95 66 be e3 ca f8 3d ce b2 a9 3e 51 50 d8 bd
       -0.2251798 0.121480726 0.3314423 -0.10562194
000320 bf 40 1a bc ca eb b3 be e9 42 b3 be 5e be aa 3e
       -0.009414851 -0.3514083 -0.35011986 0.33348364
000330 af 8c a4 3e 1d 0f a8 bd 7a a5 15 be 08 a7 f6 bc
       0.32138583 -0.08206008 -0.14613906 -0.030108944
000340 e4 5a 24 3e 5d ef ae be 72 44 4d be d1 f6 dd bd
       0.16050297 -0.34166995 -0.20045641 -0.10838092
000350 4c 67 1f be 3f 9a e1 bb 00 b8 87 3e 2f a4 94 3d
       -0.15566748 -0.0068848426 0.26507568 0.07257878
000360 56 a1 a7 be 9b 9c 9d 3e 8d 01 89 3e af 62 0b 3e
       -0.32740277 0.30783543 0.26758996 0.13611864
000370 ca ac 42 3e c0 97 21 3e 03 f1 8c 3e 36 65 b3 be
       0.19011226 0.15780544 0.27527627 -0.35038155
000380 cb 5f 61 be f7 e7 37 bd e7 bb 89 bd af 70 70 be
       -0.22009198 -0.044898953 -0.06725293 -0.23480485
000390 e2 98 ad be ba 3f 8a be 21 eb 60 bd a2 a9 99 3e
       -0.33905703 -0.27001745 -0.054911736 0.30012232
0003a0 29 2a 6c 3e c1 fd c8 3d ca 37 62 be a5 81 15 be
       0.23062958 0.09814025 -0.22091594 -0.14600237
0003b0 5c 23 f8 3c b1 c9 a7 be 09 18 a3 bc d2 85 8b 3d
       0.030290298 -0.32771066 -0.019908922 0.068126336
0003c0 c0 85 a4 3e 7c 72 ba bd 21 1f ad 3e 47 24 2c 3d
       0.32133293 -0.091038674 0.33812812 0.042026784
0003d0 00 f1 6e be 1a 8f ac 3e e4 3d 9c 3e 56 ff 89 be
       -0.23334122 0.33702928 0.3051597 -0.26952618
0003e0 cf 0f 58 be 08 f9 24 3e 65 aa 56 be 76 83 64 3e
       -0.2109978 0.16110623 -0.20963438 0.22315773
0003f0 80 39 3d be 42 b4 f3 bd ce 47 eb bd 90 30 aa 3e
       -0.18478966 -0.11899616 -0.11488305 0.33240175

Q1.head.0.bias f4 [64]
000000 c5 0e f4 bd 3c 18 bd 3c 9f c5 1f 3e 99 c8 4d 3e
       -0.119168796 0.023082845 0.1560273 0.20096053
000010 ed a1 4c be dd 6e 96 3e b1 5c 30 be ea da a4 be
       -0.19983645 0.29381457 -0.17222859 -0.32198268
000020 9a ae 1d be b0 42 a0 be a2 a7 00 3e f4 a5 61 3d
       -0.15398636 -0.3130088 0.12563947 0.055089906
000030 b1 69 bf bc 83 d0 71 be a7 2c 5f 3e bc 5a b2 3d
       -0.023365827 -0.23614697 0.21794377 0.087087125
000040 d9 6d 89 bd 28 4b a4 3d 5d 3d 1c 3e 99 10 43 be
       -0.06710405 0.080221474 0.15257783 -0.190493
000050 59 20 9a bd 1b b3 15 be 86 ad b0 3e 3c 84 e3 3d
       -0.07525701 -0.14619105 0.34507388 0.11109206
000060 df 5e 89 be de 79 8f 3e 6b 7e 48 bd b9 51 6d 3d
       -0.26830193 0.28022665 -0.048948687 0.057939265
000070 32 85 9d 3d 16 92 38 bd 0f 8f bb 3e 8c 2e 15 3e
       0.076914206 -0.045061193 0.36632583 0.14568537
000080 68 5f d1 3d 61 7b 06 be e5 18 e3 3d 37 ca 81 be
       0.102232754 -0.13133003 0.11088733 -0.2534959
000090 fa d3 e7 bd 87 01 4c 3e e4 28 b2 be 1f f6 78 3c
       -0.11319728 0.19922458 -0.34796822 0.015195399
0000a0 15 ad 15 be 18 55 36 3e ea 7b 52 be 02 9f 1f 3d
       -0.14616807 0.17805898 -0.20555082 0.03897
0000b0 21 bf d0 bd 1b 2f a5 3e e6 ca 16 bd 6a 57 81 be
       -0.10192705 0.322625 -0.036814593 -0.25262004
0000c0 08 22 f5 bd 2a 66 8e 3e 28 31 21 3e 77 29 cb 3d
       -0.119693816 0.2781232 0.15741408 0.09920018
0000d0 ed 62 81 3e 5e b1 2b 3e a0 07 a1 bc 08 72 40 be
       0.25270787 0.16766879 -0.019656956 -0.187935
0000e0 55 3a ad be 38 0c 4e 3e 75 df 9a 3e 21 21 0b be
       -0.33833566 0.20121849 0.3024861 -0.13586856
0000f0 7d 2d 25 be 78 f9 55 3d 16 20 0b bd a2 f2 9b 3e
       -0.16130634 0.052239865 -0.033966146 0.30458552

Q1.head.2.weight f4 [64, 64]
000000 40 d0 0d bb 40 c0 76 bb 02 00 ee bd c4 45 1c 3d
       -0.002163902 -0.003765121 -0.11621095 0.03815247
000010 00 bc e3 39 98 93 f1 3c 72 83 9c 3d 04 d1 59 3d
       0.00043436885 0.029489323 0.07642259 0.05317785
000020 00 a8 79 39 e0 ca 1d bc 72 4d 81 bd 56 2d e7 3d
       0.00023809075 -0.009630889 -0.063136 0.11287944
000030 8a 14 d5 3d 00 c6 04 ba 50 b3 ff 3d ca cc e0 3d
       0.10404308 -0.00050649047 0.12485373 0.109765604
000040 26 2d 93 3d 44 98 83 3d 54 b3 4a 3d e0 a0 b3 bc
       0.07186346 0.06425527 0.049487427 -0.021927297
000050 80 85 4b 3c bc 44 d0 3d f8 89 ac bc 00 ca 1f 3d
       0.012421966 0.1016936 -0.021061882 0.039011
000060 a0 3c 25 bd 68 0b a8 3c 5e ae 94 3d f0 36 9f 3d
       -0.04034102 0.020513251 0.072598204 0.0777415
000070 10 88 7a 3d 00 a1 73 3d e0 d2 f5 bc 78 1c e9 3d
       0.061164916 0.059479713 -0.03000778 0.11382383
000080 64 dd b3 3d 6e 59 f2 3d 58 fc ce bd f0 02 68 bd
       0.08782461 0.118334636 -0.101067245 -0.056643426
000090 f6 91 d4 bd d0 6b 35 3c 9c 9b c3 3d d4 f7 ae bd
       -0.10379402 0.011073068 0.095511645 -0.08543363
0000a0 3c ff 05 3d 40 eb 23 bb 68 59 ee bd 60 d8 a0 bb
       0.032714114 -0.0025012046 -0.11638147 -0.0049086064
0000b0 90 75 70 bc 80 53 78 bd 8e c2 9f bd 3c 58 97 3d
       -0.014676467 -0.060626507 -0.0780078 0.07389876
0000c0 c0 2a 52 bc 60 f3 ca bc 18 59 0e bd d8 ed 82 bc
       -0.012827575 -0.024774253 -0.034752935 -0.015982553
0000d0 d8 38 0d bd 50 5d 99 bd 2c 73 5a 3d 80 35 f2 ba
       -0.03447804 -0.07488501 0.053332493 -0.0018479079
0000e0 08 ee e4 bd 74 8d 80 bd f8 e9 d0 bc 30 49 43 bd
       -0.11178213 -0.0627698 -0.02550219 -0.04767722
0000f0 68 90 f1 3c 9e 7e ef 3d 22 c3 b8 bd 80 6a f0 ba
       0.029487804 0.11694072 -0.09021594 -0.0018342286
000100 13 ef cf 3d 29 00 a6 bd a4 ee db bd d8 33 c7 3c
       0.10153022 -0.08105499 -0.107388765 0.024316713
000110 fc c9 0c bc 17 85 42 bc 6e d5 a0 3d 14 cb dd bd
       -0.008593079 -0.011872551 0.078532085 -0.1082975
000120 08 28 99 bd f4 ac b1 3d 64 e6 c8 bd 03 5f fe bc
       -0.074783385 0.08675566 -0.098095685 -0.031051164
000130 50 0c 6e 3d cd 59 78 bd bc b6 e0 bd 45 0f aa bd
       0.05811721 -0.060632516 -0.10972354 -0.08303694
000140 24 8f d7 bd eb c8 ec bd 89 a6 0a bd 74 8f fb bd
       -0.10525349 -0.115617596 -0.033850227 -0.12283221
000150 cd 7b b6 bd a5 9a 40 3b e0 06 d6 3d 86 f6 e9 3d
       -0.08910332 0.002938905 0.1045053 0.11423974
000160 a8 fb d5 3d b5 d8 0d 3b 48 e8 8d 3d 77 72 4f bd
       0.1044839 0.002164406 0.0692907 -0.05064627
000170 93 8d b5 bd e4 9f 7c 3d 27 7e 1b 3d 43 27 01 3d
       -0.08864894 0.06167592 0.037962105 0.031531584
000180 5a 8f 49 3d 76 0f 13 bd b0 57 a1 3d ca f5 72 3d
       0.049208976 -0.035903417 0.07878053 0.059316434
000190 d4 3f 82 bd f0 e0 a5 3d cc 83 38 3d 60 9e 16 bc
       -0.063598305 0.08099544 0.045047566 -0.009193033
0001a0 b4 f8 f2 bb 4c ec c8 3d b8 70 db 3b aa a3 12 3d
       -0.0074149016 0.09810695 0.0066967867 0.035800613
0001b0 c6 d1 ba 3d af 5c a0 bb 06 6f cb 3d cc 5a a5 bd
       0.09122042 -0.0048938612 0.099332854 -0.08073959
0001c0 03 2c 99 bc 51 9a 2a ba a0 49 b9 ba d3 aa ca bd
       -0.018697744 -0.000650798 -0.0014136322 -0.098958634
0001d0 74 31 e3 3d 23 7d a6 bd 63 a6 ae 3d 7a 04 85 bd
       0.11093417 -0.08129337 0.085278295 -0.064949945
0001e0 74 94 4b 3d 32 b5 a0 bd d6 23 85 bd 29 a2 02 3d
       0.049702123 -0.0784706 -0.06500976 0.03189293
0001f0 42 0a b0 3d 59 91 98 bc e0 01 40 3d 55 a3 a4 bd
       0.085957065 -0.018623995 0.04687679 -0.080389656
000200 1a 84 1a 3d 58 c9 81 bc 06 07 f8 bc 08 16 7c 3d
       0.037723638 -0.015843078 -0.030276787 0.061544448
000210 7c 50 31 bd 66 07 a0 bd 2c 3b 11 bd 14 55 7f 3d
       -0.043289647 -0.07813911 -0.03545682 0.062336996
000220 26 13 f5 3d 00 6b e7 3d f9 23 af 3d 52 fc 9d bd
       0.11966543 0.112997055 0.08551783 -0.07714142
000230 dc 9c e4 3d 9f 14 49 3d 5a 49 a7 3c 38 68 94 bd
       0.11162731 0.04909193 0.020420719 -0.07246441
000240 c5 b1 8b bd 5f 72 f9 3c 23 08 53 bc 67 01 18 bd
       -0.06821016 0.030450044 -0.012880358 -0.037110712
000250 62 69 c3 bd 52 84 d6 3d 58 26 17 3d 27 a8 6f 3c
       -0.095415846 0.10474457 0.0369018 0.014627493
000260 d0 6a 40 3c ad 0f 86 3d 58 61 9a bd 43 72 de bb
       0.011744216 0.06545959 -0.07538098 -0.0067885234
000270 78 f5 e1 3d c8 f3 9e bc 46 df de bd ed 61 9c bd
       0.110331476 -0.019403353 -0.1088243 -0.07635865
000280 28 b6 9e 3d 8a d0 86 3d 6e 00 ad 3d 40 4e 3c bd
       0.07749587 0.065827444 0.084473476 -0.045973063
000290 b1 6a 75 bd 8f 09 e6 bd 50 4c 0d 3c f1 10 ec bc
       -0.059916202 -0.11232292 0.008624151 -0.028816672
0002a0 af 36 ef 3d 5f 00 6e bd 80 ab a2 bd 84 a2 4f 3d
       0.11680352 -0.058105823 -0.07942867 0.050692096
0002b0 b4 ce 3a bd e7 94 5b bc 2b b4 fb 3d 20 ac 9f 3d
       -0.045607284 -0.0134022 0.12290224 0.07796502
0002c0 04 27 ff bd 43 9c 8a 3b a0 e7 80 3b 2a af f6 3d
       -0.124586135 0.0042300536 0.003933862 0.12045129
0002d0 1c 53 dd bd 93 e9 99 3d 0c 5f fb bd ac a8 fb bd
       -0.108068675 0.07515254 -0.12273988 -0.12288031
0002e0 60 3a 83 bd de d8 f4 bd ad 6d 1b bc 78 ba ce 3d
       -0.064076185 -0.11955427 -0.009486598 0.1009416
0002f0 bc 0a 0e bd 0c 24 c2 bd 13 19 4d bc 90 0a d4 bd
       -0.034678206 -0.09479532 -0.012518185 -0.10353577
000300 1c 64 97 3d f5 42 c5 3c f5 29 eb 3d bc 81 8e 3d
       0.07392141 0.02407978 0.11482612 0.069583386
000310 87 a5 37 3d c4 3e 5a 3d de e0 dd 3d 49 8c a9 bd
       0.044835594 0.053282514 0.10833906 -0.082787104
000320 2c 4a 8f bd 8a e1 c4 3d 2c 21 8a 3d d8 cd 0d 3e
       -0.06996569 0.09613331 0.06744608 0.13848054
000330 7b e9 03 3d 92 7e 1c 3d 4c f7 c1 3d a3 6f d5 3d
       0.032205086 0.038206644 0.09470996 0.10421684
000340 9d 71 71 3d 58 e7 b2 bd fd e4 4e 3d 86 9e c9 bd
       0.05894624 -0.087355316 0.05051135 -0.09844689
000350 fd e7 5b 3b 38 46 7d 3d 69 bd f2 bc d2 cf f9 3d
       0.0033555024 0.061834544 -0.029631333 0.12197842
000360 33 67 d7 3d 8e df 26 3d 86 f0 b8 bd 4f cc 8e bb
       0.105177306 0.040740542 -0.09030251 -0.0043578516
000370 0d 46 f7 3d b9 c3 cf 3c 4e 49 01 3e 23 aa c0 3c
       0.12073908 0.025361883 0.1262562 0.023518628
000380 00 4c 1b bd 70 65 90 3d 27 aa 5d 3d 31 b8 84 3d
       -0.037914276 0.07050598 0.054117348 0.06480444
000390 a5 c8 99 bd 2f 20 b5 bd 3c 76 ab 3d 6e 9d 30 3d
       -0.07508973 -0.08844029 0.08372161 0.043118887
0003a0 7c 5d 9f 3d 30 a9 a9 bd ef b1 6d bd f0 be 7a 3c
       0.077815026 -0.08284223 -0.05803102 0.015304312
0003b0 a2 f6 84 bd a7 36 c6 3d e5 72 ca 3d d0 7c ea 3d
       -0.06492354 0.09678393 0.09885196 0.11449587
0003c0 ef 15 d2 3c 51 c4 ca bd 83 10 c9 bc a7 ea 47 3d
       0.025645224 -0.09900726 -0.024544006 0.048807766
0003d0 06 2f 49 bc 44 8b 81 3d 35 3f d0 bc 1b 17 e1 3d
       -0.012279278 0.06325391 -0.025420764 0.10990735
0003e0 00 c1 dd 3d af b1 12 3e 00 0a 80 3d 97 f9 9d bd
       0.108278275 0.14325593 0.06251907 -0.07713621
0003f0 d1 71 26 bd ae 4b 8c bd 98 1f 62 3d d6 9c 78 bb
       -0.040635888 -0.06850372 0.05520591 -0.0037935278

Q1.head.2.bias f4 [64]
000000 40 ff e4 bd 65 6f 07 3d 5e 73 7b 3c 90 3c 5f 3d
       -0.111814976 0.03306522 0.01534733 0.054501116
000010 45 0e 27 bd c8 f8 d9 3c c2 5e 3a bd 0f 64 5d 3d
       -0.040785093 0.026607886 -0.045500524 0.0540505
000020 0d c7 0d 3e c1 fe a5 bd a3 48 96 3d e2 1b a5 bd
       0.13845463 -0.08105231 0.07338073 -0.08061959
000030 05 a3 31 3d 0c a8 0b bc d6 17 46 3d d2 0f bf bd
       0.04336836 -0.008523952 0.048362575 -0.09329189
000040 68 e7 ee 3d 01 f3 58 3d 21 e7 c7 bd 18 ad b4 bd
       0.11665231 0.05296612 -0.09760881 -0.088220775
000050 2d 31 c3 3d 0a a9 b8 bd 05 fe 98 3d 14 0b 7d bd
       0.09530864 -0.09016617 0.074703254 -0.061778143
000060 08 96 af bd f0 de 83 3d a7 17 e7 bc 20 1a c6 bd
       -0.08573538 0.06439006 -0.02820952 -0.09672952
000070 40 be 82 3d e9 51 b2 3d d8 42 02 3e 3c 97 df 3d
       0.063839436 0.08707029 0.12720811 0.109175175
000080 6d cd f7 3c 48 d9 f4 bb 77 c7 d3 bc 1a b8 c5 3d
       0.030249322 -0.007472191 -0.025851948 0.09654255
000090 4f 24 94 bd 22 64 ea 3d e5 51 3e 3d 75 fe 9a 3d
       -0.07233488 0.1144488 0.04646482 0.07568065
0000a0 14 e5 83 3d 36 40 9e bd 85 fd 98 3d a6 22 8c bc
       0.064401776 -0.07727091 0.0747023 -0.017106365
0000b0 78 21 ae bb 76 60 7b bd 1d cd 98 3d a5 74 27 bc
       -0.0053140484 -0.06137129 0.07460997 -0.010220681
0000c0 ae e9 df 3c 5f b1 a1 bd 6f c4 cb 3d c2 4d ec bd
       0.027333107 -0.07895159 0.09949576 -0.115382686
0000d0 56 51 d4 3d e9 28 a6 3d db c9 8b 3c b5 b8 eb bd
       0.10367076 0.08113272 0.017064026 -0.115098394
0000e0 f3 94 d4 bc ad 32 68 bc 9a b9 c1 bd 39 a7 82 bc
       -0.02594993 -0.014172238 -0.09459229 -0.015948879
0000f0 62 24 08 bd 24 e1 1f bd 5b e8 c4 3d 90 6c cb 3d
       -0.033237822 -0.03903307 0.09614631 0.09932816

Q1.head.4.weight f4 [8, 64]
000000 20 48 65 bd 5d 4d 56 3d 30 98 00 3c 88 6a 87 3d
       -0.055976987 0.052319873 0.007848784 0.06612116
000010 e7 b7 15 be c8 a7 7d bd da 29 1c bd 58 48 c0 3d
       -0.14620934 -0.061927587 -0.03812585 0.093887985
000020 f7 1c 97 3d 5d 86 80 bd d0 62 d7 bd c8 92 7f bd
       0.073785715 -0.06275628 -0.10516894 -0.06239584
000030 ff 73 0f bc a6 47 cb ba 3a 12 a7 bd 30 44 10 3d
       -0.008755683 -0.0015509024 -0.08157773 0.03522128
000040 66 77 4e bd 0e 4e 9c 3d 6a 60 75 bd 64 c1 8f bd
       -0.050406836 0.07632075 -0.0599064 -0.07019308
000050 a0 38 0f bc c8 df 49 3c 01 8c 2f 3d ec ea f9 3d
       -0.008741528 0.01232142 0.042858128 0.12203011
000060 98 55 a2 bd 96 73 ac 3d 9d 4e d9 3c 08 b1 c8 3d
       -0.07926482 0.08420484 0.026526744 0.09799391
000070 09 19 8f 3b e7 0a 61 bd fe 6f 42 bc 74 93 8e bc
       0.004366998 -0.054942038 -0.011867521 -0.017404296
000080 69 81 db bd f5 e7 9c bd 2c e5 c1 3d 0c 2c 28 ba
       -0.107180424 -0.0766143 0.09467539 -0.0006415255
000090 52 94 98 3a b2 e8 88 bc d6 92 03 3c ac c1 ea bd
       0.0011640883 -0.01671252 0.008030614 -0.11462721
0000a0 0b fe 7d bd af 74 69 bd ec 5c 94 bd e0 63 b6 bd
       -0.062009852 -0.056996044 -0.07244286 -0.089057684
0000b0 ff fa dc bc 16 45 b8 3b 45 f6 55 bd ed 78 64 bd
       -0.026975153 0.00562347 -0.052236814 -0.055779386
0000c0 39 44 8a bd ce 80 56 bd 14 c3 fa bd 1a a9 d0 3d
       -0.06751294 -0.05236893 -0.122442394 0.101885036
0000d0 f6 b0 c3 bd 7f 46 1d 3d cb b3 01 be 19 c0 ac 3b
       -0.09555237 0.03839731 -0.12666242 0.0052719233
0000e0 0a 4f 4c bd bc 98 fe bd b4 b4 6b 3c f1 be fd bd
       -0.049880065 -0.124314755 0.014386345 -0.12389935
0000f0 49 f1 ea 3c f4 32 a0 3d 66 65 8b bc 45 4f 1b 3c
       0.028679507 0.078222185 -0.017016124 0.009479349
000100 aa 21 80 bd 76 35 0b 3d 02 b8 ee bd 44 55 d1 3d
       -0.06256421 0.03398653 -0.116561905 0.10221341
000110 4d 11 1d bd 70 5f d4 3c d3 92 e5 3d 57 d4 01 be
       -0.038346577 0.025924414 0.11209645 -0.12678657
000120 e5 8c b2 bd 94 24 87 bb 93 17 19 be a8 ec e8 3c
       -0.0871828 -0.0041242335 -0.14950399 0.028433159
000130 86 2f 00 bd 01 84 12 be 3e 38 29 bd 42 59 bb bd
       -0.031295322 -0.14308168 -0.041313402 -0.09147884
000140 24 be ae bc 3e 6d 9f 3d 62 a8 e1 3d ee 5e ef bd
       -0.0213309 0.07784508 0.110184446 -0.11688028
000150 cf 6e a3 3c 63 ec bc bd 7a 90 a4 3c ee e9 8c 3d
       0.019950299 -0.09224775 0.020088423 0.06880556
000160 73 dc 14 be 3e 64 f4 bd d7 3b 11 be 5e cf a6 bc
       -0.1453722 -0.11933182 -0.14182983 -0.020362552
000170 e1 0f 4c 3c ba 6b 01 be 4d d0 0b bd 2b 61 7c bd
       0.012454958 -0.1263875 -0.034134198 -0.061616104
000180 b3 a8 ce 3d c0 95 17 be a5 11 88 bd 9f 38 c5 bc
       0.100907706 -0.14803219 -0.066439904 -0.02407485
000190 b5 06 02 be ff 10 90 3d 4a 16 05 be ec 4d 84 bd
       -0.12697871 0.07034492 -0.12996784 -0.06460175
0001a0 33 44 b5 bd 69 09 f9 bc 62 81 b0 bd 42 86 a9 3d
       -0.088508986 -0.030399995 -0.08618428 0.08277561
0001b0 bf 81 f8 bd 14 d6 6e bd 29 31 8a bd 7d 2b 0f be
       -0.12134122 -0.05830963 -0.06747658 -0.13981433
0001c0 95 51 19 be 90 e6 66 3c 89 d7 c9 3d 30 8f 9c bc
       -0.14972527 0.014093056 0.09855563 -0.019111246
0001d0 5a ae 98 bd 4b fe fd 3c 86 58 6a 3d dc 46 d5 bd
       -0.0745513 0.031005045 0.05721333 -0.10413906
0001e0 41 ce c4 bd e3 c9 b4 3d 07 77 5b 3d 72 21 13 be
       -0.09609652 0.08827569 0.05358031 -0.14368227
0001f0 3f 3c 2d bc 02 dc c1 bd c5 75 be bd 1a 32 94 bd
       -0.010573446 -0.09465791 -0.092998065 -0.072361186
000200 7a 16 fe 3d 18 20 ac bd 06 f6 af 3d 3a 0a 0c be
       0.12406631 -0.08404559 0.08591847 -0.13675776
000210 0d 03 27 bd ca 83 e7 3d b6 a4 9d bc b4 9e 8a bd
       -0.040774394 0.11304434 -0.01924358 -0.067685515
000220 69 54 a1 bd d7 e0 f1 bd 75 65 5c 3c ac 9d ba bd
       -0.07877428 -0.11810463 0.013451924 -0.09112105
000230 6e c7 d0 bd 99 2a a4 3d c8 6d a2 3d 7e db 85 bd
       -0.10194288 0.08015937 0.07931095 -0.065360054
000240 4d 6f 05 bd 9f 2b 49 bd 0e 89 ac 3d ea d5 e5 bd
       -0.032576848 -0.049113866 0.084245786 -0.112224415
000250 df 46 0d be a6 16 85 3d 30 0c a4 bc bc c5 15 bd
       -0.13796566 0.064984605 -0.020025343 -0.036565527
000260 93 28 15 3d 4e ab b2 3c 2e fd ed bd 31 5c 81 3d
       0.036415648 0.0218102 -0.11620556 0.06316412
000270 64 a8 29 3d 97 2c 5b bd 14 a4 0a be 5e 85 08 3d
       0.041420355 -0.05350932 -0.13539153 0.033330314
000280 71 ad 79 3d b9 ee 21 be 8a dc ec bd 40 cb 17 bd
       0.060956422 -0.15813722 -0.11565502 -0.03705907
000290 c8 4b 0f be 24 18 b9 bd 1f e9 a4 3d a4 8d 63 bb
       -0.13993752 -0.090378076 0.08052277 -0.0034721876
0002a0 ba 08 1d 3d 3c 6d 21 3b b2 74 c3 3d 6f 07 2c 3d
       0.0383384 0.002463176 0.09543742 0.041999277
0002b0 89 1f c9 3c 91 db cf 3d a0 0d 74 bd 68 d8 ba 3d
       0.02455117 0.10149301 -0.059583306 0.091233075
0002c0 b8 e4 81 bc 3e 12 ae 3d 39 6e c4 bd f8 e5 ad bd
       -0.015856132 0.08499573 -0.09591336 -0.08491129
0002d0 f6 e2 81 3d 28 1a c7 bd 8b 62 10 3c 97 f0 06 3e
       0.063421175 -0.09721786 0.008812557 0.13177715
0002e0 4a 3c 50 bc 10 27 d8 bd f5 35 92 bd 99 c9 c9 bd
       -0.0127096865 -0.105543256 -0.07139198 -0.09852905
0002f0 00 54 ca bd 3a 4f 89 3d 45 23 c1 3c 20 a1 b2 bc
       -0.09879303 0.067045644 0.023576388 -0.021805346
000300 64 96 0e 3d 3d 90 ae 3d 80 a3 34 3c 4d 11 d7 3d
       0.034811392 0.08523605 0.01102531 0.10501347
000310 ca ce 70 bc 6c c5 45 3d c0 65 22 3d 52 12 ce 3c
       -0.01469774 0.04828398 0.039647818 0.02515522
000320 35 ab eb 3d e4 d2 0d 3e 76 75 02 3e 50 ed 01 bd
       0.115072645 0.1384998 0.1274012 -0.03172046
000330 e8 5e 8c bc d0 78 07 3e 7f 8e 79 bd 90 a9 5b 3c
       -0.017135099 0.1322968 -0.06092691 0.013407126
000340 cf 8e 25 bd d2 74 86 bc 9c b1 16 bd 3e d0 9f 3d
       -0.040419396 -0.016413126 -0.036790475 0.07803391
000350 82 96 e5 bc 63 a3 49 bd 2a 06 a4 3d a0 6e e2 bb
       -0.02802587 -0.049228083 0.08008988 -0.00691016
000360 a1 98 21 3d df 50 80 bd 95 7e d7 bc 87 fe 66 3d
       0.0394522 -0.06265425 -0.026305476 0.05639508
000370 15 8c b5 3d cf 3c c2 bd 75 f2 73 bd d6 f8 66 3d
       0.08864609 -0.094842546 -0.059557397 0.056389652
000380 8c 40 b0 bd 9f e7 57 bd a2 cd 90 bd d1 17 9c bd
       -0.08606061 -0.052711125 -0.07070471 -0.0762173
000390 69 32 ff bc fc 58 ed 3d 2f b4 c5 bd d1 3f e1 3d
       -0.031151967 0.11589238 -0.09653508 0.109985
0003a0 44 0e ab bd fb 18 5f bd fa 3a 63 bc c0 87 b3 3d
       -0.0835233 -0.054467183 -0.013869042 0.08766127
0003b0 a8 47 b7 bd 47 91 66 bd 69 62 e4 bd d7 20 64 bd
       -0.08949214 -0.05629089 -0.11151583 -0.05569538
0003c0 60 8f 9e 3d 67 46 19 3e 25 00 07 3e c0 2e 08 bd
       0.0774219 0.14968263 0.13183649 -0.03324771
0003d0 88 f6 20 bd 53 a2 58 3d ff 81 a0 3d 38 d6 f8 3d
       -0.03929761 0.05288918 0.07837295 0.12150234
0003e0 b5 9a f7 3d a0 d8 be bb 1d 45 ce bd e2 bb 3e bd
       0.12090055 -0.0058241636 -0.10071776 -0.046565898
0003f0 b9 76 b9 3d 9a ed d9 bd ae ac c2 bd 2d d9 8d bd
       0.09055848 -0.10641022 -0.09505592 -0.069261886

Q1.head.4.bias f4 [8]
000000 c0 a4 2f bd b8 ad 0d be dd 69 fb bd 78 c3 80 3c
       -0.042881727 -0.138358 -0.12276051 0.015718207
000010 04 66 03 3b f9 0f dd 3d 33 65 9f 3d ed c8 ca bd
       0.002004982 0.10794062 0.07782974 -0.09901605

Q2.head.0.weight f4 [64, 8]
000000 f0 5c ba bd 35 3f 8e be 92 9e 91 3d 8a 07 85 3e
       -0.09099758 -0.27782598 0.07110323 0.25982314
000010 a8 50 e6 bd f0 b0 57 ba 2d 77 ca bc 02 ff 9c be
       -0.11245853 -0.0008227965 -0.02471503 -0.30663306
000020 b3 ef ac 3e e4 7b 97 3d 4e b2 a7 3e 0b da 9f be
       0.33776626 0.07396677 0.32753223 -0.3122104
000030 0e 40 dd bd 31 00 cf bd c8 1d e5 3d 70 54 b1 bd
       -0.10803233 -0.101074584 0.11187321 -0.08658683
000040 ea de 52 be 2c b6 96 3e ee b4 8e 3e de 27 b6 3e
       -0.20592847 0.2943586 0.27872413 0.3557729
000050 05 81 66 3e 93 29 7f 3e fe 5e 7e be e2 5c 96 3c
       0.22510155 0.24918203 -0.24840924 0.018354837
000060 5f 09 e3 bd ae 74 01 bd ac db eb 3c fe d4 ad 3d
       -0.11085772 -0.031605415 0.028791271 0.08487891
000070 09 02 56 be fa 5a 6b bd fa 24 27 be 15 53 ba bd
       -0.20899214 -0.05745981 -0.16322699 -0.09097878
000080 31 1f 69 be 9e 1e 3d be 86 ef 7c be e6 2f 7e be
       -0.22765805 -0.18468711 -0.24700746 -0.2482296
000090 cf c9 be bc f8 e5 99 be 70 98 ac be a8 fa 7d 3e
       -0.02328959 -0.30058265 -0.3371005 0.24802649
0000a0 22 7c 87 be ec b7 81 3e d8 52 da 3c fd ff 5e bd
       -0.26461893 0.25335634 0.026650831 -0.05444335
0000b0 af 75 91 3e b7 c7 8a be d5 a8 32 3e 24 e8 69 3e
       0.28410098 -0.27105495 0.17447217 0.22842461
0000c0 51 af 8d 3e a5 ef af be c9 d6 29 3b 8e db cd bc
       0.27672818 -0.34362522 0.0025915375 -0.025129106
0000d0 f2 6c 79 be a6 02 86 3e be 2f 85 bd 34 88 6c 3e
       -0.24357966 0.26173896 -0.06503247 0.23098832
0000e0 c5 da 51 be 8d ea 26 be d2 df ff 3d 5c 41 42 3d
       -0.2049361 -0.16300412 0.12493862 0.047425613
0000f0 5f 6c 63 3e b9 c0 2e 3e 3e 77 8c 3e 49 0d 8a be
       0.22209309 0.17065705 0.27434725 -0.2696326
000100 58 9c a3 3d 7d 73 86 3e 4e 0d 24 be aa 38 62 be
       0.079888046 0.26259986 -0.160207 -0.22091928
000110 db f4 af 3e 02 98 97 be 97 79 83 be d7 29 99 be
       0.34366497 -0.2960816 -0.25678703 -0.29914734
000120 aa 26 ab 3d c8 8f b8 3d f1 e2 9e be 47 ff 5a 3e
       0.08356984 0.09011799 -0.31032518 0.21386443
000130 80 0e f1 3d 8b 1b 02 3e 2f ea b3 be d3 85 a5 be
       0.11770344 0.1270582 -0.35139605 -0.32328662
000140 f6 6a 92 be 03 06 1a be dc 6b a6 be a2 cc 4e 3e
       -0.2859723 -0.15041356 -0.32504165 0.20195249
000150 51 97 29 bd 48 e1 07 be e3 b4 a2 3e d0 6b 32 3d
       -0.041404072 -0.13269532 0.3177863 0.04355985
000160 8d 0e 3b 3d 0c 4d 4b be 87 29 d5 bd c7 c6 98 be
       0.045668174 -0.1985361 -0.10408311 -0.29839155
000170 a1 e0 5d be dc 8b be 3e 39 1f 6c be e0 8b 46 3e
       -0.2166772 0.3721608 -0.23058785 0.19389296
000180 04 b9 71 3e 54 74 5d 3e 92 5d 90 3e c4 f2 a6 3e
       0.23605734 0.21626407 0.28196388 0.3260709
000190 0b 51 4f 3e 96 c1 75 bb d9 66 db bd dc 7d b0 be
       0.20245759 -0.003749942 -0.10712976 -0.34471023
0001a0 97 72 41 3e cd 13 ab bd 43 a0 4d 3d c6 86 83 bd
       0.18891369 -0.08353386 0.050201666 -0.0642219
0001b0 01 af 63 3e 1d bd 61 bb 3c d8 85 3e 42 15 86 3e
       0.22234727 -0.0034444996 0.26141536 0.26188093
0001c0 22 13 e8 3d 70 c5 15 bd d2 ba 18 3e 0c c3 52 be
       0.11331774 -0.036565244 0.14915016 -0.20582217
0001d0 af b0 68 3e 8c f9 83 3e 22 49 5f 3d bd 47 06 bd
       0.2272365 0.25776327 0.054513104 -0.03278326
0001e0 fb c2 92 3d 62 97 9f 3e a8 37 a0 3d 2b 5d 24 be
       0.07166096 0.31170183 0.078231156 -0.16051166
0001f0 2e 5f 7a bd 1f b3 b1 be 2b cd 2d bb 55 5c a9 be
       -0.061125927 -0.3470697 -0.0026519995 -0.33078256
000200 c7 e6 8e 3d 5c 09 28 3d 5d 6c 9f 3e bb a0 b3 bd
       0.06977611 0.04102455 0.31137362 -0.08770891
000210 c4 85 52 3b 03 66 9d 3c 20 80 13 be 4b 97 06 be
       0.0032123188 0.019213682 -0.14404345 -0.13143651
000220 a7 1d 11 be c4 16 13 be f8 df 3c 3d 04 4b 08 3e
       -0.14171468 -0.14364153 0.04611203 0.13309866
000230 f4 8a 77 3d c3 51 8c 3e 9d 8d 37 bd d5 7f dd 3d
       0.06043525 0.2740613 -0.044812787 0.10815398
000240 12 01 99 be b2 0f 54 3e 8d 1a 8f 3e b6 9e 1d 3e
       -0.2988363 0.20709112 0.27949944 0.15392575
000250 f9 ce 64 be 28 52 f5 3b 8a 88 98 be 1a 96 a4 be
       -0.22344579 0.0074866004 -0.2979167 -0.32145768
000260 62 ff 86 3e 1b 70 1a 3e 70 c2 82 3e 5e 8d 77 3e
       0.26366717 0.15081827 0.2553897 0.24175021
000270 79 1e 60 bd 7b d6 2a 3e 56 e5 29 be aa 6e 94 be
       -0.05471656 0.1668338 -0.16591391 -0.2899068
000280 5b 59 37 bd 2e 00 5a be d0 31 a7 3e b6 45 90 be
       -0.04476295 -0.21289131 0.3265519 -0.28178185
000290 82 49 a1 3e a8 9a 70 bd 92 e0 85 3d 82 21 a2 3e
       0.31501395 -0.05874124 0.06536974 0.3166619
0002a0 cd 66 2e be b5 23 16 be f8 8b 07 3e 76 6f 9b bd
       -0.17031403 -0.14662059 0.13236988 -0.07589619
0002b0 61 12 80 3d 0c a5 7a 3e a2 85 6e 3b 24 de 6d 3e
       0.062535055 0.24477023 0.003639557 0.23229271
0002c0 b0 73 20 be 8d c1 10 3e 52 3a 06 3d c8 60 87 be
       -0.15669131 0.14136334 0.032770462 -0.26441026
0002d0 bb 83 1e bd ac 02 02 3e 9b 5c 60 be 41 6a 9c 3e
       -0.038699847 0.12696332 -0.21910326 0.30549815
0002e0 e2 e0 53 be 25 cb 38 3e 0a 30 f6 3c a2 21 41 be
       -0.20691255 0.18046243 0.030052204 -0.18860486
0002f0 44 e8 91 3e 47 12 83 bd 2e c7 6e bd e8 10 d7 bd
       0.28497517 -0.063999705 -0.05829542 -0.105012715
000300 8e 00 b8 be aa 9e 4e 3e eb 0b 32 be 28 cc 61 3e
       -0.35937923 0.20177713 -0.17387359 0.22050536
000310 5f 04 3f 3e 43 17 4f 3e c3 d4 f4 3d 3c d8 de 3d
       0.18654011 0.20223717 0.119546436 0.10881087
000320 e1 a2 98 be 40 1c 2f bc 42 66 19 be ed 93 93 3e
       -0.29811767 -0.010687888 -0.14980415 0.28823796
000330 07 bb 15 3e 8f ad 0e 3b f0 75 9d be 9f 62 a6 be
       0.14622127 0.002177093 -0.30754042 -0.32497117
000340 9c c5 98 be 50 0a 77 3e af 4f 5e 3e 2a dc a2 be
       -0.29838264 0.24125028 0.21710084 -0.31808597
000350 2a 9a a4 be dc 59 96 3e a9 35 18 3e 65 26 68 be
       -0.32148868 0.29365432 0.1486422 -0.22670896
000360 31 74 56 bd 77 99 55 3e a2 ca 33 3e 62 ed 9d 3b
       -0.052356903 0.20859323 0.17557767 0.004819558
000370 73 c0 20 be ee 17 01 be f6 43 ef bd 60 b2 60 be
       -0.15698414 -0.12606785 -0.116828844 -0.21943045
000380 69 a6 6d be 12 7d 86 3e cd 85 84 3d c1 31 e7 3d
       -0.23208012 0.26267296 0.06470833 0.11288787
000390 ec c3 78 be 66 4f 98 3d f3 53 a2 3e 48 f2 4d 3e
       -0.24293488 0.07437019 0.31704673 0.20111954
0003a0 a5 5d ad bc 3d be 22 be 5d c2 ac 3e ad bb 17 be
       -0.021162817 -0.15892883 0.33742037 -0.14817686
0003b0 84 2b a1 bd 9e f5 15 3d 31 a0 d3 bd 0f 72 af bc
       -0.07869628 0.036611192 -0.103332885 -0.021416692
0003c0 6d b7 b9 bd 28 11 63 be 93 82 57 bc da 4b 0b 3e
       -0.09068189 -0.22174513 -0.01315369 0.13603154
0003d0 c8 67 a9 be b6 cd 10 3e 80 37 42 3d 49 9f 6c be
       -0.3308699 0.14140972 0.04741621 -0.23107637
0003e0 c2 c6 86 3e 34 0a 76 3e 2c 7e fd 3d 4d 8b 0a be
       0.26323515 0.2402733 0.12377581 -0.13529702
0003f0 ed 46 bb 3d 9c 86 1a 3e cd d1 3f bd 7d c0 10 be
       0.091443874 0.15090412 -0.04683094 -0.14135928

Q2.head.0.bias f4 [64]
000000 7a d1 2b bd 9c a5 21 be 79 17 be 3e 12 d3 7f be
       -0.04194782 -0.15785831 0.37127283 -0.2498286
000010 5a a9 60 ba cf 1e 53 be 57 54 8f 3e 38 30 85 3e
       -0.0008570157 -0.20617221 0.27994034 0.2601335
000020 1f 06 45 be 62 df 98 bc 0a ba de 3c a4 2a 9e be
       -0.19240616 -0.018661205 0.02718832 -0.30891907
000030 bd c4 b0 3e 3a 00 1d 3e 9c ef ac bc 47 fa a6 3e
       0.345251 0.15332118 -0.021110348 0.3261282
000040 f7 af 53 3e 5c 85 2e 3e a9 2c 30 3e 15 de de bd
       0.20672594 0.1704306 0.17204536 -0.108822025
000050 41 77 99 be 2d 40 27 3e 93 3e 1d bd 48 e6 53 3e
       -0.29973796 0.16333075 -0.038389754 0.20693314
000060 66 cf 77 be 1d 62 16 3d 37 5b 96 3e 71 03 b5 3d
       -0.2420021 0.036714662 0.29366466 0.08838547
000070 03 9d 7c be f2 b4 0a 3e 5f 48 c2 3e be 29 f3 bd
       -0.2466927 0.13545588 0.3794584 -0.11873196
000080 c0 19 1d bd b4 2a 71 3e 4c 61 82 3e fa f7 13 3e
       -0.038354635 0.23551446 0.25464857 0.14450064
000090 cd 65 54 3d 2e 96 96 3e 0c 3f b8 3e 00 3a a1 be
       0.051854897 0.29411453 0.359856 -0.31489563
0000a0 d1 d9 61 3e 87 60 97 3e 88 6a 4c 3e 0b 54 2d 3e
       0.22055747 0.29565832 0.19962513 0.16926591
0000b0 a1 4b 1c 3e 60 c2 97 3e 22 51 85 3d fd 49 b3 3e
       0.15263225 0.29640484 0.065096155 0.35017386
0000c0 9d ea 1e bd e3 1d 5c 3e 1a f9 9c 3e 9f 56 19 3d
       -0.038797963 0.21495776 0.306588 0.037436124
0000d0 9a 2f 8b 3e 0e 9a 80 3e 18 7f 23 3e 96 4b ef bd
       0.27184755 0.25117534 0.15966451 -0.11684339
0000e0 17 34 80 be 56 95 2c 3e 16 12 4a 3e cf 0e a2 be
       -0.2503974 0.16853842 0.19733462 -0.31651923
0000f0 b2 f5 cc 3c 27 0c cc 3c f3 3c 65 bd 99 5c 4a 3e
       0.0250195 0.024908138 -0.05596633 0.19761886

Q2.head.2.weight f4 [64, 64]
000000 36 02 d6 3d 79 a1 14 bd c3 1f 98 3d bc 52 be 3d
       0.104496405 -0.036286805 0.07427933 0.09293124
000010 6d f9 e7 bb 50 75 a5 3d 70 1b 15 3e f4 30 64 3c
       -0.0070792944 0.08079016 0.14561248 0.013927687
000020 d6 d7 cb bd 6e 99 ce bd 38 8a c7 3d 3a a3 84 bd
       -0.09953277 -0.10087858 0.0974316 -0.064764455
000030 f6 6e 0e 3e e7 4b 3e 3d 22 e7 a6 bd 06 75 17 3e
       0.13909516 0.046459105 -0.08149554 0.14790735
000040 3e 33 fa 3d 02 d3 64 bc f8 a0 18 3b aa c7 8b bd
       0.12216805 -0.013966324 0.0023289304 -0.06825192
000050 2a 0f 55 bd ac 1c 67 3d 48 61 c6 3b 30 32 6f bd
       -0.052016415 0.056423828 0.0060540773 -0.058397472
000060 36 b9 28 bd 5b 7f 83 3d 85 a2 62 3d 67 0c 5d 3d
       -0.041192256 0.064207755 0.055330772 0.053966906
000070 d1 aa bd bd 30 f6 fc bc 92 f2 70 3d db 23 bd 3d
       -0.09261096 -0.03087911 0.058825083 0.092353545
000080 b2 49 85 3c 9b 10 90 bd 87 40 8a 3d 48 6b 5c bd
       0.016270492 -0.07034417 0.06750589 -0.05381325
000090 32 0c bf bd 41 d1 e9 3d 5b 12 cc 3d d8 90 aa bc
       -0.09328498 0.11416865 0.099644385 -0.02082102
0000a0 50 b0 d0 3d c3 c1 ba bc fb ab 7f 3d 8b 14 c4 bd
       0.10189879 -0.02279747 0.062419873 -0.09574231
0000b0 3b 96 1a bd 87 67 3e 3a 21 7c 48 3d 8e 13 a7 3d
       -0.037740927 0.00072633516 0.048946504 0.08158027
0000c0 3e e3 eb 3c 7a d4 15 bd 16 13 fc 3d 87 7d a5 3d
       0.028794881 -0.036579587 0.12308328 0.08080583
0000d0 05 a0 47 bd 46 66 f3 3c f4 fd 0e 3e 4a a1 23 bd
       -0.04873659 0.029711854 0.13964063 -0.03994874
0000e0 3c 54 02 be bb ca f0 3d 97 7b 9d 3d f1 44 72 3d
       -0.12727445 0.11757418 0.076895885 0.05914778
0000f0 59 ef c3 3c ed c0 84 bc 7b 90 8d bc f1 ce 9d 3d
       0.02391784 -0.016205275 -0.017280808 0.077054866
000100 95 e0 95 bc ff 61 52 bd 8f 02 94 3c f4 5b 18 3d
       -0.018295566 -0.051362988 0.018067626 0.03719707
000110 63 25 f3 bd de 1a d0 3c d7 cb a5 3d 31 f5 52 bd
       -0.11872365 0.025403436 0.0809552 -0.051503364
000120 6e e9 d1 3d cd c4 39 3d ec 98 b6 3d 10 e2 9e 3d
       0.10249601 0.0453537 0.08915886 0.07757962
000130 f9 4b ce 3c bd 17 a8 3d 91 5b b3 bd 53 29 ea 3d
       0.025182711 0.08207653 -0.08757699 0.11433663
000140 a1 19 ba 3b 34 cd c0 3c b9 ba e8 bc d1 27 95 bd
       0.0056793247 0.023535348 -0.028409349 -0.07282985
000150 60 d4 73 bd 98 61 ad 3d 14 10 6a bc 81 2f 09 3e
       -0.05952871 0.0846588 -0.01428606 0.13397028
000160 45 72 14 bd d2 d1 d1 bd 6f 3f 33 bd 1a 67 9c 3c
       -0.03624179 -0.10245098 -0.043761667 0.019092131
000170 1d 36 7c bd 97 c5 24 bd 83 ef a6 3d 9e 46 73 3d
       -0.061575044 -0.0402275 0.08151152 0.059393518
000180 05 7d b1 39 8b bb 94 bd 36 ce a0 bd ef b3 8a 3c
       0.00033853218 -0.072623335 -0.078518316 0.016931502
000190 0c 86 c4 bd 3c fe 5d 3d c8 d7 c1 3c 30 5c ae 3c
       -0.0959588 0.054197535 0.023662463 0.021284193
0001a0 34 1e 4e 3c 67 0c ce 3d f9 7d 38 bd 5f 6d aa bd
       0.012580443 0.10060959 -0.045042012 -0.08321642
0001b0 ff a5 65 bc bc 09 9b 3d ae 31 a4 bd 11 b8 27 3d
       -0.014016627 0.07570216 -0.08017288 0.040947024
0001c0 7b 4f ea 3d f7 07 d2 3d 28 3d a4 3d 29 58 a5 bc
       0.11440941 0.102554254 0.08019477 -0.02018364
0001d0 f5 ee 50 3d 24 62 a3 3c 1c af eb 3d 92 92 a3 3d
       0.051009137 0.019944258 0.11508009 0.079869404
0001e0 91 1f ec 3c aa 61 58 3d 10 e9 83 3d d0 80 c7 3c
       0.028823646 0.052827515 0.064409375 0.024353415
0001f0 c7 41 3c 3b 4e fc 85 bd 07 9c 5c 3d 0e 4b 1b 3d
       0.002872573 -0.06542264 0.053859737 0.037913375
000200 ba 0c e6 3d 81 53 7f 3d 5d 48 a4 bd 00 1e 82 bc
       0.11232896 0.062335495 -0.08021615 -0.015883446
000210 88 4d d1 bd cf 9b e2 3d 67 78 8a 3c fd 54 8d bd
       -0.10219866 0.110648744 0.016903115 -0.06900976
000220 01 4a f8 3d 70 9d e2 3d 9a ae 9c ba 88 6c 46 3d
       0.1212349 0.11065185 -0.0011953891 0.048443347
000230 0e de a2 3c ae 5f e4 3a 6e a5 6e 3d e5 f9 d1 bb
       0.019881275 0.0017423534 0.058263235 -0.0064079636
000240 88 49 31 bd c7 9d 68 3d a5 38 c9 bc 5d cb be 3d
       -0.043283015 0.056791093 -0.024563143 0.09316132
000250 34 7d dc 3d f4 e5 5a bd 08 ca 02 3d 9f 5d 0b 3d
       0.10766068 -0.053441957 0.031930953 0.03402483
000260 f1 de 96 3d 26 ed ef 3c 63 34 0c bc e8 1b 0b 3d
       0.073667414 0.029287886 -0.008557412 0.03396216
000270 a5 9a ea bd 5d 35 15 3c dc c6 df bd 96 d5 a0 bc
       -0.11455277 0.009106961 -0.10926601 -0.019633096
000280 2e 85 a7 3d 25 78 3e bd be ee 89 3b 2a 2f ec 3d
       0.08179699 -0.046501298 0.0042093685 0.11532433
000290 3e e8 29 3d 33 71 a0 bb 96 13 d8 3c 68 89 6e bd
       0.04148125 -0.004896307 0.026376527 -0.05823651
0002a0 6d 6b 15 3d 59 3b fa 3d 16 65 3b 3d 8d 58 f1 3d
       0.036479402 0.12218351 0.0457507 0.11784468
0002b0 6a 03 c0 3d 61 00 24 bc 11 f1 89 bb db 84 a5 3d
       0.09375651 -0.010009856 -0.0042096456 0.08081981
0002c0 8e 64 ef 3c 51 86 53 3d e0 59 bf bd 11 4f 56 3d
       0.029222753 0.051641766 -0.09343314 0.052321497
0002d0 f9 a9 00 3d 89 e0 d0 bd 6a 07 32 3d 4b eb 96 3d
       0.0314121 -0.10199077 0.0434641 0.07369097
0002e0 02 a1 a9 3b dc 47 f4 bd 10 b8 f5 3d 72 97 e3 bd
       0.0051766643 -0.119277686 0.11997998 -0.1111287
0002f0 c5 ee ce 3d 67 2a e0 3c 89 c3 03 bd 9c e7 8d bd
       0.101041354 0.027363969 -0.0321689 -0.069289416
000300 9c 31 d4 3d 8a d5 d2 3d d8 2d 79 bd e0 8e 91 bc
       0.10361025 0.102946356 -0.060834736 -0.017768323
000310 14 21 aa bd 15 21 41 bd 62 c7 17 3c 6a ea 09 3e
       -0.083070904 -0.04715069 0.009263845 0.13468328
000320 fd 84 5c 3c 90 01 09 3e 99 60 05 be 04 a7 0a bc
       0.013459441 0.13379502 -0.1302513 -0.008462671
000330 4a 3d 24 3d a5 c7 13 bd 9b 26 99 3c 35 2b c4 3c
       0.040097512 -0.036079068 0.018695166 0.023946384
000340 38 17 ea 3d 01 fa 92 3b 1f f3 81 3a d7 13 8f 3d
       0.1143021 0.004485369 0.0009914375 0.06986206
000350 3b 4d fa bc 08 b1 d5 3d e4 0d f1 3d 16 5b 43 bd
       -0.030554404 0.10434157 0.117702276 -0.04769429
000360 72 58 58 3c b8 38 82 bc 23 a6 f7 3d 8b ae e8 3b
       0.013204681 -0.015896186 0.12092235 0.0071008853
000370 30 a7 f6 bc 69 be dc 3d a1 89 27 3d 26 f0 b2 3d
       -0.030109018 0.10778505 0.040902738 0.08737211
000380 7a 58 50 bd 66 4e ad bd 4d 05 1e 3d ee 55 03 3e
       -0.050865628 -0.08462219 0.038579274 0.12825748
000390 e1 95 f1 3d f9 6c e6 bc dd b7 08 3e 92 0c 9f bd
       0.11796165 -0.028128134 0.13351388 -0.077660695
0003a0 27 9d 0e 3e ba 55 85 3c 3f 83 2d bd 66 e3 58 3d
       0.13927136 0.01627623 -0.042361494 0.05295124
0003b0 70 47 fd 3d f2 66 d4 3d 37 1a 47 bd f1 ed 59 3d
       0.12367141 0.10371198 -0.048608985 0.053205434
0003c0 fc 44 7d 3d b7 e6 a1 bb 6b 20 1a 3d 56 79 00 3e
       0.061833367 -0.0049408334 0.037628572 0.12546286
0003d0 ce ef 51 bc d5 b4 f1 3d a5 9f bd bd de 9b 51 bd
       -0.012813522 0.11802069 -0.092589654 -0.051174037
0003e0 f9 15 0b 3d 4a c0 d6 bc bc 45 8c bd e0 c6 dd bc
       0.0339565 -0.026214737 -0.06849238 -0.02707237
0003f0 e1 61 6e bd da 38 76 3d b7 46 93 3d 0a d7 95 bd
       -0.058198813 0.06011281 0.07191222 -0.07316406

Q2.head.2.bias f4 [64]
000000 cd d9 54 3d 50 33 b6 3d 33 7e 97 3d 66 2d 79 bd
       0.051965524 0.08896506 0.073971175 -0.06083431
000010 ae 6a a1 3d cc 86 2c bd df 62 b7 3b 5d eb 12 bd
       0.07881676 -0.04212074 0.005596503 -0.03586899
000020 c0 c1 69 3c 6c 87 04 bd 39 c5 a0 3d f9 de 71 bc
       0.014267385 -0.03235571 0.07850117 -0.0147626335
000030 a8 a0 1c bd 02 79 43 3d d2 d4 91 3d 6c 7e 59 3d
       -0.03823915 0.047722824 0.071206704 0.05309908
000040 08 95 84 3d fb 89 02 bd 79 74 04 bd cb 71 87 3d
       0.06473738 -0.03186987 -0.03233764 0.06613501
000050 f8 02 ff bd ef ad bf 3d 14 40 b3 3d d4 f7 68 3d
       -0.12451738 0.09359347 0.08752456 0.056876972
000060 e5 49 d0 3d 59 a3 10 3e e2 ef df bc 4f b8 8f bd
       0.10170344 0.14124812 -0.027336065 -0.07017576
000070 76 4d a4 bd 7e e1 96 3d 7e 8a b1 bd 13 97 f2 3b
       -0.08022587 0.07367228 -0.086689934 0.0074032634
000080 a8 11 9b 3b e7 c2 c7 bd ce a5 70 3d 54 79 83 bd
       0.0047323294 -0.097539715 0.058751874 -0.06419626
000090 bc 96 c9 3c 38 e5 52 3d 97 c4 27 bd e8 94 34 bc
       0.024608009 0.05148813 -0.040958967 -0.01102183
0000a0 c6 db 85 bc 62 77 4b bc 1f 30 1b 3d c3 8c d3 3d
       -0.016340148 -0.0124186 0.03788769 0.103295825
0000b0 3a ab e1 bd 17 b4 09 3e e7 ca 17 3e c2 29 8c bd
       -0.11018987 0.13447605 0.14823495 -0.06843902
0000c0 2f 2b bc 3d 44 ce 5c 3d 6a ae 64 bd a7 46 9a 3b
       0.09187924 0.053907648 -0.055830397 0.0047081294
0000d0 81 bf c6 bb 89 83 e4 3d e0 77 64 bd 82 44 ff bc
       -0.0060653095 0.11157901 -0.055778384 -0.031160597
0000e0 1a 69 b0 3d d2 b5 91 bd 4b 77 f3 bd 6d cf 02 3e
       0.086137965 -0.071147576 -0.11887988 0.12774439
0000f0 a3 64 3b 3c 86 a3 48 3d 14 90 b2 3c e8 24 57 bd
       0.011437568 0.048984073 0.021797217 -0.05252543

Q2.head.4.weight f4 [8, 64]
000000 40 18 10 3c 17 a5 d2 3c 52 85 c6 bc e3 e8 de 3c
       0.008794844 0.025713487 -0.024233494 0.027210658
000010 33 77 f2 bd 68 d9 05 3d 42 6c d1 3d 7a 91 44 bc
       -0.11839142 0.032678038 0.10225727 -0.011997575
000020 ee a6 ee 3d cf 8d 5c bd 18 4c a6 bd ca 4b c2 bc
       0.11652933 -0.053846177 -0.081199825 -0.02371778
000030 10 af a3 3d 30 8d 7a bc 97 4f e6 bd c9 54 82 3d
       0.07992375 -0.015292451 -0.11245649 0.06363828
000040 71 ed 56 3c a4 75 f7 bd 5e 26 78 3c 33 f8 27 bc
       0.013118134 -0.12082985 0.015145866 -0.010252046
000050 d0 f8 0a 3d cb 0f 1f bd 04 9e c2 3d 65 cb fb bd
       0.033928692 -0.03883342 0.09502795 -0.12294654
000060 25 a7 11 bd ee 99 55 bb 16 67 86 bd c2 18 07 bc
       -0.035559792 -0.003259297 -0.06562631 -0.008245649
000070 ba d9 f6 bd 8c b1 f2 bc ba 18 90 bb 4b 04 c3 bc
       -0.12053247 -0.029625677 -0.004397479 -0.023805758
000080 cc 3b 19 be 35 2f 35 3d a8 69 a5 bd d2 91 cf 3d
       -0.14964217 0.044234473 -0.08076793 0.10135235
000090 a1 ae 01 3e 62 63 c7 3d f2 bb c5 3d d0 3b 85 3d
       0.12664272 0.09735753 0.09654988 0.06505549
0000a0 b4 cc c5 3b 73 81 31 3d b7 8f 7b bd 18 6b ec bc
       0.0060363654 0.043336343 -0.061416354 -0.02885966
0000b0 64 97 c3 bd 58 2f 39 bd 8e 04 87 bc 88 6d a3 bc
       -0.0955036 -0.045211166 -0.016481664 -0.01994969
0000c0 79 75 11 be 8c f1 3c bb 7a 71 4b bd c8 b6 51 bd
       -0.14204969 -0.0028830497 -0.049668767 -0.051199704
0000d0 47 fa a7 bd 75 db 9a bd 58 39 a0 3d 19 d4 10 3d
       -0.082020335 -0.07561389 0.078234375 0.035358522
0000e0 0f 65 04 bd e5 83 57 bd 00 84 8d 3a 75 30 da bd
       -0.03232294 -0.05261602 0.0010796785 -0.10653774
0000f0 20 1c fc 3d 02 62 eb bd f6 4a 60 3d 52 61 de bd
       0.12310052 -0.11493303 0.05475899 -0.10858406
000100 d5 56 e8 bd 42 f1 17 be fa b2 be bd 8f f9 10 be
       -0.11344687 -0.14838126 -0.09311481 -0.14157699
000110 60 fe c2 bd b0 ea db bc 58 cb 1e 3d 7e f1 4f bd
       -0.095211744 -0.026845306 0.038768142 -0.050767414
000120 e2 af 97 3d 09 bd fc bd 95 1d 05 be 3c 1e 03 be
       0.07406594 -0.12340743 -0.12999566 -0.12804502
000130 ae 2e d3 bd d7 4c dd 3c 4d 9e 83 3d 74 25 0b 3d
       -0.10311638 0.02701418 0.06426678 0.033971265
000140 dd 70 74 bc 42 e3 92 3d 18 a7 a0 bc 45 6f 4d 3d
       -0.014919487 0.07172252 -0.019610927 0.050154943
000150 b8 bc 90 bd b5 43 81 bb c6 c4 90 bc d1 9a a3 3d
       -0.07067245 -0.003944839 -0.017671954 0.07988513
000160 95 16 a2 bd 1b 8e 54 3d 6d a6 95 bc e2 fb a4 bd
       -0.079144634 0.051893335 -0.018267835 -0.08055855
000170 f4 4d 5a bd 86 29 12 be 83 fd 9b 3d e5 e0 4e 3d
       -0.053297 -0.14273652 0.07616713 0.050507445
000180 4e 05 f7 bd b2 2a a6 bd 3a 60 2e 3d 2f 51 a6 3d
       -0.12061559 -0.08113612 0.042572238 0.08120953
000190 75 bc af 3d 15 dc 86 3d 74 95 2c bd f3 a5 a6 3d
       0.08580867 0.06584946 -0.042134717 0.08137121
0001a0 bc 4b d9 bd 2e d2 68 bd 39 67 fc 3c 70 f6 fb 3c
       -0.10610148 -0.056841068 0.03081094 0.030757159
0001b0 70 d0 c8 bc 92 4e bb bd b1 b1 aa 3c b2 30 89 3d
       -0.024513453 -0.091458455 0.020836683 0.06698741
0001c0 f3 b7 f4 3c 02 5d 99 bc cc 92 2e bb 27 d8 ca bd
       0.02987287 -0.018721107 -0.002663779 -0.09904509
0001d0 5f 4c 19 be 5c a2 01 be b2 a7 b0 3d 8f c1 88 bc
       -0.1497054 -0.12659591 0.08625735 -0.016693858
0001e0 57 0b 91 3c a8 7d 90 3d 36 b8 9f bd d2 ea 8e bc
       0.017705603 0.07055217 -0.07798807 -0.017445955
0001f0 81 43 c9 3d d3 b1 9c 3c e1 cd cc 3d c0 b8 72 3d
       0.098273285 0.019127762 0.10000206 0.059258223
000200 90 6d e8 bd 73 c1 08 be 36 20 3a bd f3 d7 0b be
       -0.113490224 -0.13355045 -0.045440875 -0.13656597
000210 9b 53 d3 3c 0c 5e b8 3d 43 96 9f 3d cc 03 f2 3d
       0.025796702 0.09002313 0.07792332 0.118171304
000220 44 c1 4f bd cb e6 81 3d 96 3c 06 be 2b b3 af bd
       -0.05072142 0.063428484 -0.13109049 -0.085790955
000230 a0 83 db 3b 74 09 88 3d be 16 dc bd db 1e 03 be
       0.0066990405 0.06642428 -0.10746525 -0.12804739
000240 8a 4c 0c be e3 5f f0 bb 75 6f 81 3d 92 ba c0 3d
       -0.13701072 -0.0073356493 0.06320087 0.094105855
000250 c9 74 c0 3d 3c 09 c9 3d 14 da b4 3d 29 3b 11 be
       0.09397275 0.098162144 0.088306576 -0.14182724
000260 89 7a 1a be 1d ac 03 3c 79 da c3 bd 83 de 29 3d
       -0.15085806 0.0080366405 -0.09563155 0.04147197
000270 0a cf d8 3d a6 f4 fd bb 2e 1f 0f bd 76 db 2e bd
       0.105863646 -0.0077501116 -0.034941845 -0.042689763
000280 de 2c bc bd ab 29 bf 3d 4d ee 85 bd fd 67 bf 3d
       -0.09188245 0.093341194 -0.06539593 0.09346006
000290 1c 2a f0 3c 73 6c 54 bc 23 db ad 3d f4 7b 85 bd
       0.029316954 -0.012965309 0.08489063 -0.06517783
0002a0 8b fe 41 3d 84 68 65 3c 31 46 0f be 49 ef dc bd
       0.04736189 0.014001969 -0.1399162 -0.107878275
0002b0 49 50 f3 3d 8a 7f 28 bd 4e 5a aa bd 36 6a ba bd
       0.118805476 -0.041137256 -0.083180055 -0.091022894
0002c0 5e 96 ce bc c8 63 f4 bd 26 85 9c bd 4c 4e c2 3d
       -0.025218185 -0.11933094 -0.076425835 0.0948759
0002d0 1c 37 bb 3d 89 9f a6 3d dd e8 09 bd 15 5e d2 bd
       0.09141371 0.08135898 -0.03366934 -0.10271851
0002e0 f6 90 42 3d 71 f0 0b bd 3c 64 af bd 4b f6 11 3c
       0.047501527 -0.03416485 -0.0856404 0.0089088185
0002f0 77 bc 94 bc 98 ea bf 3d c7 29 db 3c 5c ef 52 3d
       -0.018156273 0.09370917 0.02675332 0.051497802
000300 1b 66 71 3d 05 3f 8a 3d 2c b7 d5 bd 4f c6 90 3c
       0.058935266 0.06750301 -0.10435328 0.017672686
000310 d6 30 82 3d 5a 16 a2 bd 92 7d d2 3d 9a ec 96 3c
       0.06356971 -0.079144195 0.10277857 0.018423367
000320 e0 38 6a 3c ec c2 9b 3d b3 d4 b8 bc 63 2f d2 3d
       0.014295787 0.07605538 -0.02256236 0.102629445
000330 dc 35 6c 3d 98 0b 96 3d 42 64 46 bd 15 af 05 bd
       0.05766855 0.0732643 -0.048435457 -0.032637674
000340 d9 fc 88 3d 1d 88 f1 3c d3 80 32 bd 87 ab 22 3b
       0.06688852 0.02948385 -0.043579888 0.0024821477
000350 f9 90 28 3d 92 23 1a bd fe d0 0d 3e a7 3c 92 3d
       0.04115388 -0.03763158 0.13849255 0.07140475
000360 77 c9 e7 3d c3 0d 39 3d 3e 9a 25 3d f1 11 9e bc
       0.11317723 0.04517914 0.0404303 -0.019295665
000370 bc fb 3e bd 63 be d4 3b 24 e7 99 bd ad 64 f0 bd
       -0.04662679 0.0064924224 -0.0751479 -0.117379524
000380 6d 76 62 3c bd e3 85 3d 6a c5 a2 3d d6 fa eb 3d
       0.01382218 0.06537578 0.0794781 0.115224525
000390 36 a4 26 bc 11 e6 d7 3b 18 0d f2 3c 0f 9a be 3d
       -0.010170987 0.0065887053 0.02954726 0.09306728
0003a0 01 f7 ec 3d 36 1b e0 bd 37 7c a4 bc 4b 5e 6f 3c
       0.1157055 -0.1094269 -0.020078762 0.014609884
0003b0 25 27 05 bd 23 f8 dc 3d 44 d8 c8 bd 94 ef ae bd
       -0.032508034 0.10789516 -0.098068744 -0.0854179
0003c0 7f 44 62 bd e8 f3 a0 3d 18 af 6c bd 00 b7 6c 3c
       -0.055241104 0.078590214 -0.05778417 0.0144479275
0003d0 41 5b 70 3c e6 e8 4e 3d 61 52 8a 3b 80 54 97 3b
       0.014670194 0.050515078 0.004221246 0.0046182275
0003e0 fd c7 e1 3d a1 85 b3 3c 38 3f 6f 3d 5c dc 84 bd
       0.11024473 0.021914305 0.0584099 -0.06487343
0003f0 37 db d6 bc 02 ea 9f bd 22 29 b2 bd d2 34 97 bd
       -0.026227577 -0.07808305 -0.08699252 -0.073831216

Q2.head.4.bias f4 [8]
000000 37 33 c2 3d 41 58 09 be 34 fe 83 bd 8d a6 08 3e
       0.09482425 -0.13412572 -0.0644497 0.13344784
000010 70 3f b3 bd 1f b9 3b 3d 02 20 07 be 34 1b 83 bd
       -0.08752334 0.045830842 -0.13195804 -0.06401673
