script/logs/arch/model/best/online_critic.pth (torch, 57106 bytes, 12 tensors)

Q1.head.0.weight f4 [64, 18]
000000 39 cf fe bd ee 78 11 3e 06 49 6a 3e a4 fd aa 3e
       -0.12441868 0.14206287 0.22879419 0.33396637
000010 0d 6d fb 3d 6e d2 0d bc de 10 1f bd 23 18 a4 be
       0.12276659 -0.008656127 -0.038834445 -0.32049665
000020 c6 f6 4a 3e 3e 2a d6 3d e7 d7 2b 3d b2 33 be 3e
       0.19820699 0.10457276 0.041953947 0.37148815
000030 00 6e 9b 3e eb 8b 14 3c 00 c9 e5 3d 3d a3 4c 3e
       0.3035736 0.009066562 0.11219978 0.19984145
000040 7a cf 35 3d c3 45 db 3c ee 86 cb 3c 36 de fc 3d
       0.04438732 0.026766663 0.024844613 0.12347071
000050 85 85 45 be 03 69 d2 bd c9 c6 b0 be d0 c4 80 3e
       -0.19289215 -0.10273936 -0.3452666 0.25150156
000060 b0 e2 10 3e 69 43 8a 3d a9 38 f1 3d 89 d5 bf bd
       0.14148974 0.06751139 0.11778385 -0.093669005
000070 e6 1c cd bd 36 40 3c be 98 43 27 3e f5 61 92 be
       -0.100152776 -0.1838387 0.16334379 -0.2859036
000080 5a 4b 1a be 6a 77 6d 3e 82 ac 68 be 9b d2 4c bc
       -0.15067807 0.23190084 -0.22722057 -0.012501384
000090 69 6b 27 bd 4a 5d 06 be 38 b4 2c be f6 c6 18 be
       -0.04087392 -0.13121524 -0.16865623 -0.14919648
0000a0 eb 60 21 3d e0 a2 2b be b2 5a 4b 3d af d7 9c 3e
       0.03939907 -0.1676135 0.04964704 0.30633304
0000b0 a1 b6 b3 3e 33 46 d2 3b dc ef ac 3d 61 36 11 3e
       0.35100272 0.00641706 0.08444187 0.141809
0000c0 97 90 ff 3d 49 f6 a0 bd 58 6e bc 3d 64 18 6d be
       0.1247875 -0.07859475 0.09200734 -0.23153836
0000d0 5c 15 ce 3e 2e d8 85 be d2 b0 8c 3e 7d 62 48 3c
       0.4025067 -0.26141495 0.27478653 0.012230513
0000e0 1f 99 0f be b3 d0 78 3e 8c 17 b0 bb 7a f8 0b 3e
       -0.14023255 0.24298362 -0.0053739008 0.13669005
0000f0 48 ff 59 3c de 72 b2 bd 9c e7 d7 bd bc 5f 4c 3e
       0.013305493 -0.087133154 -0.10542223 0.19958395
000100 cb 16 99 3b 83 0b 4f 3e 55 cc 52 3e d5 ce 97 3d
       0.0046719066 0.20219235 0.20585759 0.07412497
000110 ee 05 58 3e a4 5d e0 3c 4a fc 1b bd f5 21 75 3d
       0.21096012 0.027388401 -0.0380824 0.059846837
000120 75 24 3d be b4 f8 e9 bd 32 47 62 3e 73 fc 0e 3e
       -0.18470939 -0.114243895 0.22097471 0.13963489
000130 62 3d a9 bd e2 dc 31 3e 92 5b 59 3e d7 b6 3a 3d
       -0.08263661 0.17369416 0.21226338 0.045584526
000140 67 f0 a2 bd 76 06 bb 3e 53 b1 cc 3e 8b c6 af bc
       -0.07956009 0.36528367 0.39979038 -0.021456977
000150 4d 8d 26 3e 71 40 7f 3e b8 65 56 3e 5b 64 2c 3e
       0.1626484 0.24926926 0.2093724 0.16835158
000160 9b 2e 30 3e aa cf 9a 3e 9e 97 3e 3e ed e9 d1 3d
       0.17205279 0.3023656 0.18612525 0.10249696
000170 2c 8d 59 3e 1c ec 4f 3e 0e 11 35 bd 73 e4 87 3e
       0.21245259 0.20304912 -0.044205718 0.2654148
000180 dc 59 11 bd d4 2a d4 3d a7 66 e4 3e fa 10 df bd
       -0.035486087 0.10359731 0.44609568 -0.1089191
000190 ea 6d 48 3e 09 29 51 bd fc 5b 18 be ca 61 81 3d
       0.19573179 -0.051064525 -0.14878839 0.0631748
0001a0 f1 e3 70 3e dc 5e 0d 3e e4 4c af 3d f6 ac 79 3e
       0.23524453 0.13805717 0.085595876 0.24382386
0001b0 99 9c b9 bc cd e4 8b 3e 4b c7 7b 3e 46 60 6f bd
       -0.02265768 0.27323 0.24587743 -0.058441423
0001c0 07 32 3c 3e 3f 31 b9 be b1 c9 f7 3d 5e ea 77 3d
       0.18378459 -0.36170384 0.120990165 0.060526244
0001d0 63 a1 45 bc e3 e5 9e bd 7d 40 63 be 34 5a be 3d
       -0.012062403 -0.07758691 -0.22192569 0.09294549
0001e0 45 d3 74 3e 32 3c ae 3d 32 f9 f3 be 71 dd 0b 3e
       0.23908718 0.08507575 -0.47651058 0.13658692
0001f0 dd 48 fa bd cd 1a 25 3d 12 93 88 be e7 78 47 3e
       -0.12220929 0.040308762 -0.26674706 0.19479714
000200 11 2f 5a bd c9 31 af bc ae b1 8c 3e 34 7b 4e 3e
       -0.053267542 -0.021386044 0.2747931 0.20164186
000210 5b b4 49 be 49 76 8b 3e 2a bc 38 3d 4a 06 8f 3d
       -0.19697706 0.27238682 0.045101322 0.069836214
000220 9d 13 1d 3e b8 10 47 3e c3 f0 50 be 7b 9a 94 3e
       0.15339513 0.19439971 -0.20404343 0.2902411
000230 d9 49 91 3e cb e3 08 3d 5a c1 06 be 69 b0 75 bc
       0.28376654 0.033420365 -0.13159695 -0.014995673
000240 32 eb 7e 3e fa 82 b8 be fa 22 55 3e 17 0d 16 bc
       0.24894407 -0.36037427 0.20814124 -0.009158394
000250 85 e3 84 3e dd d1 2a 3e 4b b5 8c 3e 27 54 81 3c
       0.25954834 0.16681619 0.27482066 0.015787197
000260 88 37 0d bf 08 69 98 3e df b4 d0 be 4d 2d ba 3d
       -0.5516286 0.29767632 -0.40762994 0.09090672
000270 e5 9c ac 3e 78 29 95 bb de 0d 41 3e ff 3a 79 3d
       0.3371345 -0.0045520626 0.18852946 0.06084728
000280 d8 07 f5 3d 3f b8 a6 be 43 b1 a1 3e 75 f6 e4 3d
       0.11964387 -0.32562444 0.31580552 0.111798204
000290 8a b8 81 3d 4b 9a 97 3d 3f 49 ff bc 84 e9 1f bd
       0.06334026 0.07402476 -0.031162856 -0.039041057
0002a0 62 d3 de 3d 9b de 2d be 79 10 0f be c9 e1 8a bd
       0.10880162 -0.16979448 -0.13971128 -0.06781346
0002b0 1a c6 8b bd ec 30 ff 3d d8 e4 f1 ba 9e 32 28 3e
       -0.06824894 0.12460503 -0.0018455042 0.16425559
0002c0 8b b2 6e 3e 61 f1 49 3d 17 4b a0 3e d2 11 0b 3e
       0.23310296 0.049302462 0.3130729 0.13581017
0002d0 fd c2 d4 3e ab ca fe 3d b5 e3 c2 3d 46 b7 22 3e
       0.41555014 0.124409996 0.09516088 0.15890226
0002e0 9b a8 7a bd 73 fb 97 3e cf dc a7 3e 5d 25 1c be
       -0.06119595 0.29684028 0.3278565 -0.15248628
0002f0 94 8c 06 be cc b8 a9 3e 30 58 58 3e 96 de 83 3c
       -0.13139564 0.331488 0.21127391 0.016097348
000300 5c c8 e5 bc af 68 88 3d ed ee 42 3d c4 bf ac 3e
       -0.02804964 0.06660592 0.04759114 0.33740056
000310 ef a2 a6 3d c1 c2 6c 3e 20 c7 b5 3d 5d 38 a9 bd
       0.08136546 0.23121168 0.08875871 -0.082627036
000320 a8 48 cd 3d e9 49 a3 3d b0 ed a8 3e c0 de 75 3e
       0.10023624 0.079730816 0.3299384 0.24010754
000330 93 33 0e 3e a4 cb 2f be b4 2f b7 be ca 8b d8 bd
       0.13886862 -0.17167526 -0.35778582 -0.10573538
000340 35 47 9a 3e d9 f2 be 3e 2d 6e 33 3e 5f d9 85 bd
       0.30132452 0.37294653 0.17522497 -0.06535601
000350 91 df 1c 3e 5a 85 02 3e 5e 2a 00 3e 46 50 20 3e
       0.15319659 0.12746182 0.12516162 0.15655622
000360 f9 29 70 3e 70 04 ff 3c 09 36 4d 3d 66 02 29 3c
       0.23453511 0.031130046 0.05010036 0.010315513
000370 13 0f 70 3e de 09 38 3e 45 39 1e 3e 81 af a3 bd
       0.2344325 0.17972514 0.15451534 -0.07992459
000380 cb f9 19 be c6 99 b4 3e 56 60 16 be 6e 45 2b 3e
       -0.15036695 0.3527357 -0.14685187 0.16725704
000390 8e 22 b8 3d f9 fc 46 3e d2 c3 05 be b5 55 9a 3d
       0.08990966 0.19432439 -0.13062981 0.075358786
0003a0 9b 84 12 3e c5 bd f1 3d 66 fa 2a be ff 0a cf 3d
       0.14308397 0.11803774 -0.16697082 0.10109519
0003b0 c9 72 78 3c 9f 9f 0b 3d 9f 08 04 3e 3d 55 69 3e
       0.015164086 0.034087773 0.12893914 0.22786422
0003c0 5a 30 14 3d 50 dc a5 bd 65 3c 84 bd 9b 55 b2 3e
       0.036178924 -0.08098662 -0.06456832 0.34830937
0003d0 33 38 0c 3e c5 f2 a7 3e b5 bb 52 3e 15 f5 8d 3e
       0.13693313 0.32802406 0.20579417 0.27726045
0003e0 7d da 7d 3e ee 20 16 3e e0 b2 ac 3e c8 42 9e 3e
       0.24790378 0.14660999 0.3373022 0.30910325
0003f0 5d a6 0e 3e fb aa 26 be 96 71 8b 3e 81 9e 21 3e
       0.1393065 -0.16276161 0.27235097 0.1578312

Q1.head.0.bias f4 [64]
000000 99 7c 67 bd dd cf 81 3e 3c 69 c4 bc fc c4 89 bd
       -0.05651531 0.253539 -0.02397596 -0.06727025
000010 21 ba 41 be 55 fd 01 3d 0f e3 8f 3e b5 e0 53 3e
       -0.18918659 0.031735737 0.2810292 0.20691188
000020 c6 68 17 3e a9 af 71 3c 2f 06 ef bd 0d 79 ff 3d
       0.14786062 0.014751353 -0.11671101 0.124742605
000030 c4 99 ac bd 36 75 0c be 92 f0 4f be 8e ef 52 3e
       -0.08427766 -0.13716587 -0.20306614 0.20599195
000040 bb 2a a0 3e ca ef f3 3d c0 a0 5d 3d b5 3e be bc
       0.312826 0.119109705 0.05410838 -0.02322326
000050 c8 72 e0 3d ea 03 a3 3e 70 1b 54 be d5 5d bd 3c
       0.10959393 0.31838924 -0.20713592 0.023116032
000060 78 7f 93 3c e1 8c ba 3b 30 48 70 3e 48 cb 8d 3e
       0.018005118 0.0056930636 0.23465037 0.27694154
000070 52 e7 ab 3e db 22 cc bc b4 55 b4 3d 64 cd 5c 3e
       0.3357492 -0.024918964 0.08805409 0.21562725
000080 d1 26 94 3e c7 22 4f be ee ba 81 3d df 1a d7 ba
       0.28935865 -0.2022811 0.06334482 -0.0016411206
000090 ae ee 53 bc e4 06 ba 3d c1 5e 8b be 4c c6 b9 bd
       -0.012935324 0.090833455 -0.2722073 -0.09071025
0000a0 a6 02 f1 3c c8 2a 0c 3e 1f 2d 01 bd 82 0a 02 be
       0.029420208 0.13688195 -0.03153717 -0.12699321
0000b0 d4 35 b3 3e 53 6f 88 bd 98 70 87 3e 0a 84 1e be
       0.35002005 -0.066618584 0.2645309 -0.15480056
0000c0 8b a5 a6 bd 2a 8a a4 3e d7 ff 84 3e 6c af 28 bd
       -0.081370436 0.3213666 0.2597644 -0.04118292
0000d0 f0 63 a7 3e a1 d0 57 3d 52 b6 1d 3d 62 0b e9 3d
       0.32693434 0.0526892 0.038503952 0.11379124
0000e0 97 59 87 3e 0c 39 72 3e 90 75 56 3e f5 bc aa 3b
       0.2643554 0.23654574 0.20943284 0.0052105137
0000f0 a1 60 ac 3e 29 1d e4 3d b5 d5 7b 3e de d0 23 be
       0.33667472 0.11138374 0.24593242 -0.15997645

Q1.head.2.weight f4 [64, 64]
000000 50 39 00 bd 20 a1 a9 3d f6 ea d9 be 92 ce 56 be
       -0.031304657 0.08282685 -0.42562073 -0.20977238
000010 a6 37 1f be 1a a7 90 bc ff 01 9c 3c 89 3e be 3c
       -0.15548572 -0.017657805 0.01904392 0.023223178
000020 59 a9 b1 bd f3 b3 73 bd 24 76 6a 3d f7 7f 08 3d
       -0.086748786 -0.059497785 0.057241574 0.03332516
000030 11 ed 02 be e7 b8 03 be 6c a0 9f be 4e 5c 5b 3e
       -0.12785746 -0.12863503 -0.3117708 0.2142193
000040 b7 52 93 bb 73 43 83 3e c2 f7 59 be 9b da 4c 3d
       -0.0044959444 0.25637397 -0.21285918 0.050013166
000050 e8 73 d9 bd 8a 57 ef 3c 18 19 33 3e 91 0a 51 3d
       -0.106178105 0.029216547 0.17490041 0.051035468
000060 f2 4b 95 3d 78 ce 5e 3e d7 e1 09 3e fa a2 fe 3d
       0.07289876 0.21758449 0.13465057 0.12433429
000070 80 29 b5 bc 80 10 ed bd 9e 08 12 3d 28 bb 79 3d
       -0.022114515 -0.11575413 0.03565275 0.0609695
000080 5e 25 b6 3e 55 ff a2 bd ee c0 b6 3d 9c f8 e6 3d
       0.35575384 -0.07958857 0.08923517 0.11277887
000090 5a 9e 45 3e 3f 3e d0 bd 2b 5b 20 3e ea 3b bf bc
       0.19298688 -0.101681225 0.15659778 -0.023343999
0000a0 b1 49 8c bd 03 df 4e bd 6f 40 4b 3e c7 fb fc 3d
       -0.06849993 -0.05050565 0.19848798 0.1235271
0000b0 3f 3d 0a 3e 01 49 b0 3d 72 bd c5 3d 95 2f b4 3e
       0.13499926 0.086076744 0.096552745 0.35192552
0000c0 65 78 5f be b3 14 7b 3d 6a 00 11 3e e4 d8 b3 bc
       -0.2182327 0.061299037 0.14160314 -0.021954007
0000d0 30 0e 52 3e 0d af 53 be 5b 04 f0 bc a9 6c 63 bd
       0.20513225 -0.20672245 -0.029298952 -0.05552355
0000e0 87 85 82 3c f2 50 2c 3e 75 3b 77 3d c4 8d 16 be
       0.015932811 0.16827753 0.060359437 -0.14702517
0000f0 02 b5 a8 3d a6 11 76 3e ca ff 37 bc d9 c5 d6 3c
       0.082376495 0.2403017 -0.011230418 0.026217388
000100 31 8d 80 3d dd 5c b4 3d 35 c1 68 bd 7d 64 9d 3d
       0.0627693 0.08806775 -0.05682488 0.07685182
000110 d6 43 6b be 44 89 0d be 8b c4 f7 3d a8 a3 86 3d
       -0.22975096 -0.13821894 0.120980345 0.06574184
000120 74 df 1a 3d 81 ef 03 3e 4a 74 59 bd ad e8 99 3d
       0.037810758 0.12884332 -0.053089418 0.075150825
000130 d8 bf 39 3d d6 08 de 3d e9 94 6f bd d8 e9 1d 3e
       0.045348972 0.10841529 -0.05849162 0.15421236
000140 28 0b d9 3d b5 d6 2a bb 2b 08 be bb d3 28 46 ba
       0.10597831 -0.0026067917 -0.0057993135 -0.0007559184
000150 16 16 ac 3e ee f8 0b 3e 99 33 97 3d 21 cb ca 3d
       0.336106 0.13669178 0.07382888 0.09902025
000160 f2 e0 6b bd d3 d6 ad bd e7 d2 07 bd a9 95 4d bc
       -0.05758757 -0.0848824 -0.033160117 -0.012547889
000170 5f 90 e7 3b fd c8 ef 3d ec 7b 8d 3d 05 df 6d 3d
       0.007066771 0.11708257 0.06908402 0.058074016
000180 11 6e 54 3d 13 b2 77 bd aa 4c 8a bc 9f 32 c7 3e
       0.05186278 -0.06047256 -0.01688226 0.38905808
000190 af 24 e4 bd 16 9d dd bc fd ac 2f be d1 b3 00 bd
       -0.11139809 -0.027052443 -0.17155834 -0.031421486
0001a0 d8 5b cb 3d ec 83 c7 3d 21 c1 eb 3d 60 06 57 be
       0.09929627 0.09741959 0.11511446 -0.20998526
0001b0 0f 33 3d 3d 48 42 20 3d d1 e0 27 bb 76 be 1e 3e
       0.04619127 0.03912571 -0.0025616179 0.15502343
0001c0 fa 3d 2e be 93 0d 3e 3e 92 1c 28 3e 81 38 1a 3e
       -0.1701583 0.18559866 0.16417149 0.15060617
0001d0 52 6c 64 3d 21 f5 25 3e b4 88 0e be 4a 2b d8 3d
       0.055767365 0.1620679 -0.13919336 0.10555132
0001e0 a8 4c 26 3d 48 52 c5 3c 81 cd 72 3d 58 0a 0d 3e
       0.04060045 0.024087086 0.059278015 0.13773477
0001f0 ac 10 3a bb bf 47 b2 3d 48 43 7d 3d 84 bb c6 bd
       -0.0028391285 0.08705091 0.061831743 -0.097037345
000200 45 b8 df 3c 46 36 0e be d1 87 39 be 7f 9a a9 3d
       0.027309546 -0.13887891 -0.18118216 0.08281421
000210 d3 a3 3e be 78 41 8a be 0b ae 05 3e 3a d8 f5 bd
       -0.18617181 -0.27003074 0.13054673 -0.120041326
000220 2a 30 b2 3e 6f 2c 7b bd f6 80 b8 bd cb 66 47 3e
       0.3480237 -0.061321672 -0.09008972 0.19472806
000230 f5 dd 1f 3d 9d aa 6b be 02 46 c2 3d 0f d9 2e 3e
       0.039030034 -0.23014303 0.09486009 0.17074989
000240 0a 6b bc bc ae 62 4e 3e 16 b4 3e 3c d6 2c 69 be
       -0.023000259 0.20154831 0.0116396155 -0.2277101
000250 64 3a 04 3e c3 3b 3d 3e 1d aa 8f bd 17 1c 18 bd
       0.129129 0.18479829 -0.070148684 -0.037136164
000260 ef c0 5e be 8f 8e 29 be 48 7f 43 bb d7 23 cf 3d
       -0.21753286 -0.16558288 -0.0029830504 0.10114258
000270 40 9a 0e 3d cd 18 5a be 5d 3d ab bc eb 11 73 3e
       0.034815073 -0.21298523 -0.020903284 0.23737304
000280 fa 18 a9 3d 37 3c 26 be 9b 72 a3 bc f6 f8 66 bd
       0.08256717 -0.16233908 -0.01995211 -0.05638977
000290 f0 94 38 be 9b 58 b4 bc b7 42 0c be 61 cb 02 be
       -0.18025565 -0.022014907 -0.13697325 -0.12772895
0002a0 27 43 f0 3d 40 7b cc 3b 72 e4 ec be 8b 02 52 be
       0.11731558 0.0062402785 -0.4626804 -0.20508783
0002b0 78 a9 2a 3e e2 f0 ea bb 08 13 ef 3d 91 27 f3 3d
       0.1666621 -0.0071698288 0.11673552 0.11872781
0002c0 c4 ab 72 be 66 14 45 3d 7c 30 c7 bd e1 b4 b1 3e
       -0.23698336 0.048115157 -0.097260445 0.34708312
0002d0 8e 9c 22 3d e8 71 ec bd ad 5b 10 be 07 f3 95 3e
       0.039700083 -0.115451634 -0.14097472 0.29286978
0002e0 a4 73 6d 3e 13 2f 87 bd 6c d5 9b bd 9f f3 a8 bc
       0.23188645 -0.066007756 -0.07609066 -0.02062398
0002f0 73 cf c7 3d 53 31 ff 3d 82 86 94 3d 9c 42 17 bd
       0.09756365 0.1246058 0.07252218 -0.036928758
000300 89 bb 25 3e b9 ac 22 3e ae 54 0d bd be bf 20 3d
       0.1618482 0.15886201 -0.034504585 0.03924536
000310 8c f5 bc 3e 04 ba 3f be 6d 49 27 3e 23 a2 32 3b
       0.36906087 -0.18723303 0.16336603 0.0027257286
000320 ad 74 48 3e ed 19 23 3e 77 ef 47 3e 21 4c 46 3d
       0.19575758 0.15927859 0.19524942 0.048412446
000330 b5 6e 10 3e fc a7 7b 3e c0 3b 0f 3e 59 ad 18 3e
       0.14104731 0.245758 0.13987637 0.14909877
000340 ea d9 95 3e 90 e0 9e 3d 9a 6d b2 3d dc 6e 88 3d
       0.29267818 0.07757676 0.08712311 0.0666177
000350 53 68 93 3d c2 c3 6e bd cf 58 40 3d 0a e4 bc 3d
       0.07197633 -0.058292158 0.046959694 0.092231825
000360 4b 50 16 3e 88 4f b6 3d 0b da f3 3d c0 55 cb 3b
       0.14679067 0.08901888 0.11906823 0.0062052906
000370 27 c3 57 3e b3 55 19 3e 06 1f fe 3c 2e c4 31 3e
       0.21070538 0.14974098 0.031020653 0.17359993
000380 af 5e 2a 3e 8c f3 8f 3e e9 7a 9a 3d b9 92 ad 3e
       0.16637681 0.281155 0.075429745 0.33901003
000390 92 ad 76 3d 88 ef 8a 3d b3 f8 89 3d 74 5b 6d bd
       0.060224123 0.06783968 0.06736889 -0.057948545
0003a0 cc ef 95 3d 27 17 96 bd 68 f0 83 3e f5 9b 11 bc
       0.07321128 -0.07328635 0.25769353 -0.008887281
0003b0 55 4b 6c 3e 52 d7 2d be 1a 6d a9 3d a9 96 04 bc
       0.23075612 -0.1697667 0.082727626 -0.008092561
0003c0 a9 18 19 be 89 0a a9 3d b1 e9 6e 3d eb 5c 1e 3e
       -0.14950813 0.082539625 0.058328334 0.15465133
0003d0 c0 19 25 3d 77 e9 a1 3d 84 81 79 3d 55 17 41 3e
       0.04030776 0.07905858 0.06091453 0.18856557
0003e0 79 11 ac 3c 6b eb 2d 3e 9d 2e 0b 3b d5 8d 21 3e
       0.021004425 0.16984336 0.00212375 0.15776761
0003f0 df 7c fa 3d ce 3d 8e 3d e9 aa 1a 3c 3a 7e c5 3d
       0.122308485 0.06945382 0.009440162 0.096432164

Q1.head.2.bias f4 [64]
000000 e9 c1 9a 3d af 52 e9 3d 69 95 07 3d 6f 10 8a bc
       0.07556517 0.11392724 0.033101473 -0.01685354
000010 c7 8e 09 3d 04 39 a8 3d 65 10 d0 3c 66 ff 34 bd
       0.03358343 0.08214 0.025398443 -0.04418888
000020 f6 b0 fd 3d 7e 9d 70 3d 58 2d f3 bc 2f 4c 8d bc
       0.12387268 0.058743946 -0.029684708 -0.017248241
000030 f7 a3 b5 3d 2e 05 fa 3c 4c 55 3c 3c e5 1f e9 bc
       0.088691644 0.030520048 0.011494946 -0.028457591
000040 14 60 02 3e 92 7e 3c 3e 38 b6 94 3c 9e 30 e1 3d
       0.12731963 0.18407658 0.018153295 0.10995601
000050 e3 2f d8 3d 52 b3 63 bd f1 22 bc 3d db 64 84 bc
       0.10556009 -0.055590935 0.09186352 -0.016161373
000060 e8 46 46 3e bf 3f 18 bc 99 1d e3 bd dd 32 ad bd
       0.19362986 -0.009292542 -0.1108963 -0.08456967
000070 66 ec f5 bd 38 eb 14 3e f3 83 cf 3b 19 de 8d 3c
       -0.1200798 0.14542854 0.0063328682 0.017317818
000080 9b c0 01 3e 89 88 34 3e e7 f0 47 bc 32 cb 0f 3e
       0.1267113 0.17630209 -0.012203432 0.14042357
000090 55 85 c6 3d 6e c0 5c 3c 3b b7 cd 3d 58 e3 ad 3d
       0.096934 0.013473613 0.10044714 0.08490628
0000a0 e2 a9 99 bc 60 42 12 3b a6 c6 b8 3d dc 69 29 bd
       -0.018757764 0.0022317395 0.09022264 -0.04136072
0000b0 ab 83 2d bc f9 98 c9 3d 01 11 ed 3d c9 2a 0f 3e
       -0.010590474 0.0984363 0.11575509 0.13981165
0000c0 5c c0 19 bd f9 ae 68 3d 12 79 c3 bd 1e 12 f7 3d
       -0.037536964 0.056807492 -0.09544577 0.120640025
0000d0 c2 0d 9f bd e1 d2 be 3d 8d 23 10 3e 69 f0 8e 3d
       -0.07766296 0.09317566 0.14076062 0.06979448
0000e0 41 85 0c 3e e2 c1 00 3e c1 95 c6 3d ce 8f 8c 3d
       0.13722707 0.1257396 0.09696532 0.06863366
0000f0 d9 05 54 3c ab a5 12 bd 9e 33 43 3c a2 ef d5 3d
       0.012940847 -0.035802525 0.011914162 0.10446097

Q1.head.4.weight f4 [18, 64]
000000 4f ae 35 3e 2f 5c 09 3e 09 6a 42 be ff 59 2c be
       0.17742275 0.13414072 -0.18985762 -0.16831206
000010 4f a8 8b 3d 31 ca 8f be 0b b6 ff bd 58 d6 d4 bd
       0.06819212 -0.28083947 -0.12485894 -0.10392445
000020 86 28 86 3e 39 a5 34 3e 9f be 6c be 81 71 1b be
       0.26202792 0.17641152 -0.23119591 -0.15180017
000030 8e a2 79 3d a2 71 1d be 41 71 cd 3d fc 3c 65 be
       0.06094604 -0.15375379 0.10031367 -0.22386545
000040 1c e6 d5 3d ae 01 2a 3e 68 64 0c bd 2e a0 79 3e
       0.104442805 0.16602203 -0.034275442 0.2437751
000050 70 7e 27 3d 28 3f 88 3d 3a 57 81 3d d2 e3 48 3c
       0.040892065 0.06652671 0.06315465 0.012261348
000060 ea 0b 86 3e 53 7c 27 3d 22 11 2c bd 38 67 22 bd
       0.26180965 0.04089005 -0.042008527 -0.03964922
000070 bf b2 4f bd e9 2d 32 3e f1 bc 89 be 78 80 32 3e
       -0.050707575 0.17400326 -0.26901963 0.1743182
000080 32 6a ee bc f7 a2 96 bd fb 8f b7 3e 67 3b 91 bd
       -0.029103372 -0.07355302 0.35852036 -0.07091408
000090 a9 48 21 3e 4b 9e 3b 3d bd 82 94 bd 19 da a5 bc
       0.15750374 0.045805257 -0.07251499 -0.020245599
0000a0 b2 57 00 be 4e 17 cf bb 59 ac 34 bd 26 37 06 3e
       -0.12533453 -0.006319917 -0.044109676 0.13106975
0000b0 38 7e 77 3d 03 1a 80 3e 0d 95 76 be cc e2 26 bc
       0.060423106 0.25019845 -0.24080296 -0.0101859085
0000c0 8e 97 3f be 22 a9 c6 bd 5b 5b 2a be 50 59 a0 bd
       -0.18710157 -0.09700228 -0.16636412 -0.07829535
0000d0 db 22 6f be b4 1e 2d 3e 63 18 65 3e a3 a3 26 be
       -0.2335314 0.16906244 0.22372584 -0.1627336
0000e0 fb 0c 40 bc 98 2e 3a 3e e3 10 80 3e 92 27 00 3e
       -0.011721845 0.18181837 0.25012884 0.12515095
0000f0 d0 19 ae bd 53 1a 05 bd ca b3 df 3a 4d bc de 3d
       -0.08501017 -0.032495808 0.0017067131 0.10875759
000100 99 b6 11 bd 6e 92 7a 3d 4b b9 9e 3e e4 fc 39 be
       -0.03557453 0.061174802 0.31000742 -0.18162876
000110 ce 67 7e 3c 85 21 8d 3d e5 55 8a 3d 68 20 30 be
       0.015527679 0.06891159 0.06754664 -0.17199862
000120 6c 14 4f bd 90 58 80 3e d4 68 42 3e f4 da d8 bc
       -0.050556585 0.25067568 0.18985301 -0.026471592
000130 d3 69 cb 3d ac 5c 04 be 90 db 7d 3e 9b 48 79 be
       0.09932294 -0.12925977 0.24790788 -0.24344103
000140 df 79 13 3e da 38 46 3e 4f f1 79 bd 7c 4a 02 3f
       0.14401959 0.19357625 -0.061021145 0.50894904
000150 70 48 31 3e a2 ae bf 3d 23 e8 23 be 63 1a 80 3d
       0.17312789 0.093594804 -0.16006522 0.06255033
000160 cb ff 78 bb ba 85 06 3d 91 a2 ea bd dd fe 83 be
       -0.0037994261 0.032842375 -0.11456788 -0.25780383
000170 85 a4 8b 3d 2e df eb bd 35 56 e0 bb 43 e4 36 3e
       0.06818489 -0.115171775 -0.006846214 0.17860512
000180 4b 27 2a 3e 4f 4c 5d bd a6 5e 00 be a3 5f 70 3e
       0.16616552 -0.05402785 -0.12536106 0.23473983
000190 1d a3 24 be 2f 05 16 be 9d 5c 22 be 69 1a 2c be
       -0.16077848 -0.14650415 -0.15855642 -0.1680695
0001a0 3b 2d 25 be 35 a1 b4 bd 57 36 f6 3d a6 c0 c9 bd
       -0.16130535 -0.0881981 0.12022083 -0.09851198
0001b0 b4 8f 9c bd ad cd 8b be f1 9c db 3d d1 e1 8e 3e
       -0.07644597 -0.27305356 0.107232936 0.2790666
0001c0 65 b6 91 bc 6f 08 59 bc 31 41 32 be 41 f1 0d 3e
       -0.017787168 -0.01324664 -0.17407681 0.13861562
0001d0 06 92 7e be 2b e5 7e 3e a9 0b 91 be 38 dc 6a be
       -0.24860391 0.24892108 -0.28329208 -0.2293557
0001e0 8d 27 24 bd 62 cd b7 3e 0b 67 47 3e 0d 08 37 3e
       -0.04007678 0.35898882 0.19472902 0.17874165
0001f0 12 01 d4 bd 8a 7c 44 be e3 80 66 bd 17 40 d1 3d
       -0.10351767 -0.19188133 -0.05627526 0.10217302
000200 0a 72 2a bd fa 8f 4c 3d 42 0b 83 3d b3 4d c7 bd
       -0.041612662 0.049941994 0.06398632 -0.09731617
000210 89 f9 10 be 4a a8 13 3e b0 3e 17 be 97 ae cc bd
       -0.1415769 0.14419666 -0.14770007 -0.09994238
000220 af 00 fb bc a1 24 22 3e c0 5a 28 3e f6 e0 41 be
       -0.030639974 0.15834285 0.16440868 -0.18933472
000230 38 e3 19 bd f0 c4 ef bd 89 66 b5 3d 1a cb 8b 3c
       -0.03757021 -0.11707485 0.08857448 0.01706462
000240 b1 ee 24 3d 9d 1b a7 3d bc 60 08 3c b0 cc e9 3b
       0.040266696 0.08159564 0.0083238445 0.0071349964
000250 91 ad 6f 3d 16 b0 90 bd c1 af c8 3d 62 3c 5d bd
       0.058515135 -0.07064836 0.097991474 -0.054012664
000260 95 1d 58 3d 91 37 11 be 00 4b d8 bc ff 1a 2a be
       0.052762587 -0.14181353 -0.02640295 -0.1661186
000270 19 f1 05 be 2f 3c 1d 3e 64 88 6e be 04 07 db bc
       -0.13080253 0.1535499 -0.23294216 -0.026736744
000280 e8 2c ea 3d d7 0c 67 bd e0 c2 b2 3d ad db 98 3d
       0.114343464 -0.05640873 0.08728576 0.07463775
000290 1c 08 9f 3c 74 9d c2 bb 1c c7 aa 3d 1d 84 54 be
       0.019413047 -0.00593918 0.08338758 -0.20753522
0002a0 d1 55 14 be e0 4e e5 3c ab 92 fc 3b 6a 00 53 be
       -0.14485861 0.027991712 0.007707914 -0.20605627
0002b0 a6 39 1e be b5 72 53 3c 28 c9 7c 3d d2 e6 3e 3e
       -0.15451679 0.012905766 0.061715275 0.18642738
0002c0 d1 8c 24 be 65 39 99 ba 1e 0a 97 bd 04 42 ea 3c
       -0.16069342 -0.0011690079 -0.073749766 0.028595932
0002d0 15 66 23 be f2 f3 63 3e f1 f5 97 3d a8 db 3b be
       -0.1595691 0.22261027 0.074199565 -0.18345511
0002e0 e0 ad 62 3e 84 84 5e 3d 74 5b d7 3d f7 97 fa 3c
       0.2213664 0.054325595 0.1051549 0.03059004
0002f0 9b e6 cf be 8e 0d fb bc 12 89 4b 3e 19 66 4e 3e
       -0.40605626 -0.030646112 0.19876507 0.20156135
000300 a7 a8 e6 3c c0 87 0b be d4 89 21 3d 4e 0a f6 3b
       0.028156592 -0.13626003 0.039438084 0.0075085526
000310 de be 9c 3c bb a9 66 3e ba 17 88 bd 01 07 d0 bd
       0.019133981 0.22525685 -0.066451505 -0.10157586
000320 72 fd 0e bc c6 2c d5 3d 72 46 98 3d ba 06 51 be
       -0.008727418 0.104089305 0.074353114 -0.20412722
000330 b3 e5 df 3d 6c 04 da bd 34 8c c5 3d b7 a1 1a be
       0.109324835 -0.10645375 0.09645882 -0.15100752
000340 1d d0 3f bb b0 a1 41 3e a6 c1 09 bd 8d d7 98 3d
       -0.0029268332 0.18909335 -0.033631943 0.07462988
000350 70 c7 5c bd b2 6f cb 3d 1c d8 92 bd 9e 2b c9 bd
       -0.053901136 0.099334136 -0.07170126 -0.098227724
000360 f9 ac 5e 3e 2b d5 88 3b c0 a8 38 3d 9f ae ab bd
       0.21745671 0.004175802 0.045082808 -0.08382916
000370 e5 0f 61 be 30 a4 99 3c a8 2b 4a be 5c 26 2c 3d
       -0.2197872 0.018755049 -0.19743216 0.04202877
000380 5e 6a 81 3c 5c 19 a2 bd 4c d2 1b 3e ac 54 29 3e
       0.01579779 -0.07914993 0.1521694 0.16536206
000390 f1 ee bc 3b d9 15 e4 3c 08 8c 03 be 92 09 40 3d
       0.0057657887 0.027842449 -0.12846386 0.046884127
0003a0 9a f7 59 be d3 94 bd bb 40 7e 71 3d 1d 3b 8d bd
       -0.21285859 -0.0057855635 0.058958292 -0.068960406
0003b0 71 8a 11 3c bb ec 29 bd 1e 13 54 3d a6 4c c4 3d
       0.008883105 -0.04148553 0.051776044 0.09584932
0003c0 87 c4 a4 bd c2 b0 62 bb 1b 98 b0 bd 92 64 3d 3e
       -0.08045297 -0.003459022 -0.08622762 0.18495396
0003d0 ec c6 3f be 0b 7a 02 3d c2 b2 e0 bd e8 f4 f7 3b
       -0.18728226 0.03185467 -0.10971595 0.007567037
0003e0 e4 79 ec 3d 21 78 67 3e 2f 06 aa 3d c1 4c 31 bd
       0.11546686 0.2260442 0.08301961 -0.04328609
0003f0 32 00 dc be 24 27 08 be 6e 0c 74 3e f5 f7 2f bd
       -0.429689 -0.13296181 0.23832867 -0.04296108

Q1.head.4.bias f4 [18]
000000 0b a6 c1 bd a8 34 8a bd 0e 3f 5d 3d 0d d3 ef 3d
       -0.09455498 -0.06748325 0.05401521 0.117101766
000010 78 99 08 3d f6 9c c9 3d 81 b9 ba 3d de 6e 00 3e
       0.033349484 0.09844391 0.09117413 0.12542292
000020 db d4 af 3d a3 ef c4 bc 8a fb ef bd 88 a2 4d bd
       0.08585521 -0.024040049 -0.11717899 -0.05020383
000030 68 9d 62 3d c5 af 75 3b 4f 95 f9 bd ee 18 00 3d
       0.055325896 0.00374888 -0.121866815 0.031273775
000040 a6 e7 d1 3b 49 f0 da bd
       0.0064057885 -0.10690362

Q2.head.0.weight f4 [64, 18]
000000 14 bb 24 3e fa ad 2c 3e be 90 32 3e 7e 04 26 3d
       0.1608699 0.16863242 0.17438027 0.040531628
000010 af e6 8b 3d 7d e9 35 3e 80 21 6a 3d 24 43 cf bd
       0.06831109 0.1776485 0.057160854 -0.10120228
000020 e7 df 8b 3e 1e 8f ad 3e d8 5d 44 3c 7f 08 b6 bd
       0.2731926 0.33898252 0.011985265 -0.08888339
000030 6a 97 16 bd 34 61 c2 bd 10 d3 a7 3a 9b b6 c2 bd
       -0.036765493 -0.09491196 0.001280399 -0.095074855
000040 bd 9d 0c bb 7c 69 5c 3e b5 02 b1 bd 8d 6f 28 bc
       -0.0021456324 0.21524614 -0.086430945 -0.010280502
000050 fe df fa 3d 28 8e 32 3e 68 e3 99 3e ba 6c 3d 3e
       0.12249754 0.17437041 0.3005631 0.18498507
000060 ed 2d f8 3d f4 cf dd bd 3f 72 cb be 1d 13 48 bc
       0.12118135 -0.108306795 -0.397356 -0.012211588
000070 f3 12 35 3e d3 9e b1 3e 99 54 42 3e 3c 39 84 3e
       0.1768301 0.34691486 0.18977584 0.25824916
000080 6b b5 46 3e d6 8f 43 3d c0 01 ae 3e ef 74 11 3e
       0.19405143 0.047744595 0.3398571 0.14204763
000090 56 02 20 3c cb e8 25 be b2 d6 5a 3e 22 37 e8 3d
       0.009766182 -0.16202085 0.21370962 0.11338641
0000a0 77 56 6d bd 08 4d 68 3e 07 47 53 3d 5d 30 26 3e
       -0.057943787 0.22685635 0.05158141 0.16229387
0000b0 e5 1f 83 bd df 3a 0a be bc 11 7d 3c 16 9f 42 3e
       -0.06402568 -0.1349902 0.015446123 0.19005999
0000c0 3d 67 61 be 17 cf 6f 3e 50 ee 34 3e 2c 6b 79 bd
       -0.22012039 0.23418842 0.17669034 -0.060893223
0000d0 da 96 9f be 6e 9b 1f be 9b ce 4a 3e 77 aa 68 bc
       -0.31169778 -0.15586635 0.19805376 -0.014200798
0000e0 cb 86 86 bd 8a 1d 80 3c e6 a4 91 bd 5d df 84 3e
       -0.065686785 0.015639085 -0.0711153 0.25951663
0000f0 3e 46 f2 3d ac 9a 64 bb 4d be be 3e f7 d1 74 bd
       0.11829804 -0.003488223 0.37254563 -0.05977055
000100 82 2a 8d bd 4a 58 35 3e 94 31 b7 bb 6a ab 7c 3e
       -0.06892873 0.17709461 -0.005590627 0.24674764
000110 ee f7 65 3e fe 8a 2f 3e 0c c9 3d be 43 f0 af 3e
       0.22457859 0.17142865 -0.18533725 0.34362993
000120 c5 9f da bd 1a 40 89 bd 45 b8 9e 3e 3a aa 8a 3d
       -0.10675005 -0.067016795 0.30999961 0.067707494
000130 03 88 ac 3e 16 28 df 3d e3 f1 a6 bd 05 dd 28 3d
       0.3369752 0.10896318 -0.08151605 0.041226406
000140 b4 e4 9c be 8a db 75 3e e9 79 73 3e 7f ff 8f 3e
       -0.30643237 0.24009529 0.23776974 0.28124616
000150 42 c6 99 bd 3e 2c 42 3e fb 84 8f 3e 45 0c bd 3e
       -0.07508518 0.1896219 0.28031144 0.36923423
000160 a7 ad 72 3e 72 fc b1 3e 27 8c 46 3e 60 f0 17 3e
       0.23699056 0.34762913 0.19389401 0.1483779
000170 48 f9 17 bd 98 66 96 3e 1e 00 a1 3d 11 30 ea 3c
       -0.037102968 0.29375148 0.078613505 0.028587373
000180 05 eb 06 3e 67 cf 54 bd 79 8f 43 be 7f 98 00 3c
       0.1317559 -0.051955607 -0.19097699 0.007848858
000190 03 02 80 3e 7b fb b6 3e f8 a3 b6 3d 26 0b 78 3e
       0.25001535 0.3573874 0.08917993 0.24223003
0001a0 e8 9e a9 3e c3 c1 94 3e 7e 0e 10 3e c0 9b e2 3d
       0.33129048 0.29054078 0.14068028 0.11064863
0001b0 11 65 63 be 72 d4 8b bc f6 23 95 3e 27 f5 30 3d
       -0.22206523 -0.017069075 0.29129 0.043202545
0001c0 00 3b bb be a9 f4 9c be 6d 12 70 be 3a d3 d2 bc
       -0.3656845 -0.3065541 -0.23444529 -0.025735486
0001d0 45 50 c5 bd 36 d8 c4 be d5 8d c5 3e 95 13 80 bd
       -0.09634451 -0.38446206 0.38584772 -0.06253735
0001e0 42 ef 63 3e f2 72 60 be b2 47 93 be 26 2c f2 bd
       0.22259238 -0.21918848 -0.28765637 -0.11824827
0001f0 58 2e f4 3c 27 7b 86 be fa 8f f9 be d9 0b f5 3d
       0.029807255 -0.26265833 -0.48742658 0.119651504
000200 06 f5 08 bd 03 33 d4 bc 82 03 75 bd 79 8d 36 bd
       -0.033436798 -0.02590323 -0.0598178 -0.044568513
000210 0c 64 15 3e d8 0d 49 be eb ad e7 bd 47 b1 54 3e
       0.14588946 -0.19634187 -0.11312469 0.20770751
000220 18 e2 17 3e 36 38 2b 3e cf 2d c6 3d 53 a1 58 3e
       0.14832342 0.16720662 0.09676706 0.2115529
000230 7f 89 a5 3e 8f 13 a4 3d bd 68 a1 3d f0 b9 a8 3b
       0.32331464 0.08011543 0.07881305 0.0051491186
000240 ad 28 fd bd 39 a1 aa 3e 2f 25 3d 3e 92 e4 37 3e
       -0.12361274 0.33326128 0.18471216 0.17958286
000250 bb ac 8a 3e 80 b1 15 3e d4 c8 52 3e b4 5b 26 3d
       0.27084908 0.14618492 0.20584422 0.0406148
000260 62 30 1a 3d f0 97 7c 3e 8c 9b 43 3e 03 fc af 3e
       0.037643798 0.24667335 0.19102305 0.34371957
000270 0b 6b 88 3e 01 d9 98 bd 16 66 38 3e 1d 2d d3 3e
       0.26644167 -0.07463265 0.18007693 0.41245356
000280 95 75 87 3e 37 56 88 3e 7c 0a bd 3c a1 ee 06 3e
       0.26456895 0.26628277 0.023076288 0.13176967
000290 6d 73 9c 3d 28 8c e6 bd 4f 9c 1c 3d 72 c6 7f 3c
       0.07639203 -0.112572014 0.038235005 0.015611278
0002a0 66 28 04 be e6 62 92 3c 13 dc ee 3e 8a 38 be 3c
       -0.12906036 0.017869424 0.46652278 0.02322032
0002b0 0d 58 8f 3a 22 b8 fe bd 41 02 b6 3d b7 d4 0a be
       0.0010936275 -0.12437464 0.08887149 -0.13557707
0002c0 5b 4f 03 be 23 85 f2 3d 44 1e 3b 3e 8e 27 e1 3d
       -0.1282324 0.118418 0.18273264 0.109938726
0002d0 a1 63 88 3d 18 cc 37 bd 0e fd 3b 3e d2 27 9c 3e
       0.06659628 -0.044872373 0.18358251 0.3049913
0002e0 87 d2 eb bc 35 40 b3 3d bd 3f 50 3e 40 5f 54 bd
       -0.02878691 0.08752481 0.20336814 -0.05184865
0002f0 ac 8e 3d bd c7 4b 67 3e 2d 20 6f 3e 32 8d e7 3d
       -0.04627864 0.225875 0.23352118 0.11306228
000300 49 99 53 3e 7e 03 aa 3e 03 73 37 3e 94 bb 9e 3e
       0.20663942 0.3320579 0.17914967 0.31002486
000310 8f 62 a8 3e b3 86 88 3e b6 92 52 be 5d 9b 50 bc
       0.32887694 0.26665267 -0.20563778 -0.012732354
000320 0e 9e e8 3d b6 69 3c 3e bb d6 ff bd 15 96 d5 bd
       0.113582715 0.183997 -0.124921285 -0.104290165
000330 15 e2 e0 3c c2 87 a8 3e 79 15 5e bc e0 76 82 3e
       0.027451554 0.32916075 -0.013554924 0.2548132
000340 17 32 f5 3d 64 89 c2 3e 32 61 8e 3d 44 ee 30 3e
       0.119724445 0.37995446 0.06952132 0.17278391
000350 7b c8 e0 3d 41 62 c3 3e 34 a8 84 3e 02 57 32 3e
       0.109757386 0.381609 0.2590958 0.17416003
000360 8b 5b 94 3d ed c6 3a bd 3e 10 5a 3d 7c a0 ca bd
       0.07244023 -0.045599867 0.053238146 -0.09893891
000370 d8 d1 05 be d9 65 70 be c4 6f 37 3e 66 2d 82 3e
       -0.1306833 -0.23476352 0.17913729 0.2542526
000380 f1 e8 3b 3e 65 30 07 3d 1d 95 77 be 6a 86 ea be
       0.18350579 0.033005137 -0.24177976 -0.45805675
000390 78 35 36 be 9e e4 7c be 10 1a 9e be e0 e9 55 bc
       -0.17793834 -0.24696586 -0.3087926 -0.013056248
0003a0 0e 1f 3a be 4b 3d db 3d 1f c5 90 3e 9a 4a df 3d
       -0.18175909 0.1070505 0.2827539 0.10902901
0003b0 ad 36 b5 3d 01 73 79 3e 10 0e 87 bd de 28 7d 3e
       0.08848319 0.24360277 -0.06594479 0.24722621
0003c0 e5 73 71 3e c2 e3 97 3e 46 a0 35 3c 40 99 76 3e
       0.23579367 0.29665953 0.011085575 0.24081898
0003d0 26 66 5a bd 07 0d 15 3e 79 19 97 3e 54 69 49 3e
       -0.053320073 0.14555751 0.29511622 0.19669086
0003e0 df a4 07 3e 3a bb 0d 3c 1e 95 2f be 11 b3 6b 3e
       0.13246487 0.008650595 -0.17146727 0.23017527
0003f0 da c6 76 be 90 25 85 3d 6e 33 0c 3e 9f 98 04 be
       -0.24099293 0.06501305 0.13691494 -0.12948845

Q2.head.0.bias f4 [64]
000000 e7 44 56 3d 4e ad b1 3d d1 19 cf 3e 2c 30 af bd
       0.052311804 0.08675633 0.40449384 -0.0855411
000010 66 87 07 3e e7 71 40 bd 29 04 49 3e 14 21 b3 3e
       0.13235244 -0.046983626 0.19630493 0.34986174
000020 b4 e8 4d be 3c 6d 07 3d 60 53 48 be 0e 6e c0 bc
       -0.201083 0.03306316 -0.19563055 -0.023489978
000030 80 b9 6b 3e d6 cd 88 bd 50 b4 8f 3e 9a a0 85 3d
       0.23019981 -0.06679885 0.28067255 0.06524773
000040 d5 98 43 3d 58 e9 39 bd 5c 56 80 bd 45 7c 8d 3e
       0.047753174 -0.04538855 -0.06266472 0.27633873
000050 c8 37 53 3e 1e 84 26 3e 9d 6f 2c 3d 34 0d 95 3e
       0.20626748 0.16261336 0.04209863 0.29111636
000060 cd 7d 55 be fb 39 b9 3e 5b 49 bf bc f5 73 79 3e
       -0.2084877 0.36177048 -0.023350408 0.2436064
000070 01 f9 f2 38 c5 d5 a9 3e 39 1c 67 3e f2 50 c8 bd
       0.0001158584 0.33170906 0.2256936 -0.09781064
000080 1d 5a 92 3d 87 fc c2 3e e6 2e 37 3e 70 16 70 3e
       0.07146094 0.38083288 0.17888984 0.23446059
000090 ea ca ec bd 2b 95 85 bd af eb 8c 3e ea 13 f8 3c
       -0.1156214 -0.06522592 0.27523562 0.030282933
0000a0 c7 81 97 3e 1e 1f 9b 3e c5 b4 cb 3e 92 bf af 3e
       0.295912 0.30297178 0.39786354 0.34325844
0000b0 a1 8b b6 3d 06 75 b0 3e 0c 01 bb bd 9e 34 aa 3e
       0.08913351 0.34464282 -0.09131059 0.3324327
0000c0 6b f2 05 3d 92 93 46 3e eb a8 54 3e f8 6d 75 3e
       0.03270189 0.19392231 0.20767562 0.23967731
0000d0 9d 9d e6 bc ff a3 a8 3e 63 19 40 3d 03 79 20 be
       -0.028151328 0.3293762 0.04689921 -0.15671162
0000e0 bb 08 a3 3e 01 47 29 3d c1 e8 5f 3e 0a 7b bf bd
       0.31842598 0.04132748 0.21866132 -0.0934964
0000f0 6e 28 4a 3e 7b 15 93 3e de 0c 1f be e9 04 cd bd
       0.19741985 0.28727326 -0.15532252 -0.10010702

Q2.head.2.weight f4 [64, 64]
000000 3d f1 a7 3d a6 69 20 3c 21 d7 eb bd 18 67 e8 3d
       0.082003094 0.009790814 -0.11515642 0.113477886
000010 48 72 35 3d c1 58 8a bd 1b 7d 5c be 84 9e 20 be
       0.04429844 -0.0675521 -0.21532099 -0.15685469
000020 f9 ce d4 3d 46 9f 93 3e 29 29 98 3e 65 18 19 3e
       0.103910394 0.28832453 0.29718903 0.14950712
000030 51 41 27 3e 80 a0 c6 3d 4a f1 bf bc ae cf c8 3d
       0.1633351 0.09698582 -0.023430485 0.09805237
000040 f8 ee 65 3e 06 3a f5 3d 07 a5 57 3e 51 8f 0b bd
       0.2245444 0.11973958 0.21059047 -0.034072224
000050 f4 b4 c5 3d f7 f3 cb 3c 20 a5 80 3e d2 f5 d6 3c
       0.09653655 0.024896605 0.2512598 0.026240263
000060 26 a9 af 3e 13 3a 8f 3d c1 dd 31 3c d3 1c d6 3c
       0.34308738 0.06993499 0.010856093 0.026136791
000070 42 4e 51 bd b7 a8 b8 3d 6e df 90 be 33 49 d2 3d
       -0.051100023 0.09016555 -0.28295463 0.10267868
000080 95 3a 2e 3e c5 27 95 bd e9 a9 c9 bc ee 29 4c 3d
       0.17014535 -0.07282976 -0.024617152 0.049844675
000090 4c 52 7f 3e f7 1a 6c 3e 46 2c a8 bd b0 f9 6e 3d
       0.24933738 0.23057161 -0.082115695 0.05834359
0000a0 39 86 96 bd 8a 64 37 bd d1 18 1c be 0f 4d 04 be
       -0.0734982 -0.044773616 -0.15243842 -0.1292002
0000b0 93 97 94 3c 74 0c 25 bd b5 4e 3e be de 26 38 bd
       0.018138682 -0.04029508 -0.18584712 -0.04495894
0000c0 91 a7 79 3e 58 c7 4f 3e 14 08 18 3e 7d 80 95 be
       0.24380328 0.20290887 0.14846832 -0.2919959
0000d0 f6 36 86 bc 27 b6 eb bd dd 01 99 3d 45 f7 61 3d
       -0.01638363 -0.11509352 0.074710585 0.055167455
0000e0 04 df a4 bd e1 4d 94 bd ba 64 10 3d 79 44 22 3e
       -0.08050349 -0.07241417 0.03525231 0.15846433
0000f0 4b 25 ad bd ab e8 2f bc 0d 04 8f 3e 1e 20 20 3d
       -0.08454379 -0.010736625 0.27932778 0.03909313
000100 c9 2f 71 3d 39 15 3b 3e 2f ca 38 be 66 1e 2e 3e
       0.058883462 0.18269815 -0.18045877 0.17003784
000110 6a 64 44 3e 10 aa 5a 3e 7a a1 cb 3d 78 1f e1 bc
       0.1917893 0.21353936 0.099429086 -0.027480826
000120 e4 bb b5 3e 16 d5 ab bc 86 12 a7 3e 52 06 f7 3d
       0.35494912 -0.02097563 0.3263132 0.120617524
000130 d9 78 a7 be e2 e4 ca 3d 08 e8 c3 bd 79 38 9e be
       -0.32709387 0.09906937 -0.09565741 -0.3090246
000140 64 a5 c2 3d 52 21 d6 3d a1 77 4a 3e 66 95 c3 3d
       0.09504202 0.10455574 0.19772197 0.0954998
000150 c9 5b c2 3c 35 85 8d 3e 70 2f 16 3e 35 64 d1 bd
       0.023725407 0.2764069 0.14666533 -0.10224191
000160 b1 70 98 3e 6b 8c 17 be 2f 30 ae 3e 23 1f 10 3d
       0.29773477 -0.14799659 0.34021136 0.035185944
000170 6a e0 2a 3e be f6 68 bd 4d 55 ef bd dc f7 e0 3c
       0.1668717 -0.056875937 -0.11686192 0.027461939
000180 d8 a6 2c bd 7b 40 02 bd 00 b8 e7 3d 09 1f df 3d
       -0.042151302 -0.031799775 0.11314392 0.10894591
000190 d6 8b 91 3e bb 2d 19 3e 47 fe 77 3c d8 d5 4a bd
       0.28427 0.14958851 0.015136308 -0.049520344
0001a0 0e 3a ea 3d ec d8 88 be 53 c8 fd bd b7 28 c8 bb
       0.11436854 -0.26727998 -0.123917244 -0.006108369
0001b0 3e be 3d 3e 0b f5 6a be 31 0a 85 be 0c 78 54 3d
       0.18529603 -0.22945039 -0.25984338 0.051872298
0001c0 88 85 14 3e 0f aa 13 3c 04 be 17 bd c1 57 9e 3c
       0.14504063 0.009012713 -0.037046447 0.019328954
0001d0 45 1a 3e 3e 24 69 47 be c0 bd dc bd 8e c1 5f 3e
       0.18564709 -0.19473702 -0.107783794 0.21851179
0001e0 4c c3 1e be 93 9f 21 3e 5b f2 53 3c ca 8c ec 3e
       -0.15504187 0.15783529 0.0129362 0.46201164
0001f0 6c 7d 02 3e a7 8f b8 bd ec 97 8e 3e bf 3f e0 3e
       0.12743157 -0.090117745 0.27850282 0.43798634
000200 7c fe 6f 3c 5c 49 a7 3d 22 82 02 bd 49 fc 93 3d
       0.014648076 0.08168289 -0.031862386 0.07225854
000210 94 5e e0 bc 23 ed ba bc e5 72 b0 3c f9 e8 4d 3e
       -0.027388848 -0.022818154 0.021539161 0.20108403
000220 37 78 2f 3c 3c 33 b3 3d fa 4b d7 3d 35 d1 9e 3d
       0.010709814 0.087500066 0.10512538 0.07754747
000230 49 95 cc 3d 4b ae 32 3e 4c 1e 69 bd 02 18 5b bd
       0.099894114 0.174493 -0.05691366 -0.053489693
000240 50 b9 12 3e a3 4c a3 bc a0 80 a7 3d 9d ae 1b 3e
       0.14328504 -0.019934004 0.0817883 0.15203328
000250 92 3b 10 3e ae 38 c8 3d 09 fb e8 3d 21 77 f6 3d
       0.14085224 0.09776436 0.11376006 0.12034441
000260 66 48 0e 3e 3e 14 5e 3d 07 4b ce 3c 49 f5 83 bd
       0.13894805 0.054218523 0.02518226 -0.06443269
000270 2a b8 d9 3c 55 95 8a 3d 2a 4e 5c 3e b6 08 0a bd
       0.026577074 0.06766764 0.21514192 -0.033699714
000280 9b 75 11 be 21 02 b3 bd 6c 6b 00 3e cc 34 0a 3e
       -0.14205019 -0.087406404 0.12540978 0.13496703
000290 08 cd 8b 3d 0a 93 3b 3e b5 c1 08 bd fd 21 5f bc
       0.06826216 0.1831781 -0.03338786 -0.013618943
0002a0 be 69 53 3e 60 a1 19 3e 1f f3 90 bb 12 fb e2 bd
       0.20645806 0.15002966 -0.0044235135 -0.11083044
0002b0 e7 ff 75 3d 00 18 a7 bc ff 47 f1 bc b7 3e 95 3c
       0.0600585 -0.020397186 -0.029453276 0.018218381
0002c0 e3 82 59 3e f9 85 69 3e 60 da 6e 3e d7 67 66 bd
       0.21241336 0.22805013 0.23325491 -0.056251373
0002d0 74 f9 21 3e 0a 1b 07 3d 87 6a 9c 3c 7a ea 66 3e
       0.15817815 0.03298477 0.019093765 0.22550383
0002e0 45 88 af 3c dc 3c aa bd 20 6b 00 3c 2f 86 af 3d
       0.021427283 -0.08312389 0.007838041 0.08570515
0002f0 4a 5f 46 3e b1 9a 3b 3e 49 4e e2 bd 2f b2 94 bd
       0.19372287 0.18320729 -0.11050088 -0.07260548
000300 58 35 bd bd b9 e3 5d 3e ed 41 af bd 97 93 36 3e
       -0.0923869 0.216689 -0.08557496 0.17829739
000310 a9 8b 32 3e 31 05 a4 3e 8f 58 6f be 40 1e 6c be
       0.17436089 0.3203521 -0.23373626 -0.23058414
000320 1e 7d 67 ba 79 a2 d4 bd f7 6b b2 3e 4f 27 c5 3d
       -0.00088305946 -0.10382552 0.34847996 0.09626638
000330 32 2a 51 be dc 08 ba 3d bf dc 43 be c2 f7 7e 3d
       -0.20426252 0.09083721 -0.19127177 0.062248
000340 82 a5 e7 bc fe 0e 83 3b f9 3c d4 3d 1d ea 8d bd
       -0.028277162 0.00399959 0.10363192 -0.06929419
000350 ac 00 4a 3d be 7d 86 3d d7 e6 42 3e a7 fd 66 bd
       0.049317047 0.06566952 0.19033371 -0.056394245
000360 4c 73 cd 3e 26 d1 78 bd ca 2c 2a bc 4d 96 e1 3c
       0.40127027 -0.060746334 -0.010386655 0.02753749
000370 d1 1a b5 3d a1 ed 97 3c ed 8f 48 be a7 55 6d 3d
       0.088430054 0.018545927 -0.19586153 0.057943013
000380 36 e8 a6 3d 9f 38 03 bd d5 e6 b5 ba 37 82 02 3d
       0.081497595 -0.03203642 -0.0013877997 0.031862464
000390 b2 40 81 3e 9d 2f 35 3e e6 f9 bd bc 21 68 dc 3d
       0.2524467 0.17693944 -0.02319045 0.107620485
0003a0 99 fa 17 be c4 23 7d bd 0b 1c 8c bd 89 f4 3e bb
       -0.14841689 -0.061801687 -0.06841286 -0.0029137454
0003b0 f4 19 0f 3d e4 a3 04 be 4c 39 6f bc 4d 71 4b 3d
       0.03493686 -0.12953144 -0.014601063 0.0496686
0003c0 50 77 97 3e 20 c6 5d 3d 0d 7b 17 3c a7 f7 81 be
       0.29583216 0.054144025 0.009245646 -0.25384256
0003d0 62 45 29 3e 47 c5 6e be 0a 84 2a be 7f b1 21 bd
       0.16530374 -0.23317443 -0.16651931 -0.039475914
0003e0 11 af 74 bd 2c d0 05 3e 01 37 2c be f2 1f 0c 3e
       -0.05973727 0.13067693 -0.16817857 0.13684061
0003f0 6b 16 fe 3d 03 6a 1a be ce 1f 2e 3e a6 57 b9 3d
       0.1240662 -0.15079503 0.1700432 0.09049921

Q2.head.2.bias f4 [64]
000000 60 96 af bd e2 d1 1a be af 1b 10 3e c8 e0 09 3d
       -0.08573604 -0.15119126 0.1407306 0.033661634
000010 86 b6 64 3e 4c 85 2d 3c e9 5e fc bc 62 2c 29 3e
       0.22335252 0.0105908625 -0.030806975 0.16520837
000020 05 78 f7 3d 29 09 28 3d dd 69 42 3e 3f 6d 1e 3d
       0.12083439 0.04102436 0.18985696 0.038678404
000030 87 a0 02 be da 04 e3 3c 58 9a 7e 3c e6 59 07 3c
       -0.12756549 0.027712274 0.015539728 0.00826118
000040 e2 ed 31 3e 53 6f 93 3d 93 1b 48 3c 60 41 b9 bd
       0.17375901 0.07198968 0.012213605 -0.090456724
000050 e5 34 c1 3c 52 3b f9 3c a1 d0 9e bd 30 77 1d 3e
       0.023584792 0.030423794 -0.077546366 0.15377498
000060 c1 45 fd bc a2 ec ed bc 5c b1 e7 bd cd 9d b8 3c
       -0.03091705 -0.0290435 -0.113131255 0.022536183
000070 e0 ef 79 3d 99 ff be 3c 87 74 82 bc cc 4f bd 3c
       0.06101978 0.023315238 -0.015924705 0.02310934
000080 ab d4 51 3d 37 9b 50 3e 0e 98 b5 3d 8d 89 0d 3e
       0.051228207 0.2037171 0.08866893 0.13822003
000090 79 79 b3 bc d7 3f 0c 3d 23 ee f1 3c d4 a3 68 bd
       -0.021908509 0.03424057 0.029532498 -0.056796864
0000a0 97 0a 38 3e 09 20 8c bc bf 02 0d be 53 ec c7 bd
       0.1797279 -0.01710512 -0.13770579 -0.09761872
0000b0 51 3f 96 bd b3 86 25 3e 2b a0 3b bd 9e 96 9d 3b
       -0.073362954 0.16164665 -0.045807045 0.0048092147
0000c0 6d 54 66 3d 1c b9 81 3d e7 0e 32 be c1 ed 24 3d
       0.05623286 0.06334135 -0.17388497 0.040265802
0000d0 7b 5a 23 3d 8a 9a ee bd 90 6e b4 bd 3a 91 05 3c
       0.03988121 -0.1165057 -0.088101506 0.0081523005
0000e0 e4 92 e3 bd 9d f9 41 3e 0c 00 33 3d 89 ad 72 3d
       -0.111120015 0.18942876 0.043701217 0.059247527
0000f0 64 dd 47 3b cd 7b 80 3d a7 17 56 3e ec 66 f0 3d
       0.003049695 0.06273613 0.2090746 0.11738381

Q2.head.4.weight f4 [18, 64]
000000 d0 02 33 be 60 6c 38 be b6 3c 00 be 37 40 75 be
       -0.17481542 -0.18010092 -0.1252316 -0.23950277
000010 73 45 a2 3d 7d 6c 07 be 0d 73 ad 3c a0 57 a0 3d
       0.07923403 -0.13224979 0.021173025 0.07829213
000020 51 a3 ce 3c 1c e6 05 3d 52 c0 73 bd 89 10 a7 3d
       0.02522436 0.032690153 -0.059509583 0.08157451
000030 44 54 8f be d6 c9 c2 bc 26 7c 20 3e 47 00 14 be
       -0.27993977 -0.023777883 0.15672359 -0.14453231
000040 71 b2 50 3e 39 c0 31 be 1f 44 15 be 49 0c aa be
       0.2038057 -0.17358483 -0.14576767 -0.33212498
000050 86 a8 4d be df c2 f0 bd 1c f9 eb bd 98 ef 69 3e
       -0.20083818 -0.11755919 -0.11522123 0.22845304
000060 49 8c 29 be bb b4 5e bd f1 66 30 3c 00 3f 53 3d
       -0.16557421 -0.054371577 0.010766731 0.051573753
000070 37 3d 20 3e 81 a1 1d bd 45 87 91 3e a4 32 cb 3d
       0.15648352 -0.0384841 0.28423515 0.09921768
000080 d6 d6 79 3e f6 5c 8f 3d 15 a6 ca 3c d9 af 9d 3d
       0.2439836 0.07000153 0.024737397 0.07699556
000090 7b 0f 8e 3c 33 7e 0c 3e be 31 5e be 76 a8 c1 be
       0.017341366 0.13720016 -0.21698663 -0.37823838
0000a0 d7 25 0a bd 07 c2 bc bb a3 7f 3b bb cb b5 12 3d
       -0.033727493 -0.0057604345 -0.0028610013 0.035817903
0000b0 12 6f cc bd a9 e6 af 3d cc 05 5a bc dc 28 5e be
       -0.099821225 0.08588917 -0.013307046 -0.21695274
0000c0 3d 4e 94 3e 77 d8 e5 bd 4d ee dc ba f0 9b 72 be
       0.2896594 -0.11222928 -0.0016855687 -0.23692298
0000d0 96 11 e3 b8 ea c4 ab bd 61 8b 00 3e f7 06 4c 3e
       -0.00010827479 -0.08387168 0.12553169 0.19924532
0000e0 64 d7 52 bd 92 ff 6b 3b ce c7 61 3e 6a db 74 3e
       -0.051474944 0.0036010486 0.22048876 0.23911825
0000f0 05 3d bf 3b f7 5b 1a be 66 01 f8 3d 61 3d ea bd
       0.0058361315 -0.15074144 0.12109642 -0.11437488
000100 f7 7d d1 3c 88 56 be be e0 4f 40 be 6c 5a 14 3e
       0.02557276 -0.37175393 -0.1878047 0.14487618
000110 d2 cc 81 3d 3e 22 8b 3d a8 82 33 be 94 18 9a bc
       0.063378945 0.067936406 -0.1753031 -0.018810548
000120 85 ae 41 3d 22 a3 a2 3d c6 5d 8e 3d f5 07 76 3d
       0.047285575 0.07941271 0.069514796 0.060066182
000130 ac 1f 27 be e8 d8 0a 3e 44 8e 82 bd 3a e3 d3 bd
       -0.16320676 0.13559306 -0.06374791 -0.103460744
000140 8c 48 77 3d 7b cf c9 bd 3c a4 53 bd cd 70 0d be
       0.06037192 -0.09854027 -0.051670298 -0.13812561
000150 13 5e 42 be de 93 b0 bd 3c b0 e9 bd 2c 0a 11 3e
       -0.18981199 -0.086219534 -0.11410567 0.14164037
000160 98 33 98 bd 90 4c 79 be 72 b0 d8 3d 26 13 3f be
       -0.07431716 -0.24345613 0.10580529 -0.18659648
000170 c9 07 49 be 71 88 44 bd 67 c4 35 3e 86 9d ba bb
       -0.19631876 -0.047981683 0.17750703 -0.005695048
000180 ee d0 99 3e f1 0e 27 3c 6b 42 9a be c3 55 3d 3e
       0.30042213 0.010196433 -0.30128798 0.18489747
000190 9c 6a 2f 3e a1 f0 50 3e 53 ee cc bd ff b2 28 3d
       0.17130512 0.20404293 -0.10006394 0.04118633
0001a0 c2 bc 3f 3e 30 a1 28 3d 3c 83 09 bf 4f 1e 0f bc
       0.18724349 0.041169345 -0.5371587 -0.0087352535
0001b0 4a 4d be bd ae 87 ae 3d b1 5c 00 bf 17 4c a2 bd
       -0.092920855 0.085219726 -0.50141436 -0.07924669
0001c0 7f 66 19 3e 43 13 42 3d 13 3e 86 3d 9d f5 94 3e
       0.14980505 0.04738165 0.065548085 0.29093638
0001d0 5d d9 c6 3c d1 90 0c be e0 4c d7 3d e2 e9 4f be
       0.024273569 -0.13727118 0.105127096 -0.20304063
0001e0 00 32 d8 3a 2d ed ad 3d 2a 45 9b 3b 5e 32 09 3e
       0.0016494393 0.08492503 0.0047384696 0.1339812
0001f0 8c fa 20 be 5a 6d 9f 3d 2f b6 48 3d 7c 28 61 3d
       -0.15720576 0.07784529 0.04900187 0.05497025
000200 5a 6f f2 bd 6e a8 67 be 57 7b 29 3e 23 4a 87 be
       -0.11837645 -0.22622845 0.16550957 -0.2642375
000210 4f d6 f2 bb be 0b d0 3d db 86 d9 bd 0f c3 20 3d
       -0.0074108015 0.1015849 -0.10621425 0.039248522
000220 86 e8 1b 3d cb 2e 64 bd e8 f9 e1 3b 1a 57 17 3e
       0.03806355 -0.055708688 0.006896246 0.1477932
000230 56 09 94 be 3c b0 d0 bc b2 0d 23 be 1a dc da bc
       -0.28913373 -0.02547466 -0.15923193 -0.02671628
000240 65 60 0a 3e 82 b7 5b bd 4c e0 af bd ac 07 ba 3d
       0.13513334 -0.053641804 -0.08587703 0.090834945
000250 37 eb 34 be 56 fc 90 bd cb df 6f bd 02 8e 39 bb
       -0.17667852 -0.07079379 -0.058563035 -0.0028313403
000260 8f 22 35 bc 57 f6 50 be d3 d3 c5 3c a6 09 c5 bd
       -0.011055603 -0.20406471 0.024148857 -0.09620981
000270 c0 c8 a2 bc fb 02 06 3e f9 33 28 3e fe e0 ea bd
       -0.019871116 0.13087074 0.16426076 -0.11468695
000280 2e 11 0a 3e af b2 bb bd 32 3f 01 be 1c 3b 06 3e
       0.13483116 -0.091649406 -0.12621763 0.13108486
000290 29 51 68 3d 09 7f 68 bb 82 50 e5 be 59 e2 98 3e
       0.056718025 -0.003547611 -0.44787985 0.2986019
0002a0 bf de 4e bb 83 09 68 bd 04 ca 74 bd bb 25 ce bd
       -0.0031565872 -0.056649696 -0.05976297 -0.1006579
0002b0 48 54 8d bd 30 1f f4 3d e9 e6 60 be d4 d1 9b bb
       -0.06900841 0.11920011 -0.21963085 -0.004755238
0002c0 1e f5 4f 3e e3 8a 4d 3c b6 5f 31 be ba ad 6f 3d
       0.20308349 0.01254532 -0.17321667 0.058515288
0002d0 d1 ee 3d bd f6 26 e4 bd 87 0c d9 3d 76 9e ae 3d
       -0.04637033 -0.11140244 0.105980925 0.08526318
0002e0 da 32 9d bd aa f1 9b bd c0 d1 8a 3c d8 9a e4 3d
       -0.07675715 -0.07614453 0.01694572 0.111623466
0002f0 51 e3 8a bc 7b 78 88 3e ed e7 63 3d 3c 1d 25 be
       -0.016954096 0.2665442 0.055641104 -0.16124433
000300 9f d1 bf 3c 8b ee ae be 04 fe 0a 3b 8d 75 9b be
       0.023415385 -0.3416637 0.0021208534 -0.30363122
000310 11 11 70 bd 44 58 b6 bd d4 74 12 be 3e 3a 4d bd
       -0.058610026 -0.08903554 -0.14302379 -0.050104372
000320 23 80 f8 bc 39 2b a7 bd 6b ac fd 3d 28 55 5a 3e
       -0.030334538 -0.08162541 0.12386402 0.21321547
000330 b6 1f 7d be b2 34 10 3e 83 3d b9 bd 76 db 95 bd
       -0.24719128 0.14082602 -0.090449356 -0.073172495
000340 8e de 62 3d 65 d5 08 be db a7 0a 3d 0c 35 17 3d
       0.055388026 -0.13362654 0.033851486 0.036915824
000350 2f 73 98 3d ff 0a ca 3c 32 17 0b be 8f f3 03 bd
       0.074438445 0.024663446 -0.13583067 -0.032214697
000360 0d c7 9d 3d 58 e3 73 be 1a 6a 32 bd eb aa 4a be
       0.077039815 -0.23817194 -0.043558218 -0.19791763
000370 86 6f 1c ba c4 c5 ca 3d 0b e0 c9 3d 81 17 a0 bd
       -0.0005967546 0.09901002 0.09857186 -0.07816983
000380 28 1e af 3d e9 b0 62 bd 9a a4 02 3e 6a 62 ef 3d
       0.08550674 -0.055344496 0.12758103 0.11688693
000390 0b eb 26 bc 7e 2a 4a 3d da 16 f5 be 70 9b ea 3d
       -0.010187875 0.04935693 -0.47868997 0.114554286
0003a0 f2 64 60 3e 18 dd 08 ba d0 50 6f bd 12 be 99 3d
       0.21913508 -0.0005220934 -0.05842668 0.07506956
0003b0 d6 8b 07 3c 1c 5e d6 3d d6 21 55 be 66 db 77 bd
       0.008273086 0.10467169 -0.20813689 -0.06051197
0003c0 dd 23 1b 3e 6f 28 8c 3d fe 98 d9 bb 15 9a a2 bd
       0.151504 0.068436496 -0.0066405525 -0.07939545
0003d0 6d 39 ae 3b 3e bb 1e be 6a 1a 6d 3e f4 fa 51 3e
       0.0053169043 -0.15501115 0.23154607 0.20505887
0003e0 d2 32 c2 3d 7a 52 8a 3d 32 14 03 bd 60 31 18 3e
       0.094823495 0.067540124 -0.03200168 0.14862585
0003f0 2e e9 74 be f1 74 f2 3c ef f7 45 bd 93 c3 3b be
       -0.23917076 0.029596778 -0.04833215 -0.18336324

Q2.head.4.bias f4 [18]
000000 b8 c1 b1 3d 87 39 e6 3d 92 68 33 3d 45 89 0a 3e
       0.08679527 0.11241441 0.043800898 0.13528927
000010 b0 76 1f bd 20 74 0a 3c fd 79 c4 bd fc e8 86 bd
       -0.03893155 0.008450538 -0.0959358 -0.06587407
000020 34 49 e1 bd 90 0c 11 be 06 68 26 bd f7 87 ef bd
       -0.110002905 -0.14164948 -0.04062655 -0.11695855
000030 0c a5 29 be bc e1 1c be 64 14 10 be 25 d6 8e bc
       -0.16566867 -0.15320486 -0.14070278 -0.017436096
000040 c8 7f df bd 6d d4 9d bc
       -0.10913044 -0.019266332
