script/logs/multi-block/model/final/online_critic.pth (torch, 49810 bytes, 12 tensors)

Q1.head.0.weight f4 [64, 11]
000000 39 f0 e5 bd 17 37 2d bf ec b8 b5 3e 56 c5 bd 3d
       -0.112274595 -0.67662185 0.35492647 0.092661545
000010 6c 85 a0 3e 72 c8 a9 be 0f bd 9b be eb 52 55 3e
       0.31351793 -0.3316074 -0.30417678 0.20832412
000020 9a e4 b4 bd de 82 18 3d db 67 67 3d 6b a1 dc bd
       -0.08832665 0.03723418 0.05649553 -0.107729755
000030 2e 3c ff bd 37 c1 10 3e 5e 4c 77 3e 2c c0 d1 bd
       -0.1246265 0.14136206 0.24150226 -0.10241732
000040 19 b5 04 bf 7b 04 5b be e8 21 49 3e 4c 8c 36 bd
       -0.51838833 -0.21388428 0.1964184 -0.04456739
000050 a0 a4 56 3e e6 1a 67 be 1f 5c b2 be 89 7e 0c be
       0.20961237 -0.22568855 -0.34835908 -0.13720144
000060 c6 a1 96 be 32 ce c0 be 70 e5 1f 3e 2e 24 1b be
       -0.29420298 -0.37657315 0.15614867 -0.1515052
000070 4c e9 d2 bc fc 85 e2 3d 0e c3 36 3e f7 38 7c be
       -0.02574601 0.11060712 0.17847845 -0.24631105
000080 48 00 23 be 19 9f 75 bd 4c cf 29 be dc 89 04 be
       -0.15918076 -0.05996618 -0.16582984 -0.12943214
000090 df d4 be 3e 54 b0 f2 bd 03 bc 4a 3e dd 9a 85 3d
       0.37271783 -0.11850038 0.19798283 0.065236785
0000a0 5c 52 f3 3d 85 d0 84 3c f4 8d c5 3d c0 12 0f 3d
       0.11880943 0.016212711 0.09646216 0.03492999
0000b0 0d 4c 5e be 11 0f 76 bd 66 5a 73 3e 9d 61 b5 3e
       -0.21708699 -0.060072962 0.23764953 0.35426036
0000c0 f4 80 41 3d 8c b6 49 be 52 a9 71 3e a8 97 b3 be
       0.04724212 -0.19698542 0.23599747 -0.35076642
0000d0 12 22 7c 3e ca 60 3e 3e ca 1e 2a 3c d4 6b cf 3b
       0.24622372 0.1859161 0.010383317 0.006329993
0000e0 07 9f a2 3e f2 bc d8 bb 51 85 1e be a5 f5 be bd
       0.31761953 -0.006614321 -0.15480544 -0.09324197
0000f0 c9 d0 a8 3e ed f5 53 bd cd 54 c4 bd 17 ee a0 3d
       0.3297179 -0.051748205 -0.09586487 0.07857912
000100 3f e9 e8 be 35 65 3f 3e 6c 08 3f be 89 a3 39 3d
       -0.45490453 0.18690951 -0.18655556 0.045321975
000110 cc 49 34 bd e8 cc 67 3d 7f 2d 15 3d 0c ec a0 bc
       -0.04401569 0.0565919 0.03642034 -0.019643806
000120 5d b9 8d be 0b 65 82 be 3c 23 d1 3e eb c1 a5 bd
       -0.27680483 -0.25467715 0.40847194 -0.080936275
000130 45 c6 7b 3a 86 30 10 3e 75 fb c8 be 1f d8 b1 be
       0.00096044346 0.1408101 -0.39254346 -0.347352
000140 60 4f e0 bd d8 55 75 be 8a 6d 83 3d 94 6e 39 3e
       -0.109526396 -0.23958528 0.06417377 0.18108588
000150 11 be 96 3c 17 7b 33 bc b2 b9 a2 3d 8e b5 aa bd
       0.018401178 -0.01095464 0.07945575 -0.0833541
000160 f2 a4 dc bc 4c c8 92 be 38 c0 64 be e9 89 65 3d
       -0.02693412 -0.2866844 -0.2233895 0.056039724
000170 04 fa 16 3e 3c 99 83 bd 40 e5 63 3e 89 d1 34 3e
       0.14743811 -0.064257115 0.2225542 0.17658056
000180 db 24 bb bd 53 49 e7 3e ff 2c c2 bc d7 a3 7d be
       -0.09137889 0.4517313 -0.023703096 -0.24769531
000190 38 e7 b6 bd 2e 8e 0d bd cc ea 83 3d d2 2f 74 3e
       -0.0893082 -0.03455942 0.06441268 0.23846367
0001a0 f7 73 f2 bd f4 7a 22 3e 66 86 19 3e 41 4e 9c be
       -0.11838525 0.15867215 0.14992675 -0.30528453
0001b0 22 d1 49 3e 59 98 39 bd f1 69 af 3e 6e 60 41 3e
       0.19708684 -0.045311306 0.34260514 0.18884441
0001c0 17 c9 c7 bd 12 43 4e be c7 b3 20 3d 08 ac 02 3e
       -0.09755152 -0.20142773 0.03923395 0.12760937
0001d0 6e 30 f7 bc 85 88 5d be 0e 60 91 3e 7d 2f f3 be
       -0.03017446 -0.2163411 0.28393596 -0.47497168
0001e0 39 10 03 3e dd b2 34 3e f4 7b d3 be 6b 59 96 3e
       0.12799157 0.17646356 -0.41305506 0.29365095
0001f0 fc 34 25 3e fc a2 30 3d 78 50 e0 bd 2d 96 ce 3d
       0.16133493 0.043124184 -0.10952848 0.100872375
000200 24 5b a9 3d 93 5c 65 be 45 93 05 3e 73 77 7e be
       0.08269337 -0.22398596 0.1304446 -0.24850254
000210 1c bd a1 be 0f ef 85 be 2f 68 8a be 52 51 97 3d
       -0.31589592 -0.2615895 -0.2703261 0.073885575
000220 5d 66 e3 38 4b 5a 99 3b 95 05 e9 bd 06 61 8b 3e
       0.0001084327 0.004679953 -0.11378018 0.2722246
000230 41 62 01 3e f0 f9 9a bd 6f 21 e7 3d 9b 41 f9 3d
       0.12635137 -0.07567203 0.11285674 0.121707164
000240 38 28 67 be 58 8a 1a be 89 0b 0f be ac 2d 95 3e
       -0.22573936 -0.15091836 -0.13969244 0.29136407
000250 a1 e7 f8 3d a6 4f 7c be 6c a0 05 3e 8c 6d ff bc
       0.12153555 -0.24639758 0.13049477 -0.031180166
000260 89 18 ef 3d 42 70 1f 3d fd 07 cb bd 81 d7 80 3e
       0.116746016 0.038925417 -0.09913633 0.25164416
000270 5a 48 f1 3d 55 f3 cc 3d a0 78 6c 3d 67 06 64 3d
       0.11781378 0.100073494 0.057732224 0.05567017
000280 1e 4e 84 bd 7e ea 28 be 45 d9 f3 3d a9 72 05 bf
       -0.06460212 -0.16495702 0.11906675 -0.5212808
000290 e9 94 a8 bd a1 eb 9d bc 99 15 0a 3e 9c 03 fd 3b
       -0.08231527 -0.019277396 0.13484801 0.0077213775
0002a0 43 a5 e5 3d 95 df 4c bd 2f 27 70 3e 2c 22 81 bd
       0.11213162 -0.050017912 0.23452447 -0.06305346
0002b0 c1 ce 34 be fd d1 bb bd 57 8f bd 3e 5d 9b b6 bd
       -0.17656995 -0.091709115 0.37023422 -0.08916352
0002c0 3b dc 7f 3c 0f e9 80 3e 77 22 81 3c 15 6f f5 bd
       0.015616472 0.2517781 0.015763504 -0.11984078
0002d0 33 1d a0 be 35 43 9a be 6e 3f d3 3e e4 a7 87 3e
       -0.31272277 -0.301294 0.4125933 0.26495278
0002e0 50 aa 99 bd c9 6b 15 be 77 5f ad bc ac 7a ac 3c
       -0.07503188 -0.14591898 -0.021163685 0.021054588
0002f0 ea 1f ac 3e a3 a8 c7 3d 8a 06 0e 3e 22 5d 84 be
       0.33618098 0.09748962 0.13869682 -0.25852305
000300 50 aa 7a 3d 2d 78 69 bd 97 f7 04 3e e9 9b 5f 3e
       0.06119758 -0.056999374 0.12985073 0.21836819
000310 04 e5 58 be 64 2b e0 3b d0 82 e0 bd d3 e5 79 be
       -0.21181113 0.00684111 -0.109624505 -0.24404077
000320 f4 9c 96 3e 48 97 96 3e 66 e3 5e 3e 67 76 70 3e
       0.2941662 0.29412293 0.21766433 0.23482667
000330 b2 98 99 3e e7 c7 14 3e 61 f7 e0 3d 1f 4c 57 bc
       0.2999931 0.14529382 0.10984684 -0.013140707
000340 4e 20 70 be b0 50 36 bc 3b 95 53 3e c7 38 56 be
       -0.23449823 -0.011127636 0.20662396 -0.20920096
000350 a2 c7 fe bb c5 ac 0d be 30 28 5a bd ea 1c 06 3e
       -0.007775263 -0.13835438 -0.053260982 0.13096967
000360 0d c3 19 3e e7 b5 e7 3d 18 8f b2 3e 00 5c 91 be
       0.15015812 0.11313992 0.34874797 -0.28390503
000370 5e 59 8e 3e 51 76 c7 bb 17 44 b1 3e 6e 10 ac be
       0.27802557 -0.0060871025 0.3462226 -0.33606285
000380 3e 5f 0d be 4f 56 cb be 10 69 04 3e bb 34 8a 3e
       -0.13805863 -0.39714286 0.12930703 0.26993355
000390 f6 21 35 be 8f 80 21 3e f9 26 54 3e e1 ba 8f be
       -0.17688736 0.15771697 0.20717992 -0.28072265
0003a0 c6 a1 17 bd 2b d1 34 3d 3c bb 29 be 83 ad 40 be
       -0.037019514 0.04414479 -0.1657533 -0.1881619
0003b0 84 eb 21 3e 8f 78 fd bc 3d ef f0 bd bb bb 2b bc
       0.15812498 -0.030941276 -0.11764381 -0.01048177
0003c0 0a e8 1d bd 00 9b cd 3b 6c f6 1e be 5d ab 8d bd
       -0.038551368 0.006274581 -0.1552369 -0.069174506
0003d0 9f 8a 04 3d 55 b0 ae be d9 38 1c bd e7 8f 71 be
       0.032358762 -0.34118906 -0.03814015 -0.2359005
0003e0 0e 86 eb bd 39 f1 42 3e 14 87 c4 3e e7 d4 5e be
       -0.11500178 0.19037332 0.38384306 -0.21760903
0003f0 d5 8a 8e bc 54 c2 98 3e 0f ba 9a be 15 d3 31 be
       -0.017400185 0.2983576 -0.30220076 -0.17365678

Q1.head.0.bias f4 [64]
000000 bc 66 06 be cf fd d4 3e 53 6c a8 3e 72 64 80 3d
       -0.13125128 0.4159989 0.32895145 0.062691584
000010 73 cd a9 3e 99 a1 9c bd 12 c2 c4 bd 59 2f 3c 3e
       0.33164558 -0.0764801 -0.096073285 0.18377437
000020 a3 ba 94 3c fd b9 9b 3e d3 db 1e 3e cd e6 56 3d
       0.018155402 0.30415335 0.15513544 0.052466203
000030 26 83 b1 bd ac 0a 97 3e 02 5c ab 3e 9f fa 43 3e
       -0.08667593 0.2950033 0.33468634 0.19138573
000040 44 08 6c bc 5b ab 94 bc b6 54 37 3e 35 ce a3 3e
       -0.014406268 -0.018148115 0.17903408 0.3199326
000050 db b8 80 3b 03 f4 1a 3e 4a 62 2f be 8e 85 4b 3e
       0.0039282865 0.15132146 -0.17127338 0.19875166
000060 79 48 04 be 2f 1a 2f 3d 32 69 80 bd 3c 65 bd 3e
       -0.12918271 0.04274958 -0.062700644 0.36991298
000070 a4 bb 8a 3e 3f 24 4b bd 08 ef 32 bd 7f bf 7a 3e
       0.27096283 -0.049595114 -0.04368499 0.24487112
000080 24 a0 66 3e 01 c1 5d 3c d1 a4 54 3e 1c 37 fa 3d
       0.22522026 0.013534785 0.20765997 0.122175425
000090 aa 93 9f 3e f8 e9 b2 bd 9b ef ef bd 96 a4 7f 3e
       0.31167346 -0.08736032 -0.11715623 0.24965128
0000a0 35 72 bb 3d e3 4d 18 bd 45 30 a7 3e 22 2c 8b bd
       0.09152643 -0.037183654 0.32654014 -0.06795527
0000b0 b7 31 4e be a7 89 86 bb 89 7a 8c 3d bc 42 d5 bd
       -0.20136152 -0.004105765 0.06859309 -0.10413119
0000c0 15 2b 7e be d0 cb ba 3e fd a8 cb 3e ad 3a 82 be
       -0.24821122 0.36483622 0.39777365 -0.2543539
0000d0 53 9c 9b 3e 1b 90 84 3e 5b 06 ad 3c e2 92 ba ba
       0.30392703 0.25891194 0.021121195 -0.0014234448
0000e0 0f cd 62 3d 85 15 33 3e 65 a5 97 3e c7 d7 a5 3e
       0.05537134 0.17488678 0.29618374 0.32391188
0000f0 20 2b 40 3e b0 be b9 3e 65 d3 8c bd 6f 09 44 3e
       0.18766451 0.36278296 -0.06876258 0.19144224

Q1.head.2.weight f4 [64, 64]
000000 be b6 eb bd 9d 93 44 3d 54 90 4b 3c ee 82 a3 bd
       -0.11509465 0.047992337 0.012424547 -0.07983957
000010 a7 92 d7 bd f3 ff d2 bc c0 61 41 bd c5 c3 78 bd
       -0.105260186 -0.025756812 -0.047212362 -0.060733575
000020 16 04 02 be a3 60 bc bd 40 cb c7 3d 1d f0 92 bd
       -0.12696871 -0.091981195 0.09755564 -0.07174704
000030 17 10 4a 3d 07 82 6d bb d7 a6 df bc 47 81 fe 3c
       0.04933175 -0.0036240832 -0.027301235 0.031067504
000040 b9 a9 a2 3d 29 63 20 3d fd 33 55 3a aa 66 b7 3d
       0.07942528 0.039157066 0.0008133052 0.089551285
000050 30 2b 63 ba 31 9d 93 3c f9 01 f9 3d d2 b6 cb bd
       -0.0008665798 0.01801929 0.121585794 -0.099469796
000060 0a fb b9 3d fd 26 8c bd 1b 63 f2 bb d7 2c a8 bd
       0.09081085 -0.06843374 -0.007397068 -0.082116775
000070 a4 1a 90 3d ba 55 ec bd a7 ec 6f bd 68 37 40 3c
       0.07036331 -0.115397885 -0.0585753 0.01173196
000080 b6 63 6e bd 95 a7 c2 3b d6 14 d0 3d 39 b3 fd bd
       -0.05820056 0.0059403875 0.10160224 -0.123877
000090 f7 c4 ba bd 7a d8 da bd 9c a5 f5 3d 93 57 90 3c
       -0.09119599 -0.10685821 0.11994478 0.017619884
0000a0 a5 75 be bd 88 fb fa bd 09 70 a5 3d d8 3b ec 3d
       -0.09299783 -0.12255007 0.0807801 0.11534852
0000b0 06 e9 9a bd 4f f6 9d 3c 07 50 06 bd fe d4 97 3d
       -0.07563977 0.019282488 -0.032791164 0.07413672
0000c0 4a 40 8f bd 9f 94 98 3d c1 4a e7 3d 1a 0a 9b 3d
       -0.06994684 0.07450222 0.11293555 0.07570286
0000d0 76 13 0a bd 62 04 49 3b 9b f8 45 3d f9 25 98 bd
       -0.033709966 0.0030672778 0.04833279 -0.07429118
0000e0 65 20 8f bd c4 ea 0a be bf c5 9c 3d fd f4 8d bd
       -0.06988601 -0.13566118 0.076549046 -0.069314934
0000f0 1b 47 cd 3d 45 4d 16 bd 98 45 4c bd a5 76 58 3d
       0.10023328 -0.036694784 -0.049871057 0.052847523
000100 3a 2b 65 be 1e 7b 56 bd e5 d4 42 3e 7e a0 cc bd
       -0.22379771 -0.052363507 0.19026525 -0.09991549
000110 43 51 96 bd c3 e5 34 be e1 0b d6 bc fd 1b 49 3e
       -0.07339718 -0.17665772 -0.026128711 0.19639583
000120 93 d2 91 3e e0 76 13 3e 5a b6 46 bc e4 02 28 be
       0.28480968 0.14400816 -0.012128437 -0.16407353
000130 04 7e 45 3e 57 65 0b 3d 59 ce 37 bc 38 27 7d 3e
       0.19286352 0.034032192 -0.011218631 0.24721992
000140 23 90 e3 3d 73 3d 8f bd fc d0 f9 3d 49 3d 76 3e
       0.11111476 -0.069941424 0.12198064 0.24046816
000150 10 6c 3b be 36 7c a9 bc e5 53 b3 bd e4 0d 73 bd
       -0.18302941 -0.020689111 -0.08756236 -0.05933942
000160 80 28 b8 bb 15 92 c3 3c 90 96 30 3d c4 18 2d bd
       -0.0056200624 0.023873368 0.043112338 -0.042259946
000170 e4 5f cf 3d f8 37 f7 3d 2d 99 04 3e 46 61 7d 3d
       0.101257116 0.12071222 0.12949057 0.061860345
000180 f4 e5 cb 3d 36 95 b0 bc 94 fa 2b 3d c1 ef a1 bd
       0.099559695 -0.021555524 0.041987017 -0.079070576
000190 f5 9b 57 3e 46 65 dd bd a7 3a 09 3e 9d 72 37 3e
       0.21055587 -0.10810332 0.1340128 0.17914815
0001a0 a0 65 1f 3c a5 7f b2 bd ff af 7e 3d 09 49 86 bd
       0.009728819 -0.087157525 0.06217956 -0.06556899
0001b0 d0 31 ec bd 8c 5f f8 bb d9 26 8c 3d b6 74 a0 bd
       -0.115329385 -0.0075797495 0.06843347 -0.07834761
0001c0 20 e9 4c bd bf 0d 0b 3d 19 d8 32 3d f0 62 46 3d
       -0.050027013 0.033948656 0.043663118 0.048434198
0001d0 68 0a 30 3e 9b a5 cf 3c 2b d8 02 be 0b 05 d1 3d
       0.1719147 0.025347522 -0.12777774 0.1020604
0001e0 f9 04 29 3e 8e 0c 37 3e 4f 85 98 bc 59 28 45 bd
       0.16505803 0.17875883 -0.018618254 -0.04813418
0001f0 aa 6b 2a bb c9 6a 10 3e 2f 0b 84 3d 5a f3 8b bd
       -0.0026004114 0.14103235 0.064474456 -0.06833525
000200 40 7f 07 3e fa 52 09 3d 8c 3b 68 3c bc ff 5d be
       0.13232136 0.0335264 0.014174353 -0.21679586
000210 be 8c 97 3d a7 23 05 3e 47 e5 90 3d 9e 3c 86 38
       0.07399891 0.13001882 0.07074981 6.400909e-05
000220 d5 25 93 3d f2 50 7d 3d f6 2a 57 3e 1a 66 2c be
       0.0718495 0.061844774 0.21012482 -0.16835824
000230 f9 1e 7a bd de bc 8f bd ef 0d 44 bd d1 07 32 3e
       -0.061064694 -0.070184454 -0.04786485 0.17385794
000240 34 0b 48 be 64 de 1e be 33 1c 46 3d 6a 9a dc 3d
       -0.19535524 -0.15514523 0.048366737 0.1077164
000250 88 79 37 be 08 89 e9 3d 4c 03 c2 3c 9d e1 ad 3c
       -0.17917454 0.1140309 0.023683213 0.021225745
000260 ae 8a 91 bd f4 18 4a be 00 7c 21 be 2e 7c 95 3d
       -0.07106529 -0.19736081 -0.15769958 0.07299076
000270 17 ce 9c bd 47 a1 cc bd 0b 6e 99 3e 35 d4 09 3e
       -0.07656496 -0.09991699 0.2996677 0.13459857
000280 5f 7c 5d 3d d1 23 cf bc d6 33 96 bc f9 d5 06 be
       0.054073688 -0.025285633 -0.018335264 -0.13167562
000290 fa a0 c1 bd a0 d8 ca bb f9 f1 54 be b2 0c bc bd
       -0.09454532 -0.0061903745 -0.2079543 -0.09182109
0002a0 b0 5d 08 3e 66 6b 2a be 5c 2d 15 bd 90 7a ca 3c
       0.13316989 -0.16642532 -0.03642021 0.024716645
0002b0 0e ce fc bd 96 62 20 be 3e c0 18 be 08 5d 9a bc
       -0.12343989 -0.15662608 -0.14917085 -0.018843189
0002c0 f4 4c 39 bd 7b c9 21 3e b0 c9 7a 3d 60 10 f9 3d
       -0.045239404 0.15799515 0.0612275 0.121613264
0002d0 dc 41 26 bd 0b 43 64 bc 2c c6 4b bd 18 e6 09 3e
       -0.040590152 -0.013932 -0.04974954 0.1346668
0002e0 bf 65 2e bd fa 91 ee 3d ec 0e d7 bd 6a 70 09 3e
       -0.0425775 0.116489366 -0.10500893 0.13421789
0002f0 a5 90 e2 bd a3 00 91 3d 2b 5b e2 bd 13 64 bb bd
       -0.11062745 0.070801996 -0.11052545 -0.09149947
000300 c7 76 24 3e 59 19 84 bc 1c f9 11 3d 4e 5b 88 bd
       0.16060935 -0.016125368 0.03563796 -0.0665804
000310 c0 8e 57 3d e2 01 35 be 85 b7 ae 3d e8 58 86 bd
       0.05262637 -0.176765 0.08531097 -0.06559926
000320 19 10 0a 3e 49 26 2f 3e 5f d1 22 be 5a b1 ef 3c
       0.13482703 0.17104448 -0.15900181 0.029259373
000330 e3 2d 2f be 6e 3c b9 bd bd 75 7d bd bc ef f6 bc
       -0.17107348 -0.09044729 -0.061879862 -0.030143611
000340 2c aa 04 be f7 78 ac bd 50 83 15 3c ab 2a d6 bd
       -0.1295554 -0.0842151 0.009125546 -0.10457357
000350 7d 61 ad 3d 72 78 b9 3e 50 87 16 3e 07 dc 15 bd
       0.0846586 0.36224705 0.14700055 -0.036586788
000360 b0 f0 15 bc 24 a6 fa bb 1d 5f 42 be 18 86 2d bd
       -0.009151623 -0.0076492 -0.18981595 -0.04236421
000370 42 9e 40 3e e0 da 19 3c 3b 27 26 bc b4 1d fb 3c
       0.1881037 0.009390563 -0.010141189 0.030653812
000380 1d 61 4d 3e e5 47 5f be 00 a5 0e 3e e3 d0 96 3d
       0.20056577 -0.2180477 0.1393013 0.07364061
000390 43 1e ae 3d 35 1b d2 bc c0 25 7b 3d 01 34 16 bd
       0.08501866 -0.025647739 0.061315298 -0.03667069
0003a0 89 4b 66 3e b2 75 f9 3d c4 55 1f bd b2 ae ac 3d
       0.22489752 0.12180652 -0.03890015 0.08431758
0003b0 18 9e 8b bc 8c 8f c0 bd e3 2c c8 3c 8c d5 da 3d
       -0.017043158 -0.094023794 0.024435466 0.10685262
0003c0 30 dc 8e 3d 4b 42 18 3b 43 20 68 3d 10 52 d0 3c
       0.06975591 0.0023232873 0.056671392 0.025429755
0003d0 3a a8 3c 3e b4 8c 68 3e f4 68 0c be 46 de 11 3e
       0.18423548 0.22709924 -0.13711911 0.14244947
0003e0 20 3b 9a bd 66 52 b6 3c d8 ef 30 3d cb d8 38 3d
       -0.075308084 0.022256088 0.043197483 0.045128625
0003f0 36 bb 61 bd c0 cc 0f be 07 4d 98 bd 82 0a 10 3e
       -0.05511018 -0.1404295 -0.07436567 0.14066508

Q1.head.2.bias f4 [64]
000000 3a 04 8e bc fa 20 05 3d e5 85 cb 3d 45 4e 00 3e
       -0.017336 0.032502152 0.09937648 0.12529857
000010 22 7f 95 bc 88 1b 32 3d e2 2a c9 bd de da d4 3d
       -0.018249098 0.043483287 -0.09822632 0.10393308
000020 33 d5 d6 3d 00 7b c2 bc ad 60 62 3d bd da 8a 3d
       0.10489883 -0.023740292 0.05526798 0.06780002
000030 e8 b8 60 bd 45 3f 3b 3e 4f 6b c3 3c 27 bf 37 3e
       -0.05486384 0.18285854 0.02385488 0.17944013
000040 a3 7c b9 bd 1f f9 2c bd 84 75 72 bc 97 a2 f8 3d
       -0.09056976 -0.042229768 -0.014798526 0.121403866
000050 9a 23 04 bd bc a6 f7 bc db ed f8 3d 68 99 db 3d
       -0.032260515 -0.030230872 0.12154742 0.10722619
000060 29 0d 16 3e f7 cd 74 3d 83 ab 08 3e 03 e9 42 3b
       0.14653458 0.059766736 0.13346677 0.0029740937
000070 c1 51 70 bb f1 a6 56 3c d5 82 d0 3c ce e1 96 3c
       -0.0036669823 0.013101325 0.02545301 0.018418219
000080 59 68 8b 3d 97 12 85 3c 8b 78 fe 3b 95 e0 e1 3a
       0.06807012 0.016244216 0.0077658347 0.0017233068
000090 67 12 60 bc 90 d7 a4 bd e6 4e 45 bd 95 9d 8b bd
       -0.013676262 -0.08048928 -0.048170947 -0.06817166
0000a0 f5 35 d1 bd 13 07 b9 3c 00 29 4d bd 3c 16 f4 bd
       -0.102153696 0.022586381 -0.05008793 -0.11918303
0000b0 a3 e0 e7 3d 7a 83 bd bd c2 bf a3 3d 00 cc 0d 3c
       0.11322143 -0.09253593 0.07995559 0.008654594
0000c0 fa 09 3f 3d 60 d4 10 3e db 76 e4 bd 9b af 84 3d
       0.046640374 0.14143515 -0.111554824 0.064788066
0000d0 df 93 b1 3d 28 fe e1 3d ca 0a ef bd 57 59 15 3d
       0.08670782 0.110348046 -0.1167198 0.036462154
0000e0 ef e4 e2 3c e2 f1 bd bd 04 12 f2 3d b8 4f b4 bc
       0.027697055 -0.09274651 0.118198425 -0.02201067
0000f0 67 0b 3c 3d 58 28 9a 3c 47 0d 29 3d 2f ae 57 3d
       0.04590931 0.018818066 0.041272428 0.05265635

Q1.head.4.weight f4 [11, 64]
000000 d8 56 c2 3c 63 be bb 3d f1 12 0a 3d 74 56 43 3e
       0.023723051 0.09167173 0.03370947 0.19075948
000010 52 33 05 be c3 76 cc 3c 82 24 be 3d b2 a1 18 be
       -0.13007858 0.024958974 0.09284307 -0.14905432
000020 d9 36 3e bc 0a d9 7f 3d 0e cf 4a be dc a2 24 be
       -0.011609756 0.062462844 -0.19805548 -0.16077751
000030 c1 51 05 be 16 76 7c bc d6 83 e1 3c 5a 84 1b be
       -0.13019468 -0.015409013 0.027528685 -0.15187207
000040 1f 37 08 3e fe c7 e9 3d 2d bd 64 be 5a 7a 88 be
       0.13302277 0.114150986 -0.2233779 -0.26655847
000050 55 db e8 bd 74 9f e9 bd 73 d3 db bd 37 bb 14 be
       -0.11369959 -0.114073664 -0.1073369 -0.14524542
000060 e9 d8 e6 3d db bf e4 bb 0d 8c 6a bd 48 3c 89 3d
       0.11271841 -0.0069808788 -0.05726247 0.06700951
000070 3c 98 7b 3c ed e3 05 bd a3 ff f5 bd cb d7 a4 bd
       0.01535612 -0.03268807 -0.120116495 -0.08048972
000080 8d 28 22 be 18 e2 08 be 6b 6e 24 3e de 76 29 bd
       -0.15835781 -0.13367498 0.16057746 -0.041373126
000090 4f 72 cb 3d a2 ef af 3d cb 70 19 3e bf 28 d6 3d
       0.09933912 0.08590628 0.14984433 0.104569905
0000a0 e3 38 ee 3d ad 3e af 3d 65 41 7b bd a0 46 03 bd
       0.11631944 0.08556876 -0.061341662 -0.032049775
0000b0 3c 3c 37 be 1e b3 86 3d 75 22 29 3d 38 7f a0 3c
       -0.17894071 0.06577133 0.041292626 0.019591913
0000c0 a2 41 ff bd 4b 62 4a 3e c5 fe c7 bc 57 c4 b2 3d
       -0.1246369 0.19764058 -0.024413476 0.08728855
0000d0 34 a6 03 3e e3 84 a4 3c 60 bd 26 bc 07 8b 25 3d
       0.1285637 0.020082897 -0.010176986 0.04041579
0000e0 13 db d5 bd 40 08 b4 3d 57 ee 5d 3e 40 6b 85 3c
       -0.10442176 0.08790636 0.2167295 0.016286492
0000f0 f8 0e 15 3e 21 8a b8 3c d5 05 11 3e 6f b2 90 3c
       0.14556491 0.022526802 0.14162381 0.017663209
000100 55 5f 90 bd df fe fc bd fb 13 00 be 15 3c c9 bd
       -0.07049433 -0.123533 -0.12507622 -0.09825913
000110 ee 43 3a be b4 c6 fe bc 78 fa 82 3c 2b eb 5f 3d
       -0.18189976 -0.031100608 0.015988573 0.054667633
000120 07 94 29 be b0 40 9d bd 0c db 2c bd 89 5e 20 be
       -0.16560374 -0.07678354 -0.042201087 -0.15661062
000130 b2 a9 d7 bd 1f 14 1f be 70 1a 58 bd 93 bd 85 bd
       -0.10530414 -0.1553502 -0.052759588 -0.06530299
000140 89 14 f7 3d 01 2f 3a 3e d7 d3 08 3e e2 5c 94 bc
       0.12064464 0.18181993 0.1336206 -0.018110696
000150 94 4e 15 3d 5d 45 29 be a0 02 a6 3c 7b bf 28 3d
       0.03645189 -0.16530366 0.020264924 0.041198235
000160 c2 05 16 bd b4 54 b8 bd 3b 4a 8f bd 2e 11 1b be
       -0.036626585 -0.09000531 -0.0699658 -0.15143272
000170 9e c2 e8 bd 26 79 08 3e 79 22 ad bc 56 c7 c1 3d
       -0.11365245 0.13327464 -0.021134602 0.094618484
000180 84 8d f9 3d 40 50 a5 bd 57 9e a2 bc d4 50 54 be
       0.12185195 -0.08071947 -0.019850893 -0.20733958
000190 d4 20 2c be 58 8d a0 bc b5 a6 06 be c9 ee 56 3d
       -0.16809398 -0.019598648 -0.13149531 0.052473817
0001a0 00 27 dc bd f8 58 3f 3e b5 c6 30 be 70 61 b9 3c
       -0.10749626 0.18686283 -0.172633 0.02262947
0001b0 90 17 50 3d 54 e8 6c bd e3 c4 dd bd 10 d4 53 3d
       0.05080372 -0.057838753 -0.10828569 0.05171591
0001c0 67 2d 30 3c d3 74 29 bd 90 f9 b1 3c ba 0c 98 bd
       0.010753012 -0.041371178 0.021725446 -0.074243024
0001d0 53 fe 09 3e e2 f7 50 be 14 2a 50 3d 9a 6b fb bc
       0.13475923 -0.2040706 0.05082138 -0.030690957
0001e0 4c 59 1e be 40 8e 64 bc 0b 92 1f 3c 84 98 9d bd
       -0.15463752 -0.013949931 0.009739409 -0.07695106
0001f0 91 d1 32 3e 10 a0 3d be a4 4a 36 3e 38 d0 8c bd
       0.17462756 -0.1851809 0.1780191 -0.06875652
000200 73 0f 85 bd b7 be 41 3e 2e 2f bd 3c 58 70 b1 bd
       -0.06497087 0.18920408 0.023093786 -0.08664006
000210 da b5 99 bd 72 e0 48 be b8 3d 97 3d 2a a1 20 be
       -0.075053886 -0.19616869 0.07384819 -0.15686479
000220 d6 e9 df 3d 7d 05 91 3d c1 a2 2c 3d 30 a6 9d bc
       0.109332725 0.07081125 0.0421474 -0.019244283
000230 f1 7b 80 3d eb bb 31 be c0 f4 e5 bb 0a 72 ce bd
       0.0627364 -0.17356841 -0.007017702 -0.10080345
000240 4e d5 cf 3d 00 9b e5 3d 09 d8 87 3d ba c1 3f be
       0.101481065 0.112112045 0.06633002 -0.18726245
000250 e4 4d eb bd 87 ec 2d be 88 00 3f 3e 25 ce ed 3d
       -0.11489466 -0.1698476 0.18652546 0.116115846
000260 40 17 8c bd cf 06 c9 bd b6 82 c6 3d a5 e3 78 3d
       -0.06840372 -0.09815752 0.096929 0.060763974
000270 64 84 95 bd 82 86 00 be d2 fb 3e 3d 51 c5 cd bc
       -0.07300642 -0.1255131 0.046626873 -0.025118502
000280 06 ce 5b bc 9f a6 8d bd 73 a5 9d bd e8 49 89 bd
       -0.013415819 -0.06916546 -0.076975726 -0.067035496
000290 01 9f 02 be e8 14 a9 bd 10 29 14 3e 34 3d b9 bc
       -0.12755968 -0.08255941 0.14468789 -0.022612192
0002a0 28 79 47 3d cf fe d0 bd 84 77 01 bc 60 0e e4 3d
       0.048699528 -0.10204851 -0.00790203 0.11135554
0002b0 c0 d7 71 3d 60 2b b3 bb 95 8c e0 bd 92 89 f6 3d
       0.059043646 -0.005467817 -0.10964314 0.12037958
0002c0 bf 30 1b be ac 54 21 3c ae 54 47 3e ad 15 de bd
       -0.15155314 0.0098468475 0.19465896 -0.10843978
0002d0 e0 8b bd 3d be f0 e3 3c 82 db 97 bd b4 4e 59 3c
       0.09255195 0.027824756 -0.07414915 0.013263393
0002e0 1a 2a 0f bd de ec f9 bd ad a5 41 3e 30 7b 94 3c
       -0.03495226 -0.12203382 0.18910857 0.018125147
0002f0 1c 71 22 be 65 a6 a4 3d 04 37 88 3d 37 8b 37 3d
       -0.1586346 0.0803955 0.066511184 0.0448105
000300 3b 2a 2f bd a3 f2 08 3d 47 43 ba 3d ae 0b c1 bc
       -0.042764883 0.03343452 0.090948634 -0.02356514
000310 90 2a 00 bd 45 60 10 bc 0c cc d7 bd ad ce e0 3d
       -0.03129059 -0.008812015 -0.10536966 0.1097692
000320 87 e8 a4 bc 9f b2 37 bd d2 10 79 bd ed 9b 8e bd
       -0.020130409 -0.04484808 -0.060807057 -0.06963334
000330 00 53 55 bb a0 9d 4a bd 78 0d 0a 3d a3 2f 8a 3d
       -0.0032550693 -0.04946673 0.03370425 0.06747367
000340 2e 3a b5 bd 93 e1 07 3e 6d 96 c6 3d 5b e2 4c be
       -0.088489875 0.13269643 0.0969666 -0.20008223
000350 aa 8b a5 bd c6 e0 69 bd 39 f0 00 be c9 4e 6c 3d
       -0.080832794 -0.057099126 -0.12591638 0.057692323
000360 3d c5 00 3e 07 8e 78 bd cf 09 6a 3c 62 0a 96 bc
       0.1257524 -0.060682323 0.014284565 -0.018315498
000370 6c 65 d4 3d 3d 19 46 be d2 fa 45 3c 0e 9f 92 be
       0.10370907 -0.19345565 0.012083726 -0.28636974
000380 ac 6e 63 be 16 71 d5 3d eb 3d a4 3d 24 b0 15 bd
       -0.22210187 0.1042196 0.080196224 -0.036544934
000390 45 1a 86 3d 84 c8 b7 bd 5a a6 bc 3d d4 39 39 3c
       0.06547979 -0.08973792 0.092114165 0.011305291
0003a0 e0 7b 37 bd f3 3c f6 bd 2c 09 09 3d 00 ba 9d b9
       -0.04479587 -0.12023344 0.033456013 -0.00030083954
0003b0 87 32 d0 bd 2b 88 7b 3d 78 9c 4b bd 10 b8 0c 3c
       -0.10165887 0.061409157 -0.049709767 0.008588806
0003c0 6c 3d 36 be bf a0 80 bd f1 04 0b 3d 68 84 25 3a
       -0.17796868 -0.0628066 0.03394026 0.00063139806
0003d0 4d 1c a3 be 5f 4e ac 3d fc 6d 24 3d 3d 15 14 bd
       -0.3185753 0.084133856 0.04014395 -0.036153067
0003e0 d4 d9 bf 3d fc 7b 87 bd 0d 65 1b be 40 97 ac bc
       0.09367719 -0.06615445 -0.15175267 -0.021068215
0003f0 ed af 14 3e 9a d0 58 3d 23 d4 99 be 38 5a a7 3d
       0.14520235 0.052933313 -0.3004466 0.08171505

Q1.head.4.bias f4 [11]
000000 5f 33 b7 bd 18 ab 38 39 d2 f2 ce bb 7d d7 56 bd
       -0.08945345 0.00017611345 -0.0063155675 -0.0524516
000010 6d f8 d5 bd 11 2c 4e 3d ff 8b 4d 3d 4c 75 00 be
       -0.10447774 0.050334994 0.05018234 -0.12544745
000020 03 11 f1 bb c8 46 fa bd 3a 44 03 be
       -0.0073567643 -0.12220532 -0.12818995

Q2.head.0.weight f4 [64, 11]
000000 76 bf 06 be f5 6a 3c 3e 47 ac 2f bd 4b 61 b0 3e
       -0.13158974 0.18400176 -0.042888906 0.3444923
000010 bd bf 6c be b2 41 44 be 60 1d 0a 3e 74 19 20 be
       -0.23120017 -0.19165686 0.13487768 -0.1563471
000020 bf 9e 4e bd 0f b9 23 be 2b ab 8f 3d e4 59 e8 bd
       -0.05044436 -0.15988563 0.070150696 -0.1134527
000030 71 4a 17 be e6 48 4a 3e 65 5a 0f be 74 16 3f 3e
       -0.14774491 0.19754371 -0.13999327 0.18660909
000040 ef e8 67 3e 91 19 13 be a7 95 b2 3d 6c f0 f3 bd
       0.22647451 -0.14365222 0.0871995 -0.11911091
000050 6a 1e d0 3e 8c 87 be bd ec 41 40 be 5b 24 86 3d
       0.40648204 -0.09303197 -0.18775147 0.06549903
000060 5b dc 69 3d ec 59 3d 3e 9f 5d 1d be 2e 98 9f be
       0.057094913 0.18491334 -0.15367745 -0.3117079
000070 78 0c 15 3d 6f e3 89 3e 59 79 31 3e ac 14 80 be
       0.036388844 0.2693133 0.17331447 -0.2501577
000080 fb 12 19 3e a5 db 94 bc 9f 14 cb 3e 88 f9 14 3e
       0.14948647 -0.01817114 0.3966417 0.14548314
000090 84 87 cc 3c 31 0c c6 bd 38 6f b1 3e 36 b9 04 3e
       0.024966963 -0.09670294 0.34655166 0.12961277
0000a0 d9 d9 93 bd b6 e7 7c 3e 78 21 54 3e 38 bc d6 bd
       -0.072192855 0.24697766 0.20715892 -0.10485119
0000b0 a5 aa 2f bd 2d 1a c6 3e 18 58 64 bb 3a 5b be 3e
       -0.04288735 0.38691846 -0.0034842547 0.37178975
0000c0 cc 09 6f be 4a 2a 61 be 86 3c 12 3d 0a 88 b7 bd
       -0.23343581 -0.21988788 0.03570225 -0.08961494
0000d0 66 51 2d be 77 c1 4b bd 13 68 4d be 57 d9 bc 3d
       -0.16925582 -0.04974505 -0.20059232 0.09221142
0000e0 ab 2b 07 3e 6c 55 46 be c6 e4 59 3e 58 eb 8b 3e
       0.13200252 -0.19368523 0.21278676 0.2732799
0000f0 a3 bb f8 3d 10 26 f6 bd ed 1f 87 be 03 47 98 3a
       0.12145164 -0.120189786 -0.26391545 0.0011617843
000100 62 91 15 bd 40 7d 2e bc 23 5f 8a be b6 82 48 3e
       -0.0365156 -0.010649979 -0.2702571 0.19581112
000110 a5 61 c5 3e f4 8a 2a bd f7 0f ff 3b a9 62 68 3c
       0.3855106 -0.041636422 0.0077838856 0.014183679
000120 08 f1 46 be 91 e4 b8 be bd a8 ce 3d 32 93 af 3e
       -0.19427884 -0.36111882 0.10090778 0.3429199
000130 1b 54 89 bd d3 62 36 be 03 47 f8 bd ec 92 2c be
       -0.06705495 -0.17811136 -0.121229194 -0.16852921
000140 06 a0 02 3e 9b 50 81 3e 4e e4 72 3e 55 98 6f 3e
       0.12756357 0.2525681 0.23719904 0.23397954
000150 8d 14 b0 3d 5c 2a b2 3e 0c 2e 16 3e d9 7b 65 bc
       0.0859767 0.34797943 0.14666003 -0.014006578
000160 6c 6f 26 be ce 2f de 3d 5c 95 89 3d 22 5f c5 3d
       -0.16253442 0.10848962 0.06717941 0.09637286
000170 57 cc 54 3e 72 29 36 3e 5f 58 86 be b8 46 e6 bd
       0.20781074 0.17789248 -0.26239297 -0.11243957
000180 bd fd 72 be e9 39 d1 3e b6 b8 fd bd 96 db 6c be
       -0.23729606 0.40864494 -0.123887464 -0.2313064
000190 a4 04 4a 3e 4f 12 50 be b8 80 82 3d 15 03 47 3e
       0.19728333 -0.20319484 0.063722074 0.1943477
0001a0 ec e4 30 3e f8 46 8a 3e a2 27 c6 bd 1b 09 8a bb
       0.17274827 0.2700727 -0.09675528 -0.0042125112
0001b0 34 68 50 be 26 98 79 be fd 5d 55 be ec a1 20 3e
       -0.2035225 -0.24374446 -0.20836635 0.15686768
0001c0 4d b5 dc 3d 84 df b5 be 36 1f ae bd 12 60 88 3e
       0.10776768 -0.3552209 -0.08502047 0.26635796
0001d0 f1 0b 96 be 3f 79 e4 bc 1b 36 38 be 8c 2d 8e bb
       -0.29305986 -0.027889846 -0.1798939 -0.0043389257
0001e0 c0 1a 86 be f0 38 87 3e 28 4d 20 3e c7 4a 6f bd
       -0.26192284 0.26410627 0.15654433 -0.058420923
0001f0 41 b2 85 be e9 4a 24 be 01 72 02 bd 36 31 a6 3d
       -0.2611256 -0.16044201 -0.031847004 0.08114855
000200 ef 93 f9 bd 66 1b 3d be ea 9e 17 bd 15 a5 75 be
       -0.12186419 -0.18467483 -0.037016787 -0.23988755
000210 61 78 ac 3d 03 a5 8a be ab 60 5a bd 31 db 92 be
       0.08421398 -0.2707902 -0.053314846 -0.28682855
000220 7e 12 1c be 3e ce 56 3b ad 93 15 be 14 1c 3b be
       -0.15241429 0.0032776739 -0.14607115 -0.1827243
000230 aa e0 83 3b 51 be 1c be a7 b2 02 be 38 29 83 3d
       0.004024585 -0.15306975 -0.12763463 0.06404346
000240 8f 71 1a be 0b 17 b6 be 99 ca f4 bd c4 65 85 bd
       -0.15082382 -0.35564455 -0.11952705 -0.06513551
000250 0b a0 7f 3c 9b 2c 65 be 63 68 47 3e f6 3a 60 3d
       0.015602122 -0.22380297 0.19473414 0.05474373
000260 64 e1 3c 3e 05 53 5e bd b2 83 97 bd 67 55 b0 bc
       0.18445355 -0.054278392 -0.07398166 -0.021525098
000270 6c 68 f6 3d 0f 34 d8 bd ef f7 46 3e 87 b9 ba 3d
       0.12031636 -0.105568044 0.19430517 0.09117418
000280 fe 93 28 3e da fd ca bd 71 e7 9d 3d f3 0a 74 be
       0.16462705 -0.099116996 0.077101596 -0.23832302
000290 f1 0c 06 3e 45 99 f4 bc ee ea 46 3d 26 1e de 3d
       0.13090874 -0.02985824 0.04856389 0.10845594
0002a0 bf df 71 be ca 0c 0f 3e 10 cb 3a be 97 7a 42 3e
       -0.23620509 0.13969722 -0.18241525 0.18992077
0002b0 54 73 19 bd 92 93 00 3e 91 67 f7 be dd c6 df 3d
       -0.0374635 0.12556294 -0.48321202 0.10926602
0002c0 6c 34 52 3e 7b 4a 0d 3c 5b ec 91 3d c5 38 e2 bd
       0.2052781 0.008623715 0.07125159 -0.11045984
0002d0 e1 83 9d 3e 3b 33 b1 3d 50 43 9b be 0b f1 86 39
       0.30764678 0.086523496 -0.30324793 0.00025738063
0002e0 09 ac 15 3d 82 43 34 be bc 1a 5f bd 82 54 37 3e
       0.03654102 -0.17603877 -0.054468855 0.17903331
0002f0 03 43 88 bd 66 a2 a0 bd bf 7b 25 3b 74 1f 03 3e
       -0.066534065 -0.07843475 0.002525076 0.12804967
000300 d5 65 98 be 4e e3 bc 3e 6d 6e 14 be 4a 22 28 3e
       -0.29765192 0.3689217 -0.14495249 0.1641933
000310 d8 de b9 be 2f 36 65 be 7d 9a 35 3c c4 9d 0f bd
       -0.3630283 -0.2238395 0.011084196 -0.035062566
000320 6a 7b 44 be 7e 4b 8b be 5c 67 80 be c8 7c 91 3e
       -0.19187704 -0.27206033 -0.25078857 0.28415513
000330 30 93 19 3e 14 ee c7 bd 6e f3 3d 3e c9 1b 27 bd
       0.14997554 -0.09762207 0.18549892 -0.040797982
000340 13 38 8b bc 08 47 36 be b1 88 85 be c9 e7 0b 3e
       -0.016994512 -0.17800534 -0.2608085 0.13662638
000350 3a 3f b4 3e 5c 26 1a be 84 c0 32 3c c6 41 ad 3e
       0.35204488 -0.15053695 0.010910157 0.33839244
000360 b9 fd 3e be 37 71 10 be 84 a1 af be 8d 2a 8e bc
       -0.18651475 -0.14105688 -0.34302914 -0.017354274
000370 93 b1 99 3e fd 44 00 3e 7b 61 b7 bd e9 ff 20 3e
       0.3001829 0.12526317 -0.0895414 0.15722622
000380 b2 5c 62 be 50 24 17 be ad 3f f8 3d 52 d7 9b 3e
       -0.22105673 -0.14759946 0.1212152 0.30437714
000390 2e 94 64 bd 80 b2 a0 be 72 1c b9 bd 06 f5 b4 be
       -0.055805378 -0.31386185 -0.09038629 -0.35343188
0003a0 af 9f d2 3d 77 15 4e be 55 4d c8 bd ad ae 7f be
       0.102843635 -0.20125376 -0.09780375 -0.24968977
0003b0 6c 17 68 3d be 19 06 be f4 6f 01 3d 27 15 9e be
       0.05666296 -0.13095757 0.031600907 -0.30875513
0003c0 0e 41 1f 3e 74 6f 9d be 24 d2 8b be ba e2 c0 be
       0.1555216 -0.30749094 -0.27308762 -0.3767298
0003d0 c9 f3 95 3e 16 8a e9 3d 8a 74 e5 bd 91 9c 5a be
       0.29287556 0.11403291 -0.11203869 -0.21348788
0003e0 82 80 58 3e eb 9c 2c 3e c5 86 70 3e ed b4 36 bd
       0.21142772 0.16856734 0.2348891 -0.044606138
0003f0 38 cd 31 be 3a af a0 3e 09 4d 26 3e b8 ef 5f bd
       -0.17363441 0.31383687 0.16240324 -0.054671973

Q2.head.0.bias f4 [64]
000000 54 75 0a 3e bd b3 aa 3d b5 77 55 3e e1 83 26 bb
       0.1352132 0.083350636 0.20846446 -0.0025408196
000010 d0 bf 7d 3c e3 d9 b3 3e 85 02 8c 3e 4b 3f 64 3e
       0.015487626 0.35127172 0.27345672 0.2228977
000020 43 1c ac 3e a9 6b 15 be cb 23 b0 3e a6 ad 94 be
       0.33615312 -0.1459185 0.34402308 -0.29038733
000030 0b 77 5e 3e 18 e6 80 3e 4c c8 8e 3e d5 72 a8 3e
       0.21725099 0.25175548 0.2788719 0.3290011
000040 73 69 9a 3e 02 7b a6 3e 33 e6 8c be a4 35 bd 3e
       0.30158576 0.32515723 -0.27519378 0.36954987
000050 95 96 f1 bc 10 e2 3d 3e 5f 84 7c be 5a 33 52 be
       -0.029490748 0.18543267 -0.2465987 -0.20527402
000060 98 35 8b 3e da ca 64 be 0e 10 4a 3e 50 9c 88 3e
       0.27189326 -0.22343007 0.19732687 0.26681757
000070 0e a0 91 3e d3 5a 2d be f9 a0 e7 3d 98 c2 95 3e
       0.28442425 -0.16929178 0.1131 0.29250026
000080 db 32 93 be 4c 3c 21 3d 1c 47 c1 bd 2f 14 35 be
       -0.28749737 0.039364144 -0.09437391 -0.1768348
000090 f0 7b e1 3c 84 84 a3 bc 6d 14 ad 3e 0a db 9f 3d
       0.027524918 -0.01996065 0.33804646 0.0780545
0000a0 46 18 10 bd 4e 73 ee 3d d4 9d 91 3e f7 ec be 3e
       -0.0351794 0.116430864 0.28440726 0.37290165
0000b0 89 79 8f 3d 7d ea 79 3e 35 b0 c9 3d 43 70 a2 3e
       0.07005603 0.24405856 0.09848062 0.31726274
0000c0 f3 3a 09 be e7 52 bc 3e 86 0f 8e bc ea 19 d9 bd
       -0.13401394 0.36782 -0.017341387 -0.10600646
0000d0 3c 20 00 be 76 d0 70 3e 4f d1 c1 3e d8 cf 8c 3e
       -0.12512296 0.23517022 0.37855002 0.27502322
0000e0 50 89 89 3e 34 04 ef bd 3c c7 1d be 2f 52 4e 3d
       0.26862574 -0.116707236 -0.15408033 0.050371345
0000f0 2e b9 d5 3c fc ce 90 3e 10 bb 33 3e 22 12 15 3d
       0.026089277 0.28282917 0.17551827 0.036394246

Q2.head.2.weight f4 [64, 64]
000000 ab 34 8d ba 9c e6 55 3d 1a 01 06 bd 91 b0 c7 3d
       -0.0010773143 0.05222188 -0.032715894 0.09750474
000010 c6 d6 c7 3c 00 74 6c 3e 2e de 35 3e 58 89 fd bc
       0.024394404 0.23091125 0.17760536 -0.03094928
000020 a5 bb d3 3d 96 c5 e4 3d b7 65 15 3e 14 29 9e 3d
       0.10338525 0.11170499 0.14589582 0.07722679
000030 59 90 f4 3d 21 5d 25 3d 3b 59 2a 3e 71 80 2e 3e
       0.11941595 0.040372018 0.16635601 0.17041184
000040 96 f9 0e 3e 06 b0 7e 3d 54 58 df 3d 8c b5 48 3e
       0.13962397 0.062179588 0.10905519 0.19600505
000050 6f ea aa bd 20 3b a6 bd 98 3f a5 bd 5b 95 47 be
       -0.08345496 -0.08116746 -0.0806877 -0.19490568
000060 d8 12 af 3d 29 e1 8b 3b b3 93 34 bd 2f 80 8f bd
       0.08548516 0.0042687845 -0.04408617 -0.07006871
000070 78 e6 27 3e b2 a8 a3 bd e5 e1 ea 3d 5b 1c f2 3c
       0.1639651 -0.079911605 0.11468867 0.029554537
000080 0c dc 87 3d 3d 8d 21 3e 25 a3 31 3d 38 90 2a be
       0.066337675 0.15776534 0.043368477 -0.16656578
000090 54 07 45 bd 77 d3 d9 3c 59 62 67 3d df 0d 21 bd
       -0.04810269 0.026590092 0.056490276 -0.03931987
0000a0 f5 3f 2e be b9 18 cb 3d 49 72 09 3e 68 2b 66 3e
       -0.17016585 0.09916825 0.13422503 0.22477496
0000b0 f1 b1 98 bd fa 23 c1 3d 10 bc 04 3e 1a 14 92 3c
       -0.07455815 0.0943069 0.12962365 0.01783185
0000c0 3f ef 47 bd 97 5c 80 3e 98 97 71 bb 0c 9a 8d be
       -0.048812147 0.2507064 -0.0036864039 -0.2765659
0000d0 f0 07 f6 3d 46 83 86 bd a2 83 44 3d ae dc d9 3d
       0.12013233 -0.06568007 0.047977097 0.106377944
0000e0 79 fc b3 bd 4e 9a ec 3d f8 c1 31 3d d7 32 8b 3c
       -0.0878839 0.11552869 0.043397874 0.016992016
0000f0 55 2d 44 bd db 50 8f bd e4 99 5d bd f8 48 82 3d
       -0.047894794 -0.06997844 -0.05410184 0.06361574
000100 ad d8 22 3e 12 c0 75 bc 4d a1 96 bd 85 a0 99 3d
       0.15902968 -0.014999406 -0.073549844 0.0750132
000110 de 5e 6e bc dd 3c ef 3d 1b 6b 84 3d 43 18 d3 bd
       -0.014548985 0.116815306 0.06465741 -0.10307362
000120 93 6d 2e 3e d6 ae 05 3e eb a4 99 bc 9e e0 96 bd
       0.17033987 0.13054976 -0.018755397 -0.07367061
000130 2f 0d ab bb 37 f3 9d 3d 80 bc 9a 3d dd 2f e1 3d
       -0.0052200775 0.07712405 0.07555485 0.10995457
000140 12 17 06 be 75 fe d4 3d 80 85 a4 bd bf f5 07 3d
       -0.13094738 0.10400096 -0.080332756 0.033193346
000150 8d e0 0b ba 7a e8 c9 3d 59 72 c0 bd 87 a3 f0 bd
       -0.000533589 0.098587945 -0.0939681 -0.1174994
000160 52 68 0a be 9e 48 df bd 43 fd 08 3d ba a1 6c 3d
       -0.13516358 -0.109025225 0.033444654 0.057771422
000170 79 8b 37 3d 90 b5 a3 bd 9f b2 21 bb d6 d4 5a 3c
       0.044810746 -0.07993615 -0.0024673117 0.013356408
000180 7c 9b 4b 3d ee 5f 40 bc 37 71 7f be 09 c0 28 be
       0.04970883 -0.011741621 -0.24945532 -0.16479506
000190 10 fe 63 be 8d 61 83 bd 63 01 cd 3d b1 01 71 bd
       -0.22264886 -0.06415091 0.1001003 -0.058839504
0001a0 c1 f5 b4 3b 4f d4 f1 3c b2 1b ad b9 7e 77 08 3d
       0.00552246 0.029520182 -0.00033017766 0.03331708
0001b0 f7 a3 12 bc 5a 46 f3 3d 35 1e 9c 3c fc d7 01 3d
       -0.008950225 0.11878653 0.019057373 0.03170012
0001c0 ef 72 58 be 8f 5a 9e bc 0f 77 43 be 7a 10 98 3d
       -0.21137594 -0.019330291 -0.19088386 0.07425018
0001d0 74 bb 21 be 6d 70 0a 3e ab 7e 6b bd 39 c0 87 bd
       -0.15794164 0.1351945 -0.057493847 -0.066284604
0001e0 51 ec 9a 3c b7 ae be bd 13 9b dc bd ad d1 b1 bd
       0.018911513 -0.09310668 -0.107717656 -0.086825706
0001f0 21 e0 37 be 0b 99 08 3e 91 fe 72 bd 73 10 1e be
       -0.17956592 0.13339631 -0.059324805 -0.15435962
000200 a0 de 23 be da c2 86 3e db 5f 55 3d a0 25 25 be
       -0.16002893 0.26320535 0.052093368 -0.16127634
000210 71 ba 09 3d 48 db 54 be 17 14 c7 bd 92 74 65 bd
       0.03362507 -0.20786774 -0.09720629 -0.056019373
000220 a0 ca 37 bc 01 9a 22 3e 61 de d1 3a de d1 d6 bd
       -0.011217743 0.1587906 0.0016011709 -0.10489248
000230 eb 99 01 3e d3 ac c1 bc de 8f 65 bd 09 76 10 3d
       0.12656371 -0.02364198 -0.056045406 0.035268817
000240 11 3a 54 3d 61 16 05 3e d8 2c ce 3c b7 5a 4e 3d
       0.05181319 0.12996818 0.025167868 0.05037948
000250 47 60 b1 bd 0b a2 91 bd 0a 88 12 3e f5 26 c4 bb
       -0.086609416 -0.07110985 0.14309707 -0.0059860894
000260 c0 59 55 bd 78 32 e8 bd 01 78 5b be e0 db 66 3d
       -0.052087545 -0.11337751 -0.21432497 0.056362033
000270 f2 64 70 bd 6a 2a fd 3d 8a 58 55 3e 8b 63 a2 3d
       -0.05869002 0.123616055 0.20834556 0.079291426
000280 6c 6d 1a bd 89 4a 14 be cd 80 08 be 13 56 d8 3d
       -0.03770201 -0.14481558 -0.13330384 0.10563292
000290 25 cc 80 3e bf d7 0a bd ea a2 3c bc e4 88 d2 3c
       0.2515575 -0.033897158 -0.011513451 0.02570004
0002a0 e8 11 53 be 76 dc c7 bd 7a a1 cc 3c 02 6c 85 b9
       -0.206123 -0.097588465 0.024979342 -0.0002544821
0002b0 9b 12 37 be 4e 09 ad 3d fe f2 bd bd eb d8 40 bd
       -0.17878191 0.0844904 -0.09274863 -0.04708187
0002c0 5e a4 73 3e af 08 c2 3c e1 87 f9 3d 46 86 2e bd
       0.2379317 0.023685781 0.1218412 -0.042608522
0002d0 c2 96 ae bc 05 03 be bd 99 ca bf 3d f9 9b 2b 3e
       -0.021312121 -0.0927792 0.09364814 0.16758718
0002e0 63 38 33 3d 92 1b b8 bd 5a 72 92 3d e3 16 2a bd
       0.043754946 -0.089896336 0.07150717 -0.041525733
0002f0 8b e7 aa 3b ac 96 99 bd 90 ee 4c 3c 64 3a 65 bd
       0.0052155904 -0.074994415 0.01250805 -0.05596389
000300 1a 4a 16 3e 0b 10 22 bd 11 c3 1c 3e 2b 5d 66 be
       0.14676705 -0.03956608 0.15308787 -0.22496478
000310 51 4f 7a 3d 24 78 b0 3d 43 2f 2f be ca 72 e1 3d
       0.0611108 0.08616665 -0.17107873 0.110082224
000320 33 0b e2 bd 06 4e 2b bd 7f 9e 3d be e0 99 86 3d
       -0.11037292 -0.041822456 -0.18517493 0.06572318
000330 5c af 2d be 5b fd 4f 3c 71 c3 10 3e 62 39 ad 3c
       -0.16961426 0.012694682 0.14137055 0.021145526
000340 2d 5c 2d 3e e6 52 3b 3d 80 f8 0c 3c 17 f2 43 3d
       0.16929694 0.045733355 0.008604169 0.047838297
000350 43 91 42 3e 67 20 9a 3d 9d 5b 31 3e 21 a9 b1 3d
       0.19000725 0.075257115 0.17320104 0.08674837
000360 40 4d f9 3b 34 61 8f 3d 4f 3d ca 3d 32 0e 52 3d
       0.007608086 0.07000962 0.09874975 0.05128307
000370 5b b6 d3 bd 60 5a 6c bc 6c 08 20 3d 6b 23 c1 3d
       -0.10337516 -0.014425844 0.03907053 0.094305836
000380 a0 36 c2 bc a3 87 01 3d f4 b1 e9 3d 62 9b 83 bc
       -0.023707688 0.031623494 0.11410895 -0.016065303
000390 02 b2 93 3d 0d 08 9d bd 37 79 d4 bd 10 0a d7 bc
       0.07211687 -0.07667551 -0.103746824 -0.026249915
0003a0 97 79 54 3e 25 15 37 3e 76 ca 92 bd 1b 4d ff 3d
       0.20749508 0.1787916 -0.071675226 0.124658786
0003b0 cc 73 89 3d a6 e4 ea bd 83 39 36 3d f2 6c ae 3d
       0.067115396 -0.114693925 0.04448844 0.085168734
0003c0 0f 83 cb bc d0 9d 5b 3e 0c d7 de 3d a4 6a 32 be
       -0.024842767 0.2144692 0.10880861 -0.17423493
0003d0 67 3d fd bd 6e 92 5c 3c b3 20 33 3e d8 de 04 3e
       -0.12365227 0.013462646 0.17492943 0.12975633
0003e0 12 a0 53 bd d9 34 00 3d 79 35 8c 3d 93 7a f8 3b
       -0.051666327 0.0313004 0.068461366 0.0075829714
0003f0 42 03 ea 3c 40 74 cb 3d ab ed f7 3d 55 7e 4b bd
       0.028566007 0.09934282 0.121058784 -0.049681026

Q2.head.2.bias f4 [64]
000000 ad 29 c3 bc cf eb ad bd 95 ab ba 3d a2 20 16 bd
       -0.023823583 -0.084922425 0.09114758 -0.036652215
000010 ee 9f 5e 3d f9 92 01 3e 52 16 1b 3c b0 60 85 bd
       0.05435174 0.12653722 0.009465771 -0.06512582
000020 2c 12 f4 3b ed ba fb 3d 3e 9e 8d 3d 29 f3 df bd
       0.0074484553 0.12291513 0.06914948 -0.10935051
000030 21 de ec bd 87 b3 79 3d 62 0f d0 bd 50 90 b3 3b
       -0.11565805 0.060962226 -0.10159184 0.00547985
000040 0b af 10 bb 5c e0 a0 3d ac ac 3e bd aa 6b b4 bc
       -0.002207699 0.07855293 -0.04655139 -0.022023994
000050 56 9a 07 3e de 3c a2 3d d2 ae 4b bd b5 fb b8 bd
       0.13242468 0.07921766 -0.04972727 -0.09032384
000060 17 c9 fc 3d b8 cd f7 bb a3 36 08 3e 8f 12 48 3d
       0.12343042 -0.0075623654 0.13302092 0.048845824
000070 42 95 99 3d 40 67 65 bc 9b 01 11 3c 5b 33 ca 3b
       0.07499172 -0.0140016675 0.00885048 0.006170673
000080 9f e8 bf bd 96 a8 60 bd 03 28 25 3e 71 22 7f 3d
       -0.09370541 -0.054848276 0.16128545 0.062288705
000090 44 61 bf 3d fc 51 c7 3d 2b ec f0 bd 50 97 01 3e
       0.09344724 0.09732434 -0.117637955 0.12655377
0000a0 3a d6 09 3e f2 c9 ae bb e1 cd d9 bd e1 27 b6 3c
       0.13460627 -0.0053341324 -0.106349714 0.022235813
0000b0 60 a3 15 3e e1 4d 3c bd 09 60 31 bd 9f fe 81 3a
       0.14613104 -0.04597271 -0.043304477 0.0009917802
0000c0 89 ed 37 bc fc ae 50 3d 7d 56 73 3c 32 79 0d 3e
       -0.011226066 0.050948128 0.014852163 0.13815764
0000d0 25 32 19 3d 29 e9 2c bd eb ac 23 3e 15 9a b8 3c
       0.037401337 -0.042214546 0.15983932 0.02253441
0000e0 ee dc f1 3c 9d 7b cb bd ed 9a c7 3d 38 05 95 3d
       0.029524293 -0.09935687 0.097463466 0.07276386
0000f0 e1 e9 b4 bc 20 c5 de bd 11 5b e6 3d 70 2a dc 3c
       -0.022084178 -0.10877442 0.11247838 0.026875705

Q2.head.4.weight f4 [11, 64]
000000 8d 39 cd bd 9b c5 15 bd 73 1f 9f bd 7b 89 ca bd
       -0.100207426 -0.036565404 -0.0776967 -0.098895036
000010 6f c9 a8 3d 45 29 64 3e 36 0b 69 3c 7d 78 02 3d
       0.082415454 0.22281368 0.014223864 0.031853188
000020 4b 8f 2f bd 83 3e 8d bd 09 d5 1f 3e ff 5a 93 3d
       -0.042861264 -0.06896689 0.1560861 0.071950905
000030 15 ea e5 bc 67 d2 92 bc ad 1a 80 3c 87 61 91 3c
       -0.02806572 -0.017922593 0.01563772 0.0177467
000040 b3 89 9f bd 81 8f df 3d 1b 27 f4 3d 65 b6 37 3e
       -0.07789936 0.10916043 0.11921521 0.17940672
000050 bb 90 1f 3d d0 34 96 3c 8f 0a 21 be e0 ae 8d be
       0.038956385 0.01833573 -0.15726684 -0.27672482
000060 56 05 bd bc de c4 4d bd 1f 2a 28 bd 32 12 10 3b
       -0.023073833 -0.050236575 -0.041055795 0.0021983502
000070 bb 80 38 3e cc b8 60 3d 5d a7 c3 3d 6a c0 9a bd
       0.18017857 0.054863736 0.095534064 -0.07556231
000080 b9 87 b7 3d cd fa 21 3e 84 70 09 3e 6e 54 50 3d
       0.08961434 0.15818329 0.13421828 0.05086177
000090 60 00 9f bd 65 d4 19 3e f2 2f 91 3d 5e 0f 27 3e
       -0.077637434 0.15022428 0.07089223 0.16314456
0000a0 dd 2e db 3d c3 5b 30 3e 40 67 fe bb 0a 55 92 bd
       0.10702298 0.17222504 -0.007763773 -0.07145126
0000b0 df 18 33 be 1a dc b1 3d f1 d8 7a 3d 86 c9 3f bd
       -0.17489956 0.08684559 0.061242048 -0.046823047
0000c0 11 3d fe 3b b6 9a d6 bd b0 b4 b3 3d fe d5 31 be
       0.0077587445 -0.104787275 0.08774698 -0.17366788
0000d0 77 16 fd 3c 11 aa 8f 3d e8 38 77 bc 8b dd e4 bd
       0.030894501 0.070148595 -0.015089251 -0.111750685
0000e0 76 36 c3 bd 48 40 61 be 66 f8 51 be 26 48 16 3e
       -0.09531872 -0.21997178 -0.20504913 0.1467596
0000f0 bb 4b 7b 3c 0d 4a 7e 3d 24 a3 3b be 4e 9d f9 3c
       0.01533788 0.06208234 -0.18323952 0.030470517
000100 5e df f2 bd 65 ba 77 be 7b 4b cb bd 10 f3 22 3e
       -0.1185901 -0.24192198 -0.09926506 0.15913033
000110 cf 48 78 be f6 5c e8 bd e5 2b 09 be 1a dc a8 3d
       -0.24246524 -0.11345856 -0.1339565 0.08245106
000120 77 ea 49 3d a9 20 42 bd 22 39 04 3e ec 05 80 3d
       0.04929587 -0.04739443 0.1291242 0.062511295
000130 4f b3 24 bc db d9 5f 3d df d9 42 3e ce e8 45 3e
       -0.010052516 0.054651123 0.19028424 0.19327089
000140 23 ca 55 3e 0f 7a a1 3d 9d ee 11 3e 57 f0 e3 3c
       0.2087789 0.07884609 0.1425118 0.027824564
000150 6b cd d0 bd a2 de 82 bd fb cc 05 be 3a 1c d3 bd
       -0.1019543 -0.0639012 -0.13066475 -0.10308118
000160 a6 0c e7 3d 56 27 a5 3d a7 32 40 be f5 2d b2 3d
       0.112817094 0.08064143 -0.18769322 0.08700172
000170 08 be 86 3d 4d af 04 be fd e7 e3 bd bd f1 68 bc
       0.06579214 -0.12957497 -0.11128233 -0.014217791
000180 d5 13 b3 bd db 9c 0d ba 52 1c 16 be b4 ec 75 bc
       -0.08744017 -0.00054020964 -0.14659241 -0.015010048
000190 05 bc 0a be e3 3d c1 3d a8 00 97 3d 7f 7f 7e 3d
       -0.13548286 0.09435632 0.07373172 0.06213331
0001a0 d5 a0 b9 bd 8e ea f0 bc fc b5 61 3d 65 a2 e8 bd
       -0.090638794 -0.02940872 0.055105194 -0.11359099
0001b0 d2 cd 2e be 39 77 81 bd 97 4d 57 3d 0b 3e 8c bd
       -0.17070702 -0.06321568 0.05256423 -0.06847771
0001c0 5c 24 4d 3e 40 20 83 3d 09 02 20 3d 6e d8 47 be
       0.20033401 0.064026356 0.03906444 -0.19516155
0001d0 cd e2 d2 bd 3c e0 5d be 78 61 44 be 0b c2 e4 bd
       -0.10297165 -0.2166757 -0.19177806 -0.11169823
0001e0 f0 b5 21 3e 12 09 1b 3d 09 fc a5 bd db 02 0c be
       0.1579206 0.037850447 -0.081047125 -0.13672964
0001f0 2c f1 0c be 01 3c 5d bd 25 8c 01 bc cb f9 c7 3a
       -0.13763875 -0.054012302 -0.007906948 0.0015256939
000200 bc 18 e8 bd b6 05 a6 3d 10 55 0b be 28 e6 9d bc
       -0.11332843 0.08106558 -0.13606668 -0.019274786
000210 07 e8 b1 bc 58 da 82 3e 35 7d db bd ca c4 d1 3d
       -0.021717085 0.25557208 -0.10717241 0.10242613
000220 fd e8 b0 bb d0 d2 f2 bd 0f d6 c9 bc ed fe 41 be
       -0.005398868 -0.118566155 -0.024638204 -0.18944903
000230 98 db 14 bc 40 b4 24 3d ec 25 ad 3e 6e 8c 9e 3d
       -0.009085558 0.040210962 0.33817995 0.077416286
000240 db 0c 00 3e c2 0e c1 3c a1 c3 7d 3c e2 99 4e be
       0.12504904 0.023566607 0.015488536 -0.20175889
000250 c2 ef 41 3d 2c 58 10 3e 17 9d 41 be c1 d8 cf ba
       0.04734779 0.14096135 -0.18907581 -0.0015857444
000260 05 44 b2 bb 97 a3 6b bd 0a e5 18 be 5c 5f f3 3d
       -0.0054402375 -0.05752906 -0.14931121 0.11883423
000270 a0 15 2f bd bf 36 88 bd c1 a0 7a bc 11 05 cd bd
       -0.042745233 -0.06651067 -0.015297116 -0.10010732
000280 ac 11 87 3e a3 fd 8d 3d 5d 01 40 bd d8 c8 31 3d
       0.2638067 0.06933143 -0.0468763 0.04340443
000290 e6 94 a7 3d 22 d2 95 bd 58 d5 e0 3d 14 84 37 be
       0.08182697 -0.0731547 0.10978192 -0.17921478
0002a0 6d 2b 2f 3d 09 4e 21 3e b4 84 36 bd 17 76 e5 3d
       0.042766023 0.15752424 -0.04456015 0.112041645
0002b0 0f e9 83 3d 92 3c 12 be e4 95 46 3e ef 5e 3f 3d
       0.06440937 -0.14280918 0.19393116 0.046721395
0002c0 e2 45 07 be 0a 52 26 3d a5 a2 05 bd f7 31 22 be
       -0.13210252 0.040605582 -0.032625813 -0.15839373
0002d0 06 dc 21 3e 79 7d 9f bc 96 4b 09 be 46 37 99 3d
       0.15806589 -0.01946901 -0.1340774 0.07481246
0002e0 f0 2e 1f be 24 e1 3b 3e 6b 89 13 be c5 98 12 bc
       -0.15545249 0.18347603 -0.1440789 -0.008947556
0002f0 7c 78 c0 bd 76 20 82 bd 52 6a 37 3e 5d c9 16 3d
       -0.093979806 -0.06353848 0.17911652 0.03681313
000300 cc c4 51 bd 10 ee 83 3d 46 dd 8f bb cd 9f 85 be
       -0.05121307 0.06441891 -0.0043903915 -0.2609848
000310 85 c8 2f 3d ec 7d 87 3b 85 36 78 3d 25 86 59 bc
       0.04291584 0.004134884 0.06059887 -0.013276611
000320 51 fb 00 bd 60 85 b4 bc dd f7 bc bd ea 7b 0a 3e
       -0.031489674 -0.022036254 -0.09226964 0.13523832
000330 5e 65 ea bd 37 68 db 3d 0a bb 80 bd 4e 6f 64 be
       -0.114451155 0.10713237 -0.06285675 -0.22308084
000340 f7 a1 9d be 8e 4e d3 bd 9f 0c 64 be 6e b6 68 3e
       -0.30787632 -0.103177175 -0.2227044 0.22725841
000350 fa 18 81 bd 9c f3 de 3d dd 77 30 3d c3 2d 32 bc
       -0.06303592 0.108863086 0.04308306 -0.010875168
000360 95 af 23 be 5c b6 24 3d d2 70 be bd b9 03 09 be
       -0.15984948 0.040212974 -0.092988625 -0.13380326
000370 55 38 1a be 84 14 42 bc 72 51 7b 3d d8 cc 65 bd
       -0.15060551 -0.011845712 0.06135697 -0.056103557
000380 10 ec d4 3c df 2e 5f 3d 00 c3 a0 bb d6 27 15 3e
       0.02599147 0.05448806 -0.0049060583 0.14565977
000390 f5 60 be 3d f2 c5 3c be 18 97 a3 bc 06 60 07 bd
       0.09295837 -0.18434885 -0.019969508 -0.03305056
0003a0 fe b9 03 3d c8 33 b4 bd 06 14 da 3d 22 75 84 3d
       0.032159798 -0.08798939 0.106483504 0.06467654
0003b0 ed 2d 9f 3d ad 7d 43 bd 1f 83 4f bc ce 33 e0 3d
       0.077724315 -0.047727276 -0.012665539 0.10947381
0003c0 fa 36 0f be 75 c2 1b be 8e 60 3d 3d 40 58 e0 3d
       -0.13985816 -0.15210898 0.04623466 0.10954332
0003d0 79 cb 7c 3d 8d 4d 19 3e ab 5d d5 3d 80 2e 06 be
       0.061717484 0.1497099 0.10418256 -0.13103676
0003e0 16 a8 17 be 7d f0 a7 3d f0 50 09 be 70 2d e3 bd
       -0.14810213 0.082001664 -0.13409781 -0.11092651
0003f0 22 ff 26 be d7 fe 95 3d db cc cb 3c dc b7 23 3d
       -0.16308263 0.073239975 0.024877956 0.039970264

Q2.head.4.bias f4 [11]
000000 d1 b4 80 bd b5 66 d7 bd 27 49 fa bb 52 27 54 3d
       -0.06284488 -0.10517637 -0.007638115 0.05179531
000010 ad 4c 6f 3d 2b 5a 2d 3b 6c 21 ee bd 91 50 48 bc
       0.058422733 0.002645145 -0.116274685 -0.01222624
000020 6a fd d3 3d e2 fb 4b 3d cb 9b 10 3d
       0.10351069 0.04980076 0.035304826
