logs/stack/model/best/policy.pth (torch, 9354 bytes, 18 tensors)

head.module_0.att_src f4 [1, 1, 16]
00000000: 238f 9d3e 7dcb bfbd bb63 273d eb0f 203e
00000010: 4a68 b33e 4657 0d3f 2af9 f3be a2dc 4bbe
00000020: 787b 5c3e d8c9 023f 8d26 093f b401 0b3f
00000030: 91aa cc3d ad09 09bf 855d 963d 4707 c8be
0.30773267 -0.09364984 0.040866595 0.15631072 0.35040504 0.55211294 -0.47651035 -0.19908383
0.21531475 0.5108924 0.5357445 0.54299474 0.099934705 -0.5353039 0.07342056 -0.39068052

head.module_0.att_dst f4 [1, 1, 16]
00000000: c434 0fbf aaa2 053f cb55 e43e 6744 16bf
00000010: 4505 ec3d 757d c2bd 112e d4bd 9548 88be
00000020: 4d3e 643e 6d31 b1be aec6 643e e7c9 9c3e
00000030: 9062 dc3e 0080 5d3e 2811 15bf 7c46 c8be
-0.5593989 0.5220133 0.44596705 -0.58698124 0.115244426 -0.09496585 -0.10360349 -0.26617876
0.22289391 -0.3460802 0.22341415 0.3062279 0.43043947 0.2163086 -0.58229303 -0.39116275

head.module_0.bias f4 [16]
00000000: 0000 0000 0000 0000 b4cb 0cbc 9823 243c
00000010: 0cd0 d5b9 0d98 dc3c 0000 0000 2049 ae3c
00000020: 0000 0000 0e39 553c b6ff 0ebb 1d0c 373b
00000030: 42fb 97bb 0000 0000 ae88 b13c 0000 0000
0.0 0.0 -0.0085934885 0.010018252 -0.00040781533 0.026927972 0.0 0.021275103
0.0 0.013014091 -0.0021819896 0.0027930804 -0.0046381066 0.0 0.02167162 0.0

head.module_0.lin.weight f4 [16, 2]
00000000: 2236 b6be 2450 7dbe 7222 d8be cc4b 0fbf
00000010: 4f30 b1be 3574 f93e 9b14 8a3e d96e 953e
00000020: 262e 483d 5f1d 8ebe 842d ed3d 173e 05bf
00000030: 1925 dfbe 2ff2 a1be ff44 c23e 0844 b53e
00000040: 1d6c 73be ec3c 24bb 0116 c63e 5470 173f
00000050: b36a 723e b998 b13d e931 cc3e b404 a8be
00000060: 2499 f63d 92f8 dbbe 756b d6be aa40 a2be
00000070: d167 8f3e 65a8 803e 59ab b8be c87a 1f3e
-0.35588175 -0.24737602 -0.4221378 -0.5597503 -0.3460717 0.4872147 0.26968846 0.29186133
0.048872136 -0.27756783 0.11580947 -0.52047867 -0.4358299 -0.31630084 0.37943265 0.35403466
-0.2377171 -0.0025060726 0.38688663 0.59155774 0.23673515 0.08671708 0.39881828 -0.32816088
0.12040928 -0.42963082 -0.41878858 -0.3168996 0.28008893 0.25128475 -0.36068228 0.15574181

head.module_2.att_src f4 [1, 1, 16]
00000000: 528e 9fbe fa63 05bd 5dd9 9cbd 4d74 e3be
00000010: 724a f43e 1bfd 8fbe 228b 6b3e 4aee 093f
00000020: bc5e a33e fbef d03d 8b48 063f f053 833d
00000030: f092 96be 28d4 143f 0ee1 233e da81 0fbf
-0.3116327 -0.03256605 -0.07658646 -0.44424668 0.47713047 -0.28122792 0.23002294 0.53879225
0.31908214 0.10202023 0.5245444 0.06412494 -0.2940898 0.58136225 0.1600382 -0.5605751

head.module_2.att_dst f4 [1, 1, 16]
00000000: 444d 30be ad29 cbbe 559d 033f 326d babd
00000010: 7360 0cbf ebe9 39bd ecd4 c23e 7908 1e3e
00000020: fee4 473e 324b 7d3d 4da5 683e fd6b 19be
00000030: 2361 79be 0536 0cbf bce9 e1be 8395 873e
-0.17216974 -0.39680234 0.51411945 -0.091028586 -0.5483467 -0.045389097 0.38053071 0.1543292
0.19520947 0.06183929 0.22719307 -0.149826 -0.24353461 -0.5476993 -0.44123638 0.26481256

head.module_2.bias f4 [16]
00000000: f6d1 803c c118 713c 9afc 78ba e092 83bc
00000010: 01ca 0b3a 0000 0000 e000 e53c 8e10 cf3c
00000020: d5e9 973c 3d55 82bc ac68 623c 97ce 343a
00000030: 82a0 df3c 6376 753c a549 d23b b6cb 483c
0.015725117 0.014715374 -0.000949809 -0.016061246 0.000533253 0.0 0.027954519 0.025276449
0.018544117 -0.015909785 0.013818901 0.00068972394 0.027298216 0.014981839 0.0064174705 0.0122556

head.module_2.lin.weight f4 [16, 16]
00000000: b792 9fbd 849f 2c3e 748c 7a3d 2851 3a3e
00000010: 6150 13be 7542 673e 4eda 9abe 109e c53d
00000020: 8a00 96be d811 dcbe 9c14 b2be 6833 b13e
00000030: 3389 733e 3901 d03e 1535 b13e 8bfd c5be
00000040: f34b 97be 064b 8fbd 1165 89be fb60 a13e
00000050: ec66 a5be 8fc1 44be 542f d6be d5cc 6cbe
00000060: 6658 b63e 13f8 bc3e fc5b a63e f183 b13e
00000070: 27a3 c73e 4714 e3bd 3d7a 523e 8185 c53e
00000080: cbaf 123e 78a1 dd3e 78f8 573e e5bc 813e
00000090: 37e2 1abe 043a 5c3e f1cc 4b3d 4ba8 f4bd
000000a0: a7f3 79be dec9 84be be3f b2be 9f5f 933e
000000b0: 551b 9e3e 47dc 49bd 7f4d 88be e65a ab3e
000000c0: bbc6 8d3e 1fd7 033d 4ad7 63be 7eba c13e
000000d0: 4744 303e 5223 b1be 0b30 d43e ea3c 9e3e
000000e0: f89d 21be cb22 653e ee42 88be be76 abbd
000000f0: 40f4 b83e a291 923c 9812 a7be 5733 14be
00000100: 64b8 f0bd 5817 abbd 9d42 763d 0c97 d63e
00000110: dc41 bb3c 4d9b 91be abcf b53c d8fc 673e
00000120: 5cf2 5b3e d606 c1be 8755 73bd 34a8 9cbe
00000130: 20ed 3ebe 82c1 1f3e a6e4 93be 57d3 243e
00000140: 1e2d bc3e 5ba8 e83c 79c3 9cbe b04a 32be
00000150: b390 c13d e9dc a1be c649 5c3e 1b08 d3be
00000160: 031f d5be 3f35 e1be 429a dabd 8f1c 8d3e
00000170: a573 d1be b946 b83e f5e9 44be c4dd 013e
00000180: b6c3 a13c d3e9 c7be 45fe c43e b789 843e
00000190: 3a13 df3e 0047 773e c556 92be f548 c63e
000001a0: f8a4 be3c bab5 6c3e beb0 a4be 04bf ddbd
000001b0: 8fa4 d6be f3b3 2cbe 1580 f43d 8312 aebe
000001c0: 7657 0d3e d805 6e3e eeba a93d 7558 88be
000001d0: 0e53 abbe 1d29 dcbd e1a2 423e a5d5 e63e
000001e0: 82f8 7e3e 66aa cebc f1dc 333e c4c3 cebe
000001f0: c4be bcbe 73e5 4e3e 1f77 62be fa51 553e
00000200: c681 9cbe 939f 5bbe 0275 aebe 4d24 793e
00000210: 06af 23bd f726 b53e 9c34 893e ad97 833e
00000220: 8121 643c d495 eebd 57a0 9cbd 9cc7 923d
00000230: 1563 603e 9152 9bbe d930 c33e 89d8 40bd
00000240: 4ec6 b9be 62e8 6fbe 52bd bc3e 9d97 c23e
00000250: 15b5 cfbe 9a68 943e 6c37 5e3e d20f 763e
00000260: 7aad bb3e 2d52 7fbe b2a9 f63d 446a 283e
00000270: e306 08be 0a63 143e 8855 10be f111 893e
00000280: ae0c f6bd ab4c 25be 99b2 dc3d 19f7 1a3e
00000290: e6bf 55be 1dd9 633d 097c 803e 5804 38bd
000002a0: 74f1 063e ab3e dabd 0eed 193e b9d7 9fbe
000002b0: 303b 80be 7411 61be 5fbe ca3e 60a0 eebd
000002c0: e4f6 9aba e6d3 56be 73f8 e53e 1648 e13e
000002d0: 6d40 a7be 85bb b7be 870c a8be ab7d 873c
000002e0: 240d e2bd 8924 88be 20cc 13be d0e2 bb3d
000002f0: 6f2e 68be 6980 c43d 4067 aabd 9adb 56be
00000300: 6eab 733d f54b b63e 99d8 9ebe bfd6 603b
00000310: c047 22be 7004 e73e db57 d2be b71d dbbe
00000320: 5a76 da3e e69b 94be 4f0e 8e3d f7ad 3ebd
00000330: 5e8f b6bd 2a11 c6bd 6932 893e 1c8c a93c
00000340: 50da d7be 63e2 82be 67a4 07be 06c2 6f3e
00000350: 9895 8dbe 8f68 d53e c284 c5bd 31d2 7bbd
00000360: 7eb7 ad3e 1686 6f3e cc81 c43e 50cb 863e
00000370: a857 02be ef17 93be 5b77 80bc 447d b73e
00000380: c5d0 14be a999 cdbe ffc8 3e3e 20e5 dc3e
00000390: a50a f9bd 42ec babe ef18 c9be 2e76 f23d
000003a0: 4a4c 06bd 36b6 55be e9ac c83d 8fd7 313e
000003b0: 0841 b13e 3920 ac3e db88 5fbd 6f7d c3be
000003c0: e355 c8be 5600 cf3e c59d 503e e2a0 4f3e
000003d0: a681 bebe 7c53 d43e 4107 d23e d240 cf3e
000003e0: 6006 bbbe ed0c 19be 2d50 91be 8d5a d83e
000003f0: 9b8e 3bbe 4670 4abe 10db 763e a31d 4dbe
-0.077916555 0.16857725 0.061169103 0.18195021 -0.14386131 0.22583945 -0.30244678 0.09649289
-0.29297286 -0.42982364 -0.3478135 0.34609532 0.23782806 0.40625933 0.3461081 -0.3867
-0.29550132 -0.069967315 -0.2683492 0.31519303 -0.32305086 -0.19214462 -0.41832983 -0.23125012
0.35614318 0.36908016 0.32492054 0.34670976 0.38991663 -0.11087852 0.20554443 0.38578418
0.14324872 0.43287253 0.21090877 0.25339428 -0.15125357 0.21506506 0.049755994 -0.11946162
-0.24409352 -0.25935262 -0.34814256 0.2878389 0.30880228 -0.04928234 -0.26621625 0.33467788
0.27690682 0.032187577 -0.22250095 0.37837595 0.17213546 -0.3459726 0.41442904 0.3090585
-0.15782917 0.22376554 -0.26613563 -0.08372258 0.36123848 0.017891709 -0.32631373 -0.1447271
-0.1175392 -0.08354062 0.06012212 0.41912115 0.022858553 -0.28438798 0.02219375 0.22655046
0.21479172 -0.37700528 -0.059407737 -0.3059708 -0.18645144 0.15601161 -0.28885382 0.16096245
0.36753172 0.02840059 -0.30617884 -0.17411304 0.09451427 -0.31613854 0.21512517 -0.4121712
-0.41625223 -0.43985936 -0.106739536 0.2756085 -0.40908542 0.35991457 -0.19229873 0.12682253
0.019746643 -0.3904558 0.38475242 0.25886318 0.43569356 0.24148178 -0.28581825 0.38727537
0.023272023 0.23116198 -0.32166094 -0.10827449 -0.41922423 -0.1686552 0.11938492 -0.33998498
0.13802895 0.23244417 0.08287607 -0.26629987 -0.33461803 -0.10750029 0.19007446 0.45084873
0.24899486 -0.025227737 0.17564751 -0.40383732 -0.36864293 0.20204715 -0.22115754 0.20832053
-0.3056776 -0.21447591 -0.34073645 0.24330254 -0.039961837 0.3538129 0.2679795 0.25701657
0.013924004 -0.11649671 -0.0764777 0.07166979 0.21912797 -0.3033643 0.38123205 -0.047081504
-0.36284107 -0.23428491 0.3686319 0.38006297 -0.40567842 0.28986055 0.2170083 0.24029472
0.3665579 -0.24933691 0.120440856 0.16446787 -0.13283877 0.14490905 -0.14095128 0.267715
-0.12014137 -0.16142528 0.10776252 0.15133323 -0.20873985 0.055626977 0.2509463 -0.044926018
0.13178045 -0.10656484 0.15031835 -0.3121927 -0.25045156 -0.21979314 0.39598367 -0.11651683
-0.0011822847 -0.2097927 0.44916114 0.4400031 -0.3266634 -0.35885254 -0.32822058 0.016539415
-0.110376626 -0.26590374 -0.14433336 0.091741204 -0.22673963 0.09594805 -0.083204746 -0.20982209
0.05948966 0.35604826 -0.31024626 0.0034307686 -0.15847683 0.45120573 -0.41082653 -0.42796108
0.4266842 -0.2902519 0.06936323 -0.046552625 -0.08914064 -0.096712425 0.26796272 0.020696692
-0.42158747 -0.25563344 -0.13246308 0.23413858 -0.27653193 0.41681334 -0.09644462 -0.06147975
0.33929056 0.23390993 0.38380277 0.2632699 -0.1272875 -0.28729197 -0.015681913 0.35837758
-0.14532764 -0.40156296 0.18631361 0.43143559 -0.121602334 -0.36508375 -0.39276835 0.11838947
-0.0327876 -0.20870289 0.09798605 0.17367385 0.34619927 0.33618334 -0.054573875 -0.38181636
-0.39128026 0.40429944 0.20372684 0.20276216 -0.3720829 0.41469944 0.4102116 0.4047914
-0.365283 -0.14946337 -0.28381482 0.42256585 -0.18316118 -0.19769391 0.24107003 -0.20030837

head.module_4.att_src f4 [1, 1, 16]
00000000: db7d f6be 521c 08bc 4f4e fa3e c8bb 06bf
00000010: 27e9 7cbe 0f14 0a3f 88a5 efbd bffc 6e3e
00000020: 4fb1 12bf b8d1 2dbe 4ea6 90be 9571 053f
00000030: 2cab 6c3e 9c14 e7be 24ff a03d 807d c5bc
-0.48142895 -0.008307533 0.4888787 -0.5263028 -0.24698316 0.53936857 -0.117014945 0.23338602
-0.573018 -0.16974533 -0.2825188 0.5212644 0.23112172 -0.4513291 0.07861164 -0.024107695

head.module_4.att_dst f4 [1, 1, 16]
00000000: 256e 6bbe 868c b4be 4d0e 38be 4cc0 e83e
00000010: c3a3 d2be 41a1 d1be ee85 49be 1527 c73a
00000020: 9dff 253e f717 ff3c 9654 02be f660 afbe
00000030: 5804 f3bd 6fbd 81be 3ce4 ee3e be79 17bf
-0.22991236 -0.3526346 -0.17974205 0.4545921 -0.41140565 -0.4094334 -0.19679996 0.0015194142
0.1621079 0.031139357 -0.1272758 -0.34253663 -0.11866063 -0.2533984 0.46658504 -0.5917014

head.module_4.bias f4 [16]
00000000: bf79 8f3c 0000 0000 cd73 a53c 3f4e 0bbb
00000010: a5d5 8a3c 299e 6a3c 0000 0000 17f0 853c
00000020: 3d7f 8bbb 5d17 51bc 69dd 843c 0abb 11bc
00000030: 0000 0000 0000 0000 0000 0000 0000 0000
0.017514108 0.0 0.02019682 -0.0021256355 0.016947577 0.014319935 0.0 0.016349835
-0.0042571113 -0.012761918 0.016218858 -0.008894691 0.0 0.0 0.0 0.0

head.module_4.lin.weight f4 [16, 16]
00000000: 2c13 c4be 1a87 31bc 36e7 133e b5fa 133e
00000010: 645f bc3e 87db d93e d236 d23e d6db 9f3e
00000020: 3daf a43e 549c 2bbd 015d a3be a37f 1ebe
00000030: 4400 7fbd bc5a 5ebe 360c 743e c53a 2c3e
00000040: 3ec3 8e3d 0d2e ba3d 4cc1 c23e 1b43 153e
00000050: 916e c2be f9ed a0be 0a42 353e bf72 373d
00000060: 5b2e 4a3e c7ff e2be ed77 d3be 71f0 873e
00000070: d0ba 8d3e a593 cfbe 4c9a 1b3e 70ce b3be
00000080: 391f b03e 0f96 1f3e 2735 db3e 6e77 d1be
00000090: 4af5 d5be bde4 953e 0758 cf3e 3060 963e
000000a0: be28 9e3e 55c5 b1be df7c ab3e 69f2 d1be
000000b0: a667 fc3d b9ba 86be 75e5 1bbe 179c c53d
000000c0: dfaf 29be 8fa1 b4bd 8f22 d2be 49a6 dabe
000000d0: c776 2c3e 0caf 3bbe 9c10 91be 8327 41be
000000e0: 7412 bfbe 203f babe abdc 753e a936 623e
000000f0: 0102 863d c208 83be 51fb 003e cf4d 0c3a
00000100: cad8 98be 488d e23d dddd c93e d839 d2be
00000110: 9991 debe b73e 633d 23f4 af3e 180d 75be
00000120: 7e65 e83d 5864 a33e f743 1b3e 96b8 b63d
00000130: c05c ea3e ab82 993e 6052 67be 2d36 5f3d
00000140: c68a 573e ea16 cb3e 0592 dcbe f1f4 7c3e
00000150: 73d1 f3bd 8618 d9be 8c87 e23d 7284 5dbe
00000160: 23e4 9c3d 29e2 89be 564d 9fbe 1733 f4bc
00000170: c972 2ebe 7e4c 893e 93c6 573d 2253 b43e
00000180: b3f8 a93d 08a9 1ebe a32a 963e 7824 1a3c
00000190: 1ad4 a63d ec9b 0ebe 7015 69bc 1dd4 c9bd
000001a0: 264e 56bd d79a b3be d971 91bc 7fe8 b7be
000001b0: 15bc b9bd a70c 713e ca83 a1be 491b 9dbe
000001c0: 41da b3bd 1b9e c4bd 2f20 963d 2950 bd3d
000001d0: eda9 5f3e ffb9 98be ec36 e5bb cf5a 883e
000001e0: caac cb3e 4d01 47bc 9420 68be 1e50 fc3d
000001f0: 9e7f 873e 8b37 7dbe 608a 6cbe 81b8 5a3e
00000200: 637f 14bd 3846 d4be b2a5 7fbe 659f 2f3e
00000210: 83e9 0dbe 8806 993e 754b ac3e 93be 4c3d
00000220: a8ee 25bd a2c8 10be 3fad e8bc 73f1 b23d
00000230: 389c adbe 37f4 dfbd ea52 bbbe 5764 853e
00000240: 8d74 8ebe c00f c33e f897 e4bd 0639 85be
00000250: f973 5c3e 6f34 843d ce1a 923e 9039 233e
00000260: 8c66 ddbe bf50 863e 4fab c5bd 7328 3cbe
00000270: 9e24 933e 8516 9a3e 6190 cabe fd39 5abd
00000280: 19cf bc3e 74e1 3c3e edc3 ba3e 9c2b 09be
00000290: 3c42 78be e5a4 be3e e527 4a3e 173c e13e
000002a0: 9a30 27be 4f38 87be 3edc 07bd 4fb4 d2be
000002b0: 2d49 493e 554a ac3e 6d91 f73d 0fcc d7bc
000002c0: 9f67 613e 1fa0 92be 58e1 d83e bb22 e1be
000002d0: bfe2 d1be ff8d d1bd 8652 af3e 0911 cd3c
000002e0: 4ff0 1d3e 6ffa a6be 0386 153e a330 30bd
000002f0: d4f3 433e 6493 963e db76 343e 8734 43bd
00000300: f3e9 f3bc 150b 82be 6b61 20be 2f75 983e
00000310: a048 32be a2af 893e 78b2 1dbe 3eda aebd
00000320: d946 d73c cabc c3be 467f 493c bc10 35bd
00000330: b59b 32bd cfe4 8dbd 30e4 b63e 9727 ac3e
00000340: 0c28 94be acae 3c3e 4ae6 adbe 6dbf c4be
00000350: 4f56 083e 1b87 d03b 5825 60be ff3b dfbe
00000360: affc 3cbe 44eb 043e 5ab4 d5be 75e7 d6be
00000370: 341a 7d3d 9155 a8be a1a3 cabe 13a3 3bbe
00000380: 3576 91bd 6afc c1be 7209 94be a6be 293d
00000390: 5128 d1be 474a 79bd 83a5 87be ff6b 91be
000003a0: 3b61 3d3e f868 a4be 53a0 a0be 1da1 7c3e
000003b0: 8060 a23d 6b64 d13e ef81 d0bd 0db4 47be
000003c0: bde9 23bd 6a87 42bc 8414 a93e b72f e3be
000003d0: 2083 fcbc 2324 443e 5b56 81be 6286 71be
000003e0: f5a6 473e ab59 dabe b277 b53d 9da2 abbe
000003f0: 927c 5c3e b9cb c4be 2d76 813e 62d7 d8be
-0.38295877 -0.010835433 0.14443669 0.14451106 0.36791527 0.425503 0.4105745 0.3122241
0.32164946 -0.041897133 -0.31906894 -0.15478377 -0.062256113 -0.217143 0.23832783 0.16819294
0.06970833 0.09090815 0.380381 0.1457638 -0.3797498 -0.3143156 0.17700973 0.044787165
0.19744246 -0.44335768 -0.41302434 0.2655063 0.2768159 -0.4054233 0.15195578 -0.35118437
0.3439882 0.15584587 0.4281399 -0.4091143 -0.41788703 0.29276076 0.40496847 0.2937026
0.3089046 -0.34720865 0.33493707 -0.41005257 0.12324457 -0.26314333 -0.1522425 0.096489124
-0.16570996 -0.08819877 -0.4104199 -0.4270499 0.16842185 -0.18328494 -0.28332984 -0.18862729
-0.37318766 -0.36376286 0.2400996 0.22091164 0.06543351 -0.2559262 0.1259587 0.00053521706
-0.29852897 0.110621035 0.3942708 -0.41059756 -0.43470457 0.05547973 0.3436595 -0.23930776
0.11347483 0.31912494 0.15162645 0.08921926 0.45773888 0.29982504 -0.22590017 0.054495025
0.21049032 0.3966592 -0.43080154 0.24702813 -0.11905184 -0.42401522 0.1106101 -0.21632555
0.07660701 -0.2693036 -0.3111369 -0.029809518 -0.17035975 0.2681617 0.05267961 0.35219675
0.08299389 -0.15494168 0.29329404 0.009408109 0.08145924 -0.13926667 -0.0142263025 -0.098549105
-0.052320622 -0.3507907 -0.017754482 -0.35919568 -0.09069077 0.23539983 -0.3154586 -0.3068488
-0.08781863 -0.09600469 0.07330357 0.09243805 0.21842165 -0.29829404 -0.0069950726 0.2663178
0.39780265 -0.012146306 -0.22668678 0.12319969 0.26464552 -0.24728219 -0.23099661 0.21359445
-0.036254298 -0.41459823 -0.24965551 0.17150648 -0.13858609 0.29887795 0.3365132 0.049986433
-0.040510803 -0.14139035 -0.028402923 0.08737459 -0.33908248 -0.10935252 -0.36586696 0.26053116
-0.27823296 0.38097954 -0.11161798 -0.26020068 0.21528615 0.064553134 0.28536075 0.15939927
-0.432423 0.2623348 -0.09651815 -0.18374805 0.28738874 0.30095306 -0.39563277 -0.05327796
0.36876753 0.18445379 0.36477605 -0.13395542 -0.24244016 0.3723518 0.19741781 0.43991157
-0.16327134 -0.26410148 -0.033169024 -0.4115319 0.1965682 0.3365046 0.12088285 -0.02634242
0.22012185 -0.28637788 0.42359424 -0.4397181 -0.40993306 -0.10232162 0.34242648 0.025032537
0.15423702 -0.3261294 0.14601903 -0.043015134 0.19135982 0.29409325 0.17623465 -0.047657516
-0.029774642 -0.2539908 -0.15662162 0.29776904 -0.17410517 0.2689181 -0.15400112 -0.0853772
0.0262789 -0.38229972 0.012298411 -0.044205412 -0.043605525 -0.069284074 0.35720968 0.33623955
-0.28936803 0.18426007 -0.3396476 -0.38427296 0.13314174 0.006363762 -0.21889246 -0.4360046
-0.18455766 0.12980372 -0.4173916 -0.41973463 0.061792567 -0.32877782 -0.39577964 -0.18323927
-0.07102624 -0.3788789 -0.28913456 0.041441582 -0.4085107 -0.060861852 -0.26493463 -0.28402707
0.18494122 -0.32111335 -0.31372318 0.24670835 0.07928562 0.40896925 -0.10181033 -0.19502278
-0.040017832 -0.011873106 0.33023465 -0.4437234 -0.030824244 0.1915441 -0.25261196 -0.23586419
0.19497283 -0.42646536 0.08860721 -0.33522502 0.21531895 -0.38436678 0.25285473 -0.42351824

head.module_6.att_src f4 [1, 1, 16]
00000000: b2ae 063e a986 083f 3735 15bf 3319 9cbd
00000010: 8d1a f53d 33b3 01bf 74ef 923e a23d 6abe
00000020: a7c8 64be ddfa edbe d517 713e 761b e0be
00000030: 8670 ebbd 5702 813e 18ef e83e 7c4f 003e
0.13152578 0.53330475 -0.58284324 -0.07621994 0.11967955 -0.5066406 0.28698313 -0.22875074
-0.22342168 -0.46480456 0.23544247 -0.4377095 -0.114960715 0.25197098 0.45494914 0.12530321

head.module_6.att_dst f4 [1, 1, 16]
00000000: 3166 63be 5225 78be 9a63 b03e 8a49 c73d
00000010: 44e9 033f 0ba7 513e 5932 ee3e b4e5 ecbe
00000020: f7d6 fc3e bd9c 92be 577c 2abe 18bb c337
00000030: f8aa ddbd dc99 063e 3a5d 053f cab9 adbe
-0.22206952 -0.24232987 0.3445099 0.09730823 0.5152781 0.20473878 0.46522787 -0.46269
0.49382755 -0.28635207 -0.16648994 2.3332934e-05 -0.10823625 0.1314463 0.5209538 -0.33930808

head.module_6.bias f4 [16]
00000000: c159 603c 2cc8 78bc 6de3 d33a b7f6 6e3c
00000010: 6767 633c 31db 6f3c 46b8 783c 6f08 75bc
00000020: a873 7bbc a7f5 883c 038b 6e3c 3c69 763c
00000030: 6fce 68bc 9d6d 623c 3092 7f3c 4bcb 76bc
0.013693274 -0.015184443 0.0016165801 0.014585189 0.0138796335 0.014639662 0.015180653 -0.014955624
-0.015347399 0.016718699 0.01455951 0.015039738 -0.014209374 0.013820079 0.015598819 -0.015063117

head.module_6.lin.weight f4 [16, 16]
00000000: 83a8 42be c3f2 9fbd 3bf4 bdbd 83e7 c1be
00000010: fda1 72bd 0779 173e 480c 34be 509f 02bb
00000020: a2ff 58ba 1360 d5be ef35 ab3e 1d39 bf3e
00000030: 7128 973e 0c9d 11be 07b5 673e d2b7 cfbe
00000040: 206d 00be fc5c b4bd 69b2 37be 7867 373e
00000050: 953f 5ebe 4e6b 89bd e208 00be 2644 d9be
00000060: caa2 9dbd a92f c4be 6aa8 6b3e ee65 503e
00000070: 6bb0 cf3e 8ae5 14be 8862 b43c c2b7 ad3d
00000080: 4af8 d93e 2b37 cb3e 194b 66be b315 bcbe
00000090: 3c1e cabe 7b90 5cbe 8c67 ba3e ebea 1b3e
000000a0: ba6f d83e d2bb a23e d899 f53a bb2d 88be
000000b0: 1d7e d83e e7d7 b13e 16f8 3f3e 4837 72be
000000c0: bb80 b73e 7d6d 213d b3d6 9e3e b3e2 3b3e
000000d0: b2df 7d3e c03d babe 16dc 75be 3020 8e3e
000000e0: 3558 b5bd 0b15 b9be 251e d43e 8ba0 7a3c
000000f0: 06d8 b23e 5149 adbe 5fa9 183e 4c04 27be
00000100: f1b6 29be 35f6 b8bd 959e 0cbe dd8d 753e
00000110: e575 85bd 8a04 b03e e85a ca3d d345 4abd
00000120: 8631 7fbe 829d c3be 406d dabd d03f c1be
00000130: c54c a4bd a3e8 e73b 0499 e4bc dbce 59be
00000140: 86bb a23e 7eb7 793e cf95 a9bd 864f 2cbe
00000150: 1799 943e bc30 c93e d6ff cabe 59e2 9abd
00000160: 06b4 1dbd 92ea 10be c7c2 c73e 46e7 20bd
00000170: 5bf8 bb3e 134a 0c3b 0763 40bd c751 81be
00000180: fc18 01be d3e0 0e3e 682b 5d3e 8082 55bc
00000190: 44c9 dc3e f9d7 90be e701 2a3e 99a1 d03e
000001a0: 0fb9 95bd 3a25 b83e 19e7 e63c be0d 99be
000001b0: 5f42 73be cf0a 253e 0ee2 3fbe a149 d53d
000001c0: 9f89 d13e b29d 163e 04e3 81bd 5945 dc3d
000001d0: 01aa 88be 3179 c2be 57a7 a6be 8ba9 c1be
000001e0: b807 b63d cb03 8e3d e5c2 50be edce e4be
000001f0: d231 703e 9597 7bbe 080d 94bd bfe4 b9be
00000200: bf7c 85be 86f8 383e 68ce d9be e24a 7bbe
00000210: 919b 9d3e 255c 73be 8f86 38be de22 f3bd
00000220: 8730 3f3e 2ee3 98be 8585 c63c e182 1e3e
00000230: b6c0 00bd 105a a03d 0e20 a9be 9176 483e
00000240: 4391 353e 0c78 5ebd c8d4 acbe d348 2f3e
00000250: 99bb 983e e89b 79bd 55fe 503e e4e2 1c3e
00000260: cf93 35be 3111 86bc 55f3 e53e f7b8 b43c
00000270: 1780 b0be dc58 01bd 3b97 5c3e e5bc 10be
00000280: 0d46 56be 3aa2 b63e a4ec 813e a9f8 90bd
00000290: 0d14 263d f464 f1bc 02e3 cd3d 2521 083d
000002a0: 21ae 84be 8acc c33d 3882 043d acb5 5b3d
000002b0: edf9 28be 8438 e33d 6347 b3be 448b 043e
000002c0: d130 813e 4931 43bd ffdd 9fbe c902 4b3a
000002d0: 9566 9b3c 9c17 b7be 22cf 9cbe dcfe d53e
000002e0: 7fbb a63e fcdd 823e 8a3c a43e 9726 443e
000002f0: 188b 793e a0d6 923e 652a cfbd 5977 61bd
00000300: 6c81 9d3e 3484 23b9 20d5 96be f842 adbe
00000310: 9714 733e 3172 b73e 482d ac3e 280e 623d
00000320: ac0a 933e fd06 cdbe 05ad a2be d964 dfbe
00000330: 669f b23e d463 80bb 202c 4cbe 5209 163e
00000340: 2cfa 14be 0730 8ebe bd4e 433e 5814 a83d
00000350: 1ad1 95be 5919 8abe 30e6 4f3e b7b0 b13e
00000360: 6307 1a3d 37dd 4fbe fab4 6a3e db05 cd3d
00000370: 9118 c2be 56ac 8fbe 281a c23d 102f 893e
00000380: 74cf f9bd b366 563e 5d26 7bbe 5312 d43e
00000390: 29fd a63e 714a c73d 7f44 453e 9394 253e
000003a0: e610 83be 6c4d 3c3c 1ea9 0a3e 6574 98bd
000003b0: c099 d43e 3efe 2abe ebfe c5be 3318 53be
000003c0: 5373 d6be 8cb1 b63e 3781 5ebe 3831 9cbe
000003d0: 1aa7 83bd 1a97 9dbe 7d9f 67be d09d 533e
000003e0: 1767 a6be d3b3 413e b77f 973e cc28 c7bc
000003f0: 57e3 443e 8b60 78be 28e3 ac3e fb5e d73e
-0.19009595 -0.07809975 -0.09275099 -0.37871942 -0.059236515 0.14792262 -0.1758281 -0.0019931383
-0.00082778384 -0.4167486 0.33439586 0.3734826 0.29523042 -0.14220065 0.2262765 -0.4056993
-0.12541628 -0.08806798 -0.17939152 0.17910564 -0.21703942 -0.0670992 -0.12503389 -0.42434806
-0.07697065 -0.38317612 0.23013464 0.20351383 0.40564284 -0.14540687 0.02201964 0.08482315
0.42572242 0.39690527 -0.22489585 -0.36735305 -0.39476192 -0.2153949 0.36407125 0.15226333
0.4227274 0.3178392 0.0018737866 -0.2659739 0.42283717 0.34735033 0.18746981 -0.236539
0.358404 0.039411057 0.31023178 0.18348198 0.24792364 -0.36375237 -0.24009737 0.27758932
-0.08854715 -0.36148867 0.41429248 0.0152970655 0.34930438 -0.33844998 0.1490836 -0.16310233
-0.16573693 -0.09031335 -0.13732369 0.23979898 -0.06516627 0.34378463 0.0988062 -0.049382996
-0.24921235 -0.38206106 -0.10665369 -0.37743998 -0.08022455 0.007077293 -0.027904995 -0.21270315
0.31783694 0.24386403 -0.08280527 -0.16827211 0.29023048 0.39294994 -0.39648312 -0.07562704
-0.03850176 -0.14151981 0.3901579 -0.03928306 0.36712918 0.0021406456 -0.04696944 -0.25257704
-0.12607187 0.13952951 0.2159859 -0.013031602 0.43122303 -0.28289774 0.16602288 0.4074829
-0.07310688 0.35965902 0.028186368 -0.29893297 -0.23755787 0.16117404 -0.18738577 0.10414434
0.4092531 0.14708593 -0.06342128 0.107554145 -0.26692203 -0.37983087 -0.32549545 -0.37824664
0.08888191 0.06934317 -0.20386846 -0.44689122 0.23456505 -0.24569543 -0.07229048 -0.36307332
-0.26071736 0.18063554 -0.42540288 -0.24540284 0.3078275 -0.23765619 -0.1802008 -0.11871885
0.18670855 -0.29860824 0.024233589 0.15479614 -0.031433783 0.07829678 -0.33032268 0.1957648
0.17731194 -0.054313704 -0.3375609 0.17117624 0.29830626 -0.0609397 0.2040952 0.15320927
-0.17732166 -0.01636562 0.4491221 0.022060854 -0.34472725 -0.031578884 0.21542065 -0.14134558
-0.2092516 0.35670644 0.25375855 -0.07078678 0.040546466 -0.029467084 0.10053064 0.033234734
-0.259141 0.09560497 0.03235075 0.053640053 -0.16501589 0.11094764 -0.350154 0.1294375
0.25232556 -0.047654424 -0.31224057 0.00077442505 0.018969813 -0.357602 -0.3062678 0.41796005
0.32564923 0.25559986 0.32077438 0.19155346 0.24369466 0.2867937 -0.10115508 -0.05504546
0.30762804 -0.00015594141 -0.29459476 -0.33840156 0.23738323 0.3582931 0.33628297 0.05518928
0.2871908 -0.40044394 -0.31772628 -0.43631628 0.34887236 -0.0039181504 -0.19938707 0.14651993
-0.14548558 -0.27771017 0.19073005 0.08207005 -0.29261094 -0.26972464 0.20302653 0.34705135
0.0376047 -0.2029923 0.229206 0.100108825 -0.37909368 -0.2806117 0.09477645 0.26793718
-0.12197772 0.20937614 -0.24526353 0.4142023 0.3261502 0.097309954 0.1926441 0.16169958
-0.2559883 0.011493068 0.13541076 -0.074440755 0.41523552 -0.16698548 -0.3867105 -0.206147
-0.4188486 0.35682333 -0.21728979 -0.305063 -0.064283565 -0.30779344 -0.22619434 0.2066567
-0.32500526 0.18916254 0.29589626 -0.024311446 0.19227348 -0.24255578 0.33767056 0.42064652

head.module_7.weight f4 [2, 16]
00000000: fc51 963d c3f6 5fbe 0cdf 933c 18f8 663e
00000010: 0bce 1a3e d0b0 6d3e 46fd 223e 1bd9 29bd
00000020: 4503 3e3d 027d aebd aefc 683e 98b3 1b3e
00000030: 612e 3ebe 9917 503e bdd6 613c a101 edbc
00000040: c046 81bd c0ad 4abd f77c 1c3d 8340 13be
00000050: 09c6 5dbe c557 15be c9ac 90bd 54e3 543e
00000060: 6e85 4e3e bbbb 2bbe 08b2 d0bc f396 bdbd
00000070: 0cda 0bbe 45c8 fbbc 8aaa d3bd 1a47 203e
0.07339856 -0.21871476 0.018050693 0.22555578 0.15117662 0.2321198 0.15916929 -0.041466814
0.046389837 -0.08519937 0.2275264 0.15205228 -0.1857238 0.20321502 0.013784108 -0.02893144
-0.063123226 -0.049482107 0.038205113 -0.14380078 -0.21657576 -0.14584263 -0.07064206 0.20789844
0.20168087 -0.16770832 -0.025475517 -0.09257307 -0.13657397 -0.030735144 -0.10335262 0.15652123

head.module_7.bias f4 [2]
00000000: 1db8 e0bd 6149 c63c
-0.10972617 0.024204912
